model3/FSRCNN3D_epoch_130.pth (torch, 265282 bytes, 15 tensors)

module.conv_1.weight f4 [56, 1, 5, 5, 5]
0	0xbcdf82fa	-0.027284134
1	0x3db111b1	0.086459525
2	0x3d88ce6b	0.06679996
3	0x3da641ce	0.0811802
4	0x3d66e39d	0.056369413
5	0xbcddec28	-0.027090147
6	0x3d7a98ee	0.061181
7	0xbd7b845c	-0.061405525
8	0x3d2a1198	0.041520685
9	0xbd9cb0ef	-0.07650935
10	0x3c7a7ec8	0.015289016
11	0x3d55aae0	0.052164912
12	0xbdded36b	-0.108801685
13	0xbca64543	-0.020296698
14	0xbd6e90b6	-0.058243476
15	0x3c219729	0.0098627
16	0xbd5243a5	-0.051334042
17	0xbd53d91d	-0.051720727
18	0xbda05894	-0.07829395
19	0xbd215a65	-0.039392848
20	0xbdac79be	-0.08421658
21	0xbd01dc2a	-0.031704105
22	0xbd8d5de0	-0.06902671
23	0xbd98a506	-0.07453351
24	0x3d9b2985	0.075762786
25	0x3d40470f	0.046942767
26	0xbc800595	-0.015627662
27	0xbdb361a5	-0.087588586
28	0xbd009772	-0.03139443
29	0xbdc0a021	-0.09405542
30	0x3d44af85	0.04801895
31	0xbdac662b	-0.084179245
32	0x3d4f876e	0.050666265
33	0xbdbdb127	-0.09262305
34	0xbdf425ca	-0.1192127
35	0x3d70b83c	0.05876945
36	0xbdaeaef5	-0.08529464
37	0xbd1e068d	-0.038580466
38	0xbd816d58	-0.06319684
39	0xbdb52bb1	-0.08846224
40	0xbc94614b	-0.0181128
41	0xb8c16c0f	-9.2230846e-05
42	0x3d454520	0.048161626
43	0xbda66013	-0.081237935
44	0x3b3cf9c4	0.0028835395
45	0xbdda208b	-0.10650738
46	0xbc2e6829	-0.010644951
47	0xbc459bc6	-0.012061065
48	0x3b18e071	0.0023327137
49	0x3d19f23b	0.037584525
50	0x3d5d5aa2	0.054041512
51	0xb9c708d9	-0.0003796283
52	0xbda75a54	-0.081715256
53	0x3ca58c15	0.020208398
54	0xbc05bd05	-0.008162742
55	0xbd262e37	-0.040571418
56	0x3d45c8de	0.048287265
57	0xbb08fbf3	-0.0020902127
58	0xbd015076	-0.031570874
59	0xbd7e94e9	-0.06215373
60	0x3b1b2859	0.0023675172
61	0xbd1141fd	-0.035463322
62	0x3c816553	0.015795385
63	0xbdbafb7f	-0.0913
64	0xbdc4b536	-0.09604876
65	0xbdcade37	-0.09905665
66	0xbd5f3957	-0.054498043
67	0x3d59693e	0.053078882
68	0x3cc80201	0.024415018
69	0xbdcb3023	-0.09921291
70	0x3c32c925	0.010912214
71	0x3c6085fa	0.0137038175
72	0xbd882549	-0.066477366
73	0xbdc1ee4d	-0.094692804
74	0xbdcc11ca	-0.099643305
75	0xbd61ad15	-0.055096705
76	0x3d5d98e3	0.054100882
77	0xbd0545a3	-0.032537114
78	0x3ca252c9	0.019814866
79	0x3c97a088	0.018509164
80	0xbd4bd97a	-0.04976795
81	0x3d57716d	0.052598406
82	0xbdc59520	-0.09647584
83	0xbdaafff4	-0.083496004
84	0xbda4ae2b	-0.080410324
85	0x3d5223bb	0.051303606
86	0xbcc86151	-0.024460467
87	0xbc586df4	-0.013209809
88	0xbd93f529	-0.07224495
89	0xbd251b59	-0.040309284
90	0xbd95c90a	-0.07313736
91	0x3c9ea705	0.01936675
92	0x3c281a1f	0.010260134
93	0xbda978f1	-0.08275021
94	0x3c55a4f1	0.013039813
95	0xbd330dc0	-0.043714285
96	0xbd6549e3	-0.055978667
97	0xbcd5d4c1	-0.026102426
98	0x3d3d607c	0.046234593
99	0xbdaa4edf	-0.08315825
100	0x3d041a8b	0.032251876
101	0x3dc260e5	0.094911374
102	0x3de48c42	0.111595646
103	0x3d630c95	0.05543192
104	0xbd2a34d5	-0.04155429
105	0xbd032d4c	-0.03202562
106	0x3d899978	0.06718725
107	0xbcb0c4dd	-0.021578247
108	0xbdbbe40a	-0.091743544
109	0xbae4b313	-0.0017448388
110	0x3d0141e3	0.031556975
111	0xbcf83e44	-0.030303128
112	0x3d1a67dd	0.037696708
113	0x3aa5771a	0.0012623996
114	0x3bdba28a	0.006702726
115	0xbda20d6d	-0.07912717
116	0x3d1cb149	0.03825501
117	0x3afccfd0	0.0019288007
118	0xbbe6e183	-0.007045926
119	0x3cbf265d	0.023333723
120	0xbd4d9bb4	-0.05019732
121	0xbd4d0482	-0.050053127
122	0xbd82c479	-0.063851304
123	0xbd906fad	-0.070525505
124	0xbd46ae27	-0.04850593
125	0xbd479af2	-0.04873175
126	0xbc60de34	-0.013724852
127	0xbd0b35c2	-0.033986814
128	0xbdb342b8	-0.0875296
129	0xbc1c3ee9	-0.009536483
130	0xbd32c832	-0.043647952
131	0x3db9d9b8	0.0907473
132	0xbdac72d1	-0.08420337
133	0xbd00a136	-0.031403743
134	0x3c908184	0.017639883
135	0xbd29c7ba	-0.04145024
136	0x3bcd3d82	0.006263436
137	0x3d81b256	0.06332843
138	0x3d1a93ae	0.037738495
139	0xbcb78232	-0.02240095
140	0xbdc9f7e9	-0.09861738
141	0xbd1187be	-0.035529844
142	0x3cf51c15	0.029920617
143	0xbda43a54	-0.08018938
144	0x3d45e20c	0.04831128
145	0xbc7c1c4a	-0.015387604
146	0x3d4239d0	0.047418416
147	0x3caee682	0.021350149
148	0x3ccf82e1	0.025330963
149	0x3d096e3a	0.033552386
150	0x3d05b516	0.0326434
151	0x3db1ca3a	0.0868115
152	0x3d854c8e	0.06508742
153	0xbda2b394	-0.07944408
154	0xbd96bb62	-0.07359959
155	0x3d1d10e0	0.03834617
156	0xbce69e97	-0.028151793
157	0xbd1c55b6	-0.038167678
158	0x3d60b8af	0.054863628
159	0x3d37bb52	0.044856377
160	0x3c220378	0.009888522
161	0x3d57f4e8	0.052723795
162	0xbd40ce96	-0.047072016
163	0x3c05d29d	0.00816789
164	0x3d0a271c	0.033728704
165	0x3da9b1aa	0.0828584
166	0xbd852a83	-0.06502249
167	0x3d055d23	0.032559525
168	0x3ac17aa5	0.0014761282
169	0x3d9dd3f8	0.077064455
170	0xbd558953	-0.052132916
171	0xbd99edb5	-0.07516042
172	0x3d52b36f	0.051440652
173	0xbc92ef73	-0.017936444
174	0x3d5eda34	0.054407313
175	0x3dcac7ca	0.09901388
176	0xbd40c4fb	-0.047062855
177	0x3ba1d7df	0.004939064
178	0x3bdc141a	0.0067162635
179	0x3d86c8ff	0.06581306
180	0x3d9c78d1	0.076402314
181	0x3dbb8657	0.09156483
182	0xbdb69c6f	-0.08916556
183	0xbd253611	-0.040334765
184	0x3db7132e	0.08939205
185	0x3d7372f6	0.059435807
186	0xbd0ed694	-0.034872606
187	0x3d0b0e8e	0.033949427
188	0x3cb53098	0.022117898
189	0x3dace6e4	0.084424764
190	0x3c6d5fb3	0.0144881485
191	0xbc1b013a	-0.009460742
192	0x3d80e64c	0.06293926
193	0x3d2de865	0.042457957
194	0x3db34605	0.087535895
195	0x3d919d1f	0.071100466
196	0x3804b424	3.163902e-05
197	0x3d4a8a51	0.049448315
198	0x3cf61475	0.030039052
199	0x3d8d4402	0.06897737
200	0x3cba2eac	0.022727333
201	0x3b9529d7	0.004552107
202	0xbd741183	-0.059587013
203	0x3c7cee1c	0.015437629
204	0xbc9329e8	-0.017964318
205	0xbc411a91	-0.011786119
206	0xbc9cad4d	-0.019125605
207	0xbdbc609a	-0.09198113
208	0x3d91ab22	0.07112719
209	0x3d958bf7	0.07302087
210	0x3d0e0dbf	0.034681078
211	0xbd7dcfb7	-0.06196567
212	0xbb8cca97	-0.0042966115
213	0x3cddb2b3	0.02706275
214	0xbd65f16c	-0.05613844
215	0x3d669b7b	0.05630062
216	0x3d230100	0.039795876
217	0x3c4ceb58	0.012507282
218	0x3dd33348	0.103125155
219	0xbd51a3d8	-0.051181644
220	0x3d6bb508	0.05754569
221	0xbd119945	-0.03554656
222	0x3d61deef	0.055144247
223	0xbd6d78df	-0.0579766
224	0xbdd37044	-0.10324147
225	0xbd05c365	-0.032657046
226	0x3c727742	0.014798941
227	0xbb8a2eb2	-0.0042169923
228	0x3cde5881	0.027141811
229	0xbd995390	-0.074866414
230	0xbd351098	-0.04420528
231	0xbbb4888b	-0.0055094413
232	0xbd8deb92	-0.06929697
233	0x3da7e07e	0.08197115
234	0xbbe8af68	-0.007100988
235	0xbd8d1b96	-0.06890027
236	0x3c89cb3b	0.01682054
237	0x3c9985e7	0.018740607
238	0x3c9724d2	0.018450174
239	0x3c70364e	0.014661385
240	0xbc792f17	-0.015208981
241	0xbd36f060	-0.044662833
242	0xbd4acdb1	-0.04951257
243	0xbd499c78	-0.049221486
244	0x3d843401	0.064552315
245	0xbd8f52a2	-0.06998183
246	0xbc87197c	-0.016491644
247	0x3c4f65ab	0.012658517
248	0xbd4d216b	-0.050080698
249	0xbd2fa981	-0.04288626
250	0x3c14f8f1	0.009092555
251	0xbd55bdd3	-0.052182984
252	0xbd3403de	-0.043949
253	0x3cdf9a89	0.027295368
254	0x3de202b2	0.1103567
255	0x3ce83ab0	0.028348297

module.conv_1.bias f4 [56]
0	0x3cb08bde	0.021551069
1	0x3d2da1ae	0.042390518
2	0x3d9a691a	0.07539578
3	0xbc174fb9	-0.009235316
4	0xbcb40808	-0.021976486
5	0x3d409652	0.047018357
6	0x3ca4a3f9	0.02009772
7	0xbcf95975	-0.030438164
8	0x3d919304	0.07108119
9	0x3c2b3db8	0.010451727
10	0x3d9ecdfe	0.07754134
11	0x3d3baea4	0.045820847
12	0x3d91460c	0.070934385
13	0x3da931b1	0.08261431
14	0x3dad8d58	0.08474225
15	0x3ca0c118	0.019623324
16	0x3d808e7c	0.06277177
17	0x3cf93711	0.030421766
18	0xbcb4086a	-0.021976668
19	0xbd77eacf	-0.060526665
20	0xbd719eeb	-0.058989447
21	0x3d0fbbee	0.035091333
22	0xbce69e41	-0.028151633
23	0xbc4213f9	-0.011845582
24	0x3db276d8	0.08714074
25	0xbc1995ed	-0.009374124
26	0x3d2d6520	0.04233277
27	0xbd71c5e6	-0.05902662
28	0x3d0990d9	0.033585403
29	0x3c778a23	0.015108618
30	0xbcab1b00	-0.020886898
31	0x3cdd4801	0.027011873
32	0x3ce3033a	0.0277115
33	0x3d548ee9	0.051894102
34	0xbc840402	-0.016115192
35	0x3c3b1542	0.0114186425
36	0x3a729d94	0.00092550484
37	0x3c9680eb	0.01837202
38	0x3d936336	0.07196657
39	0xbd1e00c5	-0.038574953
40	0x3c8f060f	0.017458944
41	0x3d8a31f3	0.06747808
42	0xbcfce65a	-0.030871559
43	0x3dc1451d	0.094370104
44	0xbd44be34	-0.048032954
45	0x3d9625d3	0.07331433
46	0x3dc4c025	0.09606961
47	0x3d0d8d11	0.03455836
48	0xbd9cbd88	-0.07653338
49	0x3d55864e	0.052130036
50	0x3c14c282	0.009079577
51	0x3d7fcdb9	0.06245205
52	0xbc37e139	-0.011223131
53	0x3d9a0a28	0.075214684
54	0x3d9836e6	0.07432346
55	0xbd02b9c6	-0.03191545

module.conv_2.weight f4 [12, 56, 1, 1, 1]
0	0x3e01a109	0.12659086
1	0x3cf5893a	0.029972661
2	0xbd9858e4	-0.074388295
3	0x3d17f1d1	0.03709585
4	0xbe038d71	-0.12846924
5	0xbd2c51f7	-0.042070355
6	0x3d91f53b	0.07126852
7	0x3c86c056	0.016449135
8	0xbd6d3415	-0.057910997
9	0x3e0d1e6b	0.13781135
10	0xbdd3005b	-0.10302802
11	0x3e3195fc	0.17342371
12	0xbd16e334	-0.03683777
13	0xbcc637ff	-0.024196623
14	0x3d45cf8c	0.048293635
15	0x3d313331	0.04326171
16	0x3d7b84c7	0.061405923
17	0x3dfecbaf	0.12441193
18	0x3bafa4cf	0.005360223
19	0xbd1c5140	-0.038163424
20	0xbddb7244	-0.10715154
21	0x3d2128f9	0.039345715
22	0x3db77840	0.08958483
23	0x3d077354	0.03306897
24	0x3c7d212c	0.015449803
25	0x3d80a24e	0.06280957
26	0x3c4f0b11	0.012636916
27	0x3c16da1b	0.009207274
28	0x3d8975a6	0.06711893
29	0x3cfddf48	0.030990258
30	0x3e333958	0.17502344
31	0x3da00f39	0.078154035
32	0x3d478215	0.04870804
33	0x3c7e3389	0.015515217
34	0x3dbf5ff5	0.09344474
35	0x3dd91dfd	0.10601423
36	0x3e023bcf	0.12718128
37	0xbd8d4b80	-0.06899166
38	0x3db7ab38	0.08968204
39	0x3e3b1cb8	0.18272674
40	0x3d494c33	0.049144935
41	0xbde15c1a	-0.11003895
42	0x3e106642	0.14101508
43	0x3d3a953a	0.04555247
44	0x3bb65cef	0.0055652778
45	0xbd25e245	-0.04049899
46	0x3dc1575d	0.09440491
47	0x3d99ff0c	0.075193495
48	0x3d9fd9f9	0.07805247
49	0x3deaa08c	0.11456403
50	0x3d95eadd	0.07320187
51	0xbd15f74a	-0.036612786
52	0x3dd6f014	0.1049501
53	0x3dc4f075	0.09616176
54	0xbd4e7dd6	-0.050412975
55	0x3d23e313	0.040011477
56	0xbe26ddbe	-0.16295525
57	0x3df8aee0	0.1214273
58	0xbd1e0d14	-0.03858669
59	0x3de17610	0.11008847
60	0xbd86d78b	-0.0658408
61	0xbd6a6b8c	-0.05723147
62	0xbcc7b8d5	-0.024380127
63	0xbdf9fc6c	-0.12206349
64	0x3d870fd6	0.06594817
65	0x3d78a0c9	0.06070021
66	0xbd1fb67f	-0.0389924
67	0x3d94f294	0.072728306
68	0x3e00cdf4	0.12578565
69	0x3e04af09	0.12957396
70	0xbe0dd485	-0.13850601
71	0x3cadb47c	0.021204226
72	0x3dad314f	0.084566705
73	0xbdf8ca85	-0.121480025
74	0x3e0559f2	0.13022593
75	0x3dd70a17	0.10499971
76	0x3e037639	0.12838067
77	0xbdaa85f2	-0.08326329
78	0x3d466390	0.048434794
79	0x3e0a2455	0.13490422
80	0xbcad3c73	-0.021146988
81	0xbccca58a	-0.024981279
82	0xbe09dd64	-0.1346336
83	0xbd57d1a9	-0.052690182
84	0x3c7a5d10	0.015280977
85	0x3d7681d2	0.0601824
86	0xbba3dc1c	-0.0050006043
87	0xbb3200ff	-0.0027161238
88	0xbe0130f4	-0.1261633
89	0xbd9c50f8	-0.07632631
90	0xbd44c8ed	-0.04804318
91	0xbe39f781	-0.18160821
92	0x3e0011ad	0.12506743
93	0xbd9c6afb	-0.076375924
94	0xbda27eb9	-0.07934327
95	0xbdbfda3e	-0.09367798
96	0x3de54d23	0.11196353
97	0xbdb921a4	-0.090396196
98	0xbdeb806e	-0.114991054
99	0xbd842694	-0.06452671
100	0x3d3a518d	0.04548793
101	0x3d0b25b4	0.033971503
102	0xbe0ec119	-0.13940848
103	0x3c61e2df	0.013787
104	0x3df726f1	0.12067974
105	0x3de13c9f	0.10997891
106	0x3c76637b	0.015038366
107	0xbdc0c4a8	-0.09412509
108	0x3dade743	0.08491375
109	0xbe0d3db9	-0.13793077
110	0xbe143616	-0.14473757
111	0x3d3b9eb6	0.045805655
112	0x3de0b74d	0.10972462
113	0xbd9e4426	-0.07727842
114	0xbd653c3f	-0.05596566
115	0x3cb0759c	0.021540456
116	0xbdf0ea78	-0.11763471
117	0x3d140cd4	0.036145046
118	0x3e1994f4	0.14998227
119	0xbd98dc66	-0.07463913
120	0xbe00ba8a	-0.12571159
121	0xbb81104c	-0.0039387103
122	0x3da5ec9a	0.08101769
123	0x3db05e31	0.086117156
124	0x3dbcebe9	0.09224684
125	0xbd92e1b8	-0.07171959
126	0xbc1e36c2	-0.00965661
127	0xbdaf60b2	-0.08563365
128	0xbddc5dfb	-0.10760113
129	0x3dc05129	0.0939048
130	0x3e01a724	0.12661415
131	0x3e0b8361	0.13624336
132	0x3dbc77e3	0.09202554
133	0x3de2e31c	0.11078474
134	0x3db2cf6a	0.08730967
135	0x3dd96a97	0.106160335
136	0xbd32336e	-0.04350608
137	0xbe085602	-0.1331406
138	0xbdb45074	-0.08804408
139	0x3a8b8429	0.0010644245
140	0xbd39ae49	-0.045332227
141	0xbddc67fd	-0.10762022
142	0xbdd4d2d0	-0.10391772
143	0x3d975c2a	0.07390626
144	0x3df4093d	0.119158246
145	0xbd24d91a	-0.040246107
146	0x3cc5fc08	0.02416803
147	0xbda90460	-0.082527876
148	0x3db8b446	0.090187594
149	0xbe258254	-0.16162997
150	0xbd1127d9	-0.035438392
151	0xbce94154	-0.028473534
152	0xbe0568db	-0.1302828
153	0x3d8d800a	0.06909187
154	0xbc8c338e	-0.017114427
155	0xbbe0ee5c	-0.006864352
156	0x3d93fbfe	0.07225798
157	0x3badfdcb	0.0053097955
158	0xbdc2565e	-0.094891295
159	0xbca40ed6	-0.020026606
160	0x3d915ea3	0.07098129
161	0xbb75dfd9	-0.0037517457
162	0x3db60447	0.088875346
163	0x3da2acc3	0.07943108
164	0x3d27cf27	0.04096904
165	0x3d8b5268	0.06802827
166	0xbc3f49a5	-0.011675273
167	0x3d24b76e	0.040213995
168	0x3d9446b5	0.07240049
169	0x3dd06193	0.10174861
170	0x3e153b56	0.14573416
171	0x3ad6d225	0.0016389532
172	0x3c5988c0	0.013277233
173	0x3ba2a558	0.004963558
174	0x3df152e4	0.11783388
175	0xbe02fbad	-0.12791319
176	0x3df5177c	0.1196737
177	0x3de44c4f	0.11147367
178	0x3d84a3f9	0.06476588
179	0xbd566b59	-0.05234847
180	0xbd397343	-0.045275938
181	0x3dd1bdec	0.10241303
182	0x3dff343c	0.12461135
183	0xbe16f36a	-0.14741293
184	0x3e16e4d9	0.14735736
185	0x3b457d80	0.0030134618
186	0x3cf3ddfe	0.02976894
187	0x3d1140b6	0.035462104
188	0xbdfbf186	-0.12301926
189	0x3d25d5c4	0.040487066
190	0xbc5659d5	-0.013082941
191	0x3dbd7554	0.09250894
192	0xbdd46d69	-0.10372431
193	0x3d99f394	0.07517162
194	0xbd036019	-0.032074068
195	0x3c93b0b2	0.01802859
196	0x3dbff20b	0.09372338
197	0xbdf612f9	-0.120153375
198	0x3dbedf34	0.09319916
199	0xbd6a7ea5	-0.057249684
200	0xbda6cc73	-0.08144464
201	0xbb7dec5f	-0.0038745624
202	0x3e0a62b0	0.13514209
203	0x3e511488	0.20417988
204	0xbdaf42ad	-0.08557639
205	0x3dd997f8	0.10624689
206	0x3e373379	0.17890729
207	0xbdd1561e	-0.10221504
208	0x3df01980	0.11723614
209	0xbde2e18f	-0.11078178
210	0x3e00c169	0.1257378
211	0x3d9cd833	0.07658424
212	0x3d81c36f	0.06336104
213	0xbcaae8f6	-0.020863038
214	0xbcb6bf0c	-0.022307895
215	0x3ddec56d	0.108775
216	0xbd8fce2d	-0.07021747
217	0xbcae41a1	-0.021271529
218	0x3d773ad2	0.06035883
219	0xbaef2da3	-0.0018247854
220	0x3d8c3461	0.06845928
221	0xbd28e7a5	-0.04123654
222	0xbd73b443	-0.059498083
223	0xbcb2928c	-0.021798395
224	0xbe397356	-0.18110403
225	0x3de34935	0.110979475
226	0x3dcc4509	0.09974105
227	0xbe1d5ba8	-0.15366995
228	0x3db5235b	0.08844634
229	0xbe05a6e4	-0.13051945
230	0xbd0c734b	-0.03428964
231	0x3ca8fcc3	0.020628339
232	0x3df93018	0.12167376
233	0xbdede76d	-0.116164066
234	0x3dadfc3b	0.08495375
235	0xbe2c9c0d	-0.16856404
236	0x3dc51b97	0.09624403
237	0xbd18ea3b	-0.037332755
238	0xbd2803a7	-0.04101911
239	0xbd6b2031	-0.057403747
240	0xbd8673e4	-0.06565073
241	0xbe337ce3	-0.17528109
242	0x3d9b06b5	0.07569639
243	0xbdb34a1b	-0.08754369
244	0xbe00364d	-0.12520714
245	0x3dc20415	0.09473435
246	0x3dccd859	0.100022025
247	0x3de33d03	0.110956214
248	0xbbbcdd05	-0.0057636523
249	0x3c9cc7ad	0.019138182
250	0x3c131327	0.008976734
251	0x3d0c88d1	0.034310166
252	0xbdd18d36	-0.10232012
253	0x3e0749e8	0.13211787
254	0x3e5ea793	0.21743612
255	0x3d08a57a	0.033360936

module.conv_2.bias f4 [12]
0	0xbd994c64	-0.074852735
1	0x3dacbc95	0.08434407
2	0x3be1956c	0.0068842676
3	0x3dd1c36b	0.10242351
4	0x3dabf13b	0.083956204
5	0xbd9c5933	-0.07634201
6	0x3dbb1112	0.09134115
7	0xbcdd03f5	-0.026979426
8	0xbda80ecb	-0.082059465
9	0x3c08c0b6	0.008346727
10	0x3c89679b	0.016773036
11	0x3c6bb3fc	0.014386173

module.conv_3.weight f4 [12, 12, 3, 3, 3]
0	0x3cdcd481	0.026956799
1	0xbca7bdd8	-0.020476267
2	0x3d0451f7	0.03230473
3	0xbcaf9a2f	-0.021435825
4	0xbcd5f35b	-0.026117017
5	0x3c1eba87	0.009688026
6	0xbc771908	-0.0150816515
7	0xbd04d20b	-0.032426875
8	0xbcf2387d	-0.029567951
9	0xbd0cf4e8	-0.03441325
10	0xbd6ad0aa	-0.057327904
11	0x3d479fdb	0.048736434
12	0x3ba10c5f	0.004914805
13	0x3c348db3	0.011020112
14	0x3bec36d0	0.0072086826
15	0x3d13ef41	0.036116842
16	0xbd75fc33	-0.06005497
17	0x3c58b620	0.013227016
18	0xbbd548d6	-0.006508927
19	0x3bbc5c19	0.0057482836
20	0x3a1301e1	0.0005607885
21	0x3d4c74e2	0.049916156
22	0xbc217bae	-0.009856148
23	0x3b4d6f98	0.0031347033
24	0xbc257b64	-0.010100219
25	0x3d442944	0.047890916
26	0xbd10004e	-0.03515654
27	0xbd568850	-0.05237609
28	0x3d389fba	0.045074202
29	0xbbbf15cf	-0.005831457
30	0x3c609b83	0.013708952
31	0x3b1ace31	0.0023621435
32	0xbd13da98	-0.03609714
33	0xbd080389	-0.033206496
34	0x3d5e1a57	0.05422434
35	0xbbd842b8	-0.0065997504
36	0xbd5ad36f	-0.053424295
37	0xbd1b5f4a	-0.03793267
38	0xbccf465c	-0.025302105
39	0xbd0618ec	-0.03273861
40	0x3d5fbce8	0.054623514
41	0xbd4d0bae	-0.050059967
42	0xbc3bb8ee	-0.011457665
43	0x3a477fb2	0.00076102756
44	0x3bb395e2	0.005480514
45	0xbd2c46eb	-0.04205982
46	0x3d049081	0.032364372
47	0xbbb82c74	-0.0056205336
48	0x3c399cbd	0.011328873
49	0xbcfdddbc	-0.03098952
50	0xbd2c4f51	-0.04206783
51	0x3d3c55d9	0.04598031
52	0x3bf509da	0.007477981
53	0x3d6eca1a	0.058298208
54	0xbcaf94ab	-0.021433195
55	0xbd26a2db	-0.040682655
56	0xbd4bcd51	-0.04975635
57	0x3c5367be	0.012903152
58	0x3d1c006c	0.03808634
59	0x3d1a1449	0.037617
60	0x3ca4c703	0.020114427
61	0xbd1a56ff	-0.037680622
62	0xbd46a343	-0.048495542
63	0xbd396475	-0.04526182
64	0x3d21c4e1	0.0394944
65	0xbcf31cc6	-0.029676806
66	0x3cb09fc0	0.02156055
67	0x3d141771	0.036155168
68	0xbcbbf258	-0.022942707
69	0xbbb745da	-0.0055930438
70	0x3d0ce7b5	0.03440066
71	0xbd3dd171	-0.046342317
72	0xbcc45643	-0.023966914
73	0xbcc42021	-0.023941102
74	0x3ce4346e	0.027857032
75	0xbd0b1341	-0.03395391
76	0xbd4470d7	-0.047959175
77	0x3d698d19	0.057019327
78	0xbd0dffb2	-0.03466768
79	0x3cfcb0f1	0.030846091
80	0xbbb010f7	-0.005373116
81	0x3d1b67ae	0.037940674
82	0x3c3e79a0	0.011625677
83	0x3d4f27fd	0.050575245
84	0xbcc140d9	-0.023590492
85	0xbd0fb2cc	-0.035082623
86	0x3ca0530f	0.019570855
87	0x3d5142cc	0.051089093
88	0x3cc29c9d	0.02375632
89	0xbc5d5a8a	-0.013510356
90	0xbbd238b5	-0.0064154514
91	0xbd497dc6	-0.049192213
92	0xbc5bf1a9	-0.0134243155
93	0xbb64df08	-0.0034922976
94	0x3c42858e	0.011872662
95	0x3d34f750	0.044181168
96	0x3caf8e25	0.021430084
97	0xbd20104e	-0.03907805
98	0xbd2685c6	-0.04065492
99	0x3d55756b	0.05211393
100	0xbc0fe493	-0.008782524
101	0xbcbd1843	-0.023082858
102	0xbc3ab075	-0.01139461
103	0xbaa36e71	-0.0012468827
104	0x3d468cb5	0.048474032
105	0xbc8bf2c0	-0.017083526
106	0xbc2048c2	-0.009782972
107	0xbc9d74ff	-0.019220827
108	0x3d71a97a	0.058999516
109	0x3987c2b3	0.0002589427
110	0xbd122867	-0.035683062
111	0x3c6ed173	0.014576304
112	0xbcbb267f	-0.022845505
113	0x3c9dc59f	0.019259272
114	0xbd038bd1	-0.03211576
115	0x3d004c8b	0.031322997
116	0x3d5a584f	0.053306874
117	0x3d63af47	0.05558708
118	0x3d03a383	0.03213836
119	0x3d361034	0.044449046
120	0xbd295596	-0.041341387
121	0x3d11c467	0.035587694
122	0x3c37e661	0.01122436
123	0x3c23e98b	0.010004411
124	0xbc18e891	-0.009332792
125	0xbcfbe93a	-0.03075086
126	0xbd37cc0e	-0.044872336
127	0x3c934a14	0.01797966
128	0x3c9905d7	0.018679542
129	0x3ca071e5	0.01958556
130	0x3d63bfd7	0.055602875
131	0x3c827c83	0.015928512
132	0xbd47d8d5	-0.04879077
133	0xbd282756	-0.04105314
134	0xbc99dfba	-0.018783439
135	0xbcac1bb2	-0.0210093
136	0x3ca14e98	0.019690797
137	0xbaab076b	-0.0013048475
138	0x3c1abf7b	0.009445067
139	0xbbb85710	-0.005625613
140	0x3cbd20cf	0.023086933
141	0xbd1452d0	-0.03621179
142	0xbd04d73c	-0.032431826
143	0xbc54e679	-0.012994402
144	0xbd70a9e0	-0.058755755
145	0x3d0a6a94	0.033793047
146	0xbd1ac7ca	-0.03778819
147	0x3cc551b4	0.02408681
148	0xbb2f2112	-0.0026722592
149	0x3ccd934c	0.02509465
150	0xbd1303ce	-0.0358923
151	0xbca1ca83	-0.019749885
152	0x3c36c2c5	0.011154835
153	0xbb57ad33	-0.0032909631
154	0x3c8b7036	0.01702128
155	0x3cc0bb8d	0.023526931
156	0x3c271b97	0.010199449
157	0x3d1fbb29	0.03899685
158	0x3c7a8a9e	0.015291838
159	0x3a73fa56	0.00093070173
160	0x3c2ad9d5	0.010427912
161	0x3c440e6b	0.011966328
162	0xbcc3f4bf	-0.023920415
163	0xbc8d69be	-0.017262336
164	0x3d869526	0.065714166
165	0xbc90b2cb	-0.01766338
166	0x3cf18035	0.02948008
167	0x3d139da6	0.036039017
168	0x3bf22fe6	0.007390964
169	0x3d4db572	0.050221868
170	0x3c5dc286	0.0135351475
171	0xbbb6fa4c	-0.005584037
172	0x3d43d22f	0.04780787
173	0xbcf62af8	-0.030049786
174	0x3d837a16	0.064197704
175	0x3d7462db	0.05966459
176	0x3d1177b6	0.035514556
177	0x3d293a00	0.04131508
178	0xbc1ad739	-0.009450727
179	0x3b20ffd6	0.0024566553
180	0xbd189828	-0.037254483
181	0x3d88f525	0.066873826
182	0x3d28266f	0.041052278
183	0xbb2b6b1b	-0.002615637
184	0x3cb24b97	0.02176456
185	0x3c830dfb	0.015997877
186	0x3cbf99dc	0.023388796
187	0xbcf14f22	-0.029456679
188	0x3bb8fd12	0.0056454027
189	0x3c278d05	0.010226493
190	0x3c94afbe	0.018150207
191	0x3d09bfd7	0.03363022
192	0x3ad08662	0.001590919
193	0x3d986fba	0.07443185
194	0x3c6820bc	0.014167961
195	0x3ced5b7a	0.028974283
196	0x3da1cbc1	0.07900191
197	0xbcad76a0	-0.021174729
198	0x3d682cdd	0.05668341
199	0xbc9677ed	-0.018367732
200	0xbca85e77	-0.020552857
201	0xbd7f3abb	-0.06231187
202	0xbd38c5c1	-0.045110468
203	0xbd02f53e	-0.031972162
204	0xbd5c660b	-0.053808253
205	0x3d8ac48d	0.0677577
206	0x3d51dba6	0.051234864
207	0x3d1ddc66	0.038540266
208	0xbb53a6cd	-0.0032295466
209	0x3d4ef0a8	0.050522476
210	0xbd3bca79	-0.04584739
211	0xbc0bf7c8	-0.008542962
212	0x3a5af726	0.0008352868
213	0x3d56f75c	0.052481994
214	0x3be0f470	0.0068650767
215	0x3cad7fd1	0.021179112
216	0x3d055cfb	0.032559376
217	0x3bbcf9db	0.00576709
218	0xbcc4f4b2	-0.024042461
219	0xbc21a8ef	-0.009866937
220	0x3c5fb6d0	0.013654426
221	0x3cb36c86	0.021902334
222	0xbcf50e95	-0.02991418
223	0xbd76f5a9	-0.060292874
224	0x3b9a504e	0.00470928
225	0x3c396c69	0.011317351
226	0x3cc612e0	0.024178922
227	0xbc709f80	-0.014686465
228	0x3d403af7	0.046931233
229	0xbb96748b	-0.0045915297
230	0x3a8d179b	0.0010764481
231	0xbca1513d	-0.019692058
232	0xbc125af1	-0.008932815
233	0xbcd398d9	-0.02582972
234	0x3cdf43bb	0.027253976
235	0x3d4345ec	0.047674105
236	0x3bcc0ab1	0.0062268605
237	0x3cc0afe2	0.023521367
238	0xbd0697c8	-0.032859594
239	0x3baf8bb9	0.0053572324
240	0xbd20664c	-0.039160058
241	0xbd2642f7	-0.040591206
242	0xbd4f6db8	-0.050641745
243	0xbd6f54d5	-0.05843051
244	0xbd70c9e9	-0.058786307
245	0xbc5a51e5	-0.013325189
246	0xbb08c0ed	-0.0020866946
247	0x3d1663bc	0.036716208
248	0xbd68f9da	-0.056878902
249	0x3d801143	0.062532924
250	0x3cbe84f7	0.023256762
251	0x3c1a6b67	0.009425021
252	0xbd43c022	-0.047790654
253	0x3c56e6b7	0.01311653
254	0xbd4226e1	-0.04740036
255	0xbb7809d3	-0.0037847653

module.conv_3.bias f4 [12]
0	0x3d7de485	0.06198551
1	0x3d010139	0.031495307
2	0x3c12ff67	0.0089720255
3	0x3d2cbf17	0.042174425
4	0x3d1c57a7	0.03816953
5	0xbcb0580a	-0.021526355
6	0xbd5aea24	-0.05344595
7	0xbc650497	-0.013978145
8	0xbd0874a5	-0.033314366
9	0xbbe204c3	-0.0068975403
10	0x3c254aee	0.010088665
11	0x3d21018d	0.03930812

module.conv_4.weight f4 [12, 12, 3, 3, 3]
0	0xbc11323f	-0.008862077
1	0x3ca1cda2	0.019751374
2	0xbd734e92	-0.059401102
3	0x3c6c0391	0.014405147
4	0x3acd867b	0.0015680337
5	0x3d391eb5	0.0451953
6	0xbce78a9c	-0.028264336
7	0x3ca2af5d	0.01985901
8	0xbcec4683	-0.028842216
9	0xbba8a85a	-0.005147022
10	0x3d8854b7	0.06656783
11	0x3c397ba7	0.011320985
12	0x3d563e53	0.05230553
13	0x3bd89101	0.0066090827
14	0xbca64b72	-0.020299647
15	0x3cb34697	0.021884246
16	0xbd1e5a7a	-0.038660504
17	0xbc3f1145	-0.011661832
18	0x3d4a5e34	0.049406245
19	0x3b7f3495	0.0038941253
20	0x3d3cc8de	0.04609
21	0x3d04f05d	0.03245579
22	0x3d90c27e	0.070683464
23	0x3d3c358e	0.04594951
24	0x3d4240c9	0.047425065
25	0x3c10fc79	0.008849257
26	0xbd29e5ce	-0.041478924
27	0x3cb618af	0.022228567
28	0x3d25dad6	0.0404919
29	0x3d2f98c0	0.042870283
30	0x3db8a90f	0.0901662
31	0x3d8d11ad	0.06888137
32	0x3d281eb1	0.041044895
33	0x3d91b9cc	0.07115516
34	0xbcb406c7	-0.021975888
35	0xbd16c63c	-0.036810145
36	0xbc9352a6	-0.017983746
37	0xbd1e264e	-0.03861075
38	0xbd44cdb4	-0.048047736
39	0x3ca41ad4	0.020032324
40	0xbd77eb40	-0.060527086
41	0x3d6d1e4b	0.057890218
42	0xbbdd42fc	-0.00675237
43	0xbd38694f	-0.045022305
44	0xbd18939c	-0.037250146
45	0xbcd6ce65	-0.026221463
46	0x3c9ed255	0.019387404
47	0x39ac3d21	0.0003285194
48	0xbc5de2af	-0.013542815
49	0xbcd03b94	-0.025419034
50	0x3d31d992	0.04342038
51	0x3cb2969f	0.021800337
52	0xba1cd4a0	-0.00059826113
53	0x3d8b47e8	0.068008244
54	0x3daf0966	0.085467145
55	0x3d915d5c	0.07097885
56	0x3c7b92c6	0.015354818
57	0x3cceac7e	0.025228735
58	0x3ca81113	0.020515954
59	0xbd20ac28	-0.03922668
60	0xbd4acfc9	-0.049514566
61	0x3d34965a	0.0440887
62	0xbde01576	-0.10941593
63	0xbc704e5b	-0.014667119
64	0x3cfe5afd	0.031049246
65	0xbc73168b	-0.014836918
66	0x3e4ce493	0.20009069
67	0x3e35b20a	0.17743698
68	0x3e1924e8	0.14955485
69	0x3ddd9d53	0.10821023
70	0x3e3b55a5	0.1829439
71	0x3db99c99	0.09063072
72	0xbd937ad1	-0.0720116
73	0xbe1929a5	-0.14957292
74	0xbe14f126	-0.14545116
75	0x3cb18013	0.021667516
76	0x3db29217	0.08719271
77	0x3d2a50e9	0.04158107
78	0xbb669596	-0.0035184375
79	0x3de7b7c5	0.11314348
80	0xbd61af57	-0.055098858
81	0xbc686694	-0.014184613
82	0x3d4dfa0e	0.0502873
83	0xbb6148a5	-0.0034375575
84	0xbd60b750	-0.05486232
85	0xbd5bb988	-0.053643733
86	0x3d45674c	0.048194215
87	0xbcbc9d3f	-0.0230242
88	0xbd22a106	-0.039704345
89	0x3c7cb4dc	0.01542398
90	0xbbae7861	-0.005324409
91	0xbd6e3171	-0.05815262
92	0xbc1166dc	-0.008874621
93	0x3ca9194a	0.020641942
94	0xbca7d950	-0.020489365
95	0xbc426035	-0.011863758
96	0x3d307cd3	0.04308779
97	0x3c808869	0.015690045
98	0x3d52a5ef	0.051427778
99	0xba946b8c	-0.0011323555
100	0x3b51c115	0.0032005955
101	0x3cfafb31	0.030637356
102	0xbcb6515d	-0.022255594
103	0x3d198675	0.037481744
104	0xbcebf658	-0.02880399
105	0xbc8b342b	-0.016992649
106	0xbcc8444b	-0.024446627
107	0x3c59bb5c	0.013289299
108	0xbb142b96	-0.0022608987
109	0x3cc87bb5	0.02447305
110	0xbb327217	-0.0027228647
111	0xbd63e0bd	-0.05563425
112	0xbc5fd272	-0.013661014
113	0xbc20f360	-0.00982365
114	0xbbaf30dc	-0.0053464007
115	0xbc6c72cb	-0.014431666
116	0xbd13b91b	-0.036065202
117	0x3cc36d78	0.02385591
118	0xbd2b2a1c	-0.041788206
119	0x3d2726fa	0.040808655
120	0xbbe3c881	-0.006951392
121	0xbd6f1538	-0.058369845
122	0x3aa38f13	0.0012478553
123	0xbcddfa57	-0.02709691
124	0xbd2b15f8	-0.041768998
125	0x3c48c59b	0.012254144
126	0xbccc82cd	-0.024964714
127	0x3c214239	0.009842449
128	0x3ba91b15	0.005160699
129	0x3d096565	0.033543963
130	0xbd22d633	-0.039755058
131	0x3d735645	0.059408445
132	0xbc5fbbb2	-0.01365559
133	0xbcc6f7ab	-0.02428802
134	0xbad61212	-0.001633229
135	0x3d1c38de	0.03814017
136	0x3d27b07a	0.040939786
137	0xbd024dec	-0.031812593
138	0x3d60c62b	0.054876488
139	0x3d339057	0.043838825
140	0xbcca74f2	-0.024713967
141	0xbd030902	-0.031991012
142	0x3ca8eb03	0.020619875
143	0xbd2fec7b	-0.042950135
144	0x3b847b67	0.004043031
145	0xbd395746	-0.045249246
146	0xbc8de818	-0.017322585
147	0xbbef6280	-0.0073054433
148	0x3d64e7ec	0.05588524
149	0xbd4a2269	-0.049349222
150	0x3d9bb2c3	0.076024555
151	0x3b839664	0.0040157307
152	0x3d2a8a4f	0.041635808
153	0xbbcf361b	-0.0063235885
154	0xbcf3f267	-0.029778672
155	0x3d1f3bbd	0.03887533
156	0x3c4e0331	0.012574003
157	0xbcb3d7de	-0.02195352
158	0xbd2103b9	-0.03931019
159	0x3c733e5e	0.014846412
160	0x3c9847fc	0.018589012
161	0xbbc3ecd3	-0.0059791594
162	0xbce73576	-0.028223734
163	0xb9ac6643	-0.00032882587
164	0x3b0dfbe9	0.0021665043
165	0xbc336f17	-0.010951779
166	0xbd0f9111	-0.035050455
167	0x3cb077ad	0.02154144
168	0x3c7f8dea	0.0155978
169	0x3d0a4733	0.033759307
170	0xbd4be501	-0.049778942
171	0x3b396e29	0.002829442
172	0x3d448d6d	0.047986437
173	0xbd3d4af2	-0.04621405
174	0xbcbe7764	-0.02325029
175	0x3c6db8ea	0.014509419
176	0xbcded88d	-0.027202869
177	0x3c4f74d8	0.012662135
178	0x3bddf2f4	0.006773347
179	0x3d14f39c	0.036365137
180	0x3cb7744b	0.02239432
181	0xbd60c6b3	-0.054876994
182	0xbd0c6c35	-0.03428288
183	0x3c61f138	0.013790421
184	0xbcf79f7d	-0.030227417
185	0x3b7e4987	0.003880115
186	0x3c41b7da	0.011823619
187	0xbbd76519	-0.006573331
188	0xba1f53bf	-0.0006077848
189	0x3c96a943	0.018391257
190	0x3d605d8e	0.05477672
191	0x3c83e79d	0.016101653
192	0x3d391290	0.04518372
193	0xbd6a7c7c	-0.057247624
194	0x3c8369f4	0.016041733
195	0x3d30ae88	0.043135196
196	0x3d1961ae	0.03744667
197	0x3bfd2033	0.0077247857
198	0x3d318bf9	0.04334638
199	0x3d3450c0	0.04402232
200	0x3ad98b84	0.0016597365
201	0x3aa00291	0.0012207796
202	0x3cb71c82	0.02235246
203	0xbcd0f153	-0.025505697
204	0x3cb38047	0.021911753
205	0xbcea2fdc	-0.028587274
206	0x3d2bbcde	0.041928165
207	0xbd2d03b2	-0.042239852
208	0xba39436e	-0.0007067238
209	0x3c8918a8	0.01673539
210	0x3a80f35e	0.0009838154
211	0xbd819e90	-0.063290715
212	0x3d0cdcdc	0.034390315
213	0x3cae49ad	0.021275366
214	0xbc0b0a75	-0.00848638
215	0x3cb528e2	0.022114221
216	0x3cacc133	0.021088218
217	0x3cb8f993	0.022579944
218	0xbcc39f4f	-0.023879675
219	0x3d1d56b0	0.03841275
220	0xbd497ceb	-0.049191397
221	0x3b047ef6	0.0020217276
222	0x3ba14dd3	0.0049226074
223	0xbc540be0	-0.012942284
224	0xbb5452aa	-0.0032397904
225	0x3ba9297d	0.0051624165
226	0xbc010542	-0.007874789
227	0x3bc814d2	0.0061059976
228	0xbb7b9c12	-0.0038392586
229	0x3c4f5b52	0.01265605
230	0xbd32fc9e	-0.043697946
231	0x3c361ea8	0.011115707
232	0xbc31190a	-0.010809192
233	0xba829e04	-0.0009965305
234	0xbc2ecef9	-0.010669463
235	0xbce0d377	-0.027444584
236	0x3c7676f2	0.015043007
237	0x3a374bbd	0.0006992182
238	0x3cf480ff	0.029846666
239	0x3c07be2b	0.008285086
240	0xbd3028be	-0.043007605
241	0x3bec8f50	0.0072192326
242	0x3c85fa4e	0.016354706
243	0x3d7013c1	0.05861259
244	0xbd24a7a6	-0.040198945
245	0xbcf8265a	-0.030291725
246	0x3ced6141	0.028977038
247	0x3d406e9a	0.046980478
248	0x3cd2a1f0	0.025711983
249	0x3d4690b8	0.04847786
250	0xbd411d0f	-0.047146853
251	0xbd4a06d7	-0.04932293
252	0xbbe12670	-0.006871037
253	0x3da94ede	0.08266996
254	0x3d213bd2	0.03936369
255	0xbbed258a	-0.007237141

module.conv_4.bias f4 [12]
0	0xbd5089ff	-0.050912853
1	0xbc70b905	-0.01469255
2	0x3c7cc7b4	0.015428472
3	0x3cc974f2	0.024591897
4	0xbd107edc	-0.035277233
5	0x3d837d35	0.06420366
6	0x3c945721	0.018107953
7	0x3af598a8	0.0018737512
8	0x3d4226fb	0.047400456
9	0x3ce55a8c	0.027997278
10	0x3ba00f30	0.004884623
11	0xbd7d454e	-0.061833672

module.conv_5.weight f4 [12, 12, 3, 3, 3]
0	0xb99be293	-0.00029732715
1	0xbd71b29e	-0.059008233
2	0x3d42f145	0.047593374
3	0xbb2c3659	-0.002627751
4	0xbd75c088	-0.059998065
5	0x3cf515d0	0.029917628
6	0xbc92571d	-0.017863804
7	0x3a8e8984	0.0010874723
8	0xbd5b242d	-0.053501297
9	0xbafc66f4	-0.0019256757
10	0xbcaa5105	-0.020790586
11	0xbc489dd6	-0.012244662
12	0xbb8f88cd	-0.0043803216
13	0x3c5a3fe7	0.0133209
14	0xb9f021a4	-0.0004580143
15	0x3d021be7	0.03176489
16	0xbc15789f	-0.009122997
17	0x3c09a374	0.008400787
18	0x3d189231	0.037248794
19	0xbd1f25ee	-0.038854532
20	0x3d48d0d0	0.049027264
21	0xbcc5ae4a	-0.024130959
22	0xbc9ea62d	-0.019366348
23	0x3c3c6a05	0.011499886
24	0xbbc94883	-0.0061426773
25	0xbc125dbe	-0.008933483
26	0xbd14f0b0	-0.03636235
27	0x3c515ef3	0.012778985
28	0xbca12444	-0.019670613
29	0xbcca3bfc	-0.024686806
30	0x3c062f76	0.0081900265
31	0x3d487655	0.048940975
32	0x3d1f949f	0.038960095
33	0xbc9e963d	-0.019358749
34	0x3c390755	0.011293252
35	0x3ca3ba54	0.01998631
36	0x3d1ddf83	0.038543236
37	0xbcf40830	-0.02978906
38	0xbcb00ec7	-0.021491421
39	0x3d11a6af	0.035559352
40	0x3d1e9b07	0.038722064
41	0x3d455d73	0.048184823
42	0x3c03e526	0.008050239
43	0x3d4f2df6	0.05058094
44	0x3ce177aa	0.02752288
45	0xbbb8afb1	-0.0056361784
46	0x3cc8fc56	0.024534386
47	0x3cf32e85	0.029685268
48	0x3d5b44d2	0.05353243
49	0x3bc8709b	0.0061169392
50	0xbd51ddf0	-0.051237047
51	0x3d48d9b0	0.049035728
52	0xbd24e75a	-0.040259697
53	0xbd4c36a0	-0.049856782
54	0xbcce8268	-0.025208667
55	0x3d2bebbb	0.041972857
56	0x3c4b1dbb	0.012397225
57	0x3a044e66	0.00050470827
58	0x3c14d276	0.009083381
59	0x3cbc1727	0.022960259
60	0x3d5c982a	0.053856052
61	0x3cbce700	0.023059368
62	0xbcba1517	-0.022715135
63	0x3ca48615	0.020083467
64	0xbaf69097	-0.0018811402
65	0x3d2df171	0.042466585
66	0x3c06f189	0.008236297
67	0x3d86a96f	0.06575286
68	0x3d214239	0.039369795
69	0x3d7fb61c	0.062429532
70	0xbcf48c36	-0.029852014
71	0xbd105208	-0.03523448
72	0xbcf11aaf	-0.029431669
73	0x3d43aa68	0.047769934
74	0x3d15ef92	0.036605425
75	0xbb3ede56	-0.0029124222
76	0x3cc3caf7	0.023900492
77	0x3d5af83e	0.0534594
78	0xbd2b92a5	-0.041887898
79	0x3cc4face	0.024045374
80	0x3c628972	0.013826715
81	0xbd5ef5d4	-0.05443366
82	0xbc84d164	-0.016213126
83	0x3d15ee1a	0.036604024
84	0x3d047424	0.032337323
85	0x3b940401	0.004517079
86	0x3c181691	0.009282724
87	0xbac77681	-0.0015217812
88	0x3d8b5142	0.06802608
89	0x3d7be7a9	0.061500225
90	0xbd151646	-0.036398195
91	0xbc504420	-0.012711555
92	0xbc00518b	-0.007831941
93	0x3ce64146	0.028107297
94	0x3d059b1c	0.032618627
95	0xbcf38ab3	-0.029729223
96	0x3b3c9c7f	0.0028779802
97	0x3c81fd08	0.015867725
98	0xbc863ce4	-0.016386457
99	0x3c130cd5	0.008975227
100	0xbbe02793	-0.006840655
101	0x3ca356b9	0.019938814
102	0x3d29dfee	0.04147332
103	0xbc7dfaf1	-0.015501724
104	0x3d73f257	0.059557285
105	0x3cc806ce	0.024417307
106	0x3d8e6b8c	0.06954107
107	0x3cbc428e	0.022980954
108	0x3d66f7fb	0.056388836
109	0xbcaa711d	-0.02080589
110	0xbc4d2849	-0.012521812
111	0xbd398838	-0.045295924
112	0x3ccd0308	0.02502586
113	0xbd0aa226	-0.033846043
114	0xbc4fb689	-0.012677797
115	0xbc431942	-0.011907877
116	0x3bf40e7d	0.007448016
117	0xbc4c8a0f	-0.012484088
118	0xbd05b921	-0.032647256
119	0x3c9df543	0.019281989
120	0x3d7304f1	0.059330884
121	0x3d786222	0.06064046
122	0xbccd6887	-0.025074257
123	0xbd0c7913	-0.034295153
124	0xbcc12098	-0.023575112
125	0x3d5127fe	0.05106353
126	0xbd21f9f8	-0.03954503
127	0x3cca349b	0.024683287
128	0x3cf97d00	0.030455112
129	0xbce644e1	-0.028109016
130	0x3b3b73cf	0.0028602963
131	0x3d6d0323	0.05786432
132	0x3cefc5c1	0.029269101
133	0x3cc49bf7	0.024000151
134	0xbd43485f	-0.04767644
135	0x3c8897e5	0.016673991
136	0xbb748012	-0.0037307781
137	0x3d244e43	0.0401137
138	0xbcf081b7	-0.029358728
139	0x3c37ebd8	0.011225663
140	0x3ce13f94	0.027496137
141	0x3a8b5dfd	0.0010632869
142	0x3d5b0dfa	0.053480126
143	0x3d0d7a68	0.034540564
144	0x3d2b41a2	0.04181064
145	0x3c7753e2	0.015095683
146	0x3d39e79a	0.045386888
147	0xbc3c6065	-0.011497592
148	0x3d5ca17d	0.053864945
149	0xbce172a7	-0.02752049
150	0x3d138dda	0.036023952
151	0x3cec8213	0.028870618
152	0x3c27e863	0.010248276
153	0xbd38288d	-0.044960547
154	0xbc872689	-0.016497867
155	0x3c7e9bc1	0.015540064
156	0x3cf21b27	0.029553963
157	0x3bc3151a	0.0059534432
158	0xbd397c6e	-0.04528468
159	0x3d342fe6	0.043990992
160	0x3d66bcb8	0.05633232
161	0x3ace3315	0.0015731776
162	0x3c20d9c5	0.009817545
163	0x3bc68b68	0.006059099
164	0xbcd86456	-0.026415031
165	0xbd191ef1	-0.037383024
166	0x3d49bf97	0.04925498
167	0x3d3a4241	0.04547334
168	0xbbba7d50	-0.005691208
169	0x3d2f9e23	0.04287542
170	0x3d40c6a3	0.047064435
171	0xbc571c47	-0.0131293
172	0x3b145980	0.0022636354
173	0x3d334c91	0.04377419
174	0x3d0aa34e	0.033847146
175	0xbd17a632	-0.03702373
176	0x3cae259a	0.021258164
177	0xbd6926dd	-0.05692183
178	0xbcc1c1b2	-0.023651931
179	0x3ccb5842	0.024822358
180	0xbd272803	-0.040809643
181	0xbc9afd94	-0.018919744
182	0x3c3ff4b7	0.011716059
183	0x3d2c8a80	0.04212427
184	0x3d2a9f31	0.041655723
185	0xbc0cf87d	-0.008604166
186	0x3d318f50	0.043349564
187	0x3d328e99	0.043593023
188	0xbd76aea6	-0.06022515
189	0xbd47f4e1	-0.04881752
190	0x3d1bdcfb	0.03805254
191	0xbd2cf841	-0.04222894
192	0x3c2d6f68	0.010585643
193	0xbcc6273e	-0.024188634
194	0x3d429e18	0.04751405
195	0xbc00ae25	-0.007854019
196	0x3c67e8c8	0.0141546205
197	0xbc1b0390	-0.009461299
198	0x3ceb0701	0.028689863
199	0xbca78e35	-0.020453552
200	0xbcbdec37	-0.023183925
201	0x3ab2befa	0.0013637238
202	0xbd456585	-0.04819252
203	0x3c9c6188	0.019089475
204	0xbb823c79	-0.003974494
205	0x3cdd35ef	0.027003257
206	0x3cd1d268	0.025613025
207	0xbd2c004d	-0.041992474
208	0x3d25ee09	0.04051021
209	0x3cfc9d46	0.030836713
210	0x3d31ebe9	0.043437872
211	0x3c2c1eea	0.010505417
212	0x3d4c4141	0.04986692
213	0x3ca2f9c1	0.019894483
214	0x3d3462f1	0.04403967
215	0xbcbb0979	-0.022831665
216	0xbd1d29e3	-0.038370024
217	0xbd3dc498	-0.046330065
218	0x3d1a2eb5	0.0376422
219	0x3cf88300	0.030335903
220	0xbd438d6a	-0.047742285
221	0x3ca9c011	0.020721467
222	0x3b1069c3	0.0022035695
223	0xbd2684da	-0.04065404
224	0x3cba1e48	0.022719517
225	0x3d7452d5	0.059649307
226	0x3cc2615e	0.023728069
227	0x3c239f7e	0.009986756
228	0x3d096387	0.033542182
229	0x3b15bca6	0.002284804
230	0x3d6455c8	0.05574587
231	0x3d49dc31	0.049282257
232	0xbcc2b0b3	-0.023765897
233	0xbd03d112	-0.032181807
234	0x3d054cab	0.03254382
235	0x37031da0	7.815106e-06
236	0xbaa6ae6b	-0.0012716776
237	0x3caf593f	0.02140486
238	0xbcd6f18b	-0.026238224
239	0x3d29a438	0.041416377
240	0xbcad6133	-0.021164512
241	0xbcc734f8	-0.02431725
242	0xbd1c28ac	-0.038124725
243	0x3c441d0b	0.011969815
244	0xbc532f55	-0.012889703
245	0x3ced3a4f	0.028958468
246	0xbb89f3c3	-0.004209967
247	0xbd179870	-0.03701061
248	0x3cabe63e	0.020983811
249	0x3cd29c02	0.025709156
250	0xbd45d38e	-0.048297457
251	0xbd2254f5	-0.039631803
252	0x3c3d7924	0.011564527
253	0xbc59aefa	-0.013286347
254	0xbcb06136	-0.021530729
255	0xbbd75860	-0.0065718144

module.conv_5.bias f4 [12]
0	0x3d0fbd0e	0.035092406
1	0xbce68133	-0.028137779
2	0x3cd30ea4	0.025763817
3	0xbc3f92e9	-0.011692741
4	0x3c166b21	0.009180815
5	0x3d924e71	0.07143868
6	0xbc85ce77	-0.016333802
7	0x3ce63119	0.028099583
8	0x3c82a610	0.015948325
9	0x3d127076	0.035751782
10	0x3d5ba341	0.053622488
11	0x3d422d41	0.04740644

module.conv_6.weight f4 [12, 12, 3, 3, 3]
0	0x3cf941f3	0.030426955
1	0xbd24a752	-0.04019863
2	0x3d3b0e44	0.0456679
3	0xbc9e6d7f	-0.019339321
4	0x3d0904fc	0.03345202
5	0x3c14ad33	0.009074497
6	0xbd2db733	-0.04241104
7	0x3d575909	0.052575145
8	0xbba4af3b	-0.005025772
9	0xbd494a27	-0.049142983
10	0x3d1f3b3f	0.03887486
11	0x3ca6f266	0.020379256
12	0xbd5c89ef	-0.05384248
13	0x3c146e5a	0.009059513
14	0x3d45527a	0.04817436
15	0x3cba7f0e	0.022765663
16	0xbd17cad0	-0.03705865
17	0xbceb08e9	-0.028690772
18	0xbd40385b	-0.046928745
19	0xbd350740	-0.044196367
20	0xbd4865c3	-0.048925173
21	0x3d4f38a8	0.05059114
22	0xbd371e31	-0.044706527
23	0x3aceb73c	0.0015771161
24	0x3b94b04b	0.0045376173
25	0x3b9422df	0.0045207585
26	0x3c7f2d21	0.015574724
27	0xbd4b79f4	-0.04967685
28	0x3ab2aea5	0.001363237
29	0x3d169c41	0.03677011
30	0xb9dcf581	-0.00042144585
31	0xbc960f46	-0.01831783
32	0x3c2fc96a	0.010729173
33	0xbcf92bf2	-0.030416463
34	0xbab474ab	-0.001376768
35	0xbcaabfc4	-0.020843394
36	0xbc28d42b	-0.010304491
37	0xbd7171cd	-0.05894642
38	0xb98c63a2	-0.00026777113
39	0x3d0564ce	0.032566838
40	0x3a7a6898	0.0009552329
41	0xbcd0ce06	-0.025488865
42	0xbd4e61a9	-0.050386105
43	0x3d778dd5	0.060437996
44	0x3caa6912	0.020802055
45	0xbd1947f9	-0.037422154
46	0xbd0e7dba	-0.03478787
47	0xbc7f6c57	-0.015589795
48	0xbcb68705	-0.02228118
49	0x3d28b8e7	0.04119196
50	0x3c26cbe3	0.010180446
51	0x3d64eeec	0.055891916
52	0x3c9afe42	0.018920068
53	0x3d1fac72	0.038982816
54	0xbd52d462	-0.051472075
55	0x3d08bb11	0.033381525
56	0xbbc5aed1	-0.0060328026
57	0x3ca8a754	0.0205876
58	0x3d1734c1	0.036915544
59	0xbb6be52d	-0.0035994754
60	0xbd168e85	-0.03675701
61	0xbd46acec	-0.048504755
62	0x3cb066af	0.021533338
63	0x3a275fc0	0.00063848123
64	0xbd0c7193	-0.034288
65	0x3d4f55d6	0.05061897
66	0xbd763217	-0.060106363
67	0xbc8045d7	-0.015658302
68	0xbd4b9eb2	-0.04971189
69	0xbd68f0af	-0.05687016
70	0xbd3a6c8d	-0.04551368
71	0x3d02e350	0.031955063
72	0xbcd8bd77	-0.026457531
73	0x3cecc270	0.028901309
74	0x3cabb037	0.02095805
75	0xbc5d46be	-0.013505636
76	0xbd6b617d	-0.05746602
77	0x3b99d2f6	0.004694338
78	0x3acd90ed	0.001568345
79	0xbd02742f	-0.031849083
80	0xbcb7e2a5	-0.02244694
81	0x3c59f3bf	0.0133027425
82	0x3c8b9f5f	0.017043767
83	0x3ccf8e1d	0.02533632
84	0x3d409180	0.04701376
85	0xbcd74755	-0.026279131
86	0x3c4dd54b	0.01256306
87	0x3a868e2d	0.001026576
88	0x3c68b371	0.014202938
89	0xbb8395ee	-0.0040156757
90	0xbc9dcad2	-0.019261751
91	0x3b913b87	0.004432145
92	0xbb05f5e9	-0.0020440763
93	0x3d128af1	0.035777036
94	0xbce58a0f	-0.028019933
95	0xbc65e6b9	-0.014032059
96	0xbc9305d3	-0.017947113
97	0xbce865cc	-0.028368853
98	0xbd4b8b52	-0.049693413
99	0xbd20e7de	-0.039283626
100	0x3cfb2844	0.030658849
101	0x3d3fad63	0.046796214
102	0xbd117bd8	-0.035518497
103	0xbcd16753	-0.025561964
104	0x3cdec10c	0.027191661
105	0x3cee2c5b	0.029073885
106	0xbbc9008e	-0.0061340993
107	0xbd5ef1c4	-0.054429784
108	0x3d666229	0.056245957
109	0xbc478348	-0.012177296
110	0x3d1a8a60	0.03772962
111	0x3cbf240b	0.023332616
112	0x3c6780ea	0.014129857
113	0x3d64d31e	0.0558654
114	0xbc86b265	-0.016442487
115	0xbca896d9	-0.020579742
116	0x3c3ee384	0.011650924
117	0x3bbb0dfa	0.0057084532
118	0x3ac979fc	0.0015371437
119	0x3ca8dfa9	0.020614462
120	0xb9745f64	-0.00023305189
121	0x3d23b71d	0.039969552
122	0xbb862f52	-0.0040949965
123	0xbcd6c9e1	-0.02621931
124	0x3cdf725e	0.027276214
125	0x3c8f8760	0.017520607
126	0x3d1afd03	0.037838947
127	0xbb84d566	-0.0040537594
128	0x3ca6ec14	0.020376243
129	0xbc120610	-0.008912578
130	0xbd31d54b	-0.043416303
131	0xbbc6c474	-0.0060658995
132	0x3d543bf8	0.051815003
133	0xbc1b906f	-0.009494885
134	0x3b2d7ba6	0.0026471405
135	0xbd02dd95	-0.0319496
136	0xbd1222bc	-0.035677657
137	0xbcc2b9a2	-0.023770157
138	0x3d349cc4	0.044094816
139	0xbbde8188	-0.0067903437
140	0x3cb5ad49	0.022177355
141	0x3d08e59d	0.0334221
142	0x3d5d0658	0.053961128
143	0x3cc8c2a5	0.024506876
144	0x3c41b7d9	0.011823618
145	0x3cf3a370	0.029741019
146	0x3c962424	0.01832778
147	0xbd5cc34a	-0.05389718
148	0xba00fe9a	-0.0004920751
149	0xbd6593b8	-0.05604908
150	0x3d4b9c00	0.04970932
151	0xbd3cd0b5	-0.046097476
152	0x3d4812fa	0.048846222
153	0xba8e149d	-0.0010839883
154	0x3cab23e5	0.02089114
155	0xbd3d4dc6	-0.04621675
156	0xbcf76e7a	-0.030204047
157	0xbd64f89c	-0.055901155
158	0xbba94f8b	-0.005166953
159	0x3d0b4f11	0.03401095
160	0xbd46a23e	-0.04849457
161	0xbd3984a1	-0.0452925
162	0x3cccec66	0.025015067
163	0x3ce519a5	0.02796633
164	0x3b96e7ab	0.0046052537
165	0xbc9121e3	-0.017716354
166	0x3be8ff1a	0.0071104886
167	0x3d9d1024	0.07669094
168	0x3c9c8146	0.019104611
169	0xbc8a7de4	-0.016905732
170	0x3c53fcae	0.0129386615
171	0xbd926176	-0.071474954
172	0x3d8eb43b	0.0696797
173	0xbc85dc3f	-0.016340373
174	0xbd621844	-0.055198923
175	0x3d2a9b75	0.04165216
176	0x3ccdef7c	0.02513861
177	0xbcc878d0	-0.02447167
178	0xbb778215	-0.0037766744
179	0xba8a18d5	-0.0010535965
180	0xb9abf011	-0.00032794525
181	0x3d4e2385	0.050326843
182	0xbcd1ee4b	-0.025626322
183	0xbc0fdd7e	-0.008780835
184	0xbca91196	-0.020638268
185	0x3d59dc42	0.05318857
186	0xbcad0b7c	-0.02112364
187	0x3b70e0d0	0.0036755092
188	0x35944cef	1.104925e-06
189	0xbbb61330	-0.0055564865
190	0x3d59a00e	0.053131156
191	0xbcf1b15f	-0.029503522
192	0xbbebed84	-0.007199945
193	0x3cc983c0	0.024598956
194	0x3d3e0992	0.046395846
195	0xbd1f3491	-0.03886849
196	0x3c14e099	0.009086751
197	0x3c84644c	0.016161107
198	0xbc727e73	-0.014800656
199	0xbcc777a5	-0.024349043
200	0x3d15488a	0.03644613
201	0xbd46af0a	-0.048506774
202	0xbcc42a45	-0.023945937
203	0xbbd72cc1	-0.0065666144
204	0xbd491657	-0.04909357
205	0x3c3d816f	0.011566504
206	0xbd47e80b	-0.048805278
207	0x3ab5bb24	0.0013864976
208	0x3d47a3fe	0.04874038
209	0xbc9c6e54	-0.019095577
210	0x3d2ddbea	0.042446055
211	0xbd4a16a4	-0.049337998
212	0xbc4bd92c	-0.0124419145
213	0xbd433b7a	-0.047664143
214	0x3c4162f0	0.011803374
215	0xbd59a184	-0.05313255
216	0x3d078de2	0.033094294
217	0xbca512a5	-0.020150492
218	0xbcb0ab66	-0.021566104
219	0x3d245350	0.040118515
220	0x3b9e1c43	0.0048251464
221	0xbd47e202	-0.048799522
222	0x3d1ee586	0.03879311
223	0x3c279665	0.010228728
224	0x3d0fa731	0.035071556
225	0xbca23f43	-0.019805556
226	0x3d05039a	0.032474138
227	0xbc1df3a1	-0.009640605
228	0x3be2e759	0.0069245514
229	0x3aa772ba	0.001277528
230	0x3d180750	0.03711635
231	0xbc7c24ec	-0.015389662
232	0x3d73da9c	0.059534654
233	0x3ca953a0	0.020669758
234	0xbbbb165b	-0.005709452
235	0xbd1ae697	-0.037817564
236	0x3d2afb04	0.041743293
237	0x3d135978	0.035973996
238	0xbcdd529f	-0.027016936
239	0xbbf0694d	-0.0073367716
240	0x3d57092b	0.052498978
241	0xbcb216e3	-0.021739429
242	0xbca67f76	-0.02032445
243	0xbbe18fed	-0.0068836124
244	0xbb433b28	-0.0029789899
245	0x3cd287f1	0.025699588
246	0x3bc5272d	0.006016633
247	0xbcc6708b	-0.024223587
248	0x3d49bd34	0.049252704
249	0x3d26e2c1	0.040743593
250	0xbc800cdc	-0.015631132
251	0x3d0f51aa	0.03498999
252	0x3d502e4b	0.0508254
253	0x3c7cd283	0.015431049
254	0x3d189c68	0.037258536
255	0xbc64ce13	-0.013965148

module.conv_6.bias f4 [12]
0	0x3d1ea0b3	0.038727473
1	0xbd52cd21	-0.051465157
2	0x3cb035ce	0.021510031
3	0x3b659472	0.0035031107
4	0xbd0ad787	-0.03389695
5	0x3d0d898e	0.03455501
6	0x3cd32069	0.02577229
7	0x3d0c6bdf	0.03428256
8	0xbc51f586	-0.012814885
9	0x3d8d3480	0.06894779
10	0x3c9fe9d8	0.019520685
11	0xbca6ce28	-0.020361975
