model3/FSRCNN3D_epoch_140.pth (torch, 265282 bytes, 15 tensors)

module.conv_1.weight f4 [56, 1, 5, 5, 5]
0	0xbcdf58d8	-0.027264044
1	0x3db2a40e	0.08722697
2	0x3d8a23e3	0.06745126
3	0x3da37586	0.079814
4	0x3d5c1835	0.053734023
5	0xbcaaea19	-0.02086358
6	0x3d85632a	0.06513055
7	0xbd7486fe	-0.05969905
8	0x3d29a979	0.041421387
9	0xbd9c5da3	-0.07635047
10	0x3c52227c	0.0128256045
11	0x3d45cd17	0.048291292
12	0xbde5df91	-0.112242825
13	0xbcb99d1b	-0.022657922
14	0xbd773da0	-0.060361505
15	0x3be9bfc3	0.0071334555
16	0xbd5c1f13	-0.053740572
17	0xbd5b6334	-0.053561404
18	0xbda6afde	-0.08139013
19	0xbd2f14ca	-0.042744435
20	0xbdb02eaa	-0.086026505
21	0xbd09c703	-0.033637058
22	0xbd907381	-0.070532806
23	0xbd9f30b6	-0.07772963
24	0x3d94968c	0.07255277
25	0x3d42d93e	0.04757046
26	0xbc6c8686	-0.01443637
27	0xbdb1cc3d	-0.086815335
28	0xbd075e43	-0.03304888
29	0xbdc6aed1	-0.09701312
30	0x3d5b39c2	0.05352188
31	0xbda64f5b	-0.081206046
32	0x3d5353bd	0.05159353
33	0xbdbf8dbc	-0.093532056
34	0xbdf777ab	-0.12083372
35	0x3d642b55	0.055705387
36	0xbdb6d112	-0.08926596
37	0xbd2b7a91	-0.041864935
38	0xbd8664da	-0.06562205
39	0xbdbb4298	-0.09143561
40	0xbca111f2	-0.019661877
41	0xbaaee124	-0.0013342244
42	0x3d420994	0.047372416
43	0xbdaaa149	-0.08331544
44	0x396b81a1	0.00022459637
45	0xbddd46d9	-0.10804529
46	0xbc476964	-0.012171123
47	0xbc57a418	-0.013161682
48	0xba114bc9	-0.0005542604
49	0x3d0cac89	0.03434423
50	0x3d5ef0d9	0.05442891
51	0x39f3e285	0.00046517342
52	0xbda603b7	-0.08106177
53	0x3c99dc64	0.018781848
54	0xbc2f42c2	-0.010697069
55	0xbd13f843	-0.036125433
56	0x3d4f6f89	0.050643478
57	0xbac41580	-0.0014960021
58	0xbd08715d	-0.033311237
59	0xbd855691	-0.06510652
60	0x3a6b08e4	0.00089658634
61	0xbd1cef8b	-0.038314383
62	0x3c54dde0	0.012992352
63	0xbdbf3911	-0.093370564
64	0xbdca235d	-0.09870026
65	0xbdcd8b87	-0.10036378
66	0xbd641446	-0.055683397
67	0x3d55a8a0	0.052162766
68	0x3cb81767	0.022472097
69	0xbdd03c5a	-0.10167761
70	0x3c1d1289	0.009586939
71	0x3c4bc611	0.012437359
72	0xbd89fc07	-0.067375235
73	0xbdc6ec41	-0.097130306
74	0xbdd1fd3c	-0.10253379
75	0xbd5f0764	-0.054450408
76	0x3d651bf9	0.05593488
77	0xbcf5a3e4	-0.029985376
78	0x3cac42aa	0.021027882
79	0x3c9aad47	0.018881453
80	0xbd341c22	-0.043972142
81	0x3d688806	0.056770347
82	0xbdc0e3b9	-0.09418435
83	0xbdacfdb8	-0.084468305
84	0xbda86792	-0.082228795
85	0x3d52dd6a	0.05148069
86	0xbcd91878	-0.026500925
87	0xbc81da1b	-0.015851071
88	0xbd999479	-0.07499022
89	0xbd3209d1	-0.043466393
90	0xbd978173	-0.07397737
91	0x3c94efa3	0.018180674
92	0x3c199c2b	0.009375612
93	0xbdad2545	-0.08454374
94	0x3c2fe4ca	0.0107357
95	0xbd373ecd	-0.044737626
96	0xbd69a72a	-0.057044186
97	0xbcdbc6ca	-0.026828188
98	0x3d347148	0.044053346
99	0xbdafa524	-0.0857642
100	0x3cfc13be	0.030771133
101	0x3dc33d31	0.09533156
102	0x3de8ee63	0.11373594
103	0x3d67b241	0.05656648
104	0xbd2a9333	-0.041644286
105	0xbcd08f61	-0.025458993
106	0x3d977de6	0.0739706
107	0xbc77f367	-0.015133715
108	0xbdb56784	-0.08857635
109	0xb97ea465	-0.0002428457
110	0x3d0a16b6	0.033713065
111	0xbcf413c9	-0.02979459
112	0x3d17965a	0.03700862
113	0xba99efe3	-0.0011744465
114	0x3b8bbc7b	0.004264412
115	0xbda19b49	-0.078909464
116	0x3d1ae34a	0.037814416
117	0x3abf2dc7	0.0014585786
118	0xbc1b97bc	-0.0094966255
119	0x3ca8883c	0.020572774
120	0xbd53eb1f	-0.0517379
121	0xbd53f988	-0.051751643
122	0xbd85c5fa	-0.06531902
123	0xbd977fd7	-0.073974304
124	0xbd567bbb	-0.052364092
125	0xbd3bad52	-0.045819588
126	0xbc474b56	-0.012163958
127	0xbd05666c	-0.03256838
128	0xbdaf1b79	-0.08550162
129	0xbbf72a42	-0.0075428793
130	0xbd2f18fc	-0.042748436
131	0x3dbac4d0	0.0911957
132	0xbdacad2f	-0.0843147
133	0xbd026abe	-0.03184008
134	0x3c882dda	0.016623426
135	0xbd2f331b	-0.042773347
136	0x3bcaa06f	0.006183676
137	0x3d829963	0.063769124
138	0x3d1afd18	0.037839025
139	0xbcc2ef33	-0.0237957
140	0xbdccfecc	-0.10009536
141	0xbd14b54f	-0.03630572
142	0x3cf7711b	0.0302053
143	0xbda3ac9f	-0.07991909
144	0x3d3ff7e9	0.046867285
145	0xbc585370	-0.013203487
146	0x3d485afd	0.0489149
147	0x3cc11f28	0.023574427
148	0x3ce04ae5	0.027379462
149	0x3d09ae81	0.033613686
150	0x3d06dcac	0.032925293
151	0x3db3a664	0.08771971
152	0x3d879bf8	0.066215456
153	0xbda03b10	-0.07823765
154	0xbd961b3e	-0.07329415
155	0x3d1db136	0.03849908
156	0xbcda8a78	-0.026677355
157	0xbd19adbd	-0.037519205
158	0x3d62b50a	0.055348434
159	0x3d372009	0.044708285
160	0x3c3ab76a	0.011396268
161	0x3d63b14e	0.055589013
162	0xbd38b4d1	-0.045094315
163	0x3c2e047f	0.010621189
164	0x3d11e4b4	0.0356185
165	0x3da92533	0.08259048
166	0xbd848bd2	-0.06471981
167	0x3d0687ac	0.03284423
168	0x3b0a5415	0.0021107246
169	0x3d9d0f53	0.076689385
170	0xbd53abc5	-0.051677484
171	0xbd9a0085	-0.0751963
172	0x3d559942	0.05214811
173	0xbc8cf237	-0.01720534
174	0x3d5b6858	0.053566307
175	0x3dcb4cdd	0.0992677
176	0xbd39bffa	-0.0453491
177	0x3bda571e	0.006663217
178	0x3c07c35e	0.008286325
179	0x3d87755e	0.06614183
180	0x3d9fd559	0.07804365
181	0x3dbf8d71	0.0935315
182	0xbdb6b4b0	-0.08921182
183	0xbd20dee4	-0.039275065
184	0x3dbba4d8	0.09162301
185	0x3d7e604c	0.062103555
186	0xbd0a423d	-0.033754576
187	0x3d01f286	0.03172543
188	0x3cb3acd7	0.021933002
189	0x3db26886	0.087113425
190	0x3c871371	0.016488763
191	0xbbeb8eb6	-0.0071886433
192	0x3d834232	0.0640911
193	0x3d345952	0.044030495
194	0x3db5f780	0.088850975
195	0x3d91afe1	0.07113624
196	0x397e9efa	0.00024282551
197	0x3d4ed409	0.05049518
198	0x3cfcee46	0.030875336
199	0x3d8bd608	0.068279326
200	0x3ca845e0	0.020541131
201	0x3b960306	0.004577997
202	0xbd6e5739	-0.05818865
203	0x3c8b4a5d	0.017003233
204	0xbc96cf08	-0.018409267
205	0xbc401819	-0.011724495
206	0xbc8d064b	-0.017214915
207	0xbdb8afda	-0.09017916
208	0x3d97750c	0.07395372
209	0x3d99f5a5	0.07517556
210	0x3d135904	0.035973564
211	0xbd760f8a	-0.060073413
212	0xbb8095dd	-0.003924115
213	0x3ce806ed	0.028323615
214	0xbd5f4f7a	-0.054519154
215	0x3d6564ea	0.056004442
216	0x3d299c56	0.04140886
217	0x3c6fd90d	0.014639151
218	0x3dd674b7	0.1047148
219	0xbd532baa	-0.051555313
220	0x3d662cb8	0.05619499
221	0xbd1645b2	-0.03668756
222	0x3d632260	0.055452704
223	0xbd6d936d	-0.058001924
224	0xbdd6c95a	-0.104876235
225	0xbd032234	-0.03201504
226	0x3c88e15a	0.016709018
227	0xba702a88	-0.0009161611
228	0x3cfad1af	0.030617563
229	0xbd971361	-0.07376743
230	0xbd39ad27	-0.045331147
231	0xbbb9a736	-0.005665685
232	0xbd8cd6c0	-0.06876898
233	0x3daa48b2	0.08314647
234	0xbbf2abff	-0.0074057574
235	0xbd8c061c	-0.06837103
236	0x3c922ff9	0.01784514
237	0x3ca1810c	0.019714855
238	0x3ca2a763	0.019855207
239	0x3c7b455d	0.015336362
240	0xbc822c4c	-0.015890263
241	0xbd38cc8f	-0.045116957
242	0xbd48040f	-0.048831996
243	0xbd45ee0b	-0.04832272
244	0x3d839895	0.06425587
245	0xbd8b51b9	-0.06802697
246	0xbc7fdc3f	-0.015616476
247	0x3c72e743	0.014825645
248	0xbd4354ca	-0.047688283
249	0xbd2abd3c	-0.041684374
250	0x3c4640e7	0.012100435
251	0xbd4a07e6	-0.04932394
252	0xbd22f0c5	-0.039780397
253	0x3cf6682f	0.030078975
254	0x3dea4615	0.11439148
255	0x3ce01856	0.027355354

module.conv_1.bias f4 [56]
0	0x3ca6238d	0.020280624
1	0x3d350641	0.044195417
2	0x3d985bb1	0.07439364
3	0xbc179068	-0.009250738
4	0xbcb48283	-0.02203489
5	0x3d416681	0.047216896
6	0x3caf41a7	0.02139361
7	0xbcf19eba	-0.029494632
8	0x3d9134b2	0.07090129
9	0x3c2cfd16	0.010558387
10	0x3d9f3f5d	0.077757575
11	0x3d3879ad	0.045037914
12	0x3d91302d	0.07089267
13	0x3da7d896	0.08195607
14	0x3daf2b97	0.08553236
15	0x3c9ce25a	0.019150902
16	0x3d82b763	0.063826345
17	0x3ce1befd	0.02755689
18	0xbcb064b2	-0.02153239
19	0xbd77f30f	-0.060534533
20	0xbd70aa4a	-0.05875615
21	0x3d0fd659	0.035116527
22	0xbcce2018	-0.025161788
23	0xbc3bf26a	-0.01147137
24	0x3db37c3e	0.08763932
25	0xbc1c3bac	-0.009535711
26	0x3d2e5232	0.042558856
27	0xbd703b86	-0.058650516
28	0x3d03a464	0.032139197
29	0x3c7dc758	0.015489422
30	0xbc978ef8	-0.01850079
31	0x3ce2e8d8	0.02769892
32	0x3ce74f63	0.028236097
33	0x3d52099f	0.051278707
34	0xbc614c31	-0.013751076
35	0x3c3cd656	0.011525711
36	0x3a90b256	0.0011039476
37	0x3c9af265	0.01891441
38	0x3d959bbb	0.07305094
39	0xbd1ddcbc	-0.038540587
40	0x3c905ee1	0.017623367
41	0x3d8a13b8	0.06742042
42	0xbcfb1867	-0.030651284
43	0x3dc2c8bf	0.095109455
44	0xbd425866	-0.047447585
45	0x3d966a94	0.07344547
46	0x3dc5c85a	0.09657355
47	0x3d104e12	0.035230704
48	0xbd9be570	-0.07612121
49	0x3d56dcc4	0.052456632
50	0x3c1f8c93	0.009738105
51	0x3d80b75a	0.062849715
52	0xbc25cd98	-0.010119818
53	0x3d9adb39	0.07561345
54	0x3d982d19	0.07430477
55	0xbd0144a8	-0.031559616

module.conv_2.weight f4 [12, 56, 1, 1, 1]
0	0x3dfcff9d	0.12353442
1	0x3cf55fca	0.029952902
2	0xbd9d3351	-0.076758035
3	0x3d180ab2	0.037119575
4	0xbe034885	-0.12820633
5	0xbd2b5416	-0.041828237
6	0x3d9367af	0.071975105
7	0x3c86d320	0.016458094
8	0xbd6cba68	-0.05779496
9	0x3e154552	0.14577225
10	0xbdd310d1	-0.10305942
11	0x3e37737e	0.1791515
12	0xbd167fab	-0.036742847
13	0xbcc5416e	-0.02407905
14	0x3d475ccf	0.048672494
15	0x3d3979a9	0.04528204
16	0x3d7e2306	0.06204512
17	0x3e023aad	0.12717696
18	0x3bb1f282	0.0054305205
19	0xbd1c24cf	-0.03812104
20	0xbddb387a	-0.107041314
21	0x3d213966	0.03936138
22	0x3dbd5d8c	0.09246358
23	0x3d0724f5	0.03299423
24	0x3c89749a	0.016779233
25	0x3d80f2b3	0.06296291
26	0x3c4f7137	0.01266127
27	0x3c15a1bf	0.009132802
28	0x3d8a21e2	0.06744744
29	0x3d003357	0.03129896
30	0x3e3324f8	0.17494571
31	0x3da04a58	0.0782668
32	0x3d48f5f8	0.0490627
33	0x3c802a2e	0.015645113
34	0x3dc02f5b	0.09384032
35	0x3ddbf873	0.10740747
36	0x3e02535a	0.12727109
37	0xbd938352	-0.07202782
38	0x3db8341a	0.089943126
39	0x3e3a399e	0.18186042
40	0x3d511581	0.0510459
41	0xbde11412	-0.10990156
42	0x3e0f903a	0.14019862
43	0x3d3c1f23	0.04592813
44	0x3bb53469	0.0055299294
45	0xbd247ac1	-0.04015613
46	0x3dc2c888	0.095109046
47	0x3d9a6c44	0.07540181
48	0x3d9ff1f0	0.07809818
49	0x3dea8cb5	0.11452619
50	0x3d98e493	0.07465472
51	0xbd15c23e	-0.036562197
52	0x3dd653dc	0.10465214
53	0x3dc4e428	0.0961383
54	0xbd4e1c45	-0.05031993
55	0x3d23ded6	0.040007435
56	0xbe29ce22	-0.1658254
57	0x3df88109	0.121339865
58	0xbd22654f	-0.039647397
59	0x3de13f9b	0.1099846
60	0xbd86fe17	-0.065914325
61	0xbd6aa5d3	-0.05728705
62	0xbcc650b3	-0.024208402
63	0xbdfa1ed7	-0.122129135
64	0x3d86fcc5	0.06591181
65	0x3d80299e	0.06257938
66	0xbd1fe951	-0.039040867
67	0x3d91df55	0.07122675
68	0x3e00c1d4	0.1257394
69	0x3e049f38	0.12951362
70	0xbe0dd8b2	-0.13852194
71	0x3cbb11e0	0.022835672
72	0x3dace2f9	0.08441729
73	0xbdfc0168	-0.12304956
74	0x3e054d69	0.13017811
75	0x3dd707a2	0.10499503
76	0x3e036c92	0.12834385
77	0xbdaa1ab1	-0.08305872
78	0x3d55122e	0.05201929
79	0x3e0a0d86	0.13481721
80	0xbcaf6135	-0.021408657
81	0xbcccbb0e	-0.024991538
82	0xbe09df6c	-0.13464135
83	0xbd57fb04	-0.05272962
84	0x3c7109bf	0.014711796
85	0x3d76c2ef	0.060244497
86	0xbb94b40f	-0.004538066
87	0xbb2da56c	-0.0026496304
88	0xbe012e75	-0.12615378
89	0xbd9c1c75	-0.07622615
90	0xbd43e6c3	-0.047827493
91	0xbe39f2f7	-0.1815909
92	0x3e000992	0.12503651
93	0xbd9e5c41	-0.0773244
94	0xbda246ee	-0.07923685
95	0xbdbfc1fc	-0.093631715
96	0x3de2c8b7	0.110734396
97	0xbdb90778	-0.09034628
98	0xbdeb0732	-0.11475982
99	0xbd843fa0	-0.06457448
100	0x3d3a12b9	0.04542801
101	0x3d0b6f65	0.03404178
102	0xbe0efd1a	-0.13963738
103	0x3c611b62	0.013739439
104	0x3df707dd	0.12062047
105	0x3de12f90	0.109954
106	0x3c7a655f	0.015282958
107	0xbdc0d523	-0.094156526
108	0x3dae0ceb	0.08498558
109	0xbe0d4c55	-0.1379865
110	0xbe143234	-0.14472276
111	0x3d3b8a92	0.045786448
112	0x3de84a43	0.11342289
113	0xbd9dfa6b	-0.07713779
114	0xbd5fb13d	-0.054612387
115	0x3caf47ff	0.021396635
116	0xbdf0cd7a	-0.117579415
117	0x3d13c551	0.036076847
118	0x3e19a761	0.15005256
119	0xbd98b09a	-0.07455559
120	0xbe00adfe	-0.12566373
121	0xbb4070e3	-0.002936416
122	0x3da6290d	0.081132986
123	0x3db38ab2	0.087666884
124	0x3dbceaae	0.09224449
125	0xbd92cd85	-0.07168106
126	0xbc1f4e0e	-0.0097231995
127	0xbd9dff13	-0.07714667
128	0xbddc1227	-0.1074565
129	0x3dbea4ac	0.093087524
130	0x3e01a0c5	0.12658985
131	0x3e0b8234	0.13623887
132	0x3dbc8cae	0.0920652
133	0x3de337e5	0.110946454
134	0x3dbeb13c	0.093111485
135	0x3dd942e8	0.106084645
136	0xbd2d955a	-0.04237876
137	0xbe0869d3	-0.13321619
138	0xbdb4509d	-0.08804438
139	0x3a7ba748	0.0009599817
140	0xbd351e25	-0.0442182
141	0xbddc5376	-0.107581064
142	0xbdd37109	-0.10324294
143	0x3d97813c	0.073976964
144	0x3df426f1	0.1192149
145	0xbd2492a7	-0.04017892
146	0x3cc79971	0.024365159
147	0xbda41af6	-0.08012955
148	0x3db89680	0.090130806
149	0xbe26740d	-0.16255207
150	0xbd107d86	-0.03527596
151	0xbce63486	-0.028101217
152	0xbe058dff	-0.13042448
153	0x3d8e0983	0.06935408
154	0xbc8ad485	-0.01694704
155	0xbbd8d027	-0.0066166106
156	0x3d93ed90	0.07223046
157	0x3baf38fa	0.0053473683
158	0xbdc1d4fd	-0.094644524
159	0xbca60019	-0.020263718
160	0x3d91575d	0.07096741
161	0xbb7724cb	-0.003771114
162	0x3dba9ebd	0.09112308
163	0x3da2a8a0	0.07942319
164	0x3d29e71f	0.04148018
165	0x3d8b4825	0.0680087
166	0xbc3ef7e5	-0.011655782
167	0x3d2422e0	0.040072322
168	0x3d9dda34	0.077076346
169	0x3dd0bd31	0.101923354
170	0x3e17e3a8	0.14832938
171	0x3ac28c45	0.0014842829
172	0x3c48f045	0.012264316
173	0x3bc2522c	0.005930206
174	0x3dee0f12	0.11623968
175	0xbe047d21	-0.12938358
176	0x3df57b1a	0.119863704
177	0x3dec7cf5	0.11547271
178	0x3d85e06c	0.06536946
179	0xbd62146d	-0.05519526
180	0xbd38b5e7	-0.04509535
181	0x3dd12acf	0.10213243
182	0x3e00157b	0.12508194
183	0xbe1c2f81	-0.15252496
184	0x3e17ab21	0.14811374
185	0x3baeadeb	0.005330791
186	0x3cf2acf4	0.029623486
187	0x3d11131f	0.035418626
188	0xbdfc1e4b	-0.123104654
189	0x3d2b24e3	0.041783225
190	0xbcda74c2	-0.026667003
191	0x3dbecfde	0.09316991
192	0xbdcb737d	-0.09934137
193	0x3d9bf015	0.076141514
194	0xbd031b45	-0.032008428
195	0x3c9010ba	0.0175861
196	0x3db51c13	0.08843245
197	0xbdf4d5fa	-0.11954875
198	0x3dc8a7a6	0.097976014
199	0xbd69c22a	-0.057069935
200	0xbda5c757	-0.08094662
201	0xbb63b529	-0.003474543
202	0x3e0acaa2	0.13553861
203	0x3e52dd1d	0.2059216
204	0xbdaf5d00	-0.0856266
205	0x3de2aff3	0.11068716
206	0x3e38c3ad	0.18043394
207	0xbdd3f4f5	-0.10349456
208	0x3deca82f	0.11555516
209	0xbde495b2	-0.111613646
210	0x3dfa8ef7	0.122343
211	0x3d9b20b4	0.07574597
212	0x3d8127a0	0.06306386
213	0xbcaba495	-0.020952502
214	0xbcb88258	-0.02252309
215	0x3ddf4762	0.10902287
216	0xbd90cb92	-0.07070078
217	0xbcacdd08	-0.02110149
218	0x3d5c5146	0.053788446
219	0xbafe5cd2	-0.0019406325
220	0x3d84e996	0.064898655
221	0xbd275fc3	-0.04086281
222	0xbd71bc36	-0.059017383
223	0xbcb395d0	-0.021922022
224	0xbe3a6037	-0.18200766
225	0x3de2ebca	0.110801294
226	0x3dcde1a4	0.10052803
227	0xbe1d6891	-0.1537192
228	0x3db54ee4	0.08852938
229	0xbe057bb9	-0.13035478
230	0xbd0d3045	-0.03446986
231	0x3ca66cf3	0.020315623
232	0x3df94373	0.12171068
233	0xbdf2b0d0	-0.118501306
234	0x3dad2bcf	0.084556215
235	0xbe2f8c98	-0.17143476
236	0x3dc54fd5	0.096343674
237	0xbd18d76c	-0.037314817
238	0xbd2890c0	-0.04115367
239	0xbd615d09	-0.055020366
240	0xbd869278	-0.065709054
241	0xbe339192	-0.17536
242	0x3d9add71	0.07561768
243	0xbdb3e3cc	-0.08783683
244	0xbe004d6d	-0.12529536
245	0x3dc21722	0.094770685
246	0x3dddc529	0.10828621
247	0x3de2ca4b	0.110737406
248	0xbba09e55	-0.004901687
249	0x3c9b3aa7	0.018948866
250	0x3c1c198a	0.009527573
251	0x3d0cdbc6	0.03438928
252	0xbdd06ddb	-0.10177203
253	0x3e0722e6	0.13196906
254	0x3e60284c	0.21890372
255	0x3d08d4d7	0.033406105

module.conv_2.bias f4 [12]
0	0xbd987430	-0.07444036
1	0x3dacc3e8	0.08435804
2	0x3bea5096	0.00715072
3	0x3dd33d6d	0.103144504
4	0x3daca82a	0.08430512
5	0xbd9bc490	-0.07605851
6	0x3dbb3017	0.09140032
7	0xbcd6ca66	-0.026219558
8	0xbda70b77	-0.081564836
9	0x3c0b7fd4	0.008514363
10	0x3c8e1bdf	0.017347274
11	0x3c6cd646	0.014455384

module.conv_3.weight f4 [12, 12, 3, 3, 3]
0	0x3cdd9592	0.02704886
1	0xbca5f795	-0.020259658
2	0x3d05061d	0.032476533
3	0xbcad9fc4	-0.021194346
4	0xbcd42a0b	-0.025898954
5	0x3c1e45f1	0.00966023
6	0xbc76a42b	-0.015053789
7	0xbd04bc4a	-0.03240613
8	0xbcf25720	-0.02958256
9	0xbd0ce391	-0.03439671
10	0xbd6a805d	-0.057251323
11	0x3d47b99a	0.048760988
12	0x3ba7f504	0.0051256437
13	0x3c387e1e	0.011260537
14	0x3bee99a0	0.007281497
15	0x3d14865f	0.03626096
16	0xbd755757	-0.059897747
17	0x3c5ac63d	0.013352928
18	0xbbcd1c67	-0.0062594893
19	0x3bbf87d8	0.0058450513
20	0x39daa85f	0.00041705646
21	0x3d4d76fa	0.050162293
22	0xbc1d7ad5	-0.009611805
23	0x3b54379e	0.0032381783
24	0xbc2230b1	-0.009899304
25	0x3d456ccf	0.04819947
26	0xbd0eb599	-0.034841154
27	0xbd560342	-0.0522492
28	0x3d391f69	0.04519597
29	0xbbbb8e81	-0.005723775
30	0x3c5f6700	0.013635397
31	0x3b17f8e9	0.0023189133
32	0xbd13f394	-0.036120966
33	0xbd083d97	-0.03326186
34	0x3d5e6d5e	0.05430352
35	0xbbd3005f	-0.006439253
36	0xbd5a229b	-0.05325566
37	0xbd1aa425	-0.037754197
38	0xbcceacdc	-0.02522891
39	0xbd05a86f	-0.032631334
40	0x3d602a61	0.054727916
41	0xbd4ce644	-0.050024286
42	0xbc3a5e63	-0.011375043
43	0x3a75f232	0.0009382098
44	0x3bba89ff	0.00569272
45	0xbd2bc892	-0.041939326
46	0x3d053166	0.032517813
47	0xbbb727d5	-0.005589465
48	0x3c3b7dac	0.011443537
49	0xbcfd02e3	-0.030885166
50	0xbd2c5e07	-0.04208186
51	0x3d3cb4f6	0.046071015
52	0x3bf8ff90	0.007598825
53	0x3d6f3565	0.05840053
54	0xbcb075fb	-0.021540632
55	0xbd2695ef	-0.04067033
56	0xbd4b9d8d	-0.0497108
57	0x3c51e1cc	0.012810182
58	0x3d1c1033	0.038101386
59	0x3d1a0f04	0.037611976
60	0x3ca4d56c	0.020121299
61	0xbd1a2a66	-0.03763809
62	0xbd467d4c	-0.048459336
63	0xbd390213	-0.045167994
64	0x3d2289d8	0.03968224
65	0xbcf1d5b3	-0.029520845
66	0x3cb0b823	0.021572178
67	0x3d149c28	0.036281735
68	0xbcbbb177	-0.02291177
69	0xbbb86cb5	-0.0056281933
70	0x3d0d1136	0.03444024
71	0xbd3df2ce	-0.046374135
72	0xbcc32ab2	-0.02382407
73	0xbcc2aa9c	-0.023762994
74	0x3ce5a1cf	0.028031258
75	0xbd0ae165	-0.03390636
76	0xbd441375	-0.04787012
77	0x3d697929	0.057000313
78	0xbd0e7b4b	-0.03478555
79	0x3cfc36d9	0.030787872
80	0xbbb43005	-0.0054988884
81	0x3d1b7dd8	0.03796181
82	0x3c41b8b3	0.011823821
83	0x3d4fa976	0.05069872
84	0xbcc05b8e	-0.023481157
85	0xbd0efcd4	-0.034909084
86	0x3ca0c74f	0.019626288
87	0x3d5230db	0.051316123
88	0x3cc56aee	0.02409884
89	0xbc58cebe	-0.013232885
90	0xbbcff590	-0.006346412
91	0xbd48919f	-0.048967
92	0xbc59ab8b	-0.013285528
93	0xbb61a5c6	-0.0034431084
94	0x3c44ca67	0.012011147
95	0x3d352164	0.044221297
96	0x3cb0668a	0.02153327
97	0xbd1f27b4	-0.038856223
98	0xbd25e1fc	-0.04049872
99	0x3d55c3ba	0.052188613
100	0xbc0db0ee	-0.00864814
101	0xbcbd72ea	-0.023126084
102	0xbc3946b3	-0.01130836
103	0xba903cf7	-0.0011004497
104	0x3d46a1e2	0.048494227
105	0xbc8bff8d	-0.01708963
106	0xbc1eb3e3	-0.009686443
107	0xbc9da13f	-0.019241927
108	0x3d723d6f	0.05914062
109	0x39d39bbc	0.00040361087
110	0xbd121250	-0.035661995
111	0x3c6ee729	0.01458148
112	0xbcbb52c4	-0.022866614
113	0x3c9c6399	0.01909046
114	0xbd0421e6	-0.03225889
115	0x3d0075e3	0.031362426
116	0x3d5a18ee	0.05324643
117	0x3d63d2af	0.055620845
118	0x3d04869c	0.032354936
119	0x3d36aba8	0.044597298
120	0xbd28e8ea	-0.04123775
121	0x3d1242f9	0.0357084
122	0x3c364daa	0.011126915
123	0x3c273a70	0.010206804
124	0xbc151b12	-0.009100692
125	0xbcfc48f2	-0.030796502
126	0xbd386379	-0.04501674
127	0x3c9449d1	0.018101605
128	0x3c997bd9	0.018735813
129	0x3ca056ea	0.019572694
130	0x3d648ebb	0.05580018
131	0x3c82b252	0.01595417
132	0xbd46cb45	-0.048533697
133	0xbd269a83	-0.040674698
134	0xbc990823	-0.018680638
135	0xbcaa8854	-0.02081696
136	0x3ca1d66b	0.019755563
137	0xba97462e	-0.0011541301
138	0x3c1c2deb	0.009532432
139	0xbbb51dea	-0.0055272477
140	0x3cbdec8a	0.02318408
141	0xbd156249	-0.036470685
142	0xbd055779	-0.032554124
143	0xbc57a247	-0.0131612485
144	0xbd6fe16b	-0.058564585
145	0x3d0a5c09	0.033779178
146	0xbd1a864f	-0.037725743
147	0x3cc5d25d	0.02414816
148	0xbb2d248d	-0.002641949
149	0x3cce7701	0.02520323
150	0xbd13b057	-0.036056843
151	0xbca1aafb	-0.01973485
152	0x3c366f09	0.011134871
153	0xbb5a37c9	-0.003329741
154	0x3c8abbf0	0.016935319
155	0x3cc01a45	0.023450026
156	0x3c29865b	0.010346974
157	0x3d20471f	0.039130326
158	0x3c7c9867	0.015417195
159	0x3a752147	0.0009350967
160	0x3c2da86f	0.01059924
161	0x3c46b265	0.0121274935
162	0xbcc4e8ca	-0.024036784
163	0xbc8d29ea	-0.0172319
164	0x3d86658a	0.06562336
165	0xbc908797	-0.01764278
166	0x3cf2ebfe	0.029653545
167	0x3d140e4d	0.03614645
168	0x3be6f8d6	0.0070487065
169	0x3d4cc174	0.04998918
170	0x3c5a04f1	0.013306842
171	0xbbb54db6	-0.0055329455
172	0x3d445a19	0.047937486
173	0xbcf67b76	-0.030088168
174	0x3d83d10e	0.064363584
175	0x3d759f3a	0.059966303
176	0x3d11c751	0.035590474
177	0x3d2868af	0.04111546
178	0xbc1d47b8	-0.009599619
179	0x3b0a7d5c	0.002113185
180	0xbd197f92	-0.037475176
181	0x3d88c57e	0.06678294
182	0x3d27d42c	0.040973827
183	0xbb39b619	-0.0028337298
184	0x3cb2372d	0.021754825
185	0x3c820da1	0.01587564
186	0x3cbce9d8	0.023060724
187	0xbcf36c28	-0.029714659
188	0x3ba915f9	0.00516009
189	0x3c26f971	0.010191307
190	0x3c955b78	0.018232092
191	0x3d094041	0.033508543
192	0x3ac00d4b	0.0014652399
193	0x3d988576	0.07447331
194	0x3c663286	0.014050132
195	0x3cec6de6	0.028860997
196	0x3da1ebb9	0.07906289
197	0xbcb03885	-0.021511326
198	0x3d693b99	0.056941602
199	0xbc93bcac	-0.018034302
200	0xbca79179	-0.020455109
201	0xbd7f3807	-0.06230929
202	0xbd387468	-0.04503289
203	0xbd02bc62	-0.031917937
204	0xbd5c96aa	-0.053854622
205	0x3d8aef01	0.067838676
206	0x3d51863f	0.051153418
207	0x3d1f59a2	0.03890384
208	0xbb35c3b6	-0.002773506
209	0x3d4f6abd	0.050638903
210	0xbd3b22bc	-0.045687422
211	0xbc05b6c9	-0.008161255
212	0x3a9d8694	0.0012018257
213	0x3d573b31	0.052546684
214	0x3bebefdc	0.0072002243
215	0x3caf7ccd	0.021421814
216	0x3d05668e	0.032568507
217	0x3bc249a8	0.0059291907
218	0xbcc379f9	-0.023861872
219	0xbc205f50	-0.009788349
220	0x3c616247	0.013756341
221	0x3cb3f4c9	0.021967309
222	0xbcf35feb	-0.029708823
223	0xbd762a95	-0.060099203
224	0x3ba28490	0.0049596503
225	0x3c38181a	0.011236215
226	0x3cc654c2	0.024210338
227	0xbc6ee519	-0.014580988
228	0x3d403518	0.046925634
229	0xbb90e08a	-0.0044212984
230	0x3aa57ef0	0.0012626331
231	0xbca09c6d	-0.01960584
232	0xbc0f4144	-0.008743588
233	0xbcd1fcde	-0.025633272
234	0x3ce21186	0.027596246
235	0x3d43f91d	0.047844995
236	0x3bcf561a	0.006327403
237	0x3cc1c93a	0.023655523
238	0xbd05c8ae	-0.032662086
239	0x3bb7237a	0.005588946
240	0xbd1fee1e	-0.039045446
241	0xbd25279f	-0.04032099
242	0xbd4e598d	-0.05037837
243	0xbd6f2c8c	-0.058392093
244	0xbd6fc6c8	-0.058539182
245	0xbc58e407	-0.01323796
246	0xbafa4653	-0.0019094445
247	0x3d17db56	0.03707441
248	0xbd691013	-0.056900095
249	0x3d80382a	0.062607124
250	0x3cc05df5	0.023482302
251	0x3c170979	0.009218567
252	0xbd4335f5	-0.04765888
253	0x3c5adc15	0.013358136
254	0xbd40c78b	-0.0470653
255	0xbb695a69	-0.0035606867

module.conv_3.bias f4 [12]
0	0x3d7f145a	0.06227527
1	0x3d025732	0.031821437
2	0x3c20f87a	0.009824866
3	0x3d2caf9f	0.042159673
4	0x3d1fc6f4	0.039008096
5	0xbcb0275e	-0.021503147
6	0xbd5aea24	-0.05344595
7	0xbc61fb43	-0.013792816
8	0xbd086ac4	-0.033304945
9	0xbbde3f5f	-0.0067824568
10	0x3c27869e	0.010224966
11	0x3d2462e1	0.04013336

module.conv_4.weight f4 [12, 12, 3, 3, 3]
0	0xbc144815	-0.009050389
1	0x3ca0d6a2	0.019633595
2	0xbd747f3a	-0.059691645
3	0x3c6bc295	0.014389654
4	0x3ab86ff6	0.0014071453
5	0x3d37c7dd	0.04486834
6	0xbcdf903c	-0.027290456
7	0x3ca75e99	0.02043085
8	0xbce7f9dc	-0.028317384
9	0xbba65dca	-0.0050770985
10	0x3d897d14	0.0671331
11	0x3c40abe1	0.011759729
12	0x3d576cb6	0.05259391
13	0x3be9a8f3	0.007130736
14	0xbca4f456	-0.02013604
15	0x3cb9e9ca	0.022694487
16	0xbd1dfdc3	-0.038572084
17	0xbc43e9da	-0.01195761
18	0x3d4aa5c6	0.0494745
19	0x3b87108f	0.004121847
20	0x3d3de252	0.046358414
21	0x3d066098	0.032806963
22	0x3d9175f6	0.071025774
23	0x3d3c2b86	0.045939945
24	0x3d461309	0.048357997
25	0x3c145b3c	0.009054955
26	0xbd2b3634	-0.04179974
27	0x3cbad21b	0.022805264
28	0x3d25e23b	0.040498953
29	0x3d2f212f	0.042756256
30	0x3dbb3127	0.091402344
31	0x3d8e3a41	0.06944705
32	0x3d29bd6f	0.041440424
33	0x3d921bb6	0.07134192
34	0xbcb4196a	-0.021984775
35	0xbd16ce85	-0.036818046
36	0xbc938b02	-0.01801062
37	0xbd21fd82	-0.039548405
38	0xbd434656	-0.0476745
39	0x3cb25ad6	0.02177183
40	0xbd7805b2	-0.060552306
41	0x3d703aab	0.0586497
42	0xbbb7adec	-0.00560545
43	0xbd3892ee	-0.045061998
44	0xbd18c796	-0.037299715
45	0xbcd5d238	-0.026101217
46	0x3c9f534f	0.019448904
47	0x3aafd040	0.0013413504
48	0xbc51a1cc	-0.012794923
49	0xbcd02f83	-0.02541328
50	0x3d34307e	0.04399156
51	0x3cbe1bb7	0.023206575
52	0x3a01ac23	0.000494661
53	0x3d8c52d9	0.068517394
54	0x3dad6959	0.08467359
55	0x3d94952e	0.07255016
56	0x3c8369cb	0.016041657
57	0x3c99c767	0.01877184
58	0x3c91adf6	0.017783146
59	0xbd3095f7	-0.043111768
60	0xbd59648c	-0.053074405
61	0x3d3ad4d4	0.045613125
62	0xbde03eda	-0.10949488
63	0xbc64423c	-0.013931807
64	0x3d04d606	0.03243067
65	0xbc5addae	-0.013358517
66	0x3e4ae9b4	0.19815713
67	0x3e393442	0.18086341
68	0x3e175c45	0.14781292
69	0x3dd04f38	0.1017136
70	0x3e3b11d0	0.18268514
71	0x3db20ddc	0.0869405
72	0xbd8b20c4	-0.06793359
73	0xbe16edc4	-0.14739138
74	0xbe108e4a	-0.14116779
75	0x3c9f1a10	0.019421607
76	0x3daee2b0	0.08539331
77	0x3d13ae33	0.0360548
78	0xbc01ce17	-0.007922671
79	0x3de97a57	0.114002876
80	0xbd71a046	-0.05899074
81	0xbc629b1b	-0.013830925
82	0x3d4e6f44	0.05039908
83	0xbb56a503	-0.0032752163
84	0xbd5ede16	-0.054411016
85	0xbd5a755a	-0.05333457
86	0x3d4635d0	0.048391163
87	0xbcbbf2fe	-0.022943016
88	0xbd21cc7c	-0.039501652
89	0x3c7cc967	0.015428877
90	0xbba31ffb	-0.0049781776
91	0xbd6d6412	-0.057956763
92	0xbc0e471f	-0.008683949
93	0x3cacb4d5	0.021082321
94	0xbca71c7d	-0.020399326
95	0xbc4195f9	-0.011815541
96	0x3d3294f0	0.04359907
97	0x3c83941d	0.016061837
98	0x3d533df9	0.051572774
99	0xba3cff3c	-0.0007209664
100	0x3b76a6c3	0.0037636019
101	0x3cfd6532	0.030932043
102	0xbcb4863b	-0.022036662
103	0x3d19f6f1	0.037589017
104	0xbcebc6bb	-0.028781286
105	0xbc878740	-0.016543984
106	0xbcc50b99	-0.024053382
107	0x3c5d3189	0.01350058
108	0xbaa568ec	-0.001261977
109	0x3ccc88fe	0.024967667
110	0xbb23180d	-0.0024886162
111	0xbd610833	-0.05493946
112	0xbc6120a2	-0.01374069
113	0xbc23b223	-0.009991202
114	0xbb8fcbbf	-0.004388302
115	0xbc637348	-0.013882466
116	0xbd139344	-0.036029115
117	0x3ccb857b	0.024843922
118	0xbd27d4a6	-0.04097428
119	0x3d29e9bc	0.041482672
120	0xbbc871b4	-0.00611707
121	0xbd6e6c02	-0.058208473
122	0x3ae86562	0.001773041
123	0xbcd30472	-0.025758956
124	0xbd2878c3	-0.041130792
125	0x3c4da634	0.012551833
126	0xbcc7029c	-0.024293236
127	0x3c313621	0.010816128
128	0x3bb5590d	0.0055342973
129	0x3d0d2325	0.034457345
130	0xbd1de9c1	-0.038553003
131	0x3d77cd65	0.060498614
132	0xbc4f0855	-0.012636264
133	0xbcbc4077	-0.022979958
134	0xba7d18fc	-0.0009654907
135	0x3d1d7132	0.03843803
136	0x3d2887fa	0.041145302
137	0xbd025fa6	-0.0318295
138	0x3d611053	0.05494721
139	0x3d34ea43	0.044168722
140	0xbcc6df39	-0.024276363
141	0xbd02a072	-0.031891294
142	0x3cac03f1	0.020997973
143	0xbd2cef45	-0.042220373
144	0x3b89635a	0.004192752
145	0xbd385f4c	-0.045012757
146	0xbc8c4c0a	-0.017126102
147	0xbbed8682	-0.0072487006
148	0x3d65d6b2	0.056112953
149	0xbd49ab05	-0.049235363
150	0x3d9c0ecf	0.07620012
151	0x3b8e04c9	0.0043340665
152	0x3d2bffb6	0.04199191
153	0xbbd4ba53	-0.006491938
154	0xbcf3a876	-0.029743414
155	0x3d20c12b	0.03924672
156	0x3c4aa24f	0.012367799
157	0xbcb42093	-0.021988189
158	0xbd2074b1	-0.039173786
159	0x3c730cb9	0.014834576
160	0x3c99a25d	0.018754179
161	0xbbbb319c	-0.005712701
162	0xbce73576	-0.028223734
163	0xb9ac6643	-0.00032882587
164	0x3b0dfbe9	0.0021665043
165	0xbc336f17	-0.010951779
166	0xbd0f9111	-0.035050455
167	0x3cb077ad	0.02154144
168	0x3c7f8dea	0.0155978
169	0x3d0a4733	0.033759307
170	0xbd4be501	-0.049778942
171	0x3b396e29	0.002829442
172	0x3d448d6d	0.047986437
173	0xbd3d4af2	-0.04621405
174	0xbcbe7764	-0.02325029
175	0x3c6db8ea	0.014509419
176	0xbcded88d	-0.027202869
177	0x3c4f74d8	0.012662135
178	0x3bddf2f4	0.006773347
179	0x3d14f39c	0.036365137
180	0x3cb7744b	0.02239432
181	0xbd60c6b3	-0.054876994
182	0xbd0c6c35	-0.03428288
183	0x3c61f138	0.013790421
184	0xbcf79f7d	-0.030227417
185	0x3b7e4987	0.003880115
186	0x3c41b7da	0.011823619
187	0xbbd76519	-0.006573331
188	0xba1f53bf	-0.0006077848
189	0x3c98253d	0.018572444
190	0x3d5f810b	0.054566424
191	0x3c850430	0.016237348
192	0x3d3a1099	0.045425985
193	0xbd6ae366	-0.05734577
194	0x3c8331b5	0.016014913
195	0x3d33349c	0.043751344
196	0x3d1caa85	0.038248558
197	0x3c07db1d	0.008291987
198	0x3d32d94b	0.043664258
199	0x3d347d9e	0.04406511
200	0x3b0a5285	0.0021106314
201	0x3b0439d0	0.002017606
202	0x3cb7aa8b	0.022420188
203	0xbccf93b9	-0.025338994
204	0x3cb9277d	0.022601837
205	0xbce7c567	-0.028292371
206	0x3d2bcd92	0.041944094
207	0xbd2c5857	-0.042076435
208	0xb9a65580	-0.0003172569
209	0x3c8e17bc	0.017345302
210	0x3af7d9db	0.001890953
211	0xbd807f11	-0.06274236
212	0x3d0f288b	0.034950774
213	0x3cb5f5c8	0.022211924
214	0xbbfcdde9	-0.0077168834
215	0x3cb782f4	0.02240131
216	0x3caf2649	0.02138056
217	0x3cbac34b	0.022798201
218	0xbcc139c0	-0.023587108
219	0x3d1e268a	0.038610972
220	0xbd48dd96	-0.049039446
221	0x3b0d7816	0.002158647
222	0x3ba865c8	0.0051390864
223	0xbc4ff557	-0.012692771
224	0xbb484fcc	-0.003056514
225	0x3bafe3e4	0.005367743
226	0xbbfd4f3b	-0.0077303923
227	0x3bd14123	0.0063859387
228	0xbb6e5193	-0.003636454
229	0x3c51cc9f	0.012805133
230	0xbd3205b8	-0.043462485
231	0x3c397b70	0.011320934
232	0xbc2d8aa3	-0.010592136
233	0xba524644	-0.00080213347
234	0xbc2b983f	-0.01047331
235	0xbce01f26	-0.027358603
236	0x3c784585	0.0151532935
237	0x3a6095b1	0.00085672276
238	0x3cf4e563	0.029894536
239	0x3c099bcd	0.008398962
240	0xbd2ef5ae	-0.042714767
241	0x3bf2f3fc	0.007414339
242	0x3c870a8d	0.016484523
243	0x3d6defa8	0.058089882
244	0xbd26086d	-0.04053538
245	0xbcf8935f	-0.03034371
246	0x3cee4598	0.02908592
247	0x3d402e0f	0.046918925
248	0x3cd38309	0.025819318
249	0x3d4ac417	0.049503412
250	0xbd3ed777	-0.046592202
251	0xbd4737b8	-0.048637122
252	0xbbd485c4	-0.0064856727
253	0x3daaa2b2	0.08331813
254	0x3d241c6f	0.04006618
255	0xbbefc60c	-0.00731731

module.conv_4.bias f4 [12]
0	0xbd4ecebb	-0.050490122
1	0xbc6e9ef7	-0.014564267
2	0x3c7cb095	0.01542296
3	0x3cd71f80	0.026260138
4	0xbd1031c4	-0.03520371
5	0x3d84653e	0.06464623
6	0x3c951796	0.018199723
7	0x3afdbdec	0.0019358969
8	0x3d4219b6	0.0473878
9	0x3cf3074d	0.029666567
10	0x3ba58adc	0.0050519537
11	0xbd7d454e	-0.061833672

module.conv_5.weight f4 [12, 12, 3, 3, 3]
0	0xb9eaa751	-0.00044756618
1	0xbd7269e5	-0.05918302
2	0x3d439165	0.04774608
3	0xbb2e290d	-0.002657476
4	0xbd76a521	-0.060216073
5	0x3cf755cf	0.030192284
6	0xbc958c0e	-0.01825526
7	0x3a2b25e0	0.0006528776
8	0xbd5b26d3	-0.053503823
9	0xbb0535b8	-0.0020326208
10	0xbcab74f6	-0.020929795
11	0xbc484eef	-0.0122258505
12	0xbb962f33	-0.0045832633
13	0x3c54c2fd	0.012985942
14	0xb9dcfd59	-0.0004215043
15	0x3d014aa7	0.031565335
16	0xbc1a4287	-0.009415275
17	0x3c093461	0.0083743045
18	0x3d17da6b	0.037073534
19	0xbd1fbf65	-0.039000887
20	0x3d48118c	0.04884486
21	0xbcc7cb9a	-0.024389077
22	0xbca0e476	-0.019640189
23	0x3c395b60	0.011313289
24	0xbbd8cbac	-0.0066160765
25	0xbc1b90ec	-0.009495001
26	0xbd16da99	-0.036829565
27	0x3c509af0	0.0127322525
28	0xbca190a2	-0.019722287
29	0xbcc9d819	-0.024639176
30	0x3c0618d2	0.008184629
31	0x3d485610	0.0489102
32	0x3d1fbfbf	0.039001223
33	0xbc9eae45	-0.019370208
34	0x3c380d0b	0.011233578
35	0x3ca39163	0.019966787
36	0x3d1dbee7	0.038512137
37	0xbcf46a8b	-0.02983596
38	0xbcb00c07	-0.02149011
39	0x3d11c91d	0.035592187
40	0x3d1e7973	0.03869004
41	0x3d4534e0	0.04814613
42	0x3c04685b	0.008081521
43	0x3d4f0d9e	0.050550096
44	0x3ce1339c	0.02749043
45	0xbbbaa281	-0.0056956415
46	0x3cc89f31	0.02448997
47	0x3cf33165	0.02968664
48	0x3d5b00ce	0.053467564
49	0x3bc5cb0d	0.0060361684
50	0xbd52289b	-0.051308256
51	0x3d487c2e	0.048946552
52	0xbd2541ab	-0.04034583
53	0xbd4c70ed	-0.049912382
54	0xbcce62f5	-0.02519367
55	0x3d2bf869	0.04198495
56	0x3c4b1db2	0.012397217
57	0x3a04f00d	0.0005071171
58	0x3c14c4b6	0.009080103
59	0x3cbbbc2d	0.022916878
60	0x3d5c721e	0.053819768
61	0x3cbcb9c3	0.023037797
62	0xbcbaa607	-0.022784246
63	0x3ca4423a	0.02005111
64	0xbaf828a1	-0.0018933007
65	0x3d2dbb99	0.042415235
66	0x3c0696b8	0.008214645
67	0x3d86af3a	0.065763906
68	0x3d20f815	0.03929909
69	0x3d7f6582	0.062352665
70	0xbcf4a7fd	-0.02986526
71	0xbd109efc	-0.03530787
72	0xbcf1d9ea	-0.029522855
73	0x3d437688	0.047720462
74	0x3d15b48b	0.036549132
75	0xbb45f9bd	-0.003020867
76	0x3cc363bb	0.023851266
77	0x3d5aa594	0.053380564
78	0xbd2c24cb	-0.042027276
79	0x3cc4610a	0.023972053
80	0x3c6137cc	0.013746213
81	0xbd5eff1e	-0.054442517
82	0xbc853b96	-0.016263764
83	0x3d16efbd	0.036849726
84	0x3d054365	0.032534976
85	0x3ba03fb1	0.004890405
86	0x3c20dfee	0.009819014
87	0xba8c8b63	-0.0010722693
88	0x3d8c5788	0.06852633
89	0x3d7e2ce6	0.062054537
90	0xbd13c5bd	-0.03607725
91	0xbc4bc14d	-0.012436223
92	0xbbfb00d0	-0.007660009
93	0x3ce949c1	0.028477551
94	0x3d07b665	0.03313293
95	0xbcf21df9	-0.029555308
96	0x3b61245e	0.0034353952
97	0x3c868b89	0.016423957
98	0xbc8337d3	-0.01601783
99	0x3c168e72	0.009189235
100	0xbbd56294	-0.0065119956
101	0x3ca3f69f	0.020015059
102	0x3d298797	0.041389074
103	0xbc79bf0a	-0.015243301
104	0x3d73c19e	0.05951082
105	0x3cc752fd	0.024331564
106	0x3d8ec1ae	0.06970535
107	0x3cbdb2a5	0.023156473
108	0x3d66b2fa	0.05632303
109	0xbcaaf49f	-0.020868598
110	0xbc4e5d92	-0.012595551
111	0xbd39c85f	-0.045357104
112	0x3ccc9f8c	0.024978422
113	0xbd0afa08	-0.033929855
114	0xbc50b273	-0.012737858
115	0xbc4430e5	-0.011974548
116	0x3bf04ee3	0.007333623
117	0xbc4d6465	-0.012536143
118	0xbd05e3f5	-0.0326881
119	0x3c9d6130	0.019211382
120	0x3d72c209	0.059267078
121	0x3d783e37	0.060606208
122	0xbcce0b5e	-0.025151905
123	0xbd0cd6d6	-0.03438457
124	0xbcc1c56b	-0.023653707
125	0x3d50b599	0.050954435
126	0xbd225c50	-0.039638817
127	0x3cc9a500	0.024614811
128	0x3cf8f215	0.030388871
129	0xbce76c2a	-0.028249819
130	0x3b346047	0.0027523206
131	0x3d6c99d6	0.057763897
132	0x3cee8044	0.029113896
133	0x3cc36c98	0.023855492
134	0xbd43cfe0	-0.047805667
135	0x3c880616	0.016604465
136	0xbb6f6b47	-0.0036532448
137	0x3d247f15	0.040160257
138	0xbcf0c3a8	-0.029390171
139	0x3c39baa2	0.011336001
140	0x3ce2884a	0.027652878
141	0x3a6755ff	0.0008824765
142	0x3d5aeb5e	0.05344712
143	0x3d0d9db3	0.03457422
144	0x3d2af027	0.041732933
145	0x3c77fbaa	0.015135685
146	0x3d3a3945	0.045464773
147	0xbc3da683	-0.011575344
148	0x3d5c9b06	0.05385878
149	0xbce08688	-0.0274079
150	0x3d12fe65	0.03588714
151	0x3cebea3b	0.028798213
152	0x3c28165c	0.010259237
153	0xbd38d6f5	-0.045126874
154	0xbc87ea77	-0.016591294
155	0x3c7db114	0.015484113
156	0x3cf13db9	0.029448377
157	0x3bc16970	0.0059024617
158	0xbd395672	-0.045248456
159	0x3d339e2d	0.04385202
160	0x3d666ba3	0.056254994
161	0x3acc45b5	0.0015584739
162	0x3c1e7118	0.009670518
163	0x3bc2dc93	0.0059467047
164	0xbcd8c126	-0.026459288
165	0xbd193399	-0.037402723
166	0x3d498142	0.049195535
167	0x3d3a5a03	0.045495998
168	0xbbbe0f3c	-0.005800156
169	0x3d2ee4a5	0.04269852
170	0x3d40740a	0.046985663
171	0xbc5859ef	-0.013205036
172	0x3b0d308f	0.0021543836
173	0x3d331c76	0.043728314
174	0x3d0af256	0.033922516
175	0xbd17c288	-0.037050754
176	0x3caeafc8	0.021324053
177	0xbd68dcd4	-0.056851223
178	0xbcc22e33	-0.02370367
179	0x3ccb6185	0.024826774
180	0xbd276a1e	-0.040872686
181	0xbc9bb4d3	-0.019007122
182	0x3c3e5e6e	0.0116191935
183	0x3d2c9946	0.04213836
184	0x3d2a572e	0.041587047
185	0xbc0d90ab	-0.008640449
186	0x3d31d633	0.043417167
187	0x3d325116	0.04353436
188	0xbd76ff89	-0.06030229
189	0xbd48374e	-0.048880868
190	0x3d1be138	0.038056582
191	0xbd2cfbbe	-0.042232268
192	0x3c2f0308	0.010681875
193	0xbcc5c77c	-0.024142973
194	0x3d42902b	0.04750077
195	0xbc019269	-0.007908442
196	0x3c66acc1	0.014079274
197	0xbc1c173f	-0.009527027
198	0x3ceadc4b	0.028669497
199	0xbca6e1fd	-0.020371431
200	0xbcbd405e	-0.023101982
201	0x3ac6d679	0.0015170119
202	0xbd44abbb	-0.048015337
203	0x3c9dade7	0.019247962
204	0xbb814df6	-0.0039460612
205	0x3cddea38	0.027089223
206	0x3cd2d9f5	0.025738696
207	0xbd2c6d0c	-0.042096183
208	0x3d25898b	0.040414374
209	0x3cfc0678	0.030764803
210	0x3d31e6db	0.04343305
211	0x3c2b9d74	0.0104745515
212	0x3d4c6578	0.049901456
213	0x3ca28fbb	0.019843927
214	0x3d341192	0.04396207
215	0xbcbb080e	-0.02283099
216	0xbd1d2eb0	-0.038374603
217	0xbd3dc7ef	-0.04633325
218	0x3d1a2d6b	0.03764097
219	0x3cf8691a	0.030323554
220	0xbd439bea	-0.047756113
221	0x3ca9a9cf	0.020710854
222	0x3b0d9aaf	0.0021607091
223	0xbd26b5cc	-0.04070072
224	0x3cb9ba0a	0.022671718
225	0x3d744295	0.05963381
226	0x3cc2335e	0.023706134
227	0x3c23352f	0.00996141
228	0x3d0951b5	0.033525188
229	0x3b1462ea	0.0022641965
230	0x3d643654	0.055715874
231	0x3d49a598	0.049230188
232	0xbcc317f1	-0.023815127
233	0xbd040ddb	-0.032239776
234	0x3d0503d7	0.032474365
235	0xb87dbe29	-6.0497e-05
236	0xbaaeb661	-0.00133295
237	0x3caebd02	0.02133036
238	0xbcd785c0	-0.026308894
239	0x3d2951ea	0.041337885
240	0xbcae2339	-0.02125703
241	0xbcc7db34	-0.024396516
242	0xbd1c7f1b	-0.038207155
243	0x3c455318	0.012043737
244	0xbc50ff9a	-0.012756253
245	0x3cee86d4	0.029117025
246	0xbb8b8298	-0.0042575113
247	0xbd17ad91	-0.03703076
248	0x3cac2456	0.02101342
249	0x3cd1e57e	0.025622126
250	0xbd45e286	-0.048311733
251	0xbd223b33	-0.039607238
252	0x3c3d62c0	0.011559188
253	0xbc57cc64	-0.013171289
254	0xbcae98df	-0.021313129
255	0xbbd7adb7	-0.0065819877

module.conv_5.bias f4 [12]
0	0x3d101f69	0.035186205
1	0xbcdf5b12	-0.027265105
2	0x3cd6d471	0.026224347
3	0xbc3f79fa	-0.011686796
4	0x3c16395e	0.009168951
5	0x3d927b46	0.07152419
6	0xbc8486fe	-0.01617765
7	0x3ce67310	0.028131038
8	0x3c8352fc	0.016030781
9	0x3d12809a	0.035767175
10	0x3d5c4080	0.05377245
11	0x3d476c2b	0.04868714

module.conv_6.weight f4 [12, 12, 3, 3, 3]
0	0x3cf963ac	0.030443035
1	0xbd24ae09	-0.040205035
2	0x3d3b0aa1	0.045664433
3	0xbc9e6313	-0.019334352
4	0x3d08f27c	0.033434376
5	0x3c142f32	0.009044455
6	0xbd2db226	-0.042406224
7	0x3d574188	0.05255273
8	0xbba5e83e	-0.005063086
9	0xbd494345	-0.04913642
10	0x3d1f3570	0.03886932
11	0x3ca70ee5	0.020392844
12	0xbd5c87e4	-0.053840533
13	0x3c14118a	0.009037385
14	0x3d45413c	0.048157915
15	0x3cbaa1a2	0.02278215
16	0xbd17e88b	-0.037087005
17	0xbceb4f6c	-0.028724395
18	0xbd402fda	-0.046920635
19	0xbd3512b7	-0.0442073
20	0xbd485d08	-0.048916847
21	0x3d4f28bf	0.050575968
22	0xbd37544c	-0.044758126
23	0x3aca2e53	0.0015425183
24	0x3b94b7aa	0.004538496
25	0x3b9231e7	0.004461515
26	0x3c7e341b	0.015515353
27	0xbd4aa487	-0.04947331
28	0x3ac0e872	0.0014717712
29	0x3d16bee0	0.036803126
30	0xb99efec9	-0.00030325938
31	0xbc959ccf	-0.018263249
32	0x3c308da8	0.010775961
33	0xbcf94aa2	-0.030431096
34	0xbabcdebe	-0.0014409644
35	0xbcabd624	-0.020976134
36	0xbc2504ec	-0.010071974
37	0xbd71335f	-0.058886882
38	0xb95c19e1	-0.00020990476
39	0x3d0604d9	0.032719467
40	0x3a7d7caf	0.00096697634
41	0xbcd0927b	-0.025460472
42	0xbd4e2310	-0.050326407
43	0x3d777e26	0.06042304
44	0x3ca98315	0.020692388
45	0xbd1830ca	-0.037155904
46	0xbd0df165	-0.03465404
47	0xbc7d4f48	-0.015460797
48	0xbcb52518	-0.022112414
49	0x3d28d584	0.04121925
50	0x3c26b6de	0.010175435
51	0x3d650d3a	0.055920817
52	0x3c9a5caa	0.018843014
53	0x3d1ee32a	0.03879086
54	0xbd56a1d5	-0.05240043
55	0x3d048999	0.032357786
56	0xbbe63b36	-0.0070261015
57	0x3ca63337	0.020288093
58	0x3d123288	0.03569272
59	0xbb95cfc9	-0.004571889
60	0xbd12130c	-0.035662696
61	0xbd4369da	-0.04770837
62	0x3cb8773b	0.022517791
63	0x3a6d0af4	0.00090424647
64	0xbd0d0879	-0.03443191
65	0x3d4daa5b	0.05021129
66	0xbd79f510	-0.061024725
67	0xbc93dd53	-0.018049872
68	0xbd53684c	-0.051613137
69	0xbd613523	-0.054982316
70	0xbd37c951	-0.044869725
71	0x3d073fee	0.033019952
72	0xbcd0cc5c	-0.025488071
73	0x3cf0cb97	0.029393954
74	0x3cac1bce	0.021009352
75	0xbc4c2d92	-0.012462037
76	0xbd6c3226	-0.057665013
77	0x3ba06c63	0.004895733
78	0x3b86320e	0.0040953225
79	0xbcf837cd	-0.030300045
80	0xbca884fe	-0.020571228
81	0x3c588a3f	0.013216554
82	0x3c8b1df9	0.016982066
83	0x3ccf3120	0.02529198
84	0x3d4010a6	0.046890877
85	0xbcd7a032	-0.026321504
86	0x3c4cd88e	0.012502803
87	0x3a5cb02f	0.00084185874
88	0x3c6726b7	0.014108351
89	0xbb86cce4	-0.0041137803
90	0xbc9e5a60	-0.019330204
91	0x3b8fcc38	0.0043883584
92	0xbb035a33	-0.0020042777
93	0x3d120672	0.035650678
94	0xbce6212c	-0.02809199
95	0xbc66aa8f	-0.01407875
96	0xbc948568	-0.01813002
97	0xbce95c51	-0.028486403
98	0xbd4bf564	-0.04979457
99	0xbd210806	-0.039314292
100	0x3cfb64d4	0.030687727
101	0x3d4030c2	0.0469215
102	0xbd11ff46	-0.03564384
103	0xbcd1fbb6	-0.02563272
104	0x3cdebb8f	0.027189044
105	0x3cecc93c	0.02890455
106	0xbbcd1630	-0.0062587485
107	0xbd5f48cb	-0.05451278
108	0x3d664b43	0.05622412
109	0xbc479dcb	-0.012183617
110	0x3d1a86bf	0.03772616
111	0x3cbeff0d	0.023314977
112	0x3c673337	0.014111332
113	0x3d64a3b7	0.055820193
114	0xbc8698d8	-0.016430303
115	0xbca8ad53	-0.02059046
116	0x3c3e5f44	0.011619393
117	0x3bb99e9c	0.0056646597
118	0x3ac30d0c	0.0014881208
119	0x3ca8a176	0.020584803
120	0xb9971c3b	-0.00028821998
121	0x3d236b34	0.03989716
122	0xbb891b28	-0.0041841455
123	0xbcd711cc	-0.026253603
124	0x3cdee23b	0.027207484
125	0x3c8ee630	0.017443746
126	0x3d1ae07e	0.03781175
127	0xbb86735d	-0.004103108
128	0x3ca6dfc8	0.02037038
129	0xbc130a7c	-0.008974668
130	0xbd3243f1	-0.043521825
131	0xbbc98e51	-0.0061509986
132	0x3d5403f8	0.051761597
133	0xbc1d5f6c	-0.00960527
134	0x3b270b5c	0.0025488948
135	0xbd02aa8d	-0.03190093
136	0xbd11f6b2	-0.035635658
137	0xbcc25d82	-0.023726229
138	0x3d34c6dc	0.04413496
139	0xbbdd872c	-0.0067604985
140	0x3cb5df33	0.022201156
141	0x3d08edaf	0.033429798
142	0x3d5d035c	0.053958282
143	0x3cc89dc1	0.024489285
144	0x3c42c16e	0.011886938
145	0x3cf411ba	0.029793609
146	0x3c96b2d3	0.018395817
147	0xbd5c7a47	-0.05382755
148	0xb9f2b64f	-0.00046293667
149	0xbd656bff	-0.056011196
150	0x3d4bd03c	0.049759135
151	0xbd3cc847	-0.046089437
152	0x3d4816ab	0.048849743
153	0xba84d097	-0.0010132965
154	0x3cab9b13	0.020947969
155	0xbd3cff91	-0.046142165
156	0xbcf6b8c8	-0.030117407
157	0xbd64d54b	-0.055867475
158	0xbba77cc3	-0.0051113083
159	0x3d0ba50e	0.034092955
160	0xbd468c94	-0.04847391
161	0xbd396a5e	-0.045267455
162	0x3cc99cf6	0.024610978
163	0x3ceda7a4	0.029010601
164	0x3bbac590	0.005699821
165	0xbc9d828f	-0.019227294
166	0x3bfd536f	0.0077308933
167	0x3d9f6d1d	0.077844836
168	0x3c93e7f1	0.018054934
169	0xbc880de6	-0.01660819
170	0x3c67748e	0.01412691
171	0xbd99b4b5	-0.0750517
172	0x3d8f4c2d	0.06996951
173	0xbc81fb96	-0.015867036
174	0xbd6b782b	-0.057487648
175	0x3d2d2cfc	0.04227923
176	0x3cd6b0c2	0.026207332
177	0xbcc81cc9	-0.024427788
178	0xbb67073a	-0.003525211
179	0x3813f9ea	3.528028e-05
180	0xbb6eedb3	-0.0036457598
181	0x3d4b0ec7	0.04957464
182	0xbcd41340	-0.025888085
183	0xbc27cf43	-0.010242286
184	0xbcabccf4	-0.020971753
185	0x3d5b1197	0.05348357
186	0xbca7d49f	-0.020487128
187	0x3b368a3c	0.002785339
188	0x399d9918	0.00030059437
189	0xbbb45ae5	-0.0055039995
190	0x3d59b6e6	0.05315294
191	0xbcf1b9df	-0.029507576
192	0xbbe91b4b	-0.0071138493
193	0x3cc9bde7	0.024626685
194	0x3d3dff08	0.046385795
195	0xbd1ec03f	-0.03875756
196	0x3c15711a	0.009121204
197	0x3c84601c	0.01615911
198	0xbc71be61	-0.0147548625
199	0xbcc747c2	-0.024326209
200	0x3d154d6a	0.03645078
201	0xbd466f08	-0.04844573
202	0xbcc4174c	-0.02393689
203	0xbbd73f20	-0.0065688044
204	0xbd48a1cc	-0.048982427
205	0x3c3df7e0	0.011594743
206	0xbd47d900	-0.04879093
207	0x3abc8279	0.0014382146
208	0x3d47b91e	0.048760526
209	0xbc9c6e82	-0.019095663
210	0x3d2e12e8	0.0424985
211	0xbd4a09f7	-0.04932591
212	0xbc4bcdfc	-0.012439247
213	0xbd42d3ba	-0.0475652
214	0x3c41eb06	0.011835819
215	0xbd598b1a	-0.053111173
216	0x3d07a13d	0.033112753
217	0xbca4f9f8	-0.020138726
218	0xbcb08259	-0.02154653
219	0x3d245f8f	0.040130194
220	0x3b9d91ba	0.0048086317
221	0xbd47f75a	-0.048819877
222	0x3d1ef25a	0.038805343
223	0x3c276348	0.010216542
224	0x3d0f98ed	0.03505795
225	0xbca20958	-0.019779846
226	0x3d051264	0.03248824
227	0xbc1d9845	-0.009618823
228	0x3be2cba1	0.006921247
229	0x3aa59847	0.0012633883
230	0x3d17f415	0.03709801
231	0xbc7c0397	-0.015381715
232	0x3d73d298	0.05952701
233	0x3ca93883	0.02065683
234	0xbbba0c8c	-0.0056777652
235	0xbd1ae40b	-0.037815135
236	0x3d2afddf	0.041746017
237	0x3d134f6f	0.035964426
238	0xbcdd93d0	-0.027048022
239	0xbbf1a4b1	-0.007374369
240	0x3d57079c	0.05249749
241	0xbcb265ff	-0.021777151
242	0xbca6d8ae	-0.020366993
243	0xbbe49d0e	-0.00697673
244	0xbb43bf25	-0.002986857
245	0x3cd2ba7a	0.025723685
246	0x3bbf482d	0.0058374614
247	0xbcc746fc	-0.02432584
248	0x3d494c9f	0.049145337
249	0x3d25cdbd	0.04047941
250	0xbc81c144	-0.015839227
251	0x3d0ea38c	0.03482394
252	0x3d4fd257	0.050737705
253	0x3c7c51e2	0.015400382
254	0x3d188e68	0.037245184
255	0xbc6698d8	-0.014074527

module.conv_6.bias f4 [12]
0	0x3d1ea66c	0.03873293
1	0xbd52d9e1	-0.051477317
2	0x3cb03817	0.02151112
3	0x3b879a0a	0.004138236
4	0xbd090a61	-0.033457164
5	0x3d10c3ea	0.03534309
6	0x3cd3965c	0.025828533
7	0x3d135454	0.035969093
8	0xbc51f586	-0.012814885
9	0x3d8d6196	0.06903379
10	0x3c9fd3c6	0.019510161
11	0xbca65391	-0.02030352
