model3/FSRCNN3D_epoch_90.pth (torch, 265262 bytes, 15 tensors)

module.conv_1.weight f4 [56, 1, 5, 5, 5]
-0.027668238 0.083612785 0.06436272 0.084524855 0.063758455 -0.048181344 0.047531445 -0.06783206
0.038884647 -0.08322345 0.01782498 0.0609862 -0.099655196 -0.015086381 -0.056706745 0.01638415
-0.044792555 -0.046101764 -0.07070719 -0.033004414 -0.07820181 -0.02515648 -0.06351743 -0.0658085
0.08271503 0.05318231 -0.010805521 -0.08131538 -0.018873526 -0.07914167 0.03265902 -0.091152675
0.05105385 -0.086940646 -0.11330803 0.06511109 -0.074579045 -0.028333237 -0.055412505 -0.079497516
-0.0133714285 0.0043889685 0.051876873 -0.0751855 0.010193057 -0.09859949 -0.0028480308 -0.0050587277
0.013619327 0.049006872 0.060567338 0.0048541715 -0.07568295 0.031192629 0.004610269 -0.048596274
0.046450477 0.0019260861 -0.021568496 -0.049923453 0.005682804 -0.027234131 0.025252195 -0.084033966
-0.0874081 -0.09510277 -0.05022485 0.05715973 0.029999286 -0.09253734 0.018457226 0.021013422
-0.059764933 -0.08452359 -0.088626295 -0.05140344 0.05398183 -0.034800164 0.02072104 0.021983309
-0.05873192 0.048509765 -0.094557405 -0.074167415 -0.07089482 0.05284503 -0.016575132 -0.0028324202
-0.06208801 -0.029415423 -0.0702434 0.023586698 0.014072867 -0.07754608 0.019406354 -0.037364315
-0.049744204 -0.020474888 0.055193555 -0.07325883 0.040714886 0.097504236 0.10941576 0.056146394
-0.03615811 -0.04351116 0.05551948 -0.031635955 -0.09456665 -0.001884689 0.028949613 -0.02775675
0.044232816 0.0109717185 0.015012842 -0.0794995 0.040076096 0.0041259993 -0.0009198326 0.029813554
-0.04503155 -0.044699065 -0.058978453 -0.06104565 -0.03807614 -0.05715111 -0.017017659 -0.034688886
-0.08837604 -0.010257979 -0.042754173 0.09199077 -0.07859561 -0.021527529 0.03047035 -0.03407579
0.0073281596 0.063907154 0.041512527 -0.012543789 -0.084650375 -0.025987918 0.035596818 -0.07239563
0.06395125 -0.015292614 0.04879621 0.019173712 0.025697475 0.043048445 0.031767514 0.082492396
0.062194064 -0.08063171 -0.07166181 0.037127413 -0.034517787 -0.037990984 0.057608243 0.048374906
0.0048673972 0.044878423 -0.048176542 0.0048119226 0.028220132 0.08471202 -0.06406605 0.03558344
0.0037386848 0.08192305 -0.051463522 -0.07290336 0.051287204 -0.016642537 0.062613726 0.10090309
-0.051646493 0.0020919722 0.0051373024 0.06706977 0.0727258 0.08861148 -0.080536775 -0.035067882
0.08573666 0.05500222 -0.028830146 0.056026306 0.03500968 0.07995721 0.01073684 -0.010464336
0.068488754 0.045471624 0.0880978 0.0750022 0.003819761 0.050198477 0.032121237 0.077136785
0.032133713 0.005577941 -0.061178118 0.014392623 -0.013086248 -0.0126626985 -0.023718212 -0.090567864
0.07057929 0.07058209 0.03237124 -0.063102126 0.0043403483 0.03272874 -0.0558505 0.059604947
0.03669233 0.008547918 0.101495825 -0.045643188 0.06919344 -0.026178025 0.057382166 -0.053761475
-0.09082426 -0.027095739 0.015091493 -0.007958436 0.024521677 -0.068615496 -0.03662991 -0.0017258312
-0.06523931 0.08623178 0.0020442777 -0.06483458 0.017832538 0.02116197 0.021213029 0.020474358
-0.0029929632 -0.036263168 -0.04723469 -0.046760507 0.07364586 -0.06549446 -0.0097395 0.011497955
-0.05198764 -0.03871254 0.0058181114 -0.053909197 -0.05508453 0.020412669 0.10481126 0.035779662
00000000: 80a8 e2bc 2e3d ab3d 9ad0 833d 5e1b ad3d
00000010: cb93 823d cd59 45bd 55b0 423d 89eb 8abd
00000020: 8245 1f3d 0e71 aabd b105 923c aacc 793d
00000030: 0618 ccbd de2c 77bc 5545 68bd 0e38 863c
00000040: 6678 37bd 34d5 3cbd eece 90bd a32f 07bd
00000050: 4528 a0bd f614 cebc 6d15 82bd 9bc6 86bd
00000060: 7f66 a93d b2d5 593d a409 31bc ae88 a6bd
00000070: a79c 9abc 0715 a2bd 77c5 053d 41ae babd
00000080: d81d 513d f00d b2bd 0a0e e8bd f758 853d
00000090: e6bc 98bd 1b1b e8bc 39f8 62bd 98cf a2bd
000000a0: d613 5bbc 56d1 8f3b d87c 543d dbfa 99bd
000000b0: c800 273c 88ee c9bd 07a6 3abb afc3 a5bb
000000c0: 9923 5f3c 6ebb 483d 7515 783d be0f 9f3b
000000d0: aaff 9abd af87 ff3c bd11 973b e30c 47bd
000000e0: db42 3e3d ba74 fc3a 6ab0 b0bc 897c 4cbd
000000f0: d136 ba3b 1d1a dfbc b1dd ce3c 001a acbd
00000100: 0503 b3bd 3ec5 c2bd 93b8 4dbd 5220 6a3d
00000110: 10c1 f53c 3884 bdbd 9c33 973c 5724 ac3c
00000120: 13cc 74bd b41a adbd b481 b5bd 6a8c 52bd
00000130: 0d1c 5d3d 9e8a 0ebd 2cbf a93c 5716 b43c
00000140: e290 70bd 2db2 463d 50a7 c1bd 16e5 97bd
00000150: 4e31 91bd 0874 583d 92c8 87bc 20a0 39bb
00000160: ff4f 7ebd 9df8 f0bc c6db 8fbd e438 c13c
00000170: e291 663c 7bd0 9ebd 13fa 9e3c 530b 19bd
00000180: 94c0 4bbd f4ba a7bc a312 623d ba08 96bd
00000190: a7c4 263d 4db0 c73d 5f15 e03d c3f9 653d
000001a0: 871a 14bd c238 32bd 6568 633d b494 01bd
000001b0: 29ac c1bd ab07 f7ba bd27 ed3c 2062 e3bc
000001c0: 782d 353d b9c2 333c 6cf8 753c a2d0 a2bd
000001d0: d526 243d 6433 873b ec20 71ba 8e3b f43c
000001e0: 0173 38bd 5e16 37bd 6493 71bd 010b 7abd
000001f0: baf5 1bbd 4817 6abd 9e68 8bbc ef15 0ebd
00000200: 7ffe b4bd 1511 28bc 001f 2fbd a865 bc3d
00000210: bcf6 a0bd 805a b0bc f59c f93c 0e93 0bbd
00000220: 0f21 f03b c1e1 823d 0a09 2a3d 7784 4dbc
00000230: 2d5d adbd 9de4 d4bc f8cd 113d 2944 94bd
00000240: dff8 823d df8d 7abc 89de 473d 3012 9d3c
00000250: 8383 d23c 9153 303d a71e 023d c6f1 a83d
00000260: 34bf 7e3d 3d22 a5bd 6dc3 92bd ea12 183d
00000270: 8662 0dbd 6f9c 1bbd 9ff6 6b3d c424 463d
00000280: b07e 9f3b 70d2 373d c454 45bd 55ad 9d3b
00000290: e82d e73c 7f7d ad3d 1035 83bd f1bf 113d
000002a0: b904 753b 46c7 a73d 6acb 52bd 5b4e 95bd
000002b0: 8812 523d ee55 88bc a03b 803d 47a6 ce3d
000002c0: 468b 53bd 7819 093b d156 a83b e05b 893d
000002d0: 44f1 943d f079 b53d 77f0 a4bd 57a3 0fbd
000002e0: b496 af3d 024a 613d 332d ecbc d77b 653d
000002f0: 4f66 0f3d 9bc0 a33d 92e9 2f3c 9b72 2bbc
00000300: d543 8c3d 7440 3a3d 9f6c b43d c19a 993d
00000310: f554 7a3b eb9c 4d3d 8f91 033d e4f9 9d3d
00000320: a49e 033d 29c7 b63b e895 7abd 09cf 6b3c
00000330: b467 56bc 3577 4fbc b24c c2bc a57b b9bd
00000340: e08b 903d 588d 903d b597 043d b03b 81bd
00000350: 7b39 8e3b 920e 063d 7ec3 64bd 5124 743d
00000360: b24a 163d 910c 0c3c 0bdd cf3d 5af4 3abd
00000370: 4ab5 8d3d 4c73 d6bc 9009 6b3d fe34 5cbd
00000380: 1202 babd e2f7 ddbc 4f42 773c 1a64 02bc
00000390: afe1 c83c 4886 8cbd 3f09 16bd 4935 e2ba
000003a0: 309c 85bd 4a9a b03d 4af9 053b fec7 84bd
000003b0: 8b15 923c de5b ad3c f2c6 ad3c d7b9 a73c
000003c0: 9725 44bb b088 14bd 2a79 41bd f287 3fbd
000003d0: a4d3 963d f621 86bd 6c92 1fbc eb61 3c3c
000003e0: fef0 54bd 0a91 1ebd dba5 be3b e4cf 5cbd
000003f0: 51a0 61bd 7838 a73c 49a7 d63d b28d 123d

module.conv_1.bias f4 [56]
0.031876642 0.039504874 0.083411835 -0.014529668 -0.021438565 0.044978715 0.018885117 -0.038068924
0.070701845 0.017699193 0.07663142 0.06135146 0.07320943 0.08180152 0.08301762 0.023381075
0.059017796 0.04944464 -0.022120627 -0.06027677 -0.059678007 0.03552012 -0.036039997 -0.013282255
0.08251385 -0.010880658 0.04098717 -0.060790572 0.038270757 0.014779001 -0.037003875 0.024294624
0.027239325 0.052047234 -0.02387232 0.007668028 0.0016946227 0.034253355 0.067565314 -0.041564807
0.021277826 0.066403255 -0.03073373 0.092001244 -0.04884511 0.070528194 0.0852466 0.02299627
-0.07897036 0.053100806 0.009311179 0.062363833 -0.015875883 0.07455172 0.07291475 -0.0340524
00000000: 1591 023d ddcf 213d d3d3 aa3d d80d 6ebc
00000010: ee9f afbc 9a3b 383d f6b4 9a3c 29ee 1bbd
00000020: 21cc 903d e6fd 903c eff0 9c3d ab4b 7b3d
00000030: d3ee 953d 8e87 a73d 2405 aa3d ab89 bf3c
00000040: a5bc 713d 7686 4a3d 5136 b5bc c6e4 76bd
00000050: ed70 74bd 8c7d 113d ad9e 13bd d19d 59bc
00000060: 05fd a83d ca44 32bc 2ae2 273d 89ff 78bd
00000070: ccc1 1c3d 9f23 723c 6091 17bd 8505 c73c
00000080: 0125 df3c 7b2f 553d e28f c3bc 1544 fb3b
00000090: 1a1e de3a 3f4d 0c3d af5f 8a3d dc3f 2abd
000000a0: d64e ae3c 6efe 873d 4ec5 fbbc 266b bc3d
000000b0: cf11 48bd 1671 903d c595 ae3d ac62 bc3c
000000c0: 36bb a1bd 3b80 593d ea8d 183c 3871 7f3d
000000d0: 240e 82bc 92ae 983d 5454 953d 887a 0bbd

module.conv_2.weight f4 [12, 56, 1, 1, 1]
0.13714309 0.030430779 -0.06545413 0.038056917 -0.12841046 -0.040942207 0.06565029 0.01570308
-0.057719305 0.11611758 -0.10242221 0.15493618 -0.03659584 -0.024143845 0.048275024 0.04328196
0.060300127 0.11876902 0.005533597 -0.03777045 -0.10659761 0.038262427 0.08994083 0.03402518
0.012710753 0.06271074 0.013960405 0.009110954 0.06804844 0.030478254 0.16832826 0.077839725
0.048479136 0.01563091 0.09233294 0.09342276 0.12742728 -0.047104087 0.08766725 0.18486504
0.044786345 -0.11022637 0.14132872 0.045801364 0.0062192557 -0.041678336 0.085885525 0.07614972
0.07758397 0.11504406 0.05603148 -0.035770405 0.10661468 0.09727133 -0.049976937 0.041226912
-0.1568574 0.121675566 -0.031961255 0.1099574 -0.06532713 -0.056405243 -0.02664744 -0.12308734
0.06620998 0.058259863 -0.038405243 0.075547285 0.12622331 0.13018604 -0.13782929 0.021394117
0.0856103 -0.114641786 0.13034238 0.104751565 0.1285756 -0.08435835 0.04114771 0.13525604
-0.018091146 -0.025508324 -0.13399072 -0.053300425 0.018310808 0.060096137 -0.018818524 -0.00332349
-0.12608811 -0.07634094 -0.048592016 -0.17549138 0.1252183 -0.067993976 -0.078720875 -0.094221406
0.11214495 -0.09046254 -0.11706631 -0.06330105 0.04568663 0.033745985 -0.1342366 0.015694693
0.120589055 0.11009915 0.021456534 -0.093618415 0.08581471 -0.13725199 -0.14444363 0.045819264
0.10558621 -0.07715283 -0.051174816 0.022437071 -0.11811576 0.037197698 0.14805038 -0.07639181
-0.12517972 -0.0067774397 0.08121301 0.08380001 0.09251967 -0.071509995 -0.007613512 -0.10375256
-0.10667711 0.10629415 0.12705863 0.13640787 0.09257365 0.11077431 0.07601481 0.106910065
-0.042884763 -0.13261561 -0.08715999 0.0015346168 -0.04663717 -0.107055545 -0.11681023 0.07407506
0.11921789 -0.03984625 0.023753067 -0.08797143 0.0907266 -0.16159256 -0.035870668 -0.029860657
-0.12779449 0.06868606 -0.01869595 -0.0069624376 0.07231142 0.0056327544 -0.09535221 -0.018146275
0.07107135 -0.0030826824 0.08388564 0.0800066 0.03970077 0.068984576 -0.011210009 0.04217105
0.054861546 0.10070177 0.14443631 0.0018450235 0.013197093 0.003361202 0.14211836 -0.11173426
0.11745345 0.114772625 0.061522733 -0.037840754 -0.043382533 0.10591127 0.124118745 -0.1186576
0.14123149 -0.010087742 0.030066043 0.034757417 -0.12630518 0.038240224 0.04383661 0.08503713
-0.10824643 0.063015305 -0.030613588 0.022892525 0.10934378 -0.12083953 0.06660621 -0.058457714
-0.08310496 -0.004844634 0.12957594 0.1854669 -0.084804066 0.101204254 0.16254067 -0.106950685
0.115600206 -0.102819696 0.1346783 0.08864128 0.06540288 -0.017567476 -0.020189254 0.118563294
-0.06387064 -0.019932792 0.08884083 0.00096052495 0.09278101 -0.042903382 -0.060558036 -0.028251825
-0.17207369 0.11330626 0.09726219 -0.15138647 0.088936396 -0.12972006 -0.028243953 0.023521708
0.12221888 -0.106740996 0.08912984 -0.15840007 0.09735888 -0.036523618 -0.037141338 -0.058212135
-0.0628657 -0.16914812 0.07745451 -0.084566034 -0.12251105 0.099105306 0.08382278 0.11350521
-0.007965581 0.020833457 0.0073031364 0.03301444 -0.100670785 0.132355 0.17519803 0.032229204
00000000: 3d6f 0c3e f849 f93c d10c 86bd 92e1 1b3d
00000010: 087e 03be 04b3 27bd a973 863d bfa3 803c
00000020: 146b 6cbd 0ecf ed3d bcc2 d1bd 97a7 1e3e
00000030: 85e5 15bd 50c9 c5bc 08bc 453d 6d48 313d
00000040: 44fd 763d 2c3d f33d 2d53 b53b 30b5 1abd
00000050: d94f dabd 10b9 1c3d e632 b83d fd5d 0b3d
00000060: c340 503c 7d6e 803d 2fba 643c 1c46 153c
00000070: fb5c 8b3d 88ad f93c 3e5e 2c3e 6f6a 9f3d
00000080: 0f92 463d 650c 803c 0d19 bd3d 6f54 bf3d
00000090: 4c7c 023e 37f0 40bd e38a b33d 434d 3d3e
000000a0: e371 373d 5dbe e1bd 7ab8 103e 369a 3b3d
000000b0: e6ca cb3b e7b6 2abd c0e4 af3d 62f4 9b3d
000000c0: 58e4 9e3d 389c eb3d 4481 653d fd83 12bd
000000d0: cc58 da3d 3136 c73d 9eb4 4cbd 8ddd 283d
000000e0: 3a9f 20be 0a31 f93d cee9 02bd 5831 e13d
000000f0: 3bca 85bd 2f09 67bd bb4b dabc 3715 fcbd
00000100: 1999 873d e5a1 6e3d d14e 1dbd 89b8 9a3d
00000110: af40 013e 7d4f 053e 1f23 0dbe b742 af3c
00000120: 7454 af3d 50c9 eabd 7978 053e fd87 d63d
00000130: 52a9 033e 12c4 acbd 808a 283d 8f80 0a3e
00000140: e233 94bc d5f6 d0bc dd34 09be 8c51 5abd
00000150: 8c00 963c 5e27 763d 4e29 9abc e9ce 59bb
00000160: 3e1d 01be a458 9cbd 6c08 47bd 03b4 33be
00000170: 3a39 003e 6d40 8bbd 6938 a1bd 27f7 c0bd
00000180: 40ac e53d 6d44 b9bd 76c0 efbd fba3 81bd
00000190: e721 3b3d 3b39 0a3d 5275 09be 2892 803c
000001a0: 65f7 f63d aa7b e13d 9dc5 af3c 03bb bfbd
000001b0: 9fbf af3d c98b 0cbe 08e9 13be fbac 3b3d
000001c0: 953d d83d 4e02 9ebd af9c 51bd f3cd b73c
000001d0: ade6 f1bd 9d5c 183d 859a 173e 4f73 9cbd
000001e0: 1d2f 00be 4915 debb 0253 a63d 579f ab3d
000001f0: f47a bd3d d573 92bd c57a f9bb 397c d4bd
00000200: 8779 dabd bfb0 d93d a81b 023e 81ae 0b3e
00000210: 4197 bd3d a4dd e23d a7ad 9b3d aaf3 da3d
00000220: efa7 2fbd 63cc 07be f080 b2bd 3225 c93a
00000230: 9e06 3fbd f03f dbbd 343a efbd aab4 973d
00000240: 8228 f43d d235 23bd cb95 c23c 5d2a b4bd
00000250: dece b93d 8578 25be 1fed 12bd 569e f4bc
00000260: 8fdc 02be 47ab 8c3d 4028 99bc 2925 e4bb
00000270: 0318 943d f892 b83b 0548 c3bd 7fa7 94bc
00000280: db8d 913d d406 4abb 3ccc ab3d 80da a33d
00000290: 469d 223d c947 8d3d 30aa 37bc 8dbb 2c3d
000002a0: 80b6 603d bb3c ce3d 1de7 133e b7d4 f13a
000002b0: 9f38 583c 9d47 5c3b 7a87 113e efd4 e4bd
000002c0: 6f8b f03d e90d eb3d 43ff 7b3d e8fe 1abd
000002d0: e2b1 31bd 02e8 d83d f831 fe3d c102 f3bd
000002e0: fd9e 103e 0e47 25bc 104d f63c cb5d 0e3d
000002f0: 2556 01be c8a1 1c3d 048e 333d f227 ae3d
00000300: 4eb0 ddbd 2b0e 813d 59c9 fabc 1b89 bb3c
00000310: a2ef df3d b77a f7bd d668 883d 5b71 6fbd
00000320: ef32 aabd bcbf 9ebb 8eaf 043e 09eb 3d3e
00000330: c1ad adbd 2d44 cf3d 1071 263e f608 dbbd
00000340: cdbf ec3d 2293 d2bd 1ce9 093e 8f89 b53d
00000350: f2f1 853d abe9 8fbc ef63 a5bc 50d1 f23d
00000360: 9cce 82bd 184a a3bc 2ef2 b53d bdcb 7b3a
00000370: f803 be3d 75bb 2fbd b40b 78bd 5f70 e7bc
00000380: 1634 30be 1d0d e83d 6631 c73d 0e05 1bbe
00000390: 4924 b63d 56d5 04be dd5f e7bc 99b0 c03c
000003a0: e44d fa3d 069b dabd b589 b63d a133 22be
000003b0: 1864 c73d ca99 15bd 8421 18bd d96f 6ebd
000003c0: bbbf 80bd 2a35 2dbe 78a0 9e3d f530 adbd
000003d0: 13e7 fabd b9f7 ca3d 47ab ab3d 6b75 e83d
000003e0: 1182 02bc edaa aa3c 264f ef3b 263a 073d
000003f0: 7c2c cebd 1288 073e 1d67 333e c502 043d

module.conv_2.bias f4 [12]
-0.07532915 0.08572778 0.008029476 0.103690825 0.08514943 -0.07792233 0.09042282 -0.028395897
-0.0840403 0.009672236 0.01852459 0.016918989
00000000: 2b46 9abd 0c92 af3d 108e 033c db5b d43d
00000010: d362 ae3d be95 9fbd 992f b93d 839e e8bc
00000020: 521d acbd 4c78 1e3c e2c0 973c b199 8a3c

module.conv_3.weight f4 [12, 12, 3, 3, 3]
0.027291013 -0.020595854 0.032397434 -0.022258217 -0.026553936 0.010356847 -0.015245793 -0.032014944
-0.02864911 -0.03347508 -0.05670047 0.049448837 0.004927624 0.010846123 0.007471811 0.035749383
-0.060334608 0.013070066 -0.0072347936 0.0055047865 0.0011890732 0.04930374 -0.010676609 0.0026498518
-0.011175407 0.046428706 -0.03669486 -0.05262595 0.04506219 -0.005683973 0.014035853 0.0027807013
-0.035614055 -0.03310471 0.053985655 -0.0069760177 -0.053868517 -0.038178373 -0.025045162 -0.03294451
0.05461121 -0.04973875 -0.01182888 0.00020641166 0.00492697 -0.04237948 0.032056767 -0.005297919
0.0108730355 -0.031330828 -0.04185829 0.045236375 0.006743019 0.05782199 -0.020986557 -0.04071989
-0.04999182 0.013327989 0.038240865 0.037973806 0.020242885 -0.037404984 -0.04797803 -0.045859285
0.038604908 -0.030307142 0.021326527 0.03555977 -0.02294335 -0.0057559363 0.03415609 -0.046027783
-0.025305755 -0.025316043 0.026778108 -0.03463602 -0.04881458 0.056853037 -0.034714423 0.030627573
-0.0050665797 0.03752036 0.010602058 0.049899437 -0.024457276 -0.03611102 0.019112805 0.04980632
0.02207346 -0.01478633 -0.0065995217 -0.049953658 -0.013886687 -0.003774435 0.0113261035 0.043986466
0.020928344 -0.04001983 -0.041299626 0.052022118 -0.009091662 -0.02277611 -0.011584725 -0.0015573441
0.04853978 -0.017221674 -0.010201938 -0.019180026 0.058733024 3.014175e-05 -0.03565731 0.014757461
-0.022525892 0.019823859 -0.031490915 0.031591877 0.053896993 0.05605019 0.032056298 0.044258732
-0.0412212 0.03565661 0.011577773 0.009552044 -0.009672302 -0.030305872 -0.043896563 0.01808526
0.018598184 0.020256095 0.055523135 0.015892033 -0.0492342 -0.041791253 -0.018853216 -0.02071126
0.020586196 -0.0006649779 0.010321929 -0.004909271 0.023488652 -0.03468703 -0.031495817 -0.011953151
-0.058240585 0.035182957 -0.03647272 0.025585495 -0.0011136124 0.026238414 -0.03438261 -0.018900778
0.012066563 -0.0027052995 0.017973682 0.024738736 0.01106911 0.04001549 0.01637562 0.0019507534
0.011092986 0.012757403 -0.02369895 -0.017808741 0.06552618 -0.017737899 0.028602097 0.035241842
0.009391035 0.05160846 0.014733671 -0.006053111 0.04684112 -0.030083964 0.06315796 0.057904948
0.034857318 0.041985013 -0.009169874 0.0037197685 -0.03679574 0.06680068 0.041437224 -0.0023266575
0.021288238 0.01653743 0.024657467 -0.028558623 0.00782753 0.011025026 0.018579695 0.034891676
0.002307062 0.074717626 0.014926312 0.029544573 0.07926945 -0.019094698 0.056411043 -0.018688155
-0.019977255 -0.061280668 -0.04422118 -0.031482123 -0.053172186 0.06831027 0.05244375 0.03661869
-0.005182982 0.04996587 -0.046521105 -0.010233701 -0.0014708857 0.051977392 0.0053483862 0.019879725
0.0321169 0.0047431584 -0.024705624 -0.01063904 0.012905581 0.021858322 -0.03083465 -0.06098026
0.004177846 0.01182346 0.024306731 -0.0145042725 0.04659643 -0.005554464 0.00041362288 -0.020727068
-0.010292477 -0.026893307 0.0263652 0.047663108 0.0066734483 0.022892976 -0.03370075 0.0044363597
-0.040540624 -0.042611904 -0.05255271 -0.058973834 -0.06000152 -0.014112621 -0.0041251327 0.034333304
-0.05806539 0.06005681 0.020907808 0.008932003 -0.04808938 0.012446383 -0.048687454 -0.004820076
00000000: 6791 df3c a3b8 a8bc 2cb3 043d dd56 b6bc
00000010: a487 d9bc c4af 293c 7ec9 79bc 1a22 03bd
00000020: 8ab1 eabc 2a1d 09bd c13e 68bd dd8a 4a3d
00000030: e877 a13b f0b3 313c 18d6 f43b f26d 123d
00000040: 6c21 77bd d523 563c d911 edbb 7f61 b43b
00000050: adda 9b3a b8f2 493d f2ec 2ebc 23a9 2d3b
00000060: 0e19 37bc 072c 3e3d 594d 16bd 4f8e 57bd
00000070: 2293 383d 9f40 babb a2f6 653c 6d3c 363b
00000080: 0be0 11bd ce98 07bd 1020 5d3d 1497 e4bb
00000090: 3ca5 5cbd ed60 1cbd 832b cdbc d3f0 06bd
000000a0: 01b0 5f3d dcba 4bbd ebcd 41bc 3570 5839
000000b0: 6c72 a13b 1b96 2dbd f54d 033d 2a9a adbb
000000c0: d124 323c c154 00bd 9973 2bbd c749 393d
000000d0: 8bf4 dc3b c0d6 6c3d 00ec abbc e6c9 26bd
000000e0: 39c4 4cbd a35d 5a3c 74a2 1c3d 6c8a 1b3d
000000f0: 68d4 a53c f835 19bd 9c84 44bd f2d6 3bbd
00000100: 2e20 1e3d af46 f8bc f8b4 ae3c 1fa7 113d
00000110: b1f3 bbbc 4b9c bcbb 42e7 0b3d a187 3cbd
00000120: 044e cfbc 9763 cfbc c35d db3c 80de 0dbd
00000130: ccf1 47bd bbde 683d b630 0ebd ade6 fa3c
00000140: 8d05 a6bb f3ae 193d 41b4 2d3c 5a63 4c3d
00000150: a05a c8bc 26e9 13bd 7592 9c3c b601 4c3d
00000160: 67d3 b43c 5d42 72bc cd40 d8bb 359c 4cbd
00000170: fd84 63bc 835c 77bb 1f91 393c 272b 343d
00000180: eb71 ab3c d5eb 23bd cc29 29bd 2515 553d
00000190: 32f5 14bc f794 babc dccd 3dbc cc1f ccba
000001a0: a6d1 463d 7814 8dbc 0826 27bc 6e1f 9dbc
000001b0: 0a92 703d ead8 fc37 660d 12bd 47c9 713c
000001c0: 3888 b8bc a565 a23c 9efc 00bd 7c66 013d
000001d0: 18c3 5c3d e294 653d 774d 033d a548 353d
000001e0: 90d7 28bd aa0c 123d b3b0 3d3c 2d80 1c3c
000001f0: 9378 1ebc 0544 f8bc e2cc 33bd 8a27 943c
00000200: 385b 983c 1cf0 a53c 3a6c 633d 0230 823c
00000210: cda9 49bd 4e2d 2bbd 0f72 9abc a9aa a9bc
00000220: 62a4 a83c e951 2eba 4f1d 293c f3dd a0bb
00000230: 466b c03c fd13 0ebd c201 01bd 26d7 43bc
00000240: ae8d 6ebd 011c 103d 6b64 15bd ac98 d13c
00000250: a2f6 91ba f1f1 d63c c8d4 0cbd ced5 9abc
00000260: d5b2 453c 654b 31bb 8b3d 933c e4a8 ca3c
00000270: 365b 353c 48e7 233d 2a26 863c 6cb0 ff3a
00000280: 5bbf 353c 6d04 513c 4d24 c2bc a3e3 91bc
00000290: 9732 863d 124f 91bc f24e ea3c c059 103d
000002a0: dbdc 193c 6463 533d 7f65 713c 2d59 c6bb
000002b0: 79dc 3f3d a572 f6bc f658 813d bd2d 6d3d
000002c0: 8cc6 0e3d 7af8 2b3d 3d3d 16bc 5cc7 733b
000002d0: 21b7 16bd cbce 883d 14ba 293d d67a 18bb
000002e0: ac64 ae3c 8179 873c 75fe c93c c6f3 e9bc
000002f0: 0a3f 003c 50a2 343c 7234 983c 93ea 0e3d
00000300: 1432 173b 8e05 993d 7d8d 743c 7607 f23c
00000310: 0558 a23d 7c6c 9cbc 440f 673d e717 99bc
00000320: 57a7 a3bc 7001 7bbd 4521 35bd 66f3 00bd
00000330: 14cb 59bd 41e6 8b3d 42cf 563d 7bfd 153d
00000340: 01d6 a9bb 03a9 4c3d ea8c 3ebd 41ab 27bc
00000350: bcca c0ba 3fe6 543d 8441 af3b ceda a23c
00000360: 038d 033d 7f6c 9b3b 7363 cabc 5e4f 2ebc
00000370: ee71 533c 3910 b33c f398 fcbc 70c6 79bd
00000380: 50e6 883b 30b7 413c e91e c73c 54a3 6dbc
00000390: e6db 3e3d 3902 b6bb 86db d839 d0cb a9bc
000003a0: c7a1 28bc 5a4f dcbc d5fb d73c 643a 433d
000003b0: f1ac da3b 0d8a bb3c cc09 0abd e25e 913b
000003c0: ed0d 26bd d289 2ebd 8341 57bd 8c8e 71bd
000003d0: 27c4 75bd 9f38 67bc 1f2c 87bb 14a1 0c3d
000003e0: f9d5 6dbd 21fe 753d da46 ab3c 8957 123c
000003f0: 5ff9 44bd eaeb 4b3c 7f6c 47bd baf1 9dbb

module.conv_3.bias f4 [12]
0.060206402 0.023845948 0.0043530776 0.04360546 0.037185635 -0.021393975 -0.052269176 -0.013650833
-0.032119386 -0.008214951 0.010712722 0.0383229
00000000: fd9a 763d 9458 c33c 43a4 8e3b a49b 323d
00000010: f74f 183d 6b42 afbc 3418 56bd bea7 5fbc
00000020: 9e8f 03bd 0098 06bc 6a84 2f3c 79f8 1c3d

module.conv_4.weight f4 [12, 12, 3, 3, 3]
-0.007814053 0.019602042 -0.05812065 0.014650815 0.0012369187 0.046529513 -0.03036876 0.018106531
-0.029905677 -0.0053902976 0.06377184 0.010073496 0.049699992 0.0025547969 -0.021221666 0.019070357
-0.039365306 -0.0093931835 0.050478257 0.0036695867 0.04683297 0.03063051 0.068766214 0.047158908
0.04356446 0.008197969 -0.03813137 0.018347427 0.039344497 0.042019084 0.08470342 0.06683105
0.039448332 0.06942034 -0.021787694 -0.036239833 -0.01761969 -0.034438044 -0.049045477 0.016056659
-0.0581381 0.05667372 -0.010334007 -0.04391236 -0.03645568 -0.026397021 0.020989444 -0.0020195981
-0.016065028 -0.024489108 0.04197585 0.01697338 -0.0038124176 0.06660152 0.07941229 0.040440816
0.004382039 0.06367161 0.032748047 -0.011658462 -0.017669808 0.04492133 -0.09430903 -0.027714502
0.0061027696 -0.025815614 0.19482686 0.14016473 0.14793348 0.12800206 0.1614984 0.09942774
-0.0767505 -0.15317142 -0.15457141 0.029926341 0.08438929 0.06526811 0.012733528 0.094636776
-0.042093854 -0.014610848 0.050373226 -0.0037556922 -0.05588105 -0.05446148 0.047483094 -0.022421684
-0.039885204 0.015926242 -0.005271591 -0.057587847 -0.0084301885 0.020749046 -0.019185217 -0.010824405
0.04270151 0.015663892 0.05192882 -0.001641834 0.0021459216 0.030686673 -0.021239808 0.03893481
-0.027150678 -0.016680328 -0.024050348 0.014214701 -0.005155786 0.023264969 -0.0033167931 -0.057373367
-0.012723147 -0.008801888 -0.007641453 -0.015375254 -0.03487427 0.020819291 -0.043801036 0.03859561
-0.008021873 -0.056445774 0.001113402 -0.029927934 -0.041645627 0.01353436 -0.028213236 0.0059572784
0.003765759 0.029922703 -0.04391171 0.05560439 -0.017455092 -0.02908701 -0.00353829 0.03717332
0.040104397 -0.032251686 0.055035684 0.043003894 -0.026113067 -0.032199584 0.019201146 -0.045800064
0.003585784 -0.046117723 -0.018058589 -0.007819424 0.0548773 -0.049702164 0.0748425 0.0025170713
0.040381256 -0.005829558 -0.030287683 0.037247423 0.012706245 -0.022525813 -0.040151354 0.01370647
0.016811281 -0.00777917 -0.028231455 -0.00033294494 0.002171119 -0.010968513 -0.035039976 0.021561094
0.015587999 0.03377153 -0.04976558 0.002825704 0.047981817 -0.046214335 -0.023272986 0.014505016
-0.027193917 0.012638575 0.00676979 0.03637302 0.02239173 -0.054879956 -0.03428281 0.01377409
-0.030234132 0.0038873025 0.011819435 -0.0065819887 -0.00061008 0.018787432 0.05645792 0.016296556
0.045584686 -0.055398885 0.017439215 0.043412395 0.03722067 0.008431573 0.043309253 0.04547481
0.0013104076 -0.00018282291 0.024481697 -0.024193367 0.02097099 -0.02733547 0.04419752 -0.041716572
-0.00026070562 0.016124712 -0.0005102154 -0.06251244 0.034421053 0.019474437 -0.008978241 0.023229314
0.020323109 0.021746406 -0.025091443 0.037925657 -0.04978732 0.0015010316 0.004668279 -0.013572845
-0.003396711 0.0049893567 -0.008160131 0.0051227277 -0.0038864433 0.01241119 -0.044474725 0.01099215
-0.011344391 -0.0014606403 -0.010808683 -0.027343286 0.014973949 0.0011282569 0.030378431 0.008360359
-0.043235045 0.0070122695 0.01630713 0.06031118 -0.039246358 -0.029314091 0.02893606 0.047778044
0.027160982 0.045246303 -0.047941342 -0.049220167 -0.00874081 0.07901605 0.03643109 -0.0069231684
00000000: 8406 00bc 7694 a03c eb0f 6ebd f909 703c
00000010: 1b20 a23a bb95 3e3d e8c7 f8bc 2654 943c
00000020: c0fc f4bc 18a1 b0bb cf9a 823d 4e0b 253c
00000030: 3892 4b3d 616e 273b 0fd9 adbc 7039 9c3c
00000040: 843d 21bd dee5 19bc 4ac2 4e3d 737d 703b
00000050: eed3 3f3d d6ec fa3c 4dd5 8c3d b329 413d
00000060: a670 323d c650 063c a42f 1cbd 584d 963c
00000070: b227 213d 341c 2c3d fd78 ad3d b8de 883d
00000080: 9394 213d 402c 8e3d 1b7c b2bc 3870 14bd
00000090: 2b57 90bc e80e 0dbd e9e3 48bd 4189 833c
000000a0: 3722 6ebd b422 683d f84f 29bc 72dd 33bd
000000b0: 8d52 15bd 913e d8bc 0ef2 ab3c 3c5b 04bb
000000c0: ce9a 83bc 629d c8bc deee 2b3d c20b 8b3c
000000d0: c1d9 79bb 6166 883d e9a2 a23d 45a5 253d
000000e0: 3597 8f3b 4366 823d d122 063d 2203 3fbc
000000f0: 46c0 90bc 6eff 373d 1825 c1bd 8609 e3bc
00000100: bef9 c73b 447b d3bc b180 473e 5887 0f3e
00000110: e07b 173e f912 033e d65f 253e c5a0 cb3d
00000120: 5e2f 9dbd f8d8 1cbe f847 1ebe 1628 f53c
00000130: 4bd4 ac3d 49ab 853d 4aa0 503c edd0 c13d
00000140: 9b6a 2cbd 5762 6fbc 2854 4e3d 0f22 76bb
00000150: 87e3 64bd 0013 5fbd a27d 423d aead b7bc
00000160: ab5e 23bd c077 823c 4fbd acbb 3ce1 6bbd
00000170: c61e 0abc e7f9 a93c 512a 9dbc d858 31bc
00000180: c7e7 2e3d 9051 803c 50b3 543d cf32 d7ba
00000190: 97a2 0c3b 9e62 fb3c 1bff adbc 1b7a 1f3d
000001a0: 196b debc 2fa5 88bc 3c05 c5bc c7e4 683c
000001b0: def1 a8bb 2d96 be3c 8e5e 59bb 5600 6bbd
000001c0: bf74 50bc cb35 10bc 2765 fabb 7de8 7bbc
000001d0: 53d8 0ebd 388d aa3c b768 33bd 6e16 1e3d
000001e0: 2d6e 03bc af33 67bd 92ef 913a 6d2b f5bc
000001f0: 9b94 2abd 38bf 5d3c 721f e7bc 4635 c33b
00000200: f4ca 763b 7520 f53c c4dc 33bd 6ec1 633d
00000210: fbfd 8ebc e247 eebc a8e2 67bb 0d43 183d
00000220: 8244 243d 581a 04bd 196d 613d da24 303d
00000230: 12eb d5bc b6e3 03bd b94b 9d3c d998 3bbd
00000240: 79ff 6a3b f0e5 3cbd 9bef 93bc 0b1d 00bc
00000250: 05c7 603d 7f94 4bbd 0647 993d 73f5 243b
00000260: d166 253d e005 bfbb e01d f8bc c190 183d
00000270: db2d 503c 0e88 b8bc bf75 24bd 1a91 603c
00000280: d0b7 893c 68e8 febb a745 e7bc 1d8f aeb9
00000290: 5549 0e3b 47b5 33bc 1486 0fbd e4a0 b03c
000002a0: ce64 7f3c 0454 0a3d fed6 4bbd 722f 393b
000002b0: 9588 443d 3e4b 3dbd fda6 bebc 72a6 6d3c
000002c0: c7c5 debc 0712 4f3c 1dd5 dd3b e0fb 143d
000002d0: dd6e b73c cec9 60bd 226c 0cbd b9ac 613c
000002e0: 92ad f7bc 1dc2 7e3b 4ea6 413c b9ad d7bb
000002f0: c7ed 1fba 1ae8 993c 6c40 673d 5b80 853c
00000300: 02b7 3a3d f1e9 62bd afdc 8e3c 32d1 313d
00000310: b474 183d 9524 0a3c 0b65 313d cb43 3a3d
00000320: fcc1 ab3a 27b4 3fb9 d78d c83c 2b31 c6bc
00000330: 5bcb ab3c a3ee dfbc 7508 353d ffde 2abd
00000340: 51af 88b9 f917 843c fabf 05ba 8606 80bd
00000350: 17fd 0c3d db88 9f3c 7919 13bc 674b be3c
00000360: a67c a63c 8525 b23c 928c cdbc ef57 1b3d
00000370: caed 4bbd 43be c43a 5df8 983b a360 5ebc
00000380: 5b9b 5ebb c27d a33b 12b2 05bc 8edc a73b
00000390: b3b3 7ebb 4e58 4b3c 212b 36bd 6b18 343c
000003a0: d3dd 39bc f572 bfba e716 31bc 07ff dfbc
000003b0: 4b55 753c 05e2 933a 30dc f83c e3f9 083c
000003c0: 3b17 31bd 2ec7 e53b 8896 853c db08 773d
000003d0: cac0 20bd 1b24 f0bc 510b ed3c e9b2 433d
000003e0: b580 de3c 3054 393d 245e 44bd 169b 49bd
000003f0: 9d35 0fbc 2bd3 a13d c438 153d bfdb e2bb

module.conv_4.bias f4 [12]
-0.052055605 -0.013825251 0.015866864 0.013227322 -0.034204546 0.06289746 0.017269108 0.000686488
0.047983736 0.021393348 0.0044482327 -0.061833672
00000000: 4238 55bd 4e83 62bc 3afb 813c 69b7 583c
00000010: 111a 0cbd 62d0 803d f277 8d3c 6ef5 333a
00000020: 988a 443d 1a41 af3c 7bc2 913b 4e45 7dbd

module.conv_5.weight f4 [12, 12, 3, 3, 3]
0.0010356262 -0.05756729 0.047119156 -0.0021924123 -0.05851611 0.028910384 -0.01622127 0.0031916976
-0.053231902 -0.0006992437 -0.019807974 -0.012527361 -0.0032840227 0.014913581 -0.0010210165 0.03351096
-0.0066336095 0.009549373 0.03876134 -0.037879962 0.04986638 -0.023195352 -0.018710544 0.011236687
-0.0031616199 -0.005475896 -0.033675592 0.01299143 -0.019402286 -0.024731614 0.008144757 0.049014695
0.03889486 -0.019505324 0.011335056 0.019968687 0.038506307 -0.029615918 -0.021313578 0.03515697
0.038760636 0.04856361 0.007696846 0.05059051 0.027769407 -0.005364164 0.024870101 0.03000853
0.0537435 0.0065559526 -0.05054068 0.049288265 -0.0399501 -0.049434554 -0.025367143 0.04173129
0.012374199 0.00037785177 0.008828129 0.023055322 0.053946823 0.02292295 -0.022545813 0.020066425
-0.0020912075 0.04263525 0.008159566 0.06535603 0.039588492 0.06267993 -0.030110326 -0.035045072
-0.028951801 0.047905847 0.036876164 -0.0023910208 0.023951821 0.053826347 -0.041243386 0.02413279
0.014076378 -0.05208578 -0.013573851 0.037637852 0.032023787 0.0024065482 0.0068860142 -0.0065020523
0.063727774 0.05812725 -0.038795605 -0.014471821 -0.0071852035 0.02530865 0.028908145 -0.028858153
-0.002040681 0.012245319 -0.016512455 0.0078091472 -0.008155476 0.02335328 0.043130714 -0.01630348
0.06375545 0.024003388 0.06739884 0.022700422 0.056214638 -0.02116767 -0.012753105 -0.04557325
0.024460461 -0.034177497 -0.012960509 -0.012302595 0.007329052 -0.012815442 -0.033175036 0.018986931
0.059072815 0.060047727 -0.025358066 -0.03438649 -0.023899365 0.050949126 -0.039502308 0.0244846
0.03029423 -0.02780076 0.0028370235 0.057889376 0.029591685 0.02406194 -0.047653086 0.017151175
-0.0043759095 0.039482635 -0.028750498 0.010935137 0.02686135 0.0023527786 0.0538587 0.034502387
0.042796034 0.015035161 0.045012403 -0.010385007 0.054274034 -0.02786596 0.037181027 0.029466307
0.010288917 -0.043507013 -0.01575301 0.016054476 0.030540233 0.006411716 -0.04533039 0.04534608
0.057279963 0.002157307 0.009021521 0.004936327 -0.02800374 -0.038835526 0.047908824 0.04365219
-0.0066372966 0.04219469 0.045949403 -0.014193067 0.0010811939 0.042065505 0.03227879 -0.038286556
0.019324005 -0.058461785 -0.024722403 0.023338376 -0.041920483 -0.020157833 0.010282116 0.040857695
0.040606998 -0.0100761615 0.041952252 0.042699393 -0.061238293 -0.04913079 0.037071254 -0.043268226
0.0094579505 -0.025202744 0.04671366 -0.00801389 0.014071891 -0.009695844 0.028160784 -0.021897625
-0.024698252 0.00017332126 -0.049740616 0.017427104 -0.0045822845 0.026034525 0.024203634 -0.04201572
0.040064286 0.030325856 0.04299308 0.009897315 0.048859373 0.019776396 0.043917928 -0.023496838
-0.03873217 -0.046783157 0.037250116 0.030028714 -0.0481536 0.020355145 0.002041878 -0.04091627
0.022467827 0.05932571 0.023367839 0.0097081745 0.033199504 0.0018613127 0.05545517 0.04910923
-0.024086736 -0.032421518 0.03262276 6.236555e-06 -0.001304983 0.02147905 -0.02626154 0.041484527
-0.021002136 -0.024328232 -0.03808344 0.011553737 -0.013496816 0.028301626 -0.0040938337 -0.03698622
0.021004159 0.02606982 -0.048290413 -0.0395742 0.011599969 -0.013797286 -0.022488197 -0.0064381943
00000000: d9bd 873a aecb 6bbd 0400 413d 93ae 0fbb
00000010: 97ae 6fbd 78d5 ec3c 78e2 84bc cd2b 513b
00000020: b209 5abd 734d 37ba 5544 a2bc 8f3f 4dbc
00000030: c238 57bb 1858 743c a1d3 85ba ca42 093d
00000040: c05e d9bb f974 1c3c 36c4 1e3d 0528 1bbd
00000050: b040 4c3d 2e04 bebc db46 99bc 151a 383c
00000060: 2e33 4fbb 256f b3bb 6bef 09bd 02da 543c
00000070: 8bf1 9ebc f499 cabc 9671 053c a2c3 483d
00000080: 3750 1f3d a1c9 9fbc acb6 393c 5f95 a33c
00000090: cab8 1d3d 159d f2bc d099 aebc c100 103d
000000a0: 79c3 1e3d a3ea 463d d335 fc3b ff37 4f3d
000000b0: ab7c e33c dec5 afbb 62bc cb3c 73d4 f53c
000000c0: 2522 5c3d 51d3 d63b be03 4fbd 7ee2 493d
000000d0: b7a2 23bd e37b 4abd c1ce cfbc 6eee 2a3d
000000e0: 27bd 4a3c 681a c639 dba3 103c 84de bc3c
000000f0: 58f7 5c3d e9c8 bb3c ffb1 b8bc 5862 a43c
00000100: a40c 09bb 4da2 2e3d b3af 053c 62d9 853d
00000110: 8b27 223d 565e 803d eea9 f6bc 6c8b 0fbd
00000120: 542c edbc ec38 443d 760b 173d acb2 1cbb
00000130: 9c36 c43c 0479 5c3d d3ee 28bd 21b2 c53c
00000140: 9ca0 663c e657 55bd dc64 5ebc 262a 1a3d
00000150: 602b 033d 2eb7 1d3b 13a4 e13b 2b0f d5bb
00000160: b583 823d d716 6e3d 24e8 1ebd 371b 6dbc
00000170: db71 ebbb 1654 cf3c c6d0 ec3c ef67 ecbc
00000180: f2bc 05bb 97a0 483c 2145 87bc e0e3 ff3b
00000190: 8c9e 05bc 614f bf3c d5a9 303d e08e 85bc
000001a0: 3892 823d c1a2 c43c 6708 8a3d 3cf6 b93c
000001b0: 5241 663d d267 adbc 66f2 50bc 04ab 3abd
000001c0: 4e61 c83c b4fd 0bbd 5158 54bc d390 49bc
000001d0: 8b28 f03b dcf7 51bc 8ce2 07bd 7b8a 9b3c
000001e0: 56f6 713d 9bf4 753d b8bb cfbc d9d8 0cbd
000001f0: 9ac8 c3bc 08b0 503d 2ccd 21bd ee93 c83c
00000200: 9b2b f83c 6bbe e3bc 5bed 393b 691d 6d3d
00000210: 436a f23c 8c1d c53c e22f 43bd 9f80 8c3c
00000220: ca63 8fbb 8bb8 213d 2a86 ebbc 4a29 333c
00000230: 550c dc3c 1331 1a3b f19a 5c3d 6052 0d3d
00000240: e54a 2f3d 0956 763c ed5e 383d e025 2abc
00000250: 734e 5e3d 2747 e4bc 224b 183d 5363 f13c
00000260: d992 283c 6934 32bd 750c 81bc ad84 833c
00000270: 832f fa3c 5f19 d23b 5cac 39bd d0bc 393d
00000280: 659e 6a3d 9b61 0d3b 00cf 133c eac0 a13b
00000290: 1968 e5bc 0012 1fbd 0b3c 443d a4cc 323d
000002a0: ae7d d9bb 57d4 2c3d 7135 3c3d 0a8a 68bc
000002b0: d9b6 8d3a e14c 2c3d c436 043d 5dd2 1cbd
000002c0: 604d 9e3c a075 6fbd a386 cabc 1f30 bf3c
000002d0: d0b4 2bbd 0a22 a5bc 5276 283c 665a 273d
000002e0: 8653 263d 7c16 25bc 20d6 2b3d 8fe5 2e3d
000002f0: 01d5 7abd 5e3d 49bd 07d8 173d 063a 31bd
00000300: 85f5 1a3c fc75 cebc d356 3f3d b14c 03bc
00000310: ca8d 663c 51db 1ebc 72b1 e63c a662 b3bc
00000320: fd53 cabc 92bd 3539 d1bc 4bbd 49c3 8e3c
00000330: fd26 96bb 5b46 d53c b346 c63c ad18 2cbd
00000340: 731a 243d ee6d f83c 8319 303d 5928 223c
00000350: c420 483d 1c02 a23c 49e3 333d 717c c0bc
00000360: a0a5 1ebd b29f 3fbd 9493 183d c7fe f53c
00000370: b63c 45bd d5bf a63c 07d1 053b d297 27bd
00000380: 730e b83c 84ff 723d e96d bf3c 090f 1f3c
00000390: 34fc 073d 4af7 f33a f624 633d c326 493d
000003a0: 8c51 c5bc 6dcc 04bd 719f 053d 9943 d136
000003b0: f70b abba d5f4 af3c 7122 d7bc aeeb 293d
000003c0: ac0c acbc 004c c7bc 62fd 1bbd e34b 3d3c
000003d0: c021 5dbc d0d8 e73c 9125 86bb dd7e 17bd
000003e0: ea10 ac3c 6090 d53c 2bcc 45bd 8e18 22bd
000003f0: cc0d 3e3c 030e 62bc 2b39 b8bc 7df7 d2bb

module.conv_5.bias f4 [12]
0.034536667 -0.036888726 0.025895953 -0.010699124 0.009655523 0.07000079 -0.019683545 0.02752893
0.015550942 0.03647712 0.053245112 0.042759277
00000000: 5276 0d3d a218 17bd c023 d43c 614b 2fbc
00000010: 3332 1e3c 935c 8f3d 633f a1bc 5a84 e13c
00000020: 61c9 7e3c 0869 153d 8c17 5a3d 5a24 2f3d

module.conv_6.weight f4 [12, 12, 3, 3, 3]
0.03057187 -0.040174764 0.045657035 -0.019202193 0.033485282 0.0091900565 -0.042288717 0.0526713
-0.0048412397 -0.048991594 0.038811214 0.02020714 -0.05364117 0.00914168 0.048241537 0.02291377
-0.036861416 -0.028482415 -0.046719756 -0.044132654 -0.04899362 0.051034253 -0.044270307 0.0019028668
0.0049110483 0.0050549908 0.01605799 -0.050807014 0.00059076067 0.03615666 -0.00096424395 -0.018795067
0.009992572 -0.030162869 -0.0011414638 -0.020436337 -0.011201788 -0.059152346 -0.00073375425 0.03203865
0.00077314157 -0.02608125 -0.05068928 0.060181852 0.02084679 -0.038655516 -0.03546282 -0.016348276
-0.02312743 0.04082926 0.009932988 0.055754017 0.019134752 0.03987298 -0.047412906 0.037283834
-0.0031430458 0.022007164 0.041453615 -0.0004706556 -0.040369973 -0.05000946 0.018695308 0.0014503631
-0.03314915 0.05137077 -0.054733522 -0.0067180344 -0.042918112 -0.060319275 -0.044889797 0.030146034
-0.026337447 0.029148567 0.021107068 -0.013248781 -0.054474022 0.0053760693 -0.004655785 -0.035059188
-0.027757246 0.013724421 0.01722834 0.025569383 0.047683295 -0.02616567 0.012979447 0.0021418347
0.014687169 -0.0033234584 -0.018746259 0.0047370302 -0.0020446237 0.03662469 -0.027501488 -0.013371647
-0.016838422 -0.027639093 -0.048776172 -0.038637318 0.03086751 0.046448298 -0.03425612 -0.024627304
0.027921539 0.030404277 -0.005056653 -0.053407595 0.05694886 -0.011832105 0.038175877 0.024101328
0.014537099 0.0564433 -0.015725922 -0.020067565 0.012137009 0.0064895395 0.0020987783 0.021216532
0.0006588945 0.040636484 -0.0032612365 -0.025235437 0.028158242 0.018329144 0.038652804 -0.0032608216
0.020918656 -0.007715249 -0.042114064 -0.0049103885 0.053105973 -0.00799609 0.0039104763 -0.03274901
-0.03663381 -0.024759186 0.043358624 -0.007635985 0.021383094 0.03293374 0.05338384 0.024039082
0.010963978 0.028746879 0.017172744 -0.054771926 -0.0012852341 -0.056902494 0.04895429 -0.046735574
0.0482433 -0.0018786024 0.019991025 -0.04735096 -0.031070298 -0.05658256 -0.0060203085 0.03317058
-0.049067456 -0.045899913 0.030162416 0.023845064 -0.003672686 -0.006381666 0.0060272007 0.06893719
0.03987763 -0.0073084445 0.012534941 -0.044085484 0.07354502 -0.017800251 -0.039327644 0.041185364
0.018895626 -0.008428557 0.00637871 0.00037091802 0.019562678 0.058857936 -0.022504188 -0.00529379
-0.01832642 0.050672416 -0.013817171 0.018441955 0.0057488 -0.006630071 0.051985674 -0.030596947
-0.00833816 0.023611482 0.04556455 -0.040240724 0.008038533 0.015286182 -0.015715094 -0.025442136
0.03528165 -0.049380522 -0.024778213 -0.007479639 -0.05034592 0.0106035285 -0.049796592 0.00066202047
0.04787547 -0.020040112 0.041709 -0.0501156 -0.013335391 -0.048837557 0.01080592 -0.054175116
0.033152908 -0.020216733 -0.02174373 0.040313065 0.0049579544 -0.048735682 0.03894535 0.010280366
0.034997437 -0.019725105 0.03242631 -0.009823993 0.007149714 0.0012916874 0.03706464 -0.015203179
0.05951121 0.020566562 -0.0056847595 -0.03785312 0.04159599 0.036251027 -0.026894972 -0.0072507835
0.05277573 -0.021555062 -0.020189185 -0.0064740316 -0.0031810782 0.02525938 0.0064404216 -0.024380233
0.04895797 0.04169296 -0.015185358 0.03498689 0.05101744 0.015265697 0.037033588 -0.013867623
00000000: dc71 fa3c 4b8e 24bd df02 3b3d eb4d 9dbc
00000010: dd27 093d e491 163c ef36 2dbd dcbd 573d
00000020: 43a3 9ebb 69ab 48bd 82f8 1e3d 7289 a53c
00000030: d8b6 5bbd fcc6 153c eb98 453d a9b5 bb3c
00000040: fffb 16bd f453 e9bc 375d 3fbd 71c4 34bd
00000050: 89ad 48bd 4b09 513d c854 35bd 9d69 f93a
00000060: dcec a03b 56a4 a53b 0c8c 833c 041b 50bd
00000070: 47dd 1a3a 0219 143d 51c5 7cba 1df8 99bc
00000080: e2b7 233c 1f18 f7bc 2b9d 95ba 1b6a a7bc
00000090: b487 37bc bb49 72bd 6a59 40ba f63a 033d
000000a0: a7ac 4a3a 58a8 d5bc 909f 4fbd 3f81 763d
000000b0: e3c6 aa3c 3f55 1ebd 7641 11bd d2ec 85bc
000000c0: bc75 bdbc 953c 273d f9bd 223c 535e 643d
000000d0: 7cc0 9c3c da51 233d 0934 42bd efb6 183d
000000e0: 8ffb 4dbb 5e48 b43c 44cb 293d 53c2 f6b9
000000f0: fc5a 25bd b8d6 4cbd e726 993c 1c1a be3a
00000100: 67c7 07bd 286a 523d 4230 60bd f522 dcbb
00000110: e7ca 2fbd 5811 77bd 5dde 37bd d1f4 f63c
00000120: a1c1 d7bc fac8 ee3c bbe8 ac3c 6a11 59bc
00000130: 2720 5fbd bd29 b03b 8e8f 98bb 399a 0fbd
00000140: 2a63 e3bc 65dc 603c 7322 8d3c e276 d13c
00000150: 8f4f 433d 6359 d6bc bfa7 543c 065e 0c3b
00000160: 74a2 703c 61ce 59bb c191 99bc 1739 9b3b
00000170: 18ff 05bb c503 163d cd4a e1bc c114 5bbc
00000180: bbf0 89bc 616b e2bc 86c9 47bd 2a42 1ebd
00000190: dcdd fc3c 9240 3e3d 2550 0cbd 33bf c9bc
000001a0: b6bb e43c 6412 f93c 48b2 a5bb ecc1 5abd
000001b0: 3543 693d 72db 41bc 4f5e 1c3d 2670 c53c
000001c0: 032d 6e3c 1731 673d a6d3 80bc bc64 a4bc
000001d0: 4eda 463c 34a6 d43b a88b 093b 4bce ad3c
000001e0: a9b9 2c3a 7172 263d 78ba 55bb 8cba cebc
000001f0: 1dac e63c 0027 963c 6752 1e3d 82b3 55bb
00000200: 9a5d ab3c 33d0 fcbb cc7f 2cbd 53e7 a0bb
00000210: a685 593d 0802 03bc 7423 803b d323 06bd
00000220: 550d 16bd c7d3 cabc d098 313d 4937 fabb
00000230: 992b af3c 88e5 063d 03a9 5a3d 9ced c43c
00000240: 42a2 333c 937e eb3c dbad 8c3c 8758 60bd
00000250: 4d75 a8ba 9712 69bd 4b84 483d cd6d 3fbd
00000260: c49a 453d 703b f6ba 38c4 a33c 15f3 41bd
00000270: 2387 febc 1dc3 67bd 0246 c5bb e0dd 073d
00000280: f5fa 48bd 8c01 3cbd 2c17 f73c b956 c33c
00000290: 72b1 70bb 4b1d d1bb d37f c53b f12e 8d3d
000002a0: ba56 233d ad7b efbb 5a5f 4d3c fb92 34bd
000002b0: c59e 963d d5d1 91bc 0616 21bd fcb1 283d
000002c0: 00cb 9a3c ee17 0abc 7f04 d13b c677 c239
000002d0: e941 a03c 0515 713d b45a b8bc 8777 adbb
000002e0: 4a21 96bc e18d 4f3d 6a61 62bc 9513 973c
000002f0: 6e60 bc3b 1141 d9bb eeee 543d 73a6 fabc
00000300: c79c 08bc de6c c13c e5a1 3a3d 75d3 24bd
00000310: 0db4 033c e572 7a3c f1bc 80bc 076c d0bc
00000320: 7e83 103d 3b43 4abd aefb cabc c217 f5bb
00000330: 8637 4ebd 6cba 2d3c 83f7 4bbd 718b 2d3a
00000340: 1219 443d 292b a4bc 0ed7 2a3d 0446 4dbd
00000350: af7c 5abc e409 48bd 500b 313c bae6 5dbd
00000360: 58cb 073d 909d a5bc e81f b2bc 501f 253d
00000370: 5676 a23b 119f 47bd 2985 1f3d fb6e 283c
00000380: 7959 0f3d 8b96 a1bc 73d1 043d d0f4 20bc
00000390: 2648 ea3b d64d a93a 18d1 173d c116 79bc
000003a0: 07c2 733d 357b a83c 3847 babb e00b 1bbd
000003b0: 8f60 2a3d f57b 143d d852 dcbc fb97 edbb
000003c0: 5d2b 583d 3e94 b0bc ca63 a5bc 1d24 d4bb
000003d0: a379 50bb c2ec ce3c 2c0a d33b 0eb9 c7bc
000003e0: 2788 483d 3dc6 2a3d 02cc 78bc 6a4e 0f3d
000003f0: aaf7 503d f91c 7a3c 88b0 173d 0735 63bc

module.conv_6.bias f4 [12]
0.038594294 -0.05101854 0.021267463 -0.00046250797 -0.03444746 0.023821656 0.025434954 0.022247547
-0.012814885 0.06793711 0.019582633 -0.021113567
00000000: 0d15 1e3d d1f8 50bd 1a39 ae3c c57c f2b9
00000010: c818 0dbd a225 c33c f75c d03c 7d40 b63c
00000020: 86f5 51bc 9d22 8b3d c26b a03c 5cf6 acbc

module.conv_7.weight f4 [56, 12, 1, 1, 1]
0.21597068 -0.16613096 -0.27763343 -0.26758102 -0.17707181 0.07880158 -0.22916271 -0.37602338
0.082174465 0.110053815 0.20580177 -0.13368472 0.1996631 0.024250543 -0.0090132365 0.13883819
-0.032479748 0.008374681 -0.18601078 0.35692918 -0.15983933 -0.11559781 -0.2016811 0.22991733
-0.2583626 0.031604674 -0.24275194 0.13936402 0.27743867 -0.07390259 0.17276825 -0.22839928
0.22185205 -0.029664056 0.21480533 0.31730932 0.21082897 -0.20415512 0.32938477 0.10802865
0.074131556 -0.06217785 -0.10122376 0.22819833 -0.2697097 0.1377527 -0.09036155 0.06327796
0.23558977 -0.2781613 -0.17992415 -0.021590397 0.2783661 -0.29921508 -0.09549124 0.15064931
-0.03788162 -0.3434498 0.24914572 0.088337116 -0.09284901 -0.23018289 -0.23756488 0.17696132
0.116640106 0.14052403 0.09928385 0.13650927 0.06563968 -0.07514664 -0.15449789 0.02403017
-0.08949086 -0.11063344 -0.29869604 0.22055857 -0.05321438 -0.28351152 0.021504693 -0.04158159
-0.0147849955 0.23097685 0.25726464 -0.07863448 0.0106526995 0.026626235 -0.19646555 0.33232313
0.087653786 0.23237072 -0.0010609415 -0.1225176 0.26751024 -0.17357306 0.09385099 0.123330094
0.28170192 -0.25959525 -0.048351057 -0.008917072 0.0440721 -0.23596866 -0.02908646 0.112280264
-0.25668636 0.12368048 0.2863567 -0.13642147 -0.08169173 -0.068411835 -0.34160945 0.0044367095
0.048382223 -0.3268425 -0.3405134 -0.13955761 -0.1033471 0.073278196 0.15481207 0.052540097
-0.21853665 -0.16099577 -0.17868349 0.08920366 -0.08452573 0.29722577 -0.2897303 -0.38989514
-0.08453486 -0.07223195 0.25658378 -0.20028046 -0.013394793 0.12983806 -0.18184307 0.3131357
-0.0014053164 -0.033609733 -0.013946595 -0.3103922 0.21552806 0.25084946 -0.22103533 0.001840241
0.25725424 0.25607732 -0.03011718 0.08980756 -0.21713482 0.015344591 0.03306505 0.15574645
0.2833175 0.21094207 -0.17524588 0.043821543 0.023895606 0.14909711 0.1265782 0.18657917
0.19933859 0.10542436 -0.26188847 0.070456505 0.06643834 -0.2743878 0.049049065 0.0072222105
-0.3333849 0.08982121 0.09926531 0.07994441 0.1445934 -0.2447587 0.05484003 -0.34501782
-0.24677752 -0.2181123 0.092861764 -0.38741472 0.13232584 0.25450596 -0.021914002 0.095258
-0.206897 -0.28885 0.24935141 -0.07355764 -0.15393241 -0.019219639 0.06650518 9.597241e-05
-0.041208036 0.29257897 -0.248779 -0.06351188 -0.15608247 0.1018345 -0.021907847 0.065456174
0.08203377 -0.0030574228 -0.12038344 -0.26999232 -0.009381331 -0.22483176 0.1916721 0.027749851
-0.02165493 0.06968612 -0.13930687 0.17540191 0.24654153 -0.3069678 -0.04046302 -0.06606839
-0.279682 0.13436498 -0.18334106 -0.028445192 -0.114124835 -0.23081692 -0.21005341 0.119885184
0.07797807 -0.1576726 0.116997585 -0.048713665 0.21412165 -0.17952034 -0.04478913 0.16372281
-0.003434554 0.25988308 0.056624014 -0.33526298 -0.27725568 0.029317608 0.21954411 -0.16100423
0.047218814 0.24153064 -0.21415862 0.09657423 0.10322615 0.016491463 0.06833987 -0.35922578
0.14350311 -0.10726295 -0.22100405 -0.18360472 0.056137256 0.13031101 -0.23672737 -0.118459634
00000000: 6b27 5d3e 3c1e 2abe f825 8ebe 6100 89be
00000010: 5052 35be b962 a13d a1a9 6abe 2386 c0be
00000020: 164b a83d e563 e13d b3bd 523e a6e4 08be
00000030: 7c74 4c3e 13a9 c63c 41ac 13bc 992b 0e3e
00000040: 7c09 05bd f535 093c 9c79 3ebe 6cbf b63e
00000050: ecac 23be 8bbe ecbd 7e85 4ebe 736f 6b3e
00000060: 1a48 84be e773 013d f793 78be 71b5 0e3e
00000070: 710c 8e3e 3e5a 97bd 29ea 303e 80e1 69be
00000080: 2f2d 633e 0902 f3bc eef5 5b3e 5e76 a23e
00000090: 8de3 573e 0a0e 51be 1fa5 a83e 203e dd3d
000000a0: 49d2 973d 34ae 7ebd 674e cfbd d3ac 693e
000000b0: 6417 8abe 0b0f 0d3e 7a0f b9bd e097 813d
000000c0: 723e 713e 286b 8ebe 093e 38be 58de b0bc
000000d0: 0086 8e3e b832 99be e990 c3bd d043 1a3e
000000e0: c229 1bbd a7d8 afbe 0e20 7f3e 17ea b43d
000000f0: 9f27 bebd 10b5 6bbe 3544 73be 5935 353e
00000100: 02e1 ee3d 88e5 0f3e 5555 cb3d 16c9 0b3e
00000110: 196e 863d 7be6 99bd b234 1ebe ebda c43c
00000120: fc46 b7bd c993 e2bd b0ee 98be 1bda 613e
00000130: 52f7 59bd 6c28 91be 9c2a b03c 7551 2abd
00000140: c43c 72bc 3285 6c3e 31b8 833e 1d0b a1bd
00000150: a988 2e3c 431f da3c 442e 49be 4226 aa3e
00000160: d483 b33d 97f2 6d3e 4a0f 8bba 82ea fabd
00000170: 1af7 883e 23bd 31be f334 c03d 7d94 fc3d
00000180: 3c3b 903e abe9 84be c20b 46bd e918 12bc
00000190: f284 343d c5a1 71be ba46 eebc 32f3 e53d
000001a0: 656c 83be 314c fd3d 589d 923e 12b2 0bbe
000001b0: fe4d a7bd 811b 8cbd 6fe7 aebe d161 913b
000001c0: 702c 463d e657 a7be c657 aebe 31e8 0ebe
000001d0: a5a7 d3bd e112 963d 0e87 1e3e 4934 573d
000001e0: 12c8 5fbe 13dc 24be cef8 36be 69b0 b63d
000001f0: d31b adbd fa2d 983e 8857 94be 56a0 c7be
00000200: 9d20 adbd 58ee 93bd f35e 833e 5216 4dbe
00000210: d575 5bbc 45f4 043e 1235 3abe 5353 a03e
00000220: 9832 b8ba 5caa 09bd 4280 64bc baeb 9ebe
00000230: 63b3 5c3e 576f 803e 1657 62be 3e34 f13a
00000240: d4b6 833e 911c 833e 4eb8 f6bc 07ed b73d
00000250: 9758 5ebe e167 7b3c 386f 073d ff7b 1f3e
00000260: fe0e 913e 3301 583e a873 33be 387e 333d
00000270: b8c0 c33c eaac 183e b79d 013e 9c0e 3f3e
00000280: 6a1f 4c3e bae8 d73d 3f16 86be 804b 903d
00000290: d310 883d 8f7c 8cbe ace7 483d 4ba8 ec3b
000002a0: 6db1 aabe 2ff4 b73d 9c4b cb3d e5b9 a33d
000002b0: 4b10 143e 06a2 7abe f09f 603d 2da6 b0be
000002c0: 3fb3 7cbe d558 5fbe 4f2e be3d 395b c6be
000002d0: 6d80 073e 9b4e 823e fe84 b3bc a016 c33d
000002e0: cfdc 53be 26e4 93be fa55 7f3e 63a5 96bd
000002f0: 75a0 1dbe 8172 9dbc de33 883d cc44 c938
00000300: c2c9 28bd e9cc 953e ecbf 7ebe 8412 82bd
00000310: 15d4 1fbe 9b8e d03d 1678 b3bc e30d 863d
00000320: 5201 a83d 0b5f 48bb 988b f6bd 6f3c 8abe
00000330: 27b4 19bc 4c3a 66be b145 443e a853 e33c
00000340: ae65 b1bc 99b7 8e3d 76a6 0ebe 8f9c 333e
00000350: 6275 7c3e e22a 9dbe 8dbc 25bd dd4e 87bd
00000360: 7b32 8fbe f996 093e c2bd 3bbe e405 e9bc
00000370: 48ba e9bd 455b 6cbe 3e18 57be 5d86 f53d
00000380: f7b2 9f3d ed74 21be 6e9c ef3d fb87 47bd
00000390: b542 5b3e 2ed4 37be cf74 37bd f4a6 273e
000003a0: 4116 61bb 650f 853e 95ee 673d 97a7 abbe
000003b0: 75f4 8dbe 7b2b f03c 2cd0 603e 4bde 24be
000003c0: 8468 413d cf53 773e 664c 5bbe b6c8 c53d
000003d0: 3b68 d33d 1b19 873c c6f5 8b3d 71ec b7be
000003e0: 7bf2 123e adac dbbd e34e 62be e002 3cbe
000003f0: 2ef0 653d 4070 053e a968 72be f79a f2bd

module.conv_7.bias f4 [56]
0.22065134 -0.04763388 -0.104420185 -0.19720317 0.24357903 -0.073671274 -0.035388857 -0.16417465
0.041940633 0.18086685 0.07433403 -0.20860825 -0.13845007 0.011795301 0.17265216 0.0015281074
0.13999626 0.08633623 0.2157843 -0.102464594 0.05201699 0.073617235 -0.111466475 0.018977027
0.19976528 -0.2586475 -0.20790944 -0.12713967 -0.12430354 0.22494735 0.062133044 0.05872189
0.13710865 -0.21294767 0.06473215 -0.17246644 0.08126688 0.04902545 -0.025156226 0.009641107
-0.059708457 0.15600982 -0.0019462433 0.071414836 -0.116864696 0.091266245 0.15520266 -0.1639106
-0.16808765 0.22509246 0.16955961 -0.11638885 -0.15731537 0.107309304 -0.07969971 0.19696689
00000000: 6df2 613e be1b 43bd 40da d5bd a1ef 49be
00000010: c86c 793e f7e0 96bd e8f3 10bd 661d 28be
00000020: f1c9 2b3d 2935 393e 713c 983d 679d 55be
00000030: dbc5 0dbe 1441 413c bacb 303e c74a c83a
00000040: 2e5b 0f3e 0dd1 b03d 8ff6 5c3e f5d8 d1bd
00000050: c40f 553d a2c4 963d 8948 e4bd b675 9b3c
00000060: 458f 4c3e 726d 84be 36e6 54be e730 02be
00000070: db92 febd 9958 663e 387f 7e3d 5d86 703d
00000080: 3666 0c3e f40e 5abe 4a92 843d 0b9b 30be
00000090: 406f a63d e9ce 483d 6e14 cebc bcf5 1d3c
000000a0: db90 74bd 0ac1 1f3e 1719 ffba f141 923d
000000b0: c256 efbd cce9 ba3d 72ed 1e3e 2ed8 27be
000000c0: 2b1f 2cbe a37e 663e 09a1 2d3e 475d eebd
000000d0: 4817 21be fbc4 db3d 9a39 a3bd b0b1 493e
