model3/FSRCNN3D_epoch_40.pth (torch, 265262 bytes, 15 tensors)

module.conv_1.weight f4 [56, 1, 5, 5, 5]
0	0xbd20528b	-0.03914122
1	0x3d91c36b	0.07117351
2	0x3d607e2f	0.054807838
3	0x3dac9e39	0.08428616
4	0x3d97c9c3	0.0741153
5	0xbd8f9bd6	-0.07012145
6	0x3d06d466	0.032917403
7	0xbd96cea0	-0.07363629
8	0x3d28b24b	0.04118566
9	0xbd9dfae9	-0.07713873
10	0x3bdd5d0a	0.006755476
11	0x3d6e5532	0.058186717
12	0xbdc70364	-0.097174436
13	0xbc4f29c2	-0.012644233
14	0xbd5e6af9	-0.054301236
15	0x3c420457	0.011841855
16	0xbd36ce77	-0.044630494
17	0xbd2943d8	-0.041324466
18	0xbd858fc8	-0.06521565
19	0xbcdcb1a3	-0.026940173
20	0xbda127ba	-0.07868905
21	0xbcbd1801	-0.023082735
22	0xbd734a6f	-0.059397157
23	0xbd78fb3f	-0.060786482
24	0x3db0af7d	0.08627222
25	0x3d62fea4	0.055418625
26	0xbc1e749c	-0.0096713565
27	0xbd9ec5f1	-0.07752598
28	0xbbdf5af7	-0.006816264
29	0xbd724869	-0.059151087
30	0x3cb2d8b4	0.021831848
31	0xbdc16fef	-0.09445178
32	0x3d686c3f	0.056743857
33	0xbd93c0f2	-0.07214536
34	0xbdc0a0a6	-0.09405641
35	0x3d725de4	0.059171572
36	0xbd97f4b0	-0.07419717
37	0xbcc84f93	-0.024452006
38	0xbd540c02	-0.051769264
39	0xbd964bcd	-0.073386766
40	0xbc752fb5	-0.0149649875
41	0x3bb4be5c	0.0055158567
42	0x3d66b6f4	0.05632682
43	0xbd8f4194	-0.0699493
44	0x3c93b95d	0.018032724
45	0xbdbc9c1d	-0.09209464
46	0x3b8c21fc	0.004276512
47	0x3b823e0a	0.003974681
48	0x3cd01068	0.025398448
49	0x3d78a4e7	0.060704138
50	0x3d797dc1	0.060910944
51	0x3b4365d9	0.0029815345
52	0xbd9bef16	-0.076139614
53	0x3d1934ea	0.03740398
54	0x3c90a970	0.01765892
55	0xbd3957b5	-0.04524966
56	0x3d6350d7	0.055497017
57	0x3c9961d5	0.018723408
58	0x3b8405a7	0.004028994
59	0xbca112eb	-0.019662341
60	0x3bbbecbc	0.005735008
61	0xbcb31dd8	-0.021864817
62	0x3d0c4bee	0.0342521
63	0xbd99ba47	-0.07506233
64	0xbd9b25b6	-0.07575552
65	0xbdc15e4c	-0.09441814
66	0xbd3fb4a6	-0.04680314
67	0x3d82f826	0.06394987
68	0x3d17eb5e	0.037089698
69	0xbda9cc21	-0.082908876
70	0x3cde4554	0.027132668
71	0x3cf513b9	0.029916631
72	0xbd49a9fb	-0.04923437
73	0xbd924a57	-0.071430854
74	0xbd982cf5	-0.0743045
75	0xbd6473fd	-0.055774678
76	0x3d3b8afc	0.045786843
77	0xbd327d11	-0.043576304
78	0x3c926511	0.017870458
79	0x3cda4cbb	0.026647916
80	0xbd61eb7e	-0.055156223
81	0x3d63d266	0.055620573
82	0xbda52557	-0.08063763
83	0xbd53d5eb	-0.05171768
84	0xbd38d2e1	-0.045122985
85	0x3d714e42	0.058912523
86	0xbb9e26c9	-0.004826401
87	0x3c631444	0.013859812
88	0xbd315861	-0.043297175
89	0xbc0ccb34	-0.008593369
90	0xbd87d761	-0.06632877
91	0x3cf9707f	0.03044915
92	0x3cc2835a	0.023744274
93	0xbd88d380	-0.066809654
94	0x3d085528	0.033284336
95	0xbce995d8	-0.028513834
96	0xbd273afd	-0.04082774
97	0xbc27483d	-0.010210094
98	0x3d8c4431	0.06848944
99	0xbd6cd7fb	-0.057823163
100	0x3d1528b1	0.03641576
101	0x3db5abad	0.08870635
102	0x3dc9f8d9	0.09861917
103	0x3d51a9fb	0.051187497
104	0xbd06dc66	-0.032925032
105	0xbd5261c9	-0.051362786
106	0x3d455709	0.048178706
107	0xbd127386	-0.035754703
108	0xbdbabb63	-0.091177724
109	0x3bbfcced	0.0058532865
110	0x3ceac650	0.028659016
111	0xbcbfece4	-0.023428388
112	0x3d5dfe2f	0.054197486
113	0x3cce4e93	0.025183951
114	0x3cf616ef	0.030040232
115	0xbdabc83b	-0.083878
116	0x3d23af49	0.039962087
117	0x3c03148a	0.008000502
118	0x3bc8dc35	0.0061297663
119	0x3d1eed53	0.03880055
120	0xbd4e3848	-0.050346643
121	0xbd46eb82	-0.04856444
122	0xbd79d182	-0.060990818
123	0xbd70b623	-0.05876745
124	0xbd0ba3fb	-0.03409193
125	0xbd170efe	-0.036879532
126	0xbbbeeb50	-0.0058263913
127	0xbcb04929	-0.02151926
128	0xbd8e9ff8	-0.06964105
129	0x3c5ba2f3	0.013405549
130	0xbd00f90f	-0.03148752
131	0x3dbe4c6a	0.092919186
132	0xbd96be83	-0.07360556
133	0xbc1f3760	-0.009717792
134	0x3d3f85ed	0.04675858
135	0xbced0aba	-0.028935779
136	0x3908ea59	0.00013057272
137	0x3d6e9e74	0.05825658
138	0x3d281a6a	0.041040815
139	0xbbf3125f	-0.0074179615
140	0xbd92d596	-0.071696445
141	0xbcd3a532	-0.025835607
142	0x3d0ce35a	0.034396507
143	0xbd888ba8	-0.06667262
144	0x3da2be10	0.07946408
145	0xbb43db44	-0.0029885331
146	0x3d48bcbc	0.049008116
147	0x3c8d5fa9	0.017257528
148	0x3d059020	0.03260815
149	0x3d7d4365	0.06183185
150	0x3d1086d1	0.03528482
151	0x3d988481	0.07447148
152	0x3d71a75c	0.058997497
153	0xbd9e0790	-0.07716286
154	0xbd800c25	-0.062523164
155	0x3cf661e5	0.030075977
156	0xbd47712b	-0.04869191
157	0xbd2e1043	-0.042495977
158	0x3d6a330b	0.057177585
159	0x3d3fa2e5	0.046786208
160	0x3b427320	0.002967067
161	0x3d2016f0	0.039084375
162	0xbd3c911a	-0.046036817
163	0x3bb23a58	0.005439084
164	0x3cc55911	0.024090322
165	0x3db2c8c1	0.08729697
166	0xbd8c230e	-0.06842624
167	0x3d0a237f	0.033725258
168	0x3b85f2fc	0.004087804
169	0x3db0e83f	0.086380474
170	0xbd329f41	-0.043608908
171	0xbd9b586a	-0.07585223
172	0x3d415c1c	0.047206983
173	0xbc5a573e	-0.013326464
174	0x3d9d7b05	0.0768948
175	0x3dca515d	0.098788
176	0xbd8386f9	-0.06422228
177	0xbb77ad0e	-0.0037792358
178	0x3b77dd63	0.0037821166
179	0x3d8b70f5	0.06808654
180	0x3d8613ee	0.0654677
181	0x3da5cb56	0.08095424
182	0xbd97b8fc	-0.0740833
183	0xbcf41df9	-0.029799448
184	0x3da4c364	0.0804508
185	0x3d71af34	0.059004977
186	0xbca245ff	-0.019808767
187	0x3d9f21f8	0.07770151
188	0x3d471a9c	0.04860936
189	0x3d9f6bce	0.07784234
190	0x3c29f4d9	0.010373318
191	0xbc7604c3	-0.015015784
192	0x3d8a2a90	0.067463994
193	0x3d2ea96b	0.04264204
194	0x3daeaa3f	0.085285656
195	0x3daf5615	0.08561341
196	0x3afe0e7c	0.0019382979
197	0x3d38d47f	0.045124527
198	0x3d05d923	0.03267778
199	0x3db662b6	0.08905546
200	0x3d0070c6	0.03135755
201	0xbbb63cd7	-0.005561452
202	0xbd88907f	-0.066681854
203	0x3c53b532	0.012921618
204	0xbc3d8e9e	-0.011569647
205	0xbcaa1e64	-0.020766445
206	0xbd07d489	-0.033161674
207	0xbdb0dbe0	-0.08635688
208	0x3d9a896a	0.07545741
209	0x3d8ab77c	0.06773278
210	0x3ce27de0	0.027647913
211	0xbd8aee9c	-0.067837924
212	0x3c36bed9	0.0111539
213	0x3d15845d	0.036503185
214	0xbd76f685	-0.060293693
215	0x3d645118	0.0557414
216	0x3cb175ed	0.021662677
217	0xbbdc7f6f	-0.0067290585
218	0x3db3c8e2	0.0877855
219	0xbd557e92	-0.05212266
220	0x3db09c4d	0.08623562
221	0xbcd786b2	-0.026309345
222	0x3d4a03ef	0.049320158
223	0xbd671130	-0.056412876
224	0xbda17a57	-0.078846626
225	0xbcc2b50e	-0.023767974
226	0x3bd22cec	0.0064140465
227	0xbc5b7b43	-0.013396087
228	0x3ccf0408	0.025270477
229	0xbd759ca4	-0.059963837
230	0xbd22bd22	-0.039731152
231	0xbc451998	-0.012030028
232	0xbd8868c6	-0.06660609
233	0x3db8b0b8	0.090180814
234	0x3c01df2c	0.0079267435
235	0xbd8ae938	-0.06782764
236	0x3bdc0908	0.006714944
237	0x3c88a754	0.01668135
238	0x3ca707ca	0.020389456
239	0x3cb5fa96	0.022214215
240	0x3c2ddef4	0.010612238
241	0xbd1adaef	-0.037806448
242	0xbd586657	-0.052831974
243	0xbd466f65	-0.048446078
244	0x3da902bc	0.08252475
245	0xbd141b1d	-0.03615867
246	0x3b179bde	0.0023133676
247	0x3c54c74f	0.012986972
248	0xbd40657c	-0.046971783
249	0xbcaaf6d4	-0.02086965
250	0x3c90d639	0.017680274
251	0xbd288a7a	-0.041147687
252	0xbd56b554	-0.05241902
253	0x3c872ffc	0.016502373
254	0x3dc47f4f	0.09594595
255	0x3d54ecdb	0.051983695

module.conv_1.bias f4 [56]
0	0x3d29c030	0.04144305
1	0x3cf3fb62	0.029782955
2	0x3dc3e8ae	0.095658645
3	0xbcaa4ffd	-0.020790095
4	0xbca73cd2	-0.020414744
5	0x3d36e97e	0.04465627
6	0x3c9e24e1	0.019304695
7	0xbd5074ee	-0.050892763
8	0x3d93eef1	0.07223309
9	0x3cddf76b	0.027095517
10	0x3d995df4	0.07488623
11	0x3d8f6350	0.07001364
12	0x3d9a8c31	0.07546271
13	0x3d9567f9	0.07295222
14	0x3d9e4dc8	0.07729679
15	0xbcafd7e2	-0.021465246
16	0x3d42d8b1	0.047569934
17	0x3d846c1c	0.06465933
18	0xbd0c1726	-0.034201764
19	0xbd754e45	-0.059889097
20	0xbd6d2508	-0.057896644
21	0x3d13660b	0.035985988
22	0xbd35571d	-0.04427253
23	0xbc85e123	-0.016342705
24	0x3da76cd2	0.08175053
25	0xbc42874e	-0.011873079
26	0x3d246037	0.04013082
27	0xbd831235	-0.06399957
28	0x3d3883a4	0.045047417
29	0x3c3d0d6a	0.011538843
30	0xbd400892	-0.046883173
31	0x3c7fb83f	0.015607893
32	0x3ceab2f0	0.028649777
33	0x3d633429	0.055469666
34	0xbd107389	-0.035266433
35	0xbafc1bd1	-0.0019234364
36	0x3a995f81	0.0011701436
37	0x3d493797	0.04912528
38	0x3d7a4766	0.061103247
39	0xbc973fda	-0.018463064
40	0x3c9a4aee	0.018834557
41	0x3d85ee99	0.065396495
42	0xbd107536	-0.03526803
43	0x3dadbfbc	0.08483836
44	0xbd514fe8	-0.051101595
45	0x3d87687c	0.06611726
46	0x3dade5d0	0.08491099
47	0xbb9c3308	-0.0047668256
48	0xbda99e4b	-0.08282145
49	0x3d49218a	0.04910425
50	0x3b2b16ec	0.0026106192
51	0x3d76af45	0.060225744
52	0xbcf7ab01	-0.030232908
53	0x3d96d90a	0.07365616
54	0x3d92eed1	0.07174457
55	0xbd189e22	-0.037260182

module.conv_2.weight f4 [12, 56, 1, 1, 1]
0	0x3e03334f	0.12812541
1	0x3cf349f9	0.029698359
2	0xbd94214d	-0.07232914
3	0x3d20d32b	0.039263885
4	0xbe02c962	-0.12772134
5	0xbd21aafb	-0.0394697
6	0x3d641b8f	0.055690344
7	0x3c3c5c69	0.011496642
8	0xbd6fcbd6	-0.058544002
9	0x3db3c594	0.087779194
10	0xbdcf5253	-0.10123124
11	0x3dd33961	0.103136785
12	0xbd1738d5	-0.036919434
13	0xbcd0f366	-0.025506686
14	0x3d4575fe	0.04820823
15	0x3cca5ef0	0.024703473
16	0x3d6d6174	0.057954267
17	0x3de29972	0.110644236
18	0x3b94d814	0.00454236
19	0xbd1fb010	-0.038986266
20	0xbddbac4b	-0.10726222
21	0x3d0466ef	0.032324728
22	0x3da6af6a	0.08138926
23	0x3d0c21f0	0.034212053
24	0xbc87bf88	-0.016570821
25	0x3d7c8d07	0.06165793
26	0x3c6f26b9	0.014596635
27	0x3c104a2a	0.008806745
28	0x3d8d6f04	0.0690594
29	0x3cdf1aa3	0.027234381
30	0x3e1b376b	0.15157859
31	0x3d9cefe2	0.076629415
32	0x3d456244	0.048189417
33	0x3c6ef057	0.014583669
34	0x3dbb60b2	0.091493025
35	0x3d8ebfe4	0.06970194
36	0x3e02842f	0.12745737
37	0xbd2357d1	-0.03987867
38	0x3db3a9e3	0.08772638
39	0x3e340ceb	0.17583053
40	0x3d4e97f1	0.05043787
41	0xbde782e8	-0.11304265
42	0x3e08e124	0.13367134
43	0x3d407232	0.046983905
44	0x3bb96a2d	0.005658409
45	0xbd35586c	-0.04427378
46	0x3cbafcbb	0.02282559
47	0x3da2b125	0.07943944
48	0x3d94f35b	0.07272979
49	0x3de9794d	0.114000894
50	0x3d27c8de	0.040963046
51	0xbd115a11	-0.035486285
52	0x3ddb064d	0.10694561
53	0x3dc74daa	0.0973161
54	0xbd49893d	-0.049203146
55	0x3d2551ce	0.04036122
56	0xbe142dbc	-0.14470571
57	0x3df90845	0.121597804
58	0xbcf17a6f	-0.029477326
59	0x3ddc56b2	0.10758723
60	0xbd83a3cf	-0.064277284
61	0xbd68e88d	-0.056862403
62	0xbd0a9fcf	-0.03384381
63	0xbdfe0aea	-0.124044254
64	0x3d87a468	0.06623155
65	0x3d5789c9	0.052621637
66	0xbd1a5f78	-0.037688702
67	0x3d97271c	0.073805064
68	0x3e014af5	0.1262625
69	0x3e062f15	0.13103898
70	0xbe0c7870	-0.13717818
71	0x3ce44eb5	0.027869562
72	0x3daf1480	0.08548832
73	0xbdddaaeb	-0.10823616
74	0x3e05772b	0.1303374
75	0x3dd69407	0.10477453
76	0x3e047e98	0.12938917
77	0xbdb090c4	-0.08621362
78	0x3d261b8a	0.040553607
79	0x3e0ac437	0.13551413
80	0xbcbf2359	-0.023332285
81	0xbcd3b393	-0.025842464
82	0xbe08ec9b	-0.13371508
83	0xbd5c126e	-0.053728513
84	0x3caf21cf	0.021378426
85	0x3d7aaa49	0.061197553
86	0xbccac9ff	-0.024754522
87	0xbb6ae8f5	-0.003584442
88	0xbe011f49	-0.1260959
89	0xbd9c062b	-0.07618364
90	0xbd450622	-0.04810155
91	0xbe120567	-0.14259873
92	0x3e00ac99	0.12565841
93	0xbd555751	-0.052085225
94	0xbd9566db	-0.07295009
95	0xbdc00248	-0.09375435
96	0x3de5d945	0.112230815
97	0xbdb966e9	-0.09052832
98	0xbdfb0a26	-0.12257795
99	0xbd8154df	-0.06315016
100	0x3d3d148a	0.046162166
101	0x3d0a5636	0.033773623
102	0xbe06aace	-0.13151094
103	0x3c6f8f38	0.014621548
104	0x3df3c29b	0.119023524
105	0x3de0b12b	0.10971292
106	0x3cd2e6ae	0.025744762
107	0xbdbee63d	-0.09321258
108	0x3dbf9417	0.09354418
109	0xbe0ccec3	-0.13750748
110	0xbe14131d	-0.14460416
111	0x3d3df563	0.046376597
112	0x3dc21faa	0.09478696
113	0xbd9da3ca	-0.07697256
114	0xbd4e2832	-0.050331302
115	0x3cc5cb89	0.024144905
116	0xbdf09b79	-0.11748404
117	0x3d1d3ac7	0.038386133
118	0x3e11e7f2	0.14248636
119	0xbda6c504	-0.081430465
120	0xbe00bd8b	-0.12572305
121	0xbc207c49	-0.009795257
122	0x3da6f7a6	0.08152704
123	0x3d8b623c	0.06805846
124	0x3dbcb0f0	0.09213436
125	0xbd90d423	-0.07071712
126	0xbbbc12e3	-0.005739556
127	0xbddd5159	-0.108065315
128	0xbdd2287f	-0.1026163
129	0x3de9a0ef	0.11407649
130	0x3e021b09	0.12705626
131	0x3e0b5e21	0.13610126
132	0x3dbeb6c9	0.09312207
133	0x3ddd7753	0.10813775
134	0x3d90d914	0.07072654
135	0x3ddbfb62	0.10741307
136	0xbd4776d6	-0.048697315
137	0xbe08a1c0	-0.13342953
138	0xbdb13539	-0.086527295
139	0x3a9acff4	0.0011811242
140	0xbd3314c9	-0.043720994
141	0xbdd957f6	-0.1061248
142	0xbe0695ca	-0.13143077
143	0x3d95d222	0.0731547
144	0x3df63ace	0.12022935
145	0xbd1fa4d5	-0.038975555
146	0x3cc9203c	0.024551503
147	0xbdb95b46	-0.09050612
148	0x3dbb29c1	0.09138823
149	0xbe149211	-0.14508845
150	0xbd147c8e	-0.036251597
151	0xbd0a4c1a	-0.033763982
152	0xbdff8bce	-0.124778375
153	0x3d8a6faa	0.067595795
154	0xbcbd8b8c	-0.02313783
155	0xbbae155d	-0.0053126053
156	0x3d9421f4	0.072330385
157	0x3bbb9a40	0.005725175
158	0xbdbca2ad	-0.092107154
159	0xbc54156e	-0.012944562
160	0x3d8d7adf	0.069082014
161	0xbb578223	-0.0032883964
162	0x3d968a16	0.073505566
163	0x3da5adb5	0.080897726
164	0x3d45afcf	0.048263367
165	0x3d8e4fb9	0.069488
166	0xbc2aee24	-0.010432754
167	0x3d318e41	0.043348555
168	0x3d42fe5d	0.04760586
169	0x3dcc8828	0.09986907
170	0x3e193a28	0.14963591
171	0x3c1b6897	0.009485385
172	0x3c3bfd34	0.011473943
173	0x3c8d4b5a	0.017247844
174	0x3e0cc1e0	0.13745832
175	0xbdb7ca84	-0.08974174
176	0x3df1782e	0.117905006
177	0x3de821ac	0.113345474
178	0x3d64a63c	0.055822596
179	0xbcdf29a0	-0.027241528
180	0xbd1612ab	-0.036638897
181	0x3de12387	0.109931044
182	0x3e049c3a	0.1295022
183	0xbe0c41af	-0.13696931
184	0x3e22b697	0.15889965
185	0xbcf66523	-0.030077523
186	0x3cfcaac6	0.03084315
187	0x3d10f43b	0.035389166
188	0xbdfcf2ff	-0.12351035
189	0x3d020c9e	0.031750314
190	0x3d92dd6b	0.071711384
191	0x3dad50fd	0.08462713
192	0xbdbdf594	-0.09275356
193	0x3d6d3399	0.057910535
194	0xbce34b75	-0.027745942
195	0x3cf585cb	0.029971024
196	0x3df73e92	0.12072481
197	0xbdd1aa19	-0.10237522
198	0x3d8cbc76	0.068718836
199	0xbd87017a	-0.065920785
200	0xbd988832	-0.07447852
201	0x3b92d2ed	0.0044807107
202	0x3e0772de	0.13227412
203	0x3dc640c2	0.0968032
204	0xbda856fe	-0.082197174
205	0x3d8a9b0e	0.067678556
206	0x3dff4075	0.12463466
207	0xbe05c729	-0.13064255
208	0x3dd1ba2a	0.10240586
209	0xbdc7519c	-0.09732363
210	0x3debbb8f	0.11510383
211	0x3dc0fc03	0.094230674
212	0x3d93e28f	0.07220947
213	0xbc605116	-0.013691207
214	0xbc31f25e	-0.0108610075
215	0x3e0ad01b	0.13555948
216	0xbd646051	-0.055755917
217	0xbc60395c	-0.013685551
218	0x3d81fada	0.06346674
219	0x3bc7ae80	0.0060938
220	0x3db7656b	0.08954891
221	0xbd309a8a	-0.04311613
222	0xbd8308a6	-0.06398134
223	0xbd0fc50f	-0.03510004
224	0xbe23dfea	-0.16003385
225	0x3dec067e	0.11524676
226	0x3dccf917	0.100084476
227	0xbe06d5c5	-0.13167484
228	0x3dc246a9	0.094861336
229	0xbe063749	-0.13107027
230	0xbd26f0f7	-0.040757146
231	0x3c1b2cf7	0.00947117
232	0x3df8ac55	0.12142245
233	0xbdd3d308	-0.103429854
234	0x3dc2ec22	0.09517695
235	0xbe2387ef	-0.15969823
236	0x3dcb4044	0.09924367
237	0xbd023cf7	-0.03179642
238	0xbd0dd6da	-0.034628727
239	0xbcdf54a0	-0.027262032
240	0xbd7f70ad	-0.062363315
241	0xbe238a94	-0.15970832
242	0x3da40fbd	0.08010814
243	0xbd9bc0fd	-0.07605169
244	0xbde96fc4	-0.11398271
245	0x3dcd1046	0.100128695
246	0x3dbd0e61	0.09231258
247	0x3df236b0	0.11826837
248	0xbc40e23f	-0.011772691
249	0x3c97a174	0.018509604
250	0xbb33be0b	-0.0027426507
251	0x3d034aba	0.032053687
252	0xbdc2d5f1	-0.09513462
253	0x3deec2a3	0.11658218
254	0x3e1a8841	0.15091039
255	0x3cc770e2	0.024345819

module.conv_2.bias f4 [12]
0	0xbd9e3010	-0.07724011
1	0x3dafccab	0.08583959
2	0x3c0800a0	0.00830093
3	0x3dd3c90c	0.10341081
4	0x3da931f1	0.08261479
5	0xbda348ee	-0.079728946
6	0x3db88350	0.09009421
7	0xbd1401e2	-0.036134608
8	0xbdba0e0d	-0.09084711
9	0x3c2ce2ed	0.01055215
10	0x3cf4d796	0.029887956
11	0x3c58044d	0.013184619

module.conv_3.weight f4 [12, 12, 3, 3, 3]
0	0x3ce231fa	0.027611721
1	0xbcb39028	-0.021919325
2	0x3cfdcbcd	0.030980969
3	0xbcbab27e	-0.02279019
4	0xbcddd1ed	-0.02707764
5	0x3c28b4f0	0.010297045
6	0xbc7bedb6	-0.015376499
7	0xbcfae891	-0.030628474
8	0xbcda775e	-0.026668247
9	0xbcfc50d1	-0.030800255
10	0xbd67a5b3	-0.056554507
11	0x3d46577e	0.048423283
12	0x3be61e65	0.0070226663
13	0x3c3ca70d	0.011514437
14	0x3bede684	0.0072601456
15	0x3d1967df	0.037452575
16	0xbd6e439b	-0.058169942
17	0x3c749338	0.014927678
18	0xbba29afd	-0.0049623237
19	0x3bb314dd	0.0054651336
20	0x3968fa5a	0.00022218507
21	0x3d552544	0.052037492
22	0xbc227b71	-0.009917126
23	0x3b183829	0.0023226833
24	0xbc007d82	-0.007842423
25	0x3d4abfac	0.0494992
26	0xbd0bd347	-0.034137037
27	0xbd566336	-0.05234071
28	0x3d39ff82	0.045409687
29	0xbbafdf6c	-0.00536721
30	0x3c7063c0	0.01467222
31	0x3b621788	0.003449889
32	0xbd0f81b7	-0.035035815
33	0xbd040d98	-0.032239527
34	0x3d5ed37a	0.0544009
35	0xbbdb645d	-0.006695314
36	0xbd5f286a	-0.0544819
37	0xbd1e1865	-0.038597483
38	0xbccf566a	-0.02530976
39	0xbd0826cc	-0.033240125
40	0x3d5f3428	0.0544931
41	0xbd4c6894	-0.04990442
42	0xbc425af0	-0.0118625015
43	0xb8e33f39	-0.000108359796
44	0x3b92f810	0.0044851378
45	0xbd2f3325	-0.042773385
46	0x3d0161f8	0.03158757
47	0xbbb227fa	-0.0054368945
48	0x3c2e4cf8	0.010638468
49	0xbd018817	-0.031623926
50	0xbd2c41ab	-0.042054813
51	0x3d38cb0a	0.04511551
52	0x3bcf3f3d	0.0063246773
53	0x3d6b49be	0.057443373
54	0xbcab701a	-0.020927478
55	0xbd29fc6e	-0.0415005
56	0xbd518f21	-0.05116189
57	0x3c5f5b94	0.013632674
58	0x3d1cd81a	0.038292028
59	0x3d1cdbb7	0.038295474
60	0x3caa9768	0.02082415
61	0xbd15ab6f	-0.036540445
62	0xbd3eea27	-0.046610024
63	0xbd39b04c	-0.045334145
64	0x3d1dc991	0.038522307
65	0xbcf803f8	-0.03027533
66	0x3cb2d1f8	0.021828637
67	0x3d11ad08	0.035565406
68	0xbcb6ee7b	-0.022330513
69	0xbbae99cb	-0.005328392
70	0x3d0d1e89	0.03445295
71	0xbd381be5	-0.044948477
72	0xbcc58613	-0.024111783
73	0xbcc7a2ea	-0.024369676
74	0x3ce6e356	0.028184574
75	0xbd072400	-0.032993317
76	0xbd43346f	-0.047657426
77	0x3d70c435	0.058780868
78	0xbd074887	-0.03302815
79	0x3d022bc2	0.031780012
80	0xbb517dc5	-0.0031965834
81	0x3d1c1e42	0.038114794
82	0x3c286fe7	0.010280586
83	0x3d4c5762	0.049888022
84	0xbcc3f53f	-0.023920653
85	0xbd14d36e	-0.036334448
86	0x3c9f5c8e	0.019453313
87	0x3d4fe088	0.05075124
88	0x3cb5c125	0.022186825
89	0xbc6557c1	-0.013997973
90	0xbbd9519e	-0.006632044
91	0xbd50949d	-0.05092298
92	0xbc705dcd	-0.014670801
93	0xbb6e1553	-0.0036328628
94	0x3c2ea4c0	0.010659397
95	0x3d327aa5	0.043573994
96	0x3cad3710	0.02114442
97	0xbd2665b3	-0.04062433
98	0xbd298cc8	-0.041394025
99	0x3d56060b	0.052251857
100	0xbc1da74d	-0.009622407
101	0xbcbcf237	-0.023064716
102	0xbc3404a7	-0.010987437
103	0xbadad23b	-0.0016694734
104	0x3d464b2d	0.048411537
105	0xbc8a66d0	-0.016894728
106	0xbc2c30c9	-0.010509678
107	0xbc9ce703	-0.019153124
108	0x3d6e7510	0.05821711
109	0xba089bfd	-0.00052112323
110	0xbd1101bb	-0.03540204
111	0x3c6b5b5d	0.014365044
112	0xbcbc982d	-0.023021782
113	0x3ca1c203	0.019745832
114	0xbd0016e1	-0.03127182
115	0x3d011f91	0.031524245
116	0x3d5f24c4	0.05447842
117	0x3d663324	0.056201115
118	0x3d02235d	0.031772006
119	0x3d353abf	0.044245478
120	0xbd2a796d	-0.041619707
121	0x3d0ed1d7	0.034868088
122	0x3c31b2a2	0.010845812
123	0x3c110081	0.008850218
124	0xbc2a26ec	-0.010385256
125	0xbcf784e4	-0.030214734
126	0xbd2ec3ed	-0.042667318
127	0x3c97b439	0.018518554
128	0x3c9bb71c	0.019008212
129	0x3cad0d4f	0.02112451
130	0x3d62a2d8	0.05533108
131	0x3c7a3beb	0.015273075
132	0xbd480639	-0.04883406
133	0xbd2b966a	-0.041891493
134	0xbc97733c	-0.018487565
135	0xbcaf8233	-0.021424389
136	0x3ca6c760	0.020358741
137	0xba543b68	-0.00080960104
138	0x3c348ab6	0.011019399
139	0xbba9ac25	-0.005177992
140	0x3cb6d307	0.022317423
141	0xbd08595d	-0.03328835
142	0xbd014ba7	-0.03156629
143	0xbc4e7470	-0.012601003
144	0xbd6e2703	-0.058142673
145	0x3d135f12	0.035979338
146	0xbd10988a	-0.035301723
147	0x3ce051b7	0.027382715
148	0xb7b4a82b	-2.1535981e-05
149	0x3cd8f3be	0.026483413
150	0xbd058ca1	-0.032604817
151	0xbc97b2e9	-0.018517928
152	0x3c40441c	0.011734989
153	0xbb35d85c	-0.0027747368
154	0x3c954c75	0.018224934
155	0x3cd2083e	0.025638696
156	0x3c52a861	0.0128575275
157	0x3d29a808	0.041420013
158	0x3c8efc74	0.017454363
159	0x3b9b0fdd	0.0047321157
160	0x3c5808e5	0.013185714
161	0x3c6a8422	0.0143137295
162	0xbcb6df39	-0.022323238
163	0xbc926b7e	-0.017873522
164	0x3d869a60	0.065724134
165	0xbc83c358	-0.016084358
166	0x3ceaa615	0.028643647
167	0x3d100c03	0.035167705
168	0x3c5612de	0.013066022
169	0x3d5dabf6	0.054119073
170	0x3c8a7f7c	0.016906492
171	0xbb93bf84	-0.0045089144
172	0x3d40658d	0.046971846
173	0xbce91074	-0.028450228
174	0x3d82e3be	0.063910946
175	0x3d69623a	0.05697844
176	0x3d1132c6	0.035448812
177	0x3d30f9df	0.043207046
178	0xbc1106ee	-0.00885175
179	0x3bb6013c	0.0055543464
180	0xbd0998a9	-0.033592854
181	0x3d8d2bb2	0.068931
182	0x3d3a0df5	0.045423467
183	0xb7f7fdb3	-2.9562832e-05
184	0x3cb6c5e1	0.022311153
185	0x3ca1b960	0.019741714
186	0x3cd48ec2	0.025946978
187	0xbce3dd7a	-0.02781557
188	0x3c32f33e	0.010922251
189	0x3c166c66	0.009181118
190	0x3c848759	0.01617782
191	0x3d0b014b	0.03393678
192	0x3a67c5d8	0.00088414317
193	0x3d925d52	0.07146706
194	0x3c350174	0.01104771
195	0x3cefe4de	0.029283937
196	0x3d9e82c3	0.077397846
197	0xbc9f57ef	-0.01945111
198	0x3d5b7f4e	0.053588204
199	0xbca1afb0	-0.019737095
200	0xbca00398	-0.019532964
201	0xbd7448ea	-0.05963985
202	0xbd31b525	-0.043385644
203	0xbd09627d	-0.03354119
204	0xbd59fbe2	-0.05321873
205	0x3d8a80dd	0.0676286
206	0x3d50cb2d	0.050975014
207	0x3d030671	0.031988565
208	0xbbf65e0e	-0.0075185364
209	0x3d493d06	0.049130462
210	0xbd417174	-0.047227338
211	0xbc574b87	-0.013140566
212	0xbc12f519	-0.008969569
213	0x3d50150a	0.050801314
214	0x3b092086	0.0020923926
215	0x3c69a435	0.014260341
216	0x3d0165ff	0.03159141
217	0x3b5c0c54	0.0033576684
218	0xbccf27c8	-0.025287524
219	0xbc2740f1	-0.010208354
220	0x3c56ad18	0.013102792
221	0x3cba080d	0.022708917
222	0xbcea78e7	-0.028622104
223	0xbd71a9d5	-0.058999855
224	0x3bbae3ae	0.005703411
225	0x3c449e40	0.01200062
226	0x3cc2bcb3	0.02377162
227	0xbc6b9275	-0.01437818
228	0x3d3df9af	0.046380695
229	0xbbcbb193	-0.006216237
230	0x399b7d48	0.00029657246
231	0xbca3a85d	-0.019977743
232	0xbc23b526	-0.00999192
233	0xbcdbdc93	-0.026838576
234	0x3ce2dfc6	0.027694594
235	0x3d48a36a	0.04898397
236	0x3c091b0d	0.008368266
237	0x3cbd9a41	0.023144843
238	0xbd0a5f2a	-0.03378216
239	0x3b8cee3e	0.0043008616
240	0xbd28b919	-0.041192148
241	0xbd345dd1	-0.044034783
242	0xbd5ef291	-0.054430548
243	0xbd7a6c40	-0.06113839
244	0xbd816b04	-0.0631924
245	0xbc88e574	-0.016710974
246	0xbbdb7fbb	-0.0066985763
247	0x3cffd246	0.031228196
248	0xbd761ad2	-0.06008417
249	0x3d6975d6	0.056997143
250	0x3c964747	0.018344535
251	0x3c0ee56c	0.008721691
252	0xbd402cdc	-0.04691778
253	0x3c510eaf	0.0127598485
254	0xbd4874ba	-0.048939444
255	0xbb3e33f1	-0.0029022659

module.conv_3.bias f4 [12]
0	0x3d7357cb	0.059409898
1	0x3caff1b6	0.021477561
2	0x3b2c0fea	0.0026254603
3	0x3d364732	0.04450149
4	0x3d122ec6	0.035689138
5	0xbcb04cbe	-0.021520969
6	0xbd561834	-0.052269176
7	0xbc5a5272	-0.013325321
8	0xbd01eb7d	-0.03171872
9	0xbc16c3d2	-0.009201961
10	0x3c391b74	0.011298049
11	0x3d0eb38b	0.034839194

module.conv_4.weight f4 [12, 12, 3, 3, 3]
0	0xba12902e	-0.00055909425
1	0x3ccc6377	0.024949772
2	0xbd5049a1	-0.050851468
3	0x3c97162a	0.018443186
4	0x3b4a1cfc	0.003084003
5	0x3d53806d	0.05163615
6	0xbcb11c24	-0.021619864
7	0x3cc7fd62	0.024412815
8	0xbcc54f7c	-0.024085753
9	0xbb919c32	-0.0044436688
10	0x3d78c4e8	0.06073466
11	0x3c1c7fd7	0.009551964
12	0x3d2c93a4	0.04213299
13	0xbbf02a50	-0.007329263
14	0xbccbb0c5	-0.024864564
15	0x3ca0b7f8	0.019618973
16	0xbd1a8018	-0.037719816
17	0xbb7350e4	-0.0037127072
18	0x3d600329	0.054690514
19	0x3b9714b5	0.004610623
20	0x3d4d7330	0.05015868
21	0x3cc56e4d	0.024100447
22	0x3d79fcbb	0.06103204
23	0x3d3aac44	0.04557444
24	0x3d205955	0.039147694
25	0x3bf97aa6	0.007613498
26	0xbd07cab5	-0.0331523
27	0x3bae16fa	0.0053127976
28	0x3d00a977	0.031411614
29	0x3d0e58be	0.0347526
30	0x3d9a96a6	0.07548265
31	0x3d82aa29	0.06380112
32	0x3d11874e	0.035529427
33	0x3d84f8ba	0.06492753
34	0xbca8281c	-0.020526938
35	0xbd136ac6	-0.0359905
36	0xbc7a685c	-0.01528367
37	0xbcdba3da	-0.026811529
38	0xbd476a41	-0.048685316
39	0x3c907ac8	0.017636672
40	0xbd4b7161	-0.049668673
41	0x3d6bb7fe	0.057548515
42	0xbc53e359	-0.012932622
43	0xbd2004db	-0.03906713
44	0xbd0f60cf	-0.035004433
45	0xbcc9e3de	-0.024644788
46	0x3cdc9069	0.026924329
47	0xbb923d9a	-0.00446291
48	0xbcb331de	-0.021874364
49	0xbccccc97	-0.0249999
50	0x3d0e38cf	0.034722146
51	0x3b70180b	0.0036635424
52	0xbc3a8acd	-0.011385632
53	0x3d7184f2	0.058964677
54	0x3d3d5cbd	0.04623102
55	0xbc0def50	-0.008663014
56	0xbc91123f	-0.017708896
57	0x3d879808	0.066207945
58	0x3ce5004d	0.027954245
59	0x3c859519	0.016306447
60	0x3cda77a3	0.026668375
61	0x3daaf7c2	0.08348037
62	0xbcecbf9f	-0.028899966
63	0xbcdab313	-0.026696717
64	0xba3debea	-0.0007244932
65	0xbcc8fd3f	-0.02453482
66	0x3e152727	0.14565717
67	0x3d860f6e	0.06545912
68	0x3de4313f	0.111422054
69	0x3de8108f	0.11331283
70	0x3df1d1de	0.11807607
71	0x3dca81ed	0.098880626
72	0xbc84e838	-0.016224012
73	0xbdb7f281	-0.08981801
74	0xbdded8ee	-0.1088122
75	0x3d0fc550	0.03510028
76	0x3d98b50c	0.07456407
77	0x3d9dda93	0.07707705
78	0x3ce37a2e	0.02776822
79	0x3daa838f	0.08325874
80	0xbca93ba4	-0.020658322
81	0xbc6329cd	-0.013864947
82	0x3d4c6642	0.04990221
83	0xbb970046	-0.004608187
84	0xbd607565	-0.054799456
85	0xbd620e4a	-0.05518941
86	0x3d3c54b4	0.045979217
87	0xbcac445d	-0.021028692
88	0xbd28aaa2	-0.041178353
89	0x3c7232a9	0.014782586
90	0xbb805ccd	-0.0039173127
91	0xbd65ae40	-0.05607438
92	0xbbec0dd6	-0.007203798
93	0x3cc3a378	0.023881659
94	0xbc83dcce	-0.016096499
95	0xbc1b2184	-0.00946844
96	0x3d33bfd1	0.043884102
97	0x3c7e6122	0.015526088
98	0x3d506235	0.050874908
99	0xbb1fbbd7	-0.0024373436
100	0x3acc77bf	0.0015599652
101	0x3d00013f	0.03125119
102	0xbc980a67	-0.018559648
103	0x3d2c1bc4	0.042018667
104	0xbccc4835	-0.024936775
105	0xbc6e78cb	-0.0145551665
106	0xbcbb5934	-0.022869684
107	0x3c702e15	0.014659424
108	0xbc22ca79	-0.009935969
109	0x3ca28e88	0.019843355
110	0xbbf8326d	-0.0075743706
111	0xbd79bae9	-0.060969267
112	0xbc72bee4	-0.01481602
113	0xbc536d9a	-0.012904549
114	0xbc45c00c	-0.012069713
115	0xbc9780ac	-0.018493973
116	0xbd14d688	-0.036337405
117	0x3c77cd75	0.015124668
118	0xbd394a0a	-0.045236625
119	0x3d0fc554	0.035100296
120	0xbbd83ed4	-0.0065992866
121	0xbd4c02de	-0.049807422
122	0x3b3b928b	0.0028621282
123	0xbd016095	-0.03158625
124	0xbd1c5973	-0.038171243
125	0x3c8717df	0.016490875
126	0xbd230edd	-0.039809097
127	0xba16dce9	-0.0005754964
128	0xb98d1a6f	-0.0002691331
129	0x3cbdf5db	0.023188522
130	0xbd3b3304	-0.04570295
131	0x3d594418	0.053043455
132	0xbcc60c85	-0.024175892
133	0xbd03c895	-0.03217371
134	0xbb8546ce	-0.0040672785
135	0x3d1a1bde	0.037624232
136	0x3d22d23a	0.03975127
137	0xbd05ef1f	-0.032698747
138	0x3d673094	0.056442812
139	0x3d322756	0.043494545
140	0xbcd35b33	-0.025800323
141	0xbcf0bafd	-0.029386038
142	0x3cabd370	0.020974845
143	0xbd3779b8	-0.044793814
144	0x3b6b2229	0.0035878515
145	0xbd3fd0b4	-0.046829894
146	0xbc94719c	-0.01812058
147	0xbc1a8bdc	-0.009432759
148	0x3d5b0708	0.053473502
149	0xbd492093	-0.04910333
150	0x3d996d44	0.07491544
151	0x3b59dca0	0.0033243075
152	0x3d30d018	0.043167204
153	0xbb587380	-0.0033027828
154	0xbcee0aa6	-0.029057812
155	0x3d1edbf5	0.038783986
156	0x3c5f9cf9	0.013648265
157	0xbcb33d4c	-0.021879815
158	0xbd1a5df0	-0.037687242
159	0x3c80d36d	0.015725816
160	0x3c9b2c65	0.018942067
161	0xbb6aa48f	-0.003580365
162	0xbce745a7	-0.028231455
163	0xb9ae8f1d	-0.00033294494
164	0x3b0e4955	0.002171119
165	0xbc33b547	-0.010968513
166	0xbd0f8614	-0.035039976
167	0x3cb0a0e4	0.021561094
168	0x3c7f64ce	0.015587999
169	0x3d0a5404	0.03377153
170	0xbd4bd6fe	-0.04976558
171	0x3b392f72	0.002825704
172	0x3d448895	0.047981817
173	0xbd3d4b3e	-0.046214335
174	0xbcbea6fd	-0.023272986
175	0x3c6da672	0.014505016
176	0xbcdec5c7	-0.027193917
177	0x3c4f1207	0.012638575
178	0x3bddd51d	0.00676979
179	0x3d14fbe0	0.03637302
180	0x3cb76edd	0.02239173
181	0xbd60c9ce	-0.054879956
182	0xbd0c6c22	-0.03428281
183	0x3c61acb9	0.01377409
184	0xbcf7ad92	-0.030234132
185	0x3b7ec21d	0.0038873025
186	0x3c41a64e	0.011819435
187	0xbbd7adb9	-0.0065819887
188	0xba1fedc7	-0.00061008
189	0x3c8c3e58	0.017119572
190	0x3d650a6a	0.055918135
191	0x3c6ed144	0.01457626
192	0x3d3c0cc9	0.04591063
193	0xbd5d8118	-0.05407819
194	0x3c8d7c67	0.017271234
195	0x3d3a041e	0.045414083
196	0x3d20450c	0.03912835
197	0x3c2a3f01	0.010390998
198	0x3d294348	0.04132393
199	0x3d40fd44	0.047116533
200	0x3a91c965	0.0011122642
201	0xb9e6f0d3	-0.00044048447
202	0x3cea31ae	0.028588142
203	0xbcbcaa2f	-0.023030369
204	0x3ca71b4f	0.020398764
205	0xbcc7ef75	-0.024406174
206	0x3d3e5cf8	0.04647538
207	0xbd33f6f6	-0.043936692
208	0x3b165aa9	0.0022942221
209	0x3c8db59b	0.01729851
210	0xba950db2	-0.0011371879
211	0xbd6df7b5	-0.05809756
212	0x3d0ffeee	0.03515523
213	0x3c88f108	0.016716495
214	0xbc0071e0	-0.00783965
215	0x3cc2f202	0.023797039
216	0x3ca3c2b2	0.019990299
217	0x3cabe8b2	0.020984981
218	0xbcd58816	-0.026065867
219	0x3d1b8978	0.037972897
220	0xbd4e002e	-0.05029314
221	0x3a9a0542	0.0011750835
222	0x3bb34ccd	0.005471802
223	0xbc5c5a04	-0.013449196
224	0xbb174275	-0.0023080383
225	0x3ba8973d	0.005144982
226	0xbc07f6ca	-0.008298585
227	0x3b86f67f	0.00411874
228	0xbb3d36e8	-0.0028871838
229	0x3c4f490e	0.012651695
230	0xbd390f7e	-0.04518079
231	0x3c487e9b	0.012237216
232	0xbc355ae0	-0.01106903
233	0xba96efef	-0.0011515598
234	0xbc392327	-0.011299885
235	0xbce0399d	-0.027371222
236	0x3c6d7369	0.014492848
237	0x3b2e0d44	0.00265582
238	0x3d019a16	0.03164109
239	0x3c0bd861	0.0085354755
240	0xbd2996f6	-0.041403733
241	0x3c072b49	0.008250066
242	0x3c8e00b1	0.017334314
243	0x3d822efd	0.063566186
244	0xbd10abaf	-0.03531998
245	0xbcafd8ff	-0.021465776
246	0x3d0e119b	0.03468476
247	0x3d5e1600	0.0542202
248	0x3d1bad7d	0.03800725
249	0x3d56bdf8	0.052427262
250	0xbd1b407b	-0.03790329
251	0xbd134f4c	-0.035964295
252	0xbc2e3593	-0.01063289
253	0x3d983c20	0.07433343
254	0x3d1614e4	0.036641017
255	0xbb98b270	-0.0046599433

module.conv_4.bias f4 [12]
0	0xbd541dc1	-0.051786188
1	0xbc6bd892	-0.014394896
2	0x3c805739	0.015666591
3	0xbc0d4568	-0.008622505
4	0xbd092e72	-0.03349156
5	0x3d7121b8	0.058870047
6	0x3c86df73	0.01646397
7	0xba4b034b	-0.0007744326
8	0x3d4685b5	0.048467357
9	0x3c766500	0.015038729
10	0x3b5576f0	0.0032572113
11	0xbd73cfce	-0.05952435

module.conv_5.weight f4 [12, 12, 3, 3, 3]
0	0x3b83096d	0.0039989264
1	0xbd5c0a1f	-0.05372059
2	0x3d485ccd	0.048916627
3	0xba85a4c5	-0.00101962
4	0xbd6112ce	-0.054949574
5	0x3cf6f5a9	0.030146437
6	0xbc8efe67	-0.017455293
7	0x3b7e3361	0.0038787948
8	0xbd5b83a9	-0.053592358
9	0x39a2d19c	0.0003105522
10	0xbc9bcfa1	-0.019019904
11	0xbc636a8e	-0.013880385
12	0xbb2b149b	-0.002610481
13	0x3c8d6fd4	0.017265238
14	0xba9a3a4b	-0.001176664
15	0x3d133650	0.03594047
16	0xbaed40b1	-0.0018100945
17	0x3c56afa0	0.013103396
18	0x3d25b2b5	0.04045363
19	0xbd188bee	-0.037242822
20	0x3d4af62d	0.049551178
21	0xbcbbbbd9	-0.022916721
22	0xbc932dfb	-0.017966261
23	0x3c2de435	0.010613491
24	0x3b1ac26c	0.002361442
25	0x3af6c3f6	0.0018826711
26	0xbcdefa81	-0.027219059
27	0x3c6bfb48	0.014403172
28	0xbc91983d	-0.017772788
29	0xbcbbe056	-0.02293412
30	0x3c0b431d	0.008499888
31	0x3d4b81ac	0.04968421
32	0x3d23e174	0.04000993
33	0xbc9cdc77	-0.019148095
34	0x3c4553e8	0.012043931
35	0x3cac4658	0.021029636
36	0x3d1fc3f6	0.039005242
37	0xbce9580e	-0.02848437
38	0xbc9febbb	-0.019521585
39	0x3d0f78ca	0.035027303
40	0x3d225c85	0.039639015
41	0x3d4f5057	0.050613727
42	0x3c07940f	0.008275046
43	0x3d552594	0.05203779
44	0x3cf69499	0.030100154
45	0xbb906a70	-0.0044072196
46	0x3cd90621	0.02649218
47	0x3d041736	0.0322487
48	0x3d5dbe41	0.05413652
49	0x3c02a34d	0.007973504
50	0xbd447aa7	-0.047968533
51	0x3d4b3d19	0.049618814
52	0xbd1f28f7	-0.038857426
53	0xbd421d19	-0.04739103
54	0xbccef7ef	-0.025264708
55	0x3d2c7eb2	0.042113014
56	0x3c5adba8	0.013358034
57	0x396e3cae	0.00022720054
58	0x3c1019e9	0.00879524
59	0x3cc2c967	0.023777677
60	0x3d5e2b5f	0.05424058
61	0x3cbe1273	0.023202157
62	0xbcb22257	-0.02174489
63	0x3ca3aed0	0.019980818
64	0xbb0695ce	-0.0020536068
65	0x3d322020	0.043487668
66	0x3c006799	0.0078372
67	0x3d84ed11	0.06490529
68	0x3d25014c	0.04028444
69	0x3d80dfbd	0.06292675
70	0xbcf7b03c	-0.030235402
71	0xbd0c6224	-0.03427328
72	0xbce70261	-0.028199377
73	0x3d46f0a1	0.048569325
74	0x3d1c0b8f	0.03809696
75	0xbaf4bded	-0.0018672325
76	0x3cc5bdce	0.024138357
77	0x3d60ede3	0.054914366
78	0xbd26ffa9	-0.04077116
79	0x3cc4f862	0.02404422
80	0x3c70c3a5	0.014695083
81	0xbd47a9a4	-0.048745766
82	0xbc4e0336	-0.012574008
83	0x3d16a7a7	0.03678098
84	0x3c9447cb	0.01810064
85	0xbc8712c0	-0.016488433
86	0xbc236099	-0.009971761
87	0xbc691e44	-0.014228407
88	0x3d686cdf	0.056744453
89	0x3d55a7ee	0.052162103
90	0xbd3a95b4	-0.045552924
91	0xbcb92bd6	-0.02260391
92	0xbc326093	-0.010887283
93	0x3c043c94	0.008071084
94	0x3c35c038	0.011093192
95	0xbd128337	-0.035769667
96	0xbc0fba2a	-0.008772412
97	0x3c1eb4b4	0.009686638
98	0xbc429874	-0.011877168
99	0x3b84be7e	0.0040510288
100	0xbc582a76	-0.013193717
101	0x3cdd77f0	0.02703473
102	0x3cef4263	0.02920646
103	0xbd049762	-0.032370932
104	0x3d7520a6	0.05984559
105	0x3b29f201	0.00259316
106	0x3d37caba	0.04487107
107	0x3bcdb0b5	0.0062771686
108	0x3d68bb73	0.05681939
109	0xbca851f3	-0.020546889
110	0xbc3e007d	-0.011596796
111	0xbd3a375b	-0.045462947
112	0x3cc83b9e	0.02444249
113	0xbd094cc9	-0.033520494
114	0xbc4d7c2e	-0.012541814
115	0xbc4057b1	-0.011739657
116	0x3c0bf0f9	0.008541339
117	0xbc4bba1b	-0.012434508
118	0xbd06511e	-0.032792203
119	0x3ca3e673	0.020007348
120	0x3d73505c	0.05940281
121	0x3d767846	0.060173295
122	0xbcc81502	-0.02442408
123	0xbd0a89d1	-0.03382284
124	0xbcc03b0a	-0.023465652
125	0x3d551b10	0.052027762
126	0xbd1e1538	-0.038594455
127	0x3cd0323b	0.025414577
128	0x3d0199ce	0.03164082
129	0xbcdc2b68	-0.026876166
130	0x3b67dd69	0.0035379773
131	0x3d72329a	0.05913029
132	0x3cf75185	0.030190239
133	0x3cc7c33f	0.024385093
134	0xbd404dc1	-0.046949152
135	0x3c7cb387	0.015423662
136	0xbc018b9d	-0.007906822
137	0x3d10628b	0.035250228
138	0xbcefc0ba	-0.029266704
139	0x3c178e4e	0.009250237
140	0x3cc6c0d9	0.024261879
141	0x3a572099	0.00082064566
142	0x3d527419	0.05138025
143	0x3d0019d8	0.031274647
144	0x3d2bbb35	0.04192658
145	0x3c4654be	0.012105165
146	0x3d27efd2	0.041000195
147	0xbc33c379	-0.010971897
148	0x3d5600c8	0.05224684
149	0xbd00962b	-0.03139321
150	0x3d1242eb	0.03570835
151	0x3cdda387	0.027055515
152	0x3bdb6093	0.006694862
153	0xbd3590f6	-0.0443277
154	0xbc968c06	-0.018377315
155	0x3c4c52f9	0.012470954
156	0x3cf1fd80	0.029539824
157	0x3b88f6e0	0.0041798204
158	0xbd47abbb	-0.04874776
159	0x3d39fba5	0.045406003
160	0x3d68796a	0.056756414
161	0x3a4706eb	0.00075922784
162	0x3c133b8d	0.008986366
163	0x3b8ddeb1	0.0043295254
164	0xbced7e76	-0.028990965
165	0xbd21192f	-0.039330658
166	0x3d41a896	0.047279917
167	0x3d2eb140	0.042649508
168	0xbbe5d81f	-0.007014289
169	0x3d2beeb9	0.04197571
170	0x3d3aa769	0.04556981
171	0xbc6b4d63	-0.014361712
172	0x39da62fc	0.0004165395
173	0x3d26bbec	0.04070656
174	0x3d0466a3	0.032324445
175	0xbd1d1c7c	-0.038357243
176	0x3c959729	0.018260555
177	0xbd70eb49	-0.058818135
178	0xbccc1824	-0.024913855
179	0x3cb7be8e	0.02242973
180	0xbd2dce76	-0.042433225
181	0xbcad197d	-0.021130318
182	0x3c0f6738	0.008752637
183	0x3d278310	0.040896475
184	0x3d25e414	0.040500715
185	0xbc368680	-0.011140466
186	0x3d2dd2e7	0.04243746
187	0x3d31fac3	0.043452036
188	0xbd7a94c7	-0.06117704
189	0xbd502248	-0.050813943
190	0x3d0d29a9	0.03446356
191	0xbd3b7f5d	-0.04577576
192	0x3bf92fa7	0.0076045576
193	0xbcddd660	-0.027079761
194	0x3d38421e	0.04498493
195	0xbc24e6c8	-0.010064788
196	0x3c471a17	0.012152216
197	0xbc40ab24	-0.011759553
198	0x3cd9606d	0.026535237
199	0xbccc5395	-0.024942199
200	0xbce42b66	-0.027852725
201	0xbab05d6a	-0.0013455574
202	0xbd552203	-0.05203439
203	0x3c6f0f95	0.014591117
204	0xbbd9eb20	-0.0066503435
205	0x3cc0e570	0.023546904
206	0x3cab7c54	0.020933308
207	0xbd324fd4	-0.04353316
208	0x3d1893c6	0.037250303
209	0x3ce0daa7	0.027448012
210	0x3d29c26c	0.04144518
211	0x3bf2e6bb	0.007412759
212	0x3d3b39be	0.045709364
213	0x3c96c2ff	0.018403528
214	0x3d2cdd83	0.042203438
215	0xbcd521c1	-0.026017072
216	0xbd1d37a9	-0.03838316
217	0xbd3dad4d	-0.04630785
218	0x3d1bd85e	0.03804814
219	0x3cf68abd	0.030095452
220	0xbd44beab	-0.048033398
221	0x3caaaefb	0.02083539
222	0x3b060fad	0.002045612
223	0xbd277a2b	-0.040887993
224	0x3cba1b0b	0.022717973
225	0x3d73f146	0.05955627
226	0x3cc25926	0.02372415
227	0x3c2a1057	0.010379872
228	0x3d075b69	0.03304616
229	0x3ae0b506	0.0017143793
230	0x3d64614d	0.055756856
231	0x3d48a1c7	0.048982408
232	0xbcc71c27	-0.024305416
233	0xbd0468ab	-0.03232638
234	0x3d084a23	0.033273827
235	0x3a3b184f	0.0007137106
236	0xb9f6d501	-0.00047079477
237	0x3cb2bf2a	0.02181967
238	0xbcd48132	-0.025940511
239	0x3d2ca6d4	0.042151287
240	0xbca92cff	-0.020651339
241	0xbcc5625a	-0.02409475
242	0xbd19f153	-0.03758366
243	0x3c36c280	0.011154771
244	0xbc63068e	-0.013856543
245	0x3ce41f7b	0.027847042
246	0xbb9612ad	-0.004579863
247	0xbd191ed5	-0.03738292
248	0x3caac2d7	0.02084486
249	0x3ccced5b	0.025015524
250	0xbd4abc8a	-0.04949621
251	0xbd24dd01	-0.04024983
252	0x3c355c90	0.011069432
253	0xbc70756c	-0.014676433
254	0xbcc37a7b	-0.023862114
255	0xbbe4c2f4	-0.006981248

module.conv_5.bias f4 [12]
0	0x3d06d91b	0.03292189
1	0xbd402743	-0.046912443
2	0x3ccac464	0.02475185
3	0xbc1c31e7	-0.009533382
4	0x3c2a591b	0.010397221
5	0x3d8a2065	0.0674446
6	0xbcc093cb	-0.023507973
7	0x3cd8a1cd	0.02644434
8	0x3c7107ff	0.014711379
9	0x3d15b4b1	0.036549274
10	0x3d55ec41	0.052227262
11	0x3d10ed48	0.03538254

module.conv_6.weight f4 [12, 12, 3, 3, 3]
0	0x3d0178b2	0.031609245
1	0xbd21571d	-0.03938972
2	0x3d3e2356	0.046420418
3	0xbc99e869	-0.01878758
4	0x3d0a2cc3	0.033734094
5	0x3c1e4d1d	0.00966194
6	0xbd2b5d73	-0.041837167
7	0x3d597a1a	0.05309496
8	0xbb8b741d	-0.004255785
9	0xbd455ce9	-0.04818431
10	0x3d207554	0.039174393
11	0x3ca8165f	0.02051848
12	0xbd58c8b7	-0.05292579
13	0x3c1c36ee	0.009534581
14	0x3d4799a5	0.04873051
15	0x3cc2ed6c	0.023794852
16	0xbd1408ef	-0.036141332
17	0xbce3e621	-0.027819695
18	0xbd3d1d9a	-0.04617081
19	0xbd340efa	-0.043959595
20	0xbd48ab4c	-0.048991486
21	0x3d55cccb	0.05219726
22	0xbd319878	-0.043358296
23	0x3b2c952e	0.0026334035
24	0x3bc8811a	0.0061189057
25	0x3bc9cebd	0.0061586783
26	0x3c8a0c4e	0.01685157
27	0xbd5a2351	-0.053256337
28	0xbaaa6f33	-0.0013003111
29	0x3d0b3a5d	0.033991206
30	0xbac49fbb	-0.0015001217
31	0xbc9dcd83	-0.019263035
32	0x3c14a893	0.009073394
33	0xbcf6f8c6	-0.030147921
34	0xba86dfe7	-0.0010290117
35	0xbca1f498	-0.019769952
36	0xbc3c91b1	-0.011509345
37	0xbd7167df	-0.05893695
38	0xbad4716b	-0.0016208118
39	0x3d058767	0.032599833
40	0x3aab1838	0.0013053482
41	0xbcd8eede	-0.026481088
42	0xbd5205c0	-0.051275015
43	0x3d73a8cd	0.059487153
44	0x3ca9566d	0.020671094
45	0xbd259515	-0.04042538
46	0xbd171305	-0.036883373
47	0xbc98447f	-0.018587349
48	0xbcc77a59	-0.024350332
49	0x3d234eab	0.039869945
50	0x3c10b91f	0.008833199
51	0x3d601dbb	0.054715853
52	0x3c9725d3	0.018450653
53	0x3d2533b1	0.0403325
54	0xbd475b96	-0.048671328
55	0x3d1779a9	0.03698126
56	0xbb78ae53	-0.0037945702
57	0x3c9b839a	0.018983651
58	0x3d2c7ff2	0.042114206
59	0x39eaf96f	0.000448178
60	0xbd3b5822	-0.045738347
61	0xbd544be6	-0.051830195
62	0x3c88f035	0.016716102
63	0x3aa7b3bc	0.0012794654
64	0xbd070528	-0.0329639
65	0x3d50b7ee	0.05095666
66	0xbd53b1ac	-0.051683113
67	0xba94c5ab	-0.0011350414
68	0xbd1b6ac3	-0.037943613
69	0xbd7f88cc	-0.06238632
70	0xbd338b86	-0.04383423
71	0x3cf451bb	0.029824128
72	0xbce37963	-0.027767843
73	0x3cdef2df	0.02721542
74	0x3c9528fc	0.01820802
75	0xbc5f0ac0	-0.013613403
76	0xbd5af929	-0.053460274
77	0x3ba5c2bc	0.0050586145
78	0xbc24ff88	-0.010070689
79	0xbd1e1db8	-0.03860256
80	0xbd072558	-0.0329946
81	0x3c6e4526	0.014542853
82	0x3c9291d3	0.0178918
83	0x3cd9b6f6	0.0265765
84	0x3d45c666	0.04828491
85	0xbcd4f936	-0.02599774
86	0x3c6566ba	0.014001543
87	0x3b6a6a29	0.0035768843
88	0x3c7f3e5d	0.015578833
89	0xbaec26b3	-0.0018016904
90	0xbc946e6c	-0.01811906
91	0x3baca1d9	0.005268317
92	0xbab1c7ce	-0.0013563575
93	0x3d18645d	0.03720509
94	0xbcdd15ec	-0.026987992
95	0xbc438acc	-0.011934947
96	0xbc7d72d7	-0.0154692745
97	0xbcd84149	-0.026398318
98	0xbd3f9448	-0.04677227
99	0xbd197352	-0.037463494
100	0x3d01bd0c	0.03167443
101	0x3d3fd953	0.046838116
102	0xbd04115d	-0.03224312
103	0xbcb9a75f	-0.022662817
104	0x3cf719a7	0.0301636
105	0x3d069e24	0.03286566
106	0xbb2aa747	-0.0026039646
107	0xbd4fe534	-0.050755695
108	0x3d70798f	0.058709677
109	0xbc285776	-0.010274759
110	0x3d245c59	0.040127132
111	0x3cd0b1ba	0.025475372
112	0x3c7d8d10	0.015475526
113	0x3d6c5a2d	0.057703186
114	0xbc6cd5ae	-0.014455242
115	0xbc9d3424	-0.019189902
116	0x3c502a51	0.0127054015
117	0x3bfe7004	0.007764818
118	0x3b546d4b	0.0032413776
119	0x3cbb80a3	0.022888487
120	0x3acac01d	0.0015468631
121	0x3d28ca5c	0.04120861
122	0xbb0c8a81	-0.002144486
123	0xbcc2bd86	-0.023772012
124	0x3cf0134d	0.029306078
125	0x3c9d58b0	0.019207329
126	0x3d22dd0c	0.039761588
127	0xbafb8e30	-0.0019192155
128	0x3cb730c8	0.022362128
129	0xbbce1d93	-0.0062901466
130	0xbd25a8aa	-0.040444054
131	0xbb4dc397	-0.0031397098
132	0x3d6058db	0.05477224
133	0xbbc6aab4	-0.00606283
134	0x3bad9c8e	0.005298204
135	0xbd09d079	-0.03364608
136	0xbd1b285d	-0.03788029
137	0xbcd75734	-0.026286699
138	0x3d2ebcbe	0.042660467
139	0xbc0be23c	-0.008537825
140	0x3ca6d36a	0.020364482
141	0x3d067ae2	0.032832034
142	0x3d59b967	0.05315533
143	0x3cc34813	0.023838079
144	0x3c22b13c	0.009929951
145	0x3ce108d2	0.027470026
146	0x3c7b50c3	0.015339079
147	0xbd63a001	-0.055572513
148	0xbb071eda	-0.0020617754
149	0xbd6de44d	-0.058079053
150	0x3d45adfb	0.048261624
151	0xbd420a09	-0.04737285
152	0x3d423416	0.047412954
153	0xbb3ca25c	-0.0028783297
154	0x3c99d326	0.018777441
155	0xbd4a8c51	-0.049450222
156	0xbd02aa8f	-0.03190094
157	0xbd6a829b	-0.05725346
158	0xbbf18315	-0.0073703625
159	0x3d042daa	0.03227011
160	0xbd4b9b70	-0.049708784
161	0xbd400c28	-0.046886593
162	0x3c92e421	0.017931046
163	0x3cbed088	0.023292795
164	0xbc8498bb	-0.016186109
165	0xbc74aa7f	-0.014933228
166	0x3a777cb8	0.0009440887
167	0x3d519e03	0.051176082
168	0x3d58e943	0.05295683
169	0x3b5d0f25	0.003373095
170	0x3c1b4ffa	0.009479517
171	0xbd06d222	-0.032915242
172	0x3dad00b1	0.084473975
173	0xbc90c30a	-0.017671127
174	0xbd0f7cd8	-0.03503117
175	0x3d2d851f	0.042363282
176	0x3c21057d	0.009827969
177	0x3c26b0c5	0.010173981
178	0x3cba56e8	0.022746518
179	0x3be7ea55	0.007077495
180	0x3ce4e54d	0.02794137
181	0x3d95c056	0.07312076
182	0xbc95a211	-0.018265756
183	0xbc10832a	-0.008820334
184	0xbc82454b	-0.015902182
185	0x3d39b760	0.045340896
186	0xbba7a658	-0.0051162653
187	0x3d173408	0.036914855
188	0x3c8a9a98	0.01691942
189	0xbbfa1ebe	-0.0076330593
190	0x3d4ff982	0.05077506
191	0xbd02b250	-0.031908333
192	0xbc1cbf6e	-0.009567125
193	0x3cb89ade	0.022534784
194	0x3d3676bb	0.044546824
195	0xbd29b882	-0.041435726
196	0x3bf257b6	0.00739571
197	0x3c72760a	0.0147986505
198	0xbc8553a9	-0.016275244
199	0xbcd89c1d	-0.026441628
200	0x3d0a6d8d	0.033795882
201	0xbd4c2c16	-0.04984673
202	0xbccfaadd	-0.025350029
203	0xbc0bfb46	-0.008543795
204	0xbd5161f8	-0.05111882
205	0x3c278365	0.010224198
206	0xbd4ebb16	-0.050471388
207	0x3a0a8f53	0.0005285639
208	0x3d413ddb	0.04717813
209	0xbcafd707	-0.021464838
210	0x3d292407	0.041294124
211	0xbd504352	-0.05084545
212	0xbc726e58	-0.014796816
213	0xbd4c3ad7	-0.0498608
214	0x3c23bf4d	0.00999434
215	0xbd62d441	-0.055378202
216	0x3d0ab91c	0.03386794
217	0xbc9f7618	-0.019465491
218	0xbcad9c3d	-0.021192664
219	0x3d28cf87	0.04121354
220	0x3bc20a9d	0.0059216754
221	0xbd43fdf9	-0.04784963
222	0x3d230235	0.039797027
223	0x3c365a0d	0.011129868
224	0x3d122c18	0.035686582
225	0xbc9cea0e	-0.019154575
226	0x3d06b081	0.03288317
227	0xbc1ea1cb	-0.009682129
228	0x3bf7f84d	0.0075674416
229	0x3abffc88	0.0014647404
230	0x3d181c55	0.037136395
231	0xbc7074df	-0.014676302
232	0x3d74bbaf	0.0597493
233	0x3ca989e3	0.020695632
234	0xbbafec52	-0.0053687477
235	0xbd1a1d97	-0.037625875
236	0x3d2a1002	0.041519172
237	0x3d16259f	0.036656972
238	0xbcdb22e5	-0.026750037
239	0xbbeb6e6d	-0.0071847946
240	0x3d5b43c6	0.05353143
241	0xbcacb029	-0.021080093
242	0xbca2642f	-0.019823162
243	0xbba14a87	-0.0049222144
244	0xbab58321	-0.0013848284
245	0x3cdc49dd	0.02689069
246	0x3bfb103a	0.0076618465
247	0xbcbdd353	-0.023172056
248	0x3d4caf8e	0.04997211
249	0x3d328196	0.043580614
250	0xbc5e728f	-0.013577118
251	0x3d12f3d2	0.035877056
252	0x3d55410c	0.052063987
253	0x3c8a675f	0.016894994
254	0x3d1e83c0	0.038699865
255	0xbc4cf2f4	-0.012509096

module.conv_6.bias f4 [12]
0	0x3d1f42bc	0.038882002
1	0xbd4e3101	-0.050339703
2	0x3cae60d0	0.021286398
3	0xbbd3b21f	-0.0064604427
4	0xbcf4c07a	-0.029876936
5	0xbbd4b7e1	-0.0064916466
6	0x3cca35a4	0.024683781
7	0x3c050212	0.008118169
8	0xbc51f586	-0.012814885
9	0x3d871ee3	0.06597688
10	0x3ca0f196	0.019646447
11	0xbcb5d90c	-0.022198223
