model3/FSRCNN3D_epoch_110.pth (torch, 265282 bytes, 15 tensors)

module.conv_1.weight f4 [56, 1, 5, 5, 5]
000000 29 9f d1 bc 2c 0c b2 3d 6f 7c 8a 3d 90 b8 ae 3d
       -0.025588589 0.08693728 0.06762015 0.08531296
000010 4f da 80 3d 16 2e 17 bd 24 2d 63 3d 49 87 81 bd
       0.06291639 -0.036909185 0.05546297 -0.06324632
000020 a8 da 2a 3d f4 24 a0 bd 82 ba 98 3c 1f 54 6f 3d
       0.041712433 -0.07819548 0.018643621 0.058429834
000030 3d 0c d3 bd ab 7e 8a bc 97 fd 66 bd ec 1e 6f 3c
       -0.10305069 -0.016906103 -0.056394186 0.014594775
000040 b0 22 41 bd e0 f6 46 bd da 32 97 bd 33 12 10 bd
       -0.04715222 -0.048575282 -0.07382746 -0.035173606
000050 25 9a a3 bd ee 74 e0 bc 7e 6a 86 bd b7 d3 8d bd
       -0.07988385 -0.027399506 -0.065632805 -0.06925147
000060 83 d6 a4 3d 78 36 4c 3d c4 c0 5a bc a2 a2 ac bd
       0.08048727 0.049856633 -0.013351623 -0.08429457
000070 6d 4b c7 bc 59 49 ae bd e8 22 25 3d 0d c6 b2 bd
       -0.024327958 -0.08510084 0.040316492 -0.087291814
000080 78 47 52 3d 22 37 b7 bd 32 fc ec bd 06 9c 81 3d
       0.05133769 -0.089460626 -0.1157154 0.06328587
000090 56 77 a1 bd 43 eb 06 bd 6c 1c 72 bd 65 45 ab bd
       -0.0788409 -0.032939207 -0.059109136 -0.08362845
0000a0 8c 2c 78 bc 29 63 1b 3b 2c 16 4c 3d fc ee 9f bd
       -0.01514734 0.0023710227 0.049825832 -0.078092545
0000b0 ce b8 df 3b 12 7c d1 bd ad 67 db bb bf f6 11 bc
       0.0068274504 -0.10228743 -0.0066957087 -0.0089089265
0000c0 14 c0 fe 3b b7 70 31 3d b9 55 69 3d b5 91 07 3b
       0.0077743623 0.043320384 0.056966517 0.0020686213
0000d0 a3 ee a0 bd 14 07 d9 3c 36 75 83 b9 21 b4 3b bd
       -0.07858016 0.026492633 -0.00025073596 -0.04582608
0000e0 f9 92 3e 3d a5 75 4c ba 18 f8 de bc d0 1d 67 bd
       0.046526883 -0.0007799513 -0.02721791 -0.056424916
0000f0 81 c1 8d 3b 04 94 fd bc 1e 88 a8 3c b7 f5 b3 bd
       0.004326046 -0.030954368 0.020572718 -0.08787101
000100 82 f8 bb bd 18 23 c6 bd 3c 59 56 bd 1d 58 60 3d
       -0.091782585 -0.09674662 -0.052331194 0.05477153
000110 8c bb de 3c b7 16 c4 bd fa 25 6e 3c c9 29 8b 3c
       0.027189039 -0.09574645 0.0145354215 0.016987698
000120 86 d7 82 bd 65 bb b8 bd a8 a7 c1 bd 99 60 5d bd
       -0.06388764 -0.09020118 -0.09455806 -0.0540472
000130 55 53 5a 3d 0e 50 0c bd e5 e5 a4 3c f7 9e a8 3c
       0.053302128 -0.034256034 0.020129154 0.020583613
000140 de 56 67 bd f8 b8 47 3d ae b9 c6 bd 6f c7 a3 bd
       -0.056479327 0.048760384 -0.09703384 -0.07997023
000150 89 83 9c bd 9d 49 53 3d ac ce a8 bc b5 2b 07 bc
       -0.07642276 0.051583875 -0.020606361 -0.008250167
000160 f4 60 8a bd 3a c4 0f bd cf 65 92 bd 98 7d b0 3c
       -0.067567736 -0.035099246 -0.07148325 0.021544263
000170 b0 28 43 3c b2 46 a4 bd 3c 77 85 3c 1b 52 26 bd
       0.011911556 -0.080212966 0.016292207 -0.040605646
000180 52 7e 59 bd 42 7e c3 bc 1a e3 4d 3d 24 d9 a0 bd
       -0.053098984 -0.023863915 0.05026541 -0.07853916
000190 0a b9 13 3d 41 d0 c3 3d 20 c1 e0 3d 21 4a 62 3d
       0.03606514 0.09561206 0.10974336 0.055246476
0001a0 23 b7 1f bd 26 8f 21 bd 43 e0 74 3d 44 32 e5 bc
       -0.038993012 -0.039443158 0.059784185 -0.02797807
0001b0 13 41 c0 bd 29 83 fa ba 62 6c f6 3c 14 11 ec bc
       -0.09387412 -0.0019112575 0.030080978 -0.028816737
0001c0 0b 2a 29 3d 23 32 da 3b f2 73 3e 3c f7 4a a0 bd
       0.04129986 0.006658809 0.011624323 -0.078267984
0001d0 50 6a 24 3d 33 4b 74 3b b0 58 44 bb 3d 22 e3 3c
       0.04014045 0.0037276268 -0.0029960088 0.027726287
0001e0 28 4e 3c bd ae 21 3c bd 1c f9 76 bd e2 2a 84 bd
       -0.045972973 -0.045930557 -0.060296163 -0.06453492
0001f0 16 a6 2b bd 22 f0 5f bd ec ce 85 bc 60 d6 0f bd
       -0.04190644 -0.054672368 -0.01633402 -0.035116553
000200 1f cf b7 bd 0a 63 48 bc 17 24 36 bd 30 3b ba 3d
       -0.08975052 -0.012230644 -0.04446801 0.0909332
000210 38 20 a7 bd a0 c4 e1 bc cd 19 b8 3c c6 63 1a bd
       -0.08160442 -0.027559578 0.02247324 -0.037692808
000220 6f 15 f3 3b 82 17 84 3d 52 1c 24 3d f9 5b 8c bc
       0.0074183266 0.06449796 0.04006607 -0.0171337
000230 8f b4 bd bd 93 b2 fe bc 48 9a 06 3d de df 9c bd
       -0.092629544 -0.03109101 0.032861978 -0.07659887
000240 c8 09 64 3d 59 a0 8d bc aa 5d 40 3d 3c 5f a1 3c
       0.05567339 -0.017288374 0.046964325 0.019698732
000250 be e8 c8 3c f3 3c 18 3d 41 e1 03 3d 60 b2 ae 3d
       0.024525043 0.0371675 0.03219724 0.08530116
000260 bc cb 83 3d af 47 a4 bd 93 d8 95 bd e1 96 1d 3d
       0.064353436 -0.08021485 -0.07316699 0.038473967
000270 0e a9 f8 bc 4e 02 18 bd c4 62 67 3d a7 ee 3f 3d
       -0.030354049 -0.037111573 0.056490675 0.046858456
000280 05 13 fa 3b 32 e3 47 3d 68 ac 42 bd 1f 53 d1 3b
       0.007631662 0.048800655 -0.0475277 0.0063880826
000290 d6 fb 00 3d 96 15 ac 3d 9f cc 83 bd a6 3d 0d 3d
       0.03149017 0.08402555 -0.06435513 0.03448262
0002a0 48 03 3b 3b 5f eb a3 3d 1f cd 54 bd 67 17 97 bd
       0.0028535891 0.08003878 -0.05195343 -0.073775105
0002b0 9c 91 54 3d 3d 33 8c bc 25 3b 70 3d 1e 0e cc 3d
       0.051896676 -0.017114276 0.058650155 0.0996363
0002c0 c7 5c 49 bd 6b 82 81 3b bb 98 bf 3b 6e 14 88 3d
       -0.049160745 0.0039523146 0.0058470643 0.06644522
0002d0 c5 ce 98 3d d0 fc b8 3d 28 e3 ac bd 28 9a 1b bd
       0.07461313 0.09032595 -0.08441764 -0.03798881
0002e0 5e 06 b3 3d 9b b3 67 3d ff e8 04 bd 70 2e 38 3d
       0.08741449 0.05656777 -0.032448765 0.04496616
0002f0 0d 17 e7 3c dd 10 a8 3d a7 4f 46 3c 86 ef 31 bc
       0.028209234 0.082063414 0.012103952 -0.0108603295
000300 30 93 85 3d 2c 52 32 3d df de b3 3d 65 d7 94 3d
       0.065222144 0.043535396 0.08782744 0.07267646
000310 bf f3 d9 3a df 68 4c 3d 0d 82 fe 3c 07 be 95 3d
       0.0016628428 0.0499047 0.031067872 0.073116355
000320 98 28 e9 3c b3 b1 ca 3b 06 01 74 bd 83 02 76 3c
       0.02846174 0.006185734 -0.05957129 0.015015247
000330 55 31 78 bc 48 fd 30 bc 98 4f a7 bc d3 09 ba bd
       -0.01514848 -0.010802574 -0.020423695 -0.09083905
000340 7b 09 90 3d 9e f1 92 3d d7 01 0d 3d 0e 44 7d bd
       0.07033058 0.07174991 0.034425583 -0.06183248
000350 96 0f 4c 3a b7 06 f7 3c 69 73 63 bd aa 79 6f 3d
       0.0007784305 0.03015457 -0.055529986 0.058465637
000360 02 e3 1d 3d 2f 0e 35 3c aa 88 d2 3d 34 a4 43 bd
       0.03854657 0.011050745 0.10279973 -0.04776402
000370 98 19 80 3d 6f 24 ff bc 8d c4 67 3d 36 e2 63 bd
       0.062548816 -0.031145303 0.05658393 -0.055635653
000380 27 cb c6 bd dd fa f5 bc 0e b2 77 3c 8f a6 c9 bb
       -0.09706717 -0.030026847 0.015118135 -0.0061538885
000390 c1 ec ca 3c 5c 3c 95 bd 1a ba 21 bd 59 f5 19 bb
       0.024771096 -0.07286903 -0.03948412 -0.0023492186
0003a0 09 c3 87 bd a0 ff ab 3d 36 95 31 bb 6c ae 89 bd
       -0.06628997 0.08398366 -0.0027096993 -0.067227215
0003b0 01 d6 90 3c a8 a0 a9 3c 2a 7a a3 3c 9f 82 8e 3c
       0.01768017 0.02070649 0.019955713 0.01739627
0003c0 0d 4c 33 bc 62 32 29 bd 64 3e 46 bd 1b c1 45 bd
       -0.010943425 -0.041307814 -0.048399344 -0.048279863
0003d0 9f 18 8c 3d ff c0 91 bd 40 46 7d bc 04 21 32 3c
       0.068406336 -0.07116889 -0.015458643 0.010872129
0003e0 de fc 55 bd ed 10 2d bd 6b 04 d6 3b 7c d1 5d bd
       -0.052243106 -0.04225247 0.0065312884 -0.054154858
0003f0 91 65 52 bd d7 bc bd 3c 30 b4 d9 3d f3 32 04 3d
       -0.051366393 0.023161335 0.10630071 0.03227515

module.conv_1.bias f4 [56]
000000 83 75 ca 3c c9 26 23 3d d2 db a3 3d b6 56 35 bc
       0.024714237 0.03983191 0.08000912 -0.011068037
000010 d0 15 b2 bc 04 3b 3c 3d ea 65 a3 3c aa 71 0a bd
       -0.021738917 0.04595472 0.019946057 -0.033799805
000020 93 e4 91 3d 17 2b 38 3c 15 53 9e 3d 8a 7d 53 3d
       0.07123675 0.011240742 0.077306904 0.051633395
000030 1e 66 93 3d cd 42 aa 3d 6a 2b ac 3d 7c 8d cd 3c
       0.07197212 0.083135225 0.08406718 0.02509188
000040 b2 89 80 3d 6e 7c 29 3d 1f 1a ad bc e4 f2 76 bd
       0.06276263 0.04137843 -0.02113062 -0.060290232
000050 88 17 73 bd b2 b3 10 3d 72 2d 06 bd 9b a9 49 bc
       -0.059348613 0.03532762 -0.032758184 -0.0123085035
000060 eb 6f ae 3d be f9 24 bc 3b 1d 2c 3d 0f 9e 73 bd
       0.085174404 -0.010069309 0.042020064 -0.05947691
000070 a7 17 14 3d 3f b4 77 3c 31 e8 dc bc 01 1a d8 3c
       0.03615537 0.015118658 -0.026966186 0.026379587
000080 8f 97 df 3c 67 82 51 3d ef 78 a2 bc a7 3d 24 3c
       0.027293948 0.051149752 -0.019833056 0.010024465
000090 81 ea b0 3a 35 47 b9 3c bd 89 8f 3d 55 de 21 bd
       0.0013497622 0.022616962 0.07008693 -0.039518673
0000a0 a3 a6 98 3c 3c 37 89 3d a7 22 00 bd 05 90 c0 3d
       0.018634146 0.06699988 -0.031283047 0.094024695
0000b0 6c 65 45 bd cf 2a 94 3d 52 e2 b9 3d 5c f3 ff 3c
       -0.048192427 0.072347276 0.0907637 0.031243972
0000c0 fb a8 9e bd ae 68 58 3d ad eb 21 3c 68 2b 80 3d
       -0.07747074 0.052834205 0.00988285 0.06258279
0000d0 1f 1f 5a bc 52 77 98 3d ee e2 96 3d 4f c1 06 bd
       -0.013313084 0.074446335 0.07367502 -0.032899197

module.conv_2.weight f4 [12, 56, 1, 1, 1]
000000 fc aa 07 3e ca 9c f8 3c e3 ab 8f bd cb 15 19 3d
       0.13248819 0.0303482 -0.07015207 0.0373743
000010 cd 9e 03 be 46 49 2b bd 50 22 8e 3d 1c 7c 84 3c
       -0.12853546 -0.041817926 0.06940138 0.016172461
000020 f8 24 6d bd 93 b7 01 3e 3f b9 d2 bd 76 69 28 3e
       -0.057896584 0.12667684 -0.10289239 0.1644648
000030 95 8c 16 bd d1 8d c5 bc 08 2f 45 3d 2d 37 29 3d
       -0.036755163 -0.024115475 0.048140556 0.041312385
000040 f3 45 78 3d 60 95 f8 3d 2b 1c b4 3b d7 d5 1a bd
       0.060613584 0.12137866 0.005496522 -0.03780159
000050 01 d7 da bd 67 3f 20 3d fe 2a b3 3d 97 ed 08 3d
       -0.1068554 0.039122965 0.087484345 0.03342971
000060 fe cd 5d 3c fc 5a 80 3d 0a f2 54 3c 1a f6 18 3c
       0.013537882 0.06267354 0.01299716 0.009336019
000070 b0 6e 8a 3d 3f c8 fc 3c 55 33 33 3e 5f e4 9f 3d
       0.06759393 0.030857204 0.1750005 0.0780723
000080 d2 09 46 3d 1d 34 7e 3c 6e 59 be 3d 17 e7 d0 3d
       0.04834921 0.015515354 0.09294401 0.10200327
000090 97 4d 02 3e 00 53 79 bd e0 c1 b5 3d 4d 02 3d 3e
       0.1272491 -0.06087017 0.08874869 0.18457909
0000a0 2d 4b 44 3d d4 94 e1 bd 2f 38 11 3e bd 6e 3a 3d
       0.047923256 -0.11014715 0.14181589 0.045515765
0000b0 f6 72 c1 3b aa d8 27 bd 63 6b be 3d e5 2e 9a 3d
       0.005903597 -0.04097811 0.09297826 0.07528476
0000c0 27 35 a0 3d c9 49 eb 3d da b7 8b 3d 42 59 14 bd
       0.07822638 0.11488683 0.06822176 -0.036217935
0000d0 b3 08 d9 3d 61 f1 c5 3d 3c fa 4d bd 7c 53 26 3d
       0.10597362 0.0966518 -0.05028747 0.04060696
0000e0 11 1d 22 be d6 2a f9 3d 05 96 0b bd 4e 56 e1 3d
       -0.158314 0.121663734 -0.034078617 0.110027894
0000f0 c7 9a 86 bd e7 a3 68 bd 25 e5 ca bc 4c cc fa bd
       -0.0657249 -0.056796934 -0.024767468 -0.12245998
000100 58 55 87 3d af aa 75 3d 1e 8c 1e bd 5c fb 99 3d
       0.06608075 0.05997723 -0.038707845 0.07518646
000110 a1 0b 01 3e ff ef 04 3e 72 73 0d be f4 c1 b7 3c
       0.12602092 0.12982176 -0.1381357 0.022431351
000120 1d 47 ae 3d ba 54 f0 bd fb 73 05 3e a5 05 d7 3d
       0.085096575 -0.1173491 0.13032524 0.104991235
000130 4e 72 03 3e 92 7f ab bd 95 4f 36 3d fd 51 0a 3e
       0.12836573 -0.083739415 0.04450949 0.13507839
000140 6e a3 a1 bc 3d f3 ce bc f1 8a 09 be c4 c6 58 bd
       -0.01973125 -0.02526247 -0.13431908 -0.052923933
000150 4d dc 89 3c 77 b1 76 3d 27 81 0d bc ee b3 40 bb
       0.01682868 0.060227837 -0.008636749 -0.0029404121
000160 2d 49 01 be 2b 7d 9c bd ff 83 46 bd 4e 75 38 be
       -0.1262557 -0.076410614 -0.048465725 -0.18013498
000170 6b 1c 00 3e 96 56 92 bd 21 75 a2 bd 67 23 c0 bd
       0.1251084 -0.07145421 -0.07932497 -0.093817525
000180 6a bd e7 3d 33 f6 b8 bd 44 e3 ec bd 44 c3 82 bd
       0.11315425 -0.09031334 -0.11566785 -0.063849
000190 5a 94 3a 3d 49 f0 0a 3d 08 7a 0d be 7d 7a 70 3c
       0.045551635 0.03392056 -0.13816082 0.014677641
0001a0 89 6f f7 3d 4f 83 e1 3d fb 4d 8c 3c fe 44 c0 bd
       0.120818205 0.11011373 0.017127028 -0.09388159
0001b0 59 ac ad 3d 4d d9 0c be 83 0f 14 be df 98 3b 3d
       0.08480138 -0.13754769 -0.14459042 0.045800086
0001c0 b4 ef da 3d fd 1c 9e bd 0b 0c 59 bd 53 2e b2 3c
       0.10690251 -0.07720373 -0.05299 0.021750605
0001d0 75 86 f1 bd 0d 74 16 3d 9f 63 19 3e af 47 9a bd
       -0.11793224 0.03673177 0.14979409 -0.07533204
0001e0 cd 77 00 be 99 6d 92 bb 87 33 a6 3d c5 28 b1 3d
       -0.125457 -0.0044686315 0.08115297 0.08650354
0001f0 d1 5e bd 3d 76 9d 92 bd 83 d8 0f bc 21 57 c7 bd
       0.092466004 -0.071589395 -0.008779648 -0.097334154
000200 a8 ea db bd 22 a1 ce 3d 01 d8 01 3e 8b b1 0b 3e
       -0.107381165 0.100893274 0.12680055 0.13641946
000210 6e bd bc 3d b6 c5 e2 3d a3 b9 a3 3d 03 00 da 3d
       0.09215818 0.110728666 0.07994392 0.106445335
000220 e4 96 33 bd 0d 37 08 be 37 57 b3 bd 49 89 a9 3a
       -0.043845072 -0.1330225 -0.08756869 0.0012934591
000230 83 48 3d bd 5e 9a db bd 09 73 da bd 27 9c 97 3d
       -0.04621173 -0.107228026 -0.106664725 0.074028306
000240 85 d3 f3 3d ea 25 24 bd 3f fd c3 3c cd 63 af bd
       0.119055785 -0.04007522 0.023924468 -0.08563957
000250 68 30 b9 3d b4 b7 23 be 5e 95 11 bd a5 57 f2 bc
       0.09042436 -0.15988046 -0.03554284 -0.029582808
000260 52 9d 03 be 29 15 8d 3d e9 77 90 bc 88 81 db bb
       -0.12852982 0.068888016 -0.017635303 -0.006698791
000270 44 0f 94 3d 6b f2 b3 3b 3e 6e c2 bd 23 cb 9b bc
       0.07229474 0.005491545 -0.09493683 -0.019017762
000280 ae 8d 91 3d 87 00 60 bb c5 e1 b1 3d 90 52 a3 3d
       0.071071014 -0.0034180002 0.0868564 0.07974732
000290 7c 12 25 3d b6 3c 8c 3d 77 b1 3a bc 15 74 27 3d
       0.04030083 0.06847517 -0.01139485 0.04088219
0002a0 a8 06 81 3d 8d 83 cf 3d 1d ba 13 3e b0 0d de 3a
       0.06300098 0.10132513 0.14426465 0.0016941335
0002b0 1d 6b 62 3c 11 58 e7 3a 16 7c 00 3e 9e f9 fa bd
       0.013819483 0.0017650147 0.12547335 -0.12254642
0002c0 da c3 f3 3d c9 11 e0 3d 08 25 81 3d 58 0f 39 bd
       0.1190259 0.10940892 0.06305891 -0.04518065
0002d0 55 63 39 bd 9c b2 d3 3d 9d 12 fe 3d 7a 62 07 be
       -0.045260746 0.103368014 0.12405894 -0.1322116
0002e0 31 80 14 3e 93 ad 6b bb db d4 f4 3c d5 6c 0c 3d
       0.14502026 -0.0035961613 0.029886654 0.034283478
0002f0 e7 6a fe bd 2d cf 23 3d 06 4d ae 3c 7c 46 b7 3d
       -0.12422734 0.0399925 0.021276962 0.08948991
000300 73 ae d7 bd a6 44 90 3d c9 6e 00 bd 70 af a0 3c
       -0.105313204 0.07044344 -0.031355653 0.019614905
000310 15 db d1 3d 60 05 f9 bd 94 de ab 3d 5e 84 6b bd
       0.10246865 -0.12159228 0.08392063 -0.057499282
000320 02 95 a9 bd 6e 90 a6 bb 59 50 07 3e f8 01 50 3e
       -0.08280374 -0.0050831353 0.13214244 0.20313251
000330 33 63 af bd 57 59 d4 3d c2 10 33 3e 27 ef ce bd
       -0.085638426 0.10368603 0.17486861 -0.101042084
000340 24 da ef 3d 38 85 db bd 4c 2b 08 3e d4 93 a4 3d
       0.11711529 -0.10718769 0.13297766 0.080360085
000350 dc e8 82 3d b6 ca a4 bc 46 19 b0 bc 2a ee e4 3d
       0.06392071 -0.020116191 -0.021496426 0.11178239
000360 3d 91 8c bd ad fb ac bc e1 59 a3 3d eb 9f 92 ba
       -0.068636395 -0.021116102 0.079761274 -0.0011186575
000370 1c 27 a0 3d bd 80 2c bd 57 29 76 bd dd 85 bf bc
       0.078199595 -0.042114962 -0.06009802 -0.02337926
000380 25 8f 35 be 05 20 e5 3d f0 14 cb 3d f7 3d 1d be
       -0.17730387 0.11187748 0.09916103 -0.15355669
000390 5b 5c b4 3d 67 68 05 be 40 6e 04 bd 49 9b ad 3c
       0.08806678 -0.13028108 -0.032331705 0.02119221
0003a0 7d bf f9 3d 77 9e de bd f2 70 b1 3d 98 18 26 be
       0.121947266 -0.108700685 0.08664121 -0.1622032
0003b0 02 5c c5 3d 7d 04 18 bd 13 ab 22 bd fc f4 72 bd
       0.0963669 -0.037113655 -0.03971393 -0.059315667
0003c0 53 22 84 bd 4c dd 2f be a1 b6 9b 3d 76 78 b1 bd
       -0.06451859 -0.17174262 0.07603193 -0.08665554
0003d0 7d c4 ff bd 29 26 c4 3d ed ce b4 3d 49 ec e4 3d
       -0.12488649 0.09577591 0.088285305 0.1117788
0003e0 6b 49 d3 bb 2e c0 9f 3c a6 fa 08 3c 11 83 09 3d
       -0.006447961 0.019500818 0.0083605405 0.03357226
0003f0 0e fe d0 bd 32 f3 07 3e d2 f1 51 3e e8 83 07 3d
       -0.10204707 0.13276365 0.20502403 0.03308478

module.conv_2.bias f4 [12]
000000 16 df 99 bd 84 54 ae 3d 7b f0 f5 3b ee 0f d3 3d
       -0.075132534 0.08512214 0.007505474 0.10305773
000010 39 73 ad 3d 39 f0 9d bd c8 1c ba 3d 04 75 d6 bc
       0.084692426 -0.077118345 0.09087521 -0.026178844
000020 b6 5e a9 bd 5d 93 12 3c ae 46 89 3c 24 0c 84 3c
       -0.08270018 0.008946267 0.016757336 0.01611907

module.conv_3.weight f4 [12, 12, 3, 3, 3]
000000 4f e5 de 3c 06 19 a7 bc 35 03 05 3d 9c a7 b0 bc
       0.027208952 -0.020397674 0.03247376 -0.021564297
000010 2d 3c d5 bc c0 07 29 3c 78 bb 74 bc db 3a 03 bd
       -0.02602967 0.010316789 -0.014937274 -0.03203855
000020 b5 74 ed bc 70 3c 0b bd 70 82 69 bd d7 28 49 3d
       -0.028986314 -0.033993185 -0.05700916 0.049111214
000030 ca e6 9f 3b 6c c4 33 3c a6 52 f4 3b 7e 42 13 3d
       0.004879807 0.010972124 0.0074561415 0.035952084
000040 ee 47 76 bd 14 49 59 3c 7a 4c e2 bb bc f7 b8 3b
       -0.06012719 0.013262052 -0.0069060894 0.0056447666
000050 e7 9e 6b 3a da 73 4a 3d c2 85 29 bc 6d 36 3e 3b
       0.0008988217 0.04942689 -0.010346832 0.002902414
000060 77 0b 2f bc 0f 4c 41 3d eb ab 12 bd 38 04 57 bd
       -0.010683886 0.047191676 -0.035808485 -0.052494258
000070 2a c5 38 3d 3c 4b bb bb 99 9b 64 3c 0c fe 2f 3b
       0.045109905 -0.0057157557 0.013953113 0.0026854305
000080 9e 67 12 bd 51 89 07 bd a4 00 5e 3d 35 97 db bb
       -0.03574335 -0.03308994 0.05419983 -0.006701375
000090 36 81 5b bd d0 85 1b bd e0 75 cd bc f3 2b 06 bd
       -0.053590022 -0.03796941 -0.025080621 -0.032756757
0000a0 d5 33 60 3d 93 d9 4b bd de 92 3d bc 15 05 18 3a
       0.05473693 -0.04976804 -0.01157066 0.0005799097
0000b0 35 8a ad 3b c6 14 2d bd 2e f2 03 3d ea 1e b3 bb
       0.0052960166 -0.04225614 0.032213382 -0.0054663317
0000c0 91 fc 35 3c 0e c9 fe bc 47 9d 2b bd 78 f2 3a 3d
       0.01110758 -0.03110173 -0.04189804 0.045641392
0000d0 1f 55 eb 3b 39 0f 6e 3d 19 14 ad bc 75 19 26 bd
       0.007181778 0.058119986 -0.021127747 -0.04055162
0000e0 f2 9b 4b bd 3e 2a 58 3c 9e c4 1c 3d ad 30 1b 3d
       -0.049709268 0.013193665 0.038273446 0.037888218
0000f0 c5 71 a5 3c 8c aa 19 bd 75 94 45 bd 06 a7 3a bd
       0.020195851 -0.03751616 -0.048237283 -0.045569442
000100 25 13 20 3d c6 b7 f5 bc 50 97 af 3c 4f f5 12 3d
       0.039080758 -0.029994857 0.021434456 0.035878476
000110 b0 29 bc bc 1e 8c ba bb 72 5e 0c 3d 8a 67 3d bd
       -0.022969097 -0.005692973 0.034269758 -0.04624132
000120 93 87 c9 bc 25 2b c9 bc c0 d1 df 3c d6 85 0c bd
       -0.02460078 -0.024556706 0.027321696 -0.034307323
000130 c9 05 46 bd f3 23 69 3d c4 19 0e bd 53 18 fc 3c
       -0.04834536 0.05691905 -0.03469254 0.030773317
000140 46 7f ab bb 41 a3 1a 3d 09 5f 36 3c 17 b6 4d 3d
       -0.005233678 0.037753347 0.011131057 0.050222483
000150 0e 50 c4 bc 7e 7d 11 bd 57 e2 9e 3c 9d b6 4e 3d
       -0.023963954 -0.03552007 0.019395037 0.050467122
000160 dc 20 bc 3c 54 78 67 bc b4 01 d4 bb 70 d0 4a bd
       0.022964887 -0.01412781 -0.0064699296 -0.049515188
000170 44 e2 5e bc ae ef 65 bb 42 85 40 3c 22 36 35 3d
       -0.013603751 -0.0035085487 0.011750521 0.04424108
000180 35 79 ae 3c e9 52 21 bd 3d 31 27 bd 98 1b 55 3d
       0.02129803 -0.03938571 -0.04081844 0.05202827
000190 b1 77 12 bc 15 c2 bb bc 8d 3e 3b bc e4 fd ac ba
       -0.0089396695 -0.022919694 -0.0114284875 -0.0013198224
0001a0 d8 1b 47 3d 2d 6d 8b bc 04 2b 21 bc 24 f5 9b bc
       0.04861054 -0.017019833 -0.009836916 -0.01903779
0001b0 60 7c 71 3d 20 c3 7a 39 9b ef 11 bd 1b f8 72 3c
       0.058956504 0.00023914548 -0.035628896 0.014829661
0001c0 87 74 b8 bc a8 23 a1 3c 8f b8 01 bd 8e 1d 01 3d
       -0.022516502 0.019670323 -0.03167015 0.031522326
0001d0 38 77 5b 3d 85 fb 64 3d db 98 03 3d 7b 9b 35 3d
       0.053580493 0.05590393 0.032128196 0.04433773
0001e0 cf 8c 28 bd d8 6c 12 3d 51 f4 3c 3c 6c 61 22 3c
       -0.04114991 0.035748333 0.011532859 0.0099109225
0001f0 1d 14 1a bc 7f 85 f9 bc e7 b6 35 bd 55 25 93 3c
       -0.009404209 -0.030459164 -0.044363882 0.017962137
000200 80 a8 97 3c 63 16 a3 3c c1 56 63 3d 9f e8 81 3c
       0.018512964 0.019908136 0.055502657 0.015857993
000210 70 d9 48 bd 05 e9 29 bd b8 b1 9a bc b0 15 a9 bc
       -0.04903549 -0.04148199 -0.018883571 -0.020640224
000220 0c e6 a6 3c 0f 29 49 ba f4 4e 25 3c 39 08 a5 bb
       0.020373367 -0.000767366 0.010089625 -0.0050363806
000230 d9 00 c1 3c 8a 27 10 bd 57 c1 01 bd 93 55 47 bc
       0.023559975 -0.035193957 -0.031678524 -0.012166399
000240 6b f3 6e bd 86 1d 0e 3d f6 5d 17 bd 3d ef cc 3c
       -0.05833761 0.034696124 -0.036954843 0.025016421
000250 f6 32 dc ba c0 f9 d3 3c 78 c2 0e bd e8 f9 9b bc
       -0.0016799856 0.025875926 -0.03485343 -0.019040063
000260 84 e2 42 3c 94 92 39 bb 31 01 91 3c a3 2a c7 3c
       0.011894826 -0.0028316127 0.017700763 0.024312323
000270 39 2a 30 3c 92 72 22 3d 73 f5 82 3c a5 d1 e0 3a
       0.010752254 0.039660044 0.01598618 0.0017152323
000280 f3 50 34 3c 51 1b 4e 3c 39 05 c3 bc 73 80 8f bc
       0.011005628 0.012579755 -0.023806201 -0.017517304
000290 df 67 86 3d b0 d4 90 bc 31 4a ee 3c 72 2a 12 3d
       0.065627806 -0.017679542 0.029088112 0.03568501
0002a0 98 51 09 3c c4 c3 50 3d 15 95 68 3c 21 ab c1 bb
       0.00838127 0.050967947 0.0141957 -0.0059102927
0002b0 19 9e 41 3d 51 56 f7 bc 07 6e 82 3d ac 0c 71 3d
       0.047269914 -0.030192526 0.06368642 0.058849975
0002c0 19 2c 10 3d c1 f1 2a 3d 83 8c 15 bc 0c 5c 53 3b
       0.035198305 0.04173446 -0.009127739 0.003225091
0002d0 a2 71 17 bd 2e 07 89 3d de ac 28 3d fc 66 15 bb
       -0.036973603 0.066908225 0.041180484 -0.002279698
0002e0 33 0d b2 3c d3 d1 85 3c 0d 15 c6 3c aa b0 eb bc
       0.02173481 0.016335404 0.02417996 -0.028770763
0002f0 b8 63 e1 3b 35 93 2d 3c 04 99 96 3c 6d 22 0c 3d
       0.0068783425 0.010594179 0.01838351 0.03421252
000300 22 d5 0b 3b b5 1d 99 3d ba b9 70 3c fe a3 ef 3c
       0.0021336754 0.07476369 0.014692718 0.029253002
000310 d1 ff a1 3d 34 12 a6 bc 85 9e 67 3d dd a9 97 bc
       0.07910121 -0.020272352 0.05654766 -0.018513614
000320 a4 38 a6 bc a8 a7 7c bd ed 68 36 bd d0 40 01 bd
       -0.02029068 -0.061683327 -0.04453366 -0.03155595
000330 c6 b4 5a bd 45 69 8b 3d e3 32 54 3d b5 82 1a 3d
       -0.053395055 0.06807188 0.05180634 0.03772231
000340 6d 92 86 bb c3 ea 4d 3d 0a 4e 3c bd b1 47 15 bc
       -0.004106811 0.050272714 -0.04597286 -0.009111331
000350 16 f3 54 38 45 9c 56 3d ad 98 cd 3b 67 4c a9 3c
       5.077113e-05 0.052395124 0.006274304 0.020666314
000360 6c 88 04 3d 84 55 b1 3b 25 74 c6 bc 58 d9 24 bc
       0.032356665 0.0054118056 -0.024225304 -0.010061584
000370 f0 a7 5e 3c f3 78 b5 3c 52 9f f7 bc 68 87 77 bd
       0.013589844 0.0221524 -0.030227337 -0.060431868
000380 6e 2a 97 3b e7 4d 3d 3c e6 4b c7 3c 51 21 6e bc
       0.0046132123 0.011554218 0.024328183 -0.01453431
000390 14 03 40 3d 9d ee 9e bb e3 7d 7d 3a b0 e3 a3 bc
       0.046877936 -0.0048502223 0.00096699427 -0.02000603
0003a0 fb cf 18 bc d1 9b d5 bc 7b 6d db 3c ba 57 43 3d
       -0.00932693 -0.026075276 0.026785603 0.047691084
0003b0 fc 9c d3 3b bf 22 be 3c 4e f5 07 bd 33 fa a4 3b
       0.006457923 0.023209928 -0.033192925 0.005034709
0003c0 23 8f 22 bd 58 55 29 bd 9e fc 51 bd e7 07 6f bd
       -0.039687287 -0.041341156 -0.051266305 -0.058357146
0003d0 bd fb 71 bd 25 15 5d bc cc 09 3b bb 80 35 12 3d
       -0.059077967 -0.013493811 -0.0028539775 0.035695553
0003e0 a5 ef 6a bd 7e 20 7c 3d 81 fe b5 3c d4 f3 16 3c
       -0.05735745 0.061554424 0.022216083 0.009213407
0003f0 83 21 43 bd 90 c7 55 3c a7 35 44 bd e8 63 88 bb
       -0.04763938 0.013048068 -0.04790273 -0.0041623004

module.conv_3.bias f4 [12]
000000 ad 71 7a 3d 39 a7 ec 3c a8 ee d7 3b 6b 7a 2f 3d
       0.061143566 0.028888332 0.0065897293 0.042841356
000010 90 bf 19 3d 86 14 af bc ce 5a 57 bd fb 89 61 bc
       0.037536204 -0.021372091 -0.052576832 -0.013765807
000020 34 f8 05 bd 88 80 f8 bb ad 14 2c 3c e7 66 1d 3d
       -0.032707408 -0.0075836815 0.010502976 0.038428213

module.conv_4.weight f4 [12, 12, 3, 3, 3]
000000 7c f4 02 bc ed 67 a5 3c c0 4d 6f bd f5 27 75 3c
       -0.00799286 0.020191157 -0.058423758 0.01496314
000010 0f 4e 05 3b 23 15 3d 3d 02 dd ec bc ec 5b a0 3c
       0.0020340716 0.046162736 -0.028913978 0.019575082
000020 70 44 ee bc a8 b2 aa bb dc ce 85 3d f8 d1 2d 3c
       -0.029085368 -0.0052092858 0.06533596 0.0106091425
000030 1d 24 52 3d 9b 05 a3 3b cb 91 aa bc a0 6a aa 3c
       0.05130397 0.0049750335 -0.020821473 0.020802796
000040 45 f1 1d bd 12 a3 2c bc be 37 4b 3d 57 da 69 3b
       -0.03856017 -0.010536926 0.049613707 0.003568312
000050 7a 14 3c 3d 39 ff 00 3d 72 ab 8e 3d a3 68 3c 3d
       0.045917965 0.0314934 0.06966294 0.045998227
000060 03 31 3b 3d b4 67 0d 3c 95 d0 24 bd 40 f6 aa 3c
       0.045701038 0.008630682 -0.04023798 0.020869374
000070 ed ff 25 3d 99 1b 30 3d 24 4f b3 3d 1b 32 8b 3d
       0.040527273 0.04299507 0.08755329 0.06796666
000080 b1 7d 25 3d 78 2c 90 3d 5b bd b3 bc 42 db 15 bd
       0.04040307 0.07039732 -0.021940878 -0.036586054
000090 21 d9 90 bc 6d fb 14 bd 74 a9 46 bd fb 23 8f 3c
       -0.01768166 -0.03637259 -0.048501447 0.017473212
0000a0 d6 69 74 bd a3 95 69 3d be f9 10 bc 9f 20 37 bd
       -0.059671246 0.05702747 -0.008848606 -0.044708844
0000b0 2b 4f 17 bd bd fd d6 bc a8 fb a2 3c 85 9d 9d ba
       -0.036940735 -0.026244039 0.01989539 -0.0012025094
0000c0 89 d8 71 bc 5d 3e cd bc 99 6c 2e 3d 80 15 9d 3c
       -0.014761099 -0.025054151 0.042584036 0.019175291
0000d0 69 45 25 bb 0a 80 89 3d 07 17 a8 3d d0 dd 7b 3d
       -0.0025218374 0.06713875 0.08207517 0.061490834
0000e0 af 19 27 3c 9d 32 21 3d 27 13 cf 3c 9b 0e f5 bc
       0.010198995 0.03935491 0.025277687 -0.029914191
0000f0 98 d8 1f bd e3 6f 2c 3d 92 ca da bd 46 0b a0 bc
       -0.03902492 0.04209889 -0.106831685 -0.019536626
000100 c2 9d ca 3c 72 a7 a3 bc 3c e5 4b 3e e5 bc 27 3e
       0.024733428 -0.019977305 0.19911665 0.16380651
000110 45 dd 18 3e 07 1f f3 3d 6f 1f 35 3e 76 5f c3 3d
       0.14928158 0.11871152 0.17687772 0.09539692
000120 d8 17 9d bd e9 68 19 be df 83 1b be 78 82 cc 3c
       -0.076705635 -0.14981426 -0.15187024 0.024964556
000130 b7 a8 b4 3d e6 2a 55 3d 9b 78 86 3b 72 77 db 3d
       0.08821242 0.052042864 0.0041037328 0.10716142
000140 94 a7 47 bd 98 85 6b bc 03 d3 4e 3d 22 2d 66 bb
       -0.0487438 -0.014375113 0.050494205 -0.0035122116
000150 52 90 62 bd 26 a2 5c bd 4f a7 44 3d c5 23 ba bc
       -0.055313416 -0.053865574 0.04801112 -0.022722134
000160 65 89 22 bd 9f 2f 81 3c 56 c5 ae bb 48 f6 6c bd
       -0.03968181 0.015769778 -0.005333583 -0.05785206
000170 e1 d8 0e bc 84 42 a9 3c 54 27 a2 bc 4c 69 39 bc
       -0.0087187 0.0206616 -0.019794144 -0.011316609
000180 af 36 2f 3d 3f 04 80 3c 68 8a 53 3d 76 a4 b7 ba
       0.04277676 0.015627025 0.051645666 -0.0014010805
000190 50 88 2d 3b 2e 1a fa 3c 53 0a b2 bc d8 8f 1c 3d
       0.0026478954 0.030530062 -0.021733439 0.038223118
0001a0 7e c3 e5 bc a2 5c 8b bc 19 ed c7 bc c9 f9 5d 3c
       -0.02804732 -0.017011944 -0.02440505 0.013548323
0001b0 dc 49 4a bb 80 59 c9 3c ce 15 27 bb aa 29 64 bd
       -0.0030866778 0.02457881 -0.0025495174 -0.055703796
0001c0 22 03 49 bc 25 6c 0d bc 12 41 cb bb d8 e9 6d bc
       -0.012268813 -0.008631741 -0.0062028253 -0.014521085
0001d0 81 6d 10 bd e0 6f ba 3c 23 06 2e bd 5c 60 23 3d
       -0.03526068 0.022758424 -0.04248632 0.039886817
0001e0 da 10 e5 bb e1 70 69 bd 62 cb b9 3a df a1 e7 bc
       -0.0069905343 -0.056992415 0.0014174993 -0.028275428
0001f0 f9 1a 2a bd 5d b0 53 3c d3 11 d6 bc e5 48 04 3c
       -0.04152963 0.012920466 -0.026131546 0.00807402
000200 c7 d7 8e 3b 5c 7f 04 3d b6 d5 29 bd 0c fd 6b 3d
       0.0043592188 0.032348022 -0.041463576 0.05761437
000210 24 8d 76 bc 71 83 d7 bc 69 a4 21 bb 01 57 19 3d
       -0.015048299 -0.026307793 -0.0024664646 0.03743649
000220 67 a7 25 3d 03 1c 03 bd 01 d2 5f 3d cc e7 30 3d
       0.04044285 -0.032009136 0.054643635 0.04318981
000230 fa a9 d1 bc 9d 5e 04 bd 33 f8 a1 3c d5 42 36 bd
       -0.025593746 -0.032316793 0.01977167 -0.04449733
000240 fd 6f 6a 3b f8 d5 3b bd 33 a5 92 bc 84 c4 00 bc
       0.0035772317 -0.045858353 -0.017901039 -0.007859353
000250 ff b0 61 3d cb 2d 4c bd b6 e9 99 3d 0a b2 43 3b
       0.055100437 -0.04984836 0.0751528 0.0029860758
000260 b9 8d 26 3d f4 61 cb bb 3b 94 f6 bc 48 0b 1b 3d
       0.0406625 -0.0062067453 -0.030099979 0.037852556
000270 8e 8f 4b 3c 84 b4 b7 bc ff 12 24 bd 6d 5a 66 3c
       0.012424363 -0.022424944 -0.04005718 0.014059645
000280 88 64 8f 3c e3 f9 ea bb 3c 45 e7 bc 78 be ae b9
       0.017503992 -0.007170902 -0.028231256 -0.00033329776
000290 c3 40 0e 3b 01 b0 33 bc cd 87 0f bd 09 9d b0 3c
       0.0021706081 -0.010967256 -0.03504162 0.021559255
0002a0 ce 64 7f 3c 1c 53 0a 3d 13 d8 4b bd 37 34 39 3b
       0.015587999 0.033770666 -0.04976661 0.0028259882
0002b0 c5 88 44 3d 59 4b 3d bd 1c a5 be bc 18 a3 6d 3c
       0.047981996 -0.046214435 -0.02327209 0.014504217
0002c0 2b c8 de bc 07 12 4f 3c 1d d5 dd 3b e0 fb 14 3d
       -0.027195057 0.012638575 0.00676979 0.03637302
0002d0 c0 6f b7 3c 82 c9 60 bd fe 6b 0c bd b7 ae 61 3c
       0.022392154 -0.054879673 -0.034282677 0.013774565
0002e0 12 af f7 bc f7 b2 7e 3b 4e a6 41 3c b9 ad d7 bb
       -0.030234847 0.0038863996 0.011819435 -0.0065819887
0002f0 c7 ed 1f ba 66 f0 99 3c f5 1e 65 3d f8 dd 85 3c
       -0.00061008 0.018791389 0.055937726 0.016341195
000300 9c eb 3a 3d 33 65 65 bd 0c d6 8a 3c 7d 65 31 3d
       0.04563485 -0.056004714 0.016947769 0.043309677
000310 d4 02 19 3d ca e6 02 3c e4 68 32 3d 95 e0 37 3d
       0.037356213 0.007989595 0.043557063 0.044891912
000320 af 1f bc 3a 1b e4 28 3a 35 39 c0 3c 84 a9 cb bc
       0.0014352704 0.0006442682 0.023464778 -0.024861105
000330 0e dd b0 3c 4a b8 e4 bc 96 56 30 3d 1b f0 29 bd
       0.021589782 -0.027919907 0.043051325 -0.041488748
000340 ca 9b 95 b9 65 4a 86 3c 0b af 07 3a 10 c0 80 bd
       -0.00028535567 0.016392896 0.0005175925 -0.06286633
000350 f7 d2 0c 3d 64 6b a8 3c b2 5c 0f bc 1e 63 b9 3c
       0.03438088 0.02055902 -0.008750128 0.02263027
000360 28 da a9 3c a0 d4 b5 3c 7d a4 c8 bc 9b 87 1c 3d
       0.020733908 0.022196114 -0.024492497 0.03821526
000370 63 78 4a bd 27 ca e9 3a e9 5b 9c 3b 22 24 59 bc
       -0.049431216 0.0017836735 0.0047716987 -0.013253244
000380 4c 4c 5c bb ce a7 a6 3b 8d 25 03 bc ff c8 b7 3b
       -0.0033614812 0.005085922 -0.008004558 0.0056086774
000390 c9 73 7d bb 5b c2 4d 3c c3 78 34 bd f8 4a 34 3c
       -0.003867375 0.012558545 -0.04406048 0.011004202
0003a0 ef 77 35 bc 10 dd a0 ba ec ff 2f bc 27 a6 e0 bc
       -0.011075958 -0.0012272913 -0.010742169 -0.027422978
0003b0 d0 22 75 3c 96 fd 65 3a 28 76 f6 3c f2 03 08 3c
       0.014961913 0.0008773444 0.030085638 0.008301722
0003c0 dc fa 30 bd af cf e7 3b cc 90 85 3c 7a 99 74 3d
       -0.04320799 0.0070743184 0.016304396 0.05971668
0003d0 c1 41 22 bd a8 50 f6 bc 8d 5e ed 3c f4 9a 41 3d
       -0.03961349 -0.030067757 0.02897575 0.047266915
0003e0 b5 67 d4 3c c7 ae 3f 3d 41 9c 43 bd 07 3b 4c bd
       0.025928358 0.04679754 -0.047756437 -0.04986098
0003f0 ad 25 fd bb 17 c6 a5 3d 0f 11 1a 3d 44 f5 ed bb
       -0.0077254386 0.08094423 0.037613925 -0.007261904

module.conv_4.bias f4 [12]
000000 b6 16 52 bd b1 06 68 bc 4f 74 80 3c 8e 80 a0 3c
       -0.05129119 -0.014161752 0.01568046 0.01959255
000010 ec b9 0e bd 58 87 82 3d 68 6e 91 3c 8d f8 a5 3a
       -0.034845278 0.06373471 0.017752841 0.0012662575
000020 10 63 43 3d 21 27 cc 3c 42 96 9c 3b 4e 45 7d bd
       0.047701895 0.024921002 0.0047786543 -0.061833672

module.conv_5.weight f4 [12, 12, 3, 3, 3]
000000 82 6f d3 39 02 b3 6e bd 70 50 42 3d 3e 43 15 bb
       0.00040328136 -0.058276184 0.047439992 -0.0022775675
000010 c3 86 72 bd db da f1 3c c5 38 8a bc 2f 67 0f 3b
       -0.05921055 0.029523304 -0.016872773 0.002188157
000020 8c 82 5a bd eb 1e ae ba 6c c7 a5 bc e7 00 48 bc
       -0.053347155 -0.0013284361 -0.020236693 -0.012207246
000030 92 40 6f bb d6 41 6a 3c 9b 17 e2 b9 cf db 05 3d
       -0.0036506993 0.014297923 -0.00043123667 0.03268033
000040 b9 68 02 bc d2 35 12 3c 65 e1 1a 3d a1 9b 1d bd
       -0.007959538 0.008923965 0.03781261 -0.038478497
000050 f2 3c 4a 3d d9 36 c1 bc 8e bd 9a bc 32 c0 3e 3c
       0.04937453 -0.023585724 -0.018889215 0.011642503
000060 c5 cf 9b bb d0 ff f0 bb 5f bc 0f bd 8b 7c 53 3c
       -0.0047549927 -0.007354714 -0.035091754 0.012908111
000070 83 14 a0 bc 56 b0 ca bc 0f c7 06 3c 75 bf 48 3d
       -0.01954103 -0.024742287 0.00822617 0.049010713
000080 a0 64 1f 3d 03 54 9e bc 9f a5 3a 3c 95 f4 a3 3c
       0.038914323 -0.01932717 0.011392026 0.020014087
000090 85 09 1e 3d d3 54 f3 bc c2 c4 af bc b8 22 11 3d
       0.038583297 -0.029703533 -0.021456126 0.0354335
0000a0 3d b7 1e 3d 4c d9 45 3d 6e 49 02 3c 26 49 4f 3d
       0.03874897 0.048302934 0.007952077 0.05060687
0000b0 66 18 e2 3c 55 99 b2 bb 48 46 ca 3c cd 00 f4 3c
       0.027599525 -0.0054504075 0.024691716 0.029785538
0000c0 c4 e8 5b 3d 0e 00 cf 3b b9 d8 50 bd d1 a8 49 3d
       0.05368878 0.006317145 -0.050987933 0.04923326
0000d0 f6 30 24 bd cf 91 4b bd f2 bc ce bc 7e 87 2b 3d
       -0.040085755 -0.0496996 -0.02523658 0.041877262
0000e0 37 ca 4a 3c a5 26 01 3a b2 5d 13 3c f5 7b bc 3c
       0.012377313 0.0004926718 0.008994507 0.023008326
0000f0 11 03 5d 3d bf b6 bc 3c 2b 3e b9 bc 4f 19 a5 3c
       0.053958002 0.023036359 -0.022612652 0.02015367
000100 7e 85 fd ba 5e 50 2e 3d da 39 07 3c a2 59 86 3d
       -0.0019342152 0.042557113 0.008253539 0.06560065
000110 bd a6 21 3d b2 32 80 3d 98 38 f5 bc 58 f1 0f bd
       0.039465655 0.06259669 -0.029934213 -0.035142273
000120 be b3 ee bc e1 20 44 3d e3 92 16 3d 61 b7 2b bb
       -0.029138442 0.04788292 0.036761176 -0.0026201832
000130 eb 45 c4 3c 52 a8 5b 3d db 21 2a bd ea b7 c5 3c
       0.02395912 0.05362732 -0.041536193 0.024135549
000140 af ac 64 3c 3c e5 5b bd f4 67 79 bc 14 c0 17 3d
       0.013957187 -0.05368541 -0.015222538 0.037048414
000150 db ad 04 3d b7 1a 85 3b 7f 95 0e 3c 6b bf 37 bb
       0.032392364 0.0040620225 0.008702635 -0.0028037678
000160 31 d0 88 3d 8b c4 77 3d 7c 52 18 bd 0d 8e 58 bc
       0.06680334 0.060490172 -0.03718804 -0.013217461
000170 60 ed f7 bb f5 32 df 3c f6 c9 00 3d 86 a7 f0 bc
       -0.007566139 0.027245978 0.031442605 -0.029376756
000180 f9 d3 b5 3a ec 0e 70 3c 8b 84 87 bc 3a 96 0c 3c
       0.0013872377 0.014651995 -0.016542694 0.008580739
000190 b4 9e f1 bb c7 ef a9 3c 3e 94 2c 3d 13 21 81 bc
       -0.007373655 0.020744218 0.042133562 -0.015762841
0001a0 a6 01 79 3d 60 b9 cb 3c 10 07 8e 3d ae 4b be 3c
       0.060792588 0.024868667 0.06934941 0.023229446
0001b0 5b b2 66 3d b7 f1 ab bc e0 c4 4f bc f5 ef 39 bd
       0.056322437 -0.020989282 -0.012681216 -0.045394856
0001c0 8f eb ca 3c 6a 63 0b bd b5 4d 51 bc b0 1b 46 bc
       0.024770526 -0.034030356 -0.012774874 -0.012091562
0001d0 c0 f0 f0 3b 85 9a 4e bc 73 c2 06 bd d8 77 9c 3c
       0.0073529184 -0.0126100825 -0.032900285 0.019100115
0001e0 ce 95 72 3d 0a 32 77 3d 18 fa ce bc d7 93 0c bd
       0.059224896 0.060350455 -0.025265738 -0.03432068
0001f0 4c 6e c2 bc bc b9 50 3d ae d2 21 bd 55 4a c9 3c
       -0.023734234 0.05095838 -0.03950756 0.024571577
000200 af 78 f8 3c 44 0f e5 bc 88 2b 39 3b bb c6 6c 3d
       0.030330984 -0.02796138 0.0028254706 0.05780671
000210 70 2f f1 3c f0 e3 c4 3c 2d 62 43 bd b5 56 8b 3c
       0.029441565 0.02403447 -0.04770105 0.017009119
000220 74 81 7b bb b9 10 24 3d 37 94 ee bc ca 95 35 3c
       -0.003837672 0.04005501 -0.029123409 0.011083076
000230 6e 1c df 3c 98 14 dd 3a 45 05 5c 3d ae d2 0d 3d
       0.027235236 0.0016867099 0.053715963 0.034624748
000240 43 27 2d 3d 30 a2 78 3c a3 cf 39 3d 2d 21 35 bc
       0.04227377 0.015175387 0.045364033 -0.011055273
000250 41 71 5d 3d b4 35 e2 bc 75 dc 15 3d 64 6e ef 3c
       0.054063085 -0.027613498 0.036587197 0.029227443
000260 1d 7b 2a 3c 34 8f 35 bd 28 16 84 bc 3a b2 81 3c
       0.010405329 -0.044326022 -0.016123846 0.015832055
000270 a7 5d f5 3c 9f c6 c9 3b 6d 73 39 bd 3d 79 36 3d
       0.029951883 0.0061577107 -0.045276094 0.044549216
000280 34 4b 68 3d 1e 57 ee 3a 05 6a 19 3c 68 a3 b2 3b
       0.056712344 0.0018183922 0.009363656 0.0054516084
000290 ca 3c df bc f7 49 1c bd 07 be 46 3d 32 41 36 3d
       -0.027250666 -0.038156476 0.048521068 0.04449577
0002a0 d3 20 cd bb fb c2 2d 3d 20 f0 3d 3d fb b4 60 bc
       -0.0062600165 0.042422276 0.04637158 -0.013715024
0002b0 ef a9 d8 3a 8e da 2f 3d f3 16 07 3d 56 8d 1a bd
       0.0016530136 0.04293304 0.03298087 -0.037732445
0002c0 04 dc a5 3c 99 b3 6c bd f2 03 c7 bc 93 85 c4 3c
       0.020246513 -0.057788465 -0.024293873 0.023989474
0002d0 69 c1 29 bd 3b 7a a0 bc 6f ff 33 3c c2 92 29 3d
       -0.041444216 -0.019589534 0.010986193 0.041399725
0002e0 f1 1d 28 3d aa c1 19 bc e4 42 2e 3d 65 36 30 3d
       0.04104418 -0.009384552 0.04254426 0.043020625
0002f0 b5 2d 79 bd 1c f3 47 bd cd b2 1a 3d d3 4d 2e bd
       -0.060834605 -0.04881583 0.037768174 -0.042554688
000300 3f c3 26 3c fb 01 c9 bc 80 93 41 3d ea 52 00 bc
       0.010178386 -0.024537077 0.047259808 -0.007832268
000310 0b ca 68 3c 74 23 1b bc d6 e0 e9 3c d3 df ab bc
       0.014208327 -0.009468902 0.028549593 -0.020980751
000320 8a 9f c2 bc c6 29 61 3a 56 0e 48 bd 6b c9 96 3c
       -0.023757715 0.00085892936 -0.048841797 0.01840659
000330 fd 64 88 bb 3d 4c da 3c dd 81 cd 3c 1e cb 2b bd
       -0.0041624294 0.026647681 0.025086338 -0.041941755
000340 98 8c 25 3d cf 5c fb 3c e2 3d 31 3d f7 da 28 3c
       0.040417284 0.030683903 0.043271907 0.010306112
000350 92 a9 4a 3d f2 eb a2 3c e9 6d 34 3d bf e4 bc bc
       0.04947812 0.019887898 0.04405013 -0.023058293
000360 e2 cd 1d bd ab ab 3e bd 05 58 19 3d 2b 6c f7 3c
       -0.038526423 -0.046550434 0.037437458 0.030202946
000370 8b 5f 44 bd 0b 24 a8 3c d4 7d 0d 3b 77 f7 26 bd
       -0.04794268 0.020525 0.0021589892 -0.040763345
000380 5b 2b b9 3c c6 c7 73 3d cf f7 c0 3c 6f 43 21 3c
       0.022603681 0.05951669 0.023555664 0.009842738
000390 68 c8 08 3d 76 49 08 3b 15 ac 63 3d 51 a4 49 3d
       0.033394247 0.002079574 0.055584032 0.04922897
0003a0 fd cd c3 bc 47 47 04 bd 4f 8a 05 3d fe a8 1f 37
       -0.023901934 -0.032294538 0.032602604 9.516485e-06
0003b0 13 3f a8 ba ea ab af 3c 5e 2c d7 bc 44 a7 29 3d
       -0.001283618 0.02144428 -0.026266273 0.041419283
0003c0 c0 c2 ac bc fc 65 c7 bc f8 34 1c bd ff c6 42 3c
       -0.021088958 -0.024340622 -0.038136452 0.011888265
0003d0 f6 2c 56 bc f7 ba eb 3c 76 7f 86 bb b2 56 17 bd
       -0.013072243 0.028775675 -0.00410455 -0.036947913
0003e0 9c 66 ac 3c fc 44 d4 3c a8 ac 45 bd 8d 17 22 bd
       0.021045022 0.0259118 -0.04826036 -0.03957324
0003f0 f3 00 40 3c c8 49 5b bc 9f a6 b2 bc 42 18 d3 bb
       0.011718976 -0.01338429 -0.021807967 -0.0064421007

module.conv_5.bias f4 [12]
000000 c1 b8 0e 3d c0 7f fe bc 05 82 d0 3c af 54 39 bc
       0.034844164 -0.031066775 0.025452623 -0.011311694
000010 8a 8e 19 3c f8 12 91 3d 6a 24 95 bc f6 8a e4 3c
       0.009372363 0.07083696 -0.01820584 0.027898293
000020 17 de 80 3c b6 25 14 3d b1 23 5b 3d 43 e4 39 3d
       0.0157309 0.036168776 0.053500835 0.045383703

module.conv_6.weight f4 [12, 12, 3, 3, 3]
000000 a4 ec f9 3c 2b 92 24 bd 5a 0e 3b 3d 96 c4 9d bc
       0.030508347 -0.04017846 0.045667984 -0.019258779
000010 93 1d 09 3d 60 73 15 3c 40 65 2d bd 5c 8b 57 3d
       0.03347547 0.009121746 -0.042332888 0.052623138
000020 d6 38 a2 bb 00 df 48 bd 9a 45 1f 3d 87 91 a6 3c
       -0.004950623 -0.049040794 0.038884737 0.020333065
000030 fc 19 5c bd 5e 4b 15 3c 2d 75 45 3d 60 27 bb 3c
       -0.053735718 0.009112207 0.04820745 0.022845924
000040 9c 67 17 bd 50 44 ea bc ee aa 3f bd bb b8 34 bd
       -0.036964044 -0.028597027 -0.04679387 -0.044121485
000050 46 52 48 bd 7b 1a 50 3d 41 43 36 bd f7 45 e3 3a
       -0.048906587 0.050806504 -0.044497732 0.0017339577
000060 2f e4 9a 3b 42 5d 9c 3b b7 7b 81 3c af ed 4c bd
       0.0047269086 0.0047718594 0.015806062 -0.05003136
000070 55 15 96 3a b9 19 16 3d 9c 82 23 ba 24 7f 97 bc
       0.0011450449 0.036645625 -0.0006237419 -0.018493243
000080 5e 9c 2b 3c 6c 7a f8 bc 82 65 aa ba ad 3e a9 bc
       0.010474293 -0.030331813 -0.0013000222 -0.020659769
000090 03 5d 2e bc b2 8b 71 bd 90 a2 c0 b9 2c 84 04 3d
       -0.010642293 -0.058971114 -0.00036742212 0.03235261
0000a0 77 35 73 3a 1a 1f d2 bc cd d4 4e bd 1d 49 77 3d
       0.0009277681 -0.025649596 -0.05049591 0.06037246
0000b0 f3 4c ab 3c b7 37 1b bd 91 63 0f bd fd 8a 81 bc
       0.020910716 -0.03789493 -0.035007063 -0.015813345
0000c0 42 e9 b8 bc 51 83 28 3d d2 1b 27 3c c2 f6 64 3d
       -0.022572163 0.041140858 0.010199504 0.05589939
0000d0 90 6b 9c 3c e7 99 21 3d e8 36 4a bd 83 63 11 3d
       0.019094259 0.039453413 -0.04936877 0.035495292
0000e0 6a b0 90 bb e7 7f b1 3c a1 05 22 3d 5f e1 fc ba
       -0.0044155614 0.021667434 0.03955615 -0.001929324
0000f0 3c a9 1b bd 4f 95 48 bd 29 2f a5 3c 40 23 94 3a
       -0.03800319 -0.048970517 0.02016409 0.0011302009
000100 da a8 08 bd 77 cb 52 3d 97 37 69 bd 54 e5 2a bc
       -0.033364154 0.05146357 -0.05693778 -0.010430653
000110 59 dc 3b bd 67 29 6f bd 49 ef 37 bd 6e 80 fe 3c
       -0.045864437 -0.058389094 -0.044905934 0.0310671
000120 d3 1b d7 bc ec 15 f2 3c 24 5b b2 3c 53 23 55 bc
       -0.026258385 0.029551469 0.021771975 -0.01300891
000130 cd 58 62 bd 54 aa b5 3b ab a2 b0 ba ac 9d 07 bd
       -0.05526047 0.0055439863 -0.0013476213 -0.033109352
000140 9e 51 cc bc 8a 91 5e 3c 4c fc 8c 3c 2e 2f d1 3c
       -0.024941262 0.013584504 0.017210148 0.025535192
000150 12 f5 41 3d 99 ae d6 bc aa 25 51 3c 88 c7 cb 3a
       0.047352858 -0.026206302 0.0127653275 0.0015547136
000160 f6 59 6c 3c 88 5e 73 bb 03 14 9b bc a4 a7 98 3b
       0.014425745 -0.0037135202 -0.01893044 0.004658656
000170 95 9a ff ba c1 50 14 3d 66 70 e3 bc 32 0c 61 bc
       -0.0019501025 0.036209825 -0.027763557 -0.013735818
000180 79 76 8e bc 24 8e e5 bc a5 e6 49 bd 77 7f 1f bd
       -0.017390477 -0.02802188 -0.049292225 -0.03893992
000190 35 5c fc 3c cd 6a 3f 3d 1c 1c 0f bd 08 13 ce bc
       0.030805686 0.046732713 -0.034938917 -0.02515556
0001a0 c6 4e e1 3c 92 69 f3 3c ad 0f b9 bb fb 18 5d bd
       0.027503382 0.029713426 -0.0056476207 -0.0539789
0001b0 00 c6 67 3d 3c 17 45 bc 76 2b 1b 3d ea f1 c1 3c
       0.056585312 -0.012029465 0.037883244 0.023674924
0001c0 f6 4c 6a 3c f9 bb 65 3d 2f 0b 84 bc b9 c3 a6 bc
       0.0143005755 0.056087468 -0.016118614 -0.020357
0001d0 d2 52 42 3c 46 37 c8 3b ee f1 ed 3a 39 e9 aa 3c
       0.011860566 0.0061101047 0.0018153766 0.020863162
0001e0 18 8d 46 39 fb ff 24 3d 20 2f 75 bb 51 2a d3 bc
       0.00018935313 0.040283184 -0.0037412122 -0.025777014
0001f0 a2 a1 e2 3c 1e 6c 92 3c 89 d1 1c 3d 18 29 6f bb
       0.027664963 0.01787382 0.038285766 -0.0036493
000200 14 35 a9 3c ff b0 08 bc 33 75 2f bd c3 5b b6 bb
       0.020655192 -0.00834298 -0.04283638 -0.005565138
000210 1f ad 56 3d ff f5 10 bc d7 95 51 3b 86 4c 04 bd
       0.052411195 -0.008847713 0.003198018 -0.03229954
000220 1a d5 13 bd 96 2d c6 bc 28 33 33 3d 5c 63 eb bb
       -0.0360919 -0.024191659 0.04374996 -0.0071834754
000230 5a aa b2 3c 2a d2 07 3d c3 c3 5b 3d 48 a6 c6 3c
       0.021809746 0.033159412 0.05365349 0.024249211
000240 1f f7 3b 3c 9a 52 f0 3c 96 63 92 3c 80 52 5e bd
       0.0114724925 0.029336262 0.017869752 -0.054277897
000250 c6 52 5c ba df 14 67 bd 56 30 4a 3d 7c 12 3e bd
       -0.0008404668 -0.05641639 0.049362503 -0.046404347
000260 ba e4 46 3d 00 2c b8 ba 00 2a a8 3c 92 14 3f bd
       0.048557974 -0.0014051199 0.02052784 -0.046650477
000270 b8 73 fa bc 91 30 66 bd 23 0a b5 bb 78 cd 09 3d
       -0.030572757 -0.05619866 -0.00552489 0.033643216
000280 23 be 47 bd 58 ab 3a bd cb d0 f0 3c d6 29 d9 3c
       -0.048765313 -0.045573562 0.029396435 0.026509207
000290 aa 1d f3 3a 55 f5 38 bc 9b e5 dd 3b 94 4b 97 3d
       0.0018548269 -0.01128896 0.006771756 0.07387462
0002a0 21 db e1 3c 85 31 64 bc da 08 44 3c 3e 68 72 bd
       0.02757031 -0.013927822 0.011965001 -0.059181444
0002b0 90 b9 8f 3d af c6 8e bc 67 36 47 bd 0a 08 26 3d
       0.07017815 -0.017428724 -0.048635866 0.04053501
0002c0 4f 08 b5 3c 16 e4 a4 bc 31 79 ac ba db 79 08 bb
       0.022098688 -0.020128291 -0.0013158676 -0.0020824585
0002d0 6c 5d 0b 3c e8 a1 59 3d 19 ca ca bc 93 4a ee bb
       0.00850616 0.05313292 -0.02475457 -0.0072720735
0002e0 6f f4 a2 bc 83 20 55 3d 1a 97 a1 bc 17 c2 11 3c
       -0.019891946 0.05203296 -0.019725371 0.008896372
0002f0 39 36 96 3a 7b 5a c6 bb 52 6f 57 3d 09 f2 f5 bc
       0.0011460251 -0.0060532666 0.052596398 -0.030022638
000300 0c 20 fe bb 69 68 c5 3c 22 38 3c 3d ec d7 21 bd
       -0.007755285 0.024097638 0.04595197 -0.03951256
000310 ad 50 0c 3c ba a2 80 3c 0d a2 79 bc 7c a3 cb bc
       0.0085641565 0.015702594 -0.01523639 -0.024858229
000320 5a 1b 13 3d 32 79 48 bd dc 94 c7 bc 68 cb e5 bb
       0.035914756 -0.048943706 -0.024362974 -0.0070127733
000330 d4 74 4b bd 06 ff 35 3c e1 d3 49 bd 11 37 84 3a
       -0.049671963 0.011108166 -0.04927433 0.0010087212
000340 c3 e0 45 3d 4b 19 a0 bc f5 52 2c 3d d4 ad 4b bd
       0.048310053 -0.01954331 0.0420713 -0.049726322
000350 39 d0 52 bc 74 66 45 bd fc e7 39 3c 92 91 5b bd
       -0.012867027 -0.04819341 0.011346813 -0.053605624
000360 45 ca 07 3d 85 3d a5 bc cb 2e b1 bc e2 a7 24 3d
       0.033151884 -0.020170936 -0.021628758 0.040199168
000370 08 75 9f 3b dc cc 47 bd af 26 1f 3d 0b b3 27 3c
       0.004866246 -0.048779353 0.03885525 0.010235558
000380 0d 82 0f 3d b5 b3 a1 bc 29 fa 04 3d b5 e6 1e bc
       0.035036135 -0.019739011 0.032465134 -0.0096985595
000390 13 5c e6 3b bf 7c a8 3a db fb 17 3d aa 01 7b bc
       0.007030019 0.001285456 0.037105422 -0.015320221
0003a0 94 c5 73 3d 3a fa a8 3c b9 50 b9 bb 36 d3 1a bd
       0.059514597 0.02062713 -0.005655375 -0.037799083
0003b0 2a ed 2a 3d 95 de 13 3d 96 d4 dc bc f5 99 ee bb
       0.041730084 0.036100943 -0.026956838 -0.0072815367
0003c0 9e 7b 57 3d 94 71 b1 bc 76 ef a5 bc 0b ad dd bb
       0.052608125 -0.021660604 -0.020255785 -0.006765013
0003d0 da 73 51 bb e5 5d cf 3c c1 a3 cb 3b 7a 6e c7 bc
       -0.0031959922 0.025313327 0.0062145893 -0.024344672
0003e0 d4 cb 48 3d 66 8f 28 3d 2f ce 7d bc 39 e5 0e 3d
       0.04902251 0.04115238 -0.0154910525 0.034886573
0003f0 e7 63 50 3d a8 ec 79 3c a1 82 17 3d eb 70 64 bc
       0.050876524 0.015254177 0.03698981 -0.013942937

module.conv_6.bias f4 [12]
000000 9f 3a 1e 3d 01 88 52 bd 96 9a ae 3c 30 26 da 3a
       0.038630124 -0.051399235 0.021313947 0.0016643461
000010 dc cc 0a bd f5 0e f6 3c b7 53 d1 3c 29 d2 ef 3c
       -0.033886775 0.030036429 0.025552614 0.029275017
000020 86 f5 51 bc 9d 71 8c 3d 67 2b a0 3c 24 49 aa bc
       -0.012814885 0.068576075 0.019551946 -0.02078683
