model3/FSRCNN3D_epoch_50.pth (torch, 265262 bytes, 15 tensors)

module.conv_1.weight f4 [56, 1, 5, 5, 5]
000000 53 71 21 bd c4 4a 91 3d 32 42 5d 3d 04 fa a7 3d
       -0.039414715 0.070943385 0.054018207 0.082019836
000010 e8 ae 8f 3d 97 5d 90 bd e6 13 02 3d b4 38 9b bd
       0.070157826 -0.07049101 0.031757258 -0.07579175
000020 d9 be 1c 3d 2d 74 a4 bd 93 eb ee 3b 31 b9 6d 3d
       0.038267944 -0.08029971 0.007291266 0.05803794
000030 74 9a c8 bd 12 42 58 bc 3a 4c 61 bd 0a ad 51 3c
       -0.097950846 -0.013199346 -0.055004336 0.012797603
000040 cd 43 36 bd aa 82 2d bd 3e b3 87 bd 78 f9 e7 bc
       -0.044498254 -0.04236094 -0.066259846 -0.028317198
000050 56 db a2 bd 06 8d c7 bc 4a 1f 7c bd 67 67 80 bd
       -0.07951991 -0.024359237 -0.061553277 -0.062697224
000060 e1 fc ac 3d e6 30 5f 3d 54 a7 2a bc 7d 25 a1 bd
       0.0844667 0.054489993 -0.010415871 -0.078684784
000070 de 4b 16 bc 53 b6 80 bd 2e 00 a1 3c ce 98 c7 bd
       -0.009173362 -0.062847756 0.019653406 -0.09745942
000080 88 68 57 3d e2 4a 9e bd ad 8f cb bd 9e a3 76 3d
       0.052589923 -0.077291265 -0.09939513 0.06021463
000090 37 de 96 bd c8 04 c8 bc f4 22 53 bd 6e c8 96 bd
       -0.07366603 -0.024416342 -0.051547006 -0.07362448
0000a0 c2 46 64 bc d0 1e bf 3b d4 9e 63 3d e2 cb 90 bd
       -0.013932886 0.0058325306 0.055571392 -0.070701376
0000b0 c6 6a 89 3c 32 69 bf bd 3b ac 32 3b a7 3e cb 3a
       0.016774546 -0.09346236 0.0027263302 0.0015506343
0000c0 eb ce bb 3c b7 7c 6e 3d c9 1b 7a 3d 91 c4 68 3b
       0.022925815 0.058224406 0.061061654 0.0035517553
0000d0 10 4f 9b bd 6d e4 15 3d 70 92 7e 3c 52 f8 47 bd
       -0.07583439 0.036594797 0.015537843 -0.0488208
0000e0 67 da 51 3d a0 60 5a 3c 47 3c 24 bb 1f 70 d9 bc
       0.051233675 0.013328701 -0.0025060342 -0.026542721
0000f0 f8 ab ab 3b 7a de bb bc e0 3f 05 3d c8 68 9d bd
       0.005239006 -0.022933234 0.03253162 -0.07686001
000100 de 0e a0 bd c2 1a c1 bd e7 5f 42 bd ed f4 7e 3d
       -0.07815336 -0.09428932 -0.04745474 0.0622453
000110 66 c3 10 3d 57 7d ae bd 8f 63 ce 3c 9e db e4 3c
       0.035342596 -0.085200004 0.025193958 0.027936753
000120 77 b6 54 bd 16 2d 98 bd 3b 88 9e bd 04 54 5c bd
       -0.051931825 -0.074304745 -0.07740828 -0.05379106
000130 33 36 46 3d c0 07 28 bd c1 08 9e 3c 80 31 da 3c
       0.048391532 -0.041023016 0.019291284 0.026634932
000140 2b 08 6c bd e2 62 58 3d 54 cc ac bd d7 98 67 bd
       -0.057624977 0.052828677 -0.0843741 -0.056542244
000150 da 54 4e bd 5a ff 69 3d e6 58 ef bb 5b 3a 29 3c
       -0.05037389 0.057128288 -0.0073042987 0.010328854
000160 83 1b 42 bd e5 ea 58 bc e5 ff 89 bd 18 c6 e9 3c
       -0.04738952 -0.013239597 -0.06738261 0.028536841
000170 49 86 aa 3c 75 5c 8f bd 8b 4f f0 3c f6 1b fc bc
       0.020815985 -0.07000057 0.029334804 -0.030775052
000180 ba 70 30 bd 2b 9a 56 bc e7 ab 85 3d 79 e7 7b bd
       -0.043076254 -0.01309828 0.065269284 -0.061500046
000190 a7 81 21 3d 3e 2f bd 3d 0c b3 d1 3d fe 7e 5c 3d
       0.039430287 0.09237526 0.102392286 0.053832047
0001a0 9a f8 01 bd ab be 4e bd fb 0c 49 3d 14 d2 10 bd
       -0.031731226 -0.050474804 0.049084645 -0.035356596
0001b0 c4 e1 bb bd 75 0f 9a 3b d7 8e e9 3c b2 0b c6 bc
       -0.09173921 0.0047015497 0.028510494 -0.024175499
0001c0 cf 3e 56 3d 06 4b b8 3c 15 60 dc 3c 6d 8c aa bd
       0.052305993 0.022496711 0.026901284 -0.08327565
0001d0 40 a9 21 3d 8e ce ca 3b d1 34 70 3b 56 5b 12 3d
       0.03946805 0.006189174 0.0036652575 0.035731636
0001e0 d5 e6 4a bd 46 1b 45 bd e6 57 7b bd 8e 5c 74 bd
       -0.049536545 -0.048121713 -0.061363123 -0.05965858
0001f0 52 bb 10 bd 7f 2e 25 bd ee e0 e1 bb 89 bf bb bc
       -0.035334893 -0.040327545 -0.006893269 -0.02291848
000200 24 6f 93 bd c5 e6 23 3c 7d 3a 08 bd 53 ce be 3d
       -0.07198933 0.01000375 -0.033258904 0.09316697
000210 65 9d 97 bd d6 d4 33 bc 5e c6 37 3d 91 46 f8 bc
       -0.074030675 -0.010976037 0.044866912 -0.030307086
000220 39 0c 53 3a 7f 47 6f 3d a6 32 25 3d ed 19 14 bc
       0.00080508325 0.058417793 0.040331505 -0.009039384
000230 d7 5f 96 bd 66 67 cd bc 96 5a 0f 3d 41 4d 8a bd
       -0.07342499 -0.025073718 0.0349985 -0.06753016
000240 12 4e 9d 3d 2f e8 bb bb 8d b3 49 3d f4 17 90 3c
       0.07680906 -0.0057344656 0.0492435 0.017589547
000250 d8 e0 fe 3c 8a 26 6e 3d 95 01 10 3d 84 62 9c 3d
       0.031113073 0.058142222 0.03515776 0.07635978
000260 04 b8 74 3d b7 ab 9e bd 57 7a 82 bd 81 24 00 3d
       0.059745803 -0.07747596 -0.06370991 0.031284813
000270 f7 cd 3e bd 3c 69 2c bd 09 73 6a 3d 0d 83 41 3d
       -0.046583142 -0.042092547 0.057238612 0.04724412
000280 65 db 04 3b 99 e2 1e 3d 3a fa 42 bd bd c0 86 3b
       0.002027237 0.03879032 -0.047601916 0.0041123317
000290 f3 31 bf 3c b6 5b b1 3d 65 2d 8a bd 80 2e 0c 3d
       0.023339247 0.086600706 -0.067469396 0.034224033
0002a0 b9 b4 81 3b be 89 ae 3d d9 66 3d bd 95 eb 9a bd
       0.0039583114 0.08522366 -0.04624066 -0.07564465
0002b0 88 ad 42 3d 79 29 6e bc 11 a2 96 3d d7 b8 cc 3d
       0.047528774 -0.014536255 0.073551305 0.09996193
0002c0 bc 2f 7c bd dc dd 35 bb f2 ea 84 3b 41 a1 8b 3d
       -0.06156896 -0.0027750647 0.004056328 0.06817866
0002d0 31 06 89 3d b7 45 a8 3d 86 44 9a bd 5b 58 fb bc
       0.06690634 0.08216422 -0.07532601 -0.03068178
0002e0 16 9b a6 3d 89 3c 6b 3d a8 55 b3 bc 79 2b 97 3d
       0.08135049 0.057430778 -0.02189143 0.073813386
0002f0 f2 6d 3c 3d a5 6c 9e 3d 61 3a 29 3c dd 69 61 bc
       0.04600329 0.07735566 0.01032886 -0.01375815
000300 a3 e0 8b 3d e8 df 32 3d c6 1b b0 3d a5 92 a9 3d
       0.068299554 0.043670565 0.08599047 0.08279923
000310 99 2b 14 3b 71 4b 3c 3d 73 c1 04 3d 28 5b b1 3d
       0.0022608994 0.045970384 0.03241105 0.08659965
000320 13 69 05 3d c7 ac 39 bb 9e 36 86 bd 70 15 5c 3c
       0.03257091 -0.0028331743 -0.06553386 0.0134328455
000330 d4 eb 36 bc c4 33 9b bc a1 19 01 bd 8c dd b2 bd
       -0.011164624 -0.018945582 -0.031518582 -0.08733663
000340 38 b6 98 3d 5d 41 8c 3d d2 0d e6 3c d6 30 8a bd
       0.074566305 0.068484046 0.028082762 -0.06747596
000350 8e b3 1c 3c d6 de 11 3d d8 64 74 bd 1d 92 69 3d
       0.009564294 0.035612904 -0.059666485 0.05702411
000360 08 cb cc 3c 1b 1f 66 bb aa 31 ba 3d e8 ae 4c bd
       0.024999157 -0.0035113755 0.09091504 -0.04997149
000370 69 63 aa 3d 28 27 d1 bc 65 ae 51 3d fe 8f 63 bd
       0.08319742 -0.025531366 0.051191706 -0.055557244
000380 eb 07 a5 bd e0 c7 bf bc 26 27 14 3c f7 3c 42 bc
       -0.08058151 -0.023410738 0.009042537 -0.011855355
000390 be 3a d3 3c bc 74 77 bd 81 88 1b bd 7b d8 17 bc
       0.025784846 -0.06041406 -0.037971977 -0.009267922
0003a0 8e 19 87 bd 4c 52 b8 3d 52 70 00 3c 9b ce 88 bd
       -0.06596671 0.09000072 0.007839279 -0.06680032
0003b0 ab a3 11 3c af 9b 8c 3c 54 25 a6 3c 2f 1b b4 3c
       0.008889119 0.01716408 0.020281471 0.021985618
0003c0 75 7e 1e 3c 74 78 13 bd 28 0a 51 bd 7a 8c 42 bd
       0.009673704 -0.036003545 -0.051035076 -0.04749725
0003d0 17 76 a7 3d 6f 97 29 bd 2f b2 88 3a a6 67 54 3c
       0.08176821 -0.041404184 0.0010429079 0.012964165
0003e0 3d b6 44 bd 1a 21 c8 bc c5 71 79 3c d0 52 32 bd
       -0.04802536 -0.024429847 0.015224879 -0.043536007
0003f0 45 e9 57 bd db 36 93 3c 78 ef c9 3d de d4 44 3d
       -0.052712698 0.017970493 0.09860128 0.04805457

module.conv_1.bias f4 [56]
000000 8c 92 1f 3d aa 92 05 3d cb c1 c0 3d f0 15 ac bc
       0.038958117 0.032610573 0.09411963 -0.021006554
000010 4f 38 a9 bc 12 ec 34 3d 64 ef 98 3c 54 7d 43 bd
       -0.020656733 0.044170447 0.018668838 -0.047726944
000020 db 0d 93 3d eb 06 eb 3c 40 e2 99 3d 9f fe 8d 3d
       0.07180377 0.028689822 0.07513857 0.06933331
000030 f4 2d 9a 3d 2b 81 98 3d 81 91 a1 3d 2c 8a 39 bc
       0.07528296 0.07446512 0.07889081 -0.011324447
000040 bb ef 49 3d 96 e9 70 3d df ae ff bc 48 51 75 bd
       0.04930089 0.058816515 -0.031211315 -0.05989197
000050 c0 1d 70 bd 19 d0 12 3d 8c d5 29 bd f6 86 80 bc
       -0.05862212 0.03584299 -0.04146342 -0.015689354
000060 b1 ab a6 3d b2 d3 43 bc 1a 02 28 3d 44 f7 82 bd
       0.08138216 -0.011952328 0.04101763 -0.063948184
000070 c4 71 33 3d 4d 3e 4f 3c 12 f3 49 bd dd fb 9a 3c
       0.043809667 0.012649131 -0.049304076 0.018918926
000080 4c de e6 3c 7f ae 60 3d e0 04 0a bd 65 63 ee 38
       0.028182171 0.054853912 -0.033696055 0.00011367238
000090 17 fd ba 3a f7 a7 3f 3d 63 ec 7f 3d f5 e2 bc bc
       0.00142661 0.046791043 0.062481295 -0.02305744
0000a0 c4 21 a5 3c 47 9f 85 3d 1a 8b 09 bd 33 f1 b1 3d
       0.020157702 0.0652452 -0.033579923 0.08688583
0000b0 39 dd 4f bd 0d 2b 88 3d fd 70 ab 3d ba 00 3c 3b
       -0.050748084 0.06648836 0.0837116 0.0028686957
0000c0 c5 31 a8 bd dd 2e 4f 3d 22 c5 4f 3b db 81 78 3d
       -0.08212618 0.0505818 0.0031703194 0.060670715
0000d0 18 ff be bc 34 d9 97 3d 0c 19 93 3d 50 d0 16 bd
       -0.023314998 0.07414475 0.07182512 -0.036819756

module.conv_2.weight f4 [12, 56, 1, 1, 1]
000000 09 f3 08 3e bb ff f3 3c 52 91 86 bd 83 c3 21 3d
       0.1337396 0.029785028 -0.065706864 0.039493095
000010 c6 e9 02 be 69 72 21 bd 2e 31 6e 3d ae aa 51 3c
       -0.1278449 -0.03941575 0.05815237 0.012797041
000020 8f 46 6f bd 67 1f bd 3d 77 d1 cf bd 72 c7 ef 3d
       -0.0584169 0.09234505 -0.10147374 0.11707963
000030 03 74 16 bd e1 11 cf bc 58 5e 46 3d 68 ca 06 3d
       -0.03673173 -0.02527708 0.048429817 0.032907873
000040 5c 00 72 3d 49 2c ec 3d 50 f7 9e 3b ee 1b 1f bd
       0.059082374 0.11531884 0.0048512593 -0.038844995
000050 7a 18 db bd d2 ce 08 3d e5 b7 b2 3d f7 d1 0c 3d
       -0.10698028 0.033400364 0.08726481 0.034379926
000060 f5 fd 19 3b c4 bc 7d 3d 04 40 76 3c 2c 05 12 3c
       0.0023497317 0.0619476 0.015029911 0.008912366
000070 53 5f 8d 3d d2 4e e7 3c 44 a9 1d 3e 4f 71 9d 3d
       0.06902947 0.028235827 0.15396601 0.076876275
000080 dc 03 47 3d 33 6f 77 3c 84 90 bb 3d 0a 81 a6 3d
       0.048587665 0.015102196 0.091584235 0.08130081
000090 ab a6 02 3e fd ae 39 bd 09 5e b4 3d 87 1d 37 3e
       0.12758891 -0.045332897 0.08806998 0.17882358
0000a0 16 89 56 3d 3a e9 e5 bd f1 92 0a 3e 3e 6f 3f 3d
       0.05237683 -0.11226125 0.13532616 0.04673695
0000b0 6b a3 c1 3b b4 d1 32 bd 9a c5 39 3d 7e a4 a6 3d
       0.0059093735 -0.04365702 0.045354463 0.08136843
0000c0 a4 84 96 3d e6 20 ea 3d f2 53 3f 3d f4 d8 10 bd
       0.07349518 0.11432056 0.046710916 -0.035363153
0000d0 57 fa d9 3d e4 ee c7 3d 17 29 49 bd 27 93 27 3d
       0.10643452 0.09762362 -0.049111452 0.04091182
0000e0 ba c2 17 be a1 d9 f8 3d c1 d0 ee bc 3a b5 dd 3d
       -0.14820376 0.121508844 -0.029152276 0.10825582
0000f0 93 06 84 bd 6c 4a 67 bd 0d 70 04 bd e0 1e ff bd
       -0.064465664 -0.05646746 -0.032333422 -0.12457061
000100 d0 96 87 3d f3 41 59 3d 64 ea 1a bd d3 d4 97 3d
       0.06620562 0.05304141 -0.03782119 0.0741364
000110 70 49 01 3e 74 f2 05 3e 38 8b 0c be c7 65 db 3c
       0.1262567 0.1308077 -0.13724983 0.02678193
000120 84 a7 af 3d 1b 49 df bd 95 68 05 3e de 2a d6 3d
       0.08576873 -0.10902616 0.13028176 0.10457395
000130 09 46 04 3e 4a f8 af bd 6f a1 25 3d 70 ac 0a 3e
       0.12917341 -0.08592279 0.04043716 0.13542342
000140 d9 f7 aa bc 08 f5 d2 bc dc 9f 08 be 46 18 5c bd
       -0.020870136 -0.025751606 -0.13342232 -0.053734086
000150 7e a6 aa 3c 69 c0 79 3d 7b f2 c8 bc 83 93 6f bb
       0.020831343 0.060974512 -0.024529686 -0.003655643
000160 de d9 00 be 4b d4 9b bd ea 7a 45 bd 1c b6 1e be
       -0.1258311 -0.07608851 -0.048212923 -0.15499157
000170 2d a3 00 3e a0 68 6f bd 00 c1 97 bd 53 03 c3 bd
       0.12562247 -0.058449388 -0.07409859 -0.095221184
000180 e5 ec e4 3d 6e c8 b9 bd 22 75 f9 bd 5f 28 81 bd
       0.111779965 -0.09071432 -0.121805444 -0.06306528
000190 71 84 3c 3d 3d 0b 0a 3d e5 b8 06 be a8 f4 7b 3c
       0.046024743 0.033702124 -0.13156469 0.015378155
0001a0 28 73 f3 3d 05 ca e0 3d 87 05 c1 3c 28 01 bf bd
       0.11887199 0.10976032 0.023562206 -0.093263924
0001b0 42 6b bc 3d 04 b7 0c be f6 f6 13 be 0d f1 3c 3d
       0.09200145 -0.1374169 -0.14449677 0.04612832
0001c0 f8 b7 c7 3d d7 fa 9d bd f0 65 4e bd a4 7b c6 3c
       0.09751886 -0.077138595 -0.050390184 0.024228878
0001d0 62 d9 f0 bd a5 9d 1c 3d d7 2a 13 3e ff 6c a4 bd
       -0.117602125 0.03823628 0.14371811 -0.08028602
0001e0 11 a6 00 be d8 5d 17 bc 3b 78 a6 3d f5 84 94 3d
       -0.1256335 -0.009238683 0.08128401 0.07251922
0001f0 1c bf bc 3d 77 81 91 bd 61 cd c0 bb 11 d6 e0 bd
       0.09216139 -0.071047716 -0.005883858 -0.1097833
000200 d5 33 d3 bd bf 6b e6 3d 85 2f 02 3e 82 47 0b 3e
       -0.103126206 0.1125102 0.1271344 0.13601497
000210 5e b6 be 3d 9c c4 de 3d aa f1 92 3d 1a fd db 3d
       0.093121275 0.10877344 0.07175 0.10741635
000220 d8 59 38 bd a9 42 08 be b1 16 b1 bd ce e3 a3 3a
       -0.045007557 -0.13306679 -0.08646906 0.0012503804
000230 b5 44 36 bd 6a ab d9 bd 73 da 05 be 2f 1d 96 3d
       -0.044499118 -0.10628398 -0.13071613 0.07329785
000240 e0 2f f6 3d d5 ec 1f bd b2 74 c5 3c 77 6f b5 bd
       0.1202085 -0.03904422 0.024103496 -0.08859151
000250 cb e1 ba 3d a9 3a 1f be 68 cd 14 bd 41 bb 04 bd
       0.09125098 -0.15549721 -0.036328703 -0.03240514
000260 68 af 00 be fa 04 8b 3d c3 e3 b4 bc 6f 09 c8 bb
       -0.12566912 0.067880586 -0.022081262 -0.00610464
000270 f7 28 94 3d 12 86 bd 3b 03 8c bf bd e7 3b 66 bc
       0.07234376 0.0057838047 -0.09352877 -0.014052368
000280 64 38 8e 3d 92 83 51 bb 59 19 9d 3d c8 35 a5 3d
       0.069443494 -0.003196929 0.0767085 0.080668986
000290 8b f1 36 3d 7c 73 8e 3d de d8 2d bc d6 2c 33 3d
       0.044663947 0.06955621 -0.010610787 0.04374393
0002a0 c3 c1 3e 3d 97 32 cb 3d 22 d8 17 3e 09 1f ad 3b
       0.046571504 0.099217586 0.14828542 0.0052832407
0002b0 6b 92 39 3c e9 9c 82 3c b5 8d 12 3e 76 c8 b9 bd
       0.011326413 0.015943961 0.1431187 -0.09071438
0002c0 ad 09 f1 3d 1c bb eb 3d 60 32 6c 3d 21 6f de bc
       0.11769424 0.11510298 0.05766523 -0.0271526
0002d0 36 b8 18 bd 79 98 e0 3d da e7 02 3e f2 de 10 be
       -0.037285052 0.10966582 0.12783757 -0.14147547
0002e0 f5 1c 1d 3e 58 4d ca bc 2e 23 fb 3c 0f 04 13 3d
       0.15343077 -0.024695083 0.030656423 0.035892542
0002f0 f1 2c 00 be 86 87 0c 3d 0a 78 8a 3d 14 76 ab 3d
       -0.12517144 0.034308933 0.06761177 0.08372131
000300 21 e4 c8 bd 53 b7 6a 3d b4 5b de bc 41 cf e9 3c
       -0.09809137 0.057303738 -0.027143337 0.02854121
000310 f1 aa f1 3d 4d e9 d9 bd 46 f2 80 3d aa b8 83 bd
       0.118001826 -0.10640202 0.0629621 -0.06431706
000320 81 84 99 bd 2c e2 55 3b 83 fe 06 3e aa cd e0 3d
       -0.07495976 0.003263603 0.13183026 0.10976727
000330 f1 0b a9 bd b8 28 a5 3d f2 3d 05 3e a9 22 04 be
       -0.08254231 0.08064407 0.13011912 -0.12903847
000340 32 87 d3 3d 77 fe c7 bd 13 37 f3 3d 95 f0 c2 3d
       0.10328521 -0.09765332 0.11875739 0.09518544
000350 fd 30 91 3d 62 8e 68 bc 9e aa 36 bc c2 da 08 3e
       0.07089422 -0.014194103 -0.011149077 0.133647
000360 2a 41 64 bd af b1 75 bc 71 cf 8c 3d 18 d8 ae 3b
       -0.055726208 -0.014995976 0.06875504 0.005335819
000370 9f 54 c6 3d e0 81 2e bd c7 96 81 bd 47 0d 13 bd
       0.09684109 -0.042604327 -0.063275866 -0.035901334
000380 49 61 23 be bc 0d ec 3d ea 61 cc 3d dc 23 0c be
       -0.1595508 0.11526057 0.09979613 -0.13685554
000390 05 8d be 3d d9 3b 05 be e0 ec 0a bd d9 28 90 3c
       0.09304241 -0.13011111 -0.033917308 0.017597603
0003a0 df 2b f9 3d ba d0 d5 bd ff 7f c2 3d 72 98 22 be
       0.12166571 -0.10440202 0.094970696 -0.15878466
0003b0 c3 8f cc 3d b3 08 06 bd 6c ce 0a bd 98 b9 05 bd
       0.09988358 -0.03272314 -0.033888265 -0.0326477
0003c0 c7 50 81 bd bc ec 23 be 3e ad a3 3d 0c a2 9f bd
       -0.06314235 -0.16008276 0.07992028 -0.0779458
0003d0 c4 7d ec bd 1d b0 cf 3d 7c 10 ba 3d f2 65 ef 3d
       -0.115474254 0.10141013 0.090851754 0.116893664
0003e0 5f ac 32 bc 0b 08 9e 3c 2a fe 0e ba b6 ed 04 3d
       -0.010905354 0.019290945 -0.00054547435 0.03245326
0003f0 93 d4 c4 bd 7b aa f7 3d 9d 98 18 3e b7 e9 d8 3c
       -0.09610858 0.120930634 0.14901967 0.026478631

module.conv_2.bias f4 [12]
000000 8a e9 9c bd 7f 07 b0 3d 88 0e 08 3c 2c 29 d4 3d
       -0.076617315 0.0859518 0.008304246 0.103594154
000010 cb 6f ac 3d 15 10 a3 bd 25 64 b8 3d 84 e5 0b bd
       0.0841976 -0.07962052 0.09003476 -0.03415443
000020 91 11 b7 bd 0c 75 2f 3c da ec db 3c 81 4f 6b 3c
       -0.089388974 0.0107090585 0.026846338 0.014362217

module.conv_3.weight f4 [12, 12, 3, 3, 3]
000000 df 93 e0 3c f8 57 b1 bc 73 6e 00 3d 09 d8 ba bc
       0.02741426 -0.021648392 0.031355333 -0.022808092
000010 2a a9 dd bc 39 69 29 3c ad 8a 78 bc de 4b fc bc
       -0.027058203 0.010340028 -0.015169782 -0.030797895
000020 78 59 dc bc 16 3e 01 bd ec 71 67 bd 02 58 48 3d
       -0.02689813 -0.03155335 -0.05650513 0.048912056
000030 a9 e6 d9 3b e9 5a 3d 3c 21 ab f9 3b 6b 21 19 3d
       0.0066498113 0.011557319 0.007619277 0.037385385
000040 15 22 6f bd df 62 72 3c 6c 45 c2 bb 00 ca af 3b
       -0.058382113 0.0147940805 -0.005928686 0.0053646564
000050 48 0a 21 3a 38 e0 52 3d 5f e2 21 bc 04 ae 32 3b
       0.00061431946 0.051483363 -0.009880631 0.0027264366
000060 b9 4d 09 bc 31 94 48 3d 84 ba 0d bd 18 96 56 bd
       -0.008380347 0.04896945 -0.034601703 -0.052389234
000070 f0 c1 39 3d ce c6 b0 bb b6 ac 6d 3c 9f 75 56 3b
       0.04535097 -0.005394793 0.0145065095 0.0032723916
000080 75 09 10 bd 4a 1a 05 bd e9 1d 5e 3d 3c 7e df bb
       -0.03516527 -0.032495774 0.054227743 -0.006820468
000090 62 b2 5e bd 48 cc 1d bd ea 8d ce bc a8 2f 08 bd
       -0.054369338 -0.038524896 -0.025214154 -0.033248574
0000a0 f6 04 5f 3d 1c 51 4c bd 8d c8 43 bc d6 76 08 b9
       0.05444809 -0.04988204 -0.0119496705 -0.0001301424
0000b0 96 a3 94 3b 45 73 2e bd cd 38 02 3d c9 47 ab bb
       0.0045361025 -0.0425904 0.03179245 -0.0052270633
0000c0 52 78 2f 3c ba 2d 01 bd 0b b0 2b bd 88 a4 38 3d
       0.010709839 -0.03153775 -0.041915935 0.045078784
0000d0 ff c9 d0 3b 7c b7 6b 3d 9a 5b ab bc 61 53 29 bd
       0.006371736 0.05754803 -0.020917702 -0.041339282
0000e0 ab 9c 50 bd ac 14 5f 3c 56 f3 1c 3d e6 de 1c 3d
       -0.05093066 0.013615768 0.038318 0.03829851
0000f0 eb ba a9 3c aa 2d 16 bd 69 a4 3f bd 09 f7 39 bd
       0.020719012 -0.036664642 -0.046787653 -0.045401607
000100 f9 0c 1e 3d e5 7d f7 bc 18 e2 b2 3c 93 0f 12 3d
       0.03858659 -0.030211398 0.021836326 0.035659384
000110 d0 c3 b6 bc b5 b6 ae bb 65 4b 0d 3d a2 53 38 bd
       -0.022310168 -0.005331839 0.03449573 -0.045001633
000120 a1 d2 c8 bc 07 57 ca bc c8 89 e3 3c e6 97 08 bd
       -0.024514498 -0.024699701 0.02777566 -0.033347987
000130 e7 50 44 bd db 23 6f 3d 43 ab 08 bd f4 32 01 3d
       -0.047928717 0.058383804 -0.033366453 0.031542733
000140 41 7c 68 bb 34 47 1b 3d 25 3a 28 3c a6 20 4c 3d
       -0.0035474452 0.0379097 0.010267769 0.049835823
000150 da 3a c6 bc 95 12 15 bd 67 44 9e 3c 5c b7 4d 3d
       -0.024197984 -0.036394674 0.019319726 0.050223693
000160 df 3a b3 3c 02 8a 6c bc b6 ad da bb 86 01 50 bd
       0.021878658 -0.0144372005 -0.00667354 -0.050782703
000170 33 63 6e bc 2e 0b 79 bb 24 42 2f 3c d6 86 32 3d
       -0.014550018 -0.0038001048 0.0106969215 0.04358562
000180 59 2a aa 3c fa 16 27 bd 45 a6 2a bd 4b 03 56 3d
       0.020772146 -0.040793397 -0.041662473 0.052249234
000190 46 d9 1a bc 22 98 bb bc f7 a3 37 bc ab 19 de ba
       -0.009451216 -0.022899691 -0.011208526 -0.0016944906
0001a0 26 58 46 3d 38 c7 8d bc ab e9 2f bc 64 0a 9f bc
       0.04842391 -0.017306909 -0.010736863 -0.019414134
0001b0 02 cd 6e 3d da 3e cf b9 f3 30 11 bd d7 1c 6d 3c
       0.05830098 -0.00039528945 -0.035447072 0.014472208
0001c0 0a 1f bb bc dd b2 a2 3c c4 d2 ff bc df be 01 3d
       -0.022841949 0.01986068 -0.03122843 0.03167617
0001d0 d4 67 5f 3d fc 11 66 3d 74 6d 02 3d a2 2d 35 3d
       0.054542378 0.056169495 0.031842664 0.044232972
0001e0 00 24 2a bd 3e a1 0f 3d 4f f7 34 3c 24 8e 13 3c
       -0.04153824 0.035065882 0.011045291 0.009006057
0001f0 58 71 26 bc 41 7a f6 bc d9 95 2f bd 0d 94 97 3c
       -0.010158859 -0.030087592 -0.042867515 0.018503213
000200 02 81 9b 3c 82 8e ac 3c ba 52 63 3d ce 67 7e 3c
       0.018982414 0.021064047 0.055498816 0.015527679
000210 f2 e3 47 bd 75 df 2a bd cc 6c 96 bc 71 4b ae bc
       -0.04880137 -0.04171701 -0.018362425 -0.021276208
000220 c1 b3 a7 3c 48 2b 4c ba 54 20 33 3c 65 0f a6 bb
       0.020471456 -0.0007788432 0.010933001 -0.005067753
000230 18 ce b8 3c 1a 54 09 bd f8 34 01 bd ba 9e 4b bc
       0.02255921 -0.03352747 -0.031544656 -0.01242798
000240 f6 30 6e bd e9 26 13 3d 43 47 11 bd 38 4a de 3c
       -0.05815216 0.03592578 -0.03546835 0.027135
000250 7c 16 c5 b8 d8 62 d9 3c f4 ad 06 bd 21 ec 97 bc
       -9.39788e-05 0.02653639 -0.03288074 -0.018545212
000260 8c 8e 42 3c 31 8b 36 bb a4 54 95 3c 8b fe d0 3c
       0.011874806 -0.002785396 0.018228836 0.025512
000270 35 50 4d 3c c6 d9 28 3d 00 e8 8d 3c 55 df 88 3b
       0.01253133 0.04122331 0.01732254 0.004177014
000280 ab 40 51 3c 34 f5 65 3c e7 e9 b8 bc df 45 91 bc
       0.012771766 0.014035512 -0.02257247 -0.017733512
000290 f2 ce 86 3d 95 ed 86 bc 3d fa ea 3c 17 5c 10 3d
       0.065824404 -0.01647071 0.028683776 0.035244074
0002a0 40 af 4b 3c e8 27 5c 3d 64 75 87 3c da 81 9b bb
       0.01243192 0.053748995 0.016535468 -0.004745704
0002b0 99 ec 40 3d 47 a3 ea bc d3 7f 82 3d c8 21 6a 3d
       0.047100637 -0.02864231 0.06372037 0.057161123
0002c0 d0 a9 10 3d b3 09 30 3d 05 53 12 bc 4a c9 a7 3b
       0.035318196 0.042978 -0.008930926 0.005120431
0002d0 24 c9 0c bd b5 1a 8c 3d a5 0f 36 3d 2a ed 28 ba
       -0.03437151 0.068410315 0.044448514 -0.00064440316
0002e0 5a b8 b3 3c 3c a4 9a 3c 7c df d1 3c 49 52 e6 bc
       0.021938492 0.018877141 0.025619261 -0.028115408
0002f0 38 5e 25 3c 88 b9 2d 3c 00 66 90 3c 1a 0d 0f 3d
       0.010093264 0.010603316 0.017626762 0.034924604
000300 12 11 d2 3a cc 7a 94 3d 43 18 48 3c 02 65 f6 3c
       0.0016026816 0.07249984 0.012212816 0.030077461
000310 5f cf a0 3d f6 73 98 bc fb 4b 60 3d 08 f7 9d bc
       0.07852053 -0.018609982 0.05475996 -0.019282833
000320 d7 82 9f bc 98 dd 75 bd f1 6f 33 bd 8d 12 08 bd
       -0.019471569 -0.06002578 -0.043807928 -0.033220816
000330 c0 68 58 bd b2 5b 8b 3d 91 d6 53 3d 36 9f 08 3d
       -0.052834272 0.06804599 0.0517183 0.03335496
000340 7d a7 e2 bb db 18 4b 3d f2 a8 40 bd da c7 4e bc
       -0.006916939 0.04958425 -0.04703612 -0.0126208905
000350 a6 5c e9 bb 96 63 53 3d 8f 35 56 3b 78 f3 84 3c
       -0.0071216403 0.051608644 0.0032685732 0.016229376
000360 d4 5a 02 3d ad 52 6e 3b 1e 1d ce bc b3 5b 2a bc
       0.0318249 0.0036365197 -0.025160369 -0.010397839
000370 b4 23 52 3c 3c 45 b7 3c 90 0e f1 bc 85 11 75 bd
       0.012825895 0.02237188 -0.02942589 -0.05983116
000380 30 84 a5 3b fe ed 44 3c bb 65 c3 3c c7 a6 6b bc
       0.0050511584 0.012019632 0.02385222 -0.014383025
000390 72 4c 3e 3d 39 81 cb bb f1 2f 84 39 f2 d9 a6 bc
       0.046459623 -0.006210473 0.0002521272 -0.020367596
0003a0 c0 7f 2a bc bf 29 de bc a8 a1 dd 3c 3a 58 46 3d
       -0.010406435 -0.027119515 0.027054623 0.048423983
0003b0 6a c4 00 3c ad d6 bc 3c 1e c9 0a bd a2 66 8b 3b
       0.007859329 0.023051584 -0.033883207 0.004254178
0003c0 83 d0 28 bd e5 41 34 bd 80 4f 5e bd 6f d3 78 bd
       -0.041214477 -0.044008154 -0.054275036 -0.060748514
0003d0 22 1e 80 bd 42 00 85 bc 0b 13 cd bb ba 55 02 3d
       -0.062557474 -0.016235474 -0.0062583736 0.031820036
0003e0 a7 75 74 bd 74 4b 6b 3d 2a f3 99 3c 89 e0 10 3c
       -0.059682515 0.057445005 0.018792707 0.008842596
0003f0 6e 18 42 bd 74 26 4e 3c 7a c9 48 bd c6 ed 61 bb
       -0.04738658 0.01258241 -0.049020268 -0.0034474

module.conv_3.bias f4 [12]
000000 0d 8a 73 3d c2 b0 b0 3c 77 8d 2a 3b 31 32 36 3d
       0.059457827 0.02156866 0.002602426 0.04448146
000010 4d 18 14 3d b4 e3 af bc 34 18 56 bd 37 2b 5b bc
       0.036155988 -0.021470882 -0.052269176 -0.013377002
000020 a2 bd 01 bd ba 9e 14 bc 29 4c 37 3c d2 ea 13 3d
       -0.03167499 -0.0090710465 0.011187592 0.036112614

module.conv_4.weight f4 [12, 12, 3, 3, 3]
000000 50 35 25 bb 57 aa be 3c 3d 7b 59 bd a1 81 97 3c
       -0.0025208779 0.023274584 -0.053096045 0.018494429
000010 fc c6 6e 3b 91 8d 52 3d 17 18 c8 bc 06 c3 b7 3c
       0.0036434522 0.05140454 -0.02442555 0.022431862
000020 22 ae d4 bc 4b c3 8e bb 78 03 7c 3d d6 9b 1d 3c
       -0.02596194 -0.004356777 0.061526746 0.009619674
000030 08 89 39 3d 8a 02 74 bb c4 e2 b9 bc 0d f0 9d 3c
       0.0452967 -0.0037232959 -0.022691138 0.019279504
000040 9d 11 1c bd 11 b1 a1 bb 47 8a 5d 3d 29 c3 95 3b
       -0.038102735 -0.004934438 0.05408695 0.004570384
000050 41 3b 4a 3d 15 af dc 3c 4b 20 83 3d f3 f5 40 3d
       0.049372915 0.026938954 0.06402644 0.047109555
000060 6d 80 23 3d f0 8c fa 3b 26 58 0c bd 65 d7 0b 3c
       0.0399174 0.0076461956 -0.034263752 0.008535241
000070 fb 8c 08 3d 2c d6 14 3d 1a d9 9f 3d 25 b9 84 3d
       0.033337574 0.036337063 0.07805081 0.06480626
000080 f8 c7 16 3d 79 75 86 3d b2 64 ae bc b3 bc 14 bd
       0.0368118 0.06565375 -0.02128825 -0.03631277
000090 91 c3 83 bc 67 f1 eb bc 61 ac 48 bd 35 51 8f 3c
       -0.016084464 -0.028801633 -0.04899252 0.017494777
0000a0 99 3f 52 bd 21 3c 6d 3d 62 3c 4a bc 51 1f 25 bd
       -0.051330183 0.05791867 -0.012343498 -0.04031307
0000b0 f3 e5 0f bd 33 12 c7 bc fd 60 d9 3c 6f 24 29 bb
       -0.035131406 -0.02430067 0.026535505 -0.002580907
0000c0 65 fb 98 bc d0 60 bb bc 44 fd 1e 3d 7b ac 10 3c
       -0.018674562 -0.022873312 0.03881575 0.008830185
0000d0 16 6c 00 bc f2 71 80 3d cd d2 55 3d 51 ea 4c bb
       -0.00783827 0.06271733 0.05220299 -0.0031267593
0000e0 03 07 75 bc 62 79 97 3d d0 c8 14 3d 98 b8 91 3c
       -0.014955285 0.07396199 0.036324322 0.017788216
0000f0 14 b1 90 3c 3c 36 97 3d 6e 06 35 bd 56 74 05 bd
       0.017662562 0.07383391 -0.044195585 -0.03258165
000100 52 0f c0 bb 7b 37 e0 bc f7 86 23 3e 8f c0 ac 3d
       -0.0058612013 -0.027370205 0.15969454 0.08435165
000110 df 2e 00 3e c5 f3 ef 3d 45 9a 00 3e 84 f6 cb 3d
       0.1251788 0.11716417 0.12558849 0.099591285
000120 22 a0 1a bd 99 7f e4 bd b4 de ff bd ca 1b 10 3d
       -0.03775037 -0.1115715 -0.12493649 0.03518275
000130 db 01 a0 3d fc fa 9f 3d 37 75 b9 3c 11 bb a5 3d
       0.07812854 0.07811543 0.0226389 0.08092321
000140 73 6b e6 bc 6b c1 6a bc bc 0c 4c 3d 3b bb 97 bb
       -0.028127408 -0.014328341 0.049816832 -0.004630474
000150 7e c8 63 bd b1 50 63 bd 64 03 3c 3d b1 46 b0 bc
       -0.055611126 -0.055496875 0.04590167 -0.021518083
000160 35 07 28 bd 03 eb 75 3c 21 37 94 bb 9d 0f 68 bd
       -0.0410225 0.015009644 -0.0045231734 -0.056655515
000170 2e 56 fc bb a1 3e b9 3c 55 ef 8c bc d7 9b 25 bc
       -0.007700703 0.022612872 -0.017203966 -0.010107956
000180 6b 9f 31 3d cd e2 7c 3c c4 71 51 3d 4a 7f 1e bb
       0.043364923 0.015434933 0.051133886 -0.0024184757
000190 ee dd c3 3a 0a 60 fe 3c 7e 9d 9f bc ae 5a 28 3d
       0.001494346 0.031051654 -0.019484278 0.041102104
0001a0 f3 f3 d0 bc a6 24 77 bc ce e8 bc bc bd bb 72 3c
       -0.025506949 -0.015084421 -0.023060229 0.014815268
0001b0 d8 dc 12 bc 82 5c a9 3c b2 c2 cb bb 02 59 78 bd
       -0.008963786 0.020673994 -0.006218278 -0.06063176
0001c0 71 c9 6f bc c7 85 42 bc 04 6a 33 bc 77 e0 8f bc
       -0.01463543 -0.011872715 -0.010950569 -0.017563088
0001d0 89 93 10 bd 47 d5 85 3c 12 cd 38 bd 4c 17 13 3d
       -0.03529695 0.01633705 -0.045117445 0.03591089
0001e0 78 22 f4 bb 9c 68 54 bd c6 b8 0a 3b 91 5e 00 bd
       -0.007450398 -0.051857576 0.0021167262 -0.031340186
0001f0 02 dd 1f bd 11 80 84 3c 7f 0d 14 bd 80 e1 d2 3a
       -0.03902913 0.016174348 -0.036145683 0.0016088933
000200 b1 79 db 3a c1 98 cd 3c cb 7e 39 bd f1 b0 5c 3d
       0.0016744641 0.025097253 -0.045286935 0.053879682
000210 c1 96 b4 bc 22 7f ff bc 19 22 53 bb 43 b3 18 3d
       -0.022044541 -0.031188551 -0.0032216369 0.037280332
000220 f8 f2 21 3d 6b af 06 bd 3d f7 65 3d f3 44 31 3d
       0.039538354 -0.032882135 0.056143988 0.043278646
000230 76 71 d5 bc 89 8b fa bc 37 f7 a2 3c ba c2 3b bd
       -0.026055079 -0.030584114 0.019893272 -0.045840003
000240 a5 e1 72 3b b9 18 3f bd b7 71 94 bc ba 21 0f bc
       0.0037060764 -0.046654437 -0.01812063 -0.008736068
000250 5d 39 5d 3d 16 d6 48 bd 58 b1 98 3d b2 70 32 3b
       0.054009784 -0.049032293 0.07455701 0.0027227816
000260 85 66 2c 3d 82 55 73 bb 28 32 f0 bc 73 f1 1c 3d
       0.042089958 -0.0037129824 -0.029320791 0.0383162
000270 5f e3 61 3c d9 a0 b2 bc b8 1b 1c bd 01 82 73 3c
       0.01378712 -0.021805214 -0.038112372 0.014862538
000280 d6 f9 92 3c 18 86 a7 bb a7 45 e7 bc 1d 8f ae b9
       0.017941397 -0.005112421 -0.028231455 -0.00033294494
000290 55 49 0e 3b 47 b5 33 bc 14 86 0f bd e4 a0 b0 3c
       0.002171119 -0.010968513 -0.035039976 0.021561094
0002a0 ce 64 7f 3c 04 54 0a 3d fe d6 4b bd 72 2f 39 3b
       0.015587999 0.03377153 -0.04976558 0.002825704
0002b0 95 88 44 3d 3e 4b 3d bd fd a6 be bc 72 a6 6d 3c
       0.047981817 -0.046214335 -0.023272986 0.014505016
0002c0 c7 c5 de bc 07 12 4f 3c 1d d5 dd 3b e0 fb 14 3d
       -0.027193917 0.012638575 0.00676979 0.03637302
0002d0 dd 6e b7 3c ce c9 60 bd 22 6c 0c bd b9 ac 61 3c
       0.02239173 -0.054879956 -0.03428281 0.01377409
0002e0 92 ad f7 bc 1d c2 7e 3b 4e a6 41 3c b9 ad d7 bb
       -0.030234132 0.0038873025 0.011819435 -0.0065819887
0002f0 c7 ed 1f ba e6 5e 8f 3c be 7e 66 3d 34 ec 78 3c
       -0.00061008 0.017501306 0.056273215 0.015193034
000300 ed af 3a 3d 77 a9 5e bd 52 36 8f 3c 93 03 37 3d
       0.045577932 -0.054360833 0.017481957 0.044681143
000310 55 10 1e 3d 51 c2 25 3c 09 97 2a 3d 12 8c 3f 3d
       0.038589794 0.010117129 0.041647945 0.04676444
000320 e1 89 9b 3a 57 c3 57 ba a0 d3 e1 3c 3f 08 be bc
       0.0011866653 -0.0008230707 0.027566731 -0.023197291
000330 13 a3 a5 3c c2 67 cd bc e9 91 3d 3d cd 57 33 bd
       0.020219361 -0.02507389 0.04628173 -0.043784905
000340 aa 14 af 3a 13 49 89 3c 8f a1 d9 ba 8a ce 73 bd
       0.0013357599 0.016758477 -0.0016603934 -0.059523143
000350 f2 9f 0e 3d 6e ba 8a 3c 19 a1 07 bc 0a ad c3 3c
       0.034820504 0.0169346 -0.008278155 0.023886222
000360 39 a6 a2 3c 63 ac ab 3c 71 24 d5 bc 3b 62 1a 3d
       0.019854652 0.020956224 -0.026018353 0.037691336
000370 dd 8e 4e bd 1f 6d 8f 3a 9f c2 a2 3b 4d fc 61 bc
       -0.050429214 0.0010942555 0.0049670483 -0.013793063
000380 6f 04 34 bb 5c fa a2 3b 25 fd 09 bc 3c 47 8a 3b
       -0.0027468463 0.004973693 -0.008422171 0.0042199176
000390 3c 22 5c bb ec 4b 4a 3c bd 1c 39 bd d4 4d 3e 3c
       -0.0033589741 0.012347203 -0.045193423 0.011615235
0003a0 c9 f7 3b bc ed 60 bc ba bf d5 37 bc 48 a6 e0 bc
       -0.011472651 -0.0014372148 -0.011220395 -0.02742304
0003b0 eb 81 6f 3c 06 83 0d 3b e1 93 ff 3c ef 25 0a 3c
       0.014618377 0.0021592989 0.031198444 0.008431896
0003c0 a2 ca 2c bd 3f 71 f9 3b 18 54 8a 3c ef e3 80 3d
       -0.042185433 0.007612377 0.016885802 0.06293475
0003d0 30 6a 13 bd 4d fd c0 bc 50 97 0a 3d a6 fa 5b 3d
       -0.03598994 -0.023558283 0.03383571 0.053705834
0003e0 86 a5 13 3d cf 42 4d 3d 4e 18 25 bd bb f8 21 bd
       0.036046527 0.05011254 -0.040306382 -0.03954385
0003f0 ab e0 27 bc 37 d6 9a 3d 41 e9 14 3d 19 ae 95 bb
       -0.010246436 0.075603895 0.03635526 -0.004567873

module.conv_4.bias f4 [12]
000000 96 28 55 bd fe 6f 67 bc 7b dc 80 3c 69 b1 72 bb
       -0.05204066 -0.014125822 0.015730133 -0.0037032014
000010 63 58 09 bd e2 bb 75 3d 70 76 88 3c e8 4b e2 b9
       -0.033531558 0.059993632 0.016658038 -0.00043162634
000020 fd 82 46 3d aa 5c 83 3c 63 1a 62 3b 5b 80 79 bd
       0.048464764 0.016035397 0.003450059 -0.060913425

module.conv_5.weight f4 [12, 12, 3, 3, 3]
000000 3b c5 59 3b 1b 88 5f bd 25 9f 46 3d 29 47 b0 ba
       0.003322913 -0.05457316 0.048491616 -0.0013448942
000010 68 b2 64 bd e7 92 f2 3c 6b f7 89 bc 54 6f 82 3b
       -0.055834204 0.029611064 -0.01684161 0.0039805565
000020 15 c8 5a bd 90 0f 5e 39 96 30 9c bc 3a cf 5b bc
       -0.05341347 0.00021177367 -0.019066136 -0.013416106
000030 98 3c 38 bb 88 68 88 3c 8f f9 b0 ba 2f 1c 11 3d
       -0.0028112289 0.016651407 -0.0013502109 0.03542727
000040 71 00 3c bb 39 97 48 3c 57 65 25 3d 59 a9 17 bd
       -0.0028686787 0.012243086 0.04037985 -0.037026737
000050 b1 4b 4d 3d c0 b2 bb bc 40 23 94 bc 9b e3 30 3c
       0.050121013 -0.022912383 -0.018083215 0.010796453
000060 89 ac 8a 3a b4 e0 4e 39 11 50 eb bc 2c 15 66 3c
       0.0010579984 0.000197294 -0.028724702 0.014043134
000070 04 b3 94 bc f9 6e bf bc ea 49 08 3c ab 9b 4a 3d
       -0.018151768 -0.023368346 0.008318404 0.049464863
000080 0f 91 22 3d ac 2c 9f bc 07 d9 3f 3c 68 ee a8 3c
       0.03968912 -0.01943048 0.011709458 0.020621493
000090 ba fa 1e 3d ce cd eb bc c9 aa a3 bc 82 28 0f 3d
       0.03881333 -0.028784659 -0.019978898 0.03495074
0000a0 46 55 21 3d 12 48 4d 3d 49 4d 02 3c c5 27 53 3d
       0.039387964 0.05011756 0.0079529965 0.0515516
0000b0 3a 09 f1 3c a9 0d 9b bb 3a 23 d5 3c a4 81 01 3d
       0.029423345 -0.004731853 0.026017774 0.031617776
0000c0 90 18 5d 3d 7f f6 f8 3b e2 11 47 bd f6 6b 4a 3d
       0.053978503 0.007597744 -0.04860104 0.049419366
0000d0 4a b7 20 bd 31 92 44 bd 64 84 cf bc dd e0 2b 3d
       -0.039237298 -0.04799098 -0.025331683 0.041962493
0000e0 cd 2d 56 3c c0 21 54 39 4d 11 0f 3c a7 fd c0 3c
       0.013072443 0.00020230468 0.008732152 0.02355845
0000f0 c9 7e 5d 3d c6 90 bc 3c 6c 8e b4 bc 0e 7b a3 3c
       0.05407599 0.023018252 -0.022040568 0.019956138
000100 4e b4 0b bb 1b 19 31 3d 93 24 01 3c c1 08 85 3d
       -0.0021317187 0.043236833 0.007882255 0.0649581
000110 d0 51 24 3d ca b0 80 3d d5 13 f8 bc 44 52 0d bd
       0.040117085 0.0628372 -0.030282894 -0.034502283
000120 01 6a e8 bc f0 1a 46 3d c8 9b 1a 3d db c9 00 bb
       -0.02837086 0.048365533 0.03774622 -0.0019651565
000130 ca 32 c5 3c ab da 5f 3d 23 66 27 bd 61 c9 c4 3c
       0.02407207 0.054651897 -0.04086889 0.024021806
000140 83 b7 6d 3c f7 4c 4f bd c4 68 66 bc 54 c6 12 3d
       0.014509085 -0.05061051 -0.014063064 0.03583367
000150 41 ea b6 3c f3 83 36 bc b5 f5 a0 bb a4 67 75 bc
       0.022328498 -0.011139858 -0.004912103 -0.014978323
000160 8e 76 67 3d db d4 56 3d d1 77 3b bd 22 ec b9 bc
       0.056509547 0.05244909 -0.045768563 -0.022695605
000170 68 57 3c bc cc c0 56 3c d6 65 84 3c 11 6f 05 bd
       -0.011495449 0.01310749 0.01616184 -0.032576624
000180 39 2f 1e bc 40 e7 07 3c e4 c5 65 bc 40 20 73 3b
       -0.009654813 0.00829488 -0.014024232 0.003709808
000190 93 bf 5b bc 51 1c d4 3c 51 a1 0d 3d 6f 28 dc bc
       -0.013412374 0.025892409 0.03457767 -0.026874749
0001a0 74 e7 81 3d 2a da d1 3b 8a 30 47 3d 6b 59 17 3c
       0.06342974 0.006404181 0.048630275 0.0092376275
0001b0 fb a7 67 3d a7 93 aa bc 4d 89 44 bc 3e d6 3a bd
       0.056556683 -0.02082236 -0.011995626 -0.045614474
0001c0 43 37 c7 3c db 60 0a bd eb f2 51 bc a4 22 45 bc
       0.024318343 -0.033783775 -0.012814264 -0.012032185
0001d0 ad f4 04 3c fa 7a 4f bc d2 4a 07 bd 26 c6 a0 3c
       0.008114976 -0.012663597 -0.03303034 0.019625735
0001e0 c4 9c 72 3d e9 f2 75 3d 39 7d ca bc 66 9b 0b bd
       0.059231535 0.06004611 -0.024717914 -0.034083746
0001f0 3f 1a c2 bc 3b 96 53 3d ab 43 1f bd 2e 96 cd 3c
       -0.023694156 0.051656943 -0.038882893 0.025096025
000200 31 9b ff 3c d0 1f de bc 49 ae 5a 3b df d1 70 3d
       0.03120193 -0.027114779 0.0033368042 0.0587939
000210 8f 92 f5 3c e4 7d c6 3c b8 5d 41 bd 3c c8 82 3c
       0.029977111 0.024229951 -0.047208518 0.01596462
000220 52 35 e7 bb 25 a7 14 3d 66 0c ec bc ed 58 21 3c
       -0.007055917 0.036292214 -0.028814506 0.009847862
000230 8d 08 cd 3c c6 77 d0 3a 42 d8 55 3d a3 e5 03 3d
       0.025028491 0.0015904836 0.052208193 0.03220142
000240 7c 87 2d 3d 46 c0 53 3c 42 56 2c 3d 34 52 2d bc
       0.042365536 0.0129242595 0.04207445 -0.010578681
000250 a0 8a 58 3d c0 df f9 bc 0d c5 14 3d 9d 87 e3 3c
       0.052866578 -0.0305022 0.036320735 0.027774626
000260 d1 53 f9 3b e8 c9 33 bd 73 be 8f bc 47 15 5e 3c
       0.0076088686 -0.043893725 -0.017546868 0.013554878
000270 28 0e f5 3c 50 9e 9d 3b 28 0e 44 bd b0 fe 3a 3d
       0.029913977 0.004810132 -0.047865063 0.045653045
000280 54 f1 69 3d 9b ec a8 3a 3d 74 12 3c 69 db 90 3b
       0.057114914 0.0012887897 0.008938846 0.004420687
000290 e3 66 ec bc 81 24 21 bd ab e2 41 3d 0d 15 2f 3d
       -0.028857654 -0.039341453 0.047335308 0.042744685
0002a0 63 d4 e2 bb 8d 47 2c 3d 31 f5 3a 3d a4 2f 6c bc
       -0.006922291 0.042060424 0.04564399 -0.014415655
0002b0 a7 63 03 3a dd 8a 27 3d b9 b9 03 3d 39 71 1d bd
       0.0005012103 0.040903915 0.03215954 -0.038438056
0002c0 7a 4c 96 3c 89 04 71 bd db 2b cc bc 10 ae b8 3c
       0.018347014 -0.058842216 -0.024923256 0.022543937
0002d0 c0 6a 2d bd 1c 2c ab bc 4c 40 15 3c 80 1d 27 3d
       -0.042338133 -0.020895056 0.009109568 0.040799618
0002e0 9e e7 25 3d f8 45 33 bc 12 f7 2c 3d b0 2c 31 3d
       0.04050409 -0.010941975 0.042227812 0.043255508
0002f0 cd bf 7a bd 97 50 4e bd 23 b8 0f 3d 71 fb 38 bd
       -0.06121807 -0.050369825 0.035087716 -0.04516167
000300 86 94 03 3c c8 0f da bc 35 24 3a 3d 07 22 19 bc
       0.008031016 -0.026618853 0.045444686 -0.009346492
000310 a3 66 52 3c 21 5f 35 bc 65 04 dd 3c 0f 58 c6 bc
       0.012841853 -0.011070044 0.026979635 -0.024211911
000320 3f bd dd bc e4 4e 87 ba 71 1e 53 bd 8c 5b 79 3c
       -0.027067779 -0.0010323194 -0.051542703 0.01521958
000330 ae 76 c7 bb 1e 25 c6 3c 1c d6 b1 3c 68 34 30 bd
       -0.006087146 0.02418762 0.02170854 -0.04301873
000340 5b f0 1b 3d d1 e9 e7 3c 7c 56 2b 3d 1e b5 03 3c
       0.038071018 0.028309735 0.041830525 0.008038787
000350 5e 5e 3e 3d 16 47 9a 3c b3 0f 2f 3d 3e 9c cf bc
       0.046476714 0.018832725 0.04273958 -0.025343057
000360 5f c6 1d bd a0 61 3e bd f2 ca 1a 3d 42 03 f6 3c
       -0.03851926 -0.04647982 0.0377912 0.03003085
000370 d7 10 45 bd 8e 46 a9 3c 86 3b 01 3b 51 d5 27 bd
       -0.048111763 0.020663526 0.0019719317 -0.04097492
000380 06 d4 b8 3c 70 88 73 3d 35 4b c1 3c 7e 91 26 3c
       0.022562038 0.05945629 0.023595432 0.010166524
000390 e2 50 07 3d ec b2 df 3a 57 ea 63 3d 94 8b 48 3d
       0.03303612 0.0017066873 0.055643406 0.048961237
0003a0 9a 2b c7 bc 25 c6 04 bd e8 9d 07 3d 5f 7a 0a 3a
       -0.024312783 -0.032415528 0.033109576 0.0005282517
0003b0 27 ca 39 ba a7 0b b2 3c 4b 27 d5 bc 20 fc 2b 3d
       -0.0007087313 0.021734072 -0.026019713 0.041988492
0003c0 6b bf a9 bc 5a c8 c5 bc c9 6c 1a bd ab 06 38 3c
       -0.020721158 -0.024143387 -0.0377014 0.0112320585
0003d0 17 bd 62 bc 12 25 e4 3c db 93 8e bb fd 6c 18 bd
       -0.013839028 0.027849708 -0.004351122 -0.037213314
0003e0 bf 7b ab 3c 48 9b d0 3c c6 f1 48 bd 4e a1 23 bd
       0.02093303 0.025464669 -0.049058698 -0.039948754
0003f0 56 58 38 3c 24 8d 6d bc 8c c3 c1 bc 8f 7a de bb
       0.01125153 -0.014498983 -0.023652814 -0.0067895125

module.conv_5.bias f4 [12]
000000 a8 93 08 3d ef e1 3c bd fa 08 ce 3c b0 5b 20 bc
       0.03334394 -0.046113905 0.025150765 -0.009787485
000010 c9 1e 28 3c 34 7b 8b 3d 7b c5 bf bc d3 ca da 3c
       0.010261246 0.068106085 -0.023409596 0.026708042
000020 c5 e6 74 3c c5 2b 14 3d 61 97 56 3d 65 a2 16 3d
       0.014947598 0.036174554 0.05239046 0.036775965

module.conv_6.weight f4 [12, 12, 3, 3, 3]
000000 88 1e 00 3d e6 62 22 bd 1c 2c 3d 3d 8c 4e 9b bc
       0.031279117 -0.0396451 0.046184644 -0.018958353
000010 1e b6 09 3d 65 09 1c 3c 97 1b 2c bd 3d d4 58 3d
       0.033620946 0.009523724 -0.0420185 0.05293678
000020 92 73 91 bb 33 72 46 bd b1 ca 1f 3d 24 e6 a6 3c
       -0.004438826 -0.048448753 0.03901166 0.020373411
000030 89 a5 59 bd be 2a 1a 3c 58 0d 47 3d 03 e8 c0 3c
       -0.053136382 0.009409605 0.04859671 0.023548132
000040 5c d0 14 bd 55 5d e5 bc e2 ce 3d bd b0 6d 34 bd
       -0.03633152 -0.027998606 -0.046339877 -0.04404992
000050 4b e6 48 bd 89 a0 54 3d 44 79 32 bd 10 18 21 3b
       -0.04904775 0.05191091 -0.04357268 0.0024580993
000060 7a e2 bd 3b 5f f2 c0 3b 01 5b 88 3c f8 96 58 bd
       0.0057948204 0.005888268 0.016644957 -0.05287835
000070 f4 1c 85 ba df c5 0c 3d cc 81 bf ba d8 7e 9d bc
       -0.0010155723 0.034368392 -0.0014610826 -0.019225523
000080 47 3e 16 3c c9 41 f7 bc 8e fc 8a ba 9f 44 a3 bc
       0.0091701215 -0.030182736 -0.0010603832 -0.019930182
000090 83 2d 3d bc 9b b7 71 bd a0 13 c0 ba 83 ab 04 3d
       -0.011546495 -0.05901299 -0.0014654286 0.03239013
0000a0 60 02 96 3a cb 1b d9 bc 7f c9 51 bd 87 11 74 3d
       0.00114448 -0.02650251 -0.051217552 0.059587028
0000b0 61 12 a9 3c 52 b6 23 bd a1 3d 15 bd 18 39 93 bc
       0.020638647 -0.039968796 -0.036435727 -0.01797156
0000c0 e4 52 c5 bc d3 58 24 3d a6 f0 14 3c 4d 3d 61 3d
       -0.024087377 0.040123772 0.009090578 0.0549901
0000d0 87 fb 98 3c a0 1d 25 3d 01 40 42 bd 6e 5d 1b 3d
       0.018674625 0.040311456 -0.04742432 0.0379309
0000e0 f8 1d 39 bb 8b 96 a2 3c ef ae 2d 3d de bb 2e 3a
       -0.0028246623 0.019847175 0.042403158 0.00066655676
0000f0 9d 6e 38 bd 0a c7 53 bd db b5 89 3c 8b f6 ad 3a
       -0.045027364 -0.05170349 0.016810348 0.0013272328
000100 18 7d 07 bd af d0 50 3d 4b 7e 56 bd 93 4e 0c bb
       -0.033078283 0.050980266 -0.052366536 -0.0021409139
000110 2e 09 1f bd bd b2 80 bd 5e 05 37 bd 84 01 ef 3c
       -0.038827114 -0.062840916 -0.044682853 0.029175527
000120 37 7d e0 bc 7b b4 e1 3c 19 bf 99 3c 74 63 64 bc
       -0.027403457 0.02755188 0.01876788 -0.013939727
000130 c0 e6 5c bd 19 ec 9e 3b f1 87 23 bc 1a 84 1e bd
       -0.053930998 0.0048499224 -0.009981141 -0.0387002
000140 b1 53 06 bd 3e 3b 6a 3c e2 9c 90 3c ca de d6 3c
       -0.032794658 0.014296351 0.017652933 0.026229281
000150 3a c0 45 3d 4a a7 d4 bc 8b bf 62 3c 79 2b 5b 3b
       0.048279025 -0.025958676 0.013839613 0.003344266
000160 35 74 7c 3c bf 02 0b bb 30 d4 95 bc 52 d1 a6 3b
       0.015408565 -0.0021211354 -0.018289655 0.005090871
000170 50 27 d7 ba d7 7c 18 3d bc 0f dd bc 09 57 47 bc
       -0.0016414914 0.03722843 -0.026985042 -0.012166747
000180 f0 ae 80 bc e2 4a da bc 32 56 41 bd 47 70 1a bd
       -0.015708417 -0.026647035 -0.047201343 -0.037704732
000190 b9 df 00 3d d0 fe 3e 3d 49 35 05 bd 99 29 bc bc
       0.03146336 0.046629727 -0.03252152 -0.022969054
0001a0 48 af f3 3c 19 91 04 3d 90 01 4d bb ca 4a 52 bd
       0.029746667 0.03236494 -0.003128145 -0.051340856
0001b0 c0 b7 6e 3d 9c ca 2e bc 14 6b 22 3d ef 22 ce 3c
       0.058280706 -0.010668423 0.0396529 0.025163142
0001c0 c3 15 7a 3c 7c 48 6b 3d 3f 41 71 bc bb 9c 9e bc
       0.015263977 0.057442173 -0.014725029 -0.019361844
0001d0 ac 5d 4e 3c 5a a1 f4 3b 21 b2 41 3b 88 1b b8 3c
       0.012595575 0.0074655237 0.0029555636 0.022474065
0001e0 9c 78 b6 3a dd 6b 28 3d 33 df 19 bb f8 c5 c4 bc
       0.0013921442 0.04111849 -0.0023478984 -0.02402018
0001f0 6b a7 ee 3c 65 36 9c 3c 9a b7 21 3d 29 de 14 bb
       0.029132565 0.019068906 0.039481737 -0.0022715426
000200 73 9f b3 3c f2 7d d6 bb 2f e2 26 bd 69 5d 65 bb
       0.021926617 -0.0065457756 -0.04074305 -0.0034998304
000210 e4 34 5f 3d 36 a2 d0 bb 56 23 a6 3b 0e b0 08 bd
       0.0544938 -0.0063669933 0.0050701303 -0.033371024
000220 c0 cd 19 bd d0 f0 d3 bc 3b ae 2f 3d 16 a1 07 bc
       -0.037549734 -0.025871664 0.04289077 -0.008278152
000230 2a 66 a9 3c 96 e9 06 3d fb 44 5a 3d 05 a3 c4 3c
       0.020678598 0.03293761 0.05328844 0.024003515
000240 ae 3e 26 3c 4e 17 e3 3c 0d e2 80 3c 7f 0d 63 bd
       0.01014678 0.027721073 0.01573279 -0.055432793
000250 be f4 fa ba 3a c9 6c bd de 36 46 3d 9c 6d 41 bd
       -0.0019146425 -0.057809092 0.04839217 -0.047223672
000260 3d 2d 43 3d 2f d6 2e bb fe e1 9b 3c bb a2 48 bd
       0.047650564 -0.0026677956 0.01902866 -0.048983317
000270 6a 24 02 bd e9 fa 69 bd 79 43 e7 bb b5 c8 04 3d
       -0.03177301 -0.057124052 -0.007057604 0.03241797
000280 0d 02 4b bd 9a f4 3e bd 3e 4c 9e 3c 8c ad af 3c
       -0.049562503 -0.04661999 0.019323464 0.021445058
000290 2f 1c 82 bc 53 c1 50 bc 4e c9 b0 3a 74 e1 5c 3d
       -0.01588258 -0.012741405 0.0013487728 0.053925946
0002a0 7b 5f 55 3d 60 2f 0d 3b 3f 27 2f 3c 34 3b 08 bd
       0.05209301 0.002154313 0.010690509 -0.033259585
0002b0 0a 22 a8 3d ce 60 97 bc c2 e5 0a bd 97 00 2e 3d
       0.082096174 -0.018478777 -0.03391052 0.04248103
0002c0 21 e6 3e 3c 60 0b 13 3c 67 98 ae 3c 2c 67 ec 3b
       0.011651547 0.00897488 0.021312905 0.0072144475
0002d0 d5 d4 e3 3c f7 4c 90 3d c8 16 9f bc 72 58 ef bb
       0.027811447 0.0704593 -0.019420043 -0.0073042447
0002e0 11 16 83 bc 27 ec 3e 3d 1c cc b2 bb 0c 55 10 3d
       -0.016001733 0.04661193 -0.0054564606 0.035237357
0002f0 ac 54 86 3c 05 fe f3 bb b6 07 51 3d ca 59 01 bd
       0.016397797 -0.007446053 0.051032744 -0.03157977
000300 50 1a 18 bc 98 f7 ba 3c 34 d1 37 3d 09 ee 28 bd
       -0.009283617 0.02282314 0.044877246 -0.041242633
000310 44 33 f6 3b 67 83 74 3c 9b ec 84 bc 62 43 d7 bc
       0.0075134356 0.014923907 -0.016226104 -0.026277248
000320 85 bd 0b 3d 41 fa 4b bd e9 ca ce bc db a9 07 bc
       0.034116287 -0.049799208 -0.02524324 -0.008280243
000330 24 4b 51 bd f8 59 27 3c fa 56 4e bd f9 19 14 3a
       -0.05109705 0.010214321 -0.050375916 0.0005649622
000340 08 01 42 3d 3a 9b ac bc bb 86 29 3d 9a 71 4f bd
       0.047364265 -0.021070112 0.041388255 -0.05064545
000350 50 bb 6b bc 28 b1 4b bd a9 05 26 3c b2 ba 61 bd
       -0.0143879205 -0.049729496 0.010133185 -0.055109687
000360 92 bd 09 3d e5 87 a1 bc 39 50 af bc de cd 27 3d
       0.033628054 -0.01971812 -0.021400558 0.040967815
000370 9f e7 b9 3b 83 e9 44 bd d0 e4 21 3d c6 0d 32 3c
       0.0056733633 -0.048074257 0.039524853 0.010867542
000380 33 41 11 3d 0c 43 9e bc e3 1d 06 3d 9a ea 1f bc
       0.03546257 -0.01931908 0.032743346 -0.009760523
000390 38 3f f5 3b 04 e9 bb 3a 7f 15 18 3d 62 76 72 bc
       0.007484343 0.0014336412 0.037129875 -0.0147987325
0003a0 4b 79 74 3d fa 39 a9 3c 17 ce b2 bb 05 6a 1a bd
       0.059685986 0.020657528 -0.0054566967 -0.037698764
0003b0 51 fb 29 3d e6 04 16 3d 2a fe da bc d5 59 ea bb
       0.04149944 0.036625765 -0.026732523 -0.007151822
0003c0 aa c4 5a 3d 45 3a ad bc 96 c3 a2 bc a9 51 b3 bb
       0.05341021 -0.02114595 -0.019868653 -0.005472381
0003d0 aa 82 05 bb 77 ee d7 3c 8a 4c e6 3b 89 d1 c2 bc
       -0.0020372071 0.026358826 0.007028167 -0.023781555
0003e0 95 c1 4a 3d da 0a 30 3d 40 a7 66 bc 7a c1 11 3d
       0.04950102 0.0429791 -0.014077961 0.035584904
0003f0 1f 82 53 3d 4e 9c 85 3c f8 6d 1c 3d 1e 96 56 bc
       0.051637765 0.016309883 0.038190812 -0.013097314

module.conv_6.bias f4 [12]
000000 e6 dd 1e 3d e0 8d 4e bd ac 23 ae 3c a1 9a a6 bb
       0.038785838 -0.05042827 0.021257244 -0.005084351
000010 f9 7a 02 bd 96 df b7 3a 6a e3 cb 3c 32 cc 1a 3c
       -0.031855557 0.0014028426 0.024888713 0.009448098
000020 86 f5 51 bc b1 17 88 3d d7 d3 a0 3c ee 58 b3 bc
       -0.012814885 0.06645144 0.019632263 -0.02189299
