model3/FSRCNN3D_epoch_10.pth (torch, 265262 bytes, 15 tensors)

module.conv_1.weight f4 [56, 1, 5, 5, 5]
0	0xbd304c2b	-0.04304139
1	0x3d86c640	0.06580782
2	0x3d48a439	0.04898474
3	0x3da3b21e	0.079929575
4	0x3d93d66b	0.07218631
5	0xbd80b440	-0.0628438
6	0x3d2460ce	0.040131383
7	0xbd861804	-0.06547549
8	0x3d4d25ab	0.05008475
9	0xbd8b2a37	-0.06795161
10	0x3c54bc08	0.012984283
11	0x3d819197	0.06326597
12	0xbdbd150b	-0.09232529
13	0xbc102f68	-0.008800365
14	0xbd49f2a3	-0.049303662
15	0x3c5490a3	0.012973937
16	0xbd352cb5	-0.04423209
17	0xbd22be9a	-0.039732553
18	0xbd823a48	-0.063587725
19	0xbcc0b594	-0.023524083
20	0xbd9a5dbb	-0.07537409
21	0xbcab7974	-0.020931937
22	0xbd65e86d	-0.05612986
23	0xbd6e518b	-0.058183234
24	0x3db7d161	0.08975483
25	0x3d55cdf4	0.052198365
26	0xbc76ca05	-0.015062814
27	0xbdabbb4b	-0.08385333
28	0xbc51d448	-0.012806959
29	0xbd82719a	-0.06369324
30	0x3d0a430f	0.03375536
31	0xbda93510	-0.08262074
32	0x3d8f1671	0.06986702
33	0xbd6eebcf	-0.058330353
34	0xbda5217b	-0.080630265
35	0x3d8292ef	0.063756816
36	0xbd913776	-0.070906565
37	0xbcadcbaa	-0.021215279
38	0xbd4a845f	-0.049442645
39	0xbd8e625d	-0.06952355
40	0xbc74cfaa	-0.014942089
41	0x3ba900e8	0.0051575787
42	0x3d6c1b93	0.057643484
43	0xbd8c9c21	-0.06865717
44	0x3cae1142	0.021248464
45	0xbdb696cc	-0.08915481
46	0x3bcdd289	0.0062812013
47	0x3bfc2d55	0.0076958337
48	0x3ceb5a2a	0.028729517
49	0x3d851019	0.06497211
50	0x3d7082a1	0.058718327
51	0xbaf548e9	-0.0018713746
52	0xbda81db1	-0.08208788
53	0x3d011f5d	0.03152405
54	0x3c55a44b	0.013039659
55	0xbcfbc5f9	-0.03073405
56	0x3d8e1e80	0.06939411
57	0x3d09f529	0.03368107
58	0x3ca00f34	0.0195385
59	0xbb98a96e	-0.0046588695
60	0x3c7c8458	0.015412413
61	0xbc5a3563	-0.013318392
62	0x3d319099	0.04335079
63	0xbd87988c	-0.06620893
64	0xbd869e94	-0.06573215
65	0xbdb7f9f1	-0.089832194
66	0xbd2ec59e	-0.04266893
67	0x3d8ecdc1	0.06972838
68	0x3d2ff89f	0.042961713
69	0xbd9a153f	-0.075235836
70	0x3d02f430	0.031971157
71	0x3d090ba0	0.033458352
72	0xbd35915f	-0.04432809
73	0xbd890336	-0.066900656
74	0xbd8cfa45	-0.068836726
75	0xbd70eb19	-0.058817957
76	0x3d218a0f	0.039438304
77	0xbd531591	-0.05153424
78	0x3c279cba	0.010230238
79	0x3cab5603	0.020915037
80	0xbd2aa55f	-0.041661616
81	0x3d8a00c3	0.067384265
82	0xbd8c749c	-0.06858179
83	0xbd21131a	-0.039324857
84	0xbd05ead0	-0.032694638
85	0x3d9583f9	0.073005624
86	0x3c01d703	0.007924798
87	0x3ce11eda	0.027480531
88	0xbcf0d1f6	-0.029396992
89	0x3bc33889	0.0059576673
90	0xbd61ab2e	-0.05509489
91	0x3d2814a2	0.041035302
92	0x3d130a54	0.03589852
93	0xbd5d5e03	-0.054044735
94	0x3d424135	0.047425468
95	0xbca46248	-0.020066395
96	0xbd0b67ec	-0.034034654
97	0xbb12697c	-0.0022340706
98	0x3d9d2181	0.07672406
99	0xbd47215f	-0.04861581
100	0x3d02308f	0.03178459
101	0x3da4f258	0.08054036
102	0x3db56f1b	0.08859082
103	0x3d2c0a31	0.042001907
104	0xbd21dea7	-0.03951898
105	0xbd3b3808	-0.045707732
106	0x3d523042	0.051315553
107	0xbd07be40	-0.03314042
108	0xbdb4560c	-0.08805475
109	0x3c23dfc0	0.010002077
110	0x3d2040ae	0.039124183
111	0xbc71256e	-0.014718397
112	0x3d8242ab	0.06360372
113	0x3d10eba5	0.035380978
114	0x3d296a64	0.041361228
115	0xbd98b73a	-0.07456823
116	0x3d464a95	0.04841097
117	0x3c934736	0.017978292
118	0x3c8c0912	0.017094169
119	0x3d4fc0e9	0.050721083
120	0xbd3b8a2e	-0.045786075
121	0xbd3a5adb	-0.045496803
122	0xbd694272	-0.056948133
123	0xbd5f113a	-0.054459788
124	0xbcf13493	-0.029444015
125	0xbd1efed0	-0.038817227
126	0xbbef2812	-0.007298478
127	0xbc944cab	-0.018102964
128	0xbd869767	-0.065718465
129	0x3c854fd4	0.016273417
130	0xbd04422f	-0.03228968
131	0x3dbf06f3	0.09327497
132	0xbd8bcb89	-0.068259306
133	0xbb95f5f9	-0.0045764414
134	0x3d4baafd	0.049723614
135	0xbcf135d0	-0.029444605
136	0x3a029cc6	0.00049824675
137	0x3d806429	0.06269104
138	0x3d371d0a	0.04470543
139	0xbbc2ceb3	-0.0059450506
140	0xbd8ff849	-0.070297785
141	0xbcc72760	-0.024310768
142	0x3d203fb3	0.03912325
143	0xbd7e53e0	-0.06209171
144	0x3daa6263	0.08319547
145	0x3c0c3678	0.008557908
146	0x3d75fc4c	0.060055062
147	0x3d0123e5	0.031528372
148	0x3d439b25	0.04775538
149	0x3d9e4a20	0.07728982
150	0x3cd04883	0.025425201
151	0x3d8830cb	0.066499315
152	0x3d6c637a	0.057712056
153	0xbd9f2a7d	-0.07771776
154	0xbd84f018	-0.06491107
155	0x3ca703b8	0.020387515
156	0xbd60f733	-0.054923248
157	0xbd2c00c9	-0.041992936
158	0x3d678ac1	0.05652881
159	0x3d2b7873	0.041862916
160	0xbb15047d	-0.002273827
161	0x3d1770e4	0.036972895
162	0xbd317dc9	-0.04333285
163	0x3ba6f7d6	0.0050954623
164	0x3c98fd9a	0.018675614
165	0x3dad7067	0.08468705
166	0xbd8ed49d	-0.069741465
167	0x3d106cd4	0.035260037
168	0x3b541445	0.0032360714
169	0x3da9338c	0.08261785
170	0xbd0d2249	-0.034456525
171	0xbd896a04	-0.06709674
172	0x3d6f3433	0.05839939
173	0xbb331b94	-0.002732967
174	0x3db1fb5d	0.08690522
175	0x3db2bd6d	0.08727536
176	0xbd932eba	-0.07186647
177	0xbb4bbccf	-0.003108788
178	0x3ba1b31f	0.004934683
179	0x3d86e6a6	0.065869614
180	0x3d5cdd4b	0.05392198
181	0x3d9ae4f5	0.07563201
182	0xbd90ba25	-0.07066754
183	0xbce75315	-0.028237859
184	0x3d9a0035	0.07519571
185	0x3d585cf8	0.052823037
186	0xbca70236	-0.020386796
187	0x3daa1657	0.08305042
188	0x3d4a0dbf	0.049329516
189	0x3d90a13c	0.07062003
190	0x3baccaa1	0.0052731787
191	0xbc9241d7	-0.01785366
192	0x3d89efec	0.067352146
193	0x3d1d0055	0.038330395
194	0x3d9bc59f	0.076060526
195	0x3dbd1b50	0.09233725
196	0x3c02aa1e	0.007975129
197	0x3d582f08	0.052779227
198	0x3d1d65b7	0.03842708
199	0x3dbf42e6	0.09338932
200	0x3cac980e	0.0210686
201	0xbc3749cc	-0.011187028
202	0xbd81e93a	-0.063433126
203	0x3c87b327	0.016564919
204	0xbc462080	-0.01209271
205	0xbcfbc1d2	-0.03073207
206	0xbd126ac7	-0.035746362
207	0xbda1d2e0	-0.07901549
208	0x3da6c270	0.08142555
209	0x3d87a76f	0.06623732
210	0x3c9a07e4	0.01880259
211	0xbd908cab	-0.0705808
212	0x3c7d8ffe	0.015476225
213	0x3d17631f	0.036959764
214	0xbd8b1453	-0.06790986
215	0x3d42d615	0.047567446
216	0x3c7e1bac	0.015509527
217	0xbc213aa7	-0.009840644
218	0x3da52bcd	0.08064995
219	0xbd834574	-0.064097315
220	0x3dbba7ee	0.091628894
221	0xbcb5b6af	-0.022181837
222	0x3d6055d6	0.05476936
223	0xbd599e3b	-0.053129416
224	0xbd9db77e	-0.07701014
225	0xbd151769	-0.03639928
226	0xbb4eda8b	-0.0031563367
227	0xbc76f637	-0.015073351
228	0x3cc5b6bb	0.024134984
229	0xbd841291	-0.06448854
230	0xbd55f49a	-0.052235223
231	0xbc9b1ccc	-0.01893463
232	0xbd83916e	-0.06424223
233	0x3dbcc776	0.09217732
234	0x3b8c197b	0.0042754984
235	0xbda650e3	-0.08120897
236	0xbb0a124b	-0.0021068032
237	0x3c78ae35	0.015178253
238	0x3c8b488c	0.017002366
239	0x3c52e3de	0.012871711
240	0x3a926538	0.0011169082
241	0xbd3cb92a	-0.046075024
242	0xbd6a6fde	-0.05723559
243	0xbd617fd1	-0.055053536
244	0x3d942750	0.07234061
245	0xbcfd3245	-0.03090776
246	0x3bc7c079	0.0060959426
247	0x3c99702b	0.018730244
248	0xbd2e7e93	-0.04260118
249	0xbc9116e2	-0.017711107
250	0x3c8ee4a3	0.017443007
251	0xbd24503e	-0.040115587
252	0xbd512638	-0.05106184
253	0x3c56b472	0.013104545
254	0x3dba6143	0.091005825
255	0x3d6bca86	0.05756619

module.conv_1.bias f4 [56]
0	0x3d09a6dd	0.0336064
1	0x3cbe0791	0.023196967
2	0x3dbd3648	0.09238869
3	0xbcc1f5b3	-0.023676729
4	0xbcb6d3f1	-0.022317858
5	0x3d3bee3d	0.0458815
6	0x3ca844f5	0.020540694
7	0xbd9aea02	-0.07564165
8	0x3d8622bb	0.06549593
9	0x3c90e8c5	0.017689118
10	0x3d95239c	0.072821826
11	0x3d84d532	0.06485976
12	0x3d9a9a14	0.07548919
13	0x3da352bd	0.079747654
14	0x3d8d8dbf	0.069118015
15	0xbd98deaa	-0.07464345
16	0x3d0dab7c	0.03458737
17	0x3d41bfe6	0.04730215
18	0xbd492994	-0.049111918
19	0xbd742451	-0.059604947
20	0xbd6d05cd	-0.05786686
21	0x3d169129	0.03675953
22	0xbd449e47	-0.048002508
23	0xbc9d5bfe	-0.019208904
24	0x3d87feac	0.06640372
25	0xbc4334e8	-0.011914469
26	0x3d0f2479	0.034946892
27	0xbd80d2f1	-0.06290234
28	0x3d29e8e4	0.041481867
29	0x3bc98d66	0.006150889
30	0xbd369cc1	-0.044583086
31	0xbbbebe5e	-0.0058210334
32	0x3cedd774	0.0290334
33	0x3d6d2c58	0.057903618
34	0xbd1ed901	-0.03878117
35	0xbcadf9ec	-0.021237336
36	0x38b671fc	8.6996675e-05
37	0x3d402a16	0.046915136
38	0x3d756184	0.05990745
39	0xbd2db662	-0.042410262
40	0x3c820a2c	0.015873991
41	0x3d88f310	0.066869855
42	0xbd20063d	-0.03906845
43	0x3d9e54f0	0.07731044
44	0xbd596ee7	-0.05308428
45	0x3d854b33	0.06508484
46	0x3daa20dd	0.083070494
47	0xbd2a7b3f	-0.041621443
48	0xbda902dc	-0.082524985
49	0x3d29b098	0.04142818
50	0x3b4b99c8	0.0031067003
51	0x3d6b8fb0	0.057510078
52	0xbd9e5c38	-0.07732433
53	0x3d9abf65	0.07556037
54	0x3d927ed6	0.07153098
55	0xbd14fe03	-0.036375057

module.conv_2.weight f4 [12, 56, 1, 1, 1]
0	0x3d8b98ab	0.068162285
1	0x3cf225e9	0.029559093
2	0xbdd3e442	-0.10346271
3	0x3d079ac1	0.03310657
4	0xbe02eae3	-0.12784915
5	0xbd273310	-0.04082018
6	0x3d28a11c	0.04116927
7	0xbda4e488	-0.080514014
8	0xbd703954	-0.058648422
9	0x3d90dbb3	0.07073154
10	0xbdd13706	-0.10215573
11	0x3d25a8c8	0.040444165
12	0xbd1d2333	-0.038363647
13	0xbcd712b2	-0.026254032
14	0x3d4426e3	0.047888648
15	0xbbbc062d	-0.005738041
16	0x3d658197	0.05603179
17	0x3d365df1	0.044523183
18	0x3b7ce176	0.0038586534
19	0xbd1ea00b	-0.038726848
20	0xbddc3a7f	-0.10753345
21	0x3cfb6b0e	0.030690696
22	0x3d930489	0.071785994
23	0x3d0613f2	0.032733865
24	0xbdc018ac	-0.09379706
25	0x3d7b28c3	0.06131817
26	0x3c612013	0.013740557
27	0x3beb1462	0.0071740607
28	0x3d8c3cf3	0.06847563
29	0x3cb0e237	0.021592243
30	0x3e1529b1	0.14566685
31	0x3d9a502d	0.075348236
32	0x3d377a4b	0.044794362
33	0x3c43506f	0.011921032
34	0x3db94450	0.09046233
35	0xbd07322d	-0.033006836
36	0x3e019b6d	0.12656946
37	0xbd82d788	-0.063887656
38	0x3dab682c	0.083694786
39	0x3df5d94e	0.12004338
40	0x3d2b346c	0.04179804
41	0xbdec901b	-0.115509234
42	0x3e0b41ee	0.13599369
43	0x3d39d786	0.045371555
44	0x3b8a5e9f	0.0042227055
45	0xbd3bad99	-0.045819853
46	0xbd11179b	-0.035422903
47	0x3d9f02df	0.077642195
48	0x3d91c495	0.07117573
49	0x3de751dc	0.1129491
50	0x3c902ace	0.017598536
51	0xbd15bba6	-0.03655591
52	0x3dd93f06	0.10607724
53	0x3dc4b7bc	0.09605357
54	0xbd50797d	-0.05089711
55	0x3d189929	0.03725544
56	0xbe04adcc	-0.12956923
57	0x3df8e580	0.12153149
58	0xbcf9ace9	-0.030477958
59	0x3dd31717	0.103071384
60	0xbd829866	-0.06376724
61	0xbd69e796	-0.057105623
62	0xbd0ab33d	-0.03386234
63	0xbde77149	-0.11300904
64	0x3d85703d	0.065155484
65	0x3d697d31	0.057004157
66	0xbd1c9d5a	-0.038236
67	0x3db3af20	0.08773637
68	0x3e01bf6d	0.1267068
69	0x3e0743dd	0.13209482
70	0xbe0b11c8	-0.13581002
71	0x3d8660d3	0.065614365
72	0x3dab682a	0.08369477
73	0xbdbba969	-0.09163172
74	0x3e05df98	0.13073575
75	0x3dd6d765	0.10490302
76	0x3e047f75	0.12939246
77	0xbdb348db	-0.087541305
78	0x3d304114	0.043030813
79	0x3e0b2bfe	0.13591
80	0xbcdddca0	-0.027082741
81	0xbce18ce1	-0.027532997
82	0xbe0a4103	-0.13501363
83	0xbd5b5c12	-0.053554602
84	0x3cb35609	0.02189161
85	0x3d6e371c	0.058158025
86	0xbcaad6d4	-0.020854391
87	0xbbaef27e	-0.005338966
88	0xbe02907c	-0.12750429
89	0xbd9cfd8d	-0.076655485
90	0xbd3df70d	-0.046378184
91	0xbdf63ea3	-0.12023666
92	0x3e00edcb	0.12590711
93	0xbccdb4f5	-0.025110701
94	0xbd9b3c1b	-0.075798236
95	0xbdb0b3a2	-0.08628012
96	0x3dec0214	0.11523834
97	0xbdb9f5b0	-0.09080064
98	0xbe009b43	-0.12559228
99	0xbd80315b	-0.06259414
100	0x3d3f854f	0.046757992
101	0x3d0c92cd	0.034319688
102	0xbe01ec29	-0.12687744
103	0x3d581e79	0.052763436
104	0x3df5b2b6	0.11996977
105	0x3de0d9fc	0.10979077
106	0x3cde1042	0.027107362
107	0xbdbd7c4e	-0.09252225
108	0x3dcb4173	0.09924593
109	0xbe0ca032	-0.13732985
110	0xbe14757d	-0.14497943
111	0x3d38900c	0.04505925
112	0x3db865bb	0.090037785
113	0xbd9a8eec	-0.075467914
114	0xbd4a31d2	-0.04936392
115	0x3c3668ce	0.011133386
116	0xbdee826a	-0.11645968
117	0x3d1ce100	0.038300514
118	0x3e071bc3	0.13194184
119	0xbdc172cf	-0.09445726
120	0xbe00dd69	-0.12584461
121	0xbc096563	-0.008385989
122	0x3da570d4	0.08078161
123	0x3d47e911	0.048806254
124	0x3dbc37fa	0.09190364
125	0xbd8f7a85	-0.070057906
126	0xbb8b340f	-0.004248149
127	0xbdbae265	-0.091252126
128	0xbdd3a2a7	-0.10333758
129	0x3daa9e2c	0.0833095
130	0x3e02a660	0.1275878
131	0x3e0cee8d	0.13762875
132	0x3dc00c85	0.09377388
133	0x3dd9cf3d	0.10635231
134	0x3d9619a5	0.0732911
135	0x3dd9b882	0.10630895
136	0xbd5942ae	-0.053042106
137	0xbe092b47	-0.13395415
138	0xbdb4fad5	-0.08836905
139	0x3a973402	0.0011535885
140	0xbd28e6bb	-0.041235667
141	0xbddeb0d9	-0.10873575
142	0xbdf0d302	-0.117589965
143	0x3d949c4d	0.072563745
144	0x3deffcdd	0.11718152
145	0xbd251daa	-0.040311493
146	0x3ce38735	0.027774433
147	0xbdbc8e01	-0.092067726
148	0x3dbbf219	0.09177036
149	0xbe033e86	-0.1281682
150	0xbd2eaa9b	-0.04264317
151	0xbd1a01d7	-0.03759941
152	0xbdf7987b	-0.1208963
153	0x3d867cd7	0.0656678
154	0xbcf24cf2	-0.029577706
155	0xbb438a97	-0.0029837245
156	0x3d93b93a	0.072130635
157	0x3bc0bf81	0.005882204
158	0xbdb71c34	-0.08940926
159	0x3c764157	0.015030227
160	0x3d8df340	0.06931162
161	0xbb3c1736	-0.0028700358
162	0x3d8878f5	0.06663696
163	0x3da7aec0	0.08187628
164	0x3d7f0ca2	0.062267907
165	0x3d8c8947	0.06862121
166	0xbc3138bd	-0.01081675
167	0x3d20a74a	0.03922204
168	0x3d35279d	0.04422723
169	0x3dd1c3b5	0.10242406
170	0x3e14047c	0.14454836
171	0x3d445dac	0.047940895
172	0x3c04b853	0.008100587
173	0x3c8495a5	0.016184637
174	0x3dfa8ed2	0.12234272
175	0xbdb6dcb8	-0.089288175
176	0x3decd93b	0.11564871
177	0x3dced39e	0.100989565
178	0x3d597bb8	0.053096503
179	0xbcf71f35	-0.030166248
180	0xbd158cca	-0.03651122
181	0x3ddcd723	0.107832216
182	0x3dfd841f	0.12378716
183	0xbdd085d0	-0.10181773
184	0x3e20ef7e	0.15716359
185	0xbd216c14	-0.039409712
186	0x3d0624b1	0.032749835
187	0x3d0b507b	0.0340123
188	0xbdf42d37	-0.119226865
189	0x3ce06db7	0.027396066
190	0x3d8eeeaf	0.06979119
191	0x3db9f38a	0.090796545
192	0xbdb8b9f7	-0.09019845
193	0x3d81bd1b	0.06334897
194	0xbcfae95d	-0.030628854
195	0x3d144e2a	0.036207356
196	0x3df4c667	0.11951905
197	0xbdcf6fe6	-0.10128765
198	0x3da1a80f	0.07893383
199	0xbd62f38e	-0.055408053
200	0xbd99d60a	-0.07511528
201	0x3aea05b3	0.0017854482
202	0x3e08308c	0.13299769
203	0x3dd4d4f2	0.103921786
204	0xbda48311	-0.080328114
205	0x3d01ef68	0.031722456
206	0x3e01219a	0.12610474
207	0xbdfca24e	-0.12335645
208	0x3dccbb6c	0.099966854
209	0xbdb7d33f	-0.08975839
210	0x3dbc9c11	0.09209455
211	0x3db12b1f	0.08650803
212	0x3d9e71aa	0.077365234
213	0xbc1c8d17	-0.009555123
214	0xbc8fffa3	-0.017577952
215	0x3e06ccf0	0.13164115
216	0xbd2ef1ef	-0.042711195
217	0xbc1d0993	-0.009584802
218	0x3d59c2fa	0.05316446
219	0x3bf045d4	0.007332543
220	0x3c3e5303	0.011616471
221	0xbd2fa5bf	-0.042882677
222	0xbd6c4098	-0.05767879
223	0xbd041f68	-0.032256514
224	0xbe046788	-0.12930119
225	0x3de8302c	0.11337313
226	0x3dc21fb1	0.09478701
227	0xbda7411f	-0.08166718
228	0x3dd24986	0.1026793
229	0xbdfad84a	-0.12248285
230	0xbd4d2e7d	-0.050093163
231	0x3bce51f7	0.006296392
232	0x3df3fafe	0.11913107
233	0xbdc6221c	-0.096744746
234	0x3db85bf2	0.09001912
235	0xbe03ceb8	-0.12871826
236	0x3dcb3c62	0.099236265
237	0xbcf4bd49	-0.029875414
238	0xbd0f2a19	-0.034952257
239	0xbc83af84	-0.016074903
240	0xbd7227e9	-0.059120093
241	0xbdf6c3fb	-0.12049099
242	0x3da8428f	0.0821582
243	0xbd9467ad	-0.07246337
244	0xbddf594c	-0.10905704
245	0x3dc622e8	0.096746266
246	0x3db494f0	0.0881747
247	0x3dfeea0c	0.12446985
248	0xbc6fe930	-0.014642999
249	0x3c78609b	0.015159751
250	0x3b35ba0a	0.0027729296
251	0x3d01f8de	0.03173148
252	0xbdc19e4b	-0.0945402
253	0x3dc09b57	0.09404629
254	0x3e0ae919	0.13565482
255	0x3c3e2ecc	0.011607837

module.conv_2.bias f4 [12]
0	0xbda051be	-0.07828091
1	0x3dae8ca8	0.08522922
2	0x3c031b79	0.008002155
3	0x3dcba94d	0.09944401
4	0x3d9c52e4	0.07632998
5	0xbda6f9fc	-0.081531495
6	0x3db8ebfc	0.090293854
7	0xbdb3c496	-0.0877773
8	0xbdbe4cd1	-0.09291995
9	0x3c0d6074	0.008628953
10	0x3d0c24d4	0.03421481
11	0x3be5a00b	0.007007604

module.conv_3.weight f4 [12, 12, 3, 3, 3]
0	0x3d01e422	0.031711705
1	0xbc9ca985	-0.019123802
2	0x3d04cfa8	0.0324246
3	0xbc99b56a	-0.018763263
4	0xbcbebe6b	-0.023284158
5	0x3c561432	0.013066338
6	0xbc56a0fd	-0.013099906
7	0xbce393f3	-0.027780509
8	0xbcc81a2d	-0.024426544
9	0xbcdbe812	-0.026844058
10	0xbd626834	-0.055275157
11	0x3d40f1f6	0.047105752
12	0x3c2b6cda	0.010462964
13	0x3c5a085b	0.013307656
14	0x3be0feed	0.006866327
15	0x3d2418d0	0.040062726
16	0xbd651dd6	-0.055936657
17	0x3c8176af	0.015803663
18	0xbb1dc42a	-0.0024073222
19	0x3b96f812	0.004607209
20	0xbb6cdee9	-0.0036143607
21	0x3d5c9fb8	0.053863257
22	0xbc2ee6b4	-0.010675121
23	0xba831047	-0.0009999358
24	0xbba3c705	-0.00499809
25	0x3d51c7e5	0.051216025
26	0xbd0b4f62	-0.034011252
27	0xbd560386	-0.052249454
28	0x3d395a0d	0.045251895
29	0xbbb32b38	-0.0054677986
30	0x3c737f99	0.014861965
31	0x3b5c04a4	0.0033572102
32	0xbd1040ea	-0.035218157
33	0xbd037776	-0.03209635
34	0x3d5d22c7	0.053988244
35	0xbbef3129	-0.0072995615
36	0xbd5cda57	-0.053919163
37	0xbd1cbaa4	-0.038263932
38	0xbcccdc94	-0.025007524
39	0xbd04d138	-0.03242609
40	0x3d614bbe	0.055003874
41	0xbd4b527c	-0.04963921
42	0xbc377692	-0.011197703
43	0xb87e5e72	-6.0646278e-05
44	0x3b88845e	0.00416617
45	0xbd2e878b	-0.042609733
46	0x3d003553	0.031300854
47	0xbbbf0b79	-0.005830225
48	0x3c36d3cf	0.011158898
49	0xbd018678	-0.03162238
50	0xbd2d92bd	-0.04237627
51	0x3d3b31f2	0.04570193
52	0x3bc8d3eb	0.006128778
53	0x3d68b995	0.05681761
54	0xbc9c4345	-0.019075045
55	0xbd257581	-0.040395264
56	0xbd4db722	-0.050223477
57	0x3c74434f	0.014908626
58	0x3d1fbc35	0.038997848
59	0x3d1f1944	0.038842455
60	0x3cb52b74	0.022115447
61	0xbd1292c4	-0.035784498
62	0xbd3cc690	-0.0460878
63	0xbd369e22	-0.0445844
64	0x3d1d9b03	0.03847791
65	0xbcf8828f	-0.030335693
66	0x3cb2befd	0.021819586
67	0x3d0e97fa	0.034812905
68	0xbcbda252	-0.02314869
69	0xbba6d1bb	-0.00509092
70	0x3d0aee69	0.033918772
71	0xbd3b1f73	-0.04568429
72	0xbcbb1183	-0.022835499
73	0xbcc373d7	-0.023858948
74	0x3cec3ef9	0.028838621
75	0xbd054bda	-0.03254304
76	0xbd44a96b	-0.048013132
77	0x3d6f9b87	0.05849793
78	0xbd0408b8	-0.032234877
79	0x3d01a6e0	0.031653285
80	0xbb6151dd	-0.003438107
81	0x3d1ea6d7	0.03873333
82	0x3c1ffe8e	0.00976528
83	0x3d4ba029	0.049713288
84	0xbcc298f2	-0.02375457
85	0xbd197aff	-0.037470814
86	0x3c98cc07	0.018651975
87	0x3d52a3f9	0.051425908
88	0x3cb0638f	0.021531848
89	0xbc67b1ed	-0.014141542
90	0xbbb93952	-0.005652585
91	0xbd51036c	-0.051028654
92	0xbc6e3fd1	-0.014541582
93	0xbb38cb12	-0.0028197211
94	0x3c27f6c9	0.010251709
95	0x3d31a517	0.043370333
96	0x3cb6c70a	0.022311706
97	0xbd26b000	-0.04069519
98	0xbd2826e8	-0.04105273
99	0x3d5a74db	0.0533341
100	0xbc1de6ae	-0.009637518
101	0xbcbbd782	-0.02292991
102	0xbc1d7b43	-0.009611907
103	0xbac2fb1e	-0.0014875864
104	0x3d47495c	0.048653945
105	0xbc76621d	-0.0150380405
106	0xbc2137b5	-0.009839942
107	0xbc95545c	-0.018228702
108	0x3d6efb81	0.05834532
109	0xba3974f2	-0.0007074616
110	0xbd0f6e9a	-0.035017587
111	0x3c6c3d72	0.014418947
112	0xbcbff76e	-0.023433413
113	0x3ca0333b	0.019555679
114	0xbd01c595	-0.03168257
115	0x3cf97b08	0.030454174
116	0x3d5b5496	0.053547464
117	0x3d68a318	0.056796163
118	0x3d0295e4	0.031881228
119	0x3d3707df	0.04468524
120	0xbd281035	-0.04103108
121	0x3d0ec30b	0.034853976
122	0x3c3190d4	0.010837752
123	0x3c11afd2	0.0088920165
124	0xbc3467f5	-0.011011113
125	0xbcfc49fb	-0.030796995
126	0xbd2b6a70	-0.041849554
127	0x3c986044	0.01860059
128	0x3c9d99db	0.019238403
129	0x3cb3a1ff	0.021927832
130	0x3d624e49	0.05525044
131	0x3c75d59b	0.015004541
132	0xbd466249	-0.048433576
133	0xbd2d83cb	-0.042362016
134	0xbc9c22d1	-0.01905957
135	0xbc946a41	-0.018117072
136	0x3cbaae1c	0.0227881
137	0x3abf0dda	0.0014576272
138	0x3c6125c2	0.013741912
139	0xbb7849ab	-0.0037885706
140	0x3cbd0de7	0.023077918
141	0xbcf97634	-0.030451871
142	0xbcf84706	-0.030307304
143	0xbc47707c	-0.012172814
144	0xbd61a242	-0.05508638
145	0x3d1bc349	0.038028035
146	0xbd0927f5	-0.03348537
147	0x3cf66f5f	0.030082403
148	0x3aaaac64	0.0013021347
149	0x3cde10a7	0.02710755
150	0xbcf35643	-0.029704219
151	0xbc8cc9d1	-0.017186077
152	0x3c471aab	0.012152354
153	0x39562d9b	0.0002042562
154	0x3ca37c0f	0.019956617
155	0x3cdd921d	0.027047211
156	0x3c835c4b	0.01603522
157	0x3d30e2cb	0.043185037
158	0x3c979998	0.018505856
159	0x3c12e550	0.008965805
160	0x3c82d17a	0.015969027
161	0x3c84575b	0.016154936
162	0xbca0f151	-0.019646319
163	0xbc92fccf	-0.017942814
164	0x3d86cf77	0.065825395
165	0xbc67e98e	-0.014154805
166	0x3ce451a7	0.027870966
167	0x3d0d937e	0.034564488
168	0x3c7ca6ad	0.015420598
169	0x3d5e9e83	0.054350387
170	0x3c903b52	0.017606411
171	0xbb703e3f	-0.0036658195
172	0x3d39b463	0.045338046
173	0xbcede3db	-0.029039314
174	0x3d82a1cf	0.06378519
175	0x3d5f65bd	0.054540385
176	0x3d0c15de	0.03420054
177	0x3d32c444	0.043644205
178	0xbc25569d	-0.010091451
179	0x3bbb6504	0.005718829
180	0xbd003846	-0.031303667
181	0x3d8dd92f	0.0692619
182	0x3d41ed7d	0.047345627
183	0x3a45eea0	0.00075505115
184	0x3caf0538	0.021364793
185	0x3ca8d1f9	0.020607935
186	0x3cd94327	0.026521279
187	0xbce8da02	-0.028424267
188	0x3c486e22	0.012233289
189	0xbc77b401	-0.0151186
190	0xbb57da2f	-0.0032936444
191	0x3cc67e06	0.024230015
192	0xbbb69606	-0.0055720834
193	0x3d8e0b04	0.06935695
194	0x3c73d950	0.014883354
195	0x3c8e4e85	0.017371425
196	0x3d890f93	0.06692424
197	0xbcd884f1	-0.026430579
198	0x3d1bce3b	0.038038474
199	0xbcd6f436	-0.026239496
200	0xbc847455	-0.016168753
201	0xbd607de0	-0.054807544
202	0xbd001198	-0.03126678
203	0xbc8b285e	-0.016987022
204	0xbd6124b1	-0.054966632
205	0x3d8f035b	0.06983062
206	0x3d62389d	0.055229772
207	0x3c6237bf	0.013807236
208	0xbc93078e	-0.017947938
209	0x3d388f8c	0.045058772
210	0xbd51d3b6	-0.051227294
211	0xbc3cb9b1	-0.011518882
212	0xbbd182cd	-0.0063937665
213	0x3d279118	0.040909857
214	0xbb9ba966	-0.0047504185
215	0x3be67161	0.007032559
216	0x3cf7ccdc	0.030249052
217	0x3b231c52	0.0024888706
218	0xbcd05c46	-0.025434624
219	0xbc1c9204	-0.009556297
220	0x3c71240d	0.014718068
221	0x3ccaecf5	0.024771193
222	0xbccdc5b7	-0.025118692
223	0xbd615670	-0.055014074
224	0x3c16f52d	0.009213728
225	0x3c4171f2	0.011806952
226	0x3cc31154	0.023811974
227	0xbc68ef39	-0.014217191
228	0x3d3df525	0.046376366
229	0xbbb2f87b	-0.00546175
230	0x3a8da145	0.0010805508
231	0xbc91622d	-0.01774701
232	0xbbf2cbff	-0.007409572
233	0xbccc5012	-0.024940524
234	0x3cf95ca2	0.030439679
235	0x3d522d7d	0.051312912
236	0x3c21da97	0.009878776
237	0x3cc4e5aa	0.024035294
238	0xbd06647a	-0.032810666
239	0x3b9580f5	0.004562492
240	0xbd21d6f2	-0.03951163
241	0xbd2e339e	-0.042529695
242	0xbd5d1a4e	-0.053980164
243	0xbd8198bf	-0.06327962
244	0xbd8698c9	-0.0657211
245	0xbc95369d	-0.018214518
246	0xbc131a01	-0.008978368
247	0x3ce93aa9	0.028470354
248	0xbd7dd05a	-0.061966278
249	0x3d596061	0.05307043
250	0x3c62970c	0.013829958
251	0x3baaff45	0.005218419
252	0xbd3c5193	-0.045976233
253	0x3c4c4f3e	0.012470065
254	0xbd4aa2cf	-0.049471673
255	0xba3ff31f	-0.00073222996

module.conv_3.bias f4 [12]
0	0x3d6f289e	0.058388345
1	0x3c4c6ad5	0.012476643
2	0x3a831eea	0.001000372
3	0x3d357721	0.044303063
4	0x3d04bc6e	0.032406263
5	0xbcc765be	-0.024340507
6	0xbd561852	-0.052269287
7	0xbc64fc30	-0.013976142
8	0xbd01ebfc	-0.031719193
9	0xbc365830	-0.011129424
10	0x3c42c581	0.011887909
11	0x3cdcdb3b	0.026960006

module.conv_4.weight f4 [12, 12, 3, 3, 3]
0	0x3b3e2b1d	0.0029017397
1	0x3cf97fc4	0.030456431
2	0xbd273520	-0.04082215
3	0x3bfd6580	0.007733047
4	0xbbe8959d	-0.0070979134
5	0x3d3fb222	0.04680074
6	0xbc98cc92	-0.018652234
7	0x3cdd9267	0.02704735
8	0xbc8d51cb	-0.017250916
9	0xbc5c621d	-0.013451126
10	0x3d5a3086	0.05326893
11	0x3be8cfbc	0.007104842
12	0x3c9fba32	0.019497965
13	0xbcec518c	-0.028847478
14	0xbd23608c	-0.039886996
15	0x3c6022f2	0.013680207
16	0xbd2b45fd	-0.041814793
17	0xbaf8cd38	-0.0018982058
18	0x3d23a700	0.039954185
19	0xbc095055	-0.008380969
20	0x3d2caadf	0.042155143
21	0xba17c555	-0.00057895976
22	0x3d1d0d90	0.038343012
23	0x3cef4db5	0.029211858
24	0x3cfc99b9	0.03083502
25	0x3b47c584	0.0030482719
26	0xbd0153ba	-0.03157399
27	0xbc8f433d	-0.017488116
28	0x3c662bf2	0.014048563
29	0x3c8c0024	0.01708991
30	0x3d630465	0.055424113
31	0x3d4cb650	0.049978554
32	0x3c9c93b2	0.019113395
33	0x3d3effa4	0.046630517
34	0xbd01eedd	-0.03172194
35	0xbd4dd875	-0.050255258
36	0xbc88d93d	-0.01670515
37	0xbcce4b44	-0.025182374
38	0xbd5e816b	-0.05432264
39	0x3c31b980	0.010847449
40	0xbd4dc984	-0.05024101
41	0x3d48be60	0.04900968
42	0xbcf24655	-0.029574553
43	0xbd3f4d4d	-0.04670458
44	0xbd443070	-0.047897756
45	0xbce94835	-0.028476814
46	0x3cc861cb	0.024460694
47	0xbc80fbfd	-0.015745157
48	0xbd2457a0	-0.04012263
49	0xbd199277	-0.037493195
50	0x3c6fb80e	0.014631284
51	0xbd070d80	-0.03297186
52	0xbd1dc50d	-0.038518
53	0x3cf750b9	0.030189859
54	0x3ce29c07	0.02766229
55	0x3baf0264	0.005340861
56	0x3c3968ce	0.011316491
57	0xbc808a84	-0.01569105
58	0xbd3bbf82	-0.045836933
59	0xbccc7d87	-0.0249622
60	0xbcb9038e	-0.022584703
61	0x3d32c250	0.043642342
62	0xbd1ec0ce	-0.03875809
63	0xbc44f2d5	-0.012020786
64	0x3d344f90	0.04402119
65	0x3c8effb0	0.017455906
66	0x3d55d16b	0.05220167
67	0xbcf181d9	-0.029480861
68	0x3d1cf9fc	0.03832434
69	0x3d0456c0	0.032309294
70	0x3d16febc	0.036864027
71	0x3d29d0ff	0.04145908
72	0x3d22e2f5	0.039767224
73	0xbbdc3f8e	-0.0067214435
74	0xbd22c6ce	-0.039740376
75	0xbcdaad99	-0.026694106
76	0x3c7d50c7	0.015461153
77	0x3d06fb1e	0.032954328
78	0xbcfb4dbd	-0.030676717
79	0x3ce53395	0.027978698
80	0xbd61717f	-0.05503988
81	0xbca95139	-0.020668613
82	0x3d3ce7d5	0.04611953
83	0xbc25a15d	-0.010109273
84	0xbd5ed80e	-0.054405265
85	0xbd5530c2	-0.052048452
86	0x3d3cf799	0.046134565
87	0xbcd6eece	-0.026236918
88	0xbd30a2f9	-0.043124173
89	0x3c24d1b9	0.010059767
90	0xbbd38239	-0.0064547327
91	0xbd6045f7	-0.054754224
92	0xbc061aa3	-0.008185062
93	0x3cf9f052	0.030510101
94	0xbbd1ed07	-0.0064064297
95	0xbb82b848	-0.003989253
96	0x3d2cf29e	0.042223565
97	0x3c8eb92c	0.017422281
98	0x3d47bf87	0.04876664
99	0xbb8b9b64	-0.0042604674
100	0x3b8c664f	0.004284657
101	0x3d025221	0.031816605
102	0xbc4777e4	-0.01217458
103	0x3d55bf1b	0.052184206
104	0xbc9a7dd7	-0.018858833
105	0xbc930267	-0.017945481
106	0xbcb402e0	-0.021974027
107	0x3c3f6bcd	0.011683417
108	0xbb152f8e	-0.002276394
109	0x3ce04839	0.027378188
110	0xbc32b755	-0.010907968
111	0xbd3d8a24	-0.04627432
112	0x3aa883c7	0.0012856656
113	0xbc1fd5a4	-0.009755526
114	0xbbdafe64	-0.0066831578
115	0xbc143b55	-0.009047349
116	0xbd1bfbc5	-0.038081903
117	0x3cc1573d	0.023601169
118	0xbd0a6e65	-0.033796687
119	0x3d10d49f	0.03535902
120	0x3c341732	0.010991858
121	0xbce22f0a	-0.02761032
122	0x3c3fe217	0.011711619
123	0xbcc3af79	-0.023887383
124	0xbcc38a3f	-0.023869632
125	0x3c9b4a39	0.01895629
126	0xbd396f4e	-0.045272164
127	0xb91a372d	-0.00014707139
128	0xbc021f40	-0.007942021
129	0x3ccebab9	0.02523552
130	0xbd14ec10	-0.03635794
131	0x3d558124	0.05212511
132	0xbcfc5f95	-0.030807296
133	0xbcf7d7b5	-0.030254224
134	0xbc34898e	-0.011019124
135	0x3d261aeb	0.040553015
136	0x3d4b43be	0.04962515
137	0xbcc38987	-0.02386929
138	0x3d4901b7	0.0490739
139	0x3d36d129	0.044633064
140	0xbccc97ab	-0.024974665
141	0xbd3441e5	-0.044008154
142	0x3c738400	0.014863014
143	0xbd4de51e	-0.05026733
144	0x3b282555	0.0025657017
145	0xbd2267c2	-0.039649732
146	0xbc2d55b2	-0.010579513
147	0xbcbf9055	-0.023384253
148	0x3d4a7c69	0.049435053
149	0xbd534727	-0.051581528
150	0x3d595cc7	0.053066995
151	0xbc15e447	-0.009148664
152	0x3d08193d	0.033227194
153	0xbc418e9d	-0.011813787
154	0xbcea199b	-0.028576663
155	0x3d25cfcc	0.040481374
156	0xbc0aa06b	-0.008461098
157	0xbd0cd98f	-0.034387168
158	0xbd43f349	-0.047839437
159	0xbc564f5d	-0.013080445
160	0xbafff1c1	-0.0019527004
161	0xbcb14dee	-0.021643605
162	0xbce745a7	-0.028231455
163	0xb9ae8f1d	-0.00033294494
164	0x3b0e4955	0.002171119
165	0xbc33b547	-0.010968513
166	0xbd0f8614	-0.035039976
167	0x3cb0a0e4	0.021561094
168	0x3c7f64ce	0.015587999
169	0x3d0a5404	0.03377153
170	0xbd4bd6fe	-0.04976558
171	0x3b392f72	0.002825704
172	0x3d448895	0.047981817
173	0xbd3d4b3e	-0.046214335
174	0xbcbea6fd	-0.023272986
175	0x3c6da672	0.014505016
176	0xbcdec5c7	-0.027193917
177	0x3c4f1207	0.012638575
178	0x3bddd51d	0.00676979
179	0x3d14fbe0	0.03637302
180	0x3cb76edd	0.02239173
181	0xbd60c9ce	-0.054879956
182	0xbd0c6c22	-0.03428281
183	0x3c61acb9	0.01377409
184	0xbcf7ad92	-0.030234132
185	0x3b7ec21d	0.0038873025
186	0x3c41a64e	0.011819435
187	0xbbd7adb9	-0.0065819887
188	0xba1fedc7	-0.00061008
189	0x3c6d7f2b	0.014495651
190	0x3d57b59d	0.052663434
191	0x3bd008ab	0.0063486896
192	0x3d456cdb	0.048199516
193	0xbd58c779	-0.052924607
194	0x3c48d564	0.012257908
195	0x3d2b5b14	0.041834906
196	0x3d110aeb	0.035410803
197	0x3a61bce4	0.0008611216
198	0x3d1d7a02	0.038446434
199	0x3d35bf00	0.044371605
200	0xbbf3d801	-0.007441521
201	0x3b43c48e	0.0029871794
202	0x3d00c5e7	0.031438734
203	0xbce5656d	-0.028002465
204	0x3c83301d	0.016014153
205	0xbce80c3d	-0.028326148
206	0x3d115a2b	0.03548638
207	0xbd31a985	-0.043374557
208	0x3b67c0eb	0.003536279
209	0x3c454370	0.012040004
210	0x3badb20e	0.005300767
211	0xbd55a869	-0.05216256
212	0x3d032c7c	0.032024845
213	0x3c548f4e	0.01297362
214	0xbc36b05e	-0.011150448
215	0x3c504a14	0.012712974
216	0x3c52da39	0.012869411
217	0x3c75739d	0.014981178
218	0xbd05fb65	-0.03271045
219	0x3d0689fe	0.032846443
220	0xbd5dbbab	-0.054134052
221	0xbb60ce72	-0.0034302738
222	0xbb58e6ab	-0.0033096473
223	0xbca4c38b	-0.020112773
224	0xbc1b82e4	-0.009491656
225	0x39dcec72	0.00042137835
226	0xbc451b41	-0.012030424
227	0xba2853d5	-0.00064211834
228	0xbba3619d	-0.0049860016
229	0x3c3be1f5	0.011467447
230	0xbd43aa2e	-0.047769718
231	0x3bacb9c7	0.00527117
232	0xbc8529ea	-0.016255338
233	0xbbf6ff9d	-0.0075377957
234	0xbc71d36b	-0.014759879
235	0xbceffb49	-0.029294627
236	0x3c43a6a5	0.011941587
237	0x3ae62a00	0.0017560124
238	0x3d03ab48	0.03214577
239	0x3c0065bd	0.007836756
240	0xbd4211c0	-0.04738021
241	0x3b933267	0.0044920924
242	0x3c4c970b	0.012487183
243	0x3d544692	0.051825114
244	0xbd293df9	-0.041318867
245	0xbc8687d9	-0.0164222
246	0x3c999a20	0.01875025
247	0x3d28d2dd	0.04121672
248	0x3d12381b	0.035698038
249	0x3d33c165	0.043885607
250	0xbd34ff09	-0.044188533
251	0xbd03a15e	-0.032136314
252	0xbd03d394	-0.0321842
253	0x3d60fef1	0.05493063
254	0x3ce163bc	0.027513377
255	0xbcee7892	-0.029110227

module.conv_4.bias f4 [12]
0	0xbd572f2c	-0.05253522
1	0xbc85fd60	-0.01635617
2	0x3c81c4bb	0.015840879
3	0xbc6608ec	-0.014040213
4	0xbd061601	-0.03273583
5	0x3d5dc6f8	0.05414483
6	0x3c62e589	0.013848671
7	0xbb863872	-0.0040960843
8	0x3d450dcb	0.048108857
9	0x3bcb960a	0.0062129544
10	0x3aa9563e	0.0012919379
11	0xbd591199	-0.052995298

module.conv_5.weight f4 [12, 12, 3, 3, 3]
0	0xbbacd84d	-0.0052748085
1	0xbd58731a	-0.052844144
2	0x3d319982	0.043359287
3	0xbb343f8f	-0.0027503704
4	0xbd2e7e62	-0.042600997
5	0x3d14ac8e	0.036297373
6	0xbca262e0	-0.019822538
7	0x3c84efd4	0.01622764
8	0xbd451c3d	-0.048122633
9	0xbc2c5c1a	-0.010520006
10	0xbcaf3e67	-0.02139206
11	0xbcc0913d	-0.023506755
12	0xbb192374	-0.002336708
13	0x3cf640be	0.030060168
14	0x3b90482b	0.0044031343
15	0x3d32f571	0.043691102
16	0x3c9d16e4	0.019175954
17	0x3cd7bcfd	0.026335234
18	0x3cc1b2ee	0.02364489
19	0xbd45fb75	-0.04833551
20	0x3d019154	0.031632736
21	0xbd059077	-0.032608476
22	0xbc9a6a8e	-0.018849637
23	0x3b33a372	0.0027410653
24	0x3b823872	0.003974014
25	0x3c6125b9	0.013741904
26	0xbcbedaf2	-0.02329776
27	0x3c84b48e	0.016199376
28	0xbc847726	-0.016170096
29	0xbcb16abe	-0.021657344
30	0x3c1dd7d4	0.009633977
31	0x3d4f5623	0.050619256
32	0x3d26bba8	0.040706307
33	0xbc891f23	-0.01673848
34	0x3c6b7111	0.014370219
35	0x3cbcf081	0.0230639
36	0x3d23b928	0.0399715
37	0xbce0cbb4	-0.027440883
38	0xbc97143a	-0.018442262
39	0x3d0f4bc1	0.034984354
40	0x3d22ccfb	0.039746266
41	0x3d50b44f	0.050953206
42	0x3c1cdf3a	0.009574706
43	0x3d5b7b7e	0.05358457
44	0x3d025034	0.03181477
45	0xbb2949e2	-0.002583139
46	0x3cea4a7a	0.028599966
47	0x3d0d38c8	0.03447798
48	0x3d5f6661	0.054540996
49	0x3c0fa76c	0.008767944
50	0xbd3fad6c	-0.046796247
51	0x3d4f20bd	0.05056833
52	0xbd197084	-0.03746082
53	0xbd3ae36a	-0.045627035
54	0xbcc59a99	-0.02412157
55	0x3d2fcbaf	0.042918857
56	0x3c6e1c60	0.014533132
57	0x3a91d71e	0.0011126732
58	0x3c1749a8	0.00923387
59	0x3cca5da0	0.024702847
60	0x3d65a284	0.05606319
61	0x3cca0039	0.02465831
62	0xbca20c19	-0.01978116
63	0x3caaf4d0	0.020868689
64	0xbac92111	-0.0015344938
65	0x3d364f04	0.04450895
66	0x3c034d39	0.008014017
67	0x3d843777	0.064558916
68	0x3d264e29	0.040601883
69	0x3d828b54	0.06374231
70	0xbcf4e3d2	-0.02989379
71	0xbd081c83	-0.033230316
72	0xbcd9ed8d	-0.02660253
73	0x3d4c3ff8	0.049865693
74	0x3d237184	0.03990318
75	0xba989631	-0.001164144
76	0x3cc79eef	0.024367778
77	0x3d648f6b	0.055800837
78	0xbd242711	-0.04007632
79	0x3cc6d207	0.02427007
80	0x3c7fd0d4	0.015613753
81	0xbd37370b	-0.044730227
82	0xbc0d59e3	-0.008627388
83	0x3d2653d4	0.04060729
84	0x3c71bfe7	0.014755226
85	0xbcaa060e	-0.02075484
86	0xbc5df041	-0.0135460505
87	0xbc534b45	-0.012896364
88	0x3d69d97a	0.057092167
89	0x3d57d486	0.052692913
90	0xbd2e4295	-0.042543966
91	0xbc9f816b	-0.019470891
92	0xbbef067d	-0.0072944746
93	0x3b942da3	0.004522042
94	0x3bf2681c	0.0073976647
95	0xbd1b2969	-0.03788129
96	0xbc042239	-0.0080648
97	0x3c2815fb	0.010259147
98	0xbc28a146	-0.010292357
99	0x3bc8ac8d	0.0061240853
100	0xbc33a91d	-0.010965613
101	0x3cf50425	0.029909203
102	0x3cd20aae	0.025639858
103	0xbd135b65	-0.035975832
104	0x3d6c8f7a	0.057754017
105	0x3a92dea8	0.0011205273
106	0x3d319536	0.04335519
107	0x3bbf60a5	0.0058403783
108	0x3d6f0ca1	0.058361653
109	0xbc9edc3d	-0.019392127
110	0xbc286d88	-0.010280021
111	0xbd36caf3	-0.04462714
112	0x3ccae19f	0.024765788
113	0xbd0711e7	-0.032976057
114	0xbc353785	-0.0110606
115	0xbc2cdaa9	-0.0105501795
116	0x3c24e7f8	0.010065071
117	0xbc338e20	-0.010959178
118	0xbd01c358	-0.031680435
119	0x3caf90a5	0.021431277
120	0x3d75c392	0.060000964
121	0x3d76c86d	0.060249735
122	0xbcc45177	-0.023964627
123	0xbd0631ea	-0.032762446
124	0xbcba7264	-0.022759624
125	0x3d59ee2a	0.053205647
126	0xbd16605c	-0.03671299
127	0x3cde15a0	0.027109921
128	0x3d0a3154	0.03373845
129	0xbcd4d87e	-0.025982138
130	0x3b850b63	0.0040601953
131	0x3d762f2f	0.06010359
132	0x3cfe9581	0.031077148
133	0x3cccb061	0.024986448
134	0xbd3bc98e	-0.045846514
135	0x3c448a6a	0.011995891
136	0xbc3b868b	-0.011445652
137	0x3cfdb5a4	0.030970402
138	0xbcffa028	-0.031204298
139	0x3bfbc107	0.0076829228
140	0x3cb42066	0.021988105
141	0xba9505ff	-0.0011369585
142	0x3d4c7af5	0.04992195
143	0x3cee7c5e	0.029112037
144	0x3d1ec7d1	0.03876478
145	0x3c0dffe4	0.008666966
146	0x3d163e19	0.036680315
147	0xbc494a7e	-0.012285827
148	0x3d513683	0.051077377
149	0xbd093346	-0.033496164
150	0x3d0ebee7	0.034850027
151	0x3cd8a01b	0.026443532
152	0x3ba74149	0.005104218
153	0xbd4284a1	-0.047489766
154	0xbcb3f8a2	-0.021969143
155	0x3c0250a5	0.0079537975
156	0x3ce7737b	0.028253308
157	0x3b367329	0.0027839637
158	0xbd516638	-0.051122874
159	0x3d397970	0.045281827
160	0x3d67d81e	0.05660259
161	0xb9e4296b	-0.00043518408
162	0x3bea283e	0.0071459105
163	0x3b40ca95	0.0029417623
164	0xbcfc68bc	-0.03081166
165	0xbd257f15	-0.040404398
166	0x3d403585	0.04692604
167	0x3d2b9ad0	0.041895688
168	0xbc15bc6f	-0.009139164
169	0x3d26e4f3	0.040745687
170	0x3d345ed9	0.044035766
171	0xbc8159f2	-0.01578996
172	0xba1710e5	-0.00057627104
173	0x3d204689	0.039129768
174	0x3d0457e0	0.032310367
175	0xbd1a6708	-0.037695915
176	0x3c957d04	0.018248089
177	0xbd7430a3	-0.059616696
178	0xbccbbdee	-0.024870839
179	0x3cb2ea8f	0.021840362
180	0xbd364353	-0.0444978
181	0xbcbab6b2	-0.022792194
182	0x3bd3370f	0.0064457725
183	0x3d25c7c2	0.040473707
184	0x3d269b78	0.04067561
185	0xbc40903c	-0.011753138
186	0x3d2bf6ed	0.041983534
187	0x3d33605c	0.043793067
188	0xbd7c4d83	-0.06159736
189	0xbd5e7bbd	-0.054317225
190	0x3cffb022	0.031211916
191	0xbd4b6f27	-0.04966655
192	0x3bcd26d5	0.0062607327
193	0xbce36227	-0.027756764
194	0x3d32d05b	0.043655735
195	0xbc469395	-0.012120147
196	0x3c320663	0.0108657805
197	0xbc615b56	-0.013754686
198	0x3cbedf37	0.023299797
199	0xbce76fe0	-0.028251588
200	0xbd0369a5	-0.032083172
201	0xbaf0e5f5	-0.0018379079
202	0xbd560caa	-0.05225817
203	0x3c59dc06	0.013297087
204	0xbbf226b4	-0.0073898677
205	0x3cbe7472	0.023248885
206	0x3c9fd3a9	0.019510107
207	0xbd42d57b	-0.047566872
208	0x3d06f4bd	0.032948244
209	0x3cb5cece	0.022193339
210	0x3d2417be	0.040061705
211	0x3bc49642	0.0059993574
212	0x3d30c8eb	0.04316036
213	0x3c8dbb60	0.017301261
214	0x3d292c15	0.041301806
215	0xbce62694	-0.028094567
216	0xbd1a6161	-0.037690524
217	0xbd3b0add	-0.045664657
218	0x3d1f10be	0.038834326
219	0x3cf9d238	0.030495748
220	0xbd4358cb	-0.0476921
221	0x3caf7708	0.021419063
222	0x3b34714c	0.002753335
223	0xbd245454	-0.040119484
224	0x3cc2c1fd	0.023774141
225	0x3d765084	0.06013538
226	0x3cc6d55a	0.024271656
227	0x3c366f6b	0.011134963
228	0x3d0799b3	0.033105563
229	0x3ae065ce	0.0017120184
230	0x3d65ba5d	0.056085933
231	0x3d49a270	0.049227178
232	0xbcc4c999	-0.02402191
233	0xbd01b4aa	-0.031666435
234	0x3d0bc9c8	0.03412798
235	0x3ad11ee0	0.0015954636
236	0x3a1dbc35	0.000601712
237	0x3cb44697	0.022006316
238	0xbcd3142b	-0.025766453
239	0x3d2eacf7	0.04264542
240	0xbca8e6d0	-0.020617872
241	0xbcc49405	-0.023996362
242	0xbd18037c	-0.037112698
243	0x3c34396b	0.011000018
244	0xbc62a9b0	-0.013834402
245	0x3ce1f859	0.027584242
246	0xbba03eea	-0.0048903124
247	0xbd1a0f83	-0.03761245
248	0x3ca6c6ef	0.02035853
249	0x3cc114f8	0.023569569
250	0xbd512aac	-0.051066086
251	0xbd2c450d	-0.04205804
252	0x3c38aaf4	0.011271227
253	0xbc6b2b97	-0.014353654
254	0xbcc3bfeb	-0.023895225
255	0xbbd09810	-0.0063657835

module.conv_5.bias f4 [12]
0	0x3d036896	0.032082163
1	0xbd42400f	-0.047424372
2	0x3cc88087	0.02447535
3	0xbbec8176	-0.0072175814
4	0x3c3df8c9	0.01159496
5	0x3d7db1c8	0.061937124
6	0xbcb5a36d	-0.022172654
7	0x3cb61875	0.022228459
8	0x3c7574d9	0.014981472
9	0x3d225298	0.03962955
10	0x3d544c93	0.05183084
11	0x3cd91ebe	0.026503917

module.conv_6.weight f4 [12, 12, 3, 3, 3]
0	0x3d0c8de6	0.034315012
1	0xbd1845fd	-0.03717612
2	0x3d45e5bf	0.048314806
3	0xbc8858fb	-0.016643992
4	0x3d10e9ae	0.035379104
5	0x3c362ad2	0.011118608
6	0xbd21fd13	-0.03954799
7	0x3d6157b4	0.05501528
8	0xbb1fd8be	-0.0024390663
9	0xbd3cb912	-0.046074934
10	0x3d26c592	0.04071576
11	0x3cb24462	0.021761123
12	0xbd51b432	-0.05119724
13	0x3c2f1254	0.010685522
14	0x3d4b79b5	0.049676616
15	0x3cd2bdd6	0.025725286
16	0xbd0df282	-0.0346551
17	0xbcd8e833	-0.026477909
18	0xbd349b8d	-0.044093657
19	0xbd2d8953	-0.04236729
20	0xbd437c5a	-0.047726013
21	0x3d5e9751	0.054343525
22	0xbd2ad5d5	-0.041707832
23	0x3b82f098	0.003995966
24	0x3c0a443a	0.008439118
25	0x3c0494b2	0.008092092
26	0x3c97e1ee	0.018540349
27	0xbd364d16	-0.04450711
28	0x3aad42a3	0.0013218712
29	0x3cf8d316	0.030374091
30	0x3bcc4384	0.0062336344
31	0xbc94cba9	-0.018163519
32	0x3b776464	0.0037749046
33	0xbce94ada	-0.028478075
34	0xbbd76b0a	-0.0065740393
35	0xbd00130c	-0.031268165
36	0x38817a2b	6.173955e-05
37	0xbd5b2b29	-0.053507958
38	0xbb339ea9	-0.0027407801
39	0x3d2d346c	0.04228632
40	0x3b8d61ec	0.0043146517
41	0xbcf5fa42	-0.030026559
42	0xbd4adce4	-0.049527064
43	0x3d5cc41d	0.053897966
44	0x3c15ca06	0.009142404
45	0xbd08297e	-0.033242695
46	0xbd12a7a0	-0.03580439
47	0xbcc09642	-0.023509149
48	0xbc9af676	-0.01891635
49	0x3d1ee01c	0.038787946
50	0x3afb803b	0.0019187996
51	0x3d5ba70a	0.053626098
52	0x3c29283c	0.010324534
53	0x3cdcaf06	0.026938926
54	0xbd62b858	-0.055351585
55	0x3d00ab7e	0.031413548
56	0xbc27af3c	-0.01023465
57	0x3c8a15a8	0.01685603
58	0x3d298127	0.041382935
59	0xba994103	-0.0011692349
60	0xbd46230c	-0.048373267
61	0xbd59381b	-0.053032022
62	0x3c6ddf0a	0.014518509
63	0xbaa806ac	-0.0012819371
64	0xbd0dea25	-0.034647126
65	0x3d455a92	0.048182078
66	0xbd48eb7a	-0.049052693
67	0x3b21d38c	0.0024692742
68	0xbd118a74	-0.03553243
69	0xbd7980a4	-0.060913697
70	0xbd2949d5	-0.041330177
71	0x3cfd80eb	0.030945262
72	0xbd010ce2	-0.031506427
73	0x3cc55eb6	0.024093013
74	0x3c61e492	0.013787406
75	0xbc43aef6	-0.011943569
76	0xbd513fbb	-0.05108617
77	0x3bc5246c	0.0060163047
78	0xbc22582d	-0.009908718
79	0xbd1b008e	-0.037842326
80	0xbd0a7d72	-0.03381104
81	0x3c8e8289	0.017396228
82	0x3c9f7352	0.019464169
83	0x3ce79f46	0.02827419
84	0x3d4afcba	0.049557425
85	0xbcd550cb	-0.026039502
86	0x3c6bae27	0.014384783
87	0x3bba88b6	0.0056925667
88	0x3c875fa8	0.016525105
89	0xb9d250b2	-0.00040114444
90	0xbc7c98df	-0.015417307
91	0x3bdf1858	0.006808322
92	0x39e885ca	0.0004435017
93	0x3d1cdfd1	0.038299385
94	0xbcdd36f2	-0.027003739
95	0xbc39dd3a	-0.011344248
96	0xbc5ebc88	-0.013594754
97	0xbcd0c367	-0.0254838
98	0xbd395494	-0.045246676
99	0xbd0aad4f	-0.033856686
100	0x3d0bff65	0.03417911
101	0x3d4a695e	0.049416892
102	0xbcf42983	-0.02980495
103	0xbcadbb16	-0.021207374
104	0x3d030742	0.031989343
105	0x3d120565	0.035649676
106	0xba33ef5c	-0.00068639754
107	0xbd46a104	-0.0484934
108	0x3d78ff77	0.060790505
109	0xbc0db019	-0.008647942
110	0x3d2cb7c7	0.04216745
111	0x3ce02c6f	0.027364938
112	0x3c894862	0.016758148
113	0x3d7345cc	0.059392735
114	0xbc3d2186	-0.011543637
115	0xbc88e4df	-0.016710697
116	0x3c7e38be	0.015516458
117	0x3c163d36	0.009169867
118	0x3b8bc36f	0.004265241
119	0x3cc8cb09	0.024510877
120	0x3b2e462d	0.002659212
121	0x3d2b5086	0.04182484
122	0xba6f8d59	-0.0009138189
123	0xbcaefbeb	-0.021360358
124	0x3d0090c8	0.031388074
125	0x3cb25f80	0.021774054
126	0x3d2ad4c1	0.041706804
127	0xb88079f9	-6.126235e-05
128	0x3ccb70dd	0.02483409
129	0xbb9409fd	-0.0045177923
130	0xbd1f0af9	-0.038828824
131	0xba6d7258	-0.0009057871
132	0x3d6b2a4c	0.057413384
133	0xbb61ccfc	-0.0034454456
134	0x3c09b6ea	0.0084054265
135	0xbd0cfc32	-0.0344202
136	0xbd1da451	-0.038486782
137	0xbce1dc96	-0.027571004
138	0x3d2e4a50	0.04255134
139	0xbc0ac1a3	-0.008469018
140	0x3ca1a9cd	0.019734288
141	0x3d07a14c	0.03311281
142	0x3d5b1bc1	0.053493265
143	0x3cbfd915	0.023418942
144	0x3c265b60	0.010153621
145	0x3ce4705d	0.02788561
146	0x3c73e1d2	0.014885383
147	0xbd600905	-0.0546961
148	0xba844c79	-0.0010093591
149	0xbd6d4b6d	-0.05793326
150	0x3d48e7ab	0.04904906
151	0xbd3ebffd	-0.046569813
152	0x3d41a9c3	0.047281038
153	0xbb2f48d0	-0.002674628
154	0x3c9cc621	0.019137444
155	0xbd4d464f	-0.05011588
156	0xbcfef27f	-0.03112149
157	0xbd66c0ef	-0.05633634
158	0xbbf54bfb	-0.007485864
159	0x3d069f34	0.03286667
160	0xbd492c1a	-0.049114324
161	0xbd41b733	-0.047293853
162	0x3c92d548	0.017923966
163	0x3c5f6ffb	0.013637538
164	0xbc2ae3f7	-0.010430328
165	0xbc849c3b	-0.016187778
166	0xbc37f136	-0.011226943
167	0x3d5aebd0	0.053447545
168	0x3d595a82	0.05306483
169	0xbbfee1d2	-0.0077783847
170	0x3c48f54e	0.012265516
171	0xbd0ff104	-0.03514196
172	0x3d9497a2	0.07255484
173	0xbc73272b	-0.014840881
174	0xbd1f0c96	-0.038830362
175	0x3ce6622e	0.028122988
176	0x3c1cc5a4	0.009568606
177	0x3bf29989	0.0074035567
178	0x3c205fa6	0.009788429
179	0x3c0219c1	0.0079407105
180	0x3cec8bcd	0.028875256
181	0x3d8109ae	0.063006744
182	0xbc3e7399	-0.01162424
183	0xbc188b4d	-0.009310556
184	0xbce7ba35	-0.028287033
185	0x3d49e52d	0.049290825
186	0xbba545a8	-0.005043704
187	0x3cd2ce42	0.025733117
188	0x3cb319e8	0.021862939
189	0xbc082391	-0.008309261
190	0x3d4f11c1	0.05055404
191	0xbd056c36	-0.0325739
192	0xbc227df1	-0.009917722
193	0x3cbb45d4	0.022860445
194	0x3d364b48	0.044505388
195	0xbd2d356b	-0.04228727
196	0x3bf2f941	0.0074149673
197	0x3c6ec13a	0.014572436
198	0xbc824233	-0.015900707
199	0xbcd2ed50	-0.025747925
200	0x3d0a6272	0.03378529
201	0xbd48430f	-0.048892077
202	0xbcc39e76	-0.023879271
203	0xbbfe54d9	-0.0077615795
204	0xbd50ade8	-0.0509471
205	0x3c363b57	0.011122546
206	0xbd4d396f	-0.0501036
207	0x39b83396	0.0003513365
208	0x3d41b2cb	0.04728965
209	0xbcb5427e	-0.022126433
210	0x3d29b475	0.041431863
211	0xbd4de316	-0.050265394
212	0xbc757432	-0.014981316
213	0xbd4f80fc	-0.05066012
214	0x3c213e3e	0.0098415
215	0xbd65c999	-0.05610046
216	0x3d139b4b	0.03603677
217	0xbc90eac8	-0.017690077
218	0xbca03623	-0.019557064
219	0x3d31e47a	0.043430783
220	0x3bfc6c65	0.0077033513
221	0xbd3d0883	-0.046150696
222	0x3d2cf90e	0.042229705
223	0x3c575ceb	0.013144712
224	0x3d1a0ce9	0.03760997
225	0xbc8e59c3	-0.017376786
226	0x3d0c1ec9	0.034209047
227	0xbc0a970b	-0.008458863
228	0x3c14c286	0.009079581
229	0x3b207498	0.0024483558
230	0x3d1c00e8	0.0380868
231	0xbc54fcc7	-0.01299972
232	0x3d798cb2	0.060925193
233	0x3cb2fb4c	0.021848343
234	0xbb7dd37a	-0.0038730786
235	0xbd15abc7	-0.036540773
236	0x3d2e3f20	0.04254067
237	0x3d1b081b	0.037849527
238	0xbcd56e99	-0.026053714
239	0xbbd4b1b7	-0.006490912
240	0x3d60bbd9	0.054866645
241	0xbca58fe0	-0.020210207
242	0xbc9b35b8	-0.018946514
243	0xba887947	-0.001041212
244	0x3b190013	0.0023345992
245	0x3cff5b1b	0.031171372
246	0x3c409252	0.0117536355
247	0xbca2babf	-0.019864438
248	0x3d5bcd13	0.05366237
249	0x3d457fcd	0.048217583
250	0xbc21b286	-0.009869223
251	0x3d23900a	0.03993229
252	0x3d606f01	0.05479336
253	0x3c9f9b3a	0.019483197
254	0x3d2c037a	0.041995503
255	0xbc1b6f94	-0.0094870515

module.conv_6.bias f4 [12]
0	0x3d25fe57	0.04052576
1	0xbd4d56e5	-0.050131697
2	0x3ca90c65	0.020635793
3	0xbc82f2d4	-0.01598493
4	0xbcfd48f8	-0.030918583
5	0xbcb54d3a	-0.022131551
6	0x3ccdbbe2	0.025114004
7	0xbc2c9cb0	-0.010535404
8	0xbc51f576	-0.01281487
9	0x3d817246	0.06320624
10	0x3ca4705e	0.020073112
11	0xbce3e0f4	-0.027817227
