model3/FSRCNN3D_epoch_20.pth (torch, 265262 bytes, 15 tensors)

module.conv_1.weight f4 [56, 1, 5, 5, 5]
-0.038430538 0.071024165 0.05451671 0.08533003 0.07666748 -0.06365766 0.03961017 -0.066011705
0.04963224 -0.06885101 0.009775974 0.060679354 -0.09468585 -0.010873475 -0.052119143 0.010375156
-0.046169765 -0.041703388 -0.06552806 -0.026388438 -0.076794535 -0.021562625 -0.05675923 -0.058632694
0.0885774 0.055738833 -0.010746746 -0.07910994 -0.007900819 -0.059418388 0.031188246 -0.08489509
0.06747271 -0.06064147 -0.08319015 0.060301464 -0.07368091 -0.023797467 -0.051756322 -0.07256145
-0.017479038 0.0032703294 0.0556328 -0.07061089 0.01843446 -0.090271026 0.0058477903 0.0070901406
0.028332045 0.06389711 0.06131612 0.0016047345 -0.07818307 0.03561761 0.016602492 -0.0341564
0.06640719 0.030629484 0.016572447 -0.007751726 0.010322892 -0.017685078 0.039108064 -0.07027948
-0.0703218 -0.09372655 -0.04575981 0.06662911 0.03992321 -0.07901487 0.030441917 0.03273664
-0.045064352 -0.06732961 -0.06977931 -0.057015568 0.0423764 -0.048038475 0.013775712 0.023684869
-0.045711044 0.06412465 -0.071697846 -0.042368468 -0.03605015 0.06590693 0.0017471022 0.021429654
-0.035427134 -0.00052767526 -0.061456922 0.0356019 0.03046162 -0.059583038 0.041301187 -0.023551907
-0.036608014 -0.004845075 0.07413398 -0.051708423 0.03402592 0.08398756 0.092651784 0.045918934
-0.03663149 -0.04799359 0.05000777 -0.034175135 -0.08918753 0.008218997 0.033015855 -0.019780504
0.05868574 0.030240085 0.03549939 -0.08024797 0.043767843 0.013386082 0.012269248 0.04526834
-0.048619676 -0.04736623 -0.058762603 -0.056304637 -0.03170807 -0.03717963 -0.0065184976 -0.018650504
-0.066220246 0.017393578 -0.031284116 0.09369806 -0.06885696 -0.00496642 0.050990067 -0.028400375
0.0012946064 0.062986255 0.045523956 -0.0034254736 -0.07013127 -0.024395818 0.038787644 -0.061767504
0.08514432 0.0044121267 0.055256188 0.026080182 0.042712692 0.07367014 0.029376317 0.069264665
0.05873538 -0.076840304 -0.062293213 0.024512999 -0.051667072 -0.040029023 0.05870907 0.04596368
0.0017179115 0.04058609 -0.040232517 0.009010826 0.024715066 0.08741491 -0.06722777 0.037837427
0.0069954577 0.08845005 -0.03674923 -0.069931194 0.055298474 -0.0049210866 0.08648019 0.09164522
-0.06932544 -0.0028781784 0.004833763 0.06775195 0.058841065 0.07896258 -0.069208965 -0.026685042
0.07904654 0.057631455 -0.016568953 0.08602719 0.053229194 0.077115834 0.009105134 -0.014555696
0.07068591 0.043166503 0.08343616 0.0913743 0.0064222175 0.051125012 0.03802891 0.09510903
0.024349911 -0.01024901 -0.06518911 0.014392589 -0.012004646 -0.027455438 -0.034793984 -0.08050876
0.079877235 0.067319356 0.02267105 -0.068393126 0.016275236 0.03857384 -0.06340294 0.05121963
0.018153915 -0.007580746 0.08437658 -0.057577264 0.090993345 -0.023607517 0.053043842 -0.05358265
-0.07513977 -0.0323778 -0.0013773694 -0.015867274 0.023075402 -0.06314965 -0.04873864 -0.017874556
-0.06571211 0.090668 0.0054476433 -0.07673896 0.00041905753 0.015949646 0.01835511 0.01707879
0.005470886 -0.043015953 -0.05508408 -0.051837157 0.07826371 -0.0305163 0.0055197272 0.017441094
-0.04293659 -0.01578323 0.020105327 -0.038516924 -0.05070473 0.014680321 0.09307066 0.05774418
00000000: 5769 1dbd 1e75 913d ea4c 5f3d 83c1 ae3d
00000010: d703 9d3d f25e 82bd 463e 223d 2531 87bd
00000020: 2d4b 4b3d c201 8dbd 682b 203c ea8a 783d
00000030: a8ea c1bd a926 32bc e27a 55bd 8ffc 293c
00000040: 821c 3dbd 2cd1 2abd 9333 86bd 912c d8bc
00000050: 7446 9dbd 1aa4 b0bc 5e7c 68bd d628 70bd
00000060: 1168 b53d 674e 643d 1f13 30bc 6404 a2bd
00000070: 7072 01bc b260 73bd 7e7e ff3c 7add adbd
00000080: 222f 8a3d 3163 78bd 995f aabd abfe 763d
00000090: 04e6 96bd e8f2 c2bc 70fe 53bd 199b 94bd
000000a0: 3330 8fbc 0653 563b 38df 633d 719c 90bd
000000b0: dd03 973c 04e0 b8bd d29e bf3b 6954 e83b
000000c0: 9b18 e83c 7ddc 823d 9d26 7b3d f455 d23a
000000d0: 721e a0bd c5e3 113d f301 883c 95e7 0bbd
000000e0: 7e00 883d afea fa3c f1c2 873c 3102 febb
000000f0: 5921 293c 4ce0 90bc c72f 203d b0ee 8fbd
00000100: e004 90bd b5f3 bfbd a36e 3bbd d874 883d
00000110: 8586 233d 8cd2 a1bd 5461 f93c db16 063d
00000120: 6695 38bd 1be4 89bd 74e8 8ebd 2889 69bd
00000130: e092 2d3d fec3 44bd 86b3 613c c506 c23c
00000140: 813b 3bbd c953 833d 52d6 92bd 8f8a 2dbd
00000150: 52a9 13bd 36fa 863d 06ff e43a 3e8d af3c
00000160: 0b1c 11bd b053 0aba 41ba 7bbd 4cd3 113d
00000170: a68a f93c 580d 74bd 6f2b 293d eeef c0bc
00000180: 49f2 15bd 6fc3 9ebb 8ed3 973d 36cc 53bd
00000190: c35e 0b3d ab01 ac3d 38c0 bd3d 7e15 3c3d
000001a0: e70a 16bd ed94 44bd f3d4 4c3d 3afb 0bbd
000001b0: f4a7 b6bd f9a8 063c a23b 073d b90a a2bc
000001c0: 7560 703d 0eba f73c cf67 113d 0c59 a4bd
000001d0: e945 333d 4c51 5b3c f504 493c 4b6b 393d
000001e0: 6d25 47bd 1803 42bd 0eb1 70bd b19f 66bd
000001f0: 52e0 01bd ab49 18bd 1f99 d5bb f1c8 98bc
00000200: 7b9e 87bd fa7c 8e3c c623 00bd c5e4 bf3d
00000210: e104 8dbd 5abd a2bb f6da 503d e7a7 e8bc
00000220: c8af a93a f0fe 803d 5477 3a3d e97d 60bb
00000230: fca0 8fbd bdd9 c7bc cbdf 1e3d ecff 7cbd
00000240: 2560 ae3d 9a93 903b 5054 623d 1ba6 d53c
00000250: 81f3 2e3d 5fe0 963d 9aa6 f03c a2da 8d3d
00000260: 8394 703d 735e 9dbd 2b27 7fbd 7ccf c83c
00000270: daa0 53bd 79f5 23bd ec78 703d 6944 3c3d
00000280: 8b2b e13a 9a3d 263d daca 24bd 25a2 133c
00000290: 4077 ca3c 9706 b33d b7ae 89bd 6bfb 1a3d
000002a0: 273a e53b 4d25 b53d 5c86 16bd 1638 8fbd
000002b0: a780 623d 1141 a1bb 871c b13d 7db0 bb3d
000002c0: 7ffa 8dbd d29f 3cbb 8b64 9e3b 89c1 8a3d
000002d0: 5403 713d 22b7 a13d 6ebd 8dbd 979a dabc
000002e0: 27e3 a13d f60e 6c3d 9dbb 87bc 062f b03d
000002f0: db06 5a3d e8ee 9d3d b32d 153c 047b 6ebc
00000300: c6c3 903d 5ccf 303d 94e0 aa3d 7322 bb3d
00000310: 7771 d23b 7668 513d 34c4 1b3d 86c8 c23d
00000320: 7779 c73c 77eb 27bc de81 85bd e5ce 6b3c
00000330: 22af 44bc 3aea e0bc 2384 0ebd c7e1 a4bd
00000340: ad96 a33d bbde 893d a3b8 b93c b211 8cbd
00000350: a553 853c 9aff 1d3d 67d9 81bd adcb 513d
00000360: 85b7 943c e867 f8bb a1cd ac3d 23d6 6bbd
00000370: b85a ba3d 8d64 c1bc 8044 593d 7b79 5bbd
00000380: e1e2 99bd 969e 04bd d988 b4ba 16fc 81bc
00000390: a008 bd3c 9b54 81bd 2ba2 47bd a96d 92bc
000003a0: 1294 86bd 25b0 b93d 2582 b23b 5129 9dbd
000003b0: f3b4 db39 d5a8 823c 755d 963c d2e8 8b3c
000003c0: 1e45 b33b 7f31 30bd d89f 61bd 3353 54bd
000003d0: b948 a03d 52fd f9bc d4de b43b a0e0 8e3c
000003e0: 47de 2fbd d54b 81bc edb3 a43c ecc3 1dbd
000003f0: c3af 4fbd bb85 703c d59b be3d 2985 6c3d

module.conv_1.bias f4 [56]
0.03824951 0.02748292 0.093918614 -0.021395743 -0.020563662 0.04602485 0.020582207 -0.07298098
0.0699939 0.024241827 0.074046 0.06854109 0.07543164 0.07436655 0.07394051 -0.066012286
0.042078447 0.061528053 -0.042580444 -0.060045864 -0.05795345 0.03612614 -0.047883693 -0.01768815
0.07377927 -0.011692688 0.036019452 -0.06395545 0.04598994 0.008810307 -0.043868873 0.0050035873
0.029226838 0.057525266 -0.036008295 -0.020185659 0.0007876858 0.050288424 0.058979645 -0.040108353
0.015410307 0.06614989 -0.03690135 0.07855313 -0.052379783 0.065864995 0.084342115 -0.026047364
-0.08303901 0.044937998 0.0049314415 0.059576433 -0.048699055 0.0744042 0.07171884 -0.037583403
00000000: 85ab 1c3d dc23 e13c 6758 c03d 2046 afbc
00000010: 2075 a8bc 8e84 3c3d 049c a83c 0d77 95bd
00000020: f658 8f3d cc96 c63c 6ea5 973d 455f 8c3d
00000030: e77b 9a3d 7d4d 983d 1f6e 973d 7331 87bd
00000040: 735a 2c3d d704 7c3d d568 2ebd a7f2 75bd
00000050: 9960 6dbd 01f9 133d b121 44bd bde6 90bc
00000060: 9619 973d b092 3fbc 2289 133d 13fb 82bd
00000070: f35f 3c3d 1b59 103c d9af 33bd 22f5 a33b
00000080: 1f6d ef3c 9d9f 6b3d 6f7d 13bd 655c a5bc
00000090: b37c 4e3a 3cfb 4d3d a494 713d a848 24bd
000000a0: 837b 7c3c 9879 873d df25 17bd 77e0 a03d
000000b0: 2f8c 56bd 3ae4 863d 8fbb ac3d 4861 d5bc
000000c0: 5b10 aabd e810 383d ee97 a13b 6b06 743d
000000d0: a978 47bd 3b61 983d 54e1 923d 0ef1 19bd

module.conv_2.weight f4 [12, 56, 1, 1, 1]
0.095709674 0.030045768 -0.089811996 0.03783504 -0.12724495 -0.04003386 0.045533147 -0.05628234
-0.058370315 0.07885105 -0.10157248 0.043289598 -0.03751811 -0.025442258 0.048263174 -0.01996337
0.057691485 0.076165415 0.0042073247 -0.038719732 -0.10730875 0.030987924 0.06845979 0.03353994
-0.08710296 0.06143738 0.013575657 0.008242646 0.06944018 0.024837725 0.1497071 0.076179035
0.046479687 0.013297688 0.09149196 -0.014166241 0.12715073 -0.054891195 0.08143544 0.13687544
0.046075355 -0.11469776 0.13268755 0.04693729 0.005151524 -0.045013636 -0.028086578 0.07476369
0.07219692 0.11351718 0.022129793 -0.035777424 0.10883185 0.0964021 -0.0499636 0.03933316
-0.1357249 0.121608734 -0.02975319 0.10521821 -0.063967705 -0.057519116 -0.034748938 -0.11386242
0.065738395 0.055907745 -0.03777709 0.08093068 0.12638327 0.13161787 -0.13685097 0.058788862
0.0846786 -0.09794491 0.13045317 0.10503722 0.12950814 -0.087007314 0.043261386 0.13566701
-0.026330527 -0.026591606 -0.13476881 -0.0537137 0.021657433 0.06033285 -0.0190526 -0.0041713286
-0.1270561 -0.07653148 -0.04719984 -0.1212797 0.12565717 -0.032113723 -0.0729404 -0.088512205
0.115054265 -0.09048416 -0.12520215 -0.06304365 0.04640064 0.03383588 -0.12744181 0.022974808
0.11958563 0.10967286 0.0325241 -0.09301666 0.0940911 -0.137602 -0.14478587 0.046298865
0.090975404 -0.076201275 -0.049233582 0.020859346 -0.11718541 0.038127445 0.13649088 -0.093819305
-0.1256778 -0.00945359 0.08132489 0.050522186 0.09181167 -0.0702939 -0.005730087 -0.09302275
-0.10256289 0.10485606 0.12705773 0.13693105 0.09339991 0.107141964 0.071575075 0.10681474
-0.05142106 -0.13401201 -0.0873881 0.0010313129 -0.042526647 -0.10691533 -0.12546158 0.07287583
0.11856992 -0.039545555 0.026176492 -0.09117095 0.09141428 -0.13128184 -0.03880414 -0.037478626
-0.12145091 0.06662141 -0.024627289 -0.0045309314 0.072058715 0.0055135293 -0.08894977 -0.014066393
0.069311954 -0.0032959306 0.07016082 0.081178665 0.052538745 0.06892144 -0.010456344 0.04146909
0.049116157 0.10158388 0.14894162 0.02719887 0.010719973 0.018041153 0.130599 -0.08827524
0.11675891 0.10663519 0.05486885 -0.026045661 -0.035017688 0.10948662 0.12971428 -0.10314453
0.15992966 -0.039259374 0.031729385 0.033817086 -0.120350525 0.0276284 0.07257299 0.088822015
-0.0889335 0.058871448 -0.029390309 0.035374977 0.124185614 -0.09689792 0.088869944 -0.06358009
-0.07330231 0.004944971 0.13410014 0.102298334 -0.080402516 0.04221074 0.12551507 -0.12370206
0.101805374 -0.09444018 0.09846326 0.09301039 0.075939335 -0.011673135 -0.014666986 0.14391835
-0.05479141 -0.01069449 0.051340707 0.008347244 0.062695906 -0.043126777 -0.06125849 -0.033700556
-0.14607087 0.11372022 0.09819984 -0.1073986 0.09969077 -0.1280052 -0.0493913 0.0061446214
0.12022363 -0.09821355 0.09246167 -0.14703971 0.098599456 -0.030961512 -0.035846476 -0.018762365
-0.059084672 -0.14311859 0.08132555 -0.07281766 -0.110139646 0.09808366 0.09398805 0.12238023
-0.014237044 0.01719459 0.000515718 0.031638205 -0.09523645 0.106310114 0.15419891 0.017547464
00000000: 6f03 c43d 8b22 f63c 5aef b7bd eaf8 1a3d
00000010: 804c 02be 8bfa 23bd f780 3a3d 5088 66bd
00000020: b615 6fbd a97c a13d 3b05 d0bd 6f50 313d
00000030: 97ac 19bd 486c d0bc 9baf 453d 398a a3bc
00000040: e84d 6c3d 9dfc 9b3d 99dd 893b 9598 1ebd
00000050: b1c4 dbbd 63da fd3c a534 8c3d 2d61 093d
00000060: 0963 b2bd c3a5 7b3d 6f6c 5e3c 2a0c 073c
00000070: a736 8e3d 7c78 cb3c d14c 193e c103 9c3d
00000080: 7c61 3e3d 8cde 593c 2360 bb3d 8519 68bc
00000090: cd33 023e 97d5 60bd a0c7 a63d 1329 0c3e
000000a0: 83b9 3c3d a9e6 eabd 3fdf 073e 5141 403d
000000b0: 1ece a83b 3860 38bd d315 e6bc b51d 993d
000000c0: fbdb 933d b27b e83d 8a49 b53c 598b 12bd
000000d0: 3ce3 de3d 776e c53d a2a6 4cbd cf1b 213d
000000e0: 78fb 0abe 000e f93d f6bc f3bc a57c d73d
000000f0: 8001 83bd 2a99 6bbd e754 0ebd b330 e9bd
00000100: daa1 863d 85ff 643d 26bc 1abd fcbe a53d
00000110: 9e6a 013e d6c6 063e a922 0cbe 97cc 703d
00000120: f96b ad3d 5797 c8bd 8495 053e c11d d73d
00000130: c89d 043e e430 b2bd da32 313d 4bec 0a3e
00000140: 1eb3 d7bc a4d6 d9bc d600 0abe e602 5cbd
00000150: ee6a b13c 941f 773d 3314 9cbc a4af 88bb
00000160: ff1a 02be 89bc 9cbd 9f54 41bd 7e61 f8bd
00000170: 46ac 003e ae89 03bd c761 95bd e345 b5bd
00000180: 92a1 eb3d c24f b9bd fe34 00be 071d 81bd
00000190: 990e 3e3d 7e97 0a3d 1b80 02be aa35 bc3c
000001a0: 50e9 f43d 2a9c e03d fe37 053d 857f bebd
000001b0: d6b2 c03d 8ae7 0cbe bf42 14be e1a3 3d3d
000001c0: 5051 ba3d 6a0f 9cbd 27a9 49bd 38e1 aa3c
000001d0: e7fe efbd 862b 1c3d 44c4 0b3e 5624 c0bd
000001e0: aeb1 00be 3be3 1abc aa8d a63d 5af0 4e3d
000001f0: c207 bc3d 40f6 8fbd 74c3 bbbb b682 bebd
00000200: 7e0c d2bd c6be d63d 6c1b 023e a737 0c3e
00000210: 7448 bf3d 3f6d db3d f495 923d b0c1 da3d
00000220: e49e 52bd 723a 09be 88f8 b2bd 1e2d 873a
00000230: 6c30 2ebd 6df6 dabd 0079 00be ec3f 953d
00000240: c9d4 f23d 85fa 21bd 1570 d63c d6b7 babd
00000250: 6937 bb3d bf6e 06be 17f1 1ebd 3083 19bd
00000260: 41bb f8bd ce70 883d 2bbf c9bc 3578 94bb
00000270: 8593 933d d6aa b43b 4c2b b6bd ba76 66bc
00000280: 6df3 8d3d 8a00 58bb 7ab0 8f3d 0041 a63d
00000290: de32 573d af26 8d3d 1651 2bbc 7edb 293d
000002a0: 062e 493d 360b d03d 2784 183e 2ad0 de3c
000002b0: d3a2 2f3c 0acb 933c bfbb 053e a6c9 b4bd
000002c0: 4c1f ef3d 8d63 da3d 29be 603d b65d d5bc
000002d0: b56e 0fbd 853a e03d d2d3 043e 703d d3bd
000002e0: 9ac4 233e 70ce 20bd acf6 013d c983 0a3d
000002f0: 567a f6bd f454 e23c 26a1 943d 51e8 b53d
00000300: c422 b6bd 3023 713d f2c3 f0bc 5ae5 103d
00000310: 0755 fe3d 6b72 c6bd 7201 b63d 4736 82bd
00000320: 861f 96bd 6c09 a23b 8c51 093e ca81 d13d
00000330: 13aa a4bd 2be5 2c3d 0687 003e 8157 fdbd
00000340: 567f d03d da69 c1bd 1ba7 c93d 3b7c be3d
00000350: 1586 9b3d ad40 3fbc cc4d 70bc 555f 133e
00000360: f56c 60bd f137 2fbc a24a 523d e1c2 083c
00000370: b666 803d b4a5 30bd 2fea 7abd 9809 0abd
00000380: 9a93 15be 26e6 e83d ff1c c93d ccf3 dbbd
00000390: ad2a cc3d cc13 03be 884e 4abd d258 c93b
000003a0: ce37 f63d 3024 c9bd 8b5c bd3d 9491 16be
000003b0: 83ee c93d ffa2 fdbc c1d3 12bd 88b3 99bc
000003c0: c502 72bd ae8d 12be 038e a63d 6d21 95bd
000003d0: e590 e1bd 16e0 c83d cf7c c03d 7ca2 fa3d
000003e0: 7e42 69bc abdb 8c3c 4031 073a 1097 013d
000003f0: 540b c3bd 1eb9 d93d 52e6 1d3e b3bf 8f3c

module.conv_2.bias f4 [12]
-0.07816498 0.08552051 0.008133641 0.10214535 0.07852247 -0.0796858 0.09028358 -0.053443175
-0.09224667 0.009824267 0.034839913 0.00963201
00000000: f614 a0bd 6125 af3d f742 053c 9531 d13d
00000010: 64d0 a03d 4f32 a3bd 99e6 b83d 3be7 5abd
00000020: d2eb bcbd f6f5 203c 4cb4 0e3d 94cf 1d3c

module.conv_3.weight f4 [12, 12, 3, 3, 3]
0.029138105 -0.021202173 0.031265795 -0.021749789 -0.026102515 0.01104313 -0.0155212805 -0.030235529
-0.02628207 -0.028720854 -0.05605457 0.04774275 0.008225076 0.0118418755 0.0066848067 0.037663404
-0.05795686 0.01472871 -0.0030219904 0.005459784 -0.0012195727 0.052867528 -0.010471019 0.0006364071
-0.0072441883 0.049688086 -0.034469023 -0.052459434 0.04528804 -0.005440971 0.014689853 0.0034663172
-0.035051282 -0.032106515 0.054356605 -0.0068217656 -0.05443012 -0.03853608 -0.025261372 -0.032980606
0.05474023 -0.049797572 -0.011523551 1.6723981e-05 0.0044066696 -0.042961583 0.03125687 -0.0058247247
0.010675202 -0.031743113 -0.042357966 0.045342635 0.0062358645 0.057116497 -0.020151302 -0.041069314
-0.05086313 0.0141298 0.038595658 0.038519964 0.021424426 -0.036078643 -0.04624649 -0.045036964
0.038461443 -0.030366248 0.021665743 0.035106827 -0.022799918 -0.0053634867 0.034137107 -0.045327187
-0.023400195 -0.023974268 0.028668413 -0.032794714 -0.04778245 0.05874238 -0.032731894 0.0317012
-0.0032802294 0.038459532 0.010074594 0.049888384 -0.023704614 -0.03677908 0.01922054 0.05141241
0.022172332 -0.013674132 -0.006221456 -0.051050756 -0.014675601 -0.0031818147 0.010480845 0.04349877
0.021980343 -0.04042711 -0.040944196 0.05268977 -0.009740159 -0.023132075 -0.010228804 -0.0015324625
0.048530396 -0.015670769 -0.00990007 -0.018421376 0.058134522 -0.0006935498 -0.035264473 0.014318804
-0.023246815 0.019590098 -0.031470485 0.03103028 0.054016612 0.056394834 0.031747088 0.044352166
-0.041413106 0.034793276 0.010685254 0.008795647 -0.010735917 -0.030591128 -0.042336516 0.018450836
0.018929271 0.021402843 0.055122707 0.0148305185 -0.04877644 -0.042273954 -0.018999547 -0.020335406
0.021112898 -2.7577342e-05 0.012042684 -0.0047771684 0.022429444 -0.032282818 -0.031293374 -0.012720276
-0.057082865 0.036618967 -0.034669567 0.028405562 0.00034212164 0.026512353 -0.031664208 -0.018322747
0.011475861 -0.0017442234 0.018678047 0.02602915 0.01407533 0.04196554 0.017668322 0.0062918467
0.014087869 0.014746977 -0.020805143 -0.017871248 0.06570064 -0.014904579 0.02831079 0.0347842
0.014445506 0.054385215 0.017343486 -0.0039463243 0.04617028 -0.028685905 0.06393456 0.055734366
0.03485542 0.04339195 -0.009473933 0.005756659 -0.032227986 0.06924643 0.046667866 0.0004819531
0.02192052 0.020422582 0.026096297 -0.028154813 0.011758402 -0.0075910375 0.0028773323 0.025789129
-0.0076948013 0.0667976 0.009784472 0.02197252 0.07275243 -0.02154842 0.044074666 -0.023485044
-0.018568095 -0.05984857 -0.038393438 -0.026704626 -0.05401476 0.07068656 0.055227157 0.022623235
-0.011518759 0.04808806 -0.050887637 -0.012584122 -0.008506984 0.046352666 0.0008383453 0.012883933
0.030161014 0.002221859 -0.025709718 -0.010698712 0.0132690435 0.023468476 -0.027649276 -0.057579126
0.0071968795 0.011344564 0.023290843 -0.014457285 0.045714986 -0.0063211652 0.0005900346 -0.019485341
-0.009104905 -0.025946165 0.02898821 0.050154883 0.009437068 0.023296943 -0.033408172 0.0046807113
-0.04083591 -0.043554973 -0.0541044 -0.06173758 -0.064015456 -0.017102225 -0.007461951 0.030304253
-0.060648207 0.05582686 0.017081857 0.007905869 -0.04594931 0.013096463 -0.048875295 -0.0015663614
00000000: 09b3 ee3c 2eb0 adbc 9010 003d 9d2c b2bc
00000010: f1d4 d5bc 3fee 343c f84c 7ebc 80b0 f7bc
00000020: 7f4d d7bc ff47 ebbc 7a99 65bd e78d 433d
00000030: 78c2 063c 6d04 423c 390c db3b f144 1a3d
00000040: 2c64 6dbd b050 713c 960c 46bb fde7 b23b
00000050: 12da 9fba 9f8b 583d a38e 2bbc 8fd4 263a
00000060: a860 edbb bc85 4b3d 642f 0dbd b4df 56bd
00000070: f47f 393d 2c4a b2bb b6ad 703c 272b 633b
00000080: ef91 0fbd 1f82 03bd 08a5 5e3d 1e89 dfbb
00000090: 1ef2 5ebd 02d8 1dbd f0f0 cebc ac16 07bd
000000a0: 4b37 603d 8af8 4bbd 47cd 3cbc 7a4a 8c37
000000b0: d365 903b 7cf8 2fbd 3407 003d 55dd bebb
000000c0: 0be7 2e3c 1105 02bd 8c7f 2dbd 33b9 393d
000000d0: 3956 cc3b fdf2 693d 5814 a5bc 4c38 28bd
000000e0: db55 50bd ad80 673c 7b16 1e3d 1cc7 1d3d
000000f0: 4782 af3c 33c7 13bd f66c 3dbd ae78 38bd
00000100: bf89 1d3d a3c2 f8bc 5b7c b13c 2dcc 0f3d
00000110: e5c6 babc 30c0 afbb 5ad3 0b3d 00a9 39bd
00000120: c4b1 bfbc af65 c4bc 05da ea3c c053 06bd
00000130: 88b7 43bd da9b 703d e111 06bd 1ed9 013d
00000140: 1ef9 56bb be87 1d3d e90f 253c c357 4c3d
00000150: 2e30 c2bc a9a5 16bd 6574 9d3c d295 523d
00000160: c0a2 b53c 7709 60bc 5bdd cbbb 991a 51bd
00000170: ef71 70bc fe85 50bb dab7 2b3c c42b 323d
00000180: 1f10 b43c e696 25bd 1ab5 27bd 3ad1 573d
00000190: 3095 1fbc 7a7f bdbc b796 27bc e9dc c8ba
000001a0: cfc7 463d fc5f 80bc e733 22bc 6de8 96bc
000001b0: 771e 6e3d 57cf 35ba 7b71 10bd 6b99 6a3c
000001c0: 1b70 bebc 6a7b a03c 32e7 00bd 3733 fe3c
000001d0: 8640 5d3d 45fe 663d 3c09 023d 9eaa 353d
000001e0: caa0 29bd 6583 0e3d 3411 2f3c 9e1b 103c
000001f0: b3e5 2fbc 3f9a fabc 0e69 2dbd 3526 973c
00000200: 8f11 9b3c 0455 af3c 59c8 613d b4fb 723c
00000210: cec9 47bd 7427 2dbd f0a4 9bbc 7096 a6bc
00000220: f5f4 ac3c e455 e7b7 ad4e 453c cb89 9cbb
00000230: f4bd b73c fd3a 04bd 7b2d 00bd b468 50bc
00000240: b9cf 69bd c5fd 153d ad01 0ebd c8b2 e83c
00000250: ca5e b339 6f30 d93c 54b2 01bd 9619 96bc
00000260: 4005 3c3c 6d9e e4ba b402 993c 153b d53c
00000270: 379c 663c 0fe4 2b3d 28bd 903c d62b ce3b
00000280: ced0 663c 4e9d 713c 8c6f aabc b966 92bc
00000290: 0f8e 863d 5632 74bc 08ec e73c e179 0e3d
000002a0: d8ac 6c3c 08c3 5e3d ed13 8e3c 2b50 81bb
000002b0: 0c1d 3d3d b4fe eabc 1ff0 823d b849 643d
000002c0: 8fc4 0e3d c2bb 313d 8e38 1bbc 5ba2 bc3b
000002d0: 7e01 04bd 13d1 8d3d ce26 3f3d a6ae fc39
000002e0: aa92 b33c 424d a73c e7c7 d53c eca4 e6bc
000002f0: 50a6 403c 3dbe f8bb a091 3c3b b943 d33c
00000300: ac24 fcbb 2ecd 883d 0d4f 203c b7ff b33c
00000310: 3aff 943d 5086 b0bc a387 343d b563 c0bc
00000320: 1e1c 98bc c623 75bd 7042 1dbd a9c3 dabc
00000330: 953e 5dbd 1dc4 903d df35 623d 5d54 b93c
00000340: 2db9 3cbc fcf7 443d 8e6f 50bd a22d 4ebc
00000350: e160 0bbc 4bdc 3d3d 67c4 5b3a 2217 533c
00000360: 3b14 f73c 9c9c 113b 309d d2bc a749 2fbc
00000370: 6766 593c f640 c03c bc80 e2bc 17d8 6bbd
00000380: cdd3 eb3b 8dde 393c 70cc be3c 40de 6cbc
00000390: a33f 3b3d c721 cfbb 8dac 1a3a b99f 9fbc
000003a0: bd2c 15bc 0d8d d4bc af78 ed3c 356f 4d3d
000003b0: ef9d 1a3c 3bd9 be3c 02d7 08bd a760 993b
000003c0: 8e43 27bd b366 32bd 939c 5dbd 8be0 7cbd
000003d0: 891a 83bd f719 8cbc 6283 f4bb a040 f83c
000003e0: 416a 78bd b5aa 643d 40ef 8b3c 9e87 013c
000003f0: 5835 3cbd 8c92 563c 7631 48bd 5e4e cdba

module.conv_3.bias f4 [12]
0.059028286 0.015276358 0.0025713942 0.04441818 0.03372195 -0.02246532 -0.052269176 -0.013433511
-0.031821214 -0.009920762 0.011503137 0.0304359
00000000: a5c7 713d b149 7a3c d684 283b d6ef 353d
00000010: 0720 0a3d 3109 b8bc 3418 56bd 3b18 5cbc
00000020: f656 02bd b18a 22bc a777 3c3c b554 f93c

module.conv_4.weight f4 [12, 12, 3, 3, 3]
0.0036223487 0.030445479 -0.043741364 0.014409175 -0.00058945746 0.05025396 -0.017205315 0.028630493
-0.018512651 -0.008184616 0.058030277 0.009090138 0.029844718 -0.018641165 -0.032616165 0.017830612
-0.037765346 -0.00070614886 0.05014593 0.0016232186 0.04978802 0.012562238 0.051433396 0.039828245
0.036696497 0.008549129 -0.028652836 -0.0018578474 0.029518008 0.03047991 0.071491346 0.06554313
0.032663643 0.06536492 -0.014738912 -0.03568431 -0.008082642 -0.014795524 -0.043635856 0.02432869
-0.037731368 0.060857162 -0.010460104 -0.030790009 -0.03403755 -0.02100029 0.03428722 -0.005701484
-0.02552849 -0.024461092 0.02650401 -0.0100627 -0.019674322 0.045462266 0.025809225 -0.005494814
-0.0039560106 0.0017230323 -0.03469712 -0.02045191 -0.0032741174 0.05901876 -0.029289072 -0.012259006
0.035186265 0.0058983867 0.07716162 -0.007868343 0.055486046 0.05928101 0.062042546 0.062479485
0.042995203 -0.011406599 -0.045338456 0.00016791906 0.04063874 0.0550792 -0.0036222525 0.053647447
-0.03264659 -0.014339162 0.050229993 -0.0042151213 -0.05345405 -0.05313 0.04764038 -0.021254381
-0.04089485 0.0147445155 -0.0035539633 -0.05425159 -0.0054643555 0.026570631 -0.012121592 -0.006382798
0.044051558 0.016517885 0.050961655 -0.0033857825 0.002424492 0.032289997 -0.017180705 0.045044012
-0.022644535 -0.015454136 -0.022735888 0.013912578 -0.0098934835 0.021552924 -0.00960374 -0.059156127
-0.010592173 -0.012897816 -0.013636616 -0.017285632 -0.0384237 0.015267722 -0.041458033 0.035159845
-0.0030076772 -0.04167068 0.0066023543 -0.031976692 -0.03398237 0.017074008 -0.046694916 -0.002662991
-0.004483487 0.01906481 -0.04425308 0.05171685 -0.03079385 -0.033700164 -0.007915154 0.037695613
0.041399933 -0.03108151 0.05459228 0.043362986 -0.025703026 -0.030338703 0.021864144 -0.04351
0.0008174366 -0.047599215 -0.018394262 -0.015258005 0.04995073 -0.05158299 0.070018046 0.0009291034
0.042082425 -0.008212259 -0.031950764 0.03668785 0.005731483 -0.0275835 -0.04210156 0.008843111
0.014363271 -0.006669752 -0.028231455 -0.00033294494 0.002171119 -0.010968513 -0.035039976 0.021561094
0.015587999 0.03377153 -0.04976558 0.002825704 0.047981817 -0.046214335 -0.023272986 0.014505016
-0.027193917 0.012638575 0.00676979 0.03637302 0.02239173 -0.054879956 -0.03428281 0.01377409
-0.030234132 0.0038873025 0.011819435 -0.0065819887 -0.00061008 0.016969977 0.05731209 0.013896882
0.047707982 -0.050778504 0.017910106 0.046755232 0.04168538 0.010323736 0.040884923 0.049215324
0.0007071808 0.0015046478 0.032957066 -0.022182295 0.020763472 -0.021956949 0.04563419 -0.042997763
0.0064519676 0.018652817 0.0021134499 -0.05208845 0.03693178 0.017375503 -0.004928098 0.022977045
0.019517971 0.021248937 -0.026020635 0.03807879 -0.04943644 0.001669254 0.005499279 -0.012641925
-0.0017245483 0.004834606 -0.007773449 0.0040850705 -0.0023207746 0.013928675 -0.044756986 0.01250593
-0.010153351 -0.0009475276 -0.012327106 -0.027168136 0.014196092 0.0028329568 0.03282409 0.008806997
-0.041281648 0.009222269 0.017493896 0.061272543 -0.0343929 -0.01442415 0.030711923 0.051670622
0.04176876 0.053005874 -0.036026496 -0.02793791 -0.017912786 0.06809586 0.036605 -0.0126631
00000000: ed64 6d3b cc68 f93c 252a 33bd 7614 6c3c
00000010: d285 1aba 19d7 4d3d 29f2 8cbc 7f8a ea3c
00000020: d8a7 97bc c518 06bc 28b1 6d3d cdee 143c
00000030: e97c f43c 5bb5 98bc 8798 05bd 8111 923c
00000040: d6af 1abd d91c 39ba d265 4d3d 2ec2 d43a
00000050: 86ee 4b3d d8d1 4d3c d3ab 523d f122 233d
00000060: 114f 163d a511 0c3c 5ab9 eabc 0483 f3ba
00000070: c0cf f13c 01b1 f93c 0e6a 923d 7a3b 863d
00000080: 50ca 053d 0bde 853d 7a7b 71bc b629 12bd
00000090: 0f6d 04bc ed68 72bc 83bb 32bd f64c c73c
000000a0: 358c 1abd 5c45 793d db60 2bbc 543b fcbc
000000b0: f56a 0bbd cd08 acbc c270 0c3d 84d3 babb
000000c0: 2021 d1bc a162 c8bc f01e d93c 06de 24bc
000000d0: 0b2c a1bc a436 3a3d de6d d33c d70d b4bb
000000e0: 6ca1 81bb 5fd7 e13a 911e 0ebd c48a a7bc
000000f0: 9392 56bb a8bd 713d a3ef efbc ffd9 48bc
00000100: 791f 103d 4147 c13b e906 9e3d 39ea 00bc
00000110: 5645 633d a5d0 723d 5320 7e3d 7dea 7f3d
00000120: bd1b 303d bee2 3abc d1b4 39bd 6e13 3039
00000130: cf74 263d ba9a 613d 5063 6dbb 6dbd 5b3d
00000140: 6eb8 05bd ceee 6abc f7bd 4d3d 001f 8abb
00000150: a2f2 5abd d89e 59bd 8f22 433d ab1d aebc
00000160: 5c81 27bd fb92 713c 9ce9 68bb ea36 5ebd
00000170: 560e b3bb a7aa d93c a499 46bc ca26 d1bb
00000180: 686f 343d 8450 873c 2bbd 503d 01e4 5dbb
00000190: 3ae4 1e3b 8442 043d 8dbe 8cbc 1280 383d
000001a0: 0881 b9bc 5833 7dbc 9d40 babc 95f1 633c
000001b0: 4718 22bc c28f b03c 0159 1dbc b24d 72bd
000001c0: cb8a 2dbc 5c51 53bc 1d6c 5fbc 999a 8dbc
000001d0: 2b62 1dbd 7825 7a3c e6cf 29bd c503 103d
000001e0: 731c 45bb e0ae 2abd 9058 d83b fef9 02bd
000001f0: 1931 0bbd cade 8b3c 2b43 3fbd 9385 2ebb
00000200: 37ea 92bb ce2d 9c3c b842 35bd 0cd5 533d
00000210: 6243 fcbc 2f09 0abd 90ae 01bc b766 1a3d
00000220: fa92 293d a79e febc 289c 5f3d 639d 313d
00000230: 278f d2bc df88 f8bc 6f1c b33c 8b37 32bd
00000240: 3e49 563a 65f7 42bd 90af 96bc b6fc 79bc
00000250: 2399 4c3d af48 53bd 9f65 8f3d 138f 733a
00000260: 9f5e 2c3d b68c 06bc cede 02bd 0046 163d
00000270: 2acf bb3b cbf6 e1bc af72 2cbd b2e2 103c
00000280: ed53 6b3c ef8d dabb a745 e7bc 1d8f aeb9
00000290: 5549 0e3b 47b5 33bc 1486 0fbd e4a0 b03c
000002a0: ce64 7f3c 0454 0a3d fed6 4bbd 722f 393b
000002b0: 9588 443d 3e4b 3dbd fda6 bebc 72a6 6d3c
000002c0: c7c5 debc 0712 4f3c 1dd5 dd3b e0fb 143d
000002d0: dd6e b73c cec9 60bd 226c 0cbd b9ac 613c
000002e0: 92ad f7bc 1dc2 7e3b 4ea6 413c b9ad d7bb
000002f0: c7ed 1fba 9f04 8b3c 15c0 6a3d bfaf 633c
00000300: 7269 433d 1ffd 4fbd 37b8 923c 6a82 3f3d
00000310: 4abe 2a3d e324 293c f376 273d 0296 493d
00000320: 1a62 393a 9a37 c53a fdfd 063d a5b7 b5bc
00000330: 2818 aa3c 0fdf b3bc ebea 3a3d 6c1e 30bd
00000340: 076b d33b cbcd 983c ce81 0a3b b35a 55bd
00000350: c745 173d 1257 8e3c e27b a1bb 5b3a bc3c
00000360: 27e4 9f3c 4012 ae3c 3a29 d5bc 81f8 1b3d
00000370: dd7d 4abd dfca da3a 4c33 b43b 1420 4fbc
00000380: 3d0a e2ba 9d6b 9e3b 6bb8 febb 0edc 853b
00000390: 2318 18bb 1935 643c 1a53 37bd ace5 4c3c
000003a0: 3e5a 26bc 8063 78ba a1f7 49bc b68f debc
000003b0: ba96 683c 21a9 393b 8e72 063d 394b 103c
000003c0: f216 29bd 0019 173c 5c4f 8f3c ebf8 7a3d
000003d0: 92df 0cbd 4553 6cbc 9297 fb3c 93a4 533d
000003e0: b815 2b3d b01c 593d 8590 13bd 0bde e4bc
000003f0: d6bd 92bc d875 8b3d 20ef 153d e478 4fbc

module.conv_4.bias f4 [12]
-0.05027386 -0.015500189 0.015652448 -0.013967189 -0.033107027 0.055664636 0.015390649 -0.0021621601
0.048361655 0.010612817 0.0029719514 -0.053455256
00000000: f7eb 4dbd 81f4 7dbc 9039 803c a3d6 64bc
00000010: 3c9b 07bd 9a00 643d 1029 7c3c 07b3 0dbb
00000020: df16 463d 61e1 2d3c 12c5 423b e6f3 5abd

module.conv_5.weight f4 [12, 12, 3, 3, 3]
0.0025825107 -0.053361837 0.047197104 0.00016488292 -0.050303508 0.033310357 -0.018805236 0.006140951
-0.052443467 -0.0017293944 -0.019995801 -0.017435992 -0.00045253136 0.022278368 0.0018246705 0.03946519
0.0050293896 0.01825736 0.03677083 -0.040696934 0.043629184 -0.023628967 -0.016972682 0.009645317
0.005732712 0.007645644 -0.023235893 0.015493578 -0.01684898 -0.022284253 0.009122441 0.05011789
0.040220406 -0.018060274 0.012998341 0.021713743 0.03957164 -0.027876817 -0.018924592 0.034989923
0.03967635 0.050762236 0.008804448 0.052671596 0.030775204 -0.0034265465 0.027673637 0.033502053
0.054315545 0.00840251 -0.047314048 0.04991182 -0.038326632 -0.04667856 -0.024834508 0.042521767
0.013917085 0.00054645434 0.008989228 0.024163658 0.054952186 0.023799153 -0.02097545 0.02019524
-0.0018797142 0.04391314 0.007743105 0.064637624 0.040341083 0.06310589 -0.030244675 -0.033971395
-0.027690027 0.049070287 0.038865034 -0.0017099539 0.024146382 0.055254918 -0.0406549 0.023966784
0.014932742 -0.044724394 -0.008621378 0.04060729 0.014872949 -0.020636074 -0.013435868 -0.012818658
0.057170223 0.052762408 -0.04253783 -0.019465113 -0.0072944746 0.004640817 0.007516752 -0.037770372
-0.0079794135 0.010344041 -0.010215865 0.006129078 -0.010961271 0.029909203 0.025751779 -0.03586396
0.05785961 0.0012078752 0.043441545 0.0059197578 0.05758629 -0.019943347 -0.010953799 -0.045086127
0.02454099 -0.03337703 -0.011893615 -0.011261338 0.009104276 -0.011748372 -0.032245226 0.020698994
0.05966422 0.0601581 -0.024281325 -0.033390723 -0.02324847 0.052416857 -0.037779585 0.026203705
0.032634187 -0.026486019 0.0037465114 0.059541214 0.030511124 0.024526546 -0.046620008 0.0136466
-0.009744998 0.03285491 -0.030470222 0.008351605 0.022866009 -0.00048105576 0.050538503 0.03000803
0.04043963 0.010411051 0.038610287 -0.011706929 0.05163106 -0.032709677 0.035151344 0.026770642
0.0057591465 -0.045658436 -0.020028826 0.010068999 0.028987903 0.0035698763 -0.05010995 0.045494817
0.056937564 0.00023430666 0.00789051 0.0032617084 -0.03028667 -0.04015527 0.04665394 0.041827533
-0.008135183 0.041174628 0.044648305 -0.01527807 -0.00048440247 0.039466172 0.032026496 -0.03849282
0.01773246 -0.059324645 -0.025141662 0.021858003 -0.043696173 -0.02240245 0.007097647 0.04039719
0.04010489 -0.012009927 0.042215426 0.043474555 -0.06158731 -0.05277639 0.03243638 -0.04814509
0.006362976 -0.0280946 0.04364395 -0.011824728 0.01072721 -0.013500255 0.024701282 -0.027080314
-0.03052437 -0.0021175533 -0.052873753 0.013131687 -0.007687957 0.022603553 0.019381458 -0.045664467
0.0346908 0.024339026 0.040331956 0.006031596 0.043660317 0.017388355 0.041125327 -0.027748713
-0.038223095 -0.046139624 0.038270056 0.03008674 -0.048071433 0.020885358 0.0021357602 -0.040784907
0.022912009 0.059615746 0.023810495 0.010566975 0.03284952 0.0014903947 0.05568139 0.048829608
-0.024462292 -0.032336127 0.033441972 0.00094646105 -0.00014498085 0.021702865 -0.026051441 0.042186137
-0.020866923 -0.024297403 -0.03763779 0.010802721 -0.014019628 0.027521683 -0.0050288723 -0.037707448
0.020401906 0.024007251 -0.050515294 -0.04135214 0.010763116 -0.014864296 -0.024269093 -0.0069994517
00000000: 573f 293b f191 5abd c051 413d 6ce4 2c39
00000010: 0d0b 4ebd 7170 083d 700d 9abc 083a c93b
00000020: f6ce 56bd d9ac e2ba 3cce a3bc edd5 8ebc
00000030: bb41 edb9 2081 b63c c829 ef3a 40a6 213d
00000040: 94cd a43b 7690 953c 039d 163d d4b1 26bd
00000050: 84b4 323d 8991 c1bc 4b0a 8bbc 6407 1e3c
00000060: 79d9 bb3b 4f88 fa3b 3359 bebc c7d8 7d3c
00000070: df06 8abc 778d b6bc 4a76 153c 6b48 4d3d
00000080: 27be 243d 24f3 93bc fef6 543c 05e1 b13c
00000090: df15 223d ec5d e4bc bf07 9bbc 9851 0f3d
000000a0: ab83 223d 10ec 4f3d 8840 103c 2cbe 573d
000000b0: 481c fc3c e98f 60bb d3b3 e23c 7339 093d
000000c0: fa79 5e3d aeaa 093c 60cc 41bd 5670 4c3d
000000d0: 63fc 1cbd 0532 3fbd bd71 cbbc 4e2b 2e3d
000000e0: 7c04 643c ee3f 0f3a 8e47 133c ddf2 c53c
000000f0: 8b15 613d 71f6 c23c b5d4 abbc 7d70 a53c
00000100: be60 f6ba 44de 333d dfb9 fd3b bb60 843d
00000110: b13c 253d a93d 813d aec3 f7bc 9725 0bbd
00000120: 32d6 e2bc edfd 483d f130 1f3d 8820 e0ba
00000130: a2ce c53c fb52 623d c185 26bd fd55 c43c
00000140: 76a8 743c ed30 37bd ae40 0dbc d453 263d
00000150: abad 733c fc0c a9bc 1d22 5cbc 5905 52bc
00000160: 532b 6a3d 651d 583d 263c 2ebd 4d75 9fbc
00000170: 7d06 efbb ff11 983b 164f f63b 1bb5 1abd
00000180: 16bc 02bc 0d7a 293c 7260 27bc 6fd6 c83b
00000190: e796 33bc 2504 f53c 65f5 d23c 16e6 12bd
000001a0: 33fe 6c3d 9151 9e3a c3ef 313d 87fa c13b
000001b0: 9adf 6b3d 3b60 a3bc 9077 33bc 3bac 38bd
000001c0: 300a c93c 5ab6 08bd 70dd 42bc 7a81 38bc
000001d0: 1a2a 153c 3e7c 40bc 9213 04bd f090 a93c
000001e0: 7862 743d 5768 763d a1e9 c6bc b6c4 08bd
000001f0: 9373 bebc 0fb3 563d c4be 1abd 27a9 d63c
00000200: 6dab 053d 35f9 d8bc 0888 753b 7de1 733d
00000210: 77f2 f93c e5eb c83c 9ff4 3ebd fd95 5f3c
00000220: 7ca9 1fbc df92 063d b09c f9bc 2cd5 083c
00000230: 7f51 bb3c 3636 fcb9 7601 4f3d 66d3 f53c
00000240: 07a4 253d 1d93 2a3c d225 1e3d 6bce 3fbc
00000250: 177b 533d 95fa 05bd dbfa 0f3d 1b4e db3c
00000260: 39b7 bc3b 5704 3bbd 7e13 a4bc 71f8 243c
00000270: 0a78 ed3c 96f4 693b 1740 4dbd c658 3a3d
00000280: 5d37 693d 37b0 7539 3347 013c 63c2 553b
00000290: c01b f8bc da79 24bd 3418 3f3d 5953 2b3d
000002a0: 6e49 05bc baa6 283d 24e1 363d df50 7abc
000002b0: 66f7 fdb9 48a7 213d 372e 033d a6aa 1dbd
000002c0: aa43 913c 66fe 72bd e3f5 cdbc 8e0f b33c
000002d0: c2fa 32bd 5885 b7bc 6193 e83b 8677 253d
000002e0: 0645 243d 49c5 44bc 15ea 2c3d 6012 323d
000002f0: fa42 7cbd 0e2c 58bd 02dc 043d c933 45bd
00000300: 8380 d03b a626 e6bc 00c4 323d 81bc 41bc
00000310: 2ec1 2f3c 2c30 5dbc 585a ca3c 89d7 ddbc
00000320: 3e0e fabc a6c6 0abb 2692 58bd 4a26 573c
00000330: 42eb fbbb 162b b93c ddc5 9e3c aa0a 3bbd
00000340: f117 0e3d a362 c73c 1f33 253d b2a4 c53b
00000350: 29d5 323d 0672 8e3c 0873 283d 4551 e3bc
00000360: d28f 1cbd e7fc 3cbd 10c1 1c3d 7878 f63c
00000370: 8de6 44bd c517 ab3c 1cf8 0b3b 130e 27bd
00000380: f7b1 bb3c a42f 743d 3a0e c33c 1b21 2d3c
00000390: 388d 063d 5959 c33a 2b12 643d 8e01 483d
000003a0: 2565 c8bc e372 04bd 73fa 083d ed1b 783a
000003b0: 0006 18b9 35ca b13c d569 d5bc 5fcb 2c3d
000003c0: 1cf1 aabc 590b c7bc 152a 1abd e5fd 303c
000003d0: 95b2 65bc 2775 e13c 3dc9 a4bb 2073 1abd
000003e0: e621 a73c dbaa c43c 20e9 4ebd dd60 29bd
000003f0: c857 303c 6089 73bc facf c6bc a85b e5bb

module.conv_5.bias f4 [12]
0.032159522 -0.04803039 0.024069132 -0.00835343 0.010993629 0.06481651 -0.022060424 0.024791133
0.014542234 0.03816375 0.05216469 0.031184362
00000000: b4b9 033d 84bb 44bd a12c c53c d3dc 08bc
00000010: 9f1e 343c 85be 843d 10b8 b4bc c616 cb3c
00000020: 8d42 6e3c 9851 1c3d a4aa 553d 5976 ff3c

module.conv_6.weight f4 [12, 12, 3, 3, 3]
0.03292599 -0.038303234 0.047284752 -0.017770309 0.034510724 0.010285242 -0.040799588 0.053966098
-0.00350011 -0.04722675 0.039869055 0.021021035 -0.052126426 0.010056827 0.049101263 0.024660759
-0.035485033 -0.027302511 -0.0453545 -0.043339122 -0.048567105 0.053171437 -0.042599455 0.003195676
0.0071826135 0.0070527485 0.017546589 -0.052619863 -0.0015608806 0.03238194 -0.0002151229 -0.019165918
0.0077635716 -0.028799562 -0.0011217969 -0.021132201 -0.009576231 -0.05799566 -0.0021880176 0.034788646
0.0022280945 -0.027022975 -0.049798828 0.05946362 0.019433942 -0.039832357 -0.03730147 -0.020304065
-0.023287352 0.03978551 0.007609923 0.055654235 0.018091423 0.039062306 -0.052732 0.03342627
-0.00784982 0.01747815 0.041362982 -0.0007456828 -0.046678968 -0.0519289 0.01613427 -3.087233e-05
-0.03395128 0.04933493 -0.05006209 0.0009151421 -0.03652605 -0.0606563 -0.041557364 0.031361707
-0.029748099 0.025358485 0.015542564 -0.012348716 -0.051952302 0.0057509094 -0.009076166 -0.03735748
-0.03262775 0.015505807 0.018545289 0.02737929 0.048451528 -0.02620963 0.014105704 0.0041758996
0.015838895 -0.0012479362 -0.017247181 0.0059171524 -0.00046674936 0.037327573 -0.027091186 -0.011593278
-0.014879396 -0.025989966 -0.045960512 -0.036200847 0.03273935 0.048013702 -0.031370774 -0.021933276
0.031178188 0.03405199 -0.0015314589 -0.049455926 0.059930824 -0.0092726415 0.04123649 0.02643613
0.016080007 0.058370307 -0.013297228 -0.018313797 0.013552458 0.008527466 0.003847046 0.023738528
0.0019895476 0.04138173 -0.0017562474 -0.022912761 0.029955182 0.01993132 0.04068047 -0.0009566809
0.023581333 -0.005529045 -0.039719827 -0.0021992712 0.05576585 -0.0050740833 0.0063590966 -0.034678258
-0.038781807 -0.02758864 0.04196173 -0.009088738 0.019422662 0.032526087 0.05293519 0.023205182
0.0094904145 0.02717213 0.014511623 -0.055632476 -0.0019763538 -0.058527276 0.048329655 -0.04724533
0.047005907 -0.0031701308 0.01859443 -0.05028563 -0.031823456 -0.057056077 -0.007807056 0.032421336
-0.049501978 -0.047269534 0.016569505 0.021816092 -0.011610008 -0.017451387 -0.0029835184 0.052596066
0.051763184 0.0002027826 0.011185942 -0.032541078 0.08321505 -0.012707616 -0.036163818 0.038771257
0.011881311 0.010065691 0.020199673 0.009972782 0.02873833 0.0722619 -0.012166516 -0.009448096
-0.018965963 0.048960317 -0.0050080144 0.03497043 0.021481832 -0.008377982 0.050081063 -0.032997914
-0.010228809 0.022052359 0.043714706 -0.041935448 0.0072021177 0.014331438 -0.01638308 -0.026589543
0.033083204 -0.049680505 -0.025113218 -0.008869901 -0.050941486 0.010608277 -0.050550435 0.0002732555
0.046842165 -0.02242686 0.041191045 -0.050943226 -0.015522443 -0.05005165 0.009945769 -0.05592528
0.034826927 -0.018625775 -0.020534173 0.042212564 0.006747345 -0.047186244 0.040893625 0.012037948
0.036413558 -0.018452115 0.03342257 -0.009301398 0.0081075 0.0017629198 0.037305985 -0.014069356
0.06010675 0.020920698 -0.004869938 -0.03725956 0.04176427 0.037005857 -0.026617944 -0.0071489583
0.053984333 -0.020849157 -0.01969599 -0.002569753 0.0010415801 0.029089263 0.010225416 -0.020959016
0.051822722 0.04607605 -0.011597436 0.03741814 0.05362694 0.018574908 0.04027373 -0.010664518
00000000: 67dd 063d dae3 1cbd a8ad 413d 0a93 91bc
00000010: 1e5b 0d3d 6f83 283c 781d 27bd 8e0b 5d3d
00000020: 1a62 65bb d670 41bd bc4d 233d 4e34 ac3c
00000030: 8582 55bd 64c5 243c 681e 493d 5c05 ca3c
00000040: c158 11bd 84a9 dfbc a4c5 39bd 5d84 31bd
00000050: 4dee 46bd 4bca 593d c47c 2ebd 8c6e 513b
00000060: 215c eb3b be1a e73b ddbd 8f3c ed87 57bd
00000070: 7696 ccba eda2 043d 9d92 61b9 d801 9dbc
00000080: 8f65 fe3b 0fed ebbc 4209 93ba 701d adbc
00000090: a0e5 1cbc db8c 6dbd d864 0fbb 8a7e 0e3d
000000a0: 3905 123b 495f ddbc dbf9 4bbd 2090 733d
000000b0: ee33 9f3c 4127 23bd 6dc9 18bd b654 a6bc
000000c0: 1ec5 bebc 22f6 223d a95c f93b b2f5 633d
000000d0: 7734 943c ccff 1f3d 82fd 57bd fce9 083d
000000e0: 889c 00bc 562e 8f3c 3b6c 293d ed79 43ba
000000f0: 7232 3fbd 66b3 54bd 042c 843c e97c 01b8
00000100: 7f10 0bbd 6c13 4a3d e80d 4dbd 26e6 6f3a
00000110: 579c 15bd be72 78bd 0e38 2abd 2275 003d
00000120: 49b2 f3bc 99bc cf3c 3da6 7e3c 4552 4abc
00000130: f0cb 54bd 2072 bc3b 33b4 14bc 2804 19bd
00000140: ada4 05bd 110c 7e3c 4aec 973c 884a e03c
00000150: 1c75 463d 94b5 d6bc 9c1b 673c fcd5 883b
00000160: 92c0 813c ca91 a3ba f649 8dbc ace4 c13b
00000170: 0ab6 f4b9 cce4 183d 56ee ddbc bbf1 3dbc
00000180: b6c8 73bc e9e8 d4bc 1741 3cbd 5747 14bd
00000190: b219 063d 04aa 443d a47e 00bd 6aad b3bc
000001a0: 6669 ff3c 197a 0b3d 3cbb c8ba 4c92 4abd
000001b0: 067a 753d 47ec 17bc 98e7 283d 9590 d83c
000001c0: 38ba 833c b415 6f3d 9edc 59bc d106 96bc
000001d0: 210b 5e3c c9b6 0b3c b91e 7c3b 4d77 c23c
000001e0: 1263 023b e47f 293d e231 e6ba 8bb3 bbbc
000001f0: 9264 f53c 0247 a33c 91a0 263d c5c9 7aba
00000200: a42d c13c fe2c b5bb 42b1 22bd a621 10bb
00000210: bb6a 643d 7f44 a6bb f85f d03b ca0a 0ebd
00000220: acd9 1ebd 9201 e2bc 10e0 2b3d eee8 14bc
00000230: 461c 9f3c 133a 053d 92d2 583d cb18 be3c
00000240: af7d 1b3c 1698 de3c 29c2 6d3c e1de 63bd
00000250: b785 01bb 4cba 6fbd 51f5 453d 5284 41bd
00000260: 4489 403d f8c1 4fbb 5953 983c 4ef8 4dbd
00000270: 5059 02bd a2b3 69bd 55d2 ffbb 3ccc 043d
00000280: 96c2 4abd b39d 41bd c5bc 873c a9b7 b23c
00000290: e737 3ebc 36f6 8ebc 2287 43bb f96e 573d
000002a0: a205 543d 0aa2 5439 3e45 373c cb49 05bd
000002b0: a76c aa3d 9b33 50bc 8320 14bd 9cce 1e3d
000002c0: d5a9 423c 91ea 243c c979 a53c e164 233c
000002d0: a56c eb3c 0cfe 933d 1156 47bc 30cc 1abc
000002e0: 825e 9bbc 9d8a 483d 451a a4bb 273d 0f3d
000002f0: abfa af3c ce43 09bc cd21 4d3d d228 07bd
00000300: bc96 27bc 26a7 b43c 310e 333d 81c4 2bbd
00000310: beff eb3b 68ce 6a3c cf35 86bc 50d2 d9bc
00000320: 4182 073d c97d 4bbd 3cba cdbc 1053 11bc
00000330: 05a8 50bd 57ce 2d3c f90d 4fbd bb43 8f39
00000340: 92dd 3f3d 89b8 b7bc f1b7 283d d8a9 50bd
00000350: d851 7ebc f502 4dbd 94f3 223c e811 65bd
00000360: aea6 0e3d 1595 98bc 4837 a8bc 15e7 2c3d
00000370: d518 dd3b 5d46 41bd 1380 273d d03a 453c
00000380: 6226 153d e428 97bc 1be6 083d e464 18bc
00000390: 52d5 043c c611 e73a 29ce 183d 2883 66bc
000003a0: 7f32 763d e261 ab3c 0094 9fbb 7b9d 18bd
000003b0: 0311 2b3d 7493 173d e00d dabc cf41 eabb
000003c0: ad1e 5d3d dacb aabc 7c59 a1bc 4d69 28bb
000003d0: a185 883a 9b4c ee3c 8188 273c 3eb2 abbc
000003e0: 1044 543d 3dba 3c3d 2c03 3ebc c343 193d
000003f0: eca7 5b3d 682a 983c 11f6 243d 3bba 2ebc

module.conv_6.bias f4 [12]
0.039681274 -0.050182514 0.021415865 -0.0110717565 -0.028275974 -0.024360714 0.024796315 -0.003187024
-0.012814885 0.06413085 0.0198965 -0.023977274
00000000: d588 223d 2e8c 4dbd 5370 af3c 5066 35bc
00000010: 04a3 e7bc 1f90 c7bc a421 cb3c 64dd 50bb
00000020: 86f5 51bc 0957 833d fcfd a23c fd6b c4bc

module.conv_7.weight f4 [56, 12, 1, 1, 1]
0.20472534 -0.17047954 -0.2906661 -0.28440568 -0.1984588 0.039662804 -0.24104384 -0.22594336
0.082174465 0.09651387 0.20630372 -0.14547658 0.19829673 0.030179342 -0.006169008 0.15156396
-0.019770887 0.010110412 -0.18482839 0.27867162 -0.15983933 -0.092205435 -0.20183644 0.23329645
-0.26346844 0.03154068 -0.2511446 0.12623516 0.26681265 -0.12860692 0.16715539 -0.1710731
0.22185205 -0.048091594 0.21488404 0.30541086 0.20900775 -0.20400071 0.3072635 0.07512964
0.086931005 -0.14514238 -0.11516544 0.114771746 -0.2697097 0.096315965 -0.090477765 0.020242669
0.24641503 -0.2778156 -0.15611188 0.007635427 0.27925193 -0.21934532 -0.07722137 0.20998982
-0.03788162 -0.31232896 0.24909282 0.11950376 -0.09862257 -0.2308324 -0.2519501 0.15266933
0.11320059 0.08164831 0.08944619 0.24489999 0.06563968 -0.10865104 -0.15438938 0.003376809
-0.09055842 -0.11344647 -0.29058126 0.22899711 -0.060148988 -0.20351693 0.027342148 0.08015558
-0.0147849955 0.24254464 0.25759724 -0.06328679 -0.0012321512 0.026135799 -0.23122674 0.28398883
0.08075595 0.124233775 -0.025188599 -0.016395958 0.26751024 -0.23004943 0.09393312 0.06804475
0.28145453 -0.2600934 -0.06027326 -0.026132962 0.056297258 -0.2773161 -0.03787479 0.27518573
-0.25668636 0.10511467 0.28628853 -0.14982705 -0.06962836 -0.0698129 -0.29774377 0.06127437
0.059750743 -0.17576857 -0.30840376 -0.034918502 -0.1033471 0.1385162 0.15489379 0.12532297
-0.22568437 -0.16206628 -0.18564151 0.07783546 -0.0831083 0.27934963 -0.2953724 -0.28037223
-0.08453486 -0.087422095 0.25676125 -0.20795307 -0.020669393 0.12901126 -0.19438067 0.2997714
0.012354861 -0.07295952 -0.022171535 -0.28396735 0.21552806 0.2364954 -0.2209272 -0.013671502
0.26626465 0.2555571 -0.021820938 0.10381237 -0.19325623 0.08585579 0.042258874 0.26616415
0.2833175 0.23352592 -0.1752473 0.059764568 0.029912218 0.16142482 0.13583823 0.20325784
0.16740753 0.12483648 -0.25516808 0.075339824 0.06643834 -0.24735644 0.048485715 0.017440068
-0.32513827 0.09035328 0.11543942 0.09999646 0.11997826 -0.16250953 0.064334065 -0.14429565
-0.24677752 -0.19154842 0.09279791 -0.3605592 0.13815318 0.2554978 -0.012328829 0.111508764
-0.21343979 -0.25647816 0.2564502 -0.15712298 -0.15393241 0.0037113123 0.06640145 0.011951995
-0.05258584 0.2908532 -0.26155952 -0.0794428 -0.13406032 0.05933109 -0.031659596 0.15799694
0.08203377 -0.024172164 -0.12014007 -0.28554228 -0.012296577 -0.21781304 0.19025372 0.03066574
-0.033869438 0.045093805 -0.14225 0.10814177 0.24654153 -0.29895207 -0.04071358 -0.06912207
-0.2832599 0.13305058 -0.18242218 -0.029913167 -0.10111956 -0.2323567 -0.20997578 0.24271473
0.07797807 -0.1621136 0.11721603 -0.048922483 0.20905866 -0.17986782 -0.054648913 0.16547677
0.009725859 0.23427908 0.050787136 -0.27068883 -0.27725568 0.038736623 0.21942323 -0.17675574
0.058597077 0.24201676 -0.20951235 0.089543544 0.10319835 0.020607196 0.07644074 -0.18154396
0.14350311 -0.12703562 -0.22079721 -0.1797045 0.0570591 0.12764047 -0.24302572 -0.13404728
00000000: 85a3 513e 3092 2ebe 30d2 94be 9f9d 91be
00000010: c938 4bbe 7775 223d 32d4 76be b25d 67be
00000020: 164b a83d 10a9 c53d 4841 533e d0f7 14be
00000030: 4c0e 4b3e ab3a f73c 6425 cabb 9533 1b3e
00000040: 8ef6 a1bc 24a6 253c a743 3dbe 0cae 8e3e
00000050: ecac 23be 34d6 bcbd 36ae 4ebe 44e5 6e3e
00000060: 56e5 86be cd30 013d 0696 80be ca43 013e
00000070: ab9b 883e 88b1 03be c82a 2b3e c92d 2fbe
00000080: 2f2d 633e b1fb 44bd 900a 5c3e d05e 9c3e
00000090: 2106 563e 90e5 50be a451 9d3e 92dd 993d
000000a0: e208 b23d 34a0 14be dcdb ebbd 730d eb3d
000000b0: 6417 8abe 4e41 c53d 684c b9bd f4d3 a53c
000000c0: 3954 7c3e d93d 8ebe cbdb 1fbe 9b32 fa3b
000000d0: 1cfa 8e3e 0f9c 60be 3d26 9ebd 9207 573e
000000e0: c229 1bbd 95e9 9fbe 3012 7f3e 63be f43d
000000f0: a1fa c9bd 545f 6cbe 9aff 80be 5955 1c3e
00000100: b6d5 e73d 3b37 a73d 902f b73d 10c7 7a3e
00000110: 196e 863d 7084 debd 4018 1ebe 744d 5d3b
00000120: b176 b9bd 9f56 e8bd 11c7 94be 387e 6a3e
00000130: c95e 76bd be66 50be a4fc df3c 9c28 a43d
00000140: c43c 72bc 9f5d 783e c9e3 833e 819c 81bd
00000150: 2280 a1ba be1a d63c b4c6 6cbe fc66 913e
00000160: 6063 a53d 476e fe3d 5258 cebc d150 86bc
00000170: 1af7 883e 1492 6bbe 0260 c03d 0c5b 8b3d
00000180: cf1a 903e f62a 85be 18e1 76bd cb14 d6bc
00000190: f497 663d 60fc 8dbe 9922 1bbd 25e5 8c3e
000001a0: 656c 83be 5c46 d73d 6994 923e 436c 19be
000001b0: 5099 8ebd 11fa 8ebd df71 98be d5fa 7a3d
000001c0: 32bd 743d adfc 33be 19e7 9dbe b406 0fbd
000001d0: a5a7 d3bd 31d7 0d3e 7a9c 1e3e aa54 003e
000001e0: ce19 67be b4f4 25be cf18 3ebe 3368 9f3d
000001f0: af34 aabd ea06 8f3e 0d3b 97be f38c 8fbe
00000200: 9d20 adbd 5b0a b3bd 3676 833e a6f1 54be
00000210: dc52 a9bc 871b 043e ba0b 47be a37b 993e
00000220: 0b6c 4a3c cd6b 95bd 14a1 b5bc 2b64 91be
00000230: 63b3 5c3e da2b 723e bd3a 62be 6ffe 5fbc
00000240: d753 883e 61d8 823e d3c1 b2bc 949b d43d
00000250: f6e4 45be 29d5 af3d a417 2d3d ab46 883e
00000260: fe0e 913e 6b21 6f3e 0774 33be b1cb 743d
00000270: 780a f53c 8c4c 253e 2d19 0b3e d322 503e
00000280: e16c 2b3e 45aa ff3d 64a5 82be c44b 9a3d
00000290: d310 883d 024b 7dbe f598 463d 79de 8e3c
000002a0: 8678 a6be 240b b93d 816b ec3d f2ca cc3d
000002b0: 29b7 f53d e668 26be 94c1 833d 3dc2 13be
000002c0: 3fb3 7cbe 4525 44be d50c be3d 379b b8be
000002d0: 0778 0d3e 9cd0 823e dbfe 49bc b55e e43d
000002e0: f68f 5abe 1b51 83be 714d 833e d9e4 20be
000002f0: 75a0 1dbe 7d39 733b 7cfd 873d 4dd2 433c
00000300: 4064 57bd b6ea 943e 21eb 85be e8b2 a2bd
00000310: 1c47 09be 2805 733d 7ead 01bd f3c9 213e
00000320: 5201 a83d b404 c6bc ff0b f6bd 9932 92be
00000330: 9577 49bc 620a 5fbe dfd1 423e b836 fb3c
00000340: aeba 0abd 48b4 383d fca9 11be 6f79 dd3d
00000350: 6275 7c3e 3f10 99be 48c3 26bd df8f 8dbd
00000360: 7107 91be 693e 083e e1cc 3abe 750c f5bc
00000370: c617 cfbd eaee 6dbe e403 57be 368a 783e
00000380: f7b2 9f3d 1c01 26be f50e f03d f162 48bd
00000390: 7913 563e 452f 38be 8ad7 5fbd be72 293e
000003a0: 3659 1f3c dbe6 6f3e 2c06 503d ba97 8abe
000003b0: 75f4 8dbe 4baa 1e3d 7cb0 603e 75ff 34be
000003c0: 7d03 703d 3ed3 773e 688a 56be 9b62 b73d
000003d0: a859 d33d 6cd0 a83c f68c 9c3d a9e6 39be
000003e0: 7bf2 123e a015 02be aa18 62be 7504 38be
000003f0: ceb6 693d 2fb4 023e bcdb 78be b143 09be

module.conv_7.bias f4 [56]
0.21038409 -0.038327206 -0.11383868 -0.22378169 0.26120237 -0.0915102 -0.02719009 -0.19418502
0.03185431 0.21600851 0.06449052 -0.22177508 -0.1293174 0.027952088 0.190555 0.014718366
0.12560761 0.08946687 0.21643113 -0.10469996 0.047698904 0.060322814 -0.13047864 0.059016947
0.23425922 -0.25743935 -0.22525962 -0.12469083 -0.11623709 0.23839249 0.056013193 0.06478513
0.18228807 -0.19971776 0.09211423 -0.17648858 0.11164982 0.055062875 -0.049928315 0.026787274
-0.08618453 0.1650128 -0.010457279 0.060429346 -0.11390319 0.10824393 0.20071714 -0.16171226
-0.18483408 0.24090444 0.17120759 -0.15017518 -0.16893877 0.1483176 -0.11550579 0.23116863
00000000: ed6e 573e fdfc 1cbd 4124 e9bd 0727 65be
00000010: 51bc 853e b369 bbbd c0bd debc 70d8 46be
00000020: aa79 023d 5631 5d3e 9b13 843d 0219 63be
00000030: c86b 04be c7fb e43c da20 433e 4d25 713c
00000040: 489f 003e 683a b73d 1fa0 5d3e ef6c d6bd
00000050: ed5f 433d 0e15 773d 319c 05be c1bb 713d
00000060: a6e1 6f3e 17cf 83be 75aa 66be e85d ffbd
00000070: b60d eebd 291d 743e 176e 653d 11ae 843d
00000080: b9a9 3a3e d082 4cbe 63a6 bc3d 6cb9 34be
00000090: a9a8 e43d 9c89 613d a281 4cbd fc70 db3c
000000a0: 8481 b0bd 1ef9 283e 0255 2bbc c384 773d
000000b0: 1346 e9bd feae dd3d cb88 4d3e e697 25be
000000c0: 2545 3dbe a7af 763e 0b51 2f3e 86c7 19be
000000d0: 49fe 2cbe 92e0 173e 4d8e ecbd 78b7 6c3e
