model3/FSRCNN3D_epoch_80.pth (torch, 265262 bytes, 15 tensors)

module.conv_1.weight f4 [56, 1, 5, 5, 5]
00000000: 50df f9bc 6d64 a43d ae36 7b3d b601 aa3d
00000010: e074 823d bad0 5ebd e7ca 2f3d 8266 90bd
00000020: f69c 1a3d c76f acbd f6f3 823c c82c 7a3d
00000030: d7ae c9bd 4590 66bc cbf0 65bd 9da0 843c
00000040: 8566 35bd 1842 38bd a6d6 8dbd aef5 01bd
00000050: c0cf a0bd aeab ccbc c56d 81bd 5e8d 84bd
00000060: ccd0 aa3d 9fd7 5c3d 3d7a 2bbc 97fd a4bd
00000070: a8d7 88bc ddec 9bbd 851b ed3c c6b0 bebd
00000080: ed5f 513d 1c34 aebd 80df e2bd 0878 853d
00000090: 74bf 95bd f102 d7bc 884e 5bbd 302b 9ebd
000000a0: 7ee0 53bc 18b0 a63b 03c6 583d 512a 97bd
000000b0: 32b4 443c 5599 c6bd 6d1e 92ba fabd 50bb
000000c0: 3af5 873c 4814 553d dec4 7c3d 3eec b33b
000000d0: f046 99bd 7cfc 063d 29e6 e03b 75cf 47bd
000000e0: 447e 423d e755 953b 780b 8ebc 2fd4 37bd
000000f0: ea6e d33b a1d1 cfbc 8815 e43c ec70 a7bd
00000100: 4889 adbd 72a4 c1bd eb3b 4abd eb87 6f3d
00000110: c85e 003d 78fc b9bd 4036 a73c 8df0 bc3c
00000120: a074 6bbd 5cce a6bd 51ad aebd 2d95 4ebd
00000130: 861c 5d3d c51f 10bd a5e4 ab3c b626 bc3c
00000140: a9a2 6fbd 1fcf 4a3d d298 bcbd b668 8fbd
00000150: 0718 88bd 666b 5d3d cfd4 67bc 337d f939
00000160: d54b 70bd e348 d3bc d3ae 8ebd 13f7 c83c
00000170: 046d 7b3c 43eb 9bbd ae2a ae3c 907a 12bd
00000180: e9d8 44bd 8776 98bc 061c 6d3d 0ec4 8fbd
00000190: d2c0 2e3d 0423 c93d 78e2 df3d 4b68 683d
000001a0: 160f 0dbd a676 37bd ebdf 5d3d 11fc 04bd
000001b0: 0757 c0bd f7b9 1dba dc43 ed3c bf88 dbbc
000001c0: 367f 3d3d 9423 613c 38d6 8f3c 636f a5bd
000001d0: 7867 213d 1adb 813b 0618 cab9 7909 fa3c
000001e0: 7b98 3bbd 343d 39bd d1d6 72bd 476b 76bd
000001f0: d1fa 16bd 8f96 61bd ca1f 7bbc ad9b 05bd
00000200: 03bc aebd bc95 d1bb f03a 27bd 74ae bd3d
00000210: 5b16 9ebd b863 97bc 0e06 0e3d cb63 07bd
00000220: e4e3 c73b 40fd 7f3d 823f 283d 0183 3dbc
00000230: 12c4 a6bd 785f cabc 28fe 123d f2d0 91bd
00000240: 5695 893d a66f 5cbc d112 4b3d 7aed 9a3c
00000250: c13d da3c 271b 3e3d 3f0c 033d d89e a53d
00000260: 5040 7a3d 79b6 a4bd 0cb6 8fbd 0c03 123d
00000270: 7f89 19bd d094 20bd 626d 6b3d 8710 463d
00000280: 95df 503b 06b8 2e3d c324 48bd 4439 6e3b
00000290: 70e1 d43c 3e8f ad3d 6e31 84bd 17f1 103d
000002a0: bc52 633b ba4c a83d ca4d 51bd 8ef9 95bd
000002b0: 011b 4e3d f30d 89bc 321e 843d c4ab ce3d
000002c0: c542 5cbd 93b3 1c3a 36d8 923b 6a95 893d
000002d0: a2e2 913d 5746 b23d cc93 a2bd 01e0 0bbd
000002e0: 521d ad3d 0b58 5f3d 1aa3 e0bc 1964 773d
000002f0: 7046 193d 44c5 a03d 0b7e 253c 47ab 30bc
00000300: 1c65 8d3d 427d 393d 8c13 b33d 98c2 9b3d
00000310: 541e 803b 3221 4a3d 43ad 023d b97d a13d
00000320: e475 053d 8a8e 7c3b cf68 80bd f7d7 5f3c
00000330: 9fff 4ebc 6d68 6cbc 0c9f d4bc 806a b9bd
00000340: d028 913d ec17 8f3d f452 fb3c e837 84bd
00000350: 5b70 a83b 324a 073d 2746 69bd ca49 723d
00000360: 0d7d 0d3d 9ede c53b ea80 cb3d 5c82 3cbd
00000370: 4f59 943d dbd1 cbbc 39c9 673d 7776 5cbd
00000380: 9b8d b4bd 26a8 d8bc c9ab 613c d73e 1bbc
00000390: 20b5 c63c 687e 88bd ba1d 16bd 882b 4ebb
000003a0: 53a5 86bd 73d0 b13d 6038 753b a7ec 84bd
000003b0: 2a4f 843c d353 a33c ba3b a93c 33ab ab3c
000003c0: f4ca 3f3a 3623 0fbd 5782 43bd 5de5 3fbd
000003d0: 463c 9b3d 29e2 77bd 9643 d4bb 8716 433c
000003e0: 4a02 53bd fca0 13bd 6940 d23b 98c5 58bd
000003f0: 74de 62bd fed3 a03c 9784 d43d a815 1b3d
-0.030501992 0.08026967 0.061331443 0.083011076 0.063699484 -0.054398276 0.042918112 -0.07050802
0.037747346 -0.08419757 0.01598547 0.061077863 -0.09847801 -0.0140724825 -0.05613784 0.016189868
-0.044287223 -0.044984907 -0.069257066 -0.03172844 -0.07852125 -0.024984207 -0.06319765 -0.06472276
0.08340606 0.05391657 -0.010466156 -0.08056181 -0.016704395 -0.076135375 0.028943786 -0.093110606
0.051116873 -0.08506033 -0.110777855 0.06517035 -0.073119074 -0.02624652 -0.05354169 -0.07723081
-0.012931941 0.00508691 0.052923214 -0.07381118 0.012005853 -0.096972145 -0.0011147984 -0.0031851516
0.016596425 0.052021295 0.061711185 0.0054908087 -0.074842334 0.03295563 0.0068633747 -0.04878183
0.047483698 0.0045573595 -0.017339453 -0.04488009 0.006452431 -0.025368514 0.027842298 -0.08175835
-0.0847345 -0.094551936 -0.04937355 0.05847923 0.03134039 -0.09081358 0.02041161 0.023063922
-0.05748427 -0.08144829 -0.08529151 -0.050435234 0.05398228 -0.035186548 0.02098305 0.022967678
-0.058504734 0.049513932 -0.09208836 -0.07002394 -0.06645208 0.0540575 -0.014149859 0.00047586262
-0.05866607 -0.025791591 -0.06966939 0.024531877 0.015345816 -0.07613232 0.021260586 -0.035761416
-0.048058424 -0.018611206 0.057888053 -0.07019816 0.042664357 0.09821132 0.10931867 0.056740087
-0.034438215 -0.044790886 0.054168623 -0.03246695 -0.09391599 -0.00060167856 0.028963022 -0.026798604
0.046263896 0.013741393 0.017558202 -0.08077886 0.039405316 0.0039628865 -0.0003854634 0.030522095
-0.045799714 -0.045224383 -0.059286896 -0.0601609 -0.03686029 -0.055075224 -0.015327403 -0.032619167
-0.08531954 -0.0063960236 -0.04082769 0.0926179 -0.07719108 -0.018480167 0.034673743 -0.033054154
0.0061001647 0.062497377 0.04107619 -0.011566878 -0.08142866 -0.024703726 0.035886914 -0.07119931
0.06717937 -0.013454353 0.04957849 0.018912066 0.026640775 0.046412613 0.0319941 0.08086938
0.06109649 -0.080426164 -0.070171446 0.035647437 -0.037484642 -0.03920442 0.057477362 0.048355605
0.0031871547 0.042655967 -0.048863184 0.003635005 0.025986403 0.08474587 -0.064547405 0.03538617
0.0034686765 0.082177594 -0.051099576 -0.073229894 0.05031872 -0.016730284 0.06451072 0.100913554
-0.053774614 0.00059776864 0.0044813408 0.067179516 0.07123305 0.087048225 -0.07938346 -0.034149174
0.08452858 0.054527324 -0.027421523 0.060398195 0.03742069 0.078501254 0.010100852 -0.010783023
0.06904051 0.04528547 0.08743963 0.07605475 0.0039098654 0.049348064 0.031903517 0.07885308
0.032583132 0.0038537108 -0.06269991 0.01366233 -0.012634187 -0.014429194 -0.025954746 -0.090535164
0.070878625 0.069869846 0.030679204 -0.06455976 0.005140347 0.033029743 -0.056951668 0.059152402
0.034543086 0.006038501 0.09936698 -0.046022758 0.07243597 -0.02488034 0.056588385 -0.053823914
-0.088160716 -0.026447367 0.013773867 -0.009475431 0.024256289 -0.06664735 -0.036649443 -0.0031459052
-0.06574502 0.08682337 0.0037417635 -0.0649045 0.01615103 0.019937431 0.020658363 0.020955658
0.0007316314 -0.03494569 -0.047731724 -0.046849597 0.075798556 -0.060518418 -0.0064777834 0.011907226
-0.051515855 -0.0360422 0.0064163697 -0.052922815 -0.05538793 0.019632336 0.10376852 0.03786245

module.conv_1.bias f4 [56]
00000000: 396c 103d 066b 1d3d ec2a ad3d d126 8bbc
00000010: 20a4 adbc 8619 373d b6dc 963c 2a02 25bd
00000020: 8a73 903d 91d1 ad3c 663d 9c3d 54a1 853d
00000030: 64e9 963d 011d a53d 8efe a73d e925 793c
00000040: daa1 653d ec7c 553d 8a0e c2bc 2cd6 76bd
00000050: 6cad 74bd b6a6 113d e849 1abd 9beb 64bc
00000060: ee95 a63d 1b61 33bc 572b 253d 63fe 7cbd
00000070: 4597 213d 9b10 6a3c 3847 2dbd 3306 bc3c
00000080: 7bf1 dd3c 59ed 573d 0633 d9bc c902 cf3b
00000090: d56f d23a 2920 1b3d 6839 863d 4798 23bd
000000a0: cb79 a93c 5ebb 873d a2ce fabc 5d17 b93d
000000b0: 5601 4bbd 0ea6 8e3d c8a5 aa3d d41c 953c
000000c0: 3fd1 a3bd 39fa 563d b7b5 f03b 43dd 7d3d
000000d0: 8ee6 8cbc 169e 983d bddf 943d c6fb 0dbd
0.03525946 0.038432144 0.08455452 -0.016986283 -0.021196425 0.044702075 0.01841579 -0.040285267
0.07053287 0.021218093 0.07628898 0.065249115 0.073687345 0.08062173 0.08202849 0.015206792
0.056062557 0.052121088 -0.023688573 -0.060262844 -0.0597357 0.03555938 -0.03766814 -0.013972188
0.081340656 -0.010948445 0.040324535 -0.06176604 0.039450902 0.014286186 -0.042304248 0.022952175
0.027092686 0.052716587 -0.026513588 0.0063174707 0.0016055057 0.037872467 0.06553918 -0.039940145
0.020687958 0.06627534 -0.030616108 0.09037659 -0.04956182 0.06965266 0.083324015 0.018202223
-0.07998895 0.052484725 0.007345881 0.06197859 -0.01719978 0.074520275 0.07269237 -0.034663938

module.conv_2.weight f4 [12, 56, 1, 1, 1]
00000000: 7e6b 0c3e 7dd2 f73c f4b3 84bd 5e7b 1d3d
00000010: a774 03be ab19 26bd 4166 803d b12d 7b3c
00000020: 7307 6dbd 6e31 e23d 5284 d1bd b054 173e
00000030: 5419 16bd 8c56 c8bc 0089 453d 314d 303d
00000040: 2d1a 763d 4cd8 f13d 058c b13b 829f 1bbd
00000050: 9130 dabd f795 183d a623 bb3d 853c 0c3d
00000060: f3ce 403c 0651 803d 356b 6b3c c20e 133c
00000070: 8a89 8b3d 3811 f63c e2a0 273e 31e4 9e3d
00000080: 08c3 463d 8f97 7e3c e382 bc3d 850b b93d
00000090: e886 023e 2b3a 26bd a08b b23d 8fce 3c3e
000000a0: b778 353d b16b e2bd 54e1 0f3e 2c13 3b3d
000000b0: 2b13 cc3b 94d8 2cbd e655 a93d 0ff4 9c3d
000000c0: 044e 9d3d 7559 eb3d aa23 583d 042d 12bd
000000d0: 3537 da3d 2489 c73d 3e4a 4cbd ff76 293d
000000e0: 0ead 1fbe 78fe f83d 9f6d 00bd 00f5 e03d
000000f0: b146 85bd 3c88 66bd 1753 e4bc fed8 fcbd
00000100: 5191 873d a19b 683d 01f9 1cbd 5737 9b3d
00000110: b345 013e cf74 053e a80f 0dbe 659c a63c
00000120: debb af3d 43e4 e8bd 3a6c 053e cf30 d63d
00000130: 16d6 033e f08b adbd 6fa8 243d a788 0a3e
00000140: d051 94bc 0d8f d1bc fa01 09be 090c 5bbd
00000150: f711 9b3c 4b20 763d 870b b6bc 0007 67bb
00000160: 7aec 00be e13a 9cbd f1e9 46bd daca 31be
00000170: ce4f 003e 2636 88bd 61f3 9fbd f0c5 c1bd
00000180: 8958 e43d 18a4 b9bd 3eab f1bd af79 81bd
00000190: 5a7d 3b3d 72cf 093d 49cd 06be 2a85 823c
000001a0: a228 f63d 0146 e13d 51f7 b83c 798e bfbd
000001b0: b0ef b13d eb87 0cbe f2df 13be 63eb 3b3d
000001c0: 3a48 d53d 1422 9ebd 6382 4fbd 7ae4 bb3c
000001d0: 3de0 f1bd ddeb 183d 884b 163e ebb4 9dbd
000001e0: c53b 00be 87c0 f7bb a415 a63d fbe7 a73d
000001f0: 0237 bd3d 7a8c 92bd ce46 eabb 2490 d7bd
00000200: 7a58 d9bd 0fbb dd3d f02c 023e d68e 0b3e
00000210: bf1b be3d 326c e23d 4374 993d 1c48 db3d
00000220: b961 2dbd 9baa 07be 1d47 b2bd 5bec c43a
00000230: 6f95 3ebd 1d2d dbbd 0bae f9bd 8068 973d
00000240: ee98 f43d 93fe 22bd 8846 c13c 1338 b4bd
00000250: 5b00 ba3d f7eb 26be a52d 14bd 93af f3bc
00000260: 0f88 02be 935e 8c3d bed5 9dbc c47f edbb
00000270: 590d 943d b496 b83b f17c c1bd 543f 95bc
00000280: c945 913d e4c7 48bb a7c4 a83d daf1 a33d
00000290: d7bf 223d 4f9f 8d3d a37d 37bc ae8b 2f3d
000002a0: f38e 513d c0a2 cc3d 2b47 143e bc36 c03a
000002b0: 8808 563c a366 c83b 5bf3 173e c8ca d9bd
000002c0: 1c5c ef3d f710 ef3d 4f83 793d b6b5 0cbd
000002d0: 1ed7 2bbd 0de5 db3d db49 fe3d 8334 f1bd
000002e0: 7ac4 0f3e fe8f 5abc 2502 f63c 02dc 103d
000002f0: 934a 02be 5d1b 183d 8176 4f3d 9c21 ab3d
00000300: 7fa1 dfbd 7355 753d cc30 f8bc 188c c93c
00000310: 0336 e43d e3d3 f3bd 6029 813d 502c 74bd
00000320: cc93 a7bd 1250 73bb 2404 053e db29 2d3e
00000330: 3188 acbd 496b ca3d 22b9 1d3e 8bd5 e5bd
00000340: 90e2 e73d d3f4 cfbd 456a 063e a0da bc3d
00000350: 1d45 883d d5e5 86bc da08 9abc b8c3 fb3d
00000360: 5e40 7bbd c3a0 9cbc c13c ad3d 24d3 0a3b
00000370: eea6 c93d ae72 31bd 3569 7abd 79bd ffbc
00000380: f4ad 2cbe 180a e93d 38d7 c53d c628 19be
00000390: 0ee8 b73d 54c0 04be a7dd dabc 4bd5 c93c
000003a0: 7ed5 f93d f0cd dabd 7fc6 b83d 15af 21be
000003b0: 64bb c83d 7441 14bd f3df 13bd 9742 63bd
000003c0: ee6f 80bd 5d21 2cbe 2327 a03d 98a4 aabd
000003d0: 9a5f f7bd 0ae9 cd3d 7bb6 ac3d 85d1 e93d
000003e0: 3e68 1ebc 956b ad3c 3216 c73b 463a 073d
000003f0: b8f8 ccbd 0a10 063e ecff 273e 312d 003d
0.1371288 0.030251736 -0.06479636 0.03844773 -0.12837468 -0.040551823 0.062695034 0.015330718
-0.057868432 0.11044584 -0.10230316 0.147784 -0.03664525 -0.024455331 0.048226357 0.043042365
0.060083557 0.118088335 0.005418303 -0.037993915 -0.106537946 0.037252393 0.09137659 0.034237403
0.011768091 0.06265454 0.014368822 0.0089756865 0.06813343 0.030037507 0.16369966 0.07758368
0.04852584 0.015539064 0.09204652 0.090354 0.12746775 -0.040582817 0.087180376 0.18438171
0.044304576 -0.11055697 0.140508 0.04567258 0.006227871 -0.042198732 0.08268337 0.07663738
0.07680896 0.11491672 0.052768387 -0.03568746 0.10655061 0.097429544 -0.04987549 0.04137325
-0.15593359 0.12157911 -0.031354543 0.1098423 -0.06507624 -0.056282267 -0.027871652 -0.123460755
0.06619514 0.056789044 -0.038323406 0.075789146 0.12624244 0.1303284 -0.13775504 0.020338247
0.08580755 -0.113716625 0.13029566 0.10458528 0.12874636 -0.084739566 0.040199693 0.13528691
-0.018105417 -0.025580907 -0.1337966 -0.053478274 0.018929465 0.06008939 -0.022222294 -0.0035251975
-0.12590209 -0.07628418 -0.048562948 -0.17362538 0.12530443 -0.06650953 -0.07810093 -0.09461582
0.11149699 -0.090645015 -0.1180024 -0.063220374 0.04577384 0.0336451 -0.13164248 0.015932638
0.12019469 0.1099968 0.022578867 -0.093533464 0.08688295 -0.13723724 -0.14440897 0.04587878
0.10414167 -0.07721344 -0.050661456 0.022936095 -0.11810348 0.03733431 0.1467725 -0.07700523
-0.125228 -0.007560793 0.08109596 0.08198544 0.092390075 -0.071557 -0.007149554 -0.105255395
-0.10612579 0.10826694 0.12712455 0.13628706 0.09282636 0.11055793 0.07492878 0.10707113
-0.042329524 -0.13248675 -0.0870497 0.0015024053 -0.04652923 -0.10701964 -0.12191399 0.07392979
0.119432315 -0.039793562 0.023593202 -0.08799758 0.09082099 -0.16300951 -0.036176343 -0.029746806
-0.12747215 0.06853976 -0.01926696 -0.007247897 0.07229108 0.0056331996 -0.09447659 -0.018218674
0.070933886 -0.0030636722 0.082406335 0.08005114 0.039733734 0.06915151 -0.011199388 0.04285782
0.051161718 0.099919796 0.14480273 0.001466475 0.013063557 0.006115751 0.14838926 -0.106343806
0.1168749 0.11673158 0.06091624 -0.03435298 -0.0419532 0.10737047 0.124164306 -0.11777594
0.14039794 -0.0133399945 0.03003032 0.035366066 -0.1272376 0.03713547 0.050650124 0.0835602
-0.10919475 0.059895944 -0.030296706 0.024602935 0.111431144 -0.119056486 0.0630672 -0.059612572
-0.08182487 -0.0037126583 0.12989861 0.16910498 -0.08424414 0.09883744 0.15402654 -0.11222371
0.1132251 -0.101541184 0.13126476 0.09221387 0.06653807 -0.016467014 -0.018803049 0.1229319
-0.061340682 -0.019119626 0.084588535 0.0021182979 0.098462924 -0.043322258 -0.06113549 -0.031218277
-0.16863233 0.11378878 0.0966019 -0.1495696 0.08979808 -0.12963992 -0.02671702 0.024637839
0.121989235 -0.10683811 0.09022235 -0.15789445 0.09801367 -0.036195233 -0.036102246 -0.055483427
-0.06271349 -0.16809602 0.07819965 -0.08332175 -0.120787814 0.10054214 0.08433243 0.11416916
-0.009668408 0.021169463 0.006075644 0.03301456 -0.10008377 0.13092056 0.1640622 0.031293098

module.conv_2.bias f4 [12]
00000000: b326 9bbd b7b4 af3d c113 043c de56 d33d
00000010: 3280 ad3d 965c a0bd b1ec b83d e998 f6bc
00000020: 1d50 aebd dacd 203c 93dd 9e3c f937 873c
-0.07575741 0.085793905 0.00806135 0.10319303 0.08471717 -0.07830159 0.0902952 -0.03010221
-0.08511374 0.009814704 0.019392764 0.016506182

module.conv_3.weight f4 [12, 12, 3, 3, 3]
00000000: 9282 df3c 3048 aabc c521 043d 55a0 b8bc
00000010: 978d dbbc 861e 293c ade4 79bc 9466 02bd
00000020: 3bf5 e7bc 31ff 07bd 4bf1 67bd f7c0 4a3d
00000030: c1f1 a93b 9b6a 333c e00e f83b 25a6 133d
00000040: 2fe8 75bd f07e 5a3c 9f30 eebb 3f59 b13b
00000050: b05c a03a f935 4b3d 1c1f 2dbc 459f 323b
00000060: 1b07 31bc c524 3f3d 2cc9 15bd 4e66 57bd
00000070: 6acc 383d 2e6c b7bb e408 673c d1fe 393b
00000080: 4f99 11bd 515f 07bd b7ea 5c3d 4809 e7bb
00000090: 3208 5dbd 91ae 1cbd 060f cdbc 6856 07bd
000000a0: 7356 5f3d ebe7 4bbd 9847 43bc c5a5 5038
000000b0: 814d 9c3b 226c 2dbd f058 033d 7003 a9bb
000000c0: 0bd3 313c 5588 00bd 2851 2bbd 2df3 383d
000000d0: c58e d83b 887f 6c3d 9964 abbc 8249 27bd
000000e0: 618e 4dbd b71c 5c3c 15b4 1c3d 0cdb 1b3d
000000f0: 1fee a63c 597e 18bd 2f68 43bd 0281 3bbd
00000100: 13fa 1d3d 3e13 f8bc d0ef af3c 6ebc 113d
00000110: 3789 babc 8f9a b7bb 905e 0c3d 705c 3bbd
00000120: fe53 cfbc 51c7 cfbc 3ae4 db3c db0d 0dbd
00000130: 599c 47bd f5eb 693d 1914 0dbd 4b2f fc3c
00000140: bbfc 9bbb 5ddc 193d 13cd 2b3c 2252 4c3d
00000150: e270 c9bc ebc8 14bd 451a 9c3c 9740 4b3d
00000160: c14c b23c 7401 75bc 9a6f d8bb af57 4dbd
00000170: 524f 65bc fa2b 80bb 7e85 353c f77b 333d
00000180: 5593 a93c 676f 25bd 8348 2abd cf85 553d
00000190: a611 15bc 20bd b9bc 4945 3ebc 7e3d daba
000001a0: 9494 463d c978 8ebc 8c6c 2bbc 7772 9ebc
000001b0: 3830 703d d846 47b8 d3c8 11bd f22c 713c
000001c0: c5a8 b8bc c324 a33c d0a2 00bd 54a0 013d
000001d0: 50a6 5d3d 42d8 653d 093a 033d bd53 353d
000001e0: 3d0b 29bd 9faf 113d e6fc 3c3c d8ce 193c
000001f0: 3f7e 20bc ee83 f7bc f7a9 32bd 644e 953c
00000200: f885 993c f5ff a73c 27b6 633d 9670 823c
00000210: 8162 49bd bc2f 2bbd e945 99bc ea96 aabc
00000220: 36c8 a83c 4fad 36ba a831 2b3c 8b2a a1bb
00000230: 46e8 be3c 6c18 0dbd 0812 01bd a3e2 44bc
00000240: 4b8a 6ebd 65de 103d 7185 14bd f462 d43c
00000250: 8f62 5dba d8e8 d73c 93aa 0bbd 1075 9abc
00000260: 4583 453c 91e3 31bb 79cd 933c df11 cc3c
00000270: efcd 393c d3ea 243d 51fd 873c 5ff2 143b
00000280: 6152 393c f449 543c cb6e c0bc 29ea 91bc
00000290: 1c60 863d 5074 90bc db50 e93c 63fe 0f3d
000002a0: 44e8 233c a70d 553d 790a 773c 851d bebb
000002b0: 431b 403d e7a1 f3bc da34 813d 58cf 6b3d
000002c0: cdb2 0e3d 4979 2c3d 427b 17bc 23aa 803b
000002d0: 7818 15bd a447 893d 2ec4 2b3d f6d7 0fbb
000002e0: 1893 ad3c 8fc7 893c 430d cb3c 7a55 eabc
000002f0: c238 063c 52b0 383c 6991 993c e5a7 103d
00000300: 85cc 193b 72c1 983d 7658 733c a30b f43c
00000310: 2e8b a23d 1f67 98bc e1a7 663d c330 99bc
00000320: 9aa5 a1bc 6a08 7abd 4ea1 34bd 1887 01bd
00000330: 6448 59bd 2100 8c3d 9048 573d 6ec1 133d
00000340: 4b2c b6bb 11bc 4c3d 1c5e 3fbd dd7f 30bc
00000350: adde 1cbb 5297 543d 9b66 a23b 1dfa 9e3c
00000360: 126c 033d ff77 923b a18c cbbc 1be4 2fbc
00000370: d8da 4f3c 10af b23c c77a fcbc 8af5 79bd
00000380: 2094 873b 8b8f 433c ad9a c63c a2cb 6cbc
00000390: 76bd 3e3d a2c5 bdbb 6880 9639 4eb8 aabc
000003a0: 9b13 2dbc 785b debc c475 d73c 3359 433d
000003b0: 4173 e03b b472 bb3c f88b 0abd d5fd 8c3b
000003c0: d30e 27bd 8d71 30bd 1f69 59bd 65ba 72bd
000003d0: b98f 77bd 6c26 6cbc c24d 98bb 3148 0a3d
000003e0: d808 6fbd e523 733d a3c7 a63c 2c68 123c
000003f0: 54fe 44bd f4b0 4a3c 9bfc 47bd b9a0 9bbb
0.02728394 -0.020786375 0.032258768 -0.02253739 -0.026800914 0.010322219 -0.015252274 -0.031836107
-0.028315177 -0.033202354 -0.0566266 0.049500432 0.00518629 0.01095071 0.0075701326 0.03604712
-0.06003588 0.013335928 -0.0072689797 0.0054122503 0.0012234654 0.04961202 -0.010566499 0.0027255577
-0.010804917 0.046665926 -0.036568806 -0.0525878 0.04511682 -0.005597613 0.014101241 0.0028380642
-0.035546597 -0.033049885 0.05393478 -0.007050667 -0.053962894 -0.038252417 -0.025031578 -0.033041388
0.054525804 -0.04978172 -0.011918925 4.974545e-05 0.0047699814 -0.04233945 0.03206724 -0.0051578805
0.010853539 -0.031380016 -0.041825444 0.045153785 0.0066088163 0.05773881 -0.020921992 -0.040841587
-0.05018461 0.0134345805 0.038257677 0.038050696 0.020377217 -0.03722987 -0.04770678 -0.04577733
0.038568567 -0.030282613 0.021476656 0.03558009 -0.022770507 -0.0056031416 0.03426987 -0.045742452
-0.025308605 -0.025363596 0.026842225 -0.03443704 -0.04873309 0.05710979 -0.034442995 0.03078427
-0.0047603524 0.03756367 0.010485905 0.049883015 -0.02458996 -0.036324423 0.019055495 0.049622145
0.021765115 -0.01495396 -0.006605101 -0.05013245 -0.013995962 -0.0039114924 0.01107919 0.043819394
0.020700136 -0.040389445 -0.04157306 0.052129563 -0.009098446 -0.02267319 -0.011613199 -0.0016650406
0.04848154 -0.01739158 -0.010462891 -0.01934169 0.058639735 -4.7511276e-05 -0.03559191 0.014720188
-0.022541413 0.01991499 -0.03140527 0.03164704 0.054113686 0.056114443 0.03203777 0.044269312
-0.041270483 0.035567876 0.011534905 0.009387694 -0.009795724 -0.030214276 -0.043619122 0.018225856
0.01874064 0.020507792 0.055593636 0.015922826 -0.049166206 -0.04179357 -0.018710094 -0.020823915
0.02060328 -0.0006968574 0.010448851 -0.0049184016 0.023304116 -0.03444712 -0.031511337 -0.012016925
-0.058237355 0.035368342 -0.036260072 0.02592609 -0.00084451673 0.026356146 -0.03409822 -0.018854648
0.012055223 -0.0027143697 0.018042313 0.024910865 0.011340602 0.04026301 0.016600283 0.0022727472
0.011311145 0.012957085 -0.02349033 -0.017811852 0.065613 -0.017633587 0.028480938 0.03515471
0.010004107 0.052014973 0.0150781805 -0.005801859 0.046901 -0.029740287 0.06308909 0.057570785
0.034838486 0.042107854 -0.009245696 0.003926532 -0.03640029 0.067031175 0.04193514 -0.002194879
0.021188304 0.01681879 0.024786597 -0.028605212 0.008192243 0.011272507 0.018746095 0.035316367
0.002346785 0.07458772 0.014852634 0.029790705 0.07936703 -0.01860386 0.056312446 -0.01870001
-0.019732285 -0.06104318 -0.044099145 -0.031622976 -0.053047553 0.06835962 0.052559435 0.03607314
-0.0055594794 0.04998404 -0.04672061 -0.0107726725 -0.0023936436 0.051902123 0.004956079 0.019406373
0.032085486 0.004469871 -0.02484733 -0.010735537 0.012686454 0.021811992 -0.030820264 -0.06102518
0.004137531 0.011936079 0.024243677 -0.014452847 0.046567403 -0.005791382 0.000287059 -0.020839836
-0.010563756 -0.027143225 0.026301272 0.04769249 0.006849677 0.022881843 -0.03382489 0.00430272
-0.04078562 -0.04307704 -0.053078767 -0.05925979 -0.0604398 -0.014413457 -0.0046479413 0.033760253
-0.058358043 0.059360404 0.020358866 0.008935969 -0.04809411 0.0123712905 -0.048824888 -0.0047493842

module.conv_3.bias f4 [12]
00000000: a647 753d 9ca9 bc3c f4c2 4b3b 6888 333d
00000010: a47e 173d 1293 afbc 3418 56bd 26e0 61bc
00000020: f909 03bd 2c9f 0abc 2eed 2e3c 9302 1c3d
0.059882782 0.023030095 0.0031091543 0.04383126 0.03698601 -0.021432433 -0.052269176 -0.013786351
-0.031991933 -0.008460801 0.010676665 0.038088392

module.conv_4.weight f4 [12, 12, 3, 3, 3]
00000000: e63c ebbb a8f6 a13c f927 6cbd c459 773c
00000010: 78f0 b23a b27e 413d fa29 f8bc 9585 933c
00000020: 5b2b f4bc ffc7 a7bb fd96 813d 867a 233c
00000030: 102c 493d 4f4e c83a d76f adbc 1fb5 983c
00000040: 9c91 21bd 6abf 0bbc fe0f 533d c07e 883b
00000050: 9a2b 433d 53a2 f93c 8729 8c3d 0315 443d
00000060: 5fd5 2e3d d156 043c a8bd 17bd bb53 873c
00000070: 5ab4 1c3d d5f1 273d 9da9 aa3d 1cdc 873d
00000080: fd4f 1f3d 9ff4 8c3d e171 b1bc 2eff 13bd
00000090: c3ba 8fbc 050d 09bd 2ac4 49bd 606d 833c
000000a0: a833 69bd 5fa4 683d 6728 31bc d155 31bd
000000b0: f220 14bd 2fb3 d7bc 894e b33c 1be3 0bbb
000000c0: d0cd 87bc 2dda c4bc 2ae0 2a3d dd3a 813c
000000d0: e219 8ebb 9acf 873d 9183 9d3d efd4 ec3c
000000e0: dd0c 7e3a 0ef1 953d b751 143d 5e4a 10bb
000000f0: 2777 e0bb 58ff 4c3d 8e1c acbd 4f4a f7bc
00000100: a027 8eba c320 dbbc 7a56 423e 6825 023e
00000110: 4f23 153e b16f 033e c78a 1b3e 6971 cd3d
00000120: dfab 91bd 7a2e 18be 6326 1abe bb6e 063d
00000130: 262f aa3d a330 923d ccb7 793c 1d42 b43d
00000140: 2609 22bd dae0 72bc 2558 4d3d 948d 83bb
00000150: 8f51 66bd e0f9 60bd 688b 403d 08e5 b7bc
00000160: dcd4 24bd d8ac 803c b3b8 afbb a2d5 6bbd
00000170: ae3d 09bc b2c8 a93c 63e3 9bbc a0ca 30bc
00000180: 9045 2e3d a073 7d3c 800b 543d 4e20 02bb
00000190: 7dda e83a 9545 fb3c 0872 adbc f753 203d
000001a0: 242b dcbc 15f7 87bc dd84 c4bc dd83 6b3c
000001b0: 17f0 c9bb 959e b93c 3558 72bb 605f 6fbd
000001c0: 9d22 5abc 280d 19bc 274b 0bbc 19eb 82bc
000001d0: 6b1a 0fbd 66cf a13c 0985 35bd 13ce 1b3d
000001e0: 450a 0bbc 8697 65bd 1fc5 803a 0952 fbbc
000001f0: 0c4c 2abd ed6d 623c 233c f2bc e75e a53b
00000200: c3d5 6c3b 4c83 ea3c 7a73 37bd e8e9 603d
00000210: 5df9 98bc a9b9 f6bc 43b5 79bb 08d0 173d
00000220: 1250 233d 120a 05bd 1f33 623d 9bde 2f3d
00000230: 4f7b d7bc 6a95 03bd a8a4 9b3c 6a91 3dbd
00000240: c07a 6c3b 7b73 3dbd c563 94bc cf2a 01bc
00000250: 853a 603d 0414 4bbd 35db 983d 54f1 183b
00000260: 6484 253d 6ffb b5bb c927 f8bc 043a 183d
00000270: ab1f 533c f439 b8bc 02ac 23bd a1bd 5e3c
00000280: b417 883c 121e ffbb a745 e7bc 1d8f aeb9
00000290: 5549 0e3b 47b5 33bc 1486 0fbd e4a0 b03c
000002a0: ce64 7f3c 0454 0a3d fed6 4bbd 722f 393b
000002b0: 9588 443d 3e4b 3dbd fda6 bebc 72a6 6d3c
000002c0: c7c5 debc 0712 4f3c 1dd5 dd3b e0fb 143d
000002d0: dd6e b73c cec9 60bd 226c 0cbd b9ac 613c
000002e0: 92ad f7bc 1dc2 7e3b 4ea6 413c b9ad d7bb
000002f0: c7ed 1fba f995 973c 1b70 673d 0c29 843c
00000300: f5c9 393d 556d 62bd 07c5 8e3c 1d98 313d
00000310: a32d 183d e3df 0b3c f08e 2f3d ee04 3b3d
00000320: 757d 9d3a bdb5 2fba 0073 cc3c 5ad9 c4bc
00000330: 3713 a83c 12f6 ddbc e07d 363d b062 2dbd
00000340: 8459 98b9 11e0 823c b001 9fba 8332 7fbd
00000350: 8e79 0c3d 9afb 983c 16a6 15bc 45cc be3c
00000360: 745b a43c 67e8 af3c 4e0f d0bc ab5d 1a3d
00000370: 7d0c 4dbd 9ef5 a93a 6dc8 933b 959c 62bc
00000380: a764 63bb 012a 9f3b 6e13 08bc 5cca 9e3b
00000390: 183f 82bb 4ca5 483c a354 37bd 7c60 323c
000003a0: 67d9 3dbc 144e daba fc41 34bc fcc5 e0bc
000003b0: 0567 733c 639c 953a 5107 f93c 5c58 073c
000003c0: 7477 31bd 9b2d e13b cda7 843c 60e5 793d
000003d0: 9fff 1dbd 0081 e8bc 942b f33c ef02 483d
000003e0: 0fcc ea3c 04dc 393d 50de 40bd 6171 44bd
000003f0: 3679 11bc 72a1 a03d 9dd5 143d 40a0 ccbb
-0.0071788905 0.019770935 -0.05765531 0.015097085 0.0013651988 0.047239967 -0.030293453 0.018008033
-0.02980583 -0.005120277 0.06327627 0.009977942 0.049114287 0.0015282127 -0.021171493 0.018641053
-0.039445505 -0.008529523 0.051528923 0.0041655004 0.047649004 0.03047291 0.06843858 0.0478716
0.042683955 0.008077339 -0.037046105 0.016519418 0.038257934 0.041002113 0.083331324 0.066337794
0.038894642 0.06882595 -0.021660747 -0.03613203 -0.01754511 -0.033459682 -0.049259342 0.016043365
-0.05693403 0.05679738 -0.010812855 -0.04329473 -0.03616423 -0.026330559 0.021888034 -0.0021345082
-0.016577631 -0.024029816 0.041717686 0.015775139 -0.0043365816 0.06631394 0.0769111 0.028910128
0.0009691248 0.07321368 0.03621074 -0.0022016983 -0.0068501416 0.050048202 -0.08403884 -0.0301868
-0.0010845549 -0.02674902 0.189783 0.12709582 0.1456425 0.12835576 0.15189658 0.10031397
-0.0711286 -0.1486148 -0.15053706 0.032820445 0.08309774 0.07138183 0.0152415745 0.088016726
-0.039559506 -0.014824117 0.05013289 -0.00401468 -0.056230124 -0.0549258 0.04700795 -0.022448078
-0.04024206 0.015707418 -0.005362594 -0.057576783 -0.008376522 0.020725582 -0.019029325 -0.010790497
0.04254681 0.015469462 0.05176878 -0.001985568 0.001776531 0.030672828 -0.021172538 0.039142575
-0.02687604 -0.01659731 -0.023989135 0.0143747 -0.006162654 0.022658626 -0.0036978845 -0.058440566
-0.0133139165 -0.009341516 -0.008501804 -0.015981244 -0.034937304 0.019752216 -0.044316325 0.038038325
-0.008486335 -0.056052707 0.0009824372 -0.030678766 -0.04157643 0.013820154 -0.029569691 0.0050467136
0.0036138154 0.02862706 -0.04478786 0.05491057 -0.018673593 -0.030117827 -0.0038102425 0.03706363
0.039871283 -0.032480307 0.055224534 0.042936902 -0.026303915 -0.032124914 0.018999413 -0.046281256
0.0036083907 -0.04625271 -0.01811398 -0.0078837415 0.05474331 -0.049579635 0.074636854 0.0023337202
0.04040946 -0.005553655 -0.030292409 0.037164703 0.012885968 -0.022488572 -0.03995896 0.013595016
0.016612865 -0.007785567 -0.028231455 -0.00033294494 0.002171119 -0.010968513 -0.035039976 0.021561094
0.015587999 0.03377153 -0.04976558 0.002825704 0.047981817 -0.046214335 -0.023272986 0.014505016
-0.027193917 0.012638575 0.00676979 0.03637302 0.02239173 -0.054879956 -0.03428281 0.01377409
-0.030234132 0.0038873025 0.011819435 -0.0065819887 -0.00061008 0.01850413 0.056503396 0.016132854
0.045358617 -0.05528005 0.017427934 0.043357957 0.037152898 0.0085372655 0.042860925 0.045659
0.0012015539 -0.00067028013 0.02495718 -0.024029423 0.020516975 -0.027094875 0.044553638 -0.042330444
-0.00029058394 0.015975984 -0.001213124 -0.06230403 0.03429561 0.01867466 -0.009133836 0.023290763
0.02006314 0.021473123 -0.025397923 0.037686985 -0.050060738 0.0012966876 0.0045099766 -0.013831277
-0.0034697445 0.004857302 -0.008305414 0.0048459005 -0.0039748065 0.012246441 -0.04475845 0.0108872615
-0.011587477 -0.0016655349 -0.01100206 -0.027438156 0.014856105 0.0011414405 0.030398997 0.008260813
-0.04332681 0.0068718917 0.016193295 0.061009765 -0.038573857 -0.028381824 0.029683866 0.048830923
0.028661756 0.04537584 -0.047087014 -0.04795969 -0.008878997 0.07843293 0.03633653 -0.006244689

module.conv_4.bias f4 [12]
00000000: 8fd1 56bd bc0c 63bc 2c06 823c ac2a 1d3c
00000010: 9273 0bbd 95b4 7e3d 971b 8c3c b5da e939
00000020: 0ede 443d b5a1 a13c 385f 8a3b 4e45 7dbd
-0.052445944 -0.013858017 0.015872084 0.009592693 -0.034045763 0.062183935 0.017103 0.00044604173
0.04806333 0.019730428 0.0042227767 -0.061833672

module.conv_5.weight f4 [12, 12, 3, 3, 3]
00000000: ce1b ae3a fd22 6abd a1e2 403d 724e 0abb
00000010: 62cd 6dbd 5de5 eb3c e278 84bc 14b6 653b
00000020: c427 5abd ebfb 02ba d26d a1bc 43c1 51bc
00000030: 24ac 4fbb 696e 793c 7dd4 a7ba cbe5 0a3d
00000040: a65a c0bb 2aeb 233c 0c90 203d bc2c 1abd
00000050: 06e7 4c3d 830a bdbc c1a4 98bc f974 343c
00000060: a207 16bb 4dc8 8ebb c941 06bd 6e47 573c
00000070: 305e 9dbc d02a c9bc cf7a 053c de07 493d
00000080: e3be 1f3d bf45 a0bc b101 3a3c 2d19 a43c
00000090: f9ce 1d3d f97b f1bc a5d7 acbc c9a3 0f3d
000000a0: ed27 1f3d 140b 483d 83a3 fa3b 50a9 4f3d
000000b0: 977d e53c 8012 adbb 962f cd3c 2cdf f73c
000000c0: d549 5c3d d202 dd3b 9b8d 4dbd 4cf4 493d
000000d0: 6d2a 23bd 687c 49bd 710d d0bc a1e4 2a3d
000000e0: 33ef 4b3c 9a21 a839 2ab7 0f3c 1665 bd3c
000000f0: 9bf0 5c3d 208d bb3c 342e b8bc 44fd a33c
00000100: ee55 0cbb 77f6 2e3d c9a3 043c aba1 853d
00000110: 428f 223d d26e 803d 3431 f7bc ea2a 0fbd
00000120: f862 ecbc 4867 443d 4e7c 173d 7f72 16bb
00000130: a244 c43c 7a0f 5d3d 0c80 28bd fb86 c53c
00000140: 1ce4 673c fb82 52bd 1692 58bc e124 193d
00000150: 7df3 ff3c 9e85 463a 5af5 ac3b 3e26 0ebc
00000160: 2ee1 7d3d 66e1 683d c18b 23bd be23 81bc
00000170: 2944 fcbb 7742 c33c 8846 de3c 3142 ecbc
00000180: 2675 80bb d950 363c 6637 84bc 3dc6 f53b
00000190: 58d5 0ebc e9be c93c 59d4 303d 7588 8bbc
000001a0: d672 853d b6e4 b53c 804f 853d 9991 af3c
000001b0: 3174 663d a012 adbc e713 4fbc cdc5 3abd
000001c0: 58e9 c73c 6cc6 0bbd 60a4 54bc 6171 49bc
000001d0: 0349 f43b 8ef1 51bc 4be7 07bd 414f 9c3c
000001e0: 1509 723d c0db 753d 1bd0 cebc 31a5 0cbd
000001f0: a98e c3bc dc3d 513d 7b58 21bd fa5e c93c
00000200: c754 f93c 4c6c e2bc dd70 413b 4fe0 6d3d
00000210: 1852 f33c 65a9 c53c 71ba 42bd 07e3 8a3c
00000220: 1c74 a1bb 922f 1f3d 2aa5 eabc 4a99 303c
00000230: 7870 d93c 1efb 233b 371e 5c3d d318 0c3d
00000240: e169 2f3d 1697 703c 2446 363d c1ea 27bc
00000250: f4b4 5d3d b4dd e7bc e695 183d 7d2e f03c
00000260: cc16 223c b49a 31bd 051c 82bc e661 813c
00000270: 3a9b fa3c be19 cd3b 922c 3bbd 7de5 3a3d
00000280: 124b 6b3d 3695 0c3b 545f 143c 0083 a03b
00000290: a082 e6bc 9578 1fbd affa 433d 072b 323d
000002a0: 7904 d8bb a651 2d3d 546f 3c3d 70f8 68bc
000002b0: 9008 843a eb67 2b3d 39fe 033d e0cc 1cbd
000002c0: 93c9 9c3c 51ad 6fbd 011f cabc 4791 be3c
000002d0: 44dd 2bbd 99c3 a5bc 2dd5 253c ba57 273d
000002e0: 3b88 263d 7cb9 26bc a3f9 2b3d 668f 2f3d
000002f0: 577f 7abd 113d 4abd c01c 163d 29e1 32bd
00000300: 6c47 153c 6213 d1bc a745 3e3d 4e3f 05bc
00000310: d007 653c 192e 21bc 35ca e43c 6a74 b7bc
00000320: 615d cebc 0c6f 00b9 886f 4dbd f8d6 8a3c
00000330: 0561 9dbb acbc d23c cd6f c23c 9c85 2cbd
00000340: d0ec 223d a023 f63c b859 2f3d 5e56 1d3c
00000350: c972 463d 8969 a13c ea76 333d 4dbe c2bc
00000360: d2a8 1ebd cc97 3fbd 4fbd 183d 9dd0 f53c
00000370: 784c 45bd bdf2 a63c ef7d 043b a0a8 27bd
00000380: a818 b83c f3f7 723d cb8e bf3c 7fe1 1f3c
00000390: e9ce 073d 648c ef3a 8d43 633d b90d 493d
000003a0: 8d9d c5bc 82c5 04bd e9f3 053d 02f0 c838
000003b0: 0796 9fba 7474 b03c 1c95 d6bc b363 2a3d
000003c0: 525b abbc dbb8 c6bc bc8d 1bbd 7f4b 3b3c
000003d0: 85b5 5fbc be28 e63c adac 85bb a585 17bd
000003e0: 9b01 ac3c e1e4 d53c 93ee 45bd a90f 22bd
000003f0: beff 3c3c f940 65bc 7512 bbbc 8b6c d3bb
0.0013283433 -0.057162274 0.04709113 -0.0021103886 -0.058057196 0.028795892 -0.016170923 0.0035051154
-0.05326058 -0.0004996645 -0.019705687 -0.012802425 -0.0031688297 0.015224078 -0.0012804415 0.033910554
-0.005870181 0.010004798 0.039199874 -0.03764032 0.05002501 -0.023076301 -0.018633248 0.011014217
-0.0022892733 -0.004357374 -0.03277758 0.013139589 -0.019209951 -0.024556547 0.008146956 0.04907977
0.039000403 -0.019564508 0.011352942 0.020031536 0.038527463 -0.02947806 -0.021098921 0.035068307
0.038856436 0.04883869 0.0076488866 0.05069858 0.028013987 -0.0052817464 0.025047105 0.030257784
0.05378135 0.006744721 -0.050183874 0.049305245 -0.039835382 -0.04919091 -0.025397034 0.041721944
0.012447166 0.00032068492 0.008771697 0.02311949 0.053940397 0.022894442 -0.022482969 0.020018227
-0.0021413523 0.042715516 0.00809569 0.06524976 0.039687403 0.06271137 -0.030174829 -0.034953035
-0.028855786 0.04795006 0.03698378 -0.0022956429 0.023958508 0.053969838 -0.04113774 0.024112215
0.014153507 -0.051394444 -0.013218423 0.037388686 0.031244034 0.0007573011 0.0052782716 -0.00867611
0.061982326 0.05685558 -0.0399282 -0.015764114 -0.007698555 0.023835404 0.027133241 -0.028840156
-0.003920215 0.011127674 -0.016139697 0.0075004385 -0.008717857 0.024627166 0.04317126 -0.017032841
0.06516044 0.022203784 0.06509304 0.021431731 0.056263153 -0.021127045 -0.012639022 -0.045598794
0.02440326 -0.034124777 -0.012978643 -0.012295098 0.0074549927 -0.012813939 -0.033179563 0.01908076
0.059090693 0.060024023 -0.025245717 -0.034337226 -0.023871737 0.051084384 -0.039391022 0.024581421
0.030435933 -0.02763953 0.0029516735 0.058075245 0.029702231 0.024128625 -0.047541086 0.016953958
-0.0049271714 0.038863726 -0.02864321 0.010778734 0.026542887 0.0025021504 0.053739753 0.03420336
0.042825583 0.014684459 0.044500485 -0.010248841 0.05412765 -0.028303958 0.03725233 0.029319042
0.0098931305 -0.043360427 -0.015882501 0.015793752 0.030591596 0.006259172 -0.045696802 0.045629013
0.05744464 0.0021451241 0.009055931 0.004898429 -0.028138459 -0.038933355 0.047846492 0.043498065
-0.00659233 0.042314194 0.04600461 -0.014219388 0.0010073353 0.04184715 0.032224867 -0.03828132
0.019139087 -0.058514897 -0.024672987 0.023262633 -0.041959062 -0.02023487 0.010121626 0.040855147
0.040657263 -0.010176059 0.04198612 0.042861365 -0.061156597 -0.049374644 0.036648512 -0.04367176
0.009111267 -0.025521938 0.046453144 -0.008132769 0.013978913 -0.009837651 0.027928451 -0.022394378
-0.02519101 -0.000122484 -0.050155193 0.016948208 -0.0048028254 0.025724731 0.023734951 -0.042119607
0.039776623 0.030046284 0.04281017 0.009603111 0.04844931 0.019703643 0.043814577 -0.023772383
-0.03873522 -0.046775624 0.037289914 0.030006701 -0.04816863 0.020379419 0.0020216664 -0.040932298
0.022472695 0.059318494 0.023383519 0.009758352 0.03315631 0.0018276093 0.055484343 0.049085353
-0.024122978 -0.03241492 0.032703314 9.581448e-05 -0.0012175449 0.021539904 -0.026194148 0.041598987
-0.020917568 -0.024258068 -0.037976965 0.011431574 -0.0136541175 0.0280956 -0.0040794224 -0.036992688
0.02099686 0.026110115 -0.048323225 -0.039565716 0.011535583 -0.0139925415 -0.02283595 -0.0064521483

module.conv_5.bias f4 [12]
00000000: c69a 0c3d 0e08 26bd 8a6e d23c 8967 2cbc
00000010: 52b7 1f3c 69aa 8e3d 9471 a9bc b640 e03c
00000020: 856f 7d3c d164 153d 1334 593d 73b8 283d
0.03432729 -0.040535025 0.025687475 -0.010522732 0.009748297 0.06966097 -0.020684041 0.027374607
0.015468483 0.0364731 0.053028177 0.04119153

module.conv_6.weight f4 [12, 12, 3, 3, 3]
00000000: e2ba fa3c 0d7d 24bd e80e 3b3d 7954 9dbc
00000010: 871e 093d 7414 173c 783b 2dbd a5cc 573d
00000020: 4621 9dbb 1da9 48bd d8bf 1e3d 35f2 a43c
00000030: 6d97 5bbd f0d2 153c e7a8 453d 9705 bc3c
00000040: f7c5 16bd 8ef1 e8bc 186b 3fbd a601 35bd
00000050: 7c16 49bd 1f6b 513d 1cf8 34bd 0833 003b
00000060: 6e4d a33b d635 a93b 281a 843c 7df6 51bd
00000070: ceb8 8839 37b1 123d 581a 8fba 80d1 9abc
00000080: d528 203c 62f4 f5bc 1a3f 81ba 82be a5bc
00000090: 0490 3abc e15a 72bd 8306 70ba ba1a 033d
000000a0: 0373 4f3a 0715 d7bc b3d2 4fbd cc49 763d
000000b0: dbc6 aa3c 1eab 1fbd 680a 12bd 1968 88bc
000000c0: 8366 bfbc f6ad 263d 751c 203c af30 643d
000000d0: 7d22 9d3c 5c45 243d 766a 3ebd cfd7 1c3d
000000e0: 5314 13bb 7568 b23c 1b9f 2c3d f328 8639
000000f0: ea70 2bbd 6136 4fbd 015c 943c 8a77 c63a
00000100: c18d 07bd 8943 523d 71a8 5dbd 16e4 afbb
00000110: 59dc 2abd 7a5d 7cbd 553f 39bd e8ef f13c
00000120: 4958 d9bc a7a2 eb3c 3aaf a83c 1e2e 5fbc
00000130: 98bc 5ebd ef51 aa3b 6386 d9bb 3118 15bd
00000140: b4e9 f0bc 8fcd 603c 1db1 8c3c 8d23 d13c
00000150: a7c4 433d 2065 d6bc 1470 563c 1f52 1c3b
00000160: 817f 723c a157 4cbb fb8c 99bc 98ef 993b
00000170: 6f78 0cbb a88c 163d ac97 e0bc 0f08 58bc
00000180: 8b56 88bc 2333 e1bc 2cbd 46bd 60dc 1dbd
00000190: 8ac7 fc3c e589 3d3d 1bfe 0abd d57c c7bc
000001a0: 31d8 e63c 368c fb3c 6e5f 9cbb f388 59bd
000001b0: d4cf 693d e04f 40bc ef02 1d3d d384 c63c
000001c0: 0150 6f3c 5cc3 673d 66b3 7fbc 29b6 a3bc
000001d0: 9dbf 473c 73e6 d73b aca6 0e3b 2ff8 ae3c
000001e0: f329 493a d0b9 263d 148d 4bbb d031 cdbc
000001f0: f108 e83c 1c33 973c f18d 1e3d 55bf 4fbb
00000200: e7ba ab3c 9d04 f7bb 2481 2bbd 9f9f 99bb
00000210: ac68 5a3d b3e5 fbbb 1206 873b 279e 06bd
00000220: 7abc 16bd da71 ccbc 8a46 313d 4eb7 fdbb
00000230: 5146 ae3c b008 073d 1fc0 5a3d bd48 c53c
00000240: b090 303c fea2 e93c 562d 8a3c 9e02 61bd
00000250: 621f baba bbcc 69bd 3812 483d 7eb0 3fbd
00000260: 1f52 453d 3ec5 07bb a7f0 a13c 2760 43bd
00000270: df06 00bd 2044 68bd cf23 ccbb b62f 073d
00000280: fc44 49bd b96a 3cbd 3737 d63c 5b77 ae3c
00000290: 2241 04bc 154d 08bc eec9 7c3b 0a2c 843d
000002a0: 0b09 2f3d 1ed2 b0bb 15e6 3c3c 2452 1fbd
000002b0: c764 9b3d 08f5 91bc 39a9 14bd 0dc1 2a3d
000002c0: 77c6 8c3c 351d 4bbb 852f 2e3c 38b2 093b
000002d0: 415d c13c c587 7f3d 9645 adbc 431c b0bb
000002e0: 3f72 8fbc 3c38 4c3d a815 41bc 786a be3c
000002f0: 6c28 0a3c af53 dfbb 382b 543d 370c fcbc
00000300: 7650 0bbc 7f9a c03c ac69 3a3d 3bba 25bd
00000310: ea26 023c c6bb 793c e1e7 81bc d3f7 d1bc
00000320: 1b91 0f3d 1faa 4abd 13a2 cbbc 9b24 f9bb
00000330: 0315 4fbd 38f7 2b3c 667f 4cbd b0cf 1f3a
00000340: aeaa 433d ed9a a5bc 138a 2a3d 0e9f 4dbd
00000350: 1418 5dbc faf3 48bd ea91 2e3c c0a7 5ebd
00000360: 2abe 073d 89b2 a5bc 0094 b2bc 7959 253d
00000370: e7cb a43b 116e 47bd 2dae 1f3d 3c29 293c
00000380: e75e 0f3d 94b1 a1bc 9abc 043d dc40 22bc
00000390: 3d18 eb3b 22cb a73a bcaa 173d 4b73 78bc
000003a0: edbd 733d da3a a83c 22f2 bbbb b13f 1bbd
000003b0: 0af0 293d e7a9 143d 7e3d dcbc baf0 edbb
000003c0: 4a81 583d c926 b0bc 522b a5bc f695 cebb
000003d0: 2e82 48bb a2f3 cf3c f30d d43b 65db c7bc
000003e0: 2084 483d 98b4 2b3d 7816 76bc 5ba0 0f3d
000003f0: 5b44 513d 7dbe 7b3c 274a 183d 0d8e 62bc
0.03060669 -0.04015832 0.045668513 -0.019205319 0.03347638 0.009221185 -0.042293042 0.0526854
-0.0047952263 -0.048989404 0.038757175 0.020135025 -0.053611208 0.00914453 0.04825678 0.022951884
-0.036809888 -0.028435495 -0.046732992 -0.044191025 -0.04909371 0.05112755 -0.044181928 0.0019561667
0.0049835956 0.0051638884 0.016125754 -0.05126046 0.00026077632 0.035813536 -0.0010917885 -0.018898726
0.00977536 -0.030023757 -0.0009860725 -0.020232443 -0.011386875 -0.0591687 -0.0009156244 0.03200791
0.00079135614 -0.026255144 -0.050738048 0.060128972 0.020846775 -0.03898155 -0.035654455 -0.0166512
-0.023364311 0.040693246 0.00977241 0.05571049 0.019181484 0.04010521 -0.046488248 0.03829175
-0.0022442534 0.021778325 0.042143922 0.0002558898 -0.04185573 -0.05058897 0.018110277 0.0015141827
-0.03309417 0.051333938 -0.054115716 -0.005367766 -0.041714046 -0.061612584 -0.045226414 0.029533342
-0.026531355 0.028764082 0.020591367 -0.013621835 -0.054379076 0.0051977555 -0.0066383346 -0.036400024
-0.029408313 0.013720884 0.017174298 0.025529647 0.047794964 -0.026171267 0.013088245 0.002385266
0.014800907 -0.003118016 -0.018743983 0.0046977513 -0.0021434089 0.036755234 -0.027416073 -0.013185515
-0.01664283 -0.027490204 -0.048520252 -0.038540244 0.030856866 0.046274085 -0.03393374 -0.024351517
0.02817926 0.030706506 -0.0047721183 -0.05310912 0.057082966 -0.011737794 0.038332876 0.024233257
0.014606477 0.056582794 -0.015606737 -0.019984322 0.01219168 0.006588751 0.0021766825 0.021358578
0.00076737924 0.04070455 -0.003105943 -0.025048167 0.028324576 0.018456988 0.038709585 -0.0031699736
0.020963145 -0.0075383917 -0.041871205 -0.004688218 0.05332248 -0.0076872944 0.0041205967 -0.03286567
-0.03680084 -0.024956632 0.043280162 -0.007742799 0.021273764 0.03296727 0.053405877 0.024082536
0.010776684 0.028520104 0.016867321 -0.054934137 -0.0014200027 -0.05708001 0.0488455 -0.046799175
0.04817402 -0.002071693 0.019768072 -0.04769912 -0.031256553 -0.056705594 -0.0062298547 0.033004485
-0.049138054 -0.046000216 0.026149375 0.021297147 -0.0080721695 -0.008319159 0.0038572508 0.06453712
0.042733233 -0.0053961417 0.011529465 -0.038896695 0.07587581 -0.017817035 -0.036294196 0.041688014
0.01718448 -0.003099275 0.010631447 0.0021010768 0.023604037 0.06238534 -0.021151345 -0.005374463
-0.017510531 0.049858317 -0.011784948 0.023244128 0.008432489 -0.006815396 0.05179903 -0.030767543
-0.00850307 0.02351117 0.045510933 -0.040460806 0.007943848 0.015242523 -0.015857639 -0.025630867
0.035050493 -0.049478646 -0.024857556 -0.0076032407 -0.050557148 0.010495953 -0.049926184 0.00060963165
0.047770195 -0.020215476 0.041635584 -0.050200514 -0.01349451 -0.0490608 0.010654906 -0.054359198
0.03314034 -0.020226734 -0.021799088 0.04036853 0.00502919 -0.048688952 0.038984466 0.010324772
0.035002615 -0.019737996 0.032406427 -0.009903159 0.0071745203 0.0012801627 0.03702806 -0.015164207
0.0595073 0.020535875 -0.0057356516 -0.037902538 0.041488685 0.036294844 -0.02688479 -0.007261363
0.052857675 -0.02150287 -0.020162258 -0.006304498 -0.0030595171 0.025384728 0.0064713894 -0.024396608
0.04895413 0.041920274 -0.015020005 0.035065036 0.05109058 0.01536524 0.037180092 -0.013827813

module.conv_6.bias f4 [12]
00000000: 6c20 1e3d d25c 51bd 3c6c ae3c 60bb beba
00000010: 791c 0dbd cbd5 a33c 8be7 cf3c 9393 933c
00000020: 86f5 51bc 4393 8a3d 578d a03c 02b6 adbc
0.03860514 -0.05111391 0.021291845 -0.0014551692 -0.03445098 0.019999405 0.025378963 0.018014705
-0.012814885 0.06766369 0.019598646 -0.021204952

module.conv_7.weight f4 [56, 12, 1, 1, 1]
00000000: 6b3e 5d3e 7536 2abe c40d 8ebe 86ee 88be
00000010: 07b0 36be 14ed a13d 3550 6abe 9258 b9be
00000020: 164b a83d 1ae0 e13d 5ebf 523e 69a0 08be
00000030: 0110 4c3e 93b3 c33c f44b 12bc 51ca 0e3e
00000040: 5eca 07bd 8ffc 0e3c 4f8f 3ebe 2aac b23e
00000050: ecac 23be b63c eabd 0887 4ebe a3bd 6b3e
00000060: aa21 84be a1b9 013d 4e69 78be e26e 0e3e
00000070: 5182 8d3e 3e15 98bd fd23 313e 9465 68be
00000080: 2f2d 633e 6a79 f9bc eef5 5b3e 7679 a23e
00000090: d8d3 583e 9810 51be 6f9b a83e 614f dc3d
000000a0: 391c 9b3d 12ec 7abd a1b3 cfbd b4a0 5d3e
000000b0: 6417 8abe 0129 0c3e 5210 b9bd 1d76 813d
000000c0: dd7f 713e 696e 8ebe 49e4 37be d2a2 adbc
000000d0: e99e 8e3e 1cd6 98be 99f6 c2bd 8129 1d3e
000000e0: c229 1bbd 9487 afbe 0e20 7f3e f4b7 b53d
000000f0: 3e7f bcbd 5ea7 6bbe 22e0 72be 2b18 353e
00000100: ea1c f13d 19b9 0f3e 9d5c cc3d 7b51 113e
00000110: 196e 863d 5a9d 9bbd b234 1ebe 1e04 c63c
00000120: 657a babd 8dcb e2bd 8f0d 99be 0bff 613e
00000130: 6c36 5fbd 6a56 90be f298 ac3c 570f 0cbd
00000140: c43c 72bc e956 6d3e 35b8 833e 809d a0bd
00000150: 7c4f 3c3c 3e72 da3c 0bf3 48be d0eb a93e
00000160: 34b7 b23d 254e 6d3e 876a 3bba 7e69 edbd
00000170: 1af7 883e d81e 33be 0d35 c03d e667 fc3d
00000180: 8619 913e 6cee 84be 6062 42bd 10ee 26bc
00000190: d5fb 3b3d e6a2 64be c1bd e5bc dfaa 093e
000001a0: 656c 83be 05cc f73d 589d 923e ffb1 09be
000001b0: 0770 a8bd 5f3e 8cbd cc94 aebe 65e6 a63b
000001c0: 9502 473d 7ae6 a5be c60c aebe 586b f9bd
000001d0: a5a7 d3bd 539b 983d 2b87 1e3e f651 5c3d
000001e0: 154a 60be 76dd 24be fe1c 37be 6346 b63d
000001f0: e01e adbd fe2f 983e 6765 94be 0b80 c2be
00000200: 9d20 adbd 5673 94bd f35e 833e 112b 4dbe
00000210: 9b8e 57bc f3f1 043e f6cf 39be ae84 a03e
00000220: 12c0 2fb9 c8e8 04bd 667c 5cbc ca35 a0be
00000230: 63b3 5c3e 8596 803e 9b56 62be bfb1 163b
00000240: 6cc8 833e 390f 833e d46c f6bc a3ad b83d
00000250: 5948 5bbe 72e4 8e3c 9f39 073d 3adb 203e
00000260: fe0e 913e abde 583e a873 33be 54c7 353d
00000270: a988 c43c 92a8 183e b623 023e 8dfa 3f3e
00000280: a236 4a3e 70be d93d 62e6 85be 6dea 963d
00000290: d310 883d 5fc0 8bbe 16de 483d 753b 013c
000002a0: 4ad0 aabe 01ea b73d fca6 ca3d 645f a23d
000002b0: a6c1 113e 93a8 78be db2b 5f3d 1726 a4be
000002c0: 3fb3 7cbe 0ba6 5fbe 4f2e be3d 3d88 c6be
000002d0: 6701 083e 474d 823e ef63 adbc e93a c53d
000002e0: 9492 54be fa1c 93be e1f3 7f3e 39fa 9fbd
000002f0: 75a0 1dbe ae32 91bc d233 883d efd4 813a
00000300: e650 29bd 60cd 953e c6fc 7ebe 77d5 82bd
00000310: cb98 1dbe 8d83 cf3d abb2 b3bc 0c8a 943d
00000320: 5201 a83d e3d8 73bb a488 f6bd 506a 8abe
00000330: 9c5b 1dbc 7349 66be 6c3d 443e b8b5 e53c
00000340: 1d1c c2bc 0dc5 8d3d ecc6 0ebe c98c 313e
00000350: 6275 7c3e 31db 9cbe edc0 25bd 1875 87bd
00000360: 9754 8fbe e58a 093e a3f1 3bbe 38ad ecbc
00000370: e325 e7bd 9bef 6cbe d834 57be 2146 023e
00000380: f7b2 9f3d 7939 22be 119e ef3d 3a1b 49bd
00000390: e9a5 5a3e e7de 37be 30ab 39bd 9765 283e
000003a0: a06f 16bb eb32 853e fe82 653d a714 a9be
000003b0: 75f4 8dbe 73c7 fd3c 2bd0 603e 8a3a 25be
000003c0: f007 473d 72ab 773e 9be1 5abe 15d1 c43d
000003d0: 3c28 d33d 47ec 863c 4954 8d3d 37b1 aebe
000003e0: 7bf2 123e 0f83 debd 904c 62be 43ed 3bbe
000003f0: 8a7c 693d 7fdc 053e 5349 72be 3187 f3bd
0.21605842 -0.16622336 -0.27744877 -0.2674448 -0.17840587 0.07906547 -0.22882159 -0.36200386
0.082174465 0.11029072 0.20580813 -0.13342442 0.1992798 0.023889339 -0.008929241 0.13944365
-0.033151977 0.008727207 -0.18609355 0.34896976 -0.15983933 -0.11437361 -0.20168698 0.2302156
-0.25806934 0.03167117 -0.2425892 0.13909486 0.27638486 -0.074259266 0.17298885 -0.22694999
0.22185205 -0.030453403 0.21480533 0.31733292 0.21174562 -0.20416486 0.32931086 0.10757328
0.075737424 -0.06126029 -0.10141683 0.21643335 -0.2697097 0.13687517 -0.09036316 0.063213564
0.23583932 -0.2781861 -0.17958178 -0.021195803 0.27855614 -0.29850852 -0.09519691 0.15347864
-0.03788162 -0.34283125 0.24914572 0.08872977 -0.09203957 -0.23013064 -0.23718312 0.17685
0.11773093 0.14035453 0.09978602 0.14191239 0.06563968 -0.07598372 -0.15449789 0.024171885
-0.09105376 -0.110739805 -0.29893157 0.22069947 -0.05449526 -0.2819093 0.021069024 -0.034194317
-0.0147849955 0.23177685 0.25726476 -0.07842541 0.01149356 0.026665803 -0.19623964 0.33187723
0.087263495 0.23174341 -0.00071493577 -0.11592387 0.26751024 -0.17492235 0.09385119 0.123245046
0.28339785 -0.2596315 -0.0474571 -0.010188594 0.045894463 -0.22327766 -0.028044583 0.13444088
-0.25668636 0.120994605 0.2863567 -0.13446806 -0.082244925 -0.06847834 -0.34097898 0.005093383
0.048586447 -0.32402402 -0.3399412 -0.12178677 -0.1033471 0.07451501 0.1548125 0.0537891
-0.2190326 -0.16100106 -0.17882153 0.08900144 -0.084531546 0.29724115 -0.28983614 -0.37988314
-0.08453486 -0.07248561 0.25658378 -0.2003596 -0.013156558 0.12982921 -0.18145737 0.31351227
-0.00016760852 -0.03244856 -0.013457393 -0.31291038 0.21552806 0.25114837 -0.2210335 0.0022994129
0.25738847 0.2559755 -0.03008119 0.090174936 -0.21414317 0.017442916 0.033013936 0.15708628
0.2833175 0.21178691 -0.17524588 0.044379547 0.023990946 0.14908054 0.12708935 0.18747921
0.19747403 0.10632026 -0.2615233 0.07368932 0.06643834 -0.27295205 0.049039923 0.007887711
-0.33362037 0.089801796 0.09895131 0.079283506 0.14234027 -0.24283056 0.054485183 -0.3206031
-0.24677752 -0.21840684 0.092861764 -0.38775817 0.13281785 0.25449583 -0.021165816 0.09630377
-0.2075904 -0.28733045 0.24995376 -0.07811398 -0.15393241 -0.017724361 0.06650509 0.0009905378
-0.041336916 0.2925825 -0.24901113 -0.063883714 -0.15390317 0.10132513 -0.021935781 0.07252893
0.08203377 -0.0037208132 -0.12037781 -0.27034235 -0.009604361 -0.22488956 0.19164056 0.028040752
-0.023695046 0.0692235 -0.1394307 0.17338862 0.24654153 -0.3063598 -0.04046719 -0.06614131
-0.27994224 0.1343189 -0.18353896 -0.02889119 -0.11286523 -0.23138277 -0.21016252 0.12722065
0.07797807 -0.15842237 0.11700071 -0.04909823 0.21352352 -0.17956124 -0.045329273 0.16445003
-0.0022954717 0.2601541 0.056033127 -0.3302357 -0.27725568 0.030978894 0.2195441 -0.16135612
0.048591554 0.24186495 -0.21375124 0.09610192 0.103104085 0.016470088 0.06900842 -0.3411958
0.14350311 -0.10864841 -0.22099519 -0.18352227 0.057003535 0.13072394 -0.23660783 -0.1189102

module.conv_7.bias f4 [56]
00000000: d052 623e 34d8 40bd a7a3 d6bd afc1 4abe
00000010: dafd 793e 334e 97bd f96c 10bd 8eb5 28be
00000020: 4137 2b3d 0638 3a3e efd7 973d e28f 55be
00000030: 3394 0dbe e0dd 4f3c 70ab 303e ff6e 283b
00000040: 5909 0f3e 5276 b13d d2b7 5c3e 6340 d1bd
00000050: 0f6e 533d c0f5 953d 48bc e5bd 716f a23c
00000060: 2cf4 4c3e 9aa7 84be a9cf 55be 9c58 02be
00000070: 1e42 fdbd 745e 663e 157b 7d3d 8636 733d
00000080: 356a 0e3e 1c29 5abe dbe6 843d 301c 30be
00000090: e24c a83d 54e3 483d e055 d8bc 53c9 2e3c
000000a0: bb66 77bd 02b5 1f3e 6c74 4bbb 7b0d 933d
000000b0: c787 efbd 0523 bc3d 0feb 213e 584f 28be
000000c0: 72ae 2cbe 618d 673e 653f 2e3e 540e f3bd
000000d0: 76c7 21be 14de de3d 3261 a6bd 66c8 4b3e
0.22101903 -0.047081187 -0.10480433 -0.19800447 0.24413243 -0.07387962 -0.035260174 -0.16475508
0.04180074 0.18185434 0.07414233 -0.20855668 -0.13826065 0.0126871765 0.17252898 0.0025700924
0.1396841 0.08665146 0.21554497 -0.10217359 0.051618632 0.07322264 -0.112175524 0.01982853
0.20015019 -0.2590912 -0.20879997 -0.12729114 -0.123661265 0.22496969 0.06188496 0.05937817
0.13907702 -0.21304744 0.06489345 -0.17198253 0.08217789 0.049044922 -0.026408136 0.010668117
-0.060400706 0.15596393 -0.0031044735 0.071803056 -0.11695819 0.09186367 0.15812324 -0.16436517
-0.1686342 0.22612526 0.1701637 -0.11867967 -0.15798745 0.10882202 -0.08124007 0.19900665
