model3/FSRCNN3D_epoch_30.pth (torch, 265262 bytes, 15 tensors)

module.conv_1.weight f4 [56, 1, 5, 5, 5]
0	0xbd2168b4	-0.039406493
1	0x3d90c65e	0.070690855
2	0x3d5f4ba7	0.054515507
3	0x3dae2754	0.08503595
4	0x3d9bd66b	0.07609256
5	0xbd8bfc61	-0.06835247
6	0x3d0fa052	0.035065003
7	0xbd910d06	-0.07082562
8	0x3d36c6ca	0.044623174
9	0xbd968db5	-0.07351247
10	0x3bec2c58	0.0072074346
11	0x3d70668d	0.05869155
12	0xbdc58646	-0.09644751
13	0xbc478f45	-0.012180154
14	0xbd5b1f9e	-0.05349695
15	0x3c2b3b4e	0.010451151
16	0xbd3b244e	-0.04568892
17	0xbd29f42f	-0.041492637
18	0xbd85cf61	-0.06533695
19	0xbcda6800	-0.02666092
20	0xbd9fa703	-0.07795527
21	0xbcb5ac33	-0.022176838
22	0xbd6c3f3d	-0.057677496
23	0xbd730b5f	-0.059337016
24	0x3db3aac8	0.08772808
25	0x3d622ae8	0.0552167
26	0xbc293b18	-0.01032903
27	0xbda00a8d	-0.078145124
28	0xbbdbcc8f	-0.006707735
29	0xbd6ded25	-0.058087487
30	0x3cd0a8aa	0.02547105
31	0xbdb929ec	-0.09041199
32	0x3d7c67b1	0.061622325
33	0xbd88605f	-0.06659006
34	0xbdb54946	-0.088518664
35	0x3d716bb1	0.058940593
36	0xbd9887f8	-0.07447809
37	0xbcc8eae4	-0.024526067
38	0xbd558379	-0.052127335
39	0xbd95eb8a	-0.07320316
40	0xbc8824d9	-0.016619133
41	0x3b8c3c31	0.0042796363
42	0x3d65b1e3	0.05607785
43	0xbd8fbc6e	-0.07018362
44	0x3c960d9b	0.018317034
45	0xbdba671d	-0.091016985
46	0x3bb2f624	0.005461471
47	0x3bc847f1	0.0061120917
48	0x3ce11cc4	0.027479537
49	0x3d80b6a8	0.06284839
50	0x3d78adf5	0.060712773
51	0x3b0ac510	0.0021174587
52	0xbd9dc7b4	-0.07704106
53	0x3d182cad	0.03715198
54	0x3c964e20	0.0183478
55	0xbd26688c	-0.040627047
56	0x3d771edb	0.06033216
57	0x3cc743d4	0.024324335
58	0x3c28b9b8	0.010298185
59	0xbc5a5e8c	-0.013328206
60	0x3beb88c5	0.007187935
61	0xbca6a2bf	-0.020341275
62	0x3d149e05	0.03628351
63	0xbd957673	-0.07297983
64	0xbd95bda3	-0.07311561
65	0xbdc1d9a6	-0.09465341
66	0xbd3e8974	-0.046517804
67	0x3d85b42a	0.06528504
68	0x3d1db055	0.03849824
69	0xbda5c0c4	-0.08093408
70	0x3cec57e5	0.028850505
71	0x3d018448	0.031620294
72	0xbd3f356e	-0.046681814
73	0xbd8cfa2c	-0.06883654
74	0xbd927191	-0.07150567
75	0xbd68bd28	-0.05682102
76	0x3d33db47	0.04391029
77	0xbd3b065a	-0.045660354
78	0x3c87283b	0.016498676
79	0x3cd80220	0.0263682
80	0xbd51bb38	-0.051203936
81	0x3d7359ef	0.05941194
82	0xbd9c489e	-0.07631038
83	0xbd3f8828	-0.046760708
84	0xbd236cd3	-0.039898705
85	0x3d7c719c	0.061631784
86	0xbb01aa36	-0.0019785292
87	0x3c8f8130	0.017517656
88	0xbd20b523	-0.039235245
89	0xbb86e245	-0.004116329
90	0xbd84a1f3	-0.06476202
91	0x3d0564fc	0.03256701
92	0x3cdc81c7	0.026917351
93	0xbd81a1a9	-0.06329662
94	0x3d19757d	0.03746556
95	0xbcd6423b	-0.026154628
96	0xbd1e1cd8	-0.038601726
97	0xbbecf023	-0.007230775
98	0x3d92d8a5	0.07170228
99	0xbd5e2ccf	-0.05424195
100	0x3d0eacd9	0.03483281
101	0x3db09dff	0.08623885
102	0x3dc43e9d	0.09582255
103	0x3d497b43	0.049189817
104	0xbd0a37f8	-0.033744782
105	0xbd4e35b9	-0.050344203
106	0x3d47b58b	0.048757117
107	0xbd0f55cc	-0.03499393
108	0xbdb7f8f1	-0.08983029
109	0x3bfc0d16	0.0076919897
110	0x3cf6e52f	0.03013858
111	0xbcb387ef	-0.021915404
112	0x3d6774d5	0.056507904
113	0x3ce5deda	0.028060365
114	0x3d08a77c	0.03336285
115	0xbdaa03be	-0.08301495
116	0x3d29d6ec	0.04146473
117	0x3c2fbfc7	0.010726876
118	0x3c1b1d0c	0.0094673745
119	0x3d2e7480	0.04259157
120	0xbd4cbbfc	-0.049983963
121	0xbd450100	-0.048096657
122	0xbd748c40	-0.059704065
123	0xbd6a0cd9	-0.05714116
124	0xbd040a36	-0.0322363
125	0xbd14331a	-0.036181547
126	0xbbcebf43	-0.0063094213
127	0xbcaa18ef	-0.020763842
128	0xbd8be409	-0.06830604
129	0x3c7cdabf	0.0154330125
130	0xbcff105a	-0.031135727
131	0x3dbdfe04	0.09276965
132	0xbd93d0e7	-0.07217579
133	0xbc02f3a8	-0.0079926625
134	0x3d46d65f	0.048544284
135	0xbceab4a5	-0.028650591
136	0x382d53d3	4.132448e-05
137	0x3d747423	0.05968107
138	0x3d2f50ec	0.042801782
139	0xbbb16be5	-0.0054144734
140	0xbd91bc01	-0.07115937
141	0xbcd64476	-0.026155692
142	0x3d10b9c2	0.035333402
143	0xbd84a56e	-0.06476866
144	0x3da8e939	0.08247609
145	0xb9b43794	-0.00034373684
146	0x3d4d06fa	0.05005548
147	0x3c9d9e79	0.019240605
148	0x3d135466	0.03596916
149	0x3d88d646	0.066814944
150	0x3d080a20	0.03321278
151	0x3d930b34	0.07179871
152	0x3d6eebbf	0.058330294
153	0xbd9e39b8	-0.07725853
154	0xbd7f11b4	-0.062272742
155	0x3ce440ef	0.027862994
156	0xbd4d9ff9	-0.05020139
157	0xbd2a0952	-0.041512795
158	0x3d6d3dfe	0.05792045
159	0x3d3ea6aa	0.046545662
160	0x3b396c70	0.0028293394
161	0x3d2364f3	0.039891195
162	0xbd30b23a	-0.04313872
163	0x3bf92dc6	0.0076043336
164	0x3ccde099	0.02513151
165	0x3db29fa1	0.08721853
166	0xbd8c7907	-0.06859022
167	0x3d0f4475	0.034977395
168	0x3bb3407b	0.005470333
169	0x3db461df	0.0880773
170	0xbd27cd9d	-0.040967572
171	0xbd98eda5	-0.07467202
172	0x3d4995d5	0.049215157
173	0xbc293739	-0.0103281075
174	0x3da69e9a	0.081357196
175	0x3dc4a77d	0.09602258
176	0xbd892b57	-0.066977195
177	0xbb83c457	-0.0040212083
178	0x3b7a3c96	0.0038183085
179	0x3d8acf77	0.06777852
180	0x3d80d052	0.06289734
181	0x3da41d5d	0.08013413
182	0xbd92c886	-0.07167153
183	0xbce68b63	-0.028142637
184	0x3da3ba25	0.079944886
185	0x3d71b23c	0.05900787
186	0xbc9274c9	-0.017877953
187	0x3da84daa	0.08217938
188	0x3d52fdf9	0.05151174
189	0x3da06c31	0.07833136
190	0x3c1e0306	0.0096442755
191	0xbc7e5f2c	-0.01552562
192	0x3d8be86b	0.068314396
193	0x3d2f9155	0.04286321
194	0x3dae4ba7	0.08510523
195	0x3db4845a	0.088143066
196	0x3b35557f	0.0027669368
197	0x3d3e21c2	0.046418913
198	0x3d0d5e87	0.034513976
199	0x3dbcf689	0.0922671
200	0x3ce87564	0.028376289
201	0xbc0cba30	-0.008589312
202	0xbd89a7c6	-0.06721453
203	0x3c4e4971	0.012590752
204	0xbc4ac7e2	-0.012376757
205	0xbcc47bd2	-0.023984823
206	0xbd0e197d	-0.034692276
207	0xbdacef98	-0.084441364
208	0x3d9d7194	0.07687679
209	0x3d895494	0.06705585
210	0x3ccfb7bf	0.025356172
211	0xbd8c8260	-0.068608046
212	0x3c5710e2	0.013126584
213	0x3d19111b	0.03736983
214	0xbd7bc87f	-0.061470505
215	0x3d5a7839	0.05333731
216	0x3c9a393f	0.018826125
217	0xbc0a1f96	-0.008430382
218	0x3daf4fd2	0.085601464
219	0xbd5e6b9e	-0.05430185
220	0x3db59c05	0.08867649
221	0xbcd611ad	-0.026131475
222	0x3d4b0841	0.04956842
223	0xbd64488c	-0.05573325
224	0xbd9cce60	-0.076565504
225	0xbcda7afc	-0.026669972
226	0x3b25d0c5	0.0025301438
227	0xbc7ab2f3	-0.015301454
228	0x3cc38478	0.023866877
229	0xbd7a5c6e	-0.061123304
230	0xbd32d1a1	-0.04365695
231	0xbc7ebb0e	-0.015547527
232	0xbd8990c8	-0.06717068
233	0x3db80966	0.089861676
234	0x3bdf99a8	0.006823737
235	0xbd922f93	-0.0713798
236	0x3b6074cf	0.003424931
237	0x3c825ee1	0.015914382
238	0x3ca0af72	0.019614909
239	0x3caa275a	0.020770717
240	0x3c158a69	0.009127238
241	0xbd25e299	-0.040499303
242	0xbd5ee465	-0.054417033
243	0xbd4bd0e8	-0.049759775
244	0x3da7cd71	0.08193482
245	0xbd03c9b6	-0.03217479
246	0x3b769ad9	0.0037628917
247	0x3c6d4993	0.0144828735
248	0xbd37cb9b	-0.044871908
249	0xbc8c2d0f	-0.01711133
250	0x3cae1d54	0.02125422
251	0xbd1a3003	-0.037643444
252	0xbd4e7342	-0.050402887
253	0x3c8a7fde	0.016906675
254	0x3dc4c14a	0.096071795
255	0x3d6839c2	0.056695707

module.conv_1.bias f4 [56]
0	0x3d2c15ed	0.042013098
1	0x3ce41a8c	0.02784469
2	0x3dc4ea6c	0.09615025
3	0xbcabcfac	-0.02097305
4	0xbca67ff1	-0.02032468
5	0x3d3979c3	0.045282137
6	0x3ca3c3a4	0.01999075
7	0xbd824070	-0.06359947
8	0x3d92cd5e	0.07168077
9	0x3ccce071	0.025009366
10	0x3d98bc81	0.07457829
11	0x3d8edc66	0.069756314
12	0x3d9a9c42	0.07549335
13	0x3d955ab7	0.07292693
14	0x3d9b022b	0.07568773
15	0xbd119fb9	-0.035552714
16	0x3d3aff04	0.045653358
17	0x3d87b22c	0.066257805
18	0xbd19c4cb	-0.037541192
19	0xbd75bda4	-0.05999531
20	0xbd6bce50	-0.0575698
21	0x3d13e35a	0.03610549
22	0xbd3de52e	-0.04636114
23	0xbc8b89f3	-0.017033553
24	0x3da45bc7	0.08025318
25	0xbc3f2797	-0.011667154
26	0x3d1f0c5d	0.03883015
27	0xbd830b46	-0.063986346
28	0x3d3c5b61	0.045985583
29	0x3c29b871	0.010358916
30	0xbd362f3b	-0.044478636
31	0x3c3670ec	0.011135321
32	0x3ced8174	0.028992392
33	0x3d665e4a	0.056242265
34	0xbd13ff10	-0.03613192
35	0xbc19484a	-0.009355614
36	0x3a7d6d94	0.00096675125
37	0x3d495da9	0.049161587
38	0x3d74eef7	0.059798207
39	0xbcb254e4	-0.021768995
40	0x3c8f0e5a	0.017462898
41	0x3d86c953	0.06581368
42	0xbd148757	-0.036261883
43	0x3da86d95	0.08224026
44	0xbd53200d	-0.051544238
45	0x3d8757e9	0.066085644
46	0x3daecc6a	0.08535083
47	0xbc4363e3	-0.01192567
48	0xbdaa6632	-0.083202735
49	0x3d41224d	0.047151852
50	0x3b006f7e	0.0019597705
51	0x3d7563bf	0.05990958
52	0xbd293477	-0.0413098
53	0x3d969570	0.07352722
54	0x3d92e884	0.07173255
55	0xbd19c970	-0.03754562

module.conv_2.weight f4 [12, 56, 1, 1, 1]
0	0x3dea32b8	0.11435455
1	0x3cf3de0d	0.029768968
2	0xbda906a7	-0.08253222
3	0x3d1ed74e	0.03877955
4	0xbe029b4f	-0.12754558
5	0xbd229df0	-0.039701402
6	0x3d5068ce	0.0508812
7	0xbc0f732e	-0.008755488
8	0xbd6fa794	-0.058509424
9	0x3dabad3c	0.08382651
10	0xbdcf453e	-0.10120629
11	0x3da003ea	0.078132465
12	0xbd1844c2	-0.037174948
13	0xbcd0e081	-0.025497677
14	0x3d45104c	0.048111245
15	0x3c572a5e	0.01313266
16	0x3d6b3034	0.057419017
17	0x3dc7651a	0.097360805
18	0x3b8cb139	0.0042935875
19	0xbd1f97b8	-0.03896305
20	0xbddbe074	-0.107361704
21	0x3d0141a0	0.031556726
22	0x3d985fc1	0.074401386
23	0x3d0b1099	0.033951376
24	0xbd444ad4	-0.047922924
25	0x3d7ba6ee	0.061438493
26	0x3c665ef0	0.014060721
27	0x3c0c2efb	0.008556123
28	0x3d8dc635	0.069225706
29	0x3cd6f548	0.026240006
30	0x3e17c957	0.14822899
31	0x3d9c93bd	0.07645366
32	0x3d42f6fe	0.04759883
33	0x3c655c5d	0.013999072
34	0x3dbb4400	0.09143829
35	0x3cf2d30b	0.029641649
36	0x3e025923	0.12729315
37	0xbd18595b	-0.03719459
38	0x3dafed46	0.08590178
39	0x3e252215	0.16126283
40	0x3d4a1e2a	0.049345173
41	0xbde9284a	-0.11384638
42	0x3e07c74a	0.13259616
43	0x3d410242	0.047121294
44	0x3bb1afb1	0.0054225554
45	0xbd3752b6	-0.044756614
46	0xbbbf2689	-0.005833451
47	0x3d9b0e37	0.07571071
48	0x3d945769	0.07243235
49	0x3de8deec	0.11370644
50	0x3d01b60b	0.03166775
51	0xbd11ef83	-0.035628807
52	0x3ddd1af5	0.10796157
53	0x3dc66db1	0.09688891
54	0xbd4aabb3	-0.04948015
55	0x3d236e82	0.03990031
56	0xbe1008fa	-0.14065924
57	0x3df907d6	0.12159698
58	0xbcf41bb7	-0.029798372
59	0x3dda5cf0	0.10662258
60	0xbd833bf5	-0.0640792
61	0xbd6a88e1	-0.057259444
62	0xbd0e3858	-0.034721702
63	0xbdf1c12a	-0.11804421
64	0x3d877ae3	0.06615236
65	0x3d5a92e9	0.05336276
66	0xbd1a0ffd	-0.037612904
67	0x3d9cceef	0.07656657
68	0x3e015244	0.12629038
69	0x3e066b68	0.1312691
70	0xbe0c7887	-0.13717853
71	0x3d1ab79a	0.037772752
72	0x3daee3b9	0.085395284
73	0xbdd8053f	-0.105478756
74	0x3e057741	0.13033773
75	0x3dd70900	0.104997635
76	0x3e04af74	0.12957555
77	0xbdb15eee	-0.086606845
78	0x3d2acb6c	0.041697904
79	0x3e0ae2f2	0.13563135
80	0xbcd117d3	-0.025524056
81	0xbcd6227b	-0.026139488
82	0xbe095efb	-0.13415138
83	0xbd5c1693	-0.053732466
84	0x3cb25abf	0.021771787
85	0x3d7ab4f4	0.061207727
86	0xbcb9330c	-0.022607349
87	0xbb6f2cbe	-0.0036495174
88	0xbe016e63	-0.12639765
89	0xbd9c38d8	-0.076280296
90	0xbd439d5e	-0.0477575
91	0xbe035d3d	-0.12828536
92	0x3e009fca	0.12560955
93	0xbd30730a	-0.04307846
94	0xbd9428d6	-0.07234351
95	0xbdb9376a	-0.090437725
96	0x3de8a7df	0.11360144
97	0xbdb910a5	-0.09036378
98	0xbdfd5bd8	-0.123710334
99	0xbd81531f	-0.06314682
100	0x3d3d9344	0.04628302
101	0x3d0a3b60	0.03374803
102	0xbe053638	-0.13008964
103	0x3c81d03d	0.015846366
104	0x3df4895d	0.119402625
105	0x3de087e2	0.109634176
106	0x3cef331d	0.029199177
107	0xbdbecf62	-0.09316899
108	0x3dc1d400	0.09464264
109	0xbe0ce444	-0.13758951
110	0xbe142bb5	-0.14469798
111	0x3d3f5a4d	0.046716977
112	0x3dbcce5d	0.09219048
113	0xbd9d19fb	-0.07670971
114	0xbd4cf388	-0.050036937
115	0x3cc06cc3	0.023489362
116	0xbdf06af7	-0.11739152
117	0x3d1d3bc7	0.038387086
118	0x3e0f7897	0.14010845
119	0xbdb2a9c3	-0.08723786
120	0xbe00b681	-0.1256962
121	0xbc231bc0	-0.009955347
122	0x3da72e3e	0.08163117
123	0x3d770763	0.06030978
124	0x3dbc8d4f	0.0920664
125	0xbd9047fb	-0.07044979
126	0xbbbe1809	-0.005801205
127	0xbdd12aa2	-0.1021321
128	0xbdd1d7bb	-0.102462254
129	0x3de708ea	0.11280997
130	0x3e01ff85	0.12695129
131	0x3e0ba4f4	0.13637143
132	0x3dbeedbd	0.09322689
133	0x3ddc7091	0.10763658
134	0x3d901a92	0.07036318
135	0x3ddbbfd5	0.107299484
136	0xbd4fc1d0	-0.050721943
137	0xbe091159	-0.13385524
138	0xbdb1a724	-0.08674458
139	0x3a8e37ef	0.001085041
140	0xbd302d12	-0.043011732
141	0xbdd97567	-0.10618096
142	0xbe063d8b	-0.13109414
143	0x3d959497	0.07303732
144	0x3df58bec	0.119895786
145	0xbd1f9e91	-0.03896958
146	0x3ccea212	0.025223766
147	0xbdbdc8c0	-0.09266806
148	0x3dbb32de	0.091405615
149	0xbe0c77a9	-0.13717522
150	0xbd16b816	-0.03679665
151	0xbd1c439d	-0.03815042
152	0xbdfc62d9	-0.12323541
153	0x3d89a10e	0.06720172
154	0xbcc4dbcb	-0.024030587
155	0xbb9ea93f	-0.004841953
156	0x3d93fd71	0.072260745
157	0x3bb5b4f9	0.0055452553
158	0xbdb9a6e7	-0.09065037
159	0xbc75dd03	-0.015006307
160	0x3d8da9bb	0.06917139
161	0xbb5d4c71	-0.0033767486
162	0x3d908a08	0.07057577
163	0x3da604f9	0.08106417
164	0x3d5277d1	0.051383797
165	0x3d8e0107	0.0693379
166	0xbc290663	-0.010316464
167	0x3d2f073b	0.042731505
168	0x3d4b9519	0.049702737
169	0x3dcece58	0.10097951
170	0x3e1a26c5	0.15053852
171	0x3c839b24	0.016065188
172	0x3c4015ea	0.011723975
173	0x3c90efc8	0.017692462
174	0x3e0836f5	0.13302214
175	0xbdb5aef1	-0.08871258
176	0x3df0c91a	0.11757107
177	0x3de328be	0.11091755
178	0x3d5f4540	0.0545094
179	0xbcdad5e4	-0.02671332
180	0xbd12ac28	-0.035808712
181	0x3de13a56	0.10997455
182	0x3e05c9f2	0.13065317
183	0xbdf91528	-0.12162238
184	0x3e2462e4	0.16053349
185	0xbd118947	-0.03553131
186	0x3cff53c0	0.031167865
187	0x3d0d7de1	0.034543876
188	0xbdf98223	-0.12183025
189	0x3ced5ffd	0.028976435
190	0x3d9650c6	0.07339625
191	0x3db03297	0.08603399
192	0xbdb7b859	-0.089707084
193	0x3d6f4348	0.058413774
194	0xbcee2181	-0.02906871
195	0x3d05eced	0.032696653
196	0x3dfca12b	0.12335428
197	0xbdce0c12	-0.10060896
198	0x3da1b238	0.07895321
199	0xbd88386c	-0.066513866
200	0xbd99cb37	-0.07509463
201	0x3b9ff3d9	0.004881364
202	0x3e0891b7	0.13336836
203	0x3dc4639f	0.09589314
204	0xbda6d331	-0.0814575
205	0x3d5ff568	0.054677397
206	0x3dfa5668	0.12223512
207	0xbe03e22c	-0.12879246
208	0x3dd09ae2	0.101857916
209	0xbdc7c939	-0.09755177
210	0x3ddc9fca	0.10772665
211	0x3dc01b6e	0.09380232
212	0x3d970932	0.07374801
213	0xbc579f49	-0.013160535
214	0xbc42d035	-0.011890461
215	0x3e10b446	0.14131269
216	0xbd6703c5	-0.05640008
217	0xbc47a65f	-0.012185662
218	0x3d6c7210	0.057725966
219	0x3bece46e	0.0072293794
220	0x3da1380d	0.07872019
221	0xbd32ea7b	-0.04368065
222	0xbd827d43	-0.06371548
223	0xbd101f7d	-0.03518628
224	0xbe20fb5b	-0.15720885
225	0x3deb237b	0.11481377
226	0x3dcdf7be	0.10057019
227	0xbdfd226a	-0.123600796
228	0x3dc69310	0.09696019
229	0xbe0652ea	-0.13117567
230	0xbd3de7ca	-0.04636363
231	0x3bdf3443	0.00681165
232	0x3df7d744	0.121016055
233	0xbdcfe7c3	-0.10151627
234	0x3dc10bc6	0.09426074
235	0xbe215ebc	-0.15758795
236	0x3dca478e	0.09876929
237	0xbd00f8df	-0.031487342
238	0xbd106453	-0.035251927
239	0xbca58d4d	-0.020208979
240	0xbd7628cd	-0.060097504
241	0xbe2155e0	-0.15755415
242	0x3da4d503	0.08048441
243	0xbd97f8d2	-0.074205056
244	0xbde55cf0	-0.11199367
245	0x3dc9fb05	0.09862331
246	0x3dc1661b	0.09443303
247	0x3df55429	0.11978943
248	0xbc5c1488	-0.013432629
249	0x3c920c4a	0.017828126
250	0xbb3cd0fe	-0.0028811092
251	0x3d02ed13	0.031964373
252	0xbdc1da28	-0.09465438
253	0x3de45980	0.11149883
254	0x3e20d7d0	0.15707326
255	0x3cb0aa3e	0.021565553

module.conv_2.bias f4 [12]
0	0xbd9f3e0f	-0.077755086
1	0x3daf8115	0.08569542
2	0x3c072cd4	0.008250434
3	0x3dd2950c	0.10282335
4	0x3da53b22	0.08067919
5	0xbda35aa3	-0.07976272
6	0x3db8c15b	0.09021255
7	0xbd263e9c	-0.040587053
8	0xbdbbd134	-0.09170762
9	0x3c27f7aa	0.010251919
10	0x3d0686c1	0.032843355
11	0x3c3f286c	0.011667352

module.conv_3.weight f4 [12, 12, 3, 3, 3]
0	0x3ce7fe6a	0.028319556
1	0xbcb1aa2e	-0.021687593
2	0x3cfe045a	0.031007934
3	0xbcb74688	-0.0223725
4	0xbcda8c07	-0.026678098
5	0x3c2e19f4	0.010626305
6	0xbc7ce660	-0.015435785
7	0xbcf85e52	-0.030318413
8	0xbcd78366	-0.026307773
9	0xbcf2db59	-0.029645609
10	0xbd66724e	-0.056261353
11	0x3d45207a	0.048126675
12	0x3bfa635a	0.007641238
13	0x3c3fb9c8	0.011702009
14	0x3be6ecb9	0.0070472625
15	0x3d19e80f	0.037574824
16	0xbd6d55a4	-0.057943
17	0x3c764d46	0.015033072
18	0xbb6e010b	-0.003631654
19	0x3bbe0afb	0.005799649
20	0xb9178f0c	-0.00014453771
21	0x3d57e6b1	0.05271024
22	0xbc2235dd	-0.009900537
23	0x3af1b715	0.0018441404
24	0xbbf1e978	-0.007382568
25	0x3d4c4d97	0.049878683
26	0xbd0ad791	-0.033896986
27	0xbd565a96	-0.052332483
28	0x3d3a16c3	0.045431864
29	0xbbaee6bf	-0.0053375657
30	0x3c71891d	0.014742163
31	0x3b689fac	0.0035495562
32	0xbd0f1fe5	-0.034942526
33	0xbd037703	-0.03209592
34	0x3d5f31d1	0.054490868
35	0xbbd8c8fe	-0.006615757
36	0xbd5f1f1c	-0.054473028
37	0xbd1df9a6	-0.03856816
38	0xbccf3ea6	-0.025298428
39	0xbd07d640	-0.03316331
40	0x3d5fa2ce	0.054598622
41	0xbd4c33d8	-0.04985413
42	0xbc4046fd	-0.011735675
43	0xb83c4369	-4.4885473e-05
44	0x3b92f635	0.0044849166
45	0xbd2f702a	-0.042831577
46	0x3d00e50c	0.031468436
47	0xbbb736ac	-0.005591234
48	0x3c2e6aaf	0.010645553
49	0xbd01af97	-0.031661596
50	0xbd2cb64a	-0.042166032
51	0x3d3934a7	0.04521623
52	0x3bcef132	0.006315374
53	0x3d6aedce	0.057355694
54	0xbca9b7b7	-0.020717485
55	0xbd29d89d	-0.041466344
56	0xbd51c4bd	-0.051213015
57	0x3c6211c0	0.013798177
58	0x3d1d3059	0.038376186
59	0x3d1d1b75	0.038356263
60	0x3caca854	0.021076359
61	0xbd14c9dd	-0.036325324
62	0xbd3e117c	-0.046403393
63	0xbd390bab	-0.045177143
64	0x3d1daf0a	0.03849701
65	0xbcf88c1f	-0.030340252
66	0x3cb2f2ae	0.021844234
67	0x3d112d48	0.035443574
68	0xbcb7e455	-0.022447744
69	0xbbac5fdb	-0.0052604503
70	0x3d0cf1d1	0.0344103
71	0xbd384064	-0.044983283
72	0xbcc1b5cb	-0.023646256
73	0xbcc51263	-0.024056619
74	0x3ce9a144	0.02851928
75	0xbd05d1ea	-0.032670893
76	0xbd428023	-0.047485482
77	0x3d71aa40	0.059000254
78	0xbd05dfa1	-0.032683972
79	0x3d02ea40	0.03196168
80	0xbb43d8e2	-0.002988391
81	0x3d1ce33a	0.038302638
82	0x3c280d48	0.010257073
83	0x3d4cc141	0.04998899
84	0xbcc24b36	-0.023717504
85	0xbd150680	-0.036383152
86	0x3ca023da	0.019548345
87	0x3d51d0f4	0.051224664
88	0x3cb783a6	0.022401642
89	0xbc5e704b	-0.013576577
90	0xbbd59e75	-0.0065191337
91	0xbd50f307	-0.05101302
92	0xbc7055cf	-0.014668896
93	0xbb619f0a	-0.003442707
94	0x3c2de734	0.010614205
95	0x3d32ad34	0.04362221
96	0x3cb0b910	0.02157262
97	0xbd25a006	-0.040435813
98	0xbd281698	-0.041037172
99	0x3d56939f	0.052386876
100	0xbc1eee08	-0.009700306
101	0xbcbd1d77	-0.023085339
102	0xbc2ea96b	-0.01066051
103	0xbacea9dd	-0.0015767176
104	0x3d46c8e2	0.04853142
105	0xbc8593b7	-0.016305787
106	0xbc264d5e	-0.010150282
107	0xbc992816	-0.018695872
108	0x3d6e582e	0.058189563
109	0xba2357c3	-0.0006231034
110	0xbd10ce95	-0.035353262
111	0x3c6b06e9	0.014344909
112	0xbcbd8cea	-0.023138482
113	0x3ca13600	0.01967907
114	0xbd00359f	-0.031301137
115	0x3d007abf	0.03136706
116	0x3d5ec277	0.054384675
117	0x3d66ad70	0.056317747
118	0x3d020d0b	0.03175072
119	0x3d35679c	0.044288263
120	0xbd2a3213	-0.04155166
121	0x3d0e82a1	0.034792546
122	0x3c30212a	0.010750094
123	0x3c103ea0	0.008803993
124	0xbc2cca91	-0.0105463425
125	0xbcf86ad1	-0.030324372
126	0xbd2dc848	-0.04242733
127	0x3c97d065	0.018531987
128	0x3c9bc398	0.019014165
129	0x3cae3d65	0.02126951
130	0x3d6235fa	0.055227257
131	0x3c76f67c	0.015073415
132	0xbd47f06b	-0.048813265
133	0xbd2c448b	-0.042057555
134	0xbc98cb48	-0.01865162
135	0xbcae330f	-0.021264581
136	0x3ca75233	0.020424938
137	0xba33b89c	-0.0006855817
138	0x3c3a22cc	0.011360835
139	0xbba68734	-0.0050820354
140	0x3cb6b05b	0.02230089
141	0xbd0698cd	-0.032860566
142	0xbd00af9b	-0.03141747
143	0xbc4e6a2e	-0.012598557
144	0xbd6d10f3	-0.057877492
145	0x3d13f2ee	0.036120348
146	0xbd0fca6f	-0.035105165
147	0x3ce3c512	0.027803931
148	0x39184e23	0.00014524958
149	0x3cd94e92	0.026526723
150	0xbd03e0a3	-0.032196652
151	0xbc96a796	-0.018390458
152	0x3c3f9b69	0.0116947675
153	0xbb1fde76	-0.0024394072
154	0x3c96702c	0.018364035
155	0x3cd37e75	0.025817135
156	0x3c5bbf80	0.013412356
157	0x3d2aec8e	0.041729502
158	0x3c90ab75	0.017659882
159	0x3bb1e4b7	0.0054288763
160	0x3c5fdd2c	0.013663571
161	0x3c6fb96c	0.01463161
162	0xbcb22cbf	-0.021749852
163	0xbc930e28	-0.017951086
164	0x3d867d89	0.06566913
165	0xbc7e04f9	-0.015504115
166	0x3cea00cf	0.028564839
167	0x3d0fa7db	0.03507219
168	0x3c611538	0.013737969
169	0x3d5e911c	0.054337606
170	0x3c8cfe41	0.017211081
171	0xbb89e9b2	-0.004208767
172	0x3d3f3437	0.046680655
173	0xbce8e649	-0.028430121
174	0x3d83457f	0.0640974
175	0x3d67df7c	0.056609616
176	0x3d110b8d	0.035411406
177	0x3d31bf60	0.0433954
178	0xbc13028b	-0.008972774
179	0x3bbfb60c	0.005850559
180	0xbd06698c	-0.0328155
181	0x3d8ddac0	0.06926489
182	0x3d3d6321	0.046237115
183	0x3a02ef54	0.0004994769
184	0x3cb7f66f	0.022456376
185	0x3ca74636	0.020419221
186	0x3cd6ba95	0.026212016
187	0xbce2fecf	-0.027709393
188	0x3c3e545b	0.011616792
189	0x3b978b31	0.004624747
190	0x3c47b1c9	0.012188383
191	0x3cfeb114	0.031090297
192	0xbb043da6	-0.0020178347
193	0x3d8dfb10	0.06932652
194	0x3c1aae56	0.009440979
195	0x3cda94f8	0.026682362
196	0x3d9a5968	0.07536584
197	0xbcaa2d2e	-0.020773496
198	0x3d52e5f0	0.051488817
199	0xbca60686	-0.020266782
200	0xbc9d7ae7	-0.019223643
201	0xbd73ee91	-0.059553687
202	0xbd2c2a8f	-0.042032775
203	0xbd052b06	-0.032511733
204	0xbd5c9c6c	-0.053860113
205	0x3d8b410c	0.06799516
206	0x3d5209e5	0.051278967
207	0x3cf7f238	0.030266866
208	0xbc001487	-0.007817394
209	0x3d48628c	0.048922107
210	0xbd44a463	-0.048008334
211	0xbc58b053	-0.013225633
212	0xbc297d91	-0.010344879
213	0x3d493176	0.049119435
214	0x3a7a6a9a	0.0009552628
215	0x3c4acf60	0.012378544
216	0x3cffd9b7	0.031231744
217	0x3b4a44b8	0.0030863713
218	0xbccf5fd1	-0.025314244
219	0xbc26fb8a	-0.0101918075
220	0x3c5b7190	0.013393775
221	0x3cbe1a6d	0.02320596
222	0xbce57fda	-0.028015066
223	0xbd6e4e80	-0.058180332
224	0x3bd5c365	0.006523537
225	0x3c4501a6	0.012024319
226	0x3cc342dd	0.023835594
227	0xbc68c505	-0.014207129
228	0x3d3db301	0.04631329
229	0xbbc640dc	-0.0060502123
230	0x3a1a173c	0.0005878096
231	0xbca0af0a	-0.019614715
232	0xbc1aac72	-0.009440528
233	0xbcd77f0f	-0.026305703
234	0x3cea60f6	0.028610688
235	0x3d4c2277	0.049837556
236	0x3c1560c8	0.009117313
237	0x3cbff9e3	0.023434585
238	0xbd08c6f2	-0.033392854
239	0x3b986859	0.004651111
240	0xbd27d633	-0.04097576
241	0xbd332e4b	-0.04374532
242	0xbd5e0dc0	-0.05421233
243	0xbd7b411c	-0.06134139
244	0xbd82465e	-0.06361078
245	0xbc8acc6c	-0.01694318
246	0xbbe4a124	-0.0069772173
247	0x3cfc6969	0.030811982
248	0xbd771555	-0.06032308
249	0x3d685461	0.056721095
250	0x3c9391a3	0.018013781
251	0x3c0d54d8	0.008626185
252	0xbd3db52b	-0.046315353
253	0x3c54f24c	0.012997221
254	0xbd480025	-0.048828263
255	0xbb127934	-0.0022350075

module.conv_3.bias f4 [12]
0	0x3d72f5e3	0.059316527
1	0x3ca1cc14	0.019750632
2	0x3b0bcbf1	0.0021331275
3	0x3d362481	0.044468407
4	0x3d0f6cdf	0.035015937
5	0xbcb261c8	-0.021775141
6	0xbd561834	-0.052269176
7	0xbc5a9507	-0.013341195
8	0xbd0229ff	-0.03177833
9	0xbc1aa1b1	-0.009437964
10	0x3c3bb0fd	0.0114557715
11	0x3d066395	0.032809813

module.conv_4.weight f4 [12, 12, 3, 3, 3]
0	0x3a58a5ba	0.0008264441
1	0x3cd9b0a3	0.026573485
2	0xbd45a10f	-0.0482493
3	0x3c8aa8b1	0.016926141
4	0x3ab9a3a0	0.0014163144
5	0x3d51850f	0.051152285
6	0xbca0b620	-0.019618094
7	0x3cd4d0a9	0.025978403
8	0xbcb416e4	-0.021983571
9	0xbbc08c13	-0.005876073
10	0x3d72e98e	0.059304766
11	0x3c18a00e	0.009315504
12	0x3d18a9ce	0.037271313
13	0xbc4637f2	-0.012098299
14	0xbce43308	-0.027856365
15	0x3c9b9572	0.01899216
16	0xbd1aff5e	-0.037841193
17	0xbb20c8e4	-0.0024533803
18	0x3d5c6d7c	0.05381535
19	0x3b829fac	0.0039863195
20	0x3d501cc9	0.0508087
21	0x3ca2eaba	0.019887317
22	0x3d6aec58	0.0573543
23	0x3d333079	0.0437474
24	0x3d1b5838	0.03792593
25	0x3bfbc719	0.0076836464
26	0xbd00d5bf	-0.031453844
27	0x3aeeb8a8	0.0018212991
28	0x3cf59edc	0.029982977
29	0x3d059897	0.032616224
30	0x3d94f859	0.07273931
31	0x3d81fd88	0.063471854
32	0x3d09d14b	0.033646863
33	0x3d85ee07	0.06539541
34	0xbc91d69f	-0.017802535
35	0xbd0fd5d9	-0.03511605
36	0xbc524d29	-0.012835779
37	0xbcb7d719	-0.022441434
38	0xbd425370	-0.047442853
39	0x3c9c17d1	0.019054325
40	0xbd3c4efb	-0.04597376
41	0x3d6bec55	0.05759843
42	0xbc480a7a	-0.012209529
43	0xbd126fa0	-0.035750985
44	0xbd0cf4bb	-0.03441308
45	0xbccfa87f	-0.0253489
46	0x3ce2a256	0.027665298
47	0xbbf7df02	-0.0075644264
48	0xbcda8cb2	-0.026678417
49	0xbce50500	-0.027956486
50	0x3ce7732b	0.028253159
51	0xbb842452	-0.00403265
52	0xbc87b62d	-0.01656636
53	0x3d56452a	0.052312054
54	0x3d1ae526	0.03781619
55	0xbc2c06bf	-0.010499655
56	0xbc7046a5	-0.0146652805
57	0x3d3e7a2d	0.046503235
58	0x3bf95753	0.007609287
59	0x3bdaa253	0.0066721826
60	0x3ccca060	0.024978817
61	0x3daa5f7b	0.08318993
62	0xbc9e1a95	-0.019299785
63	0xbc9d45ce	-0.019198325
64	0x3c3fc0dc	0.011703696
65	0xbc72ee35	-0.014827301
66	0x3dfb5211	0.12271512
67	0x3d18c5c4	0.03729798
68	0x3db9213b	0.09039541
69	0x3dcad168	0.09903222
70	0x3dcdc9ac	0.100482315
71	0x3db86283	0.090031646
72	0x3c42df46	0.011894053
73	0xbd68e854	-0.05686219
74	0xbda9656f	-0.082713
75	0x3ce3af13	0.027793443
76	0x3d84a740	0.06477213
77	0x3d93420d	0.071903326
78	0x3cc23b44	0.0237099
79	0x3d9f45d5	0.07776991
80	0xbc95c488	-0.01828219
81	0xbc5d7300	-0.013516188
82	0x3d4d5e8c	0.050138995
83	0xbb8e73ff	-0.004347324
84	0xbd5cc8d2	-0.053902455
85	0xbd5f1e46	-0.05447223
86	0x3d3e98cd	0.04653244
87	0xbca8d03b	-0.020607105
88	0xbd282074	-0.041046575
89	0x3c7364f4	0.014855612
90	0xbb5bacc7	-0.0033519731
91	0xbd627d88	-0.055295497
92	0xbbd32c13	-0.006444463
93	0x3cce9794	0.025218762
94	0xbc6ff214	-0.014645118
95	0xbc09a1bf	-0.00840038
96	0x3d3593ce	0.04433041
97	0x3c81dfa3	0.015853709
98	0x3d5069d5	0.05088218
99	0xbb28e57d	-0.0025771551
100	0x3ae61d62	0.0017556364
101	0x3d0154b1	0.03157491
102	0xbc91c03f	-0.017791865
103	0x3d304a92	0.043039866
104	0xbcc65d25	-0.024214337
105	0xbc6bdb3e	-0.014395533
106	0xbcba6df6	-0.022757512
107	0x3c6cbd71	0.014449463
108	0xbc29cd08	-0.010363825
109	0x3ca16375	0.019700745
110	0xbc1289de	-0.008944003
111	0xbd7941e3	-0.06085385
112	0xbc68235f	-0.014168589
113	0xbc6121be	-0.013740955
114	0xbc583677	-0.013196579
115	0xbc9bc38f	-0.019014148
116	0xbd1acf2b	-0.037795227
117	0x3c745171	0.014911995
118	0xbd3508a2	-0.044197686
119	0x3d0ea777	0.034827676
120	0xbbae4c14	-0.005319128
121	0xbd4050f7	-0.046952214
122	0x3b831d8f	0.0040013264
123	0xbd02e111	-0.03195292
124	0xbd17b6bf	-0.037039515
125	0x3c86a6fc	0.016437046
126	0xbd305136	-0.0430462
127	0xbb0aa04e	-0.0021152678
128	0xbb198676	-0.0023426092
129	0x3cacae6c	0.021079265
130	0xbd3be5a5	-0.045873303
131	0x3d54bdbf	0.05193877
132	0xbcdea28c	-0.027177118
133	0xbd096a09	-0.03354839
134	0xbbc481b0	-0.0059969053
135	0x3d1addb3	0.037809085
136	0x3d24d829	0.04024521
137	0xbd03f5da	-0.032216884
138	0x3d668d25	0.05628695
139	0x3d33068c	0.043707415
140	0xbcd0d363	-0.025491422
141	0xbce9ca89	-0.02853896
142	0x3cb5c5b3	0.022188997
143	0xbd321d9e	-0.043485276
144	0x3b394a7e	0.002827316
145	0xbd411ce4	-0.047146693
146	0xbc955d19	-0.018232869
147	0xbc34957e	-0.01102197
148	0x3d5707d9	0.05249772
149	0xbd4b33e2	-0.049610026
150	0x3d9882fe	0.0744686
151	0x3b68f48a	0.0035546147
152	0x3d33e089	0.043915305
153	0xbb880999	-0.0041515348
154	0xbcf1b8bf	-0.02950704
155	0x3d1e2b18	0.038615316
156	0x3c44f7fb	0.012022014
157	0xbcbc20ea	-0.022964913
158	0xbd1ca918	-0.038247198
159	0x3c79a291	0.015236513
160	0x3c9be28a	0.01902892
161	0xbb3ff321	-0.0029289203
162	0xbce745a7	-0.028231455
163	0xb9ae8f1d	-0.00033294494
164	0x3b0e4955	0.002171119
165	0xbc33b547	-0.010968513
166	0xbd0f8614	-0.035039976
167	0x3cb0a0e4	0.021561094
168	0x3c7f64ce	0.015587999
169	0x3d0a5404	0.03377153
170	0xbd4bd6fe	-0.04976558
171	0x3b392f72	0.002825704
172	0x3d448895	0.047981817
173	0xbd3d4b3e	-0.046214335
174	0xbcbea6fd	-0.023272986
175	0x3c6da672	0.014505016
176	0xbcdec5c7	-0.027193917
177	0x3c4f1207	0.012638575
178	0x3bddd51d	0.00676979
179	0x3d14fbe0	0.03637302
180	0x3cb76edd	0.02239173
181	0xbd60c9ce	-0.054879956
182	0xbd0c6c22	-0.03428281
183	0x3c61acb9	0.01377409
184	0xbcf7ad92	-0.030234132
185	0x3b7ec21d	0.0038873025
186	0x3c41a64e	0.011819435
187	0xbbd7adb9	-0.0065819887
188	0xba1fedc7	-0.00061008
189	0x3c8c940e	0.017160442
190	0x3d6608f9	0.0561609
191	0x3c66e049	0.01409156
192	0x3d3f699e	0.046731584
193	0xbd5967b0	-0.0530774
194	0x3c8d8172	0.017273638
195	0x3d3e772a	0.046500362
196	0x3d24f508	0.040272743
197	0x3c2eca02	0.01066828
198	0x3d291b8b	0.041286033
199	0x3d44367a	0.047903515
200	0x3a809647	0.0009810411
201	0x39c93d94	0.00038383587
202	0x3cf78126	0.03021295
203	0xbcba92a4	-0.022775002
204	0x3cab6b1c	0.020925097
205	0xbcbe4b7c	-0.023229353
206	0x3d3ea0b8	0.046539992
207	0xbd329223	-0.043596398
208	0x3b7fbe42	0.0039023315
209	0x3c92d8f2	0.017925713
210	0x360a3530	2.0594562e-06
211	0xbd64ee8f	-0.05589157
212	0x3d125a0e	0.035730414
213	0x3c8b7e99	0.01702814
214	0xbbdc1c7e	-0.0067172637
215	0x3cc22e2d	0.023703659
216	0x3ca4fc3a	0.020139802
217	0x3cad6531	0.021166416
218	0xbcd4e1eb	-0.025986632
219	0x3d1d2a66	0.038370512
220	0xbd4c4658	-0.049871773
221	0x3ac004a0	0.0014649816
222	0x3bc7bdc9	0.006095622
223	0xbc51d0aa	-0.012806097
224	0xbadde386	-0.0016928769
225	0x3bab057a	0.0052191587
226	0xbc053c9a	-0.008132124
227	0x3b847595	0.004042337
228	0xbb1ef707	-0.0024256126
229	0x3c571f8c	0.01313008
230	0xbd3881ac	-0.04504554
231	0x3c52c82b	0.012865107
232	0xbc2b87d4	-0.010469396
233	0xba4d7513	-0.0007837575
234	0xbc3d7468	-0.011563398
235	0xbce03d1b	-0.027372887
236	0x3c6a0405	0.014283185
237	0x3b43e003	0.002988816
238	0x3d038518	0.03210935
239	0x3c0d658d	0.008630169
240	0xbd26ebfc	-0.040752396
241	0x3c12bfc1	0.0089568505
242	0x3c9179b5	0.01775823
243	0x3d81321c	0.06308386
244	0xbd0f81d8	-0.035035938
245	0xbc9ad674	-0.018901087
246	0x3d0b36f6	0.03398796
247	0x3d5b8206	0.053590797
248	0x3d225f31	0.039641563
249	0x3d5bc9e3	0.05365933
250	0xbd15064a	-0.03638295
251	0xbd0433bf	-0.03227591
252	0xbc4d4d0a	-0.012530575
253	0x3d9404c0	0.072274685
254	0x3d172ac3	0.036906015
255	0xbbcf83d2	-0.006332853

module.conv_4.bias f4 [12]
0	0xbd52c435	-0.05145665
1	0xbc739718	-0.0148675665
2	0x3c802497	0.015642447
3	0xbc526511	-0.012841479
4	0xbd087f2c	-0.033324406
5	0x3d6b020d	0.057375003
6	0x3c83787e	0.016048666
7	0xbaad1600	-0.0013205409
8	0x3d4679f4	0.048456147
9	0x3c5e4083	0.0135651855
10	0x3b4ad606	0.0030950322
11	0xbd68a55d	-0.056798328

module.conv_5.weight f4 [12, 12, 3, 3, 3]
0	0x3b94b263	0.004537867
1	0xbd58ed0c	-0.05296044
2	0x3d482ffe	0.048873894
3	0xb9f6995e	-0.00047035044
4	0xbd5b718b	-0.05357508
5	0x3cfd860a	0.030947704
6	0xbc95fd07	-0.01830913
7	0x3b7f3da6	0.0038946657
8	0xbd5c8b0c	-0.053843543
9	0x39d2acb1	0.00040182986
10	0xbc9be344	-0.019029267
11	0xbc7390e6	-0.014866089
12	0xbaf093ce	-0.0018354596
13	0x3c984a3b	0.018590083
14	0xba24b598	-0.0006283163
15	0x3d172790	0.036902964
16	0xb8a551b5	-7.883032e-05
17	0x3c6b0622	0.014344724
18	0x3d24beee	0.040221147
19	0xbd1b511c	-0.03791915
20	0x3d44a425	0.048008103
21	0xbcba4d6b	-0.022741994
22	0xbc912898	-0.017719552
23	0x3c2611fb	0.010136123
24	0x3b823056	0.0039730472
25	0x3b7fd257	0.0039035284
26	0xbcd2f5ec	-0.02575203
27	0x3c7226fd	0.014779803
28	0xbc8f0d2d	-0.017462337
29	0xbcb9dc77	-0.022688134
30	0x3c0f04b0	0.008729145
31	0x3d4c1df7	0.049833264
32	0x3d244d96	0.040113054
33	0xbc9993e5	-0.01874728
34	0x3c4ad48e	0.012379779
35	0x3cae5a95	0.021283427
36	0x3d205bb9	0.039149974
37	0xbce7d1bc	-0.028298251
38	0xbc9dda0d	-0.019269014
39	0x3d0f6a0b	0.03501324
40	0x3d228b7f	0.039683815
41	0x3d4ffc41	0.050777677
42	0x3c0bd229	0.008533993
43	0x3d566ebc	0.0523517
44	0x3cf9aa59	0.030476736
45	0xbb86a4d2	-0.0041090036
46	0x3cdc7a15	0.026913682
47	0x3d0640e7	0.03277674
48	0x3d5df864	0.054191962
49	0x3c05e472	0.008172141
50	0xbd42f7e7	-0.0475997
51	0x3d4bc336	0.049746715
52	0xbd1e2e8a	-0.0386186
53	0xbd40a130	-0.04702872
54	0xbcce0404	-0.0251484
55	0x3d2d1f5f	0.042266246
56	0x3c5ec681	0.013597132
57	0x39abe686	0.00032787415
58	0x3c1147fc	0.00886726
59	0x3cc41bee	0.0239391
60	0x3d5f47e4	0.05451192
61	0x3cbfee41	0.023429038
62	0xbcafd5db	-0.021464279
63	0x3ca3d27b	0.019997826
64	0xbb03dd5e	-0.0020120959
65	0x3d32dcc1	0.04366756
66	0x3bfee3a8	0.0077786036
67	0x3d84b190	0.0647918
68	0x3d253189	0.040330444
69	0x3d810e61	0.06301571
70	0xbcf7a793	-0.030231273
71	0xbd0bd984	-0.034142986
72	0xbce5ef04	-0.028068073
73	0x3d479b97	0.048732366
74	0x3d1d4c2c	0.03840272
75	0xbaeeecc0	-0.0018228516
76	0x3cc5b52f	0.024134247
77	0x3d619486	0.055073284
78	0xbd26bd98	-0.040708154
79	0x3cc4be16	0.024016421
80	0x3c726eb8	0.014796905
81	0xbd37d48b	-0.04488043
82	0xbc0e016e	-0.008667333
83	0x3d2670b7	0.040634837
84	0x3c8460cc	0.016159438
85	0xbc9c9840	-0.019115567
86	0xbc435d98	-0.01192417
87	0xbc4c81cd	-0.012482119
88	0x3d6c6b24	0.057719365
89	0x3d5a4050	0.05328399
90	0xbd2e5a2a	-0.042566456
91	0xbc9f1286	-0.019418012
92	0xbbed52d3	-0.0072425394
93	0x3bc39a59	0.0059693274
94	0x3c1352ae	0.00899188
95	0xbd151208	-0.03639415
96	0xbbf38c99	-0.007432532
97	0x3c3472b6	0.011013677
98	0xbc1e3ccf	-0.009658053
99	0x3bcafadd	0.006194456
100	0xbc3204b0	-0.010865375
101	0x3cf576fb	0.02996396
102	0x3cdd3a68	0.02700539
103	0xbd0d6267	-0.034517672
104	0x3d7209e1	0.059091453
105	0x3af10f59	0.0018391415
106	0x3d34d843	0.044151556
107	0x3bd527ae	0.0065049743
108	0x3d69f46a	0.057117857
109	0xbca655a1	-0.020304503
110	0xbc3950af	-0.01131074
111	0xbd396dd5	-0.04527076
112	0x3cc8d05e	0.02451342
113	0xbd08dffd	-0.033416737
114	0xbc480b1e	-0.012209682
115	0xbc3c3236	-0.011486581
116	0x3c109afa	0.008826012
117	0xbc47b99f	-0.012190252
118	0xbd057f98	-0.032592386
119	0x3ca646fc	0.02029752
120	0x3d73f1c8	0.059556752
121	0x3d769b36	0.060206614
122	0xbcc71e62	-0.02430648
123	0xbd097452	-0.033558197
124	0xbcbef07e	-0.023308035
125	0x3d5605d3	0.05225165
126	0xbd1d023a	-0.0383322
127	0x3cd262d5	0.025681892
128	0x3d032366	0.03201618
129	0xbcdab1a2	-0.02669603
130	0x3b6e5ca8	0.0036371145
131	0x3d72fe32	0.05932445
132	0x3cf8dc79	0.030378567
133	0x3cc87e3d	0.024474258
134	0xbd3facfb	-0.046795826
135	0x3c7368ad	0.0148565
136	0xbc0d6957	-0.008631072
137	0x3d0c2f09	0.034224544
138	0xbcf3941d	-0.029733712
139	0x3c10c415	0.008835812
140	0x3cc16cd0	0.023611456
141	0x38c86b9e	9.5567884e-05
142	0x3d501bcf	0.05080777
143	0x3cfa3557	0.030543013
144	0x3d2a00d8	0.04150471
145	0x3c3b6334	0.011437226
146	0x3d239bb2	0.039943404
147	0xbc3820b1	-0.011238263
148	0x3d54b00f	0.051925715
149	0xbd035f03	-0.032073032
150	0x3d109ca5	0.035305638
151	0x3cdad1a4	0.026711293
152	0x3bc6c7d9	0.006066304
153	0xbd373108	-0.044724494
154	0xbc9c5579	-0.019083725
155	0x3c39cd19	0.011340403
156	0x3cf03f1f	0.029326973
157	0x3b7a28a6	0.00381712
158	0xbd4ac48b	-0.049503844
159	0x3d39a782	0.045325764
160	0x3d68099d	0.056649793
161	0x39afbe4b	0.0003352038
162	0x3c0e96c0	0.008702934
163	0x3b821dcd	0.0039708377
164	0xbcf14b51	-0.029454859
165	0xbd22373a	-0.03960345
166	0x3d409410	0.047016203
167	0x3d2d3d3a	0.04229472
168	0xbbf3f67d	-0.007445155
169	0x3d2a7fc1	0.041625742
170	0x3d390cce	0.045178227
171	0xbc6ee051	-0.014579848
172	0x38fdc55c	0.00012100741
173	0x3d24d6a5	0.040243763
174	0x3d043278	0.032274693
175	0xbd1d57bf	-0.03841376
176	0x3c93806b	0.01800557
177	0xbd71c32b	-0.059024017
178	0xbccd46a8	-0.025058106
179	0x3cb5434b	0.022126814
180	0xbd2f6d4e	-0.04282885
181	0xbcb10bae	-0.021612015
182	0x3c0474c3	0.008084479
183	0x3d26ed73	0.040753793
184	0x3d252c85	0.04032566
185	0xbc3d423d	-0.011551437
186	0x3d2d9a56	0.042383514
187	0x3d31f6c4	0.043448225
188	0xbd7b68d4	-0.06137927
189	0xbd52cb81	-0.051463608
190	0x3d09f7f9	0.03368375
191	0xbd3f4334	-0.04669495
192	0x3be66ab9	0.0070317653
193	0xbce2577b	-0.027629605
194	0x3d357bf9	0.044307683
195	0xbc34af40	-0.011028111
196	0x3c38dd5c	0.011283245
197	0xbc509b14	-0.012732286
198	0x3cd45367	0.025918676
199	0xbcd36fa5	-0.025810072
200	0xbced2657	-0.028948946
201	0xbae1fd3c	-0.0017241607
202	0xbd57364c	-0.052542016
203	0x3c623f48	0.013809033
204	0xbbf01f94	-0.007327983
205	0x3cbb1eea	0.02284189
206	0x3ca3ab41	0.019979121
207	0xbd355fbf	-0.044280764
208	0x3d14466c	0.036199972
209	0x3cd660ce	0.026169207
210	0x3d27b01c	0.040939435
211	0x3bdb2033	0.006687188
212	0x3d370e83	0.044691574
213	0x3c91c06f	0.017791955
214	0x3d29fa94	0.041498736
215	0xbcdd19aa	-0.026989777
216	0xbd1cf969	-0.038323794
217	0xbd3d5e30	-0.046232402
218	0x3d1c523b	0.03816436
219	0x3cf684cf	0.030092625
220	0xbd44d1b3	-0.048051547
221	0x3caae14d	0.020859385
222	0x3b080d8b	0.0020760025
223	0xbd276565	-0.04086818
224	0x3cba78d0	0.022762686
225	0x3d73f271	0.059557382
226	0x3cc28d0e	0.0237489
227	0x3c2b73be	0.010464607
228	0x3d0704a5	0.032963414
229	0x3ad3a13f	0.0016146078
230	0x3d64403c	0.05572532
231	0x3d4863cf	0.04892331
232	0xbcc7c9d6	-0.024388235
233	0xbd048d03	-0.03236104
234	0x3d08711e	0.033311002
235	0x3a4e8eef	0.0007879575
236	0xb9b59067	-0.00034630598
237	0x3cb260d7	0.021774692
238	0xbcd4e6c9	-0.025988953
239	0x3d2cb689	0.042166267
240	0xbca9ba71	-0.020718785
241	0xbcc612b8	-0.024178848
242	0xbd1a173c	-0.037619814
243	0x3c334206	0.010941034
244	0xbc650db7	-0.013980321
245	0x3ce2b7a8	0.027675465
246	0xbba15e28	-0.0049245544
247	0xbd1a44a2	-0.03766311
248	0x3ca86ba2	0.020559136
249	0x3cc8292a	0.024433691
250	0xbd4d2232	-0.05008144
251	0xbd272d80	-0.040814877
252	0x3c30f701	0.010801078
253	0xbc741aa8	-0.0148989335
254	0xbcc5f2e9	-0.02416368
255	0xbbec2a6e	-0.0072072065

module.conv_5.bias f4 [12]
0	0x3d05276c	0.0325083
1	0xbd411cbe	-0.04714655
2	0x3cc8297e	0.024433848
3	0xbc13aa80	-0.009012818
4	0x3c2f866b	0.0107132
5	0x3d87cd5c	0.06630966
6	0xbcb7342d	-0.022363747
7	0x3cd39465	0.025827596
8	0x3c6eba0f	0.014570727
9	0x3d1876d2	0.03722269
10	0x3d5655da	0.05232797
11	0x3d08c64b	0.033392232

module.conv_6.weight f4 [12, 12, 3, 3, 3]
0	0x3d03ba70	0.032160223
1	0xbd1f72cc	-0.03892784
2	0x3d3fb59b	0.04680405
3	0xbc964bc6	-0.018346678
4	0x3d0b99a7	0.03408208
5	0x3c2324f1	0.009957538
6	0xbd29844c	-0.041385934
7	0x3d5b13db	0.053485733
8	0xbb8032d6	-0.00391231
9	0xbd43beee	-0.047789507
10	0x3d21a6f2	0.039465852
11	0x3ca9f054	0.02074448
12	0xbd57495f	-0.052560207
13	0x3c207554	0.009793598
14	0x3d4871aa	0.048936523
15	0x3cc6397c	0.024197333
16	0xbd12b597	-0.03581771
17	0xbce1c2d1	-0.027558716
18	0xbd3c014a	-0.045899667
19	0xbd3339e0	-0.043756366
20	0xbd481e40	-0.048856974
21	0x3d576bfb	0.052593213
22	0xbd304846	-0.043037675
23	0x3b3c7c1c	0.0028760498
24	0x3bd7184b	0.0065641752
25	0x3bd6727d	0.00654441
26	0x3c8c7144	0.017143853
27	0xbd5b6575	-0.053563554
28	0xbae180a5	-0.0017204477
29	0x3d07efd9	0.03318772
30	0xbab5c0b4	-0.0013866634
31	0xbc9ed801	-0.019390108
32	0x3c0c6525	0.008569037
33	0xbcf33f4d	-0.02969327
34	0xba6c879e	-0.0009022894
35	0xbca333f7	-0.01992224
36	0xbc39c4f6	-0.011338463
37	0xbd7161e4	-0.058931246
38	0xbb08842b	-0.0020830731
39	0x3d072d48	0.033002168
40	0x3abab5cb	0.0014244852
41	0xbcdb4b00	-0.026769161
42	0xbd507bfa	-0.050899483
43	0x3d73bfd7	0.059509125
44	0x3ca78616	0.02044968
45	0xbd278d6a	-0.040906347
46	0xbd19d25a	-0.037554123
47	0xbca0d840	-0.019634366
48	0xbcc8e7e9	-0.024524646
49	0x3d21ab42	0.039469965
50	0x3c060b99	0.008181476
51	0x3d604e7a	0.05476234
52	0x3c9578ea	0.018246133
53	0x3d23f2c6	0.04002645
54	0xbd4fbf39	-0.050719474
55	0x3d10116d	0.03517287
56	0xbbbc78a5	-0.0057516866
57	0x3c931c44	0.017957814
58	0x3d2a0151	0.04150516
59	0xb9847beb	-0.00025269328
60	0xbd3e6803	-0.046485912
61	0xbd556b1a	-0.052104093
62	0x3c85f741	0.016353251
63	0x3a22f742	0.0006216654
64	0xbd093a21	-0.0335027
65	0x3d4d7ac0	0.05016589
66	0xbd5119d0	-0.051050007
67	0xb995e8b4	-0.00028592872
68	0xbd18e6b5	-0.037329394
69	0xbd7cf5cd	-0.06175785
70	0xbd2fb78f	-0.042899664
71	0x3cf9e7da	0.030506063
72	0xbcebbd06	-0.028776657
73	0x3cd6aa7c	0.02620434
74	0x3c8a036d	0.016847337
75	0xbc576036	-0.013145497
76	0xbd58b0b7	-0.052902903
77	0x3bacc76f	0.005272798
78	0xbc20af03	-0.009807351
79	0xbd1c859d	-0.03821336
80	0xbd06f01a	-0.032943822
81	0x3c73a7a3	0.014871511
82	0x3c94c2a5	0.01815922
83	0x3cdc8b07	0.026921762
84	0x3d460406	0.04834368
85	0xbcd57298	-0.02605562
86	0x3c66cd24	0.014086995
87	0x3b7ee32c	0.003889273
88	0x3c812570	0.015764922
89	0xbac6fc4b	-0.001518139
90	0xbc924e59	-0.017859625
91	0x3bb4523b	0.0055029667
92	0xba84b96c	-0.0010126061
93	0x3d187d3d	0.03722881
94	0xbcdd36ac	-0.027003609
95	0xbc408c68	-0.011752225
96	0xbc784594	-0.0151533075
97	0xbcd60869	-0.026127057
98	0xbd3de0bf	-0.046356913
99	0xbd17f83c	-0.03710197
100	0x3d031bbe	0.03200888
101	0x3d4154b2	0.047199912
102	0xbd02bc16	-0.031917654
103	0xbcb705ba	-0.022341598
104	0x3cfa9666	0.030589294
105	0x3d08f56c	0.033437178
106	0xbb05ee79	-0.002043633
107	0xbd4d66ec	-0.050146982
108	0x3d72f71b	0.05931769
109	0xbc1f9392	-0.009739773
110	0x3d26d0b9	0.040726397
111	0x3cd4df0b	0.025985261
112	0x3c81a892	0.01582745
113	0x3d6ddb9d	0.058070768
114	0xbc645c1f	-0.013937979
115	0xbc9a249a	-0.018816281
116	0x3c5533dd	0.013012853
117	0x3c0588d6	0.0081503
118	0x3b6b2025	0.0035877314
119	0x3cbf6839	0.023365127
120	0x3aecb102	0.0018058124
121	0x3d296916	0.041359983
122	0xbaf8f759	-0.0018994614
123	0xbcbf82a6	-0.023377728
124	0x3cf27625	0.029597351
125	0x3c9f9953	0.01948229
126	0x3d24663b	0.040136557
127	0xbac233a9	-0.0014816421
128	0x3cbbd0d2	0.022926722
129	0xbbc2db0d	-0.005946523
130	0xbd243009	-0.040084872
131	0xbb3077b1	-0.002692681
132	0x3d620ac1	0.055186037
133	0xbbb8dd62	-0.0056416253
134	0x3bbac106	0.0056992797
135	0xbd0b9853	-0.034080815
136	0xbd1cd526	-0.03828921
137	0xbcdc07e6	-0.026859235
138	0x3d2d5523	0.04231752
139	0xbc10d1e7	-0.008839107
140	0x3ca32c43	0.019918567
141	0x3d05d775	0.03267618
142	0x3d592bd6	0.05302032
143	0x3cc10090	0.023559839
144	0x3c1eb00f	0.00968553
145	0x3cdf5910	0.027264148
146	0x3c744c06	0.0149107035
147	0xbd642178	-0.05569598
148	0xbb0c0281	-0.0021363797
149	0xbd6f108e	-0.058365397
150	0x3d457325	0.048205514
151	0xbd423548	-0.047414094
152	0x3d413707	0.04717162
153	0xbb4b82c3	-0.0031053282
154	0x3c982345	0.018571505
155	0xbd4c9343	-0.049945127
156	0xbd03154d	-0.032002736
157	0xbd6ac538	-0.05731699
158	0xbbfc51d0	-0.0077001825
159	0x3d03ed38	0.03220865
160	0xbd4bc927	-0.04975238
161	0xbd412a52	-0.0471595
162	0x3c88dd7e	0.016707178
163	0x3cbfaf81	0.023399116
164	0xbc76e746	-0.015069788
165	0xbc8b768f	-0.017024307
166	0xba556bb4	-0.0008141354
167	0x3d4d576f	0.05013221
168	0x3d551b76	0.052028142
169	0x3b0b69b0	0.0021272711
170	0x3c0f5d13	0.008750218
171	0xbd045fe6	-0.03231802
172	0x3dae4a34	0.08510247
173	0xbc8129ec	-0.01576706
174	0xbd121710	-0.035666525
175	0x3d284023	0.04107679
176	0x3c1cce31	0.009570644
177	0x3c29ca6f	0.010363205
178	0x3cb4ba6f	0.022061555
179	0x3bf1aa06	0.0073750047
180	0x3ce76b32	0.028249357
181	0x3d96aae0	0.073568106
182	0xbc864889	-0.01639201
183	0xbc1fd04e	-0.009754254
184	0xbc8dfac0	-0.017331481
185	0x3d398f6e	0.0453028
186	0xbbb27d05	-0.0054470324
187	0x3d14092d	0.036141563
188	0x3c8fb51e	0.017542418
189	0xbc011832	-0.007879304
190	0x3d4ed00d	0.05049138
191	0xbd0490b7	-0.032364573
192	0xbc217552	-0.0098546315
193	0x3cb68024	0.0222779
194	0x3d34d1fe	0.044145577
195	0xbd2a729d	-0.04161321
196	0x3beff150	0.007322468
197	0x3c6fa09c	0.014625695
198	0xbc857d1b	-0.016295006
199	0xbcd968b6	-0.026539188
200	0x3d08ffb5	0.033446986
201	0xbd4c0553	-0.049809765
202	0xbccf8539	-0.02533208
203	0xbc0fb897	-0.008772037
204	0xbd5111d0	-0.051042378
205	0x3c29b906	0.010359054
206	0xbd4ef3d6	-0.05052551
207	0x39e14d6b	0.00042973025
208	0x3d406913	0.046975207
209	0xbcb3d7b9	-0.02195345
210	0x3d28c663	0.04120482
211	0xbd50de8e	-0.050993495
212	0xbc797aa9	-0.015226998
213	0xbd4ca24e	-0.049959473
214	0x3c2273be	0.00991529
215	0xbd6400fa	-0.055664994
216	0x3d0c6a5b	0.034281116
217	0xbc9c2f35	-0.019065479
218	0xbcab12b2	-0.020882938
219	0x3d2aa7a8	0.041663796
220	0x3bcf48a3	0.0063257976
221	0xbd42b337	-0.047534194
222	0x3d2518af	0.040306743
223	0x3c3da6eb	0.011575441
224	0x3d138c39	0.0360224
225	0xbc9ab178	-0.018883452
226	0x3d07a36d	0.03311484
227	0xbc1c419e	-0.009537129
228	0x3bff1a38	0.007785108
229	0x3ad15764	0.0015971479
230	0x3d18564c	0.037191674
231	0xbc6bf387	-0.014401323
232	0x3d7575c9	0.05992678
233	0x3caa457d	0.020785088
234	0xbbab1cc8	-0.005221937
235	0xbd199a60	-0.03750074
236	0x3d2a4c6f	0.0415768
237	0x3d1692d7	0.03676113
238	0xbcdad976	-0.026715022
239	0xbbec3301	-0.0072082286
240	0x3d5c0f06	0.053725265
241	0xbcabbf57	-0.020965261
242	0xbca20860	-0.019779384
243	0xbb834f9e	-0.004007294
244	0xb9d28b63	-0.00040158172
245	0x3ce2ecee	0.027700868
246	0x3c0fdb74	0.008780349
247	0xbcb5c0f3	-0.022186732
248	0x3d4fb8e9	0.050713453
249	0x3d3711d1	0.044694725
250	0xbc4fe620	-0.012689143
251	0x3d154e61	0.0364517
252	0x3d57acd1	0.052655045
253	0x3c90208f	0.01759365
254	0x3d20ecac	0.039288208
255	0xbc3f7165	-0.01168475

module.conv_6.bias f4 [12]
0	0x3d20bd8b	0.039243262
1	0xbd4e1646	-0.05031421
2	0x3cb01abe	0.021497127
3	0xbc0cbf38	-0.008590512
4	0xbce50241	-0.027955176
5	0xbc8667a0	-0.016406834
6	0x3cc9fc74	0.024656512
7	0x3bbdfd75	0.0057980367
8	0xbc51f586	-0.012814885
9	0x3d853a64	0.06505278
10	0x3ca17689	0.019709842
11	0xbcbab7cf	-0.022792725
