model3/FSRCNN3D_epoch_100.pth (torch, 265282 bytes, 15 tensors)

module.conv_1.weight f4 [56, 1, 5, 5, 5]
00000000: a31e d4bc ed1a b03d 81a8 883d 5d55 af3d
00000010: 7615 833d aa3e 2ebd 6260 533d 53cf 85bd
00000020: f43e 253d 2f92 a5bd 04cc 963c 077b 753d
00000030: 9a24 cfbd b7f3 82bc 69ea 67bd fbf2 7d3c
00000040: 954f 3cbd a60d 42bd 4353 94bd 2b7e 0cbd
00000050: 0592 a1bd 3b11 d6bc 80f3 83bd c05d 8abd
00000060: 38f9 a63d 66e2 533d e42f 42bc 40fd a8bd
00000070: d771 aebc 9779 a7bd d339 153d ad85 b6bd
00000080: 9481 523d 9a86 b4bd 929b eabd 17c6 833d
00000090: 4bba 9cbd 9bb2 f9bc 7183 6abd 8917 a7bd
000000a0: 6f71 6abc 67fd 593b 46fa 4f3d 604e 9dbd
000000b0: 46df 073c 62e6 cdbd 685d 9fbb d6cb e7bb
000000c0: 99dd 2a3c f4e5 3b3d 822e 713d 5ae3 6c3b
000000d0: f68a 9dbd 3b74 ee3c 2151 253b bfe0 42bd
000000e0: c66d 3d3d a521 cf39 49da c9bc b30a 5bbd
000000f0: 2e63 a23b c431 eebc d9b7 bb3c ae35 b0bd
00000100: f1b5 b7bd a785 c4bd 1f4f 52bd ebc5 643d
00000110: da20 e93c 3d26 c1bd 81de 853c 301f 9a3c
00000120: 0d1c 7ebd 3d8e b3bd 5142 bcbd 140e 58bd
00000130: 99aa 5b3d 215d 0dbd 0491 a73c 91eb ae3c
00000140: 0f12 6ebd caa1 453d 6cd7 c4bd 5995 9ebd
00000150: 5eba 97bd 0247 553d f0ad 98bc ca1c b7bb
00000160: 3a0e 85bd 96ba 04bd 6b38 91bd f667 b83c
00000170: d770 533c 48d5 a1bd e6ba 903c 9915 20bd
00000180: df1f 53bd 84c7 b6bc 8ef0 563d 7f03 9cbd
00000190: bd7c 1e3d dd45 c63d 7fde e03d 28f4 643d
000001a0: 80d5 18bd ff10 2abd 1f15 6c3d 74ee f3bc
000001b0: d0e4 c0bd 0052 f6ba 3ac9 f33c 9c20 e5bc
000001c0: 5c90 303d eb29 153c ebf0 5e3c 5ba3 a0bd
000001d0: 33ff 253d 8ac4 8c3b f06e d7ba c51f ee3c
000001e0: 4e9f 37bd 281a 37bd c8dd 71bd b645 7fbd
000001f0: ebec 21bd 6c89 67bd 23ff 8bbc 1e70 10bd
00000200: a6c3 b7bd 8050 47bc 4a39 33bd e57d bb3d
00000210: c3bc a3bd 23bf c9bc 106c d63c 36ab 11bd
00000220: 5aa5 003c e7a2 843d bc03 293d e8b3 6cbc
00000230: ff30 b5bd d622 e7bc b6ff 0d3d 7ad6 97bd
00000240: a214 763d cf69 86bc 754f 443d d5a5 a03c
00000250: d059 ce3c 5e49 243d 23f4 033d cba6 ac3d
00000260: 746b 823d da6c a4bd 657e 94bd b45e 1d3d
00000270: 6523 02bd 372f 17bd eba3 6b3d dbc5 443d
00000280: f293 db3b df60 413d df58 42bd 7dc7 c43b
00000290: c301 f93c 508f ad3d e2db 82bd 1d0b 113d
000002a0: 730f 723b 33d1 a63d a39e 52bd 1985 95bd
000002b0: 66e3 543d 509d 87bc 4c98 793d 3328 ce3d
000002c0: 6d59 4cbd 33e3 693b 5d20 c13b 9e57 893d
000002d0: a5ed 973d 0258 b83d 2bb8 a7bd 19b4 13bd
000002e0: 0f47 b23d 71af 653d de76 f8bc 23ca 503d
000002f0: 9370 033d 19f4 a63d f34b 413c fb4d 2abc
00000300: 75b7 893d 2a30 383d 8539 b53d 47f7 973d
00000310: 90fc 4b3b c4d5 4e3d f035 033d faad 9a3d
00000320: 7e27 ff3c 85e0 dc3b f250 74bd 355e 793c
00000330: a5ad 5fbc 6031 31bc ab67 aebc 6a88 b8bd
00000340: db15 913d 6aaf 923d b328 0c3d 8dd5 7cbd
00000350: b14d 573b 866a 033d bf75 61bd 83d1 743d
00000360: 4dbc 1c3d 3f81 2b3c 0599 d23d 8097 3cbd
00000370: 1942 873d 501e e8bc 8f62 6b3d 1a16 5ebd
00000380: 69b5 bfbd 47c6 e3bc 139a 823c 3c09 d2bb
00000390: 7016 cc3c bbba 90bd 9ad7 17bd 7d0e 83ba
000003a0: b9ff 84bd 863b af3d 20a4 07b5 ecd9 85bd
000003b0: 7d2e 983c 3904 b23c 5753 ad3c e378 9e3c
000003c0: 9110 e3bb 04a5 1dbd 5d0a 42bd 8934 41bd
000003d0: 01d0 913d 1f6a 8dbd d542 54bc 9000 373c
000003e0: 4668 55bd ee45 26bd 9274 c73b 36c4 5dbd
000003f0: f28a 5ebd 2ea9 ad3c 7aba d73d a89c 0b3d
-0.025893515 0.08598886 0.066727646 0.08561204 0.06400578 -0.04254023 0.05160559 -0.065336846
0.04034324 -0.08084523 0.01840783 0.05993178 -0.10114403 -0.015985353 -0.056620035 0.015499826
-0.045974333 -0.047376297 -0.072424434 -0.03430001 -0.07889179 -0.026131263 -0.06442928 -0.06756163
0.081530035 0.051729582 -0.011852238 -0.082514286 -0.021294517 -0.08177488 0.0364321 -0.089122154
0.051393107 -0.08814736 -0.11455454 0.06434267 -0.0765272 -0.030480674 -0.05725426 -0.08158786
-0.014309271 0.0033262612 0.05077579 -0.076809645 0.008292979 -0.10053708 -0.00486343 -0.0070738597
0.01042881 0.045873597 0.058882244 0.0036146254 -0.0769252 0.029108157 0.0025225359 -0.047577616
0.046247266 0.00039507184 -0.02464022 -0.053477 0.004955671 -0.029076464 0.022914814 -0.086039886
-0.089702494 -0.09595805 -0.051344987 0.05585281 0.028458048 -0.094311215 0.01634145 0.0188137
-0.06203847 -0.08767364 -0.09192336 -0.0527478 0.05362949 -0.034512643 0.020454891 0.021352561
-0.05812269 0.048249997 -0.09611401 -0.077433296 -0.074085936 0.05206967 -0.018637627 -0.0055881487
-0.06496854 -0.032404505 -0.07090839 0.02251051 0.012905321 -0.07902008 0.017667245 -0.039083097
-0.051544067 -0.022311933 0.052475505 -0.07617854 0.03869318 0.09681294 0.10979938 0.055896908
-0.037312984 -0.041520115 0.05763733 -0.02977679 -0.094186425 -0.0018792748 0.029759038 -0.02796965
0.04310642 0.009104232 0.013607244 -0.078436576 0.04052658 0.00429589 -0.001643626 0.029067883
-0.04482966 -0.04470268 -0.059049398 -0.06232234 -0.039532583 -0.05652754 -0.017089432 -0.035263173
-0.08972864 -0.012165189 -0.043755807 0.09154872 -0.07994988 -0.024627274 0.026174575 -0.03556367
0.007851923 0.06476384 0.041263327 -0.01444719 -0.08847236 -0.028214853 0.034667693 -0.07413955
0.06007827 -0.016407875 0.04792734 0.019610325 0.02518931 0.04010903 0.03221525 0.08430251
0.06368151 -0.08028574 -0.0725067 0.038420394 -0.031772036 -0.036910262 0.05752937 0.048040252
0.006700986 0.047211524 -0.047448035 0.006005226 0.030396348 0.084746 -0.063895956 0.03541099
0.0036935478 0.0814537 -0.05142082 -0.07300777 0.051974677 -0.016554505 0.060936257 0.10066261
-0.04988997 0.00356884 0.0058937506 0.06706165 0.07418374 0.09001161 -0.08189424 -0.036060426
0.087049596 0.056075517 -0.030330118 0.050974023 0.03208978 0.08152027 0.011797893 -0.010394569
0.06724445 0.044967808 0.088488616 0.07420211 0.003112588 0.05049683 0.03203386 0.07552715
0.031146761 0.006740632 -0.059647508 0.015220215 -0.01365224 -0.010814995 -0.021289667 -0.09010394
0.07084247 0.07162364 0.0342185 -0.061727095 0.0032852704 0.03208401 -0.055043932 0.05977012
0.038265515 0.010467826 0.102830924 -0.04604292 0.06604404 -0.028334767 0.05746704 -0.054220296
-0.09360773 -0.027804507 0.015942609 -0.006409792 0.024913043 -0.07066866 -0.037070848 -0.0009998825
-0.06494088 0.08556275 -5.053025e-07 -0.06535706 0.018576855 0.02173053 0.021157904 0.019344753
-0.006929465 -0.03848745 -0.047373164 -0.047169242 0.07119752 -0.069050066 -0.012955387 0.011169568
-0.052101396 -0.040594034 0.0060868943 -0.0541422 -0.054331727 0.021198835 0.105336145 0.034084946

module.conv_1.bias f4 [56]
00000000: 0c87 e53c c558 233d d27e a83d dd9e 4cbc
00000010: 24b3 b1bc 3cb3 393d e805 a23c 91c3 12bd
00000020: 3596 913d 41d7 5f3c 5ac7 9d3d 7485 643d
00000030: 78f9 943d 801e a93d ecc8 ab3d 7340 d93c
00000040: d3be 7d3d 2cb8 383d 5bae aabc 318a 76bd
00000050: 3094 73bd 9058 113d ad9e 0cbd 4a33 4dbc
00000060: 3ba0 ab3d 1a07 32bc 3967 2b3d 3c8f 74bd
00000070: 9881 193d dddc 783c 0764 fbbc ccef d43c
00000080: 62ba df3c 5942 523d 72d4 b0bc 0a96 173c
00000090: a74a de3a e02e dc3c 6f68 8e3d ea1f 2abd
000000a0: 3a97 a93c 6a5a 883d 0015 febc 35fc bf3d
000000b0: cafc 44bd 9734 923d 66e9 b33d d801 e93c
000000c0: 5db8 9fbd e94b 5b3d 93ba 2d3c ed59 803d
000000d0: c62e 66bc 147b 983d e1d9 953d 1afc 08bd
0.028018497 0.03987958 0.08227314 -0.012489048 -0.021691866 0.045336947 0.019778207 -0.035831038
0.07108728 0.01366216 0.07704039 0.055791333 0.07274145 0.082577705 0.08387932 0.02651999
0.061949562 0.045097515 -0.020835092 -0.060190383 -0.059467494 0.03548485 -0.034331013 -0.012524435
0.08380171 -0.010865951 0.041846488 -0.05970691 0.037477106 0.015189377 -0.030687345 0.02599325
0.027310554 0.051332805 -0.021585677 0.009252081 0.0016959504 0.02687782 0.06953513 -0.041534342
0.020701993 0.0665787 -0.031015873 0.093742765 -0.04809264 0.07138937 0.087847516 0.028443262
-0.077988364 0.05353919 0.010603565 0.06267152 -0.014049238 0.0744535 0.07316948 -0.033443548

module.conv_2.weight f4 [12, 56, 1, 1, 1]
00000000: c2a6 0b3e 7982 f93c 0ee5 88bd 56fc 193d
00000010: 818e 03be d4af 29bd c947 8b3d 1f9a 813c
00000020: 10a0 6cbd c29a f93d 754c d2bd 3915 253e
00000030: 4f1e 16bd e71d c5bc eed9 453d 81dc 2b3d
00000040: febb 773d d31b f73d f74e b53b 4f7d 1abd
00000050: 8186 dabd fae3 1e3d 71bd b53d 71f1 093d
00000060: 9918 593c 9b48 803d b62a 5c3c 7811 173c
00000070: ed34 8b3d da27 fc3c df08 313e 25b6 9f3d
00000080: 4e17 463d 8fbb 7f3c cedd bd3d 9e2c c93d
00000090: b15f 023e 050d 62bd ad99 b43d 2a16 3d3e
000000a0: 0e4e 413d 9fa8 e1bd 902e 113e a3af 3b3d
000000b0: f593 c63b b009 29bd 6c59 bd3d 425a 9b3d
000000c0: 6ec2 9f3d ea8c eb3d 1d6b 803d 403d 13bd
000000d0: 0c1a da3d a294 c63d 8d6e 4dbd 71b3 273d
000000e0: 1b55 21be 674e f93d 33e9 05bd b237 e13d
000000f0: 664b 86bd fa82 67bd 6eea cfbc cf96 fbbd
00000100: dc84 873d 059b 733d 82ca 1dbd c586 9a3d
00000110: 8a37 013e af20 053e 032f 0dbe 05ed b93c
00000120: c4df ae3d 8128 edbd 6480 053e 88e1 d63d
00000130: d583 033e e517 acbd 6968 2f3d 646e 0a3e
00000140: f705 9abc d55b d0bc 7c52 09be 8b84 59bd
00000150: 721f 903c 1ba2 763d 5d6b 61bc 9097 4abb
00000160: 253f 01be b347 9cbd c89f 46bd ffaf 36be
00000170: 762b 003e 334a 8ebd 7810 a2bd de02 c1bd
00000180: 3711 e73d f8fb b8bd ab35 eebd a4d2 81bd
00000190: 01d4 3a3d a0c8 0a3d 65a0 0bbe fb39 7e3c
000001a0: d542 f73d 2fab e13d 793f 983c dedd bfbd
000001b0: 5e09 ae3d 499b 0cbe 87e9 13be db7d 3b3d
000001c0: 1260 da3d 5ad9 9dbd 7980 54bd 5b41 b43c
000001d0: 7aad f1bd d107 183d 48dc 183e 3c54 9bbd
000001e0: f230 00be 414d b4bb 9a92 a63d f22c af3d
000001f0: 8ebd bd3d a056 92bd 3591 04bc 7371 cfbd
00000200: ba25 dbbd e5f8 d43d 1207 023e 04c8 0b3e
00000210: f82a bd3d f5dd e23d 281a 9f3d fb9d da3d
00000220: 544f 31bd 8007 08be f09b b2bd 3401 c23a
00000230: 805e 3ebd 6c38 dbbd a1c0 e2bd e8e2 973d
00000240: 8aef f33d d3f9 22bd ddc5 c43c 7512 b2bd
00000250: 0a9f b93d 72e9 23be b693 11bd 4f19 f7bc
00000260: fe31 03be ac00 8d3d bbcc 94bc df58 d5bb
00000270: bb32 943d ebdd b83b 7a0e c1bd 7ccb 94bc
00000280: 0e80 913d 464f 4dbb 47b1 af3d c6df a33d
00000290: 8adb 233d 4bfb 8c3d 12ab 36bc 92b8 293d
000002a0: 31e0 703d 9199 cf3d a6bf 133e 59a6 053b
000002b0: d934 593c e209 003b bc32 083e c181 f1bd
000002c0: fcbc f23d d29d e43d ff05 803d 2677 2abd
000002d0: 2ae8 35bd 2f2c d63d 3aad fe3d 1c1c febd
000002e0: f021 133e 76db dabb 48c8 f63c fae0 0b3d
000002f0: 3827 00be 7e19 243d 58a6 0f3d 8dec b23d
00000300: 1ce2 d7bd 6770 893d 230c fbbc 0387 ab3c
00000310: bb2d da3d bcf1 f8bd d3b8 963d 8159 6bbd
00000320: 4b66 aabd 136a a4bb 1f69 053e e781 4a3e
00000330: c7a6 aebd 0a42 d23d 967b 2f3e b9ac d2bd
00000340: 4eb2 ee3d 6cee d5bd 9372 0a3e dfd2 ac3d
00000350: e31c 843d fc0d 99bc 0972 a6bc b7c6 eb3d
00000360: c7b5 88bd 3b45 a7bc 1787 b33d 65a0 aab8
00000370: 59cd ac3d 9c87 2cbd 6075 74bd d332 d0bc
00000380: 03fc 32be 1d92 e63d 26f2 c93d 119d 1cbe
00000390: e8d4 b43d 62d3 04be a5c6 f8bc 57d3 b13c
000003a0: 7264 fa3d 2f5d dabd c107 b43d 9f18 23be
000003b0: 5c58 c63d a36a 16bd bf00 1dbd ab42 72bd
000003c0: c4f1 81bd 5726 2ebe dee0 9c3d 1de2 afbd
000003d0: 1c5d febd a33f c73d 134e ae3d 786c e63d
000003e0: 2511 ddbb 06fe a33c 42b7 073c 7d75 073d
000003f0: 4763 cfbd 312e 083e bba8 423e be87 063d
0.13637832 0.030457722 -0.06684314 0.037594162 -0.1284733 -0.04142745 0.06800801 0.015820561
-0.057769835 0.12187721 -0.10268489 0.16121377 -0.03665 -0.02406211 0.048303537 0.041958336
0.060482018 0.12065854 0.005533095 -0.03771716 -0.10670186 0.038791634 0.08874024 0.033677522
0.013250493 0.062638484 0.013437917 0.0092204735 0.06797204 0.030780721 0.1728854 0.07798413
0.04836207 0.015608682 0.092708215 0.09822963 0.12731816 -0.055188198 0.08818374 0.18465486
0.04719358 -0.1101849 0.14177918 0.045821797 0.0060601183 -0.041269004 0.092455715 0.07585575
0.078007564 0.115014866 0.0627043 -0.035947084 0.10649499 0.09696318 -0.050154258 0.040942613
-0.15755121 0.12173157 -0.0326931 0.10996951 -0.0655735 -0.056521393 -0.02538034 -0.12284624
0.06617138 0.05947401 -0.038523205 0.075452365 0.12618843 0.13000749 -0.13787465 0.022696028
0.08538774 -0.11579991 0.13037258 0.104922354 0.12843259 -0.08402995 0.042824183 0.13518673
-0.018801672 -0.025434414 -0.13410372 -0.05310492 0.01759312 0.06021319 -0.013758508 -0.0030913092
-0.12621744 -0.07630863 -0.048492223 -0.17840575 0.12516579 -0.06947746 -0.079132974 -0.09424375
0.1128258 -0.09032434 -0.1163133 -0.06339005 0.04561234 0.033882737 -0.13635404 0.015516753
0.12073294 0.11018979 0.018584954 -0.0936849 0.084978804 -0.13731112 -0.14444552 0.045774322
0.10662855 -0.07707472 -0.051880334 0.02200382 -0.11800666 0.03711683 0.1492778 -0.07584426
-0.12518671 -0.0055023734 0.08133431 0.085534945 0.0926467 -0.07145429 -0.008091261 -0.101290606
-0.10700555 0.10399035 0.1269801 0.13650519 0.09236711 0.11077491 0.07768661 0.10674664
-0.043288544 -0.13284111 -0.08721149 0.0014801384 -0.04647684 -0.10704121 -0.11071897 0.07416326
0.11910923 -0.039789032 0.02402013 -0.08694927 0.090635374 -0.16007021 -0.03554126 -0.030163435
-0.1281204 0.06884894 -0.01816403 -0.0065108384 0.072362386 0.005641689 -0.09426589 -0.018163435
0.071045026 -0.0031327768 0.08578735 0.08001666 0.04000429 0.06883868 -0.011149185 0.041435786
0.058807556 0.10136712 0.14428577 0.002039334 0.013257229 0.001953714 0.13300604 -0.11792327
0.11852452 0.11162914 0.06251144 -0.041617535 -0.044410862 0.10457646 0.12435384 -0.12407705
0.14368415 -0.006678994 0.030124798 0.0341501 -0.12514961 0.040063374 0.035070747 0.08736525
-0.10541174 0.06710892 -0.030645436 0.020938402 0.10653254 -0.12155482 0.07359471 -0.057458404
-0.08320292 -0.005017528 0.13028382 0.19776116 -0.08527904 0.10266502 0.17136988 -0.102868505
0.11655103 -0.10445866 0.13520269 0.08438658 0.06450822 -0.018683426 -0.020318048 0.11512511
-0.06675296 -0.020418754 0.08766001 -8.1361075e-05 0.084376045 -0.042121515 -0.05968225 -0.02541486
-0.17478947 0.11258338 0.09860639 -0.15294291 0.08829671 -0.12971261 -0.030368159 0.02170722
0.1222619 -0.106623046 0.087905414 -0.15927361 0.09684822 -0.03672279 -0.03833079 -0.05914561
-0.06344941 -0.17006813 0.076600775 -0.085880496 -0.12420103 0.097289346 0.08510985 0.112511575
-0.0067464286 0.020018589 0.008283438 0.03307103 -0.101263575 0.1329887 0.19009678 0.032844298

module.conv_2.bias f4 [12]
00000000: 41b6 99bd b856 af3d d0a7 033c c4af d53d
00000010: 8e3e af3d 3adc 9ebd 3c86 b93d f284 d8bc
00000020: bd65 aabd 23aa 1b3c 097d 923c b6cd 8b3c
-0.07505465 0.08561462 0.008035615 0.10433915 0.08556853 -0.07756849 0.09058806 -0.02643058
-0.08320186 0.009501013 0.017881887 0.017065864

module.conv_3.weight f4 [12, 12, 3, 3, 3]
00000000: d75f df3c fc6a a7bc 7113 053d 2e3c b3bc
00000010: e3d6 d6bc 616e 2a3c 04d2 77bc 7448 03bd
00000020: 494d ecbc ae4c 0abd 27d7 68bd 62e0 493d
00000030: 59db 9d3b 5f20 323c 2d0f f43b bc4d 123d
00000040: 991b 77bd d17f 563c 3c4f e9bb dbdf b53b
00000050: d57c 833a 788f 493d 6803 2ebc 1209 303b
00000060: f836 36bc 9c1f 3f3d 07f6 14bd ba76 57bd
00000070: 0b9c 383d adf7 babb fcfb 643c 0eb3 333b
00000080: e80d 12bd 8cb2 07bd 3d8b 5d3d 9cdd dfbb
00000090: a916 5cbd 5adb 1bbd 8610 cdbc d682 06bd
000000a0: d118 603d cb96 4bbd 81e1 3fbc 4bb5 d439
000000b0: 5344 a83b 738c 2dbd 7e84 033d ca4d b1bb
000000c0: 6572 333c 9ecb ffbc de8b 2bbd 46e9 393d
000000d0: 8460 e33b 5b60 6d3d bb9b acbc 6455 26bd
000000e0: 570a 4cbd d5d5 583c a8b6 1c3d ec61 1b3d
000000f0: f632 a53c 3494 19bd f832 45bd 8495 3bbd
00000100: dedc 1e3d 3f95 f7bc ad72 ae3c 330c 123d
00000110: 9eb5 bcbc 6abc bebb 00d0 0b3d c55a 3dbd
00000120: f65e cdbc 3c18 cdbc 228e dc3c 9eb9 0dbd
00000130: df6a 47bd 0a78 683d 88aa 0ebd 5fa4 fa3c
00000140: 51db acbb 43e6 193d 8431 313c 10c5 4c3d
00000150: f675 c6bc feb1 12bd 099c 9d3c 0341 4d3d
00000160: 906f b83c f036 6dbc da87 d6bb 06ac 4bbd
00000170: 6a31 61bc cdd3 6bbb 9925 3e3c 5cf1 343d
00000180: fc55 ad3c 8652 22bd 33e9 27bd 03eb 543d
00000190: 6bf9 13bc 0a55 bbbc 0638 3cbc bfd5 b6ba
000001a0: cd25 473d beef 8bbc 8423 23bc 140b 9cbc
000001b0: f50d 713d f969 1b39 9c15 12bd 2baa 723c
000001c0: 4947 b8bc bbba a13c 4150 01bd e446 013d
000001d0: c6fa 5b3d 2366 653d 518d 033d 2767 353d
000001e0: f190 28bd 5d67 123d 3ba7 3d3c 8ddc 1f3c
000001f0: ffd9 1bbc 85e7 f8bc 09c2 34bd 7b87 933c
00000200: bb8b 973c 9668 a43c 6f53 633d 31c4 813c
00000210: 1262 49bd 4fab 2abd 1700 9bbc 76d6 a8bc
00000220: 8e80 a83c c438 24ba 6e11 283c 3a22 a0bb
00000230: 6188 c13c 14ee 0ebd 4b07 01bd ed03 44bc
00000240: 5688 6ebd d771 0f3d 8715 16bd 1a9d cf3c
00000250: 740c adba 101e d63c fb92 0dbd 66ae 9abc
00000260: 71d3 453c 1434 33bb 259e 923c 1051 c93c
00000270: 94de 323c 5b56 233d f3e1 843c 6dd2 f23a
00000280: 17c0 353c d44b 503c 30bc c2bc 68d6 90bc
00000290: d034 863d 12b2 90bc a2c8 ec3c fa66 113d
000002a0: b4e4 113c 784b 523d 09c3 6d3c 519c c6bb
000002b0: e46e 403d a2ed f7bc e1ec 813d d544 6f3d
000002c0: 856e 0f3d c0ac 2b3d be65 14bc 9829 673b
000002d0: fd5c 17bd 29cb 883d e0b3 283d a77b 14bb
000002e0: d0a3 b03c 7084 863c 289e c83c 6800 eabc
000002f0: 4f63 f23b 5ea6 303c 2785 973c 7d6d 0d3d
00000300: 5da0 163b 4951 993d 564c 743c 4981 f03c
00000310: 952a a23d a199 a1bc a471 673d 3e06 98bc
00000320: 32e0 a4bc 3486 7bbd 6f4c 35bd 718e 00bd
00000330: 3421 5abd 51c3 8b3d baa9 553d b669 183d
00000340: b552 97bb 8d23 4d3d d91a 3dbd 1351 1cbc
00000350: 8c57 10ba 0cd8 553d e57d c03b 8c90 a63c
00000360: 6ca2 033d a170 a53b 9589 c8bc 3292 2abc
00000370: 6a1d 593c 8b6f b43c c0d7 fabc 46d3 78bd
00000380: aea4 8f3b 383c 3e3c eb0a c73c 2527 6ebc
00000390: cb29 3f3d 27a8 aabb 9dcb 383a 5b6b a7bc
000003a0: 24fe 20bc f1cf d8bc 7929 d93c af24 433d
000003b0: 7dfd d53b 6b0c bc3c 8635 09bd d786 9a3b
000003c0: 139f 24bd dc05 2cbd c57f 54bd 8866 70bd
000003d0: 1ee8 73bd 0de0 62bc 6da8 68bb 882a 0f3d
000003e0: aac8 6cbd b4ad 783d 03af af3c 97d3 113c
000003f0: 3f52 44bd 4be2 4f3c eb40 46bd ba41 97bb
0.02726738 -0.020436756 0.032489244 -0.021879282 -0.026225513 0.010402293 -0.015125755 -0.03205152
-0.028845446 -0.033764534 -0.05684581 0.049286254 0.004817408 0.010871976 0.007448098 0.035718665
-0.060329054 0.013091997 -0.007120041 0.0055503673 0.001003171 0.049209088 -0.010620929 0.0026860875
-0.011121504 0.046661004 -0.036367442 -0.05260346 0.04507069 -0.005705795 0.013976093 0.0027419957
-0.035657793 -0.03312926 0.054087866 -0.006831838 -0.053732548 -0.038050987 -0.025032293 -0.03283962
0.054711167 -0.049704354 -0.011711479 0.00040570865 0.005135098 -0.04237027 0.032108776 -0.0054108845
0.010952567 -0.031225022 -0.041881435 0.045388483 0.006938996 0.05795322 -0.021070352 -0.04060878
-0.04981455 0.013234575 0.038260132 0.037935182 0.020165902 -0.037494853 -0.04814431 -0.045796886
0.038784854 -0.030222533 0.021294916 0.035656165 -0.02303582 -0.0058208006 0.03413391 -0.046229143
-0.025069695 -0.02503597 0.026923243 -0.034600846 -0.048685905 0.056755103 -0.0348306 0.030595956
-0.005275168 0.03757311 0.010815028 0.04999262 -0.02422617 -0.035814278 0.019239442 0.050110828
0.022514135 -0.01447843 -0.0065469565 -0.0497246 -0.013744691 -0.0035984397 0.011605644 0.04417549
0.021159165 -0.03962948 -0.04099388 0.051981937 -0.009031634 -0.022867698 -0.011487966 -0.0013949199
0.048620034 -0.017082091 -0.009957198 -0.019048251 0.0588512 0.0001482143 -0.03566514 0.014811079
-0.022494929 0.01974236 -0.031570677 0.031561747 0.053705953 0.05600561 0.03211719 0.044287827
-0.041153852 0.035743106 0.011575515 0.009757173 -0.009512424 -0.030383835 -0.04413036 0.018008938
0.018499246 0.020069402 0.05549949 0.015840622 -0.049165793 -0.04166728 -0.018920941 -0.020610075
0.020569112 -0.0006264562 0.010258062 -0.0048868926 0.0236246 -0.034895018 -0.031501096 -0.011963827
-0.05823549 0.035020676 -0.036641624 0.025343467 -0.0013202564 0.026137382 -0.034564 -0.018881988
0.012074337 -0.0027344273 0.017897675 0.024574786 0.010917325 0.039877277 0.016221022 0.0018525847
0.011093161 0.012713391 -0.023771375 -0.017680362 0.06553042 -0.017663036 0.028904263 0.035498597
0.008904625 0.051341504 0.014511832 -0.006061115 0.046980754 -0.03026468 0.06344009 0.058415253
0.03501751 0.041912794 -0.00905746 0.0035272595 -0.036953915 0.06679375 0.041187167 -0.002265671
0.021562487 0.016420573 0.024489477 -0.028564647 0.0073970924 0.0107818525 0.01849611 0.034528244
0.0022983768 0.07486207 0.014910778 0.029358523 0.07918278 -0.019726576 0.05650486 -0.018557664
-0.020126436 -0.061407283 -0.044262346 -0.031385843 -0.05325432 0.06824363 0.052163817 0.03721019
-0.0046180137 0.050082732 -0.046168182 -0.009540814 -0.00055062096 0.05220799 0.005874383 0.020332597
0.03213732 0.005048827 -0.024479667 -0.010410832 0.013251642 0.022025844 -0.030620456 -0.06074836
0.004383645 0.011611037 0.024297198 -0.0145357 0.046670716 -0.0052080336 0.0007049384 -0.020436933
-0.009826217 -0.026466342 0.026509034 0.047642406 0.0065304623 0.02295514 -0.03349831 0.004715781
-0.040190767 -0.041997775 -0.051879663 -0.05869153 -0.059547536 -0.013847363 -0.003550078 0.03495267
-0.057808556 0.06071253 0.021445757 0.008900545 -0.04793 0.01268823 -0.048401754 -0.0046159895

module.conv_3.bias f4 [12]
00000000: 8574 783d e3b4 d13c 02ba b73b fd92 313d
00000010: 891c 193d 059e afbc 3418 56bd ab34 5cbc
00000020: 082d 04bd 9876 02bc 4e4a 313c 57bc 1d3d
0.060657997 0.025598949 0.0056068907 0.04335307 0.03738073 -0.021437654 -0.052269176 -0.013440291
-0.032269508 -0.007962845 0.010820938 0.038509693

module.conv_4.weight f4 [12, 12, 3, 3, 3]
00000000: 4ce3 01bc 8ccb a33c e175 6ebd 1aed 713c
00000010: c38f de3a 1798 3d3d bc1c f3bc ddef 9a3c
00000020: cac8 f1bc 55e5 aebb 5061 843d 7b72 293c
00000030: cfed 4e3d dbde 7d3b b0d6 acbc f165 a33c
00000040: 0b51 1fbd cbef 24bc d879 4c3d a1be 6b3b
00000050: d06a 3d3d 4c50 fe3c 53d1 8d3d 581a 3e3d
00000060: 681b 373d e3af 0a3c 261b 21bd 86c0 a23c
00000070: ef88 243d 8404 2f3d 7f94 b03d 6028 8a3d
00000080: b5f6 233d 2b3c 8f3d a865 b3bc 7a0c 15bd
00000090: 8b5f 90bc bc04 11bd ed82 47bd 670a 883c
000000a0: 68e5 71bd 15c4 683d 0068 1ebc 51f8 35bd
000000b0: 5249 16bd c81c d7bc 8df8 a63c 178b d2ba
000000c0: b8ec 7bbc be55 cbbc 2551 2d3d e441 943c
000000d0: 3ca2 53bb eef8 883d ef2d a63d d31f 5a3d
000000e0: e1cc fa3b 0a79 4e3d 7780 eb3c f8fe b5bc
000000f0: 2300 f4bc ffef 2d3d a7d2 d1bd b40f babc
00000100: 89e1 8e3c 0102 bcbc 3ab8 4a3e 292b 1d3e
00000110: 8520 183e a6ec fd3d 7dbf 2e3e 615a c73d
00000120: e84a 9dbd 0175 1abe b962 1dbe 4d53 e13c
00000130: a517 b23d b17d 6d3d 91bb 0d3c 9af9 d03d
00000140: 8634 3abd cb3b 6abc 4a61 4f3d e0a2 63bb
00000150: 34da 62bd a5f7 5cbd 0666 443d a729 b7bc
00000160: 580e 22bd 8374 833c 74c7 a6bb 4bab 6bbd
00000170: 6413 0abc 005f ab3c 4f1c 9ebc 3e5f 32bc
00000180: 18ee 2f3d 9cbe 813c 18e4 543d 7f0d a5ba
00000190: 7a28 2b3b 9fff fb3c 5fea adbc 8add 1e3d
000001a0: 13b1 e0bc 1257 88bc f520 c5bc d6b3 653c
000001b0: 404d 79bb 3f31 c63c 6192 32bb deff 65bd
000001c0: 24de 46bc 1281 09bc b08a dabb 6d5b 71bc
000001d0: d5de 0ebd 8e0b b53c ade9 2fbd a776 213d
000001e0: af85 ecbb 3795 67bd 2992 c03a 6589 ecbc
000001f0: 01e3 29bd 15a3 5a3c 938f dbbc 54ea eb3b
00000200: 066d 873b 3309 013d ca08 2ebd 7e74 683d
00000210: 7987 82bc 6172 e1bc 54bd 3dbb efa9 183d
00000220: 96f5 243d ab86 03bd 1768 603d 5d5f 303d
00000230: d100 d4bc 8129 04bd a3a9 9f3c 38dd 38bd
00000240: 3829 683b d77a 3cbd 3fae 93bc a5eb 00bc
00000250: af0d 613d 0c35 4cbd 2a9e 993d cd32 333b
00000260: 80bf 253d 9a71 c6bb 4a8b f7bc a685 193d
00000270: c92f 4d3c 078a b8bc c5b7 24bd 1697 633c
00000280: c374 8c3c 37fe f6bb a745 e7bc 1d8f aeb9
00000290: 5549 0e3b 47b5 33bc 1486 0fbd e4a0 b03c
000002a0: ce64 7f3c 0454 0a3d fed6 4bbd 722f 393b
000002b0: 9588 443d 3e4b 3dbd fda6 bebc 72a6 6d3c
000002c0: c7c5 debc 0712 4f3c 1dd5 dd3b e0fb 143d
000002d0: dd6e b73c cec9 60bd 226c 0cbd b9ac 613c
000002e0: 92ad f7bc 1dc2 7e3b 4ea6 413c b9ad d7bb
000002f0: c7ed 1fba 0deb 9b3c c825 673d 897f 873c
00000300: 0be0 3b3d a721 63bd a0ff 8e3c 5e80 323d
00000310: 298f 193d ae05 0a3c 0613 333d 8ae5 393d
00000320: 768d cc3a fe55 ff39 5cd6 c53c c428 c7bc
00000330: a07b b03c c5da e0bc 6292 333d c2b5 28bd
00000340: 3830 49b7 d60d 873c 4bd1 bc39 ece4 7fbd
00000350: f1ef 0d3d 0ebb a63c d9d4 0dbc e2d7 bd3c
00000360: e02f a93c ccd5 b43c 7043 cabc 487f 1c3d
00000370: 14b4 4abd 7368 e63a 872d 9f3b 3099 59bc
00000380: 098d 55bb 3d75 a93b 8795 02bc e4d0 b33b
00000390: d627 75bb 139d 4e3c ffbe 34bd 427c 363c
000003a0: c760 35bc 91a0 9cba 1ac5 2dbc 3739 dfbc
000003b0: d68d 773c 4e1e 983a 3fcc f83c 2814 0b3c
000003c0: cc67 30bd 95a4 eb3b 6fed 863c 2073 753d
000003d0: ddf4 21bd 89b9 f4bc cafa eb3c 50dd 413d
000003e0: 520d d73c cfd8 3b3d 03e3 44bd 0626 4cbd
000003f0: 9e8d 07bc b8cc a33d 1f2f 173d 0356 edbb
-0.007927727 0.01999452 -0.058217887 0.014766002 0.00169801 0.046287622 -0.029676788 0.018913204
-0.029514689 -0.005337397 0.064638734 0.010342236 0.05051976 0.0038737569 -0.021098465 0.01994607
-0.038895648 -0.010066937 0.049920887 0.0035971778 0.046244442 0.031044148 0.06924691 0.046411842
0.04470387 0.008464786 -0.03933253 0.019867193 0.040169653 0.042728916 0.086220734 0.06745982
0.0400302 0.06993898 -0.02189906 -0.03638885 -0.017623683 -0.035404906 -0.048708845 0.016606523
-0.05905667 0.056827623 -0.00966835 -0.044426266 -0.036691017 -0.026258841 0.02038219 -0.001606318
-0.015376262 -0.024821158 0.042313714 0.018097825 -0.0032292744 0.066881046 0.0811423 0.053253006
0.007653818 0.0504084 0.02874778 -0.022216305 -0.029785221 0.042465206 -0.10245257 -0.022712566
0.017441528 -0.022950174 0.1979684 0.15348496 0.14856155 0.12398653 0.17065234 0.09734035
-0.07680303 -0.15083696 -0.15369691 0.027505541 0.08695916 0.057981197 0.008650676 0.10203858
-0.045460247 -0.014296482 0.05062989 -0.0034734532 -0.055383876 -0.05394711 0.04794886 -0.022358729
-0.03956446 0.016046768 -0.0050896946 -0.057536405 -0.008427475 0.020919323 -0.019300608 -0.010886965
0.042951673 0.01583796 0.05197534 -0.0012592523 0.0026116655 0.030761538 -0.02122992 0.038785495
-0.027428186 -0.01664308 -0.024063567 0.014019927 -0.003804043 0.024193404 -0.0027247893 -0.056152217
-0.012137923 -0.008392589 -0.006669365 -0.01473127 -0.034880478 0.022100236 -0.04294746 0.039419796
-0.0072180848 -0.056538787 0.0014691997 -0.028874109 -0.041476253 0.013344546 -0.02680186 0.007199565
0.0041328697 0.031502914 -0.04248885 0.05675172 -0.015933739 -0.02752036 -0.002895196 0.037271436
0.04027327 -0.03211085 0.054786768 0.043059696 -0.025879296 -0.032266144 0.019490069 -0.045132846
0.003542496 -0.046015587 -0.018027423 -0.007868682 0.05494469 -0.049855277 0.075008705 0.0027343512
0.04046583 -0.006056023 -0.030217785 0.037480973 0.0125236 -0.022526754 -0.04021432 0.013891002
0.01714552 -0.007537629 -0.028231455 -0.00033294494 0.002171119 -0.010968513 -0.035039976 0.021561094
0.015587999 0.03377153 -0.04976558 0.002825704 0.047981817 -0.046214335 -0.023272986 0.014505016
-0.027193917 0.012638575 0.00676979 0.03637302 0.02239173 -0.054879956 -0.03428281 0.01377409
-0.030234132 0.0038873025 0.011819435 -0.0065819887 -0.00061008 0.01903298 0.056432515 0.016540306
0.04586796 -0.055452015 0.017455876 0.04357945 0.037490044 0.008424206 0.043719314 0.04538492
0.0015606123 0.0004870146 0.024150066 -0.02431143 0.021543324 -0.027448067 0.043840773 -0.041188963
-1.199176e-05 0.01648609 0.0003601409 -0.062474176 0.034652654 0.020352867 -0.008656704 0.02317423
0.020652711 0.022074603 -0.02469036 0.038207322 -0.049488142 0.0017578736 0.004857722 -0.013281152
-0.0032585284 0.0051714466 -0.00797022 0.005487548 -0.0037407777 0.012610692 -0.04412746 0.011138024
-0.011070437 -0.0011949708 -0.010606075 -0.027248962 0.0151095 0.0011605711 0.03037083 0.008488692
-0.04306774 0.0071912506 0.016470639 0.059924245 -0.03954016 -0.029873626 0.028806109 0.0473302
0.026251469 0.04586106 -0.048068058 -0.04984095 -0.00827351 0.079980314 0.036910173 -0.0072429194

module.conv_4.bias f4 [12]
00000000: 5e61 52bd 50f8 62bc a6c4 813c 1c9b 893c
00000010: deeb 0cbd a63c 823d 791f 8f3c 08af 703a
00000020: 3857 443d a85e bf3c 1899 993b 4e45 7dbd
-0.051362388 -0.013853148 0.01584084 0.016797595 -0.034404628 0.06359224 0.017471062 0.0009181355
0.04793474 0.023360565 0.0046874397 -0.061833672

module.conv_5.weight f4 [12, 12, 3, 3, 3]
00000000: eb19 583a 50f0 6cbd 2701 423d d437 0abb
00000010: 5ece 70bd 662b f03c 045c 86bc c3f8 353b
00000020: fff2 59bd 4562 6dba bf23 a3bc 9e9e 48bc
00000030: d1bd 59bb 652e 713c b648 16ba 9afe 073d
00000040: 32e0 edbb aff0 173c aaf5 1c3d ac3f 1cbd
00000050: b744 4b3d 56d0 bebc 8b44 99bc a91c 3d3c
00000060: 6bcc 80bb dae9 d2bb aeed 0cbd 8bc3 533c
00000070: d7e8 9fbc 2718 cbbc 32ef 053c 449b 483d
00000080: 1325 1f3d 45fe 9ebc 9dd2 393c f874 a33c
00000090: 93cb 1d3d b06d f3bc 19c2 afbc d87c 103d
000000a0: 2c7c 1e3d a104 463d d4c8 ff3b b201 4f3d
000000b0: 9117 e23c d483 b1bb 66a5 ca3c e872 f43c
000000c0: 6af2 5b3d b4fa d03b ce47 50bd 22bc 493d
000000d0: d819 24bd f052 4bbd ef22 cfbc 1833 2b3d
000000e0: 9484 4a3c 96b8 eb39 03e7 113c 8587 bc3c
000000f0: 4012 5d3d c040 bc3c 860d b9bc 66ef a43c
00000100: 03d9 03bb 106e 2e3d 70a4 063c 5a16 863d
00000110: d3cb 213d 3d4d 803d d2f7 f5bc 4bd5 0fbd
00000120: 02b9 edbc 0d3b 443d b5da 163d 424e 23bb
00000130: 3c47 c43c cb06 5c3d a174 29bd 14d3 c53c
00000140: 48a9 653c 01c1 58bd 6fe6 6abc f808 1a3d
00000150: 1d1a 053d 2a88 753b 4d5f 093c 3777 81bb
00000160: 35e9 863d 7947 753d b355 1abd 3241 5dbc
00000170: 9363 ebbb d8f1 d93c 6f94 fa3c b5d5 edbc
00000180: b4ab 2e39 65e3 613c aada 86bc 5fcc 093c
00000190: e38b f6bb e3fb b23c 64ad 2e3d 51d1 81bc
000001a0: bd00 7e3d f58f cb3c 072a 8d3d 7724 bf3c
000001b0: e939 663d 4868 adbc de2a 52bc e183 3abd
000001c0: 9e02 c93c 651e 0cbd 8d92 53bc 411b 49bc
000001d0: 5708 ed3b a453 51bc c3b2 07bd 4d17 9b3c
000001e0: c4fc 713d 482f 763d 1c5c d0bc b9f7 0cbd
000001f0: ccd2 c3bc 573c 503d 9e12 22bd 5a35 c83c
00000200: 5c81 f73c 36fc e4bc b56f 333b 067c 6c3d
00000210: c35d f13c 7f69 c43c 32a9 43bd f8f1 8c3c
00000220: cdf1 80bb feb1 233d 79c6 ecbc 927e 353c
00000230: f86c de3c 85b8 073b 03ab 5c3d 6815 0e3d
00000240: b490 2e3d 3ab6 793c 16c8 393d 99f6 2ebc
00000250: ae39 5e3d 7e21 e2bc c85d 173d 0d43 f13c
00000260: 5602 2c3c e09c 33bd b2c5 81bc 479c 833c
00000270: d534 f83c 2f72 d03b 5c18 39bd 4d39 383d
00000280: e79a 693d eeda 063b 28e3 123c 557b a23b
00000290: 8d39 e4bc e19a 1ebd e07d 443d bc86 333d
000002a0: b352 dbbb 7036 2c3d 64f7 3b3d 7646 68bc
000002b0: c4b8 953a de36 2d3d bfb1 043d e8b1 1cbd
000002c0: ad2f a03c e108 6fbd 07d2 cabc 00e0 bf3c
000002d0: 31a4 2bbd 78aa a4bc 1cc5 2a3c b688 273d
000002e0: c53b 263d 0d16 23bc 211e 2c3d d487 2e3d
000002f0: e4fc 7abd 9f83 48bd af66 193d 61b1 2fbd
00000300: 51bd 203c b4cb cbbc ba62 403d bd96 02bc
00000310: c4ec 663c cdad 1dbc f836 e83c bd8e afbc
00000320: ce83 c6bc 0698 fb39 e300 4abd e494 923c
00000330: 44dc 90bb 6f72 d73c ddab c93c bb13 2cbd
00000340: 03c1 243d 22a2 f93c a77b 303d 34f2 243c
00000350: c043 493d bbe9 a13c 08e5 333d d91f bfbc
00000360: 6d63 1ebd 6063 3fbd 16b7 183d 1a5d f63c
00000370: c80e 45bd abe6 a63c 1578 073b 337f 27bd
00000380: cb23 b83c f136 733d a8b2 bf3c a62d 1f3c
00000390: f532 083d eaf0 f93a a720 633d 4f3d 493d
000003a0: 9303 c5bc 80c9 04bd 226f 053d 0998 33b8
000003b0: d058 afba 6677 af3c 00a3 d7bc 918a 293d
000003c0: 40bf acbc c9d1 c7bc e658 1cbd a394 403c
000003d0: 3c21 59bc 2237 ea3c fcda 86bb 957c 17bd
000003e0: de31 ac3c c6b6 d43c afd7 45bd ec2d 22bd
000003f0: b3c2 3f3c c2cb 5dbc 4bc4 b4bc defb d2bb
0.0008243608 -0.057846367 0.04736438 -0.0021090405 -0.058790557 0.029317569 -0.016401298 0.0027766682
-0.053210255 -0.0009055476 -0.019914506 -0.012244849 -0.0033224712 0.014720534 -0.00057328807 0.03320179
-0.007259392 0.009273692 0.03832022 -0.03814666 0.04962608 -0.023292702 -0.018709442 0.011542478
-0.0039306185 -0.0064365687 -0.034406357 0.012925039 -0.019520206 -0.02479179 0.008174704 0.048976198
0.038853716 -0.019408355 0.011341718 0.019953236 0.03852422 -0.029715389 -0.021454858 0.03527531
0.03869264 0.04834426 0.007805923 0.050538726 0.027599128 -0.0054173265 0.024737071 0.029839948
0.05369798 0.0063775424 -0.05084973 0.049251683 -0.04006371 -0.049639642 -0.025285212 0.041796774
0.012360711 0.0004496022 0.008905175 0.02301384 0.053972483 0.022980094 -0.022589456 0.020133685
-0.0020118363 0.042585433 0.008217916 0.06547232 0.039501023 0.06264732 -0.030025396 -0.03511552
-0.029018883 0.047907878 0.03682967 -0.0024918471 0.023959748 0.053717416 -0.04137099 0.024148501
0.014017411 -0.052918438 -0.014337166 0.03760621 0.032495607 0.0037465193 0.008384538 -0.003950979
0.065874495 0.059882615 -0.037679385 -0.013504313 -0.007183501 0.026604578 0.030588357 -0.029032568
0.00016657898 0.013787125 -0.016461689 0.008410542 -0.007524 0.021848625 0.042645827 -0.01584688
0.062012423 0.024848917 0.06892782 0.023332817 0.05620757 -0.02116789 -0.012827603 -0.045535926
0.02453738 -0.034208674 -0.012913358 -0.012274564 0.00723366 -0.012776289 -0.033129465 0.01893201
0.059078947 0.060103685 -0.025434546 -0.034415934 -0.023904227 0.050838795 -0.039568536 0.024439503
0.03021305 -0.027952295 0.0027379815 0.057735465 0.029463654 0.023976086 -0.04776878 0.017205223
-0.003935075 0.03996467 -0.028903233 0.01107754 0.02715157 0.0020709347 0.053874027 0.034688383
0.04261847 0.0152412 0.045356832 -0.010678911 0.054254226 -0.027603861 0.03695467 0.029450918
0.010498604 -0.04385078 -0.015841339 0.01606573 0.03029863 0.006361268 -0.045189247 0.04497652
0.057032492 0.002057727 0.008965291 0.00495855 -0.027859474 -0.038721923 0.047971606 0.043829665
-0.006693208 0.042044103 0.045890227 -0.014176955 0.0011422862 0.042288654 0.032396074 -0.038255602
0.019553984 -0.058358077 -0.024758352 0.023422241 -0.041904632 -0.020100817 0.010422971 0.040901862
0.040584344 -0.009953988 0.04202092 0.042610005 -0.06127633 -0.04895365 0.037451442 -0.04289377
0.009810762 -0.024877407 0.046969153 -0.007970509 0.014094535 -0.009623957 0.028346524 -0.021430368
-0.024232771 0.00047987717 -0.049317252 0.017893262 -0.004420789 0.026299683 0.024618084 -0.042011004
0.040223133 0.030472819 0.043086674 0.010067511 0.049136877 0.019764772 0.043919593 -0.023330616
-0.03866904 -0.04672563 0.03728398 0.030073691 -0.0481098 0.020373663 0.002067094 -0.04089279
0.022478005 0.059378568 0.02340062 0.009715473 0.03325172 0.001906899 0.05545106 0.049130734
-0.024049556 -0.032418728 0.032576688 -4.281852e-05 -0.0013377909 0.021419238 -0.026322842 0.041391913
-0.021087289 -0.024392026 -0.038170718 0.011754188 -0.013252553 0.028590742 -0.0041154604 -0.036984045
0.021019872 0.02596606 -0.048301395 -0.039594576 0.011704135 -0.013537349 -0.022066256 -0.0064387163

module.conv_5.bias f4 [12]
00000000: 1833 0e3d 2a37 07bd 01d7 d33c adc9 32bc
00000010: e5d5 1c3c 8b12 903d 80ca 9cbc a6b8 e23c
00000020: 8c2d 803c ade0 143d a0f5 5a3d e8e7 353d
0.034716696 -0.033011593 0.025859358 -0.010912341 0.009572481 0.07034787 -0.019139528 0.027675938
0.015646718 0.03634708 0.053456903 0.044410616

module.conv_6.weight f4 [12, 12, 3, 3, 3]
00000000: 4ddc fa3c 2657 24bd 4e42 3b3d 14eb 9cbc
00000010: 1552 093d 87a4 163c 0dff 2cbd 6ad0 573d
00000020: 9e49 9fbb e362 48bd 886a 1f3d 79a7 a63c
00000030: da98 5bbd 685e 163c d3b8 453d d30b bc3c
00000040: e801 17bd bf6e e9bc c907 3fbd 6557 34bd
00000050: 800f 48bd 8bf3 503d b784 35bd 6f09 f83a
00000060: e71b a13b f335 a33b 461e 833c d716 4ebd
00000070: 1617 733a 405d 153d 27cb 4aba 18d6 98bc
00000080: a2ba 273c a719 f8bc 7058 a9ba 95e6 a8bc
00000090: f2cf 31bc cfce 71bd c0d2 01ba 37f5 033d
000000a0: bbfe 5c3a bab1 d3bc 0538 4fbd 85cb 763d
000000b0: fae3 aa3c fc63 1cbd 4719 10bd de0d 83bc
000000c0: ec9b babc 0806 283d 91c6 253c fcca 643d
000000d0: 1988 9c3c 9a63 223d 68bd 45bd db53 153d
000000e0: f4a8 77bb 0080 b53c 8deb 263d 3f89 8eba
000000f0: c182 1fbd 2c43 4abd 5e1c 9f3c 2625 ba3a
00000100: 8ab9 07bd a1e5 523d 2051 63bd 7d3b 07bc
00000110: 0d17 35bd ccd8 71bd 8bc7 36bd 3ff2 fb3c
00000120: 363f d6bc a6bd f13c 80a6 b03c 435f 52bc
00000130: 0d9e 5fbd 4abc b73b b2d1 2bbb 732f 0abd
00000140: 91e6 d5bc 3814 613c de9e 8d3c a1fd d13c
00000150: 7fd9 423d 8535 d6bc 7879 533c 34d4 f83a
00000160: 4803 6f3c 40f4 64bb 277c 99bc 11ec 9c3b
00000170: e850 f7ba 4e77 153d 7feb e1bc 7836 5dbc
00000180: c38d 8bbc 198a e3bc 6fa7 48bd 696f 1ebd
00000190: 147f fd3c 456c 3f3d 9c67 0dbd 9368 cbbc
000001a0: 16a2 e33c b2fa f63c 7322 adbb 329f 5bbd
000001b0: a8fd 683d fc46 42bc 80f9 1b3d 1f95 c43c
000001c0: 0b66 6d3c f6a5 663d 1f77 81bc 7fec a4bc
000001d0: 83a1 453c 1ad1 d23b 3487 063b c4f6 ac3c
000001e0: 519a 0f3a 1017 263d cf3f 61bb 17f4 cfbc
000001f0: f95c e53c 54e7 943c 7945 1e3d 9e90 59bb
00000200: 9968 ab3c 6927 01bc 238c 2dbd e24f a8bb
00000210: 71b6 583d 5645 08bc d703 703b f337 05bd
00000220: 86fd 14bd d783 c8bc 144a 323d ab2c f4bb
00000230: 1ea2 b03c f220 073d d6e6 5a3d 3f32 c53c
00000240: 7e3a 383c a106 ee3c 35cc 8f3c 4757 5fbd
00000250: 0a32 8eba 0c1d 68bd cd3d 493d 22f7 3ebd
00000260: 9b10 463d 498d d0ba ac45 a63c 2941 40bd
00000270: e648 fcbc 1ffa 66bd 3088 bcbb 60da 083d
00000280: af79 48bd c268 3bbd 4d8f fb3c 94c1 cc3c
00000290: 56a3 31ba 4368 06bc 08e5 ce3b 8fca 923d
000002a0: 88a3 093d 1589 35bc 695e 463c 0b08 51bd
000002b0: fd96 913d 9bc2 93bc 3574 33bd 123b 253d
000002c0: c37f a63c 4aac 6fbc 8673 f53a 76f6 acba
000002d0: de97 6b3c 74b1 613d e56e c6bc 55fb c7bb
000002e0: 0855 a0bc df82 513d e1f1 88bc eaaf 573c
000002f0: a394 443b 35d0 d0bb e3f0 553d e3e0 f8bc
00000300: e7a2 04bc 9ebd c23c c106 3b3d 7782 23bd
00000310: b9ac 063c b84a 7c3c 2ef7 7dbc f869 cebc
00000320: 0c9c 113d 278c 49bd 31db c9bc a7cd efbb
00000330: 2df5 4cbd eed2 303c 1b2c 4bbd 0db6 553a
00000340: 9cd2 443d d66d a2bc 8b78 2b3d 42af 4cbd
00000350: db6a 57bc 1dbf 46bd 7cd7 343c 7de6 5cbd
00000360: ce1d 083d a403 a5bc 592b b1bc 9f1b 253d
00000370: 53bc a13b e697 47bd 3b8c 1f3d d36b 283c
00000380: bb88 0f3d 5dfa a0bc d81c 053d c5e8 1ebc
00000390: 9049 ea3b 3f6f ad3a fb0e 183d b72e 79bc
000003a0: 29e2 733d 87fc a83c 1a6e b6bb dba0 1abd
000003b0: 0002 2b3d da78 143d 202e dcbc 3c55 ecbb
000003c0: a616 583d f6a9 b0bc 3347 a5bc a859 d9bb
000003d0: b21c 55bb b648 ce3c b7f6 cf3b 63d4 c7bc
000003e0: 8f5d 483d 12aa 293d 9307 7cbc 33c6 0e3d
000003f0: 13aa 503d e903 793c e72b 173d 8bcc 63bc
0.030622626 -0.040122174 0.04571753 -0.019155063 0.033525545 0.0091945 -0.042235423 0.052688994
-0.004861071 -0.04892243 0.038919955 0.020343529 -0.053612567 0.009177782 0.048271965 0.022954857
-0.036867052 -0.02849519 -0.046638284 -0.04402866 -0.048842907 0.05101351 -0.04431602 0.001892371
0.0049166563 0.0049807965 0.016005646 -0.05031475 0.00092731544 0.036465883 -0.00077359605 -0.018656775
0.010237368 -0.03028567 -0.0012920033 -0.020617763 -0.010852801 -0.05903512 -0.00049523637 0.032216277
0.0008430292 -0.025841583 -0.050590534 0.060252685 0.02086066 -0.03818129 -0.035180356 -0.015997823
-0.022779427 0.041021377 0.010118143 0.055857643 0.019107865 0.03964577 -0.048276335 0.036456924
-0.0037789913 0.022155762 0.040751982 -0.0010874643 -0.038943056 -0.049380466 0.019422706 0.0014201745
-0.03313593 0.051488522 -0.05549729 -0.008253929 -0.044211436 -0.059044644 -0.044623893 0.03075516
-0.026153188 0.029509377 0.021563768 -0.012840095 -0.05459409 0.0056071626 -0.0026217517 -0.033736657
-0.02611092 0.013737731 0.017287668 0.025633635 0.0475707 -0.026148567 0.012907378 0.001898414
0.014588185 -0.0034935623 -0.018735958 0.0047888835 -0.0018868716 0.03649073 -0.027578114 -0.013501756
-0.01703537 -0.027775811 -0.048987802 -0.038680468 0.030944385 0.046734113 -0.034522638 -0.024830138
0.02778725 0.030148838 -0.0052836477 -0.053618617 0.05688253 -0.011857744 0.03807974 0.023996888
0.014489661 0.056310616 -0.015803872 -0.020132301 0.012062433 0.0064336183 0.0020527365 0.02111376
0.0005478012 0.040549338 -0.0034370308 -0.025384946 0.027998434 0.018176712 0.038640473 -0.003319777
0.0209239 -0.007882931 -0.042369973 -0.005136476 0.052908365 -0.008317312 0.0036623382 -0.03252406
-0.03637459 -0.024476929 0.043527678 -0.007451614 0.021561678 0.032990403 0.0534428 0.02407181
0.011244414 0.029055895 0.017553428 -0.054526594 -0.0010848653 -0.056668326 0.049131203 -0.046622403
0.04835568 -0.0015911247 0.020296894 -0.04693714 -0.03079648 -0.056390878 -0.0057535395 0.033411384
-0.04894417 -0.0457542 0.03070798 0.024994649 -0.0006776353 -0.008203569 0.0063139237 0.07167541
0.03360322 -0.011080046 0.01210747 -0.05103306 0.07108877 -0.018037131 -0.043811996 0.040339537
0.020324593 -0.014628479 0.0018726445 -0.001319601 0.01437947 0.055100873 -0.0242228 -0.006102959
-0.019571796 0.0511502 -0.0167169 0.0131645 0.002999582 -0.0063724765 0.05223168 -0.030380672
-0.00809548 0.023772057 0.045660738 -0.039919343 0.008219891 0.015398674 -0.015500827 -0.025197014
0.03554921 -0.049205925 -0.024640651 -0.007318217 -0.050038505 0.010792477 -0.04960261 0.0008152433
0.048052415 -0.019827764 0.041863006 -0.049971826 -0.013148035 -0.048522104 0.011037704 -0.05393075
0.03323155 -0.020143338 -0.021627115 0.040309545 0.00493578 -0.048728846 0.038952094 0.010279614
0.035042506 -0.019650633 0.03249821 -0.009699051 0.0071498826 0.0013232006 0.03712366 -0.015208892
0.059541855 0.020628227 -0.0055673243 -0.03775106 0.041749954 0.036248066 -0.026877463 -0.007212309
0.052755974 -0.021565419 -0.020175552 -0.0066330023 -0.0032518324 0.025181156 0.0063465494 -0.024393266
0.04891735 0.041421957 -0.015382665 0.034856986 0.050943445 0.015198686 0.036907103 -0.013903747

module.conv_6.bias f4 [12]
00000000: f047 1e3d 5f18 52bd a5eb ad3c 92ab 153a
00000010: c2a0 0dbd b49d dc3c d19f d03c b337 d53c
00000020: 86f5 51bc 49c2 8b3d 704c a03c 7c4e acbc
0.038642824 -0.051292773 0.021230528 0.0005709465 -0.03457714 0.026930667 0.025466831 0.026027536
-0.012814885 0.06824166 0.019567698 -0.021033518

module.conv_7.weight f4 [56, 12, 1, 1, 1]
00000000: 7df1 5c3e 6221 2abe 194b 8ebe 7822 89be
00000010: 4ac7 35be f9bc a03d e01d 6bbe 414a c7be
00000020: 164b a83d 20aa e03d f5bb 523e 8739 09be
00000030: 39c3 4c3e d916 c83c 4e1e 16bc e988 0d3e
00000040: 5634 f5bc d8cf 023c d374 3ebe b883 ba3e
00000050: ecac 23be ab28 efbd f983 4ebe f30f 6b3e
00000060: 0073 84be 955a 013d 87c0 78be c3fc 0e3e
00000070: 9366 8e3e 6eca 96bd 90b8 303e 291d 6bbe
00000080: 2f2d 633e 2497 ecbc eef5 5b3e 7972 a23e
00000090: 860d 573e 350d 51be 31c3 a83e 3f60 de3d
000000a0: e93b 963d 6296 80bd a795 cebd b3c0 753e
000000b0: 6417 8abe 9aff 0d3e 090f b9bd 45fd 813d
000000c0: e10a 713e 8569 8ebe 9677 38be 4c9c b2bc
000000d0: 20a6 8e3e 7179 99be f2ee c3bd 3905 173e
000000e0: c229 1bbd 710d b0be 0e20 7f3e 746b b43d
000000f0: e1f8 bfbd 0fbb 6bbe 21ad 73be 3346 353e
00000100: f9c8 ea3d bd13 103e 344e ca3d 2dd7 073e
00000110: 196e 863d 7c50 98bd b334 1ebe 17ab c33c
00000120: 92b5 b3bd 4d8b e2bd 8bd3 98be 7695 613e
00000130: c63a 54bd abf9 91be a685 b33c 3df2 3cbd
00000140: c43c 72bc 427a 6b3e 31b8 833e e191 a1bd
00000150: 9ddf 1d3c e6f9 d93c d591 49be e345 aa3e
00000160: c4b2 b33d 6b72 6e3e 0903 c9ba be32 02be
00000170: 1af7 883e 1196 30be eb34 c03d d470 fc3d
00000180: a324 8f3e ade8 84be 0412 4abd c6b7 e4bb
00000190: d0eb 2e3d 465b 80be 4790 f8bc ec79 bc3d
000001a0: 656c 83be d076 023e 589d 923e 65b2 0dbe
000001b0: 16d4 a5bd 4b17 8cbd 791f afbe aaed 853b
000001c0: 21ae 453d 29a4 a8be f28c aebe 23a9 1ebe
000001d0: a5a7 d3bd 4e47 943d ef86 1e3e 1433 533d
000001e0: 0d33 5fbe dcdd 24be 73cf 36be 6f07 b73d
000001f0: 83e0 adbd 0d2d 983e 4146 94be 810a ccbe
00000200: 9d20 adbd 7697 93bd f35e 833e 74fd 4cbe
00000210: 571a 5ebc 08f3 043e 438e 3abe 2128 a03e
00000220: 4493 3cbb 873f 0ebd 2578 6bbc 925d 9dbe
00000230: 63b3 5c3e 4d4c 803e 7357 62be d047 ba3a
00000240: 15c4 833e 9420 833e ce2a f5bc 51a4 b73d
00000250: 3764 60be d992 5e3c 4055 083d 505d 223e
00000260: fe0e 913e 1b62 573e a873 33be 6127 323d
00000270: d2f3 c23c 3dc4 183e 961a 013e a132 3e3e
00000280: bf3d 4f3e 813c d63d b645 86be 0b35 8a3d
00000290: d310 883d 7528 8dbe ebf0 483d 54cc d73b
000002a0: d48a aabe 7ffa b73d dad0 cb3d 6224 a53d
000002b0: 478b 163e c6d7 7cbe afc9 613d bab3 bcbe
000002c0: 3fb3 7cbe e404 5fbe 4f2e be3d f538 c6be
000002d0: 73e7 063e 1a50 823e bb5e babc 31d4 c03d
000002e0: 3eaa 52be 07b9 94be 349b 7e3e 48b2 8ebd
000002f0: 75a0 1dbe af01 aabc de33 883d 4bf4 67ba
00000300: 5268 28bd c1ca 953e c18b 7ebe 2470 81bd
00000310: 5945 23be 886f d13d 385d b3bc 1cf1 703d
00000320: 5201 a83d 4154 23bb 788e f6bd a112 8abe
00000330: c587 18bc f927 66be 1a3b 443e 7ad1 e03c
00000340: 0899 99bc 0a8d 8f3d cf99 0ebe 5f92 343e
00000350: 6275 7c3e 6674 9dbe 53b8 25bd 7745 87bd
00000360: d818 8fbe 9097 093e 9591 3bbe db6e e5bc
00000370: 9879 edbd 88d8 6bbe 1d02 57be 59af e63d
00000380: f7b2 9f3d f5b9 20be d29a ef3d 2112 46bd
00000390: 001b 5c3e b0d0 37be 0d90 34bd b503 273e
000003a0: b284 77bb 4b35 853e 5f00 6b3d a48e aebe
000003b0: 75f4 8dbe e3b6 e33c 2cd0 603e ee57 24be
000003c0: bfec 3b3d b730 773e 899e 5bbe 99e5 c63d
000003d0: bcb7 cf3d 9423 883c 07d4 8a3d b8a9 bfbe
000003e0: 7bf2 123e 04bb d8bd 2b51 62be 56f5 3bbe
000003f0: ff85 623d 6d3d 053e 9077 72be 9c9c f1bd
0.21576495 -0.16614297 -0.2779167 -0.2678411 -0.17751804 0.07848544 -0.22960615 -0.3892384
0.082174465 0.10969949 0.20579512 -0.13400851 0.19996347 0.024424957 -0.009162499 0.13821758
-0.029932182 0.007984124 -0.18599252 0.36428618 -0.15983933 -0.11677679 -0.20167531 0.22955303
-0.25868988 0.031580526 -0.24292193 0.13963608 0.27812633 -0.07362829 0.17257905 -0.22960342
0.22185205 -0.028880663 0.21480533 0.3172796 0.21001253 -0.20415194 0.3296142 0.10858201
0.07335646 -0.06278683 -0.10087138 0.2399929 -0.2697097 0.13867036 -0.09036071 0.063471355
0.23539306 -0.2781488 -0.18014368 -0.021803044 0.27861118 -0.29975465 -0.095670596 0.14748086
-0.03788162 -0.34385255 0.24914572 0.088095576 -0.09373642 -0.23020576 -0.23796512 0.1770256
0.11464114 0.1407003 0.09878197 0.13265677 0.06563968 -0.07437226 -0.1544979 0.023885293
-0.08774866 -0.11061726 -0.29848894 0.22029671 -0.051813863 -0.28510794 0.021914314 -0.046129454
-0.0147849955 0.22995856 0.25726464 -0.07889152 0.009635833 0.026608419 -0.19684537 0.33256444
0.08774331 0.23285834 -0.0015335988 -0.12714669 0.26751024 -0.17244746 0.09385093 0.12326208
0.2795764 -0.25958768 -0.049333587 -0.0069799153 0.042705357 -0.25069636 -0.030342234 0.09202942
-0.25668636 0.12740636 0.2863567 -0.13837583 -0.08097093 -0.0684038 -0.342037 0.0040871697
0.048261765 -0.32937744 -0.34091908 -0.15494208 -0.1033471 0.07240163 0.1548116 0.051562384
-0.21796818 -0.16100258 -0.17852573 0.08936965 -0.08490088 0.2972187 -0.2895985 -0.39851764
-0.08453486 -0.07206623 0.25658378 -0.2001856 -0.013556085 0.12983334 -0.18218331 0.31280616
-0.00287743 -0.034728553 -0.014371906 -0.3073545 0.21552806 0.25058213 -0.22103672 0.0014212076
0.25735536 0.25610793 -0.029927637 0.08966888 -0.21913229 0.013584816 0.033284426 0.15855908
0.2833175 0.21033518 -0.17524588 0.043494586 0.023797903 0.14918609 0.12607798 0.18574001
0.20238398 0.10460759 -0.2622506 0.067483984 0.06643834 -0.2756993 0.049057882 0.006585637
-0.33309042 0.08983325 0.09951945 0.0806358 0.14701568 -0.24691686 0.05512398 -0.3685587
-0.24677752 -0.2177921 0.092861764 -0.3871533 0.13174228 0.25451738 -0.02275025 0.09415472
-0.20572755 -0.29047415 0.24863893 -0.06967598 -0.15393241 -0.020752756 0.06650518 -0.0008848353
-0.041115113 0.2925625 -0.24858 -0.06320217 -0.15944423 0.10226351 -0.021895036 0.05882369
0.08203377 -0.0024922045 -0.120388925 -0.26967338 -0.009309714 -0.22476186 0.1916317 0.027443636
-0.018749729 0.07009323 -0.13925861 0.17633961 0.24654153 -0.30752867 -0.04045899 -0.06605046
-0.27948642 0.13436723 -0.18317254 -0.028006962 -0.11595458 -0.23031819 -0.209969 0.11263914
0.07797807 -0.15695937 0.116994515 -0.048357133 0.21494675 -0.17950702 -0.04408269 0.16310008
-0.0037768302 0.26017222 0.0573734 -0.340932 -0.27725568 0.027797168 0.21954411 -0.16049168
0.045880076 0.24139677 -0.21447195 0.09711761 0.101424664 0.016618527 0.06778722 -0.37434173
0.14350311 -0.105825454 -0.22101276 -0.18355307 0.05530357 0.13011713 -0.23678422 -0.11797449

module.conv_7.bias f4 [56]
00000000: f878 613e a785 45bd 7d05 d5bd 9e04 49be
00000010: e3f9 783e 917b 96bd ebd1 11bd 88aa 27be
00000020: 20ae 2d3d 6b72 383e 339a 983d c098 55be
00000030: 42c7 0dbe 6d30 333c 2ae7 303e e650 d039
00000040: cda0 0f3e f30e b03d e132 5d3e 2a44 d2bd
00000050: 1516 573d b1b0 973d 5006 e3bd 31d2 943c
00000060: 163d 4c3e a021 84be 32ef 53be caff 01be
00000070: f490 ffbd 2c4c 663e d5a7 7f3d 3781 6d3d
00000080: 34a1 0a3e 1dc9 59be 9c24 843d 6c1c 31be
00000090: 52ca a43d 83d7 483d 8d17 c4bc 192f 0e3c
000000a0: d0ae 72bd f9cc 1f3e 9f99 52ba 85f1 903d
000000b0: 28f4 eebd 5ab4 b93d df40 1c3e 1a57 27be
000000c0: ab6b 2bbe a562 653e c1e4 2c3e 94fc e9bd
000000d0: b454 20be 9608 d93d 004f a0bd 1dd9 473e
0.22018802 -0.048223164 -0.104014374 -0.19630668 0.24314074 -0.07347787 -0.035600584 -0.16373646
0.042402387 0.18012397 0.07451286 -0.20859051 -0.13845542 0.010936839 0.17275682 0.00039733126
0.14026184 0.08596601 0.2160144 -0.102669075 0.052511293 0.07406748 -0.110851884 0.018166633
0.19945177 -0.25806904 -0.20696715 -0.12695232 -0.124788195 0.22489995 0.062415916 0.057984557
0.13538057 -0.21268125 0.06452295 -0.17295998 0.08046402 0.049033653 -0.023937011 0.008678221
-0.059248745 0.15605535 -0.00080337556 0.07077316 -0.11667663 0.090676025 0.15259121 -0.1634182
-0.16740291 0.22400911 0.16884138 -0.114251286 -0.15657312 0.10597341 -0.07827568 0.19516416
