model2/FSRCNN3D_epoch_50.pth (torch, 265262 bytes, 15 tensors)

module.conv_1.weight f4 [56, 1, 5, 5, 5]
0	0x3d18b63c	0.037283167
1	0x3d932661	0.071850546
2	0x3d5054d8	0.050862163
3	0xbba8fae7	-0.005156863
4	0x3ccb29e8	0.024800256
5	0x3db3db1f	0.087820284
6	0x3d82c592	0.0638534
7	0xbd6857bd	-0.0567243
8	0x3c804fe1	0.01566309
9	0xbd8effb9	-0.06982369
10	0xbd9a4535	-0.075327314
11	0x3d8a02c4	0.06738809
12	0x3bc53500	0.006018281
13	0x3cc7d12b	0.024391731
14	0x3d8678c9	0.06566007
15	0xbd4cbb5b	-0.049983364
16	0x3da29ba4	0.07939842
17	0xbd8be772	-0.06831254
18	0x3c77ec6a	0.015132049
19	0xbcffa67d	-0.031207317
20	0xbcf8eb1b	-0.030385545
21	0xbb986d11	-0.0046516736
22	0x3d89ca04	0.067279845
23	0xbc829bb6	-0.01594339
24	0xbd728fc4	-0.059219137
25	0xbd545e58	-0.051847786
26	0x3d2cba4e	0.04216986
27	0x3da54f0b	0.08071717
28	0x3c8faded	0.017538989
29	0xbc9be7dc	-0.019031458
30	0x3c9bb149	0.019005435
31	0x3d353077	0.044235673
32	0xbcd7f7c2	-0.026363257
33	0xbda2ea67	-0.07954865
34	0xbd40eecd	-0.04710274
35	0xbcbcb5d0	-0.023035914
36	0x3c3060fb	0.010765309
37	0x3d836bbc	0.06417033
38	0x3da01d2b	0.07818063
39	0xbd041a67	-0.03225174
40	0x3d426e92	0.04746873
41	0xbd7987bb	-0.06092046
42	0xbd8eaefb	-0.069669686
43	0x3d82c7db	0.06385776
44	0xbd34a2fe	-0.044100754
45	0x3d3b0f6c	0.045669004
46	0xbd8cdc04	-0.06877902
47	0x3d2896e6	0.041159533
48	0x3cd93e13	0.026518857
49	0xbcebc66a	-0.028781135
50	0xbdae218f	-0.085024945
51	0xbbf67a77	-0.007521923
52	0xbd7a255f	-0.061070796
53	0xbd324802	-0.043525703
54	0x3d6d2e0d	0.057905246
55	0x3c8c9c4f	0.017164377
56	0xbdaa9559	-0.08329267
57	0x3d14585b	0.036217075
58	0xbd9cccab	-0.07656225
59	0x3d9475bb	0.07249018
60	0xbd9d93d2	-0.0769421
61	0x3c8c5233	0.01712904
62	0x3ceed804	0.029155739
63	0xbd5af6ce	-0.053458028
64	0x3d8f789d	0.07005427
65	0x3db60e0c	0.08889398
66	0x3bd908c9	0.0066233617
67	0x3c004daf	0.007831021
68	0x3d925f1b	0.07147046
69	0x3d4d0cdd	0.050061096
70	0xbd822471	-0.06354607
71	0xbd53d8cc	-0.051720425
72	0xbccdfea5	-0.025145838
73	0x3d8ae032	0.06781043
74	0x3d878f96	0.06619184
75	0xbd947493	-0.07248797
76	0xbd19d5cf	-0.03755742
77	0xbd937eb7	-0.07201903
78	0x3c921738	0.017833337
79	0xbd5208d7	-0.05127796
80	0xbd4c10c0	-0.04982066
81	0xbdafa67e	-0.08576678
82	0x3d667c80	0.056271076
83	0x3d03d253	0.032183003
84	0xbd6e9b20	-0.058253407
85	0x3db24096	0.08703725
86	0xbd3b8d66	-0.045789145
87	0x3d4eca67	0.050485995
88	0x3d5575af	0.052114185
89	0x3daa7fe4	0.083251745
90	0xbd021306	-0.031756423
91	0x3dafe9c0	0.08589506
92	0xbd8d36b1	-0.06895197
93	0x3d3c716f	0.046006616
94	0x3d0b905e	0.034073226
95	0xbd14425e	-0.036196105
96	0xbc31d1a9	-0.0108532095
97	0x3d6c318c	0.05766444
98	0xbd8c202d	-0.068420745
99	0xbd84d5b2	-0.06486072
100	0x3db5dada	0.08879633
101	0x3d3b56f6	0.04573723
102	0xbc9c4584	-0.019076116
103	0x3dc1e6fb	0.09467884
104	0x3d9075f5	0.070537485
105	0x3c83f40d	0.016107583
106	0x3d301e9f	0.042997953
107	0x3dbdd99f	0.092700236
108	0xbbfd22c9	-0.007725094
109	0x3bf13872	0.007361465
110	0x3c99f6c9	0.018794434
111	0xbd19df7c	-0.037566647
112	0x3cb8cd74	0.022558905
113	0x3d9f2e77	0.07772534
114	0xbd1675be	-0.03673338
115	0xbd663ff6	-0.05621334
116	0x3d54ca88	0.05195096
117	0x3da7cc8a	0.081933096
118	0x39b2b11c	0.00034082762
119	0xbcfbc46d	-0.030733312
120	0xbd6daaa6	-0.05802407
121	0xbd495b3b	-0.04915927
122	0x3d7cbc62	0.061703093
123	0x3d35021c	0.044191465
124	0x3d50d97f	0.05098867
125	0xbd147326	-0.036242627
126	0x3cfe49dd	0.03104108
127	0x3d51af12	0.05119235
128	0xbd179b68	-0.03701344
129	0x3d60cd6e	0.054883413
130	0xbd1299f6	-0.03579136
131	0x3a2c69ec	0.0006577063
132	0x3bd5480b	0.0065088323
133	0x3ce9de10	0.02854827
134	0xbd335ede	-0.043791644
135	0xbd5ca7ed	-0.053871084
136	0xbd12c68c	-0.03583388
137	0x3d755ce0	0.059903026
138	0x3c707d73	0.014678347
139	0x3d10aaac	0.035319015
140	0x3dad9e5d	0.08477471
141	0xbcda0eaf	-0.02661833
142	0xbda16740	-0.078810215
143	0x3c1ee051	0.009697036
144	0xbd993740	-0.07481241
145	0xbda91197	-0.08255308
146	0xbc47f991	-0.012205497
147	0x3d9a9ec2	0.07549812
148	0x3d8d0c28	0.06887084
149	0xbd27aa93	-0.040934157
150	0xbd24157d	-0.040059555
151	0x3cf4ffdc	0.02990716
152	0x3d04d3de	0.032428615
153	0xbca4dc44	-0.020124562
154	0x3d332a6e	0.043741636
155	0xbd0d4fcc	-0.03449993
156	0x3d78c43f	0.06073403
157	0x3d312c04	0.043254867
158	0xbcfe5812	-0.031047855
159	0x3c80906b	0.015693864
160	0xbd410ced	-0.047131468
161	0x3d741d3d	0.059598196
162	0xbcbb7e7c	-0.02288746
163	0x3d4a87f8	0.049446076
164	0x3c8b8d8c	0.017035268
165	0xbd6302ab	-0.055422466
166	0x3d20a616	0.039220892
167	0x3d31e441	0.04343057
168	0x3cf01905	0.029308805
169	0x3c43740a	0.011929521
170	0xbdadfbd3	-0.08495297
171	0xbd2f31e8	-0.042772204
172	0x3d9b8cd0	0.07595217
173	0xbd4fb79b	-0.05071221
174	0xbbb037d8	-0.005377751
175	0xbce7ca97	-0.028294845
176	0xbc117022	-0.008876832
177	0xbce0a422	-0.027422015
178	0x3c037ed8	0.008025847
179	0x3da58b08	0.08083159
180	0x3ca1606c	0.019699298
181	0xbaee1752	-0.0018164909
182	0x3cc96d68	0.024588302
183	0xbb90e4bd	-0.004421799
184	0xbccae6aa	-0.024768192
185	0xbcc36359	-0.023851084
186	0x3c1ca85c	0.009561624
187	0xbd9a71a0	-0.075412035
188	0xbce7a17b	-0.028275242
189	0xbdb22535	-0.08698503
190	0x3d82180a	0.06352241
191	0x3ccc7c78	0.024961695
192	0xbc28c06f	-0.010299786
193	0x3d1207fc	0.035652146
194	0x3d1913c7	0.037372377
195	0x3d872624	0.065990716
196	0x3d72449d	0.059147466
197	0x3d6ee038	0.0583193
198	0xbce293f9	-0.02765845
199	0xbdbe9161	-0.093050726
200	0x3d17ff25	0.03710856
201	0x3d34864b	0.044073384
202	0xbd1925cf	-0.037389573
203	0x3d7336c7	0.05937841
204	0xbcbd43c2	-0.023103599
205	0x3d6d092f	0.057870086
206	0x3d958b37	0.07301944
207	0x3cd79e78	0.026320681
208	0xbcb62073	-0.02223227
209	0x3ce42ed9	0.02785437
210	0x3d0d14a5	0.034443516
211	0x3db5c3d7	0.08875244
212	0xbd9d44b4	-0.0767912
213	0xbd7ee8fd	-0.062233914
214	0xbcadd525	-0.0212198
215	0xbd0c008d	-0.034180213
216	0x3d584c98	0.05280742
217	0xbd3e0f2e	-0.046401195
218	0x3d6c0a4b	0.057627004
219	0xbd30da7b	-0.04317711
220	0x3d4d471b	0.05011664
221	0x3d572e29	0.052534256
222	0xbc92e884	-0.017933138
223	0xbd82572c	-0.06364283
224	0x3cf18f16	0.029487174
225	0xbd7b8349	-0.0614045
226	0xbd3d809a	-0.046265222
227	0x3cece47e	0.028917547
228	0x3d31d20a	0.0434132
229	0xbd98d81d	-0.07463095
230	0xbd2812b0	-0.041033447
231	0xbd0d9b5c	-0.03457199
232	0x3d21cce2	0.039502032
233	0xbc8b9716	-0.017039817
234	0xbdb23384	-0.08701232
235	0xbc1a8483	-0.009431007
236	0x3b52e5dc	0.0032180464
237	0xbdc2408a	-0.09484966
238	0x3ccac877	0.024753792
239	0x3d3a4eea	0.045485415
240	0x3d10a0da	0.03530965
241	0x3bb98f0d	0.005662805
242	0xbc2c3610	-0.010510936
243	0xbc2fce17	-0.010730288
244	0xbd6751eb	-0.056474607
245	0xbd9771d4	-0.07394758
246	0x3cbba406	0.02290536
247	0xbd91a033	-0.07110634
248	0xbd6f5916	-0.05843457
249	0xbd410724	-0.04712595
250	0x3ae33a3a	0.0017336078
251	0xbd2bdacd	-0.04195671
252	0xbb431365	-0.0029766199
253	0x3dcc2aa2	0.09969069
254	0xbd846d9b	-0.06466218
255	0xbc96c188	-0.01840283

module.conv_1.bias f4 [56]
0	0x3c351960	0.011053413
1	0x3bb6bcb5	0.005576695
2	0x3d0de67a	0.034643628
3	0x3cb26be4	0.021779962
4	0x3d1d3d6f	0.038388666
5	0x3d265eb2	0.040617652
6	0xbd3ecb16	-0.046580397
7	0x3d0762f3	0.03305335
8	0xbcbaca0c	-0.022801422
9	0x3d7e518e	0.062089495
10	0xbd288408	-0.04114154
11	0x3d9fe731	0.07807768
12	0xbd1077ae	-0.035270385
13	0x3cc4dc45	0.024030814
14	0x3d6510b5	0.055924136
15	0x3ccd8d77	0.02509187
16	0xbc82ea56	-0.01598088
17	0x3da308a9	0.07960636
18	0xbc361411	-0.011113183
19	0x3b8cf292	0.0043013776
20	0xbbe332e6	-0.006933558
21	0x3db57c0f	0.08861553
22	0x3c02c0a7	0.007980502
23	0xbda25760	-0.07926822
24	0xbcac4085	-0.021026859
25	0xbd1ec157	-0.038758602
26	0x3dc19073	0.094513796
27	0x3d50c44f	0.050968464
28	0xbc04c2f7	-0.008103124
29	0xbca7d4be	-0.020487186
30	0xbb230f68	-0.002488101
31	0x3cc59d8a	0.024122972
32	0x3d8bba4f	0.06822645
33	0x3d9584e8	0.073007405
34	0xbd05c9c6	-0.03266313
35	0xbd5a0ed5	-0.0532368
36	0x3d3c25f6	0.04593464
37	0x3c8498f2	0.016186211
38	0xbd42cfd0	-0.047561467
39	0xb98919be	-0.00026149856
40	0xbd9d6742	-0.076857105
41	0xbd056935	-0.032571036
42	0xbd95c6c3	-0.073133014
43	0xbda42ecf	-0.080167405
44	0x3ceac91d	0.028660351
45	0xbc26cb56	-0.010180315
46	0xbd0cc3ff	-0.034366604
47	0xbd923f98	-0.07141036
48	0x3d95bc3a	0.07311292
49	0x3d27f9d2	0.04100973
50	0xbba5e020	-0.005062118
51	0x3b1d611c	0.002401418
52	0xbcadc488	-0.021211877
53	0x3cf910bc	0.030403487
54	0xbc4012c6	-0.011723226
55	0x3c80fcb9	0.015745508

module.conv_2.weight f4 [12, 56, 1, 1, 1]
0	0x3c0afc81	0.008483053
1	0x3c47ecd7	0.012202463
2	0xbc3bc322	-0.0114600975
3	0xbd19d294	-0.03755434
4	0x3dcfb8d6	0.101426765
5	0x3dcbe2bc	0.099553555
6	0x3d72ab15	0.059245188
7	0x3de03215	0.109470524
8	0x3daa39c0	0.08311796
9	0x3dfce3ac	0.123481125
10	0xbdc4d887	-0.09611612
11	0x3df25c2f	0.11833989
12	0x3c9237fb	0.01784896
13	0x3c969872	0.018383238
14	0x3d997933	0.0749382
15	0xbc87d785	-0.01658226
16	0x3d40e02a	0.04708878
17	0x3dec7da4	0.115474015
18	0x3c295766	0.010335779
19	0x3c1f58d4	0.009725768
20	0x3d8fcf86	0.07022004
21	0x3d5d1a21	0.053979997
22	0xbd40dd74	-0.047086194
23	0xbcfe1e7c	-0.031020395
24	0x3e0a30fc	0.13495249
25	0xbdcbd4d5	-0.09952704
26	0x3df39921	0.118944414
27	0x3cf56f70	0.029960364
28	0xbdcaa3c0	-0.09894514
29	0xbbc56c94	-0.0060249064
30	0x3d03708c	0.032089755
31	0x3b8e58ac	0.0043440666
32	0x3d2034c0	0.039112806
33	0x3dbd0eb2	0.092313185
34	0xbd54baa8	-0.05193582
35	0x3d5bece9	0.053692732
36	0xbd55578e	-0.05208545
37	0x3d1b51b6	0.037919722
38	0xbddcd3be	-0.10782574
39	0xbd30df8f	-0.043181952
40	0x3d94ecaa	0.072717026
41	0x3e03bf7f	0.12866019
42	0x3d9df4a7	0.07712679
43	0x3da5e568	0.081003964
44	0xbd6487ba	-0.0557935
45	0x3dc1e669	0.094677754
46	0x3d62c084	0.05535938
47	0xbe09323c	-0.13398069
48	0x3dda63cc	0.10663566
49	0xbdc8c59f	-0.09803318
50	0xbe0b5437	-0.13606344
51	0x3d3396ce	0.04384499
52	0xbe046953	-0.12930803
53	0x3e246c12	0.1605685
54	0x3d92b354	0.071631104
55	0x3df8f082	0.12155248
56	0x3e11aebb	0.1422681
57	0xbcdf4235	-0.02725325
58	0xbdae2b86	-0.08504395
59	0xbd80bb5a	-0.062857345
60	0xbd1af74c	-0.037833497
61	0x3d88c519	0.066782184
62	0x3dfc1833	0.12309303
63	0x3dae856c	0.08521542
64	0xbe274bc1	-0.16337492
65	0x3df1c41f	0.11804985
66	0xbdfb5b7e	-0.1227331
67	0xbd6ffa7e	-0.058588497
68	0xbd2b30b7	-0.041794505
69	0xbc507b97	-0.012724779
70	0x3d0c5470	0.034260213
71	0xbd59e1b6	-0.05319377
72	0xbcf708f5	-0.030155638
73	0x3dba4646	0.09095435
74	0x3d4a904e	0.049454026
75	0x3deb0957	0.11476391
76	0xbe0319ea	-0.12802854
77	0xbd857bb1	-0.06517733
78	0xbd765d35	-0.060147483
79	0x3d088aaf	0.033335384
80	0xbd29e7d1	-0.041480843
81	0xbe0b0dcb	-0.1357948
82	0xbdaa74e3	-0.083230756
83	0x3d80adb3	0.062831305
84	0xbd79caaf	-0.06098431
85	0x3d230e62	0.03980864
86	0x3e0b350a	0.13594452
87	0xbc07688b	-0.008264671
88	0xbe0374df	-0.12837552
89	0x3d34c37e	0.04413175
90	0x3cc3de3f	0.023909686
91	0x3e0b7c5c	0.13621658
92	0x3d950551	0.07276405
93	0x3d90482d	0.070450164
94	0xbdeedc55	-0.11663119
95	0xbd7761c2	-0.060395963
96	0x3b54702d	0.0032415495
97	0x3d74391e	0.059624784
98	0x3db2553c	0.087076634
99	0xbbe18f48	-0.0068835355
100	0xbc9bc826	-0.019016337
101	0x3d973b74	0.07384387
102	0xbe2c005d	-0.16797014
103	0x3e03581e	0.12826583
104	0x3d3f1b10	0.04665667
105	0x3db8687f	0.09004306
106	0x3d313fb5	0.043273646
107	0xbdcae95b	-0.0990779
108	0xbe011192	-0.12604359
109	0x3d75ef8f	0.060042914
110	0xb90694b8	-0.00012834638
111	0x3d86de79	0.06585402
112	0xbdcbd8f0	-0.09953487
113	0x3c573586	0.01313532
114	0xbe073219	-0.13202704
115	0x3dad5d99	0.08465118
116	0xbd85a6b3	-0.06525936
117	0xbdaf608d	-0.085633375
118	0xbdba5516	-0.0909826
119	0x3e04145a	0.12898389
120	0xbddab5dd	-0.10679219
121	0xbdc6fb1b	-0.09715863
122	0xbe041161	-0.12897255
123	0x3de9a0a8	0.11407596
124	0xbe0c5905	-0.13705833
125	0xbd9380bf	-0.07202291
126	0x3c9dfe83	0.0192864
127	0x3d372a42	0.044718035
128	0xbde58bcb	-0.11208304
129	0x3d7a5d7b	0.061124306
130	0xbe10c4f9	-0.14137639
131	0xbd76e94c	-0.060281083
132	0xbcd2069c	-0.025637917
133	0x3d5609f3	0.052255582
134	0x3d53fff1	0.051757757
135	0x3dd73a9c	0.10509226
136	0x3dd7895d	0.10524247
137	0xbd13a90c	-0.036049888
138	0x3d8d4eb3	0.06899776
139	0xbd4de98d	-0.05027156
140	0xbdf106f5	-0.11768905
141	0xbdf76bea	-0.1208113
142	0x3d2b45ed	0.041814733
143	0xbdaf58b6	-0.08561842
144	0x3c1d4970	0.009600028
145	0x3e0968ce	0.13418886
146	0xbd0688ac	-0.032845184
147	0xbd35e1d2	-0.044404812
148	0x3dc467f3	0.09590139
149	0xb859211a	-5.176766e-05
150	0xbdfc115c	-0.123079985
151	0x3dc8b612	0.09800352
152	0xbd05004d	-0.03247099
153	0xbd974ed8	-0.07388085
154	0x3c150b0d	0.009096873
155	0xbb613360	-0.0034362897
156	0x3a092559	0.00052317005
157	0x3d60d4cc	0.05489044
158	0xbc96613c	-0.018356912
159	0x3da3edcb	0.0800434
160	0x3e160f38	0.14654243
161	0x3dd147ff	0.1021881
162	0xbd4492f1	-0.047991697
163	0xbc40c2db	-0.011765207
164	0x3da9fbcf	0.08299982
165	0xbd120499	-0.035648916
166	0x3e0847c9	0.13308634
167	0x3bac485e	0.0052576503
168	0x3d992536	0.074778005
169	0xbe2da2e1	-0.16956665
170	0x3da3a98a	0.079913214
171	0x3c00502a	0.007831613
172	0x3e05e033	0.13073806
173	0xbd8a4d0b	-0.06752976
174	0xbd5a3cb3	-0.053280544
175	0xbd22b2f2	-0.039721437
176	0xbdc7ff6f	-0.09765517
177	0xbd581926	-0.05275836
178	0x3dd80f26	0.10549764
179	0xbd82c5dc	-0.06385395
180	0xbe2c1940	-0.16806507
181	0x3d78ab42	0.0607102
182	0xbd145679	-0.03621528
183	0x3e1df99e	0.15427253
184	0xbe20ac1d	-0.15690656
185	0xbd3be999	-0.045877073
186	0x3d8537b6	0.06504767
187	0xbdf32374	-0.118719965
188	0xbd25b6e6	-0.04045763
189	0x3e1b98c2	0.15194991
190	0x3dba6183	0.0910063
191	0x3e105e79	0.14098538
192	0x3dda5f09	0.10662658
193	0x3deba28a	0.11505611
194	0xbe2d0aee	-0.168987
195	0x3df484a9	0.119393654
196	0x3d12c3d9	0.035831306
197	0xbdb3f0b2	-0.08786143
198	0xbdb0276a	-0.08601268
199	0xbdcf12bf	-0.101109974
200	0xbe05e0a5	-0.13073976
201	0x3cd64173	0.026154255
202	0x3cae3e9e	0.021270093
203	0x3e1f057f	0.1552944
204	0xbb62d218	-0.003461009
205	0xbe0deae2	-0.13859132
206	0xbdd73d2b	-0.10509714
207	0xbd606988	-0.054788142
208	0x3e1ceab5	0.15323909
209	0x3c78eadb	0.015192713
210	0xbcadc78b	-0.021213314
211	0x3cf1f58b	0.02953603
212	0xbddb8844	-0.1071935
213	0x3d92a960	0.07161212
214	0xbdc481e0	-0.09595084
215	0xbd1266bd	-0.03574251
216	0x3d728726	0.05921092
217	0x3da13473	0.07871332
218	0xbd4f86b4	-0.050665572
219	0x3d75f83c	0.060051188
220	0x3d9d83fc	0.0769119
221	0x3cb2c959	0.021824526
222	0xbd38eea2	-0.045149453
223	0xbce9d816	-0.02854542
224	0xbccab175	-0.024742821
225	0xbd87cca1	-0.06630827
226	0x3c151062	0.009098144
227	0x3d281e31	0.041044418
228	0xbc9426bc	-0.018084876
229	0x3d66ef02	0.05638028
230	0x3d81acdd	0.06331799
231	0x3cd39cd0	0.02583161
232	0xbd28fc00	-0.04125595
233	0x3cd65965	0.026165674
234	0x3d9c7ac0	0.076406
235	0x3d0395a7	0.03212514
236	0xbe76d5c0	-0.24104977
237	0xbd63f925	-0.055657525
238	0x3d8fb412	0.070167676
239	0x3d50d0cf	0.050980385
240	0x3cee30d8	0.029076025
241	0xbd90849b	-0.070565425
242	0x3d143f88	0.0361934
243	0x3db7feed	0.0898417
244	0xbd75db99	-0.060023878
245	0x3da90fb0	0.08254945
246	0x3d7afe08	0.06127742
247	0x3d028bf0	0.031871736
248	0x3db7d89f	0.08976864
249	0x3d5306a4	0.051520005
250	0xbdcadf00	-0.09905815
251	0x3dac21ff	0.08404922
252	0xbd20fabf	-0.03930163
253	0x3dbf0960	0.0932796
254	0x3d0d6a52	0.034525223
255	0xbd216990	-0.039407313

module.conv_2.bias f4 [12]
0	0x3d82c2ac	0.06384787
1	0x3de0500b	0.10952767
2	0xbcbb3643	-0.022853022
3	0xbdcadfb8	-0.09905952
4	0x3d6f655e	0.05844628
5	0xbcaf1380	-0.021371603
6	0xbd81fb68	-0.0634678
7	0x3e011a67	0.12607728
8	0xbdc7087f	-0.097184174
9	0x3c641370	0.01392065
10	0x3d0c4fc9	0.034255777
11	0x3db6a25f	0.089176886

module.conv_3.weight f4 [12, 12, 3, 3, 3]
0	0xba1f9d39	-0.00060887967
1	0x3bd95921	0.0066329394
2	0xbc83410a	-0.016022224
3	0xbd275537	-0.04085275
4	0x3cdd6a9e	0.027028378
5	0x3cd177a8	0.025569752
6	0xbceaf043	-0.028679019
7	0x3cc9bb83	0.024625545
8	0x3c091236	0.008366158
9	0xbbcd27f5	-0.0062608668
10	0xbc73c341	-0.014878095
11	0xbc9b57b3	-0.018962717
12	0x3c75c372	0.015000211
13	0x3b913a56	0.004432003
14	0xba22a4ae	-0.0006204349
15	0xbd141132	-0.03614921
16	0x3d6d1fa8	0.057891518
17	0x3cc6c80d	0.024265314
18	0xbcc91af9	-0.024548994
19	0xbca78487	-0.020448936
20	0xbd3adac1	-0.045618776
21	0x3c83e633	0.016100978
22	0xbc69f760	-0.01428017
23	0xbce8d306	-0.028420936
24	0x3d892138	0.06695789
25	0x3d65e5c4	0.056127325
26	0x3c73a1fe	0.014870165
27	0xbcd6f220	-0.026238501
28	0x3d07ecba	0.033184744
29	0x3c9948a9	0.018711405
30	0x3d37e5d9	0.044896934
31	0x3cd47a8f	0.025937347
32	0xbd062b41	-0.032756094
33	0xbd0dd28f	-0.034624632
34	0x3c836331	0.01603851
35	0xbd453860	-0.048149467
36	0xbbe02820	-0.006840721
37	0x3ca76b62	0.020436946
38	0xbd1c55d0	-0.038167775
39	0x3d3726e7	0.044714835
40	0x3d08b84f	0.033378895
41	0x3b10cb81	0.0022093954
42	0xbc2ce933	-0.010553646
43	0x3d6b3fe2	0.05743397
44	0xbc8a5615	-0.01688675
45	0x3d0e6e26	0.034773014
46	0xbc29a89e	-0.010355143
47	0xbd4898d5	-0.048973877
48	0xbd46ba02	-0.048517235
49	0x3c0d8446	0.0086374935
50	0x3d29acbe	0.041424505
51	0x3babc84f	0.0052423845
52	0xbc83e3a5	-0.01609976
53	0xbd1e0400	-0.038578033
54	0x3cc4ff42	0.024047498
55	0x3c9bed17	0.019033952
56	0xbd21540a	-0.039386787
57	0x3b59738e	0.0033180448
58	0x3ce883c7	0.028383149
59	0xbb401f02	-0.0029315357
60	0xbd2b14ce	-0.041767888
61	0xbc634223	-0.013870749
62	0x3c1cee05	0.009578233
63	0x3c40164b	0.011724065
64	0x3ce644ee	0.02810904
65	0x3d48c672	0.049017377
66	0xbd03ab3c	-0.032145724
67	0xbd1dead4	-0.038554028
68	0xbc142c64	-0.009043787
69	0x3ca4ed33	0.020132637
70	0x3d4f0ed2	0.050551243
71	0xbd3f71d1	-0.046739403
72	0x3cf78f45	0.030219683
73	0xbd268563	-0.04065455
74	0xbd169862	-0.036766417
75	0x3bec9e70	0.0072210357
76	0xbc10cccc	-0.00883789
77	0x3d049fab	0.032378834
78	0x3cc42544	0.02394355
79	0xbd27741b	-0.04088221
80	0x3d020d46	0.03175094
81	0xbd87587b	-0.06608673
82	0xbd0b2d09	-0.033978496
83	0xb998b08c	-0.00029123237
84	0x3c5418e1	0.012945385
85	0xbc3122c8	-0.010811515
86	0x3c046b96	0.008082291
87	0xbd5f24a5	-0.054478306
88	0xbd46548a	-0.048420466
89	0xbc3ea778	-0.011636607
90	0xbd7a0807	-0.06104281
91	0xbc3838f4	-0.011244047
92	0xbb84f4f3	-0.0040575205
93	0xbd658acd	-0.056040574
94	0xbccbec62	-0.02489299
95	0xbcf2b8f2	-0.029629204
96	0xbda0ddf8	-0.07854837
97	0xbdd1910f	-0.10232746
98	0xbd10d136	-0.03535577
99	0xbd90d597	-0.07071989
100	0xbd729208	-0.059221298
101	0xbcdeff0f	-0.02722123
102	0xbcd533e7	-0.026025726
103	0xbc4ad6ac	-0.012380283
104	0xbb3ceaca	-0.0028826469
105	0x3ceb9235	0.02875624
106	0xbcbaeb12	-0.022817168
107	0x3ccb83e7	0.02484317
108	0x3bc7e819	0.0061006662
109	0x3d554fda	0.052078106
110	0x3d5d5076	0.05403181
111	0x3d659fb9	0.056060527
112	0xbc614fab	-0.0137519045
113	0x3cff5865	0.03117008
114	0x3ce940e0	0.028473318
115	0xbc252178	-0.01007878
116	0x3c5ac89f	0.013353496
117	0x3d1ce34c	0.038302705
118	0xbbcfc7b7	-0.0063409465
119	0xbd2e5fdf	-0.0425719
120	0x3c79450e	0.015214218
121	0xbd3b6688	-0.04575208
122	0x3cb422bf	0.021989224
123	0x3897bee0	7.235794e-05
124	0x3d28a66d	0.04117434
125	0x3bc07bf8	0.005874153
126	0x3cdf1292	0.027230535
127	0xbd0a0e77	-0.0337052
128	0x3cea858f	0.028628139
129	0x3d27d9d7	0.040979233
130	0xbcf554b7	-0.029947622
131	0xbbd7deb1	-0.006587826
132	0x3c4b6822	0.012414964
133	0x3c799666	0.015233612
134	0xbcb6bc41	-0.022306563
135	0x3caf728d	0.021416927
136	0x3ba5140b	0.0050377897
137	0x3d1acde1	0.037793998
138	0xb97daa78	-0.00024191465
139	0xbcd8b326	-0.026452612
140	0xbca055d9	-0.019572185
141	0xbd0a4975	-0.03376146
142	0x3d1ca703	0.038245212
143	0xbda908d7	-0.08253639
144	0x3d3b1c95	0.045681555
145	0x3d65b06b	0.05607645
146	0x3d2486aa	0.04016749
147	0x3c868ba3	0.016424006
148	0x3be36465	0.006939458
149	0x3b5cc5f1	0.0033687318
150	0xbd7b7373	-0.061389398
151	0xbd422f1b	-0.047408205
152	0x3b4a6d72	0.0030887988
153	0x3c76f0be	0.015072046
154	0xba91c8f5	-0.0011122512
155	0xbcf02d3a	-0.02931844
156	0xbd3525f5	-0.04422565
157	0xbd877f0e	-0.06616031
158	0xbbe902cb	-0.0071109287
159	0xbd0e6d54	-0.034772232
160	0xbd92ffbc	-0.07177684
161	0xbc8f1042	-0.017463807
162	0xbd295ed3	-0.041350197
163	0x3bd5ce58	0.006524842
164	0xbcacc412	-0.021089587
165	0x3cf5c629	0.030001717
166	0x3d603786	0.05474045
167	0x3c65236b	0.013985495
168	0x3c8d60ee	0.017258134
169	0x3d480c56	0.04883989
170	0x3ca63167	0.020287229
171	0xbb26025e	-0.0025331
172	0x3d258cde	0.040417545
173	0xbcd07d20	-0.02545029
174	0x3ce70d81	0.028204681
175	0x3c1f26c5	0.009713833
176	0xbcb73e9f	-0.022368727
177	0xbd4c8eb5	-0.049940784
178	0xbd4d0b8e	-0.050059848
179	0xbd4daade	-0.05021178
180	0xbbb966c7	-0.005658004
181	0x3d2f5c49	0.04281262
182	0x3d1c2e37	0.03813001
183	0xbbec08af	-0.0072031836
184	0x3cf9d629	0.030497627
185	0x3cd93995	0.026516715
186	0x3d0b348a	0.033985652
187	0xbc95d823	-0.018291539
188	0x3d5ca402	0.053867348
189	0x3af71758	0.0018851561
190	0x3bc8e759	0.0061310944
191	0x3b39ea26	0.0028368323
192	0x3cf26a43	0.029591685
193	0xbcfe28ef	-0.031025378
194	0x3c7ec07a	0.01554882
195	0x3c7303f7	0.014832488
196	0x3d159f24	0.03652872
197	0xbc544685	-0.012956266
198	0x3c9ded7a	0.019278277
199	0xbb775980	-0.0037742555
200	0x3bc8a42d	0.006123087
201	0xbcde88d2	-0.02716485
202	0xbd1715ae	-0.03688591
203	0x3d1fa89b	0.038979154
204	0x3d4c03a7	0.04980817
205	0x3cfd5e13	0.030928647
206	0x3d4d8bba	0.05018208
207	0x3d5db557	0.054128017
208	0xbd4f1aaf	-0.050562557
209	0xbc9b29c5	-0.018940816
210	0x3c0473fa	0.008084292
211	0x3d482b63	0.0488695
212	0x3cd9b3f0	0.026575059
213	0x3d2cc699	0.042181585
214	0x3d6b59a6	0.057458542
215	0x3cc77000	0.024345398
216	0xbc884fce	-0.016639616
217	0xbd320ee9	-0.04347125
218	0x3d4fd90b	0.050744098
219	0xbb441ee4	-0.0029925639
220	0xbd3fb462	-0.046802886
221	0x3d3c988e	0.046043925
222	0xbc251487	-0.010075695
223	0xbcdfb592	-0.02730826
224	0xbd1e7f8e	-0.038695864
225	0xbd10db4d	-0.03536539
226	0xbd3615cb	-0.044454377
227	0x3d428b9d	0.047496427
228	0xbc834420	-0.016023695
229	0xbbe9f564	-0.0071398485
230	0x3d38b94e	0.045098595
231	0xbc0855e4	-0.008321259
232	0x3d4a5ce7	0.049405005
233	0x3c8fcd19	0.017553853
234	0xbd5b354d	-0.05351763
235	0xbd1c1954	-0.038110092
236	0xbc6e4cd5	-0.014544685
237	0xbce9446b	-0.028475007
238	0xbd39d8b4	-0.04537268
239	0xbd365e59	-0.04452357
240	0x3d046a9d	0.032328237
241	0x3d0cb3e0	0.03435123
242	0xbd0a9c87	-0.033840682
243	0xbc7e6083	-0.01552594
244	0x3c84e66f	0.01622316
245	0xbd2623a1	-0.040561322
246	0xbd4ae31b	-0.04953299
247	0xbcae2274	-0.021256663
248	0xbd01a085	-0.031647224
249	0xbcb5ba32	-0.022183511
250	0xbc135176	-0.00899159
251	0x3ca9efd8	0.02074425
252	0xbc836a44	-0.016041882
253	0x3cc84e7b	0.024451485
254	0xbd50f0de	-0.05101096
255	0xbc781d80	-0.015143752

module.conv_3.bias f4 [12]
0	0xbd400b91	-0.04688603
1	0x3d62ec97	0.05540141
2	0x3b30880e	0.0026936564
3	0x3d0ca91a	0.034340955
4	0x3ca9e212	0.020737682
5	0xbcf8c6ef	-0.030368296
6	0xbd44c955	-0.048043568
7	0xbc082d89	-0.008311638
8	0xbd62c900	-0.05536747
9	0x3cec7163	0.02886266
10	0x3d663846	0.05620601
11	0x3d0a497d	0.03376149

module.conv_4.weight f4 [12, 12, 3, 3, 3]
0	0x3cb48d09	0.022039907
1	0xbd0e2761	-0.034705523
2	0xbd4114f2	-0.047139116
3	0xba0c6839	-0.00053561066
4	0x3c0e0155	0.00866731
5	0x3d15de0d	0.036588717
6	0xbcae1f7b	-0.021255245
7	0xbb95f185	-0.0045759105
8	0x3c7ae5cb	0.015313576
9	0x3cfa3f72	0.030547831
10	0xbd649140	-0.055802584
11	0x3d0a5d0d	0.033780146
12	0x3c84dd51	0.016218813
13	0xbd663bc0	-0.056209326
14	0x3d517ad1	0.051142517
15	0xbd598fa6	-0.05311551
16	0xbcfac978	-0.030613646
17	0x3cd4c3bd	0.025972242
18	0xbc1c89e3	-0.009554359
19	0x3b3c0ccf	0.0028694158
20	0x39ce81b6	0.00039388024
21	0x3d3d3d84	0.046201244
22	0xbbc7b7ed	-0.0060949237
23	0xbd5cb302	-0.053881653
24	0xbd62aafe	-0.055338852
25	0xbd4e99e6	-0.050439738
26	0xbccee3ed	-0.025255168
27	0xbd162dd4	-0.0366648
28	0xbd01d216	-0.031694494
29	0xbd358ea5	-0.04432549
30	0x3d74971c	0.05971442
31	0x3c0609e7	0.008181072
32	0xbce5bd4a	-0.028044362
33	0x3d181928	0.037133366
34	0x3d771654	0.060324028
35	0x3d2452a2	0.040117867
36	0xbd19eda1	-0.037580136
37	0x3bee75f8	0.0072772466
38	0xbb5c5710	-0.003362123
39	0x3d3082bf	0.04309344
40	0x3d86998f	0.06572258
41	0xbd126eff	-0.035750385
42	0x3d3e6d44	0.046490923
43	0xbbff1e21	-0.007785574
44	0xbb62b005	-0.003458978
45	0x3d5f4965	0.054513354
46	0x3d31b4df	0.043385383
47	0x3c3c9f28	0.011512555
48	0x3d4b7c40	0.04967904
49	0xbcd2bec7	-0.025725735
50	0x3c48a37d	0.01224601
51	0xbbe4523b	-0.0069678104
52	0xbd064e6c	-0.032789633
53	0x3d37cda3	0.044873845
54	0xbd31b550	-0.043385804
55	0x3d66ea5c	0.056375846
56	0x3c675663	0.014119717
57	0xbce83939	-0.028347598
58	0xbc05f60f	-0.008176341
59	0xbc1ecae5	-0.0096919285
60	0xbd22a0d1	-0.039704148
61	0xbc6cd32c	-0.014454644
62	0xbca48647	-0.02008356
63	0xbd602cbb	-0.05473016
64	0xbd42b371	-0.04753441
65	0x3cacb000	0.021080017
66	0xbcf43c58	-0.02981393
67	0xbd3921ac	-0.045198128
68	0xbd3d2740	-0.04618001
69	0x3aebadf6	0.0017980922
70	0xbcb5c155	-0.022186914
71	0x3d3841da	0.044984676
72	0xbd06fe65	-0.032957453
73	0x3d61eb15	0.055155832
74	0x3d26457f	0.04059362
75	0x3d07108a	0.032974757
76	0xbbb00252	-0.0053713704
77	0x3ce2f7e7	0.0277061
78	0x3c1c4b5d	0.009539452
79	0x3cb24d7e	0.021765467
80	0x3c66072b	0.014039795
81	0xbc6665af	-0.014062329
82	0xbcc60ba0	-0.024175465
83	0xbc2d14eb	-0.010564069
84	0x3ccd9895	0.02509717
85	0xbccf3f19	-0.025298642
86	0xbcf44c7a	-0.029821623
87	0xbc60483e	-0.013689099
88	0x3ca7d83a	0.020488847
89	0xbd06df52	-0.03292782
90	0xbd45cb79	-0.04828975
91	0xbcb57f26	-0.022155356
92	0xbcc8a758	-0.024493858
93	0x3c47c4d6	0.012192925
94	0xbcf6b54d	-0.030115748
95	0x3ceee363	0.02916116
96	0xbcc99d8b	-0.024611255
97	0xbd3e810b	-0.046509784
98	0x3d29f64b	0.04149465
99	0x3d55ba64	0.05217971
100	0x3d325ec1	0.043547396
101	0xbd4cc3bc	-0.049991354
102	0x3d56197d	0.0522704
103	0xbca4e283	-0.02012754
104	0x3c18e586	0.009332066
105	0x3cda8cd7	0.026678486
106	0x3cfbf438	0.030756101
107	0xbb8cd6b5	-0.004298056
108	0x3ce19e16	0.027541202
109	0xbd0e4480	-0.034733295
110	0x3cc253ac	0.023721538
111	0xbd2164e9	-0.039402876
112	0x39f6df6d	0.00047087242
113	0x3c13a0cb	0.009010504
114	0x3d4b4efb	0.04963587
115	0x3d0935f4	0.03349872
116	0xbd3470e2	-0.044052966
117	0x3cf4ffb9	0.029907094
118	0x3c4b2155	0.012398084
119	0xbd1f94b9	-0.038960192
120	0xbcc31e9f	-0.023818312
121	0xbd1a78fb	-0.037713032
122	0x3bf7547f	0.0075479145
123	0xbd3b6ce9	-0.04575816
124	0xbd378689	-0.044806037
125	0x3b9ed9c7	0.0048477384
126	0x3c59e3f3	0.013298976
127	0x3cd31234	0.025765516
128	0xbc8d15eb	-0.017222365
129	0xba1a08de	-0.0005875955
130	0x3c1fb2d7	0.009747229
131	0x3d5e75c6	0.054311536
132	0x3d665e21	0.056242112
133	0xbcde2c3a	-0.027120698
134	0x3c712ee4	0.014720652
135	0xbc3867a2	-0.011255177
136	0xbb1cb0b4	-0.0023909034
137	0xbcd286a1	-0.025698962
138	0xbc56f462	-0.013119789
139	0x3d73b881	0.05950213
140	0x3d5e2a5f	0.054239627
141	0xbd8bce17	-0.06826418
142	0x3d5a2b14	0.05326374
143	0xbc6655b5	-0.01405852
144	0xbc372cfc	-0.011180159
145	0x3d2438e8	0.040093333
146	0x3d527c51	0.05138809
147	0xbd32d3a0	-0.043658853
148	0xbccfe1fe	-0.025376316
149	0xbd0d764f	-0.034536656
150	0x3c86bebd	0.016448373
151	0xbd5bef5f	-0.05369508
152	0xbc8bbaf7	-0.017056925
153	0xbcafc81f	-0.02145773
154	0xbc50feec	-0.012756091
155	0x3d0756d7	0.0330418
156	0x3c7d24e8	0.015450694
157	0x3b6d4f63	0.0036210648
158	0x3d1cb2b7	0.038256373
159	0xbbcaba6a	-0.006186773
160	0x3c0445ad	0.008073253
161	0xbcb254be	-0.021768924
162	0x3d241c18	0.040065855
163	0xbb90e891	-0.0044222553
164	0x3d5c2a3d	0.05375122
165	0xbcd1dd3e	-0.025618192
166	0xbd63965d	-0.05556332
167	0x3c3294cd	0.010899735
168	0x3c6491e6	0.0139508005
169	0xbcef4cc1	-0.029211404
170	0xbc927490	-0.017877847
171	0xbc8d4ceb	-0.017248591
172	0x3d48fa3c	0.049066767
173	0xbd09070d	-0.03345399
174	0xbc1a43a8	-0.009415545
175	0xbcaba2c7	-0.020951642
176	0x3d393e18	0.045225233
177	0xbd156cef	-0.03648084
178	0xbd468744	-0.048468843
179	0xbd59580e	-0.05306249
180	0x3d1bec02	0.03806687
181	0xbd542b2c	-0.051798984
182	0xbd205173	-0.039140176
183	0xbc0816f9	-0.008306258
184	0xbd030b36	-0.031993113
185	0x3d5f9b92	0.054591723
186	0x3d38f353	0.045153927
187	0x3d399c6e	0.0453152
188	0x3d1b0fda	0.037856914
189	0xbd07e75c	-0.033179626
190	0xbd68a8c9	-0.05680159
191	0xbd9f7618	-0.077861965
192	0x3a67c11d	0.0008840727
193	0xbc792b8e	-0.015208138
194	0xbdbb1763	-0.0913532
195	0xbb9c4c9a	-0.004769874
196	0x3c79e466	0.015252208
197	0xbd63fe82	-0.05566264
198	0x3d6730d1	0.05644304
199	0xbcc14237	-0.023591144
200	0x3d4e741a	0.05040369
201	0x3d6a2463	0.057163607
202	0xbc1f7202	-0.009731771
203	0x3d41e1b4	0.047334388
204	0x3d7ae96b	0.06125776
205	0x3d30eb15	0.04319294
206	0x3cb13fed	0.021636928
207	0x39a2ce0a	0.0003105256
208	0x3d1a9853	0.037742924
209	0x3d1a91b6	0.037736617
210	0x3d37b8d1	0.04485399
211	0x3d5cd303	0.053912174
212	0xbcd7e9f2	-0.026356671
213	0x3d24a5ab	0.040197056
214	0x3d83c9ae	0.06434952
215	0x3d4daf1b	0.05021582
216	0x3bb1518e	0.0054113334
217	0x3d2474c9	0.040150438
218	0xbcb66547	-0.02226509
219	0xbd23106d	-0.039810587
220	0xbcf98e75	-0.030463437
221	0xbd52ce69	-0.05146638
222	0x3c5ff500	0.013669252
223	0x3c4aa495	0.012368341
224	0x3cff7904	0.031185634
225	0x3c5d1455	0.013493617
226	0xbc8f1a72	-0.017468665
227	0x3d4cf984	0.050042644
228	0x3c689487	0.014195568
229	0xbb09bbe4	-0.0021016533
230	0xbcb15915	-0.021648923
231	0x3c963364	0.018335052
232	0x3bb8f355	0.005644242
233	0xbc9b008e	-0.018921163
234	0xbd280399	-0.041019056
235	0x3bf7128e	0.0075400537
236	0x3d373325	0.04472651
237	0x3d2f1d1d	0.042752374
238	0x3ce7a479	0.028276669
239	0x3c4222c7	0.011849112
240	0x3bcf878e	0.006333298
241	0xbb81b49d	-0.0039582984
242	0x3c6c6839	0.0144291455
243	0x3d3049f8	0.043039292
244	0x3d7a3caf	0.06109303
245	0x39acca26	0.0003295701
246	0x3cec1571	0.028818818
247	0x3a4606e9	0.000755413
248	0x3d27da89	0.040979896
249	0x3be8fcb7	0.007110204
250	0x3d06bd56	0.03289541
251	0xbc6146d7	-0.0137498
252	0xbaa8c0d7	-0.0012874854
253	0x3ce6a0df	0.028152881
254	0x3d59e606	0.053197883
255	0xbc234396	-0.009964844

module.conv_4.bias f4 [12]
0	0x3d4d4521	0.050114755
1	0xbd36b3fa	-0.044605233
2	0xbd2df751	-0.042472187
3	0xbc5ffff2	-0.013671862
4	0x3d0b1b21	0.03396142
5	0x3cb554ff	0.022135256
6	0x3bd3db4f	0.0064653526
7	0xbd07ae40	-0.033125162
8	0x3d22348d	0.039600898
9	0xbb5e05f6	-0.0033878065
10	0x3c98d96c	0.018658362
11	0xbd658c42	-0.056041963

module.conv_5.weight f4 [12, 12, 3, 3, 3]
0	0x3d3a06a9	0.045416508
1	0xbd8196a6	-0.06327562
2	0xbd4bc992	-0.04975278
3	0x3d06eca5	0.032940526
4	0x3c8cb9cc	0.017178439
5	0xbb13f3aa	-0.0022575655
6	0x3c898726	0.016788077
7	0x3ca8767a	0.020564307
8	0xbcb938f9	-0.022610174
9	0xbc281f52	-0.010261374
10	0x3bc46476	0.005993421
11	0x3d0f01c4	0.034913793
12	0xbd7ed4a6	-0.062214516
13	0xbd53ab93	-0.051677298
14	0xbd840358	-0.0644595
15	0xbd4e531a	-0.05037222
16	0xbd869c21	-0.06572748
17	0xbd0d3661	-0.034475688
18	0x3cfc518a	0.0308006
19	0x3cfa3752	0.030543957
20	0xbc763626	-0.015027558
21	0x3ce86146	0.028366696
22	0xbd1d34ab	-0.038380306
23	0xbd5c106a	-0.05372659
24	0x3d00a8ab	0.031410854
25	0xbd1c7d16	-0.03820523
26	0x3b336c74	0.0027377876
27	0x3d3e9ee7	0.04653826
28	0xbd11ccf4	-0.03559585
29	0xbd267c5f	-0.040645953
30	0x3ce0db3d	0.027448291
31	0xbd034ae4	-0.032053843
32	0xbd124af1	-0.035716
33	0x3d07149e	0.032978646
34	0x3bec037b	0.0072025633
35	0xbb6aad3a	-0.0035808817
36	0xbd574ab0	-0.052561462
37	0xbd454f2e	-0.048171215
38	0x3ca4a2a8	0.020097092
39	0xbcde3964	-0.027126975
40	0xbd35855c	-0.044316635
41	0xbcb1392e	-0.02163371
42	0xbc27e0e4	-0.010246489
43	0xbc400e5e	-0.011722175
44	0xbd38d818	-0.045127958
45	0xbc609eb2	-0.013709711
46	0xbc0fb2f9	-0.008770698
47	0x3d5e0b87	0.054210212
48	0xbd1fc3c4	-0.039005056
49	0x3c8db9f5	0.017300585
50	0x3d4c549e	0.049885385
51	0x3ce738f2	0.028225396
52	0xbb92e1a5	-0.0044824653
53	0x3d494634	0.049139217
54	0x3d186876	0.037208997
55	0xbc99554d	-0.018717432
56	0x3d3c6177	0.045991387
57	0x3d0768a9	0.033058796
58	0x3d98a5d9	0.07453508
59	0x3d0b4e53	0.034010243
60	0x3cea3c56	0.028593224
61	0x3c9b8ff4	0.01898954
62	0x3d0f1c63	0.03493918
63	0x3cd998cf	0.026562123
64	0x3c341e5d	0.010993567
65	0x3d52b54a	0.051442422
66	0x3d82a4d2	0.06379093
67	0x3d8d9cb7	0.069146566
68	0xbd05a7e7	-0.032630827
69	0xbcd97268	-0.026543811
70	0x3d333f96	0.043761812
71	0x3d3cdb48	0.04610756
72	0x3d6c9819	0.05776224
73	0x3cb358a2	0.02189285
74	0x3cc8c5cf	0.024508385
75	0xbbe72955	-0.0070544877
76	0x3c10278d	0.008798492
77	0x3d0c07da	0.034187175
78	0x3d66d831	0.05635852
79	0xbc994fb7	-0.018714769
80	0xbc886f04	-0.016654499
81	0x3d694d38	0.056958407
82	0xbd1e16bc	-0.0385959
83	0x3d671420	0.056415677
84	0xbd090523	-0.033452164
85	0x3d048859	0.032356594
86	0xbc33c4a9	-0.01097218
87	0x3d01827a	0.031618573
88	0x3c8c11b6	0.017098289
89	0xbd43b446	-0.047779344
90	0x3d710f4d	0.058852483
91	0x3ca0f0a0	0.019645989
92	0xbc69250d	-0.014230025
93	0xbcbf79f8	-0.023373589
94	0xbd3ec47c	-0.0465741
95	0x3d26bd3e	0.04070782
96	0x3b5d0c03	0.0033729083
97	0xbd61e308	-0.055148154
98	0xbb65c1ef	-0.003505822
99	0x3d8e37b5	0.06944219
100	0x3d75886e	0.059944563
101	0xbc9a41c6	-0.018830191
102	0x3d47a938	0.048745364
103	0x3cc117a3	0.023570841
104	0x3d1e481f	0.038643
105	0x3d0fd1dc	0.035112247
106	0xba3b6ba7	-0.00071495253
107	0x3c54cb18	0.012987874
108	0xbc2e8cb2	-0.010653662
109	0xbca48193	-0.020081317
110	0x3d1e7008	0.03868106
111	0xbd26fa77	-0.040766206
112	0xbd6132e7	-0.054980185
113	0x391bd79b	0.00014862271
114	0xbc4c9441	-0.012486518
115	0x3cd7c69b	0.02633982
116	0x3d50e061	0.050995234
117	0xbd4b18bd	-0.04958414
118	0x3d139cf1	0.036038343
119	0xbcab86c6	-0.020938288
120	0x3cf25e23	0.029585904
121	0xbcc6618e	-0.02421644
122	0x3cfab9c9	0.030606167
123	0xbb97494b	-0.0046168915
124	0x3d0a9952	0.033837624
125	0x3ce18fed	0.02753445
126	0xbd3981bc	-0.04528974
127	0xbb9daab6	-0.00481161
128	0x3c7011b0	0.0146526545
129	0x3cc3aac8	0.023885146
130	0xbc455d09	-0.012046107
131	0xbca0f63c	-0.019648664
132	0xbcecbc58	-0.028898403
133	0x3cf35e4a	0.029708046
134	0xbc8f4658	-0.017489597
135	0x3d64c3f0	0.055850923
136	0xbcb195c5	-0.021677861
137	0xbcf80fdf	-0.030281005
138	0x3cf9b379	0.030481087
139	0x3caba0b2	0.020950649
140	0x3c60a4e1	0.013711185
141	0xbaf45e71	-0.0018643868
142	0x3b669f80	0.0035190284
143	0x3ca71095	0.02039365
144	0x3d491211	0.049089495
145	0x3c729e5c	0.014808264
146	0x3d7168e0	0.058937907
147	0x3c6cd780	0.014455676
148	0xbbcb72d8	-0.006208759
149	0x3cc5af8e	0.024131563
150	0x3d179419	0.03700647
151	0x3d3bf4be	0.0458877
152	0x3d20b19d	0.039231885
153	0x3d3902e8	0.045168787
154	0x3d137161	0.0359968
155	0x3b666372	0.003515449
156	0xbbdf5242	-0.006815226
157	0x3cf8d2fa	0.030374039
158	0x3cf20acb	0.029546162
159	0xbc60e05a	-0.013725365
160	0x3cc2a678	0.02376102
161	0x3cb2238c	0.021745466
162	0xbc48042f	-0.012208029
163	0x3ce2971f	0.02765995
164	0xbd449b90	-0.04799992
165	0xba191f02	-0.00058411073
166	0x3cceb12c	0.025230967
167	0x3d0bf0ce	0.034165196
168	0xbcee9db2	-0.02912793
169	0xbd511cbf	-0.051052805
170	0xbd27a58f	-0.040929373
171	0xbd35fe71	-0.044432107
172	0xbd4e4a1d	-0.05036365
173	0xbdaa5bd0	-0.08318293
174	0xbc346825	-0.011011158
175	0xbd9bc7ea	-0.0760649
176	0x3cf72163	0.030167287
177	0xbd4e691d	-0.050393213
178	0xbcd83ab6	-0.026395183
179	0xbce399b2	-0.027783249
180	0x3c4b93ae	0.012425346
181	0x3d33cb97	0.04389533
182	0x3d570b2e	0.052500896
183	0x3d2663ab	0.040622395
184	0xbbcd5a9f	-0.0062669064
185	0x3d6f0f14	0.05836399
186	0xbd485cbd	-0.048916567
187	0xbd7b5c92	-0.06136758
188	0xbcb8f721	-0.022578778
189	0xbbb86139	-0.005626824
190	0x3be53f30	0.006996058
191	0x3cc73e7a	0.024321783
192	0xbd4a1bdf	-0.049342986
193	0x3d3baed6	0.045821033
194	0xbc91ea93	-0.017812049
195	0xbcbd0f75	-0.02307866
196	0xbd4b5afa	-0.04964731
197	0xbd138003	-0.036010753
198	0x3d6c4e42	0.05769182
199	0x3d5ee60a	0.0544186
200	0x3d4c36d0	0.04985696
201	0x3cba0025	0.022705147
202	0xbd3e1f39	-0.046416495
203	0x3d18a0e4	0.037262812
204	0x3d341ade	0.043970935
205	0xbcb9ae99	-0.022666262
206	0x3d06685d	0.032814372
207	0x3cdf8c8e	0.027288701
208	0xbcf120cd	-0.029434586
209	0x3c861e54	0.016371883
210	0xbd3529ad	-0.0442292
211	0x3cc1b772	0.023647044
212	0x3ca139ac	0.01968082
213	0xbb7ab917	-0.0038257295
214	0x3d0e8987	0.034799125
215	0xbc1ad343	-0.009449783
216	0xbc581388	-0.01318825
217	0x3d2a68b8	0.041603774
218	0xbd4f6e69	-0.050642405
219	0xbb983969	-0.0046455157
220	0xbd31f088	-0.04344228
221	0xbc61562d	-0.013753456
222	0x3cebf7c5	0.02880467
223	0x3d0b590d	0.034020472
224	0xbc142d41	-0.0090439925
225	0x3d0f253a	0.03494761
226	0x3b89c978	0.004204925
227	0x3d3c17b6	0.04592105
228	0x3bfa0220	0.007629648
229	0xbd649766	-0.055808447
230	0xbba431bc	-0.0050108116
231	0x3c0f74a2	0.008755835
232	0x3d003569	0.031300936
233	0xbcda7048	-0.026664868
234	0x3ca7ae5e	0.020468887
235	0xbd6eb46e	-0.05827754
236	0xbd684320	-0.05670464
237	0xbd52d80f	-0.05147558
238	0xbd25d703	-0.040488254
239	0xbd293b9b	-0.04131661
240	0x3a48fb93	0.0007666882
241	0x3c779fed	0.015113813
242	0x3d2e0621	0.042486314
243	0x3d0ea39d	0.034824003
244	0x3d2cd229	0.04219261
245	0xbcd532d7	-0.026025219
246	0xbcc24775	-0.023715714
247	0x3d0b04b4	0.033940032
248	0x3d43c99d	0.047799695
249	0x3cf17bac	0.029477917
250	0xba417296	-0.00073794404
251	0x3d17253d	0.036900748
252	0xbc20bf6c	-0.0098112635
253	0xbcc5ce35	-0.024146179
254	0x3d5786d6	0.052618824
255	0xbca921a6	-0.020645928

module.conv_5.bias f4 [12]
0	0x3b889b99	0.0041689393
1	0x3d21d55c	0.039510116
2	0xbc309761	-0.010778279
3	0xbccc7711	-0.024959119
4	0x3b8dff25	0.004333394
5	0xbc61fd1a	-0.013793254
6	0xbc925b77	-0.01786588
7	0x3d7f9c81	0.062405113
8	0x3d6a803b	0.057251196
9	0xbb6cecd5	-0.0036151905
10	0xbd0a48b6	-0.03376075
11	0x3c188d8b	0.00931109

module.conv_6.weight f4 [12, 12, 3, 3, 3]
0	0xbcf3ab13	-0.02974466
1	0x3d2b5c9d	0.04183637
2	0x3d056cf7	0.03257462
3	0xbb59891c	-0.0033193296
4	0xbba0e78d	-0.0049104155
5	0xbccdbd06	-0.025114547
6	0xbaa4d2c0	-0.0012575015
7	0xbcce0bd3	-0.025152123
8	0x3cff655c	0.031176262
9	0xbcaa2972	-0.020771716
10	0xbca8d2b0	-0.020608276
11	0xbd2be380	-0.041965008
12	0xbcdf3b26	-0.027249884
13	0xbcca5720	-0.024699748
14	0xbd6eaafa	-0.058268525
15	0xbc234140	-0.009964287
16	0x3b85f5cf	0.0040881406
17	0xbd0daa35	-0.03458615
18	0xbd7a799d	-0.061151136
19	0x3c7d5ab4	0.01546352
20	0x3c9b98f6	0.018993836
21	0xbd048e61	-0.032362346
22	0x3ccf97cb	0.025340935
23	0x3d0cd05f	0.034378406
24	0x3d08269f	0.033239957
25	0x3cf21ea5	0.029555628
26	0xbd7f7517	-0.062367525
27	0xbd385146	-0.044999383
28	0xbc45f541	-0.012082399
29	0x3d5a0fde	0.05323779
30	0xbc89cd7f	-0.016821621
31	0x3c61e8ff	0.013788461
32	0x3c896f4a	0.0167767
33	0xbd5cf8f2	-0.05394835
34	0x3d56db1f	0.052455064
35	0x3cf16394	0.029466428
36	0x3b9eb775	0.004843647
37	0xbd181d23	-0.037137162
38	0xb9c5c592	-0.0003772197
39	0xbce1c1f1	-0.027558299
40	0xbb36e6d7	-0.0027908587
41	0xbd1f2a94	-0.038858965
42	0x3d6244db	0.055241447
43	0x3d5fe8f5	0.054665525
44	0x3c8d2184	0.017227896
45	0x3cf35887	0.029705299
46	0xbc8b6c21	-0.017019333
47	0x3d4b57e4	0.049644366
48	0xbbd775a7	-0.0065753045
49	0x3c674cdc	0.014117446
50	0xbc75296f	-0.014963492
51	0x3cd523e6	0.026018094
52	0xbc201561	-0.009770722
53	0x3cceb886	0.025234472
54	0xbd20b018	-0.039230436
55	0x3bb6249f	0.005558565
56	0xbd1a9906	-0.03774359
57	0xbd45fe96	-0.048338495
58	0xbd3770ab	-0.044785183
59	0xbd76b448	-0.060230523
60	0x3d18f8f0	0.03734678
61	0x3d0d5b2d	0.03451078
62	0x3c2db0c6	0.010601228
63	0xbd43625c	-0.047701225
64	0xbad298ea	-0.00160673
65	0xbd0c98fe	-0.034325592
66	0xbd5b1366	-0.053485297
67	0xbd6e2ba4	-0.058147088
68	0xbc5c01e4	-0.013428185
69	0x3cef73a5	0.029229948
70	0xbcbecd24	-0.023291178
71	0x3c3a3f2a	0.011367599
72	0xbc9b81cd	-0.018982792
73	0xbd84869e	-0.06470989
74	0xbd141ed7	-0.036162224
75	0xbd7b94e6	-0.061421297
76	0xbd86990c	-0.0657216
77	0xba1eef2c	-0.0006062861
78	0xbc8737be	-0.016506072
79	0xbd64ed9a	-0.055890657
80	0xbd05a852	-0.032631226
81	0xbca50ae7	-0.0201468
82	0x3cf6df8a	0.030135889
83	0xbd52c2c4	-0.051455274
84	0x3d677917	0.056511965
85	0xbbe29033	-0.0069141625
86	0xbd11e37f	-0.035617348
87	0xbbec189b	-0.0072050816
88	0x3ccb1f76	0.024795275
89	0xbbd787f0	-0.0065774843
90	0xbcc42d2c	-0.02394732
91	0xbc04d2cf	-0.008106901
92	0x3c7a1310	0.015263334
93	0x3d0fc56a	0.035100378
94	0x3cf9a86f	0.030475823
95	0x3b5e461a	0.0033916296
96	0x3af461c6	0.0018644861
97	0xbd34d769	-0.044150744
98	0x3caf0260	0.021363437
99	0x3cd01082	0.025398497
100	0xbd6c2fd3	-0.057662796
101	0x3caa580e	0.02079394
102	0xbc59234d	-0.013253045
103	0xbc781fa9	-0.015144267
104	0x39a0084c	0.0003052376
105	0x3d1eff93	0.038817953
106	0xbd5c14e8	-0.053730875
107	0x3cbfa1d7	0.023392601
108	0xbd411d3d	-0.047147024
109	0x3d6f6df9	0.058454487
110	0xbb465a8a	-0.0030266368
111	0x3d47608a	0.04867605
112	0x3d91137c	0.070837945
113	0x3d1f9bbe	0.038966887
114	0x3cf52f84	0.029929884
115	0x3c706290	0.014671937
116	0x3c14c0b1	0.009079144
117	0xbc80432f	-0.015657036
118	0xbcb2afc0	-0.02181232
119	0x3ce7d908	0.02830173
120	0x3cd31336	0.025765996
121	0x3d17c210	0.037050307
122	0x3b9dc394	0.0048145745
123	0xbd105c88	-0.035244495
124	0xbbaa2d45	-0.005193385
125	0x3d84b8db	0.06480571
126	0x3bce23ea	0.0062909024
127	0x3d2ae1ea	0.041719355
128	0xbc4fa9b9	-0.012674742
129	0x3d0a0b9a	0.03370247
130	0x3d97c159	0.07409925
131	0x3d98edb0	0.0746721
132	0xbcf90088	-0.030395761
133	0x3d532164	0.051545516
134	0x3d46c42e	0.048526935
135	0x3ace4e79	0.0015739939
136	0x3cb42068	0.021988109
137	0xbb0902b6	-0.0020906157
138	0xbd6c2881	-0.057655815
139	0x3b9c9ae2	0.0047792057
140	0x3b565448	0.0032704044
141	0x3ca76bc6	0.020437133
142	0xbc0ac835	-0.008470585
143	0xbbd8b2c7	-0.006613109
144	0x3b9f28f4	0.004857177
145	0x3cde9e58	0.027175114
146	0xbd41816d	-0.04724257
147	0xbd3b5dfa	-0.04574392
148	0xbd7d1bca	-0.06179408
149	0x3b901be0	0.004397854
150	0xba638724	-0.00086795003
151	0xbb02e7e0	-0.0019974634
152	0xbc3fa50c	-0.011697065
153	0x3ca9de6a	0.020735938
154	0xbbe2c0df	-0.0069199647
155	0x3c067176	0.008205762
156	0x3cf3a426	0.029741358
157	0x3cb73dee	0.022368398
158	0xbd4787a5	-0.048713345
159	0xbb26494f	-0.0025373285
160	0x3ca6b3b3	0.02034936
161	0xbcc57c91	-0.02410725
162	0x3cc10241	0.023560645
163	0xbc80f1d8	-0.01574032
164	0xbd4d09ed	-0.050058294
165	0x3d5daa33	0.054117393
166	0x3acc66ff	0.001559466
167	0xbd436918	-0.047707647
168	0xbc5534ac	-0.013013046
169	0xbc95f2ff	-0.018304346
170	0xbd32803c	-0.043579325
171	0xbc7fd6b3	-0.015615153
172	0xbd50cb00	-0.050974846
173	0x3ce4a464	0.027910419
174	0xbd42d826	-0.047569416
175	0x3c8397fe	0.016063686
176	0x3c7f301f	0.015575438
177	0xbbe22ec2	-0.0069025466
178	0x3c059408	0.008152969
179	0x3d35de2c	0.044401333
180	0x3c361266	0.011112785
181	0x3d02d4be	0.031941168
182	0xbbaede51	-0.005336561
183	0x3d17da79	0.037073586
184	0x3c7f94e5	0.015599464
185	0xbd41003c	-0.047119364
186	0x3d640f49	0.05567864
187	0x3bb37507	0.005476597
188	0x3cd0403b	0.025421252
189	0x3d644a92	0.05573518
190	0xbcafb28a	-0.021447439
191	0xbcedf34c	-0.029046677
192	0xbc651ff9	-0.013984674
193	0x3d925875	0.07145778
194	0x3d1ab428	0.037769467
195	0xbd25b2d0	-0.040453732
196	0xbd3acdd9	-0.045606468
197	0xbd307e1b	-0.043089014
198	0x3c301eba	0.010749513
199	0x3db0cfa9	0.08633358
200	0x3da8c014	0.08239761
201	0x3d3833e3	0.044971358
202	0x3c8e8083	0.017395264
203	0x3d023738	0.031790942
204	0xbc566f41	-0.013088048
205	0xbc37faaf	-0.011229201
206	0x3d5b66a4	0.053564683
207	0x3c90d1bc	0.017678134
208	0x3d12410f	0.035706576
209	0xbd33fb7b	-0.043941002
210	0x3bfb79a2	0.007674412
211	0x3d64c655	0.055853207
212	0x3cc7e6c5	0.024402032
213	0x3d3b6b20	0.04575646
214	0x3d36cdd2	0.04462988
215	0x3c58a6e0	0.01322338
216	0x3d07cb4b	0.03315286
217	0xbc8b9d88	-0.01704289
218	0xbc80ed81	-0.01573825
219	0xbce192a5	-0.027535746
220	0x3c5d0f41	0.013492406
221	0x3c18f8ef	0.009336694
222	0x3d10440c	0.035221145
223	0x3af99df7	0.001904427
224	0x3ce59d97	0.028029246
225	0x3cd6ee07	0.026236547
226	0x3d501f4c	0.050811097
227	0xbd26c5b9	-0.040715907
228	0xbd5038a5	-0.05083527
229	0x3d0ea2a7	0.034823086
230	0x3ccf8a20	0.025334418
231	0xbcc2c738	-0.023776636
232	0x3c8a29fc	0.016865723
233	0xbb3ec56f	-0.0029109379
234	0x3c3e7a13	0.011625784
235	0x3d0513b2	0.032489486
236	0xbc9b5b33	-0.018964386
237	0xbd29622c	-0.04135339
238	0x3c71f191	0.014767067
239	0xbce5f94e	-0.02807298
240	0x3c75a0b2	0.014991926
241	0xbcf8b26d	-0.030358518
242	0x3d31d687	0.04341748
243	0x3cf5590b	0.029949686
244	0x3d83bd53	0.06432595
245	0x3d97fb03	0.074209236
246	0x3d324ab3	0.04352827
247	0x3d6349de	0.055490367
248	0x3df0aa29	0.117512055
249	0xbdab5a36	-0.08366816
250	0x3bcc951a	0.00624336
251	0x3c8908ac	0.016727768
252	0x3dd04a28	0.10170394
253	0x3d4cc520	0.04999268
254	0x3e0e56c5	0.13900287
255	0x3d5490e8	0.051896006

module.conv_6.bias f4 [12]
0	0x3d1042d8	0.035219997
1	0x3b86f639	0.0041187075
2	0x3d3f2a86	0.046671413
3	0x3d096a2e	0.033548526
4	0x3b9014e4	0.0043970216
5	0x3d11fb57	0.035640087
6	0xbd55ad64	-0.05216731
7	0xbb71c261	-0.003688954
8	0xbb2f2d66	-0.002672994
9	0x3d193cc2	0.03741146
10	0x3affe9cf	0.0019524636
11	0x3d174098	0.036926836
