model2/FSRCNN3D_epoch_30.pth (torch, 265262 bytes, 15 tensors)

module.conv_1.weight f4 [56, 1, 5, 5, 5]
00000000: 4552 173d 9584 923d 6b42 4f3d 0825 aabb
00000010: c2b7 cb3c 1e4c b33d 4a6b 823d 0bcb 68bd
00000020: cc94 803c 88e8 8ebd 71e0 99bd 7c90 8a3d
00000030: 1e3f cf3b 3316 cb3c f840 873d 8b90 4abd
00000040: d688 a33d 0a24 8bbd 41fb 7e3c 9b02 fcbc
00000050: 10e0 f3bc c9ae 8bbb a32d 8a3d 1bf8 80bc
00000060: ddaf 71bd cf80 56bd 9a17 2b3d 7c7c a43d
00000070: 5464 8c3c 3d42 a0bc 54b9 983c c89a 343d
00000080: 971e d9bc 0c73 a3bd 97fa 42bd 39c0 bcbc
00000090: 623c 323c 238e 833d 3d04 a03d 8e0e 05bd
000000a0: 09d5 423d 9ca4 79bd 4a12 8fbd 5e57 823d
000000b0: d389 35bd f2b6 3c3d 1b9d 8cbd e122 283d
000000c0: 4d7c d83c cdfa ebbc 3533 aebd 8022 f4bb
000000d0: ac7c 7abd 24b3 33bd bd5d 6a3d c4e3 8d3c
000000e0: 98e9 a9bd cb04 153d 5336 9dbd 0130 933d
000000f0: 411d 9dbd f14e 8e3c ae20 ef3c cbe5 5bbd
00000100: 2883 8e3d 6b2b b63d bc49 d33b 795b f23b
00000110: 4761 913d 0749 4b3d e81a 81bd c41c 53bd
00000120: 4172 cebc e1e7 8a3d b4e6 873d 4ecd 93bd
00000130: c9c6 18bd 66a6 93bd b468 8e3c 954e 55bd
00000140: 8103 4bbd 7549 afbd 6bc5 653d fb7c 013d
00000150: 6c54 72bd 7794 b23d 20c3 3bbd 6b2d 4d3d
00000160: 30fb 523d 0d17 a93d a3f8 01bd 044e af3d
00000170: 0b67 8ebd 6641 3a3d c62b 0a3d bc66 12bd
00000180: 1686 2fbc ec05 6c3d abda 8bbd a10d 84bd
00000190: 5eaa b63d deaf 3b3d c233 9fbc b5aa c03d
000001a0: 4d07 8f3d 5a94 853c b192 2f3d 90b1 bc3d
000001b0: 2a48 0bbc fd46 d63b a975 9b3c 449c 1abd
000001c0: 167a b43c c30e 9e3d b810 18bd 680a 65bd
000001d0: ffb0 543d 9052 a73d 8be3 9e39 c677 f9bc
000001e0: bbd0 6bbd fb79 48bd 3b43 7d3d 29b0 363d
000001f0: c4cc 533d 0261 29bd 9c8b e83c 23d6 4f3d
00000200: 9ef7 1abd a776 4d3d 3d39 26bd c13e efba
00000210: 9f5e dc3b 7f60 f03c e84f 3cbd 8592 74bd
00000220: 62e8 22bd 766b 6e3d 60a3 5b3c c6c6 003d
00000230: 4a1e a03d 3b37 01bd 0f94 a7bd 0dd4 e13b
00000240: fb39 a3bd 50a0 b5bd daca 88bc 3f1f 953d
00000250: e1ed 873d 0406 38bd da5e 2cbd d251 f83c
00000260: b759 0f3d efcd 91bc 4801 2c3d 940c 1ebd
00000270: 2ffe 6f3d ed1e 323d 69ad f6bc 055b 613c
00000280: 76a9 54bd 2a95 673d 3db9 c3bc 1c0e 483d
00000290: 3575 603c 4677 73bd fee2 163d cef0 2f3d
000002a0: 335d ee3c 4743 1a3c 6b15 b6bd 3d7c 38bd
000002b0: cfc7 9a3d 05f5 4fbd 2cdc e8bb 4a10 ffbc
000002c0: 8ff4 22bc 6442 d8bc 6558 1d3c 9934 a33d
000002d0: b1be 6d3c c8b9 c0bb 8048 b93c a606 a3bb
000002e0: 1845 debc 31a7 e8bc 8a6d ca3b dd35 9dbd
000002f0: 4d3b eabc f7dd b6bd 77d9 7b3d e728 c73c
00000300: ffb5 11bc b1cf 1a3d f4ea 193d cb42 843d
00000310: ce66 733d c46a 783d 86f8 cabc 2104 bcbd
00000320: 6a1c ec3c df20 173d 8a5f 2fbd 9fa4 613d
00000330: ab8f e8bc de0f 493d 8010 853d 1191 a63c
00000340: 75f0 d7bc 96fc ba3c e2f7 e03c 0566 a93d
00000350: 9606 a5bd 8303 84bd b0d7 cbbc f4bf 1fbd
00000360: 5279 493d 05fe 43bd 175d 6a3d b44c 39bd
00000370: a5a5 3e3d efee 4e3d 49f4 92bc be3a 81bd
00000380: fb9e e83c 8b79 84bd 7ce2 44bd 0def eb3c
00000390: d369 353d 4bbf 98bd 53a6 33bd 004e 13bd
000003a0: 06b1 243d c6e9 78bc 074f b1bd 01de 39bc
000003b0: b152 363b b490 bebd b815 e13c dc70 3d3d
000003c0: 3d12 093d 2de1 af3b b877 0ebc 5db3 09bc
000003d0: 92c2 65bd cde8 99bd ba44 bf3c 3ad6 8cbd
000003e0: af50 65bd 3f63 3ebd 86dd 1a3c ea39 1cbd
000003f0: 7541 abbb 5dd8 b63d 1780 8dbd b304 07bd
0.036943693 0.07154194 0.05060045 -0.0051924028 0.024867896 0.087547526 0.0636812 -0.056834262
0.015695952 -0.069779456 -0.07513512 0.067658395 0.006324663 0.024790859 0.06604189 -0.049454253
0.07985084 -0.06793983 0.015562833 -0.030762961 -0.029769927 -0.0042627794 0.06746986 -0.015743306
-0.059005607 -0.052368935 0.041770555 0.08031556 0.017137684 -0.019562835 0.018643059 0.044092923
-0.026503844 -0.07980928 -0.047602262 -0.023040878 0.010878654 0.06423595 0.078133084 -0.032484584
0.047566447 -0.060948 -0.0698591 0.0636432 -0.044320893 0.046072908 -0.06865903 0.041048888
0.026426459 -0.028806115 -0.08505861 -0.007450402 -0.061154053 -0.043872014 0.057218302 0.017320521
-0.082965076 0.036381524 -0.07676377 0.071868904 -0.07671595 0.017371627 0.029190388 -0.053685945
0.0695861 0.08895 0.006447999 0.0073961583 0.07098632 0.04963019 -0.0630396 -0.051541105
-0.025200965 0.06782509 0.066358 -0.07216893 -0.03729895 -0.07209472 0.01738391 -0.052076895
-0.04956389 -0.08558933 0.056096476 0.03161333 -0.059162542 0.08719724 -0.045840383 0.050092142
0.051509082 0.0825635 -0.03173126 0.08559802 -0.06953248 0.045472525 0.03373315 -0.035742506
-0.010713121 0.057622835 -0.06828817 -0.06447912 0.08919214 0.045822017 -0.01943386 0.0940756
0.069838144 0.016306091 0.042864505 0.09213555 -0.008501092 0.006539224 0.018977003 -0.037746683
0.022030871 0.07717659 -0.03712532 -0.055918127 0.05192661 0.081700444 0.0003030564 -0.03045262
-0.057572108 -0.048944455 0.061831694 0.044601593 0.05170895 -0.04135228 0.028386883 0.050741326
-0.037833802 0.050161984 -0.04058193 -0.0018252955 0.006725147 0.029342888 -0.045974642 -0.059710044
-0.0397724 0.05820795 0.013405651 0.031439565 0.07818277 -0.031546813 -0.08182537 0.0068917335
-0.07970043 -0.08868468 -0.01669829 0.0728135 0.06637169 -0.044927612 -0.042082645 0.030312452
0.034997668 -0.017798392 0.04199341 -0.038586214 0.058592018 0.043486524 -0.030111985 0.013754611
-0.051919423 0.05653874 -0.02389204 0.04884158 0.013699819 -0.05943992 0.03683757 0.04295426
0.029097175 0.009415454 -0.08890804 -0.045040358 0.07557642 -0.05077078 -0.0071063247 -0.031135697
-0.009946003 -0.026398845 0.009603594 0.079690166 0.014510796 -0.005881522 0.022617579 -0.004975158
-0.027132556 -0.028400036 0.006177609 -0.07676289 -0.02859273 -0.08929055 0.061486688 0.024311496
-0.008893489 0.037795726 0.037577584 0.06458052 0.059424214 0.060648695 -0.024776708 -0.09180475
0.028822143 0.036896583 -0.042815723 0.055088636 -0.028388819 0.049087398 0.06497288 0.020332845
-0.026359776 0.02282552 0.02746195 0.08271412 -0.08057897 -0.06445982 -0.024883121 -0.03900142
0.049187966 -0.047849674 0.057217684 -0.045239165 0.04654469 0.050520834 -0.01793875 -0.06310032
0.02839612 -0.06468495 -0.048067555 0.028800512 0.044290375 -0.07458361 -0.04385979 -0.03596306
0.040207885 -0.015192455 -0.086576514 -0.011344434 0.0027820284 -0.09304944 0.027476177 0.04625021
0.03346466 0.005367419 -0.008695535 -0.00840458 -0.05609376 -0.07515106 0.023348201 -0.06876798
-0.05598515 -0.046481367 0.009452229 -0.03814117 -0.005226309 0.08927987 -0.06909197 -0.032963466

module.conv_1.bias f4 [56]
00000000: 2aa8 383c e111 163c abba f73c b5f8 613c
00000010: dab0 393d abcf 5f3d ccc2 45bd 9811 133d
00000020: 4816 9cbc e96f 7e3d d25c 27bd b4ec 993d
00000030: 813a 3ebd ddaa c53c 1163 7a3d 2b6d bf3c
00000040: ba23 95bc a6bb 9d3d cff4 b9bb 207b 843c
00000050: c26d c4bb 4e7b a43d 2df7 f73b b299 a4bd
00000060: c8dc b2bc 9a82 1bbd d6b9 cb3d 4b29 4f3d
00000070: 8ab9 1eb9 92c7 a0bc 8b6d 4cbb b5a0 da3c
00000080: 6f8d 9b3d 7597 923d d307 04bd f2c7 4fbd
00000090: 0eb2 313d f35f 403c f228 40bd c1dc c9bb
000000a0: c039 9cbd 4b4e 15bd 4b27 99bd 99fe a0bd
000000b0: 9907 de3c 9a19 7abc a052 0ebd 653b 95bd
000000c0: 1fbf 993d 0e24 1e3d 4b76 bcbb 0de7 133b
000000d0: 9036 94bc 2547 2a3d 7c44 61bc 866d 743c
0.011270562 0.009159536 0.030240377 0.0137922065 0.045334674 0.054641407 -0.048281476 0.03590545
-0.019053593 0.062118445 -0.040860005 0.07515851 -0.046442512 0.024129326 0.061129633 0.023367485
-0.018205512 0.07701807 -0.0056749354 0.016171992 -0.0059945295 0.08031331 0.0075673074 -0.080371276
-0.021833792 -0.03796635 0.09947555 0.05057649 -0.00015137173 -0.019626413 -0.0031193222 0.02668796
0.07595336 0.071577944 -0.032234024 -0.050727792 0.043382697 0.011741626 -0.04691405 -0.006160349
-0.076282024 -0.03645162 -0.07478198 -0.07861061 0.027103232 -0.015264893 -0.034746766 -0.07286719
0.075071566 0.038608603 -0.0057514063 0.0022568137 -0.018092424 0.041571755 -0.013749238 0.014918691

module.conv_2.weight f4 [12, 56, 1, 1, 1]
00000000: 2ae4 023c 43e1 e73b c920 75bc b0d2 26bd
00000010: 9ebb d53d 3e56 fa3d 0238 6f3d 87b2 df3d
00000020: ac47 a53d 42b6 f93d 87f7 c4bd fd5b e73d
00000030: 3c96 5cbd 4383 b73c 777d 983d 0cab 05bc
00000040: 2f2f b53c 0849 ec3d 2887 413c 9a14 3a3c
00000050: 5a88 923d c9b5 4e3d 58ed 47bd 1073 02bd
00000060: 6f96 023e fb7c cfbd 914d d73d 2763 ed3c
00000070: 6b0e c9bd 0762 d1bb 745a ed3c ea69 84bc
00000080: 1ab6 e13c f799 b13d 08ea 54bd 0abf 573d
00000090: 4004 5bbd 92f5 173d 9947 c9bd 06e0 37bd
000000a0: 247b 8f3d 23e1 f53d d842 9c3d 5a1c a93d
000000b0: c040 5ebd b71b c03d 266a 5b3d f76b 09be
000000c0: 9b7d e13d 189c c7bd bd49 07be 6ae8 283d
000000d0: 6868 04be c745 173e f3aa 8f3d e474 f53d
000000e0: 5937 0d3e b744 debc d16e 89bd 1257 82bd
000000f0: 7f38 e5bc 1d82 9f3d 54f9 fa3d bf1e af3d
00000100: ecc6 25be 85ab ec3d 3d6e fbbd 3828 74bd
00000110: 0cda cabc 525d 58bc 8531 1c3d 7be8 52bd
00000120: 1adb f0bc b354 b83d d0bf 5b3d 1832 ef3d
00000130: 6992 03be 2a33 84bd 5eae 6ebd 73ba 053d
00000140: 11cb 4cbd 71cc 0dbe 544d babd 1e65 7f3d
00000150: 5671 59bd dfcc 223d 7e73 0f3e b029 91bc
00000160: 0dad 02be a866 133d fd89 bf3c c7ac 0b3e
00000170: 8b94 943d 99c6 923d 4559 eabd 9928 7dbd
00000180: aff1 143c 6a86 803d 080a b33d 85df eabb
00000190: 5ef4 93bc 6a13 963d 7362 0fbe b16c 043e
000001a0: 4cfa 403d 1d9a b93d 97fb 253d 9f03 cabd
000001b0: 1d49 01be 1246 6a3d 20e1 8139 c8a6 853d
000001c0: 60ca cbbd 5b72 233c e663 01be e619 ab3d
000001d0: 6599 91bd 0d7a b0bd d77f b9bd b32e f83d
000001e0: 6bc0 dabd 98bf cbbd 59e4 03be e16e e83d
000001f0: b080 14be 8ee2 94bd 8f1b 813c 1d2e 2a3d
00000200: d783 dfbd 7c57 793d 7eda 10be 04fc 70bd
00000210: 720f d2bc 7624 543d 63a1 513d b96f d73d
00000220: e9dd d53d 27bd 13bd 95a7 723d 5758 4ebd
00000230: f254 f0bd a062 f7bd 1770 283d e52f b7bd
00000240: 0f98 43bc 0344 093e cd99 07bd 42c7 32bd
00000250: add8 c33d 8b89 d9b8 94d3 f8bd fca0 c83d
00000260: 7709 01bd 89cc 9abd b26f 133c a505 82bb
00000270: be7b 9839 9a7a 603d 29bd 52bc 0c74 a43d
00000280: 35d5 0f3e 16ff d03d 97db 44bd b2a9 3fbc
00000290: dbd1 aa3d baf7 38bd f53d 083e 4acc ad3b
000002a0: d61b 923d 62b5 d9bd 314c 9f3c f731 573b
000002b0: 5c2d fc3d 86fd 6abd abf9 60bd b86e 2abd
000002c0: 5958 c5bd 5d14 81bd 260f d83d 2ffe 80bd
000002d0: ef31 f4bd 7d20 6b3d d49c 0ebd 6e67 c13d
000002e0: 567f 12be 8c93 45bd b898 663d 7423 f3bd
000002f0: 9960 50bd 01b3 193e 467a b13d 3a48 0c3e
00000300: e6ef e83d 83cf e53d 98ad 1abe 7168 ed3d
00000310: f80c 093d 01af bbbd 79fc c2bd e363 d0bd
00000320: 65c7 dbbd c524 b33b dde3 2b3c fa07 0a3e
00000330: f1b0 e1bb 2f9c 0bbe 60f9 f4bd 232c 6cbd
00000340: 9083 183e 8c02 cb3c 9f00 bfbc c42f a0bb
00000350: 6c4f c3bd fe2b 8d3d d71f 90bd bf01 25bd
00000360: 72ea 313d 1a7f 9a3d 073d 40bd 4286 703d
00000370: bf3e 9c3d 3cd3 3b3d 922c 32bd f579 fabc
00000380: ab16 c3bc 0d1e 8cbd 5e8d 2f3a cbe2 243d
00000390: b993 c6bc bc43 8d3d d00b 823d 5542 e83c
000003a0: db70 23bd b7eb cb3c 0451 9c3d 8444 043d
000003b0: 5d87 50be 9292 5cbd 02f3 8e3d a0dd 473d
000003c0: 8794 0c3d 36d6 90bd f561 113d efca ba3d
000003d0: faea 72bd c0a7 a83d d8e8 7f3d 0962 043d
000003e0: 404a b83d acb1 533d c6e7 cabd 576d ab3d
000003f0: d838 1fbd 4548 c03d b950 0b3d 713d 0bbd
0.007988969 0.007076414 -0.01496143 -0.04072827 0.10436176 0.12223481 0.058403023 0.10922723
0.08070311 0.12192966 -0.096175246 0.11296842 -0.053854212 0.022401458 0.074458055 -0.0081584565
0.022117225 0.11537367 0.011812009 0.011357451 0.07154913 0.050466333 -0.048810333 -0.031848013
0.12752698 -0.1013126 0.105128415 0.028977944 -0.09817203 -0.0063898596 0.028973795 -0.016163785
0.027552653 0.086719446 -0.051981002 0.052672423 -0.05347085 0.03709943 -0.09828109 -0.04489138
0.07005909 0.12005832 0.07629937 0.08257361 -0.05426097 0.09380286 0.053568028 -0.13420092
0.110102855 -0.097465694 -0.13211723 0.041237272 -0.12930453 0.14772712 0.07015028 0.11985186
0.13790645 -0.027132375 -0.0671059 -0.063642636 -0.027981041 0.07788489 0.12254587 0.08550786
-0.16189164 0.11556152 -0.12276886 -0.059608668 -0.024762176 -0.013205843 0.038133163 -0.051491242
-0.02940135 0.0900053 0.053649724 0.116794765 -0.1284882 -0.06455071 -0.05827176 0.032648515
-0.049998347 -0.1384752 -0.090967804 0.062352292 -0.0530866 0.03974616 0.140089 -0.017720073
-0.12761326 0.035986573 0.023381228 0.13640128 0.07254895 0.07166786 -0.11442808 -0.061806295
0.009090825 0.062756374 0.08742148 -0.007167759 -0.01806086 0.07327922 -0.14002399 0.12932087
0.0471137 0.09062598 0.040523138 -0.09863972 -0.12625547 0.05719573 0.0002477253 0.065259516
-0.09950709 0.009975995 -0.12635764 0.08354549 -0.07109336 -0.08617029 -0.09057587 0.12118282
-0.10681232 -0.09948653 -0.12880076 0.113492735 -0.14502215 -0.072697744 0.015760211 0.041547883
-0.10913818 0.060874447 -0.14145848 -0.05883409 -0.02564213 0.051792584 0.0511793 0.10519356
0.10442717 -0.03606906 0.05924185 -0.050377216 -0.11734952 -0.12079358 0.041122522 -0.08944682
-0.011938109 0.1340485 -0.03310566 -0.04364706 0.09562812 -0.00010372986 -0.1214973 0.0979633
-0.031503167 -0.07558543 0.008998798 -0.003967958 0.00029083894 0.054804422 -0.012862482 0.08029947
0.14046176 0.10204904 -0.04806098 -0.011698173 0.08340808 -0.045158125 0.13304885 0.005303894
0.071342155 -0.10630299 0.01944551 0.0032836178 0.12313339 -0.057370685 -0.054925602 -0.041609496
-0.096359916 -0.06302712 0.10549764 -0.06298482 -0.119235866 0.05740403 -0.03481753 0.09443556
-0.14306387 -0.048236415 0.056297988 -0.118719965 -0.050873373 0.15009691 0.086659 0.13699427
0.11373882 0.1122122 -0.15105283 0.11592186 0.033459634 -0.09164239 -0.095208116 -0.10175302
-0.10731391 0.0054670298 0.010491339 0.13479605 -0.006887548 -0.13633798 -0.11961627 -0.05765928
0.14893937 0.024781488 -0.023315726 -0.0048885066 -0.09536633 0.068931565 -0.07037323 -0.04028487
0.043436475 0.07543774 -0.0469332 0.05872179 0.07629155 0.045855746 -0.043499537 -0.030575732
-0.02381452 -0.06841669 0.00066967856 0.04025535 -0.024240362 0.06897685 0.06349909 0.028351942
-0.03990255 0.024892671 0.0763264 0.032291904 -0.20364137 -0.053850718 0.06979944 0.048795342
0.034321334 -0.070721075 0.03549381 0.09120738 -0.059306122 0.08235121 0.062477916 0.032320056
0.08998537 0.051683113 -0.099074885 0.08370464 -0.03887257 0.09388784 0.03401253 -0.033994142

module.conv_2.bias f4 [12]
00000000: 03e8 743d f2a5 dd3d 6ad9 c3bc 091b c6bd
00000010: 8e60 6c3d 531f b1bc 1cfb 97bd ba0a 013e
00000020: 7f08 c7bd 0679 623c adde 1b3d edbd b93d
0.059791576 0.10822667 -0.023907382 -0.09673125 0.05770927 -0.021621382 -0.07420942 0.12601748
-0.097184174 0.0138228 0.038054157 0.090694286

module.conv_3.weight f4 [12, 12, 3, 3, 3]
00000000: a940 61ba 635f 023c fb9e 58bc 93dd 2abd
00000010: 5eab e33c 15b1 eb3c 77e8 05bd 445b b63c
00000020: 85f0 1d3c 9bc0 ccbb 29cb 52bc 46b6 79bc
00000030: ba8c 593c 3d47 993b a35c 1e3b e819 2fbd
00000040: 8900 593d 056a be3c 6d1f d3bc 6557 9fbc
00000050: 27ca 2ebd ad98 5e3c a8ae 71bc c52f d6bc
00000060: 1820 7a3d 3301 553d 4857 683c e1d1 d6bc
00000070: 7eb2 073d 4e3c 9a3c 5c13 3b3d 158d d63c
00000080: b26b 05bd fff7 0bbd daf0 813c 8f1c 47bd
00000090: 7b92 d7bb 02fd aa3c 4d9a 18bd 5f9c 3a3d
000000a0: 7688 0a3d 1f12 403b 8313 18bc e3d4 6d3d
000000b0: fab1 85bc cb1c 103d a8a9 18bc 4843 41bd
000000c0: 1d06 44bd a36e 193c 53a3 2f3d 6d85 db3b
000000d0: b121 75bc 22de 17bd c334 de3c a10b a93c
000000e0: 635b 1abd d6c0 323b cb07 dd3c 1cbd 2ebb
000000f0: f455 2dbd c866 77bc 10a3 273c 3996 6c3c
00000100: 31a6 f73c f227 563d 758e 08bd 67c2 24bd
00000110: 18c6 01bc 8309 9b3c 4640 463d 115d 3dbd
00000120: 7467 063d 487b 1bbd 525c 04bd b100 d03b
00000130: 8180 25bc a16a 0c3d 3794 ba3c 36ca 30bd
00000140: 6cac 043d 3fc3 6fbd f592 fabc a1e0 123b
00000150: d47e 9d3c a45b 23bc 4c4b fc3b 33c5 1dbd
00000160: 8feb 1ebd d6bc a8bb 85ab 54bd 0691 27bb
00000170: 3c0d 7d3b 075f 47bd bc89 92bc 53ae abbc
00000180: 2f89 87bd fc3c c2bd 41b5 e7bc 1770 74bd
00000190: c5d9 39bd f5d1 5ebc 07ee a2bc f4a2 1fbb
000001a0: 1d50 473c cb30 f43c 3e58 d1bc 1bb0 d63c
000001b0: 8075 d63b a49f 543d 7d01 5c3d b651 673d
000001c0: 97c9 64bc 66f0 fd3c 09dd eb3c 1017 2abc
000001d0: 1e71 553c 0066 1f3d 5917 c6bb fda8 2cbd
000001e0: b266 853c fe69 38bd 276a bd3c 1f26 983a
000001f0: 272e 2b3d ca3c df3b 4287 e43c 168c 07bd
00000200: e2d9 f13c 1da6 2e3d 7299 e8bc d628 91bb
00000210: 19f5 643c c1c5 863c 547e a8bc 220e 4d3c
00000220: 0843 8ebb eacd fe3c fe56 86bb bb90 fbbc
00000230: 275f babc a979 23bd 0cc3 0c3d 926f adbd
00000240: d4e5 2e3d 8aa1 583d e136 203d e3dc 923c
00000250: 8211 103c e09e ba3b 11c5 75bd 4d14 30bd
00000260: a91f 0f3c b50a 9b3c ba8e 8d3b ae9c b5bc
00000270: 4a41 1ebd f516 6cbd 4752 263b 81ec dcbc
00000280: c310 72bd 80ca 35bb 1fce 2abd 62c2 d53b
00000290: 12c4 acbc e683 f23c 5335 603d 6b23 653c
000002a0: a09f 893c df08 483d 6731 a63c 72e1 2dbb
000002b0: 9b9a 253d 207d d0bc 525a e43c 2863 1f3c
000002c0: a43e b7bc db54 4ebd 1df1 4cbd deaa 4dbd
000002d0: 5b8b c3bb db8d 2f3d 372e 1c3d 41c8 f8bb
000002e0: 9f3e fa3c 6739 d93c 70dd 093d c8d2 95bc
000002f0: 8ea4 5c3d f21e c83a b4e7 c73b c523 413b
00000300: 1112 f13c a037 fdbc 0ab6 813c 860e 673c
00000310: e748 143d 5253 54bc 64f7 953c af53 8fbb
00000320: 82bd b93b 2049 e2bc 6487 18bd d9ae 1e3d
00000330: 281f 493d fcd8 f93c bcfa 4c3d 947b 5b3d
00000340: ef28 50bd 64d5 9cbc 766c 0d3c 4a1b 4a3d
00000350: 09fd dc3c 3c34 2e3d 1f8f 6d3d c776 cd3c
00000360: ce4f 88bc e90e 32bd 0bd9 4f3d e41e 44bb
00000370: 62b4 3fbd 8e98 3c3d 8714 25bc 92b5 dfbc
00000380: 8e7f 1ebd 4ddb 10bd cb15 36bd 9d8b 423d
00000390: 2044 83bc 64f5 e9bb 4eb9 383d e455 08bc
000003a0: e75c 4a3d 19cd 8f3c 4d35 5bbd 5419 1cbd
000003b0: d54c 6ebc 6b44 e9bc b4d8 39bd 595e 36bd
000003c0: 9d6a 043d e0b3 0c3d 879c 0abd 8d15 76bc
000003d0: 88de 8a3c d0da 20bd e9fd 49bd c6e3 aabc
000003e0: de3f fabc 3334 abbc 4c4c fabb 4e58 b53c
000003f0: 9aa5 66bc 13c9 db3c ac47 44bd f348 6abc
-0.0008592704 0.007957312 -0.013221498 -0.041715216 0.027791675 0.028770963 -0.0326924 0.022260316
0.009639864 -0.0062485463 -0.01286582 -0.015241211 0.013278181 0.0046776817 0.0024164103 -0.042749316
0.052979026 0.023243913 -0.02577182 -0.019450853 -0.042673256 0.013586205 -0.014751114 -0.026145825
0.061065763 0.052003097 0.014180966 -0.026223125 0.033129208 0.018827584 0.04567276 0.02619032
-0.03257341 -0.034172054 0.015861917 -0.04861122 -0.006578741 0.020872597 -0.037256528 0.045559283
0.033821546 0.0029307676 -0.009281996 0.058064353 -0.016320217 0.03518371 -0.009317793 -0.047183305
-0.047857393 0.009364757 0.042880367 0.006699255 -0.014961646 -0.037077077 0.027124768 0.020635428
-0.03768481 0.0027275584 0.026981255 -0.002666301 -0.0423183 -0.015100189 0.010231748 0.014440113
0.030230613 0.05228419 -0.033338983 -0.04022446 -0.007920764 0.018925434 0.04840114 -0.046231333
0.032813504 -0.037959367 -0.032314606 0.0063477387 -0.0101014385 0.034281377 0.022775752 -0.043161593
0.032390997 -0.05853581 -0.030587653 0.0022411721 0.019225515 -0.009970579 0.007699406 -0.038518142
-0.038798865 -0.005149464 -0.051921386 -0.0025568618 0.0038612625 -0.04867461 -0.017887942 -0.020957148
-0.066179626 -0.09484288 -0.02828467 -0.05967721 -0.045373697 -0.013599862 -0.01988889 -0.0024358602
0.012165097 0.029808423 -0.025554772 0.02620702 0.006544769 0.051910058 0.053712357 0.05647441
-0.013964078 0.03099842 0.028791921 -0.010381475 0.0130274575 0.038915634 -0.0060452637 -0.042153347
0.01628432 -0.045022957 0.023121906 0.0011608041 0.04179206 0.0068126665 0.027896527 -0.03309258
0.02952284 0.042638887 -0.02839348 -0.004429917 0.013974451 0.016451718 -0.02056805 0.012515577
-0.004341487 0.031104047 -0.0040997257 -0.030708661 -0.02275045 -0.039910946 0.0343657 -0.08468546
0.04269965 0.05288843 0.039114837 0.017927593 0.008793237 0.005695209 -0.06000239 -0.04298811
0.008735576 0.018926004 0.004319993 -0.022169437 -0.038636483 -0.05763908 0.002537863 -0.026968243
-0.059098016 -0.0027739108 -0.04170048 0.0065234164 -0.021089587 0.02960391 0.054738354 0.013985495
0.016799748 0.048836585 0.020287229 -0.002653208 0.040430646 -0.02545029 0.0278751 0.009728231
-0.022368737 -0.050373893 -0.05003463 -0.05021178 -0.00596754 0.042859893 0.03813001 -0.0075922315
0.030547438 0.02651663 0.033658445 -0.018288985 0.05386787 0.0015268011 0.006100619 0.0029470783
0.02942756 -0.030910313 0.015833873 0.014102584 0.036202338 -0.012959318 0.018306442 -0.0043739895
0.005668343 -0.02762276 -0.037238494 0.038740966 0.04910198 0.030498974 0.050043806 0.05358465
-0.050820287 -0.019144721 0.008631816 0.04934243 0.026976125 0.042530283 0.05799782 0.025081052
-0.016639616 -0.04347125 0.050744098 -0.0029925639 -0.046802886 0.046043925 -0.010075695 -0.02730826
-0.038695864 -0.03536539 -0.044454377 0.047496427 -0.016023695 -0.0071398485 0.045098595 -0.008321259
0.049405005 0.017553853 -0.05351763 -0.038110092 -0.014544685 -0.028475007 -0.04537268 -0.04452357
0.032328237 0.03435123 -0.033840682 -0.015019787 0.016951814 -0.039271176 -0.049314413 -0.020860564
-0.030548032 -0.020898914 -0.00763849 0.022136834 -0.014077568 0.026829278 -0.047919914 -0.014299619

module.conv_3.bias f4 [12]
00000000: 89f8 43bd c2ef 613d f272 2a3b b726 0c3d
00000010: f4f6 a63c dbef 00bd 2cc8 44bd 11ce 52bc
00000020: 00c9 62bd 1bda e13c 3153 633d 4dc8 073d
-0.047844443 0.05516029 0.0026008454 0.03421661 0.020381428 -0.031478744 -0.04804246 -0.012866513
-0.05536747 0.027569821 0.05549926 0.033150006

module.conv_4.weight f4 [12, 12, 3, 3, 3]
00000000: 25d8 b33c 68b8 0dbd d5b1 3fbd 41b9 34ba
00000010: 0837 0f3c 882e 173d a49e adbc 89fa 8ebb
00000020: ff87 803c 23e0 fa3c 7465 63bd 6054 0c3d
00000030: 08d5 843c be6f 65bd d8ec 523d 84d4 58bd
00000040: 3662 f8bc b7c7 d73c 879a 15bc 93af 5f3b
00000050: e36c 863a 0696 3e3d 8975 b9bb 58b0 5abd
00000060: 26f3 60bd 6aaf 4cbd d8fd cabc 784c 14bd
00000070: 1aea 00bd 66ac 33bd f067 763d efc1 093c
00000080: 7485 e1bc 0c97 1a3d 9522 793d e5cb 273d
00000090: b20b 1abd 4e10 e43b 101c 5bbb 4fe8 303d
000000a0: 2c37 863d 5bd1 11bd 7e5e 403d 85df f3bb
000000b0: 0acc 31bb 87ce 5d3d e03b 2f3d 9305 393c
000000c0: d820 4b3d d455 d5bc e1c8 493c 4d67 d9bb
000000d0: 9c4d 05bd c1a1 3a3d 4191 32bd 8246 663d
000000e0: a0dc 643c e1fe e9bc d108 09bc 972f 22bc
000000f0: 584f 24bd 03c0 73bc 81c6 a7bc 32b2 5fbd
00000100: 157d 42bd 2b51 ac3c 415c f4bc 8e86 39bd
00000110: e4ff 3dbd 21ae b53a 16d8 b9bc 2b25 363d
00000120: 2d49 06bd 5a2f 623d 745a 263d a3dd 063d
00000130: f843 b5bb 0933 e13c f974 143c 93c3 ad3c
00000140: a0f2 5d3c ff66 60bc 3e8d c2bc cd8b 23bc
00000150: e792 d03c 968b ccbc 2989 f0bc abf5 5bbc
00000160: 2011 a93c e3c1 05bd ff0b 45bd 60ea b3bc
00000170: decc c5bc 8a9e 493c 8e5c f6bc cc84 f03c
00000180: 5d0b c9bc 63b4 3ebd e478 2a3d cb42 563d
00000190: c3ce 323d d1a8 4bbd 6ffd 553d 99ab a5bc
000001a0: 15b8 1a3c 67c5 d93c ff79 fa3c f199 8abb
000001b0: 106f df3c be99 0ebd 0066 c23c c8ff 22bd
000001c0: fbae 9239 52c0 113c d3b7 493d 080f 083d
000001d0: 0f65 35bd 62ea f43c e144 4d3c 73e8 1ebd
000001e0: 049f c4bc 0298 1abd c76f f73b fc98 3cbd
000001f0: 4d74 38bd 8d13 983b 41f2 5d3c 4d8c d53c
00000200: 0985 8abc 3b46 1eba c45b 203c 67b8 5e3d
00000210: 6362 653d 8e40 e0bc 99aa 6d3c ec02 31bc
00000220: c909 20bb 0f10 d4bc e68d 3fbc c28f 763d
00000230: 649c 5f3d 0b12 89bd 4a12 5d3d 7e39 5fbc
00000240: 5e81 39bc 74e7 203d 1a61 4e3d 3461 30bd
00000250: bd4b d2bc cf45 10bd cfd6 8b3c 923c 5cbd
00000260: 94b3 8ebc b23d b3bc 2f6a 62bc c279 023d
00000270: 3547 803c 3cfe 463b c51b 193d 804c c3bb
00000280: 31fc fc3b 48dd b6bc fe68 253d dac2 85bb
00000290: 3cfd 5c3d ba82 d0bc 71cd 62bd 0a6e 333c
000002a0: 1b66 633c aab2 efbc 5377 93bc ff32 8abc
000002b0: 785e 4a3d de5b 08bd 6c04 18bc 18a8 aabc
000002c0: b013 393d c23d 16bd 5d66 47bd ac8f 5abd
000002d0: 352a 1d3d fc3d 53bd 25c7 1fbd c0c3 07bc
000002e0: 9523 03bd 4a33 5f3d 585d 373d 8fec 373d
000002f0: 3a5a 193d 9798 7dbc 13b6 31bd 3dba 7bbd
00000300: e3f4 ce3c 1ab1 cc3b 9c77 7ebd 8e10 e33b
00000310: a5c8 cd3c 6d97 10bd 6ab2 553d b36f 1dbd
00000320: b3e5 023d ed54 503d 791c fabc 61f8 ba3c
00000330: 2dab 143d 319c 9d3a 0963 bebc ec3d 84bb
00000340: a886 e33c 2eb1 093d 36bd 2c3d b1ac 343d
00000350: 3972 b2bc 3d1b 903c 96e3 f03c b93c d23c
00000360: 8e51 b13b c974 243d 4765 b6bc 6d10 23bd
00000370: 758e f9bc 69ce 52bd 00f5 5f3c 95a4 4a3c
00000380: 0479 ff3c 5514 5d3c 721a 8fbc 84f9 4c3d
00000390: 8794 683c e4bb 09bb 1559 b1bc 6433 963c
000003a0: 55f3 b83b 8e00 9bbc 9903 28bd 8e12 f73b
000003b0: 2533 373d 1d1d 2f3d 79a4 e73c c722 423c
000003c0: 8e87 cf3b 9db4 81bb 3968 6c3c 16b7 2e3d
000003d0: 440f 793d 99de f838 a0ed e83c e71e f239
000003e0: e1f0 263d c5cb e03b 0ffe 053d cf80 62bc
000003f0: 5d5f b6ba 36e1 e63c d647 5a3d 9343 26bc
0.021953652 -0.03459969 -0.046800453 -0.000689406 0.008741148 0.03690961 -0.02119381 -0.004363362
0.015689848 0.030624455 -0.055516675 0.034260154 0.016214862 -0.05601477 0.051495403 -0.052937046
-0.030320268 0.026340349 -0.0091310805 0.003413175 0.001025584 0.046529792 -0.0056597632 -0.05339083
-0.054919384 -0.049971975 -0.024779245 -0.03620574 -0.031473257 -0.043865584 0.060157716 0.008408054
-0.027529456 0.037741706 0.060823996 0.040965933 -0.03760881 0.0069599515 -0.0033433475 0.043190297
0.06553492 -0.035600048 0.046965115 -0.007442417 -0.0027129673 0.054152038 0.04278171 0.011292833
0.04959187 -0.026041903 0.01231596 -0.006634629 -0.032544717 0.045564417 -0.043595556 0.056219585
0.013968617 -0.028563919 -0.008363918 -0.009899042 -0.04011473 -0.014877322 -0.020480396 -0.0546133
-0.04748257 0.021034798 -0.029829146 -0.045294337 -0.046386614 0.0013861099 -0.022686046 0.04446904
-0.03278463 0.05522094 0.040613607 0.032926213 -0.005531784 0.027490156 0.009061092 0.021211421
0.013546616 -0.013696431 -0.02374899 -0.009982062 0.025460673 -0.024968904 -0.029362278 -0.013425271
0.020638049 -0.032655608 -0.048107143 -0.021962345 -0.02414554 0.012305865 -0.03007343 0.029360197
-0.024541551 -0.04655875 0.041619197 0.052309792 0.043654215 -0.049721543 0.052243646 -0.020223426
0.009443303 0.026583387 0.03057575 -0.004229777 0.027274638 -0.03481459 0.023730278 -0.039794713
0.0002797766 0.00889595 0.049247574 0.03321746 -0.04428583 0.029896919 0.012528629 -0.0387959
-0.024001606 -0.037742622 0.0075511667 -0.046044335 -0.045032788 0.0046410025 0.013546527 0.026067877
-0.01690914 -0.0006037687 0.009787504 0.05437508 0.056002032 -0.027374532 0.014506006 -0.010803919
-0.0024419895 -0.025886564 -0.011691546 0.060195692 0.054592505 -0.066928945 0.05397252 -0.013624547
-0.011322347 0.03928323 0.050385572 -0.04306145 -0.02567088 -0.035222825 0.017070202 -0.0537687
-0.017419614 -0.021880005 -0.013819261 0.0318544 0.015658954 0.0030363938 0.03738 -0.0059600472
0.0077204932 -0.022322312 0.04038333 -0.004082066 0.05395244 -0.02545296 -0.055371705 0.010951528
0.013879324 -0.029259998 -0.018001234 -0.01687002 0.0494065 -0.033290736 -0.009278398 -0.020832106
0.04518479 -0.03667999 -0.048681606 -0.053359672 0.03837033 -0.051572785 -0.03900828 -0.0082864165
-0.032016356 0.054492272 0.044766754 0.044903334 0.037439562 -0.015478275 -0.04338653 -0.061456908
0.025263255 0.006246698 -0.062125787 0.0069294637 0.025120089 -0.03530066 0.052172102 -0.038436603
0.03195734 0.05086224 -0.030531155 0.022823514 0.03629606 0.0012024698 -0.023240583 -0.004035702
0.02777417 0.033616237 0.042172633 0.044110004 -0.021782981 0.017591113 0.029405396 0.02566372
0.0054113334 0.040150438 -0.02226509 -0.039810587 -0.030463437 -0.05146638 0.013669252 0.012368341
0.031185634 0.013493617 -0.017468665 0.050042644 0.014195568 -0.0021016533 -0.021648923 0.018335052
0.005644242 -0.018921163 -0.041019056 0.0075400537 0.04472651 0.042752374 0.028276669 0.011849112
0.006333298 -0.0039582984 0.0144291455 0.042655073 0.060805574 0.000118670236 0.02843362 0.0004618086
0.040757064 0.0068602287 0.032712992 -0.013824656 -0.0013913919 0.02818356 0.053291164 -0.010147947

module.conv_4.bias f4 [12]
00000000: d300 4c3d ccd1 2fbd 91fb 2dbd 43e3 72bc
00000010: f914 093d 68de b43c fd2c 883b 7aa6 07bd
00000020: b880 213d 801d 3dbb 39fb 8b3c 428c 65bd
0.049805474 -0.042924687 -0.04247624 -0.014824691 0.033467267 0.022078708 0.0041557536 -0.03311775
0.039429396 -0.0028856695 0.017087566 -0.056041963

module.conv_5.weight f4 [12, 12, 3, 3, 3]
00000000: ad54 3b3d f835 80bd 70d1 4abd d5ce 083d
00000010: 8463 943c da5e e9ba 06ac 8d3c ee56 b03c
00000020: 8566 b5bc 3efe 20bc 96d4 d93b 8751 0f3d
00000030: bc0a 7dbd 1386 50bd af9d 83bd 70c1 4cbd
00000040: b927 85bd 7ca9 0cbd 57ff ff3c 3aa4 fd3c
00000050: 51e8 7abc 47c8 ea3c af03 1cbd 5fda 5dbd
00000060: c032 013d cb09 1cbd d46b 0b3b e79e 3e3d
00000070: f4cc 11bd 5f7c 26bd 3ddb e03c 5656 03bd
00000080: 8453 12bd 9e14 073d f8c3 eb3b 7ef0 6abb
00000090: b04a 57bd 2e4f 45bd a8a2 a43c 6439 debc
000000a0: d490 35bd 574a b1bc e4e0 27bc 162e 40bc
000000b0: 46dc 38bd b29e 60bc f9b2 0fbc 870b 5e3d
000000c0: c4c3 1fbd e0a2 8d3c ed4b 4c3d f238 e73c
000000d0: c721 93bb f041 493d 02a9 173d a6e8 9ebc
000000e0: 90f6 3d3d 6a21 053d f2dc 963d 4f95 0d3d
000000f0: 3afc ea3c a290 9a3c fd26 143d 0deb d43c
00000100: 4ef3 263c f920 553d bdac 803d 5569 8b3d
00000110: 980b 03bd 97c9 dcbc 9c49 313d bc6e 413d
00000120: 9a96 6f3d b296 b83c e16c d83c b413 d3bb
00000130: e686 183c 380d 143d 2bb3 6a3d 04eb 92bc
00000140: 569d 6ebc e171 6a3d f913 1cbd 5b5c 663d
00000150: 880f 0abd aa05 053d 46aa 3dbc 4c25 003d
00000160: 787f 8b3c 781a 47bd 45e3 733d 849e a73c
00000170: 3b22 68bc 8576 bdbc d6c1 3cbd 494e 253d
00000180: 6ba3 783b af8c 5fbd 50ea 79bb 338d 8f3d
00000190: 9cb1 773d edc3 9bbc 1039 473d a877 bf3c
000001a0: ff29 1a3d fcd9 103d 8bcf 1cba 8d24 493c
000001b0: 5f25 32bc a164 a5bc 9279 1d3d db2c 28bd
000001c0: f6d2 61bd 4b7a cab8 f960 4ebc ada7 d73c
000001d0: 4e60 503d fa6b 4bbd 91e1 133d e117 acbc
000001e0: 0a2f f13c 0f26 c6bc 7b39 fa3c a3e0 95bb
000001f0: 594b 0b3d ea23 e23c 77ce 39bd ab14 9dbb
00000200: 7e71 6d3c f6ea c23c f636 45bc 260c a2bc
00000210: 3f4e ebbc 4e4c f53c b990 8ebc cb7f 643d
00000220: 4ed1 b2bc 2a34 f8bc 4b00 fa3c 803f ab3c
00000230: 8c00 633c 0073 cdba 4fbe 763b 4d72 aa3c
00000240: 6abc 473d 6c5f 6c3c 0290 703d 6d81 693c
00000250: 6994 d4bb 3c36 c53c 44fe 173d e226 3c3d
00000260: 25ad 213d 5251 383d 68cc 123d afcf 623b
00000270: baa9 dcbb b154 f93c 459a f33c 9419 5abc
00000280: 42d7 c53c 951d b63c f8d2 0abc 2b1e 0d3d
00000290: 8e41 2dbd 815f f8bb adee 9f3c 6127 d23c
000002a0: 8a10 bcbc 46a3 37bd f5f8 19bd 3d33 0cbd
000002b0: b592 16bd fddf 90bd 5f29 1dbc ecda 95bd
000002c0: 5d79 f33c c530 13bd 9e30 44bc e5f8 87bc
000002d0: 85d4 413c 787f 353d f196 4e3d a9c0 053d
000002e0: 7d4d 74bc 9069 3b3d d814 24bd 1172 5bbd
000002f0: 8b63 95bc bb53 adbb 4de0 e93b 5acc c83c
00000300: 8ddf 47bd 7f32 3d3d 7a76 8ebc 93cf b7bc
00000310: c435 49bd 8845 11bd 15b7 6c3d aa89 5e3d
00000320: ab12 4c3d cf44 bc3c 7999 3dbd e488 193d
00000330: 16c9 353d 9df9 b6bc 841b 083d 926f e33c
00000340: 33cb eebc 26d8 873c 9f45 32bd 1f25 c63c
00000350: 1a5e a53c f4b3 4bbb 17e9 103d b9f4 11bc
00000360: 59d5 59bc 7236 293d 133d 52bd ddd3 97bb
00000370: df6b 32bd a672 6abc ce9b e83c 6478 093d
00000380: 6404 22bc 8c13 0f3d 51be 813b 1973 393d
00000390: 7131 033c ed9a 63bd b9b3 abbb dbc8 123c
000003a0: 40fa 003d 6780 dcbc 35e0 a03c a4f5 72bd
000003b0: e461 6dbd 5acd 54bd db5f 28bd d705 2dbd
000003c0: a42c ba39 7d8f 703c 9aef 2a3d 2341 0f3d
000003d0: d147 2d3d 3d80 d1bc ccbf c0bc e87d 0b3d
000003e0: 8f0b 463d 9776 f43c 83c5 c7b9 884a 1a3d
000003f0: 718e 27bc 43ba c7bc 55b8 583d 8405 acbc
0.04573505 -0.06260294 -0.04951614 0.033400375 0.018113859 -0.0017804757 0.017293941 0.021525826
-0.022143612 -0.009826241 0.0066476567 0.03498986 -0.061777815 -0.050909113 -0.0642656 -0.049989164
-0.06501717 -0.03434132 0.031249685 0.030962098 -0.015314178 0.028659953 -0.03808945 -0.054163333
0.03154254 -0.038095277 0.0021273987 0.04653826 -0.03559585 -0.040645953 0.027448291 -0.03206476
-0.035724178 0.032978646 0.007194992 -0.003584891 -0.052561462 -0.048171215 0.020097092 -0.027126975
-0.044327572 -0.021641893 -0.010246489 -0.011729738 -0.045131944 -0.013709711 -0.008770698 0.054210212
-0.039005056 0.017289579 0.049877096 0.028225396 -0.0044901106 0.04913515 0.037026413 -0.019398045
0.04637772 0.03250257 0.07366361 0.03456622 0.028684724 0.018867794 0.036169995 0.025990987
0.010189844 0.0520334 0.06282947 0.068072 -0.03199348 -0.026951594 0.04328309 0.047224745
0.058493234 0.022532795 0.026419105 -0.006441558 0.009309506 0.03614542 0.057299774 -0.01793433
-0.014563879 0.05723751 -0.038104985 0.05624042 -0.033706218 0.032476105 -0.011576241 0.03128557
0.017028555 -0.048609227 0.059542913 0.020461328 -0.014168317 -0.023127804 -0.046083294 0.04035786
0.0037939202 -0.054577526 -0.0038134046 0.070093535 0.060472116 -0.019014323 0.048638403 0.023372486
0.037637707 0.035364136 -0.0005981854 0.012276781 -0.010873168 -0.020189585 0.038446017 -0.041058403
-0.05513283 -9.6548894e-05 -0.012596362 0.026325071 0.050873093 -0.04966352 0.03610379 -0.02100748
0.029441375 -0.02418807 0.030544987 -0.004573898 0.034007404 0.027605016 -0.045362916 -0.0047937236
0.014492391 0.023793679 -0.0120370295 -0.019781183 -0.028723834 0.029943611 -0.017402994 0.055785935
-0.02182832 -0.030298311 0.030517718 0.020904303 0.013855111 -0.0015674531 0.0037650054 0.020806456
0.04876367 0.014427047 0.058731087 0.014252049 -0.0064874184 0.024073713 0.03710772 0.04593552
0.039471764 0.044999428 0.03583947 0.0034608652 -0.0067341 0.030435892 0.029736647 -0.013311762
0.024150494 0.022230903 -0.00847315 0.0344526 -0.042298846 -0.0075797443 0.01952299 0.025653543
-0.022957105 -0.044833444 -0.03759094 -0.034228552 -0.036761004 -0.070739724 -0.009592383 -0.07317147
0.029720956 -0.035935182 -0.011974482 -0.016598174 0.011830454 0.044311017 0.050436918 0.03265444
-0.014911053 0.04575497 -0.04005894 -0.05357558 -0.018235942 -0.0052895225 0.0071373344 0.024511505
-0.04879718 0.046190735 -0.017390478 -0.022437846 -0.04912354 -0.0354667 0.057791788 0.054330505
0.04982249 0.02298203 -0.04628894 0.037484065 0.044381224 -0.022335822 0.033229366 0.027763162
-0.029149627 0.01658256 -0.043523427 0.024187623 0.020186473 -0.0031082602 0.03537854 -0.008908444
-0.013295495 0.04131169 -0.051327776 -0.0046334104 -0.043559905 -0.014309561 0.028394606 0.03356208
-0.009888742 0.03493075 0.003959455 0.04527578 0.008007393 -0.05556767 -0.0052399305 0.0089590205
0.031488657 -0.026916696 0.01963816 -0.059316292 -0.057954684 -0.05195365 -0.04110704 -0.042241897
0.00035509944 0.014682648 0.041732408 0.03497423 0.042304818 -0.025573844 -0.023528956 0.03405562
0.048350867 0.029841704 -0.00038103395 0.037668735 -0.010226832 -0.024380809 0.052910168 -0.020998724

module.conv_5.bias f4 [12]
00000000: e79d 863b 4e5b 213d 9f22 30bc b1f0 d2bc
00000010: aea9 723b 392f 64bc ca5a 94bc 268b 793d
00000020: ff89 683d 2858 2fbb 1832 15bd 580d 123c
0.004108179 0.039393716 -0.010750442 -0.025749536 0.0037027407 -0.013927274 -0.018109698 0.060923718
0.05677223 -0.0026755426 -0.036424726 0.008914314

module.conv_6.weight f4 [12, 12, 3, 3, 3]
00000000: 72cb 02bd effa 253d 3ec6 fc3c 13c5 94bb
00000010: cdb4 a8bb a9d7 d4bc 6803 e8ba 9aaa cbbc
00000020: c753 fc3c 3297 b1bc 46b6 aabc 86af 2fbd
00000030: 0081 dbbc 3d9c bfbc 40dd 6cbd a047 12bc
00000040: b156 c03b d4c1 09bd 5b4e 80bd 3469 6b3c
00000050: 8697 8c3c 1343 05bd c93f d33c 5862 0b3d
00000060: b57f 0a3d 60b5 fb3c d075 7dbd 4822 37bd
00000070: 08fa 49bc 168b 5a3d 4890 85bc 0683 5e3c
00000080: 1a74 8b3c f29b 59bd 4e75 573d e55e f73c
00000090: 4965 ac3b cee4 18bd aae6 12b9 a1e7 debc
000000a0: dafa 58bb 8c46 1fbd 0c74 643d deb5 5e3d
000000b0: 2392 8f3c 0bad fb3c da64 87bc 1a8e 4f3d
000000c0: a340 b7bb a0de 6a3c 4847 68bc 29fc dc3c
000000d0: a827 1cbc 2707 d63c 1f38 22bd 1838 ce3b
000000e0: 265f 1dbd 3194 3fbd c41d 2dbd 2926 72bd
000000f0: d550 173d 81df 0c3d 12e6 1b3c c7a2 40bd
00000100: 9bd2 b938 0dc2 0cbd 5395 50bd 30c5 5fbd
00000110: 4c7e 3cbc de44 ef3c bcb9 bbbc 9e5c 313c
00000120: 0974 9fbc 59fe 83bd 21b9 19bd d9b1 73bd
00000130: eff8 80bd f68b 4f3a c3c6 83bc c123 61bd
00000140: 105a 04bd 132c adbc 4430 ed3c 36a9 54bd
00000150: 57a4 623d 3ef5 0bbc 7059 15bd 1f64 f8bb
00000160: 2deb c33c bde1 dbbb 79dc bebc 884a fabb
00000170: 245d 863c 39f9 0f3d 0a05 f63c cd33 6f3b
00000180: 4744 d53a 886e 38bd fc33 ad3c 3ed7 e13c
00000190: c47c 63bd 89d6 c03c 1320 38bc e16e 5cbc
000001a0: eabf 2a3b 7c2d 233d bf07 5abd 7d2d c83c
000001b0: 3ff1 3abd 2891 703d fa5a 01bb 8b6e 4e3d
000001c0: 82b8 903d 367a 213d 7a62 053d aeda 7a3c
000001d0: 0364 273c 6096 70bc 7479 b6bc 9b97 ea3c
000001e0: 0f02 d53c cde7 0f3d 39d5 663b d23e 0cbd
000001f0: ea1f cfbb 4593 833d ceaf 083c f3b8 2d3d
00000200: 5be9 37bc 4fac 0e3d a32c 963d 45c3 983d
00000210: db5a edbc fed3 513d aeb0 483d 8246 52b9
00000220: 1b08 ad3c 441c 75bb bea5 6fbd 8109 a93b
00000230: e99d 333b f1c4 993c 492a 14bc 7c3a 03bc
00000240: e7cc 8f3b 4589 e13c c673 44bd a056 37bd
00000250: f566 74bd 0bfd ab3b e755 8bba a320 a0ba
00000260: ddda 46bc e7ab a23c 5cea ebbb 5b41 e23b
00000270: 56f9 f83c ce71 c33c 0a93 46bd 40a7 2dbb
00000280: d18e ab3c 17b7 cabc e329 db3c 63ad 62bc
00000290: d108 4ebd fe08 6b3d ea2c 693b 5643 43bd
000002a0: 7458 42bc f023 96bc 6a3a 37bd 1bff 33bc
000002b0: 1d84 44bd f808 ea3c ba14 31bd ac0f 993c
000002c0: 36c2 823c 5bbe c3bb 35f5 f53b 1cdb 2d3d
000002d0: 074d 683c b1c8 073d a9a3 cdbb cd22 273d
000002e0: 0981 8e3c b56f 42bd ba1e 693d 6423 a43b
000002f0: a58c c13c 34db 613d fcb5 e3bc 8887 dcbc
00000300: 2175 acbc 8224 733d ae90 123d 46e1 33bd
00000310: d398 51bd dc8f 18bd 6e87 993a c37a 933d
00000320: 4b71 9c3d a505 e23c 0946 68bb 589e a53c
00000330: 91ee cbbc 6727 c7bc 4b88 543d bab8 8e3c
00000340: fe09 003d d5a5 1fbd ac8a e5ba 4774 2f3d
00000350: 06ce b03c 76cd 273d 6943 1e3d 376d 923c
00000360: d579 063d bba8 8dbc 78bb 7fbc 06d3 e5bc
00000370: ee59 583c 6b35 1b3c a3e8 103d aa4b 273b
00000380: d13d ef3c ad9a d43c 584a 4f3d 91ec 25bd
00000390: 1cb2 53bd 1a4b 0c3d a111 cf3c 3153 c4bc
000003a0: 691f 8d3c 99e4 fbba f8a3 413c 9571 063d
000003b0: 19e0 94bc a88d 2cbd 88aa 6a3c 5eaa e4bc
000003c0: 6b08 6c3c b8c9 f8bc 8ed8 343d 5880 383d
000003d0: 2abf 803d 26e0 9e3d 5139 5a3d 4ada 483d
000003e0: 812c e53d 3e7b a6bd cab5 433b 3d56 883c
000003f0: ad49 d03d 3716 f63c 9215 fc3d 9eaa 2d3d
-0.0319323 0.040522512 0.030856248 -0.0045400946 -0.0051485063 -0.025981741 -0.001770121 -0.024861623
0.030801667 -0.02167854 -0.020838868 -0.042892 -0.02679491 -0.02338993 -0.057828188 -0.00892821
0.0058697094 -0.033632115 -0.06264945 0.014368344 0.017162096 -0.03253467 0.025787251 0.034029335
0.033813197 0.030726135 -0.061879933 -0.044710428 -0.0123276785 0.0533553 -0.01630415 0.013581043
0.017023135 -0.053127237 0.052602105 0.030196616 0.0052610976 -0.03732758 -0.00014009574 -0.027210059
-0.0033108504 -0.038885638 0.055774733 0.05437266 0.017525738 0.030722162 -0.016527582 0.050672628
-0.005592422 0.0143353045 -0.014177151 0.026975708 -0.009530939 0.026126457 -0.039604302 0.006293308
-0.03842082 -0.046772186 -0.042264715 -0.059118424 0.03694232 0.034392837 0.009515302 -0.047030237
8.860716e-05 -0.03436475 -0.050923657 -0.054631412 -0.011504721 0.029207643 -0.022915713 0.010825304
-0.01946451 -0.06444997 -0.03753007 -0.05949578 -0.0629748 0.0007917279 -0.016085988 -0.05496574
-0.032312453 -0.02113918 0.028953679 -0.051919185 0.055332508 -0.008542357 -0.036462247 -0.0075802947
0.023915851 -0.0067102597 -0.023298489 -0.0076382793 0.016401835 0.035149787 0.0300317 0.0036499382
0.0016270959 -0.045027286 0.021142952 0.027568456 -0.055538908 0.023539798 -0.011238116 -0.01345417
0.002605433 0.0398383 -0.053230044 0.024435753 -0.045640226 0.05873218 -0.0019738064 0.05039839
0.07066442 0.03942319 0.032564618 0.015310926 0.010216716 -0.01468429 -0.02227471 0.028636744
0.026001958 0.03513317 0.0035222305 -0.034239598 -0.006320943 0.06424574 0.008342696 0.04241271
-0.01122507 0.034832295 0.073327325 0.0745912 -0.028973987 0.051227562 0.04899662 -0.00020053427
0.021122029 -0.003740088 -0.058507673 0.0051586037 0.0027407354 0.018770667 -0.009043285 -0.008009549
0.00438844 0.027531276 -0.047961973 -0.044760346 -0.0596685 0.005248671 -0.0010630459 -0.0012216758
-0.012137142 0.01985736 -0.0071995687 0.0069047636 0.03039233 0.023857977 -0.04848007 -0.0026497394
0.020942124 -0.024745507 0.026753372 -0.013835284 -0.050301377 0.057381622 0.003557975 -0.04767164
-0.011861909 -0.018327683 -0.044733442 -0.010986115 -0.047977556 0.02856873 -0.043232657 0.01868423
0.015961748 -0.00597362 0.0075060376 0.042445287 0.014178521 0.03315038 -0.0062756133 0.040804673
0.017395513 -0.047469813 0.05691407 0.0050091017 0.023626635 0.05514069 -0.027796738 -0.026920095
-0.021051945 0.05936099 0.03578251 -0.04391601 -0.051171135 -0.03724657 0.0011713335 0.07201149
0.076387964 0.027590582 -0.0035442135 0.020217106 -0.02489403 -0.02431078 0.05188779 0.017422069
0.03125953 -0.03897651 -0.0017512641 0.0428355 0.021582615 0.040967427 0.038638506 0.017874343
0.03283103 -0.017292371 -0.015608661 -0.028054725 0.013205035 0.009473185 0.03537811 0.0025527277
0.029204281 0.025952661 0.05060801 -0.04050881 -0.05168353 0.03425131 0.02527696 -0.02396545
0.017226892 -0.0019217908 0.011818878 0.032823164 -0.018173264 -0.04212728 0.014322884 -0.027913269
0.014406304 -0.030369624 0.044151835 0.045044273 0.06286462 0.07757597 0.053277317 0.0490363
0.11190129 -0.08128975 0.0029862993 0.016642684 0.101703025 0.03003989 0.12308802 0.04239904

module.conv_6.bias f4 [12]
00000000: 625a 0b3d d574 4c3b ccd8 3d3d 3a52 083d
00000010: 0d09 6d3b 551a 123d 4fd5 59bd 5ca3 5fbc
00000020: eff1 41bb e4f0 163d 8473 1f3b 5424 113d
0.034021743 0.0031197567 0.04634933 0.033281542 0.0036168725 0.035669643 -0.053181943 -0.013649788
-0.0029593667 0.036850825 0.0024330327 0.035435036

module.conv_7.weight f4 [56, 12, 1, 1, 1]
00000000: fb33 283e e9ac 5ebe 08c3 5e3e 2675 693e
00000010: 2ec3 8fbe 5ab9 793e ce3d 393e b1dd 393e
00000020: 30ef 83be b04d d53d a554 c73c 005b 583e
00000030: cc36 60bd 1a45 81be 46fa 4a3e c32f 0ebe
00000040: 4423 aabc e8b8 c13d eefb 783e de75 483e
00000050: 5995 103e 6fae 37bd 8494 51be c069 c8bd
00000060: a3dc 6a3e 54d3 583e 1b7d 833e e1cb 16be
00000070: 02f3 9dbe 5688 c13d b465 b7bd 2591 21be
00000080: 600c 7fbc b910 45be 1260 0dbd f9f7 693e
00000090: 407d 8dbe 6db6 eebc 01f5 a13b abce 3a3e
000000a0: 7ce8 8b3c 64c0 de39 47ee b23d 215a 80be
000000b0: 3e01 2cbd 07c6 87be d432 2b3d f1de 223e
000000c0: c945 513e 7e8a 0dbe 7cd7 90be a2d9 853d
000000d0: dcd7 033e 08a7 bf3d 87a3 97bc ee87 6a3e
000000e0: 0055 c53c 54f6 51be d40c ad3c b168 883e
000000f0: 0f11 86be dc40 dcbb 3764 61be 3ac5 4f3e
00000100: 5e4f f93d 0679 97be 4971 303d 1be5 72be
00000110: b95e bebd f52d c13c 7ea4 37bc bbd5 6bbe
00000120: d514 93bc 31ca 4e3d 635c 2f3e 23e4 713e
00000130: 7c29 42be 524a 8a3d 2838 903e 4b0a a6be
00000140: 35e4 883d bb21 393e 9c48 54be ff15 26be
00000150: 58d6 1e3e c92b 323e f6bc 473e f0bc 363e
00000160: 0da8 bbbc 3cfc e1bc cd72 0cbe 3e3d 4ebe
00000170: 733c 8fbe f662 07be b176 793c ee1d 1fbe
00000180: 560c 923e ab65 67be d59d 3fbe 8593 77bc
00000190: 288a a53d 2a68 313e 8e08 84be ea28 2cbe
000001a0: 17f7 15bd 3643 223e 6d78 893c a410 88be
000001b0: fa9b 97be d516 ac3c 27d9 243e 24f2 ab3d
000001c0: 2052 b33d c719 873d eb3f d1bd 5fe5 7e3e
000001d0: 9a44 19be dac4 043d 37b0 db3d fa71 2c3e
000001e0: 8146 12bd 748e 0f3c 64b8 6d3e 9e4d eabd
000001f0: b818 683e 2042 8d3e b332 58bd 0d47 153e
00000200: f1d8 a6bd 1f09 32be d215 4fbd 09ab dc3c
00000210: f9b8 7c3e 116e 2a3e bfbc f03c 2ee8 15be
00000220: 7945 283d 3712 3c3d a97e cb3d f7a9 16be
00000230: 58ab 533d 027e 6a3e 5d4b 57be 9e47 2dbe
00000240: 4dd8 8ebe d4c1 793e 535d 823e 072a 983d
00000250: 8f75 c23c da0f 0a3e e668 50bc 2408 f1bc
00000260: 6bc9 6dbe ff21 b53d 8b56 13be 8bd7 9ebe
00000270: 0aca ec3d e8c3 7f3e 61d1 64be 504c 4fbd
00000280: 037a 75be 075e 0ebe 8d8a 193e 6f81 383e
00000290: d8f3 cb3d e54a 953e 11ce 0d3e e2a9 62be
000002a0: 18de 13be 7347 4e3e 3663 5f3d 3b34 d13c
000002b0: e801 593e 3568 24be 7b38 883e f68f 05be
000002c0: 5618 9abe 0d65 253e 40db 863e 301f 4abe
000002d0: 6d98 123e 9ba3 6abe 1e37 113e 66c7 523e
000002e0: fc5a 253e 8576 0bbe 1e9d 61be 8e39 17be
000002f0: b718 983e d4ac 60be a078 6e3e 5775 e43d
00000300: 4ac3 853d 1d12 34be e559 28bd 7f54 863d
00000310: 0e51 6abe 060b 4cbe 957c e8bd 0cd9 da3d
00000320: b3da b63d 8495 4bbe e836 cd3d 0eb5 ae3d
00000330: ddad a5bd 4501 c23d ba61 ecbd 962a 993e
00000340: b2a4 93bd 5cfc 1abe c51f eb3d bb63 05bd
00000350: 061e a83d fb10 53be 74ec 34be d813 ccba
00000360: a5e7 79bd b86b ecbc da7c 803e b4ca 213e
00000370: 0b4e c2bc 76fb 74be 3798 013e dbb7 463e
00000380: f84c 7c3e d3ca 6d3e 1b4a 85be 7a85 95bd
00000390: 7e27 29be 3326 2ebe 656d b93d c1d3 ba3d
000003a0: cb95 d53d 2fd4 b23e 8617 7cbd dc65 44be
000003b0: 4797 8e3d d7fb 243e a0c8 7a3d b415 32bc
000003c0: 042a 69be 78d8 debd 4f6b babc a663 6cbe
000003d0: 57ab 8fbd d2c0 4cbe 492e 353e e6a2 ebbd
000003e0: 96a7 37be 6b8e b53d 56d7 a6bb 9c05 983e
000003f0: f0bb 7a3e ac77 753e 7e61 36bd 0ca2 753d
0.16426079 -0.21745647 0.21754086 0.22798595 -0.28078598 0.24387112 0.18089983 0.18150975
-0.25768423 0.10415208 0.024332354 0.21128464 -0.05473976 -0.25248033 0.19822034 -0.13885407
-0.02076877 0.09459096 0.24314854 0.19576213 0.14119472 -0.044844087 -0.2046681 -0.09785795
0.22935729 0.21174365 0.25681385 -0.14726211 -0.30849463 0.09449832 -0.08954945 -0.15778024
-0.015566915 -0.1924466 -0.034515448 0.228485 -0.2763462 -0.029139722 0.004942537 0.182429
0.01707863 0.00042486482 0.08736854 -0.25068763 -0.041993372 -0.2651827 0.04179652 0.15905358
0.20436777 -0.13822362 -0.28289402 0.06535651 0.12875313 0.093580306 -0.018510593 0.22903416
0.024088383 -0.20504123 0.021124281 0.26642373 -0.2618489 -0.006721599 -0.22010885 0.2029008
0.12173341 -0.2958452 0.043076787 -0.2372021 -0.09295411 0.023581484 -0.011208652 -0.2303075
-0.01795427 0.050485794 0.17125086 0.23622184 -0.18961138 0.06752457 0.28167844 -0.32429728
0.06684152 0.18079273 -0.20730823 -0.16219328 0.15511453 0.17399515 0.19505677 0.17845511
-0.022907281 -0.027586095 -0.13715668 -0.2014055 -0.27975807 -0.13221344 0.015226052 -0.15538761
0.28525037 -0.22597377 -0.18712552 -0.015110855 0.08082992 0.17324892 -0.25787777 -0.16812482
-0.036612596 0.15845951 0.016781056 -0.26575196 -0.29611188 0.02100698 0.16098462 0.08395794
0.087558985 0.065967135 -0.102172695 0.24892186 -0.14967576 0.032414295 0.1072697 0.16840354
-0.03571177 0.008761991 0.2321487 -0.114405856 0.2266568 0.27589512 -0.052782726 0.14577885
-0.08146847 -0.17386292 -0.05055792 0.026937025 0.24679936 0.1664355 0.029386876 -0.14639351
0.04108188 0.04591581 0.09936268 -0.14713274 0.051677078 0.2289963 -0.21024843 -0.16921851
-0.278994 0.24390346 0.25461826 0.07429891 0.023737697 0.1348261 -0.012720322 -0.029422827
-0.23221366 0.08844375 -0.14388482 -0.3102382 0.115619734 0.24977076 -0.22345497 -0.050609887
-0.23972325 -0.13903056 0.14994259 0.18018125 0.09958619 0.29158702 0.1384814 -0.22135118
-0.14440191 0.20144443 0.054537974 0.0255376 0.21192133 -0.16055377 0.2660559 -0.13043198
-0.30096692 0.16151829 0.2633915 -0.1973846 0.14315958 -0.22913973 0.14181182 0.20583877
0.16147989 -0.1361943 -0.22032592 -0.14768049 0.29706356 -0.21940929 0.23288202 0.11155193
0.06531389 -0.17585035 -0.041101355 0.06559085 -0.22882482 -0.1992608 -0.11351887 0.1068593
0.08928432 -0.19881254 0.10020238 0.08530627 -0.080898024 0.094728984 -0.11542077 0.29915303
-0.072091475 -0.1513533 0.11480669 -0.032565814 0.082088515 -0.20611946 -0.17668325 -0.0015569879
-0.06101193 -0.028859958 0.25095254 0.15799981 -0.023718854 -0.2392405 0.12655722 0.19406073
0.24638736 0.23221903 -0.260331 -0.07300849 -0.16518971 -0.1700676 0.090540685 0.0912242
0.10428961 0.34927508 -0.06154587 -0.19179481 0.069624476 0.16111694 0.061226487 -0.010869432
-0.22769934 -0.10881132 -0.022756247 -0.23084888 -0.07015102 -0.1999543 0.17693438 -0.1150568
-0.17935023 0.08865055 -0.005091588 0.2969178 0.24485755 0.23971432 -0.04452657 0.059968993

module.conv_7.bias f4 [56]
00000000: 305b 073d 6099 0f3b 26f9 f43d 9a41 3f3e
00000010: 0e9e 0bbe b5f6 4c3e 5594 383e e8dc 813e
00000020: f5fe 99bd d6ed 5bbd 3b1c f2bd f5fe 6fbd
00000030: 512b 3d3e b590 72be cb0d 843e 8203 4dbe
00000040: 4b52 d1bd 7dc1 3ebe 2d32 5abe 6fa9 42be
00000050: 77d0 823e 4034 ccbd 71b4 84be e883 353e
00000060: 7c47 2f3d 2c44 1fbe d3de 4cbe 9edc 59be
00000070: 675f 363e 60d8 2fbe d884 7c3d 67d0 a2bd
00000080: b020 b93d fc3e f8bd 724e 89bd d06a 97bc
00000090: 68b8 153e bec2 88bd a504 febd 1b52 aabd
000000a0: 80c1 25be 76e0 1d3e 0def 6b3e 14c2 ef3d
000000b0: a123 123e 56c6 29bc eec4 0fbe f12b 60be
000000c0: eced 133e a7ba 273e 6d1e 173d 4b74 d93d
000000d0: a657 edbd ef5f 24be 8432 1ebe 7bf4 2e3e
0.033045948 0.0021911487 0.11961584 0.18677369 -0.13634512 0.20015986 0.18025334 0.2536385
-0.07519332 -0.053693615 -0.11821791 -0.058592755 0.18473555 -0.23688014 0.25791773 -0.2002087
-0.10220774 -0.18628497 -0.21308203 -0.19009946 0.2554967 -0.099709034 -0.25918916 0.177261
0.042792782 -0.1555335 -0.20006876 -0.21275565 0.1780983 -0.17172384 0.061650127 -0.07949906
0.09039438 -0.12121388 -0.067044154 -0.01848355 0.14621127 -0.06677769 -0.124032296 -0.083164416
-0.16187096 0.15417656 0.2304041 0.11706939 0.14271404 -0.010362228 -0.14039966 -0.21891762
0.14446229 0.16379796 0.03689425 0.10617884 -0.11588983 -0.16052221 -0.15448958 0.1708545
