model2/FSRCNN3D_epoch_20.pth (torch, 265262 bytes, 15 tensors)

module.conv_1.weight f4 [56, 1, 5, 5, 5]
00000000: e25c 173d 65a9 923d 13fd 4f3d d9f6 a1bb
00000010: ca38 ce3c 9761 b33d 11b0 823d 88e0 67bd
00000020: 5d61 823c aa84 8ebd 2053 99bd 6739 8b3d
00000030: c3a1 db3b d3d3 cd3c ced6 873d 3edc 48bd
00000040: f047 a43d f563 8abd 9235 823c 8a47 f9bc
00000050: 34f8 ecbc 7950 69bb fa84 8b3d 1e95 77bc
00000060: 51e8 6ebd b532 56bd f1c3 2b3d bee7 a43d
00000070: aa34 8d3c 0687 a0bc 1018 9a3c 7fd2 353d
00000080: 3595 d6bc 103e a3bd f184 43bd 7457 babc
00000090: 74d4 373c b330 843d 1439 a03d 7f71 05bd
000000a0: 2988 433d d55a 79bd 7a12 8fbd 361a 823d
000000b0: e531 36bd 602f 3f3d 55c4 8bbd 4e7d 293d
000000c0: 6adf da3c 7f14 e9bc b13c adbd 93ea e2bb
000000d0: c6a0 78bd fcff 32bd 65db 693d b67c 923c
000000e0: 4c9d a8bd e129 173d f8e6 9cbd b4be 923d
000000f0: 9703 9cbd 2c6d 923c 7815 f23c e4b7 5bbd
00000100: a513 8e3d 1296 b63d d32e d43b c89e ee3b
00000110: 2ad7 903d 7812 4a3d ca88 7fbd d95d 51bd
00000120: 6bc2 cbbc da87 8b3d 20bc 883d e5b7 92bd
00000130: 7ed9 16bd c411 93bd 88c5 8d3c 07f8 56bd
00000140: 2421 49bd 4f82 aebd 4b72 663d f28b 003d
00000150: 76a6 74bd 7561 b33d add9 3abd 9c33 4d3d
00000160: 9fd0 513d fb26 a83d d97b 01bd c90f af3d
00000170: affa 8ebd cbb2 383d 0fd3 083d 7a13 10bd
00000180: 72fa 29bc 2918 6d3d d43e 8bbd 211b 83bd
00000190: 829d b73d 92b9 3c3d 6235 9fbc 9e13 c03d
000001a0: 5910 8e3d 4288 883c c815 303d c968 bc3d
000001b0: 773d 12bc 6507 c33b 706d 9e3c 6c35 1abd
000001c0: 7781 b33c 697b 9d3d 2245 19bd 4fb2 63bd
000001d0: cd07 553d c440 a73d ff35 9339 d963 f8bc
000001e0: b707 69bd a77a 46bd 652d 7f3d ab15 393d
000001f0: 011d 573d fba8 29bd a2d0 ef3c a181 543d
00000200: 6a3d 15bd 8ba4 4d3d 3d9b 25bd 0626 4bba
00000210: 5ab7 053c 1d25 003d e2d1 38bd 4d2b 75bd
00000220: de4c 20bd f510 723d 8e7a 713c 8101 023d
00000230: 2c2c 9f3d b264 00bd efdf a6bd 8b0d fa3b
00000240: 6f89 a3bd 52fd b6bd ca14 89bc fb41 953d
00000250: 3ae9 883d b7fb 38bd 7e68 2bbd c7c3 003d
00000260: 9d03 153d 32ab 83bc c478 2d3d ea61 1ebd
00000270: 08ca 723d 9e43 363d d6a1 e9bc f78e 6a3c
00000280: f081 55bd 49bf 693d 247e bdbc 1526 4d3d
00000290: 81b7 633c 0789 71bd 8d86 1b3d 6e40 353d
000002a0: d2a0 fc3c 5bc8 273c 5116 b6bd 0cc5 35bd
000002b0: b077 9c3d a78f 4abd 5a49 d6bb 7350 02bd
000002c0: 3736 23bc 9378 d6bc 3a09 2b3c 1be6 a23d
000002d0: 8155 623c 3888 c5bb 9365 ba3c 11bd 82bb
000002e0: 470d dcbc 5fff ecbc 7b05 cd3b 2883 9cbd
000002f0: 9b63 e1bc 2d41 b6bd f8d5 7f3d f241 d43c
00000300: 96d7 e6bb 74f6 243d bce9 203d 69df 853d
00000310: 8663 793d e252 7f3d a836 b8bc 4ac6 b8bd
00000320: 0141 d73c 0983 0e3d 408b 37bd f9a0 5c3d
00000330: 1af7 f6bc cadc 403d 85e1 813d 552f 9c3c
00000340: f4c1 d9bc 3a80 b53c 8487 d33c 9d28 a73d
00000350: 9692 a6bd 2ca1 83bd 8b1b cfbc 1220 21bd
00000360: 2c66 4a3d 53e7 41bd 21a6 6f3d 0fba 36bd
00000370: 3ff3 3d3d b4d1 503d b26a 8dbc f806 7dbd
00000380: 44e9 ed3c bb34 86bd b15b 46bd 0832 e93c
00000390: 311c 373d bddf 98bd eb39 35bd 0599 12bd
000003a0: bc56 263d ecc8 63bc b6d7 afbd ccb7 3abc
000003b0: ead7 593b 83f2 bcbd 96d4 ed3c e3e6 403d
000003c0: c504 0b3d af99 d23b 83d1 f3bb d3c0 d5bb
000003d0: 5a12 61bd e114 99bd 359d c73c 6576 8abd
000003e0: 7b62 5ebd d769 3abd 1e4b 423c 6ca5 17bd
000003f0: 1b12 abbb d391 b33d 13e7 8ebd ba6e 19bd
0.036953814 0.07161216 0.05077846 -0.0049427566 0.025173564 0.08758848 0.06381238 -0.056610614
0.015915567 -0.069588974 -0.07486558 0.06798058 0.006702633 0.02512542 0.066327676 -0.049038164
0.080215335 -0.067573465 0.015894685 -0.03042962 -0.028926946 -0.0035600944 0.06812473 -0.015111236
-0.058327023 -0.05229445 0.04193491 0.08052014 0.017237026 -0.019595634 0.018810302 0.044390198
-0.026194194 -0.07970822 -0.047734205 -0.022746779 0.011220086 0.06454601 0.07823387 -0.03257894
0.047737274 -0.06087764 -0.06985946 0.063526556 -0.044481177 0.04667604 -0.06824557 0.041379265
0.02671786 -0.028452156 -0.084588416 -0.006924936 -0.0607002 -0.043701157 0.057093997 0.017881732
-0.08233127 0.036905173 -0.07661241 0.0716528 -0.07617872 0.017874323 0.029551253 -0.05364217
0.06937341 0.089153424 0.0064753084 0.007282112 0.07072289 0.04933402 -0.06238631 -0.05111489
-0.02487298 0.06813021 0.06676507 -0.07163981 -0.03682851 -0.07181123 0.017306104 -0.05248263
-0.04910387 -0.08520948 0.056261342 0.031383462 -0.059729062 0.08758823 -0.045617748 0.050098047
0.051224347 0.0821056 -0.03161225 0.08547933 -0.06981408 0.045092385 0.033404406 -0.035174824
-0.010374652 0.05788437 -0.06799093 -0.06401659 0.08965589 0.04607541 -0.019434635 0.09378742
0.06936712 0.016666535 0.042989522 0.09199674 -0.008925787 0.005951809 0.019339293 -0.037648603
0.02191232 0.07689554 -0.037419446 -0.05558997 0.052009393 0.0816665 0.00028078255 -0.030321049
-0.056892123 -0.048456814 0.06229915 0.04518668 0.052517895 -0.041420918 0.029274289 0.051881436
-0.036435522 0.05020575 -0.04043125 -0.00077495014 0.00816139 0.031285394 -0.045122035 -0.059855748
-0.039135806 0.059098203 0.014738692 0.031739715 0.07772097 -0.03134603 -0.08148181 0.007631009
-0.07985198 -0.08935036 -0.016733546 0.072879754 0.066851094 -0.04516193 -0.0418477 0.031436708
0.0363804 -0.016072843 0.0423515 -0.038667597 0.059274703 0.04449808 -0.028519552 0.014316312
-0.05212587 0.05706719 -0.023131438 0.050085146 0.013898731 -0.05896857 0.037970114 0.044250898
0.030838404 0.01024064 -0.08890975 -0.04437737 0.07640016 -0.049453404 -0.006539506 -0.031815004
-0.009961656 -0.026180541 0.0104392115 0.079540454 0.013814331 -0.0060282014 0.022753512 -0.0039898236
-0.0268618 -0.028930364 0.006256757 -0.076422036 -0.027513316 -0.0889915 0.062459916 0.025910351
-0.007044743 0.0402741 0.039285406 0.06536753 0.06088593 0.062334903 -0.022487 -0.09022196
0.026276113 0.034792934 -0.044810534 0.053864453 -0.030147124 0.04708556 0.063418426 0.019065538
-0.026581742 0.02215587 0.025821455 0.08162043 -0.08133428 -0.064272255 -0.025281688 -0.039337225
0.049413845 -0.04733975 0.058508042 -0.044611033 0.046374556 0.05098124 -0.01726279 -0.061774224
0.029041894 -0.06553026 -0.048427287 0.02846624 0.04470462 -0.0746455 -0.044244688 -0.035790462
0.04061006 -0.013902884 -0.085860655 -0.01139636 0.0033240267 -0.09225943 0.029032033 0.04709519
0.033940095 0.006427012 -0.007440747 -0.0065232306 -0.054949142 -0.074746855 0.024366954 -0.06760863
-0.054293137 -0.045511093 0.01185873 -0.037022993 -0.005220664 0.08768048 -0.06977668 -0.037459113

module.conv_1.bias f4 [56]
00000000: a00c 383c 56c2 3e3c 095d 053d 4ae2 403c
00000010: 5159 583d 6273 733d b03e 49bd aea6 203d
00000020: f019 91bc 5c43 7e3d 6552 21bd e9b1 963d
00000030: 4c6c 6cbd 2140 c73c bbc6 833d 8996 b03c
00000040: 25fd e5bc e00e 9c3d ee91 4cbb 43b9 a93c
00000050: 259e bbbb 1414 9b3d efd1 da3b 620b a5bd
00000060: cf6d b7bc 75a4 19bd 924f ca3d 031a 503d
00000070: 1dc1 593b e6c8 9cbc 64ec 65bb d5be db3c
00000080: 8370 a13d 9212 913d 2fb7 05bd 13d2 47bd
00000090: 674f 2e3d c47b 1b3c 2df7 3cbd 3b30 18bc
000000a0: 4358 9cbd 86e0 1bbd 491f 9abd 9d00 9fbd
000000b0: a4bf ab3c c9d2 89bc 17fa 1fbd 02af 96bd
000000c0: f3ea 9d3d 71aa 1c3d 0be2 cdbb f4e4 233b
000000d0: 2a39 98bc 4dc4 3b3d c9ff 96bc b6fc 753c
0.011233479 0.011643013 0.03255943 0.0117727015 0.052819554 0.05943621 -0.04913205 0.039221458
-0.017712563 0.062075958 -0.03938522 0.073581524 -0.057720467 0.024322571 0.06434389 0.021556156
-0.02807481 0.07620025 -0.003121491 0.020718222 -0.0057256394 0.07572189 0.006677858 -0.08058812
-0.022391228 -0.037510354 0.09878458 0.050806057 0.0033226677 -0.019138765 -0.0035083527 0.026824394
0.07882788 0.0708362 -0.0326454 -0.048784327 0.042556193 0.009489957 -0.046134163 -0.009288843
-0.07634022 -0.03805592 -0.075254984 -0.07763789 0.020965405 -0.016824143 -0.039056864 -0.07357599
0.07710829 0.038248483 -0.00628305 0.0025008293 -0.018581945 0.045841504 -0.018432515 0.015013864

module.conv_2.weight f4 [12, 56, 1, 1, 1]
00000000: b494 053c 6fee da3b 8879 9abc 7d1d 24bd
00000010: c03b da3d d4dc 043e 95e5 733d 227e db3d
00000020: d3d3 a33d d639 f93d 3816 c5bd cace e13d
00000030: d354 d0bd cb6a ca3c 3c3f 9a3d 2beb a7bb
00000040: 9f5a e13c ba03 ef3d 7d20 d83c f150 423c
00000050: 1c78 973d 45d1 4d3d 03ca 4abd 49ce febc
00000060: c7d6 f93d ffec cebd bfbe cb3d 3c5e f63c
00000070: 9154 c5bd 4fe1 bbbb eb07 fd3c cfd1 e1bc
00000080: da38 ee3c a0d3 af3d f935 52bd 4985 573d
00000090: 9824 5bbd 9639 193d 4253 c7bd 61f0 37bd
000000a0: e549 903d ddad ef3d e5d6 9c3d 5d1e aa3d
000000b0: f8e8 8dbd 01b6 c03d 5225 4c3d e8b0 08be
000000c0: 7c1c ea3d 171f c5bd 61d4 05be 6d26 293d
000000d0: b32b 04be 798d 183e 2f5f 8f3d c735 f63d
000000e0: 82ea 0b3e bd55 dfbc 47db 83bd 0d96 81bd
000000f0: 2061 b3bc a8f0 ac3d a0d9 fb3d 54be b83d
00000100: d900 1fbe 9380 eb3d de72 fbbd f3af 6fbd
00000110: ff24 913c 73db 13bc 2df6 2d3d 4167 51bd
00000120: 2a55 1fbd d612 ba3d 255c 813d ba50 f13d
00000130: dae6 01be 7781 7ebd 6d68 65bd 0bfb 073d
00000140: 6499 67bd 72f0 0cbe e919 b6bd 7a80 813d
00000150: 71e3 38bd f1aa 2a3d ed03 153e 8d2f 45bc
00000160: 7f05 f4bd 845a 113d 1677 c23c 12d0 0b3e
00000170: 1c65 973d 4cb9 943d 1a96 e8bd ebfc 7bbd
00000180: 6c25 533c 687b 943d 066d b53d dbf7 eabb
00000190: 3307 5cbc 71fc 973d 8536 d3bd 39ff 053e
000001a0: d95c 453d 3fcd bb3d 284a 2d3d 5cef bdbd
000001b0: 3ddf febd 1c12 6b3d 2180 e43a 1aef 863d
000001c0: cc07 ccbd 6f1c 043c 5c33 03be dd40 a93d
000001d0: eac0 99bd c6cd aebd ac61 b9bd ce13 f73d
000001e0: 0fbb dabd ed15 cfbd 57f3 03be f2cd e73d
000001f0: e583 19be 1d66 95bd cadf 6a3c c4ad 293d
00000200: 562a e7bd e5c0 783d ea31 0fbe d1bb 55bd
00000210: 1f4e d2bc 9396 533d 8ebe 503d f276 d73d
00000220: 054c d33d 16ed 13bd ebdf 623d b4c7 4ebd
00000230: 06b7 efbd 6953 f7bd 72c6 253d bd44 b8bd
00000240: 48f7 63bc e92a 093e bac5 08bd 1dc9 31bd
00000250: 708c c33d 2fde 96b9 1ce1 f9bd b35d c83d
00000260: b7e1 02bd 5b6c 99bd 8e93 103c d57b 82bb
00000270: 44ae 4b3b 3ef2 5f3d b5ba d23a bb8f a43d
00000280: ea99 0d3e 9aad d03d aba5 44bd 684e 3bbc
00000290: 9815 ab3d 7ce6 3bbd fe38 083e 4d8e ac3b
000002a0: 9cf6 933d 8fd4 d7bd 4344 0cbc 078f a5b9
000002b0: e0d0 063e 1014 0bbd 5a8b 5cbd 9a82 27bd
000002c0: 04f1 c0bd a6ae 8bbd 260f d83d 82b0 7ebd
000002d0: 29dc b0bd 7ce1 653d 2b40 42bc 0038 873d
000002e0: d16e ebbd 3b3f 46bd 1cd9 383d f424 f3bd
000002f0: 5c0d 5fbd f21d 173e 04ad ad3d 0761 0b3e
00000300: c4c1 fe3d 15d3 e33d 1197 15be 963f ea3d
00000310: 612a 043d 6fea bebd 8601 d2bd 9135 d1bd
00000320: fd89 bdbd addb 22bc a970 a83b 057f f63d
00000330: 6f57 03bc 7497 07be d3c2 febd dd53 6dbd
00000340: b6ca 133e 6ca6 193d c984 c5bc b8fe 08bd
00000350: 9904 3ebc 8edf 8c3d 7470 86bd 992c 30bd
00000360: 5347 363d 80f0 963d 1b84 2ebd 566d 683d
00000370: 7ee4 993d 2d37 a63d bfa0 2dbd 84cf 01bd
00000380: c8c8 bdbc 5b5e 8ebd 106e 45bb 6c86 213d
00000390: 0a3f dfbc 422a 8c3d d0f7 813d 3802 133d
000003a0: c4aa 1ebd 45e5 c43c 5a4d 9c3d ed12 073d
000003b0: e158 28be 75b4 55bd 94c8 8c3d 85cf 433d
000003c0: bcdf 293d 0346 90bd 9f47 073d de10 bc3d
000003d0: 0900 72bd 621e a93d e4b6 813d 069b 053d
000003e0: 3a44 b73d 2983 543d c75e c8bd b138 ab3d
000003f0: 7a33 1ebd 5c1b c13d c061 073d a7b0 04bd
0.008153129 0.0066812555 -0.018856779 -0.040067185 0.10655928 0.12974864 0.05954512 0.10717417
0.07999387 0.121692345 -0.096233785 0.1102577 -0.10172429 0.024709126 0.07531592 -0.0051244698
0.027509032 0.11670633 0.02638268 0.011860118 0.07395956 0.050248403 -0.04950906 -0.031104224
0.12199169 -0.10103797 0.09948491 0.030074231 -0.096352704 -0.005733646 0.030887565 -0.027565865
0.029079843 0.08585286 -0.051321004 0.052617345 -0.053501695 0.037408434 -0.09732677 -0.044906978
0.07045344 0.11703084 0.076581754 0.083065726 -0.06929201 0.094097145 0.04984028 -0.13348734
0.11431214 -0.096250705 -0.13069297 0.04129641 -0.12907295 0.14897718 0.07000577 0.12021976
0.13663676 -0.027262563 -0.06438308 -0.06327448 -0.021896899 0.08444339 0.12297368 0.09020677
-0.15527667 0.11499133 -0.122777686 -0.058517408 0.017717836 -0.009024489 0.0424711 -0.05112386
-0.03889958 0.09085624 0.06316403 0.117829755 -0.12685719 -0.062135186 -0.05600779 0.033198398
-0.05654277 -0.13763598 -0.08891661 0.06323333 -0.04513878 0.04166693 0.14552279 -0.012035263
-0.11915111 0.035486713 0.023738425 0.13653591 0.07392332 0.07261905 -0.113567546 -0.0615205
0.01288734 0.072501004 0.08858685 -0.00717066 -0.013429451 0.07421196 -0.10313133 0.13085641
0.04818425 0.09170007 0.04230705 -0.0927417 -0.12444923 0.057390317 0.0017433205 0.06588574
-0.09962425 0.00806342 -0.12812561 0.08264325 -0.075074986 -0.08535342 -0.090518326 0.12064324
-0.1068021 -0.10111604 -0.12885796 0.11318578 -0.1499172 -0.07294867 0.014335582 0.04142548
-0.11287372 0.060730834 -0.13983884 -0.05218107 -0.025672017 0.05165727 0.050962977 0.10520734
0.10317234 -0.036114775 0.055389326 -0.05048342 -0.11704831 -0.12076456 0.040472455 -0.08997486
-0.013913937 0.13395275 -0.03339169 -0.043404687 0.09548271 -0.0002877577 -0.12201139 0.09783497
-0.03195354 -0.0749137 0.008824242 -0.003982047 0.0031079212 0.05467438 0.0016077372 0.08035227
0.13828245 0.10189362 -0.048009556 -0.011432268 0.08353728 -0.045874104 0.13302991 0.005265987
0.072247714 -0.10538589 -0.008561197 -0.00031577816 0.13165617 -0.03395468 -0.053843834 -0.040896036
-0.0942097 -0.06820421 0.10549764 -0.06218005 -0.08635742 0.05612324 -0.011856119 0.06602478
-0.11495746 -0.048400145 0.045128927 -0.118722826 -0.0544561 0.14757517 0.08480266 0.13611232
0.124393016 0.11124245 -0.14608409 0.11437909 0.03226698 -0.093220584 -0.10254197 -0.10215295
-0.09254835 -0.00994007 0.0051403833 0.12035946 -0.008016451 -0.13241369 -0.124395035 -0.057941306
0.14432797 0.037512228 -0.024111168 -0.033446044 -0.011597776 0.06878577 -0.065644175 -0.04301128
0.044501614 0.073700905 -0.042606454 0.056744896 0.075142846 0.08115993 -0.042389628 -0.031692043
-0.023167029 -0.069515906 -0.0030125417 0.039434835 -0.027251739 0.068439975 0.063460946 0.035890788
-0.038737074 0.024035105 0.07631941 0.032977033 -0.16440155 -0.05217405 0.06874195 0.047805328
0.041473135 -0.07044604 0.033027288 0.09182905 -0.059082065 0.08257748 0.06333712 0.032618545
0.0894856 0.051882897 -0.09783702 0.083604224 -0.03862331 0.094290465 0.033052206 -0.03239503

module.conv_2.bias f4 [12]
00000000: 6faf 6d3d ac83 de3d 29ff c7bc 9f0f c4bd
00000010: fba5 6d3d bc0d b5bc b371 92bd 56e7 003e
00000020: 7f08 c7bd 1b00 5e3c 84f0 1d3d f951 bd3d
0.058028635 0.10864958 -0.024413662 -0.09573292 0.05801962 -0.022101276 -0.07150593 0.12588248
-0.097184174 0.01354983 0.03855945 0.09244151

module.conv_3.weight f4 [12, 12, 3, 3, 3]
00000000: 7259 8a39 504e 213c 02ae 2dbc 2192 25bd
00000010: 2cf7 f33c 850e 023d b8f4 0cbd 6560 ad3c
00000020: 13b6 223c c662 adbb f518 34bc 8651 4dbc
00000030: c1f5 643c 662f ca3b b27e a53b 8e7b 3abd
00000040: 6513 503d 15cd b83c e329 d2bc 1000 96bc
00000050: ec38 26bd bd4c 5e3c 8c09 64bc 03a7 c5bc
00000060: 3ca1 6f3d 5731 4d3d b8ec 5f3c c98c d6bc
00000070: e883 083d dc7f 9d3c 49c2 3c3d d73f da3c
00000080: 3515 03bd 773c 0abd a43a 853c 4355 45bd
00000090: 93e6 d8bb 64c7 ac3c 0571 16bd 8fa5 3b3d
000000a0: d0f1 0b3d 50f5 653b 8dd4 0ebc 0e14 703d
000000b0: af62 80bc de9a 103d 1cfa 0fbc 2970 3dbd
000000c0: 0e14 43bd 4627 213c f31b 333d b6e0 ef3b
000000d0: 977b 69bc 4801 14bd 997f ea3c fd1c af3c
000000e0: 9a56 15bd fc28 0c3b 1870 d43c 5f94 2ebb
000000f0: 9e8d 2ebd a63c 81bc e091 2f3c 0908 833c
00000100: 8e2c 003d dad0 5d3d ce05 0cbd 60b9 29bd
00000110: a6ae fdbb 7d1e 953c ba5c 413d 5c7d 3cbd
00000120: 6d70 0d3d 67b2 15bd 1eed f4bc 794c b73b
00000130: 19f3 37bc 3aff 0d3d e961 b33c 1da9 36bd
00000140: 2df5 043d d121 5bbd 695e cfbc b968 cc3b
00000150: fd6b c83c 653b 98bb 3976 373c b9d9 cebc
00000160: 313d d5bc 0d97 853b d14d 42bd b066 953b
00000170: 81ee 1c3c 9913 32bd 9146 17bc b3f8 49bc
00000180: f82b 62bd 09a0 aabd 01c6 9abc 24c3 57bd
00000190: 9ee9 09bd b2f1 39bb 4600 78bc 69ee 063c
000001a0: b1be ca3c 4066 063d c4cb adbc 396a fc3c
000001b0: 7547 e63b cb44 563d c37b 5e3d 1c63 693d
000001c0: 665a 5dbc 9c02 023d 701c ee3c b137 26bc
000001d0: a9b2 5d3c b927 223d 472d afbb 8688 28bd
000001e0: 522b 8b3c 5552 35bd 0b17 c73c d5ab d13a
000001f0: 3312 2d3d fb6e fb3b 3941 ec3c 6b2d 03bd
00000200: f5b1 fd3c 66ae 323d 8373 dfbc fba5 37bb
00000210: 1293 6e3c 112c 8c3c 5921 9fbc 92f7 a43b
00000220: 5c2b 46bc 5b60 dc3c 9229 adbb 7c69 05bd
00000230: 8e32 b6bc 0e4d 2ebd 9cf9 023d f5b2 adbd
00000240: a776 1c3d 8dda 453d be4d 1b3d faf3 a13c
00000250: 6fd7 2a3c e498 1b3c c072 6dbd 017b 24bd
00000260: 7e60 603c ec58 993c 09bf a93b 620f 94bc
00000270: 76ac 0ebd 36b3 56bd 4c25 2b3c 63e3 b4bc
00000280: ac5b 55bd 8b4d e43b 77d6 2abd c061 d83b
00000290: 12c4 acbc 3169 f23c 929b 603d 6b23 653c
000002a0: 9871 893c a783 483d 6731 a63c 4293 28bb
000002b0: 5860 263d 207d d0bc d75f e53c e82d 233c
000002c0: a43e b7bc 6df3 4dbd 6b00 4cbd deaa 4dbd
000002d0: 6f85 c0bb 634c 303d 372e 1c3d 0b31 f6bb
000002e0: 2d68 fb3c 6739 d93c 9040 0a3d 6965 95bc
000002f0: 8ea4 5c3d 5c5f f33a bf24 e03b 825d 6d3b
00000300: b1f6 f63c 4f73 f4bc c519 8a3c 81b2 633c
00000310: aef0 143d 24e1 51bc e62e 953c 789a 83bb
00000320: 2ba3 c43b 5194 debc db64 15bd d7a5 213d
00000330: d8e1 473d 2b02 fa3c fb02 4d3d ac03 5c3d
00000340: 75d3 4dbd 9888 98bc 8fbc 1c3c 0dfd 4e3d
00000350: 94e3 e53c c24e 2f3d 5fcf 6f3d 908d d13c
00000360: ce4f 88bc e90e 32bd 0bd9 4f3d e41e 44bb
00000370: 62b4 3fbd 8e98 3c3d 8714 25bc 92b5 dfbc
00000380: 8e7f 1ebd 4ddb 10bd cb15 36bd 9d8b 423d
00000390: 2044 83bc 64f5 e9bb 4eb9 383d e455 08bc
000003a0: e75c 4a3d 19cd 8f3c 4d35 5bbd 5419 1cbd
000003b0: d54c 6ebc 6b44 e9bc b4d8 39bd 595e 36bd
000003c0: 9d6a 043d e0b3 0c3d 879c 0abd e20d 78bc
000003d0: 2669 8a3c e872 1ebd 3a81 4cbd c9da aebc
000003e0: c339 f8bc 298a a6bc 4f0b e6bb 08ec bd3c
000003f0: d95d 63bc f181 de3c 2c00 40bd 533b 74bc
0.00026388053 0.009845331 -0.010600569 -0.040422563 0.029780947 0.03175213 -0.03441307 0.021164129
0.009931105 -0.0052913157 -0.010992278 -0.012531644 0.013974608 0.006170201 0.0050505036 -0.045527987
0.050799746 0.022558728 -0.025654739 -0.018310577 -0.04058163 0.0135681005 -0.013918292 -0.024127489
0.058503374 0.050095882 0.013667278 -0.026190178 0.03332892 0.019226007 0.046083722 0.02664177
-0.032002646 -0.03374907 0.016263314 -0.048177015 -0.0066192835 0.02109117 -0.036728878 0.045812186
0.034166157 0.0035088845 -0.008717668 0.058612876 -0.015672056 0.035303943 -0.008787658 -0.046249542
-0.047626548 0.009836024 0.043727826 0.007320489 -0.0142506575 -0.036134034 0.028625296 0.021376127
-0.036459543 0.0021386733 0.025932357 -0.002663873 -0.042615525 -0.01577599 0.010715932 0.015995042
0.03129249 0.054154254 -0.034185223 -0.041436553 -0.007741767 0.018203015 0.04720757 -0.04601799
0.034531046 -0.03654709 -0.029898223 0.005593833 -0.011227393 0.03466723 0.021897273 -0.044594873
0.03246038 -0.053499047 -0.025313573 0.00623807 0.024465555 -0.0046457523 0.01119762 -0.025250303
-0.026030155 0.0040768445 -0.047437493 0.0045593604 0.009578348 -0.04347572 -0.009233133 -0.012327361
-0.055217713 -0.083313055 -0.018893244 -0.052676335 -0.03367006 -0.0028372821 -0.015136784 0.008235552
0.024749132 0.032812357 -0.021215327 0.03081237 0.0070275613 0.0523117 0.054317247 0.056979284
-0.013510322 0.03174077 0.029066294 -0.010145114 0.013531365 0.039588664 -0.0053459737 -0.041145824
0.01698843 -0.04426797 0.02430298 0.0015996645 0.042253684 0.007673142 0.028839694 -0.032025736
0.030968646 0.04362335 -0.02727676 -0.0028022516 0.0145614315 0.017110856 -0.019425081 0.0050343955
-0.012095299 0.026901415 -0.0052844966 -0.0325713 -0.022240903 -0.042553954 0.031976327 -0.08481399
0.038199093 0.04830413 0.037915938 0.019769657 0.01042734 0.009496901 -0.057970762 -0.04015637
0.0136948805 0.018719159 0.005180244 -0.018073741 -0.03483244 -0.052417003 0.010445904 -0.022081083
-0.05208938 0.0069672517 -0.041708436 0.0066034496 -0.021089587 0.029591175 0.054835863 0.013985495
0.016777799 0.04895368 0.020287229 -0.0025722538 0.040619224 -0.02545029 0.027999802 0.009959675
-0.022368737 -0.050280977 -0.049805086 -0.05021178 -0.0058752815 0.043041598 0.03813001 -0.0075131706
0.030689323 0.02651663 0.033752978 -0.018236833 0.05386787 0.0018567848 0.006840318 0.0036219065
0.030146929 -0.02984014 0.016857991 0.013897539 0.036362343 -0.012810025 0.01821084 -0.004016217
0.0060008965 -0.027170332 -0.036473136 0.039464798 0.048799366 0.030518612 0.05005167 0.05371444
-0.05025049 -0.01861982 0.00956644 0.050534297 0.02806262 0.04279972 0.058547374 0.025580198
-0.016639616 -0.04347125 0.050744098 -0.0029925639 -0.046802886 0.046043925 -0.010075695 -0.02730826
-0.038695864 -0.03536539 -0.044454377 0.047496427 -0.016023695 -0.0071398485 0.045098595 -0.008321259
0.049405005 0.017553853 -0.05351763 -0.038110092 -0.014544685 -0.028475007 -0.04537268 -0.04452357
0.032328237 0.03435123 -0.033840682 -0.015140029 0.016895842 -0.038683802 -0.049927928 -0.02134456
-0.03030098 -0.020329552 -0.007020391 0.023183838 -0.0138773555 0.02716157 -0.046875164 -0.014906722

module.conv_3.bias f4 [12]
00000000: 819c 41bd f740 5f3d e27c 483b 24e9 093d
00000010: e3bf a73c 9009 04bd b6ba 42bd af8f 16bd
00000020: 00c9 62bd d468 d63c fb22 5f3d ae31 083d
-0.047268394 0.054505315 0.0030592014 0.033669606 0.02047724 -0.032235682 -0.047541343 -0.03675812
-0.05536747 0.026173033 0.05447672 0.033250503

module.conv_4.weight f4 [12, 12, 3, 3, 3]
00000000: 00b8 b23c 32cd 0dbd ef68 3fbd 5838 78ba
00000010: 0f94 0d3c 873a 173d e679 afbc b0e9 91bb
00000020: 9485 803c b4b4 fa3c e502 63bd 2002 0d3d
00000030: f6d8 833c f858 65bd 3651 533d 4734 59bd
00000040: 662f f8bc 765a d83c ffa8 13bc e450 6c3b
00000050: 082e a53a 04b6 3e3d 3b54 b5bb ff03 5abd
00000060: 3ece 60bd f03e 4cbd cafb c9bc b8a7 12bd
00000070: 7613 01bd 8c38 33bd c868 783d 85f1 0a3c
00000080: cf3b dfbc ec16 1e3d 1830 7b3d bcde 2a3d
00000090: 6f3d 1abd 7e69 d33b ec49 6ebb 4a45 313d
000000a0: 4180 853d 3331 12bd 878f 423d d2b9 edbb
000000b0: 618c 11bb 830a 5d3d 97b5 2c3d a0fe 323c
000000c0: 0e5b 4b3d ad1f d8bc abf3 483c d573 c9bb
000000d0: 3694 04bd a8b7 3c3d 19da 32bd 4604 663d
000000e0: 0389 623c 8b67 ebbc 8bf5 0bbc 6f9a 26bc
000000f0: d0cb 25bd a002 7abc 7835 abbc 9fbd 5ebd
00000100: 60dd 41bd 6166 ac3c 168a f3bc 847b 39bd
00000110: 5a93 3ebd abde 9d3a fa01 bcbc 05c2 343d
00000120: 9b80 05bd 568a 623d 0b53 263d 070b 073d
00000130: 8064 b7bb 2ed3 df3c 74f3 103c fa59 ab3c
00000140: fec8 583c f098 5cbc 9081 c0bc fd96 1ebc
00000150: 60c0 d23c 30b5 cabc 2f46 eebc 8378 55bc
00000160: 1d95 ab3c 3c3f 04bd 23a9 44bd 9449 b3bc
00000170: 49c7 c4bc dbe8 4a3c cc3e f6bc e72b f13c
00000180: 175c c7bc a93e 3ebd 9d4d 2b3d 7284 563d
00000190: 21e2 323d 3f61 4bbd 5c0d 563d 2c1b a6bc
000001a0: 6953 1b3c ff99 da3c 3fab fa3c 4891 85bb
000001b0: ddd0 dc3c 5a35 0fbd 0928 c13c 1387 24bd
000001c0: c770 9a38 5127 0e3c 3641 483d f40a 073d
000001d0: 337c 36bd 1507 f43c 1aa3 4d3c cdf4 1ebd
000001e0: 8c0b c6bc 8cc6 1abd 54cf f43b 9672 3dbd
000001f0: 25fd 38bd becd 923b e6f8 5d3c a33b d63c
00000200: a91c 8abc 9450 37ba e01d 203c cc8d 5e3d
00000210: d2b0 643d 0848 e1bc ee7c 6b3c 716d 22bc
00000220: 6e04 06bb b2c7 d2bc 7439 30bc 711b 783d
00000230: c7f7 5f3d 2829 87bd 8410 5f3d 2897 5abc
00000240: 680b 32bc d435 203d fc5e 4c3d 7fda 2ebd
00000250: 01f1 d4bc 442f 13bd 75c7 8e3c 99fa 5cbd
00000260: f783 92bc a9b5 aebc c7e9 63bc c0d5 003d
00000270: 2c20 843c c91a 383b 0b9b 163d e8c1 b7bb
00000280: 4bfc f63b 84bb babc aa04 263d 0ada 81bb
00000290: 8cba 5c3d e6c0 cfbc 8c7f 62bd 41d6 313c
000002a0: 3c9b 633c 849a efbc 483f 94bc 643e 88bc
000002b0: 9c08 4b3d 2e87 08bd 6070 15bc 12d6 a9bc
000002c0: f7bb 383d e31d 16bd 546a 47bd cd09 5bbd
000002d0: ffdd 1d3d d7ed 52bd 6d0e 20bd 414e 06bc
000002e0: aa0f 03bd a7c4 5e3d 902c 373d 5690 373d
000002f0: 04c0 183d 1dc7 64b9 b981 d4bc 28cb 0abd
00000300: 62f4 053d 5b62 713c 0b86 20bd 2ba4 123c
00000310: 2d17 ef3c dce9 3fbc fdf6 4e3d 0fa4 23bd
00000320: 0c16 2d3d f90a 213d 91c1 33bd 4933 c43c
00000330: d505 7f3c bd85 b4bc cf12 f4bc 643d cabb
00000340: a0cd e93c f26e 383d e27d 123d a4a1 203d
00000350: ebc0 29bc 1d3d 513b 4049 6d3c 720a 043d
00000360: 8e51 b13b c974 243d 4765 b6bc 6d10 23bd
00000370: 758e f9bc 69ce 52bd 00f5 5f3c 95a4 4a3c
00000380: 0479 ff3c 5514 5d3c 721a 8fbc 84f9 4c3d
00000390: 8794 683c e4bb 09bb 1559 b1bc 6433 963c
000003a0: 55f3 b83b 8e00 9bbc 9903 28bd 8e12 f73b
000003b0: 2533 373d 1d1d 2f3d 79a4 e73c c722 423c
000003c0: 8e87 cf3b 9db4 81bb 3968 6c3c 2b1a 2e3d
000003d0: 83a7 783d f8b8 5b38 ff31 e73c 0809 9639
000003e0: 1b52 263d c926 dc3b 2480 053d 3aa9 63bc
000003f0: 7bea adba 52e3 e73c 52de 5a3d cfd1 26bc
0.021816254 -0.034619518 -0.04673093 -0.0009468845 0.008641257 0.03692105 -0.02142043 -0.0044529065
0.015688695 0.030603744 -0.055422682 0.034425855 0.016094666 -0.05599305 0.05159112 -0.05302837
-0.030296039 0.026410323 -0.00901246 0.0036058957 0.0012602219 0.046560302 -0.0055337227 -0.053226467
-0.054884188 -0.04986471 -0.024656195 -0.03580448 -0.0315127 -0.0437551 0.060646802 0.008480434
-0.027250199 0.03859608 0.061325163 0.041716322 -0.037656244 0.0064517846 -0.003635998 0.04327897
0.06518603 -0.03569145 0.04750016 -0.0072548175 -0.0022208916 0.053965103 0.042165365 0.010924965
0.049647383 -0.026382292 0.012265126 -0.0061478415 -0.032367907 0.046073586 -0.043665025 0.05615642
0.013826611 -0.028735897 -0.008542429 -0.010168656 -0.040477574 -0.015259415 -0.02089952 -0.054380056
-0.04733026 0.021044912 -0.02972893 -0.04528381 -0.046527244 0.001204451 -0.022950161 0.044130344
-0.03259335 0.05530771 0.04060654 0.0329695 -0.0055966973 0.027322378 0.008847106 0.020916928
0.013231514 -0.0134641975 -0.02349928 -0.009679553 0.025726497 -0.0247446 -0.0290862 -0.0130292205
0.020945126 -0.032286867 -0.048012864 -0.02188567 -0.024020808 0.012384619 -0.03005924 0.02943988
-0.024335904 -0.046446476 0.041822065 0.052372403 0.043672685 -0.049653288 0.052258834 -0.020276628
0.009480336 0.02668476 0.030599235 -0.0040761568 0.026955063 -0.03496299 0.02357866 -0.04016788
7.364299e-05 0.008676366 0.048890315 0.03296943 -0.04455204 0.029788533 0.0125510935 -0.03880768
-0.024175428 -0.037787005 0.0074710045 -0.046251856 -0.045163292 0.004480093 0.013548112 0.026151484
-0.01685937 -0.0006992903 0.009772748 0.054334447 0.05583269 -0.027500167 0.014373047 -0.009913788
-0.0020449418 -0.025729988 -0.010755885 0.060573045 0.05467966 -0.06599647 0.05445911 -0.0133417025
-0.010866977 0.039113835 0.04989527 -0.042688843 -0.025993826 -0.035933748 0.017429093 -0.053949926
-0.017885191 -0.021326857 -0.013910717 0.031453848 0.016128622 0.0028092137 0.036768954 -0.005607832
0.0075374 -0.022794493 0.04053179 -0.00396276 0.053888842 -0.025360536 -0.05529742 0.010854305
0.013891991 -0.029248483 -0.018096581 -0.016631313 0.049568757 -0.033332042 -0.009121031 -0.02073196
0.045101132 -0.036649596 -0.048685387 -0.053476144 0.03854179 -0.051496353 -0.039076257 -0.008197368
-0.03199736 0.05438676 0.044720232 0.044815384 0.037292495 -0.0002181795 -0.025940763 -0.03388515
0.032703765 0.014732922 -0.039190333 0.0089502735 0.029185856 -0.011713471 0.050528515 -0.03995138
0.042257354 0.039317105 -0.04388577 0.023950236 0.015565355 -0.022036428 -0.029794125 -0.006171869
0.028540432 0.04502768 0.035764582 0.039216653 -0.010360937 0.0031927295 0.014482796 0.032236524
0.0054113334 0.040150438 -0.02226509 -0.039810587 -0.030463437 -0.05146638 0.013669252 0.012368341
0.031185634 0.013493617 -0.017468665 0.050042644 0.014195568 -0.0021016533 -0.021648923 0.018335052
0.005644242 -0.018921163 -0.041019056 0.0075400537 0.04472651 0.042752374 0.028276669 0.011849112
0.006333298 -0.0039582984 0.0144291455 0.042505424 0.060706627 5.2385934e-05 0.028222082 0.00028616958
0.040605646 0.0067184907 0.032592908 -0.013895327 -0.0013268733 0.028306637 0.053434677 -0.010181858

module.conv_4.bias f4 [12]
00000000: f5f8 483d 591a 2ebd 76e1 2bbd af4e 87bc
00000010: 8e87 053d f7d9 b63c 56fd a03a 1e93 05bd
00000020: bf08 1f3d 3d9f 0ebb 001e 843c 428c 65bd
0.04906555 -0.042505596 -0.041963063 -0.016517011 0.03259998 0.02232073 0.0012282531 -0.032611005
0.0388267 -0.0021762394 0.016127586 -0.056041963

module.conv_5.weight f4 [12, 12, 3, 3, 3]
00000000: fe7b 3a3d 47da 7ebd 4459 4abd 070d 083d
00000010: f748 983c aa8f d0ba f170 8b3c c045 b33c
00000020: bf19 b5bc 8156 22bc ae23 e83b 1bae 0f3d
00000030: 38a8 7dbd a7b1 4ebd 5566 83bd c9f8 4dbd
00000040: 0d93 84bd 15f4 0cbd 8d9f fe3c 2244 ff3c
00000050: 269f 7ebc 1adf e73c 3bcd 1bbd 2b5e 5fbd
00000060: b1ce fd3c 5eb8 1cbd 2be8 c93a e79e 3e3d
00000070: 18cd 11bd f27e 26bd 3ddb e03c 2555 03bd
00000080: ca51 12bd 9e14 073d 3dd1 eb3b f4d9 6abb
00000090: b04a 57bd 694d 45bd aca8 a43c 6439 debc
000000a0: 968f 35bd 5c47 b1bc e4e0 27bc 322a 40bc
000000b0: 5adb 38bd b29e 60bc f9b2 0fbc 870b 5e3d
000000c0: c4c3 1fbd e0a2 8d3c ed4b 4c3d f238 e73c
000000d0: c721 93bb f041 493d 5a0a 163d f277 a8bc
000000e0: 2cfb 3c3d 0357 023d 3117 943d bca5 0c3d
000000f0: f042 ea3c e1ed 943c c9bf 153d 34e9 cf3c
00000100: 41fb 123c 50dd 543d a987 7d3d 1963 883d
00000110: c497 03bd 7c33 e0bc b982 2d3d e4de 423d
00000120: d131 703d 54a0 b53c 549a de3c 614d d6bb
00000130: 5046 0e3c d390 163d 9e6f 6b3d fbfb 95bc
00000140: 5cce 61bc 048b 693d e0d5 1abd 4a15 663d
00000150: b6fd 0cbd 5466 043d 4152 48bc dd7d f53c
00000160: 2681 843c 16ee 4cbd e6c0 743d a1a5 ad3c
00000170: 925e 62bc 8a84 bebc 7cfe 3abd b0fa 243d
00000180: daf0 5b3b 8f7b 5fbd e6c4 8fbb 92f9 8e3d
00000190: 124d 783d 8123 9dbc c2f5 433d 148e bc3c
000001a0: 5e01 173d 2c90 0d3d d227 88ba 430b 3a3c
000001b0: a65b 37bc 3fbf a6bc 36ad 1c3d 089f 29bd
000001c0: bea3 62bd 4aa0 a9b9 943e 54bc a8bc d53c
000001d0: f039 4f3d 4350 4cbd a8bb 133d 8da2 acbc
000001e0: 802d ef3c 22a7 c6bc 3b8e f93c c8b6 9dbb
000001f0: 03ef 0a3d 2421 e13c 4cca 3abd 9a79 9fbb
00000200: 1b70 6b3c 9ff3 c03c f681 46bc aa04 a3bc
00000210: e5c2 ecbc f1e8 f43c bd62 8fbc f4aa 643d
00000220: f790 b3bc 9315 f8bc 5ff2 fa3c 8931 ab3c
00000230: ba33 653c 6dff a8ba c13e 813b 78f0 ac3c
00000240: ace3 463d 6b30 673c f6ce 6f3d a339 673c
00000250: 3fc4 dcbb 5c7f c43c 5325 183d 5ced 3b3d
00000260: 660b 223d e6ba 373d a9de 113d 6b9d 593b
00000270: 60a0 ddbb 4253 f83c ed77 f33c dadd 57bc
00000280: b43f c63c a13f b73c e238 92bb 2b33 243d
00000290: 3270 26bd 4d2b 0bbc affc 9c3c ff38 a43c
000002a0: 9a7d 9bbc 601b 29bd 8e24 21bd 0fc0 d6bc
000002b0: 64d3 ddbc 3f6c 85bd 0dca 99bb 4011 8bbd
000002c0: df99 f13c 001b cbbc d406 c9ba 2219 40bc
000002d0: 1f5d 393c 85f0 353d 282b 3d3d 6d72 fd3c
000002e0: 8dd6 8bbc b79b 1c3d 9aa1 02bd 7d45 3ebd
000002f0: 12cd 85bc a3ed a4bb 0f29 ee3b b85e ca3c
00000300: 0258 46bd b942 3e3d a7e1 8bbc f906 b4bc
00000310: 73bc 47bd 6cc1 0fbd 1897 6c3d 47f0 5d3d
00000320: 31c4 4b3d a6d0 bc3c f2b5 3dbd 29c5 193d
00000330: 419c 363d 09ee b5bc 77d7 083d 479a e43c
00000340: e6bc eebc 52db 873c f761 31bd 3af2 c63c
00000350: 8546 a63c 1430 3abb 5b8f 113d 237b 0fbc
00000360: fadc 5dbc ef0f 283d b57a 54bd 293d a0bb
00000370: a477 33bd 9b67 73bc fe1e e33c bef4 063d
00000380: 9a43 30bc 13d8 0e3d 70a8 7c3b 4be5 373d
00000390: d01d 053c ed1d 63bd f231 b2bb 57d7 103c
000003a0: 40c6 003d c75c dfbc 739a 9d3c 19aa 74bd
000003b0: a6ce 6fbd 57a0 55bd 7b19 29bd 68b0 2ebd
000003c0: 4dd0 e038 f0e9 6d3c af4a 293d cca9 103d
000003d0: 3b53 2e3d 7ca2 ccbc 5c05 bebc 437c 0c3d
000003e0: c9be 483d 014d f83c 757f 6338 13cd 1d3d
000003f0: 671d 29bc be14 c8bc ff6f 5a3d b8f6 acbc
0.045528404 -0.062219884 -0.049401537 0.03321555 0.01858948 -0.0015911956 0.017021628 0.021883845
-0.022107003 -0.009908319 0.0070843315 0.03507815 -0.061928004 -0.05046239 -0.06416003 -0.05028609
-0.0647336 -0.034412462 0.03108194 0.031160418 -0.015540874 0.028304625 -0.03803752 -0.054533165
0.030982347 -0.038261764 0.0015404274 0.04653826 -0.035595983 -0.04064841 0.027448291 -0.032063622
-0.03572253 0.032978646 0.007196574 -0.0035835477 -0.052561462 -0.048169527 0.02009996 -0.027126975
-0.044326387 -0.021640472 -0.010246489 -0.01172881 -0.045131065 -0.013709711 -0.008770698 0.054210212
-0.039005056 0.017289579 0.049877096 0.028225396 -0.0044901106 0.04913515 0.036630966 -0.020565007
0.046137974 0.031821262 0.07230986 0.034337744 0.028596371 0.018179836 0.036559854 0.025379755
0.008971036 0.051968873 0.061896954 0.066595264 -0.032127157 -0.0273683 0.042360995 0.047575846
0.05864126 0.022171177 0.027173199 -0.006539986 0.008683756 0.03675921 0.057479493 -0.01830863
-0.01378211 0.05701734 -0.037801623 0.056172647 -0.034421645 0.03232415 -0.012226642 0.029967243
0.016174864 -0.050031744 0.059754275 0.021197142 -0.013816493 -0.023256559 -0.04565285 0.040278137
0.0033560307 -0.054561194 -0.004387486 0.069811955 0.060620375 -0.019181969 0.047841795 0.023016967
0.03686654 0.03456132 -0.0010387844 0.011355224 -0.011191284 -0.020354865 0.038251124 -0.04141143
-0.055331938 -0.00032353617 -0.012954373 0.026090935 0.050592363 -0.04988123 0.036067635 -0.021073604
0.0291965 -0.024249617 0.030463329 -0.004813049 0.033919346 0.027481623 -0.04560308 -0.004866791
0.01436999 0.023553668 -0.012115946 -0.019899685 -0.028901527 0.029896231 -0.017503137 0.055827096
-0.02191971 -0.030283725 0.03063315 0.020897644 0.013989383 -0.0012893506 0.0039442484 0.021110758
0.04855697 0.014110665 0.058546983 0.014112863 -0.0067372615 0.023986511 0.03714497 0.04588066
0.03956165 0.044855975 0.035612736 0.00332054 -0.006763503 0.030313138 0.029720271 -0.013175452
0.024200298 0.022369208 -0.0044623474 0.04008786 -0.04063434 -0.00849421 0.019163458 0.02004671
-0.01898079 -0.041285872 -0.039341502 -0.026214628 -0.027078338 -0.06514787 -0.004693276 -0.067903996
0.029492317 -0.024793148 -0.0015337118 -0.011724742 0.011313706 0.04441883 0.046183735 0.030938352
-0.01707008 0.03823444 -0.031892397 -0.046452988 -0.016333137 -0.0050332113 0.007268078 0.024703369
-0.048423775 0.04645035 -0.017075373 -0.021975981 -0.048763704 -0.03509657 0.05776128 0.054184224
0.04974765 0.02304871 -0.046316095 0.037541542 0.04458261 -0.02220823 0.03340861 0.027905596
-0.029142808 0.016584072 -0.043306317 0.024285425 0.020297298 -0.0028410004 0.035537105 -0.008757385
-0.013541454 0.04103082 -0.051874835 -0.0048901034 -0.04381527 -0.014856244 0.02772474 0.032948248
-0.010758305 0.034874033 0.0038552545 0.044896405 0.008124784 -0.05544846 -0.005438083 0.0088404035
0.031439066 -0.02726592 0.019238686 -0.05973253 -0.058546685 -0.052154865 -0.041284066 -0.042648703
0.000107199514 0.014521107 0.04133099 0.03531818 0.042559844 -0.024979822 -0.023195915 0.034298193
0.049010072 0.030310156 5.423972e-05 0.038525652 -0.0103219515 -0.024423953 0.053329464 -0.021113738

module.conv_5.bias f4 [12]
00000000: c275 8e3b 77e1 1e3d e1fe 27bc 4c70 e1bc
00000010: c246 253b 1bc7 63bc c6ae 91bc 7863 753d
00000020: 448c 633d 440f 80bb 084a 16bd 3c5f 113c
0.004347534 0.03878924 -0.010253639 -0.027519368 0.0025219177 -0.013902451 -0.017783534 0.059909314
0.05555369 -0.00390807 -0.036691695 0.008872803

module.conv_6.weight f4 [12, 12, 3, 3, 3]
00000000: 708b 0abd adb6 1e3d db09 ec3c 6b84 adbb
00000010: c425 bcbb b849 ddbc 6c4e 12bb 6218 cfbc
00000020: 892a f53c b732 b6bc fac8 afbc 822a 34bd
00000030: 43f1 d3bc 3ede b7bc 1b8d 6bbd 5603 fcbb
00000040: 9cf4 e63b 5e71 07bd 1e14 82bd 734b 593c
00000050: 7a5f 7f3c 4746 02bd 651e d83c f485 0b3d
00000060: 0ff3 0f3d 5aa1 023d fcce 7abd dfa0 34bd
00000070: 9d99 52bc e3bc 5a3d 1462 80bc 6383 543c
00000080: 9bce 8b3c 15a3 54bd 0499 573d a9e4 fd3c
00000090: 0328 bc3b fbd1 1bbd 90ce 79b9 4875 dcbc
000000a0: b696 8ebb 6bc7 20bd 5d64 673d 6767 5c3d
000000b0: 5a3b 913c 5c15 023d 5e74 88bc 6ebe 513d
000000c0: 93a0 99bb 8042 643c 3ba2 63bc d143 e63c
000000d0: 8709 1ebc 9e55 db3c 26b4 1cbd 2c3b e83b
000000e0: a153 1fbd 76db 36bd 3f19 27bd b82c 71bd
000000f0: 6637 173d 41c1 083d ce08 fb3b 7ca4 36bd
00000100: 0339 f43a 04b0 0bbd 4bad 42bd 07bf 54bd
00000110: a54b 27bc 38f8 f63c 45f0 bbbc e82f 223c
00000120: 06f7 90bc 0723 82bd 56e8 1bbd cf8e 65bd
00000130: e61b 77bd 7122 0e3b d63a 67bc d0ef 5cbd
00000140: fe4a 03bd 82a0 b1bc 30da e23c ae70 56bd
00000150: f9dd 5e3d abeb 28bc 8cd9 18bd 6033 ffbb
00000160: f460 bb3c 6352 debb 2139 b9bc 34ec fdbb
00000170: 527d 8b3c e858 103d ccdd ee3c 56b7 693b
00000180: 5a52 cb3a 9bc8 3cbd 6d77 ab3c 03b3 f43c
00000190: c846 5dbd ad9f d23c e28a 16bc 8877 4abc
000001a0: 11b8 8e3b 0aa3 283d 52b6 58bd 5576 d03c
000001b0: ed06 2dbd 81e8 743d c7d2 6aba c854 5a3d
000001c0: 5105 913d 1de3 213d 6871 153d 69e8 863c
000001d0: 2b21 393c 78e5 4abc f9c1 b7bc 1ba3 e93c
000001e0: bdac dd3c 0b77 083d a66c db3a 29d2 04bd
000001f0: 4685 efbb 6488 813d 4dac 393c 68fd 2f3d
00000200: e868 2fbc c79f 153d 9505 943d 077c 963d
00000210: 12b8 dcbc 0098 4f3d b6a6 463d 9f07 b9ba
00000220: 4364 a03c 5fdb c7bb d160 71bd 4ef3 963b
00000230: bf8e a73a 4e8d 923c fb29 26bc 4659 23bc
00000240: 6143 913b 9536 de3c b267 4abd 440a 32bd
00000250: 7c22 70bd 081d a73b c93b 95b9 1c01 51ba
00000260: bcee 52bc c58c a13c af38 02bc 3bf6 a83b
00000270: 03d7 013d 357b ca3c 99d9 47bd 8a81 bbba
00000280: 7832 b13c bfab cebc c30b ed3c 3060 59bc
00000290: 39f9 4ebd 54ee 733d d7bf 863b 137f 43bd
000002a0: 9874 35bc 301f 9bbc b53c 39bd 35d8 f7bb
000002b0: de9e 3ebd 02f5 ed3c 48a8 23bd ff48 a33c
000002c0: 1514 863c 0e2c adbb 35aa d23b f938 293d
000002d0: d521 8b3c 5d46 0a3d 21de d3bb 5792 353d
000002e0: 143e 993c 9a37 40bd 5105 6f3d 01d0 943b
000002f0: ca34 bd3c 5c54 613d 2351 f9bc 3f2d debc
00000300: 640d d6bc 5817 563d da20 043d 27ea 38bd
00000310: 9435 5bbd 5ad0 0fbd 6d74 34bb 4713 873d
00000320: 62f2 943d 2464 903c dc56 76bc 7156 453c
00000330: 2538 03bd 004d 03bd b06e 473d 58ae 7b3c
00000340: b11d e03c 928e 24bd 4aca 1ebc 3d27 093d
00000350: 8494 7e3c c2d2 0d3d d72d 023d 8f6e 763c
00000360: 0deb 073d f62a 93bc ddd1 83bc b0e1 e1bc
00000370: 89ff 503c 58d7 173c 9ca3 173d 6172 603b
00000380: 8917 f93c a173 d63c 9206 4c3d 8158 28bd
00000390: 5283 53bd 85c6 083d 8672 ca3c 05a2 bbbc
000003a0: 41d9 8f3c 668e 9bba 1214 4c3c 15fe 043d
000003b0: 5fe2 95bc 74c7 2bbd 8e97 5f3c 095d e7bc
000003c0: ad31 793c 92e3 f7bc 773f 373d b383 663d
000003d0: 7605 823d 16ee 9b3d 112e 683d 777e 303d
000003e0: e98b d43d 9101 99bd 614b ab3b 5581 9b3c
000003f0: b178 cb3d 4d5d 883c 75a3 db3d 1ac6 f23c
-0.033824384 0.038748432 0.028813293 -0.0052953265 -0.0057418067 -0.02701269 -0.0022324575 -0.025280181
0.029927509 -0.02224098 -0.021458138 -0.04398585 -0.025871878 -0.02244484 -0.057507616 -0.0076908274
0.0070482027 -0.0330671 -0.06351493 0.013262617 0.015586728 -0.031805303 0.02638168 0.034063295
0.035143908 0.031892158 -0.061232552 -0.04409873 -0.012854007 0.053402793 -0.015671767 0.012970778
0.01706629 -0.05191334 0.05263616 0.030992823 0.0057420745 -0.03804205 -0.00023823441 -0.026911393
-0.0043514622 -0.03925268 0.0564922 0.05380955 0.017728496 0.03175865 -0.01665705 0.051207
-0.0046883314 0.01393187 -0.013893659 0.02810851 -0.009645826 0.026774224 -0.03825774 0.007087132
-0.038898114 -0.044642888 -0.04079556 -0.058880538 0.036918066 0.033387426 0.0076609617 -0.04459046
0.0018632713 -0.03410341 -0.047528546 -0.05193999 -0.010210906 0.030147657 -0.022941718 0.009899117
-0.017695915 -0.06354337 -0.03806337 -0.056044396 -0.06032934 0.002168801 -0.014113149 -0.05393964
-0.03205394 -0.021682981 0.02769193 -0.052353553 0.05441091 -0.010310094 -0.037316844 -0.007788107
0.02287338 -0.0067847236 -0.022610249 -0.007749105 0.01702753 0.035241038 0.029158495 0.0035662255
0.0015512214 -0.04608975 0.02093097 0.029870516 -0.05402258 0.025710905 -0.009188386 -0.0123576
0.0043554385 0.04117111 -0.05290825 0.02544705 -0.042242933 0.059792046 -0.00089578 0.05330351
0.07081092 0.039523233 0.036485106 0.016468244 0.011299412 -0.012383811 -0.02243136 0.028520158
0.027059907 0.033316653 0.0016740754 -0.032426987 -0.0073095886 0.063248426 0.011332584 0.042966276
-0.010706164 0.03652933 0.07227627 0.07347875 -0.02694324 0.050682068 0.04849883 -0.0014116651
0.019579059 -0.006099149 -0.058930222 0.004606641 0.001278363 0.017889645 -0.010141845 -0.009970015
0.004433081 0.027125636 -0.049415298 -0.04346682 -0.058626637 0.0050998963 -0.00028464038 -0.00079728826
-0.0128743015 0.019720444 -0.007948085 0.005156306 0.03169919 0.024716953 -0.0487915 -0.0014305573
0.02163051 -0.02522838 0.028936272 -0.013267562 -0.050530646 0.05955346 0.0041122246 -0.04772861
-0.011075161 -0.01893577 -0.04522391 -0.0075636157 -0.046538226 0.029047493 -0.039955407 0.019932268
0.016366998 -0.0052847927 0.0064289817 0.0413141 0.016983906 0.03375851 -0.006465689 0.044329014
0.018706359 -0.046928026 0.05835468 0.0045413976 0.02309646 0.055012092 -0.030434197 -0.027121184
-0.026129432 0.052268356 0.032257892 -0.04514518 -0.053517893 -0.03511081 -0.0027535215 0.06595474
0.07272793 0.017625876 -0.015035357 0.012044535 -0.032035965 -0.032055855 0.048689544 0.015361391
0.027357908 -0.04017503 -0.009691784 0.033484686 0.015538339 0.034624822 0.031781998 0.015041008
0.033183146 -0.017964821 -0.016091282 -0.027573436 0.012756237 0.009267651 0.037021264 0.0034247863
0.03040673 0.026178183 0.049810953 -0.04110003 -0.05163891 0.033392448 0.024712812 -0.022904405
0.01755965 -0.0011868 0.012455957 0.032468874 -0.018296419 -0.04193826 0.013646973 -0.028242605
0.015209598 -0.030259881 0.04473826 0.056277942 0.06348698 0.07613771 0.056684557 0.043089356
0.10378248 -0.07471002 0.0052274917 0.018982569 0.099351294 0.016646052 0.10724536 0.029635478

module.conv_6.bias f4 [12]
00000000: 3343 033d 0193 5b3b c301 3e3d e726 073d
00000010: 218e 263b abea 113d 5476 5cbd cfd7 a1bc
00000020: c97d 7fbb 6001 163d 3cb2 283b 593a 0e3d
0.032046508 0.003350437 0.0463884 0.032996085 0.0025414305 0.035624187 -0.053823784 -0.019756226
-0.0038984886 0.036622405 0.0025741002 0.034723613

module.conv_7.weight f4 [56, 12, 1, 1, 1]
00000000: ac0f 303e 71c8 5ebe ca3a 603e 0189 6e3e
00000010: f809 8dbe cdfe 803e 7e33 383e 79bb 413e
00000020: 7928 80be da61 dd3d 117b f43c de22 5f3e
00000030: cf0e 52bd f73c 81be 285f 4c3e 754a 08be
00000040: 1bf8 9ebc c856 d93d c77f 773e 4491 573e
00000050: 6059 1b3e 5fd7 22bd 6d60 4abe b979 c1bd
00000060: f206 733e 08e5 563e 565e 823e 1e1b 18be
00000070: 3af2 9abe 6223 d03d 5a8e babd c4ec 1fbe
00000080: f47a 45bc f82e 47be bd0e 0abd e866 6d3e
00000090: 20e0 85be 3e07 ecbc 48f4 f23b bb21 453e
000000a0: 8e16 e73c f5fd 8e3c 942e b23d 3535 6ebe
000000b0: d1f6 d5bc ffa1 83be 1b2f 573d 48f3 2f3e
000000c0: c7ce 4f3e f246 0cbe 1646 90be 4da4 8c3d
000000d0: 3a09 023e 45dd c63d 6a0a 90bc 31cd 6e3e
000000e0: 6375 e33c 49ea 4ebe af08 c93c 0718 863e
000000f0: f13a 85be 1570 fbbb a4a9 60be 58af 513e
00000100: 61ae fc3d 197e 96be dbb7 293d d545 70be
00000110: 2660 b9bd aee4 cb3c f550 15bc 259c 68be
00000120: a497 01bc 8b0b 523d 4ab6 323e 115c 7c3e
00000130: 6cef 3bbe 3f56 a83d 89e1 8f3e 6f02 9ebe
00000140: 028a a53d ca61 423e eb12 49be 5a19 1fbe
00000150: fcdf 233e dafb 313e 5328 493e 7b15 3b3e
00000160: a54e aabc a68c adbc 93f0 0cbe 7734 47be
00000170: 6719 8cbe c8bd 03be 9509 9f3c 3415 1bbe
00000180: 8802 8f3e f47e 67be 7ef5 40be 9f9c a6bc
00000190: 0f6a 9d3d e587 283e 87c1 83be b230 35be
000001a0: 334e 37bd 3d52 1e3e 45ec 3a3c 9d71 8abe
000001b0: 47ef 94be 16f2 9a3c 6a45 233e b853 a63d
000001c0: 6815 c23d f705 833d c863 d4bd 2ac2 7b3e
000001d0: c660 1bbe b32b ef3c 29c9 d63d 5e9d 333e
000001e0: ec49 3abd e27c 0a3c f2aa 6a3e 1fe3 fabd
000001f0: fb24 613e 3167 873e 7a05 56bd 17a1 093e
00000200: eba4 bcbd 8f47 39be 0738 72bd aab3 993c
00000210: 58b5 6d3e ddd1 293e 212c cb3c 2693 21be
00000220: fcf8 f33c 71ca f93c 1590 cf3d 8754 26be
00000230: 33fe 183d f307 603e 1f1a 64be 672c 3dbe
00000240: 136c 8abe 24b8 793e 7e30 833e b7e3 a23d
00000250: 89c4 fb3c 6213 133e 1a0c 5abc 0d0a aebc
00000260: 94d9 65be 7960 be3d 2242 0dbe 2859 9abe
00000270: b8b1 da3d 5dba 7e3e ecf8 67be 79c5 82bd
00000280: f77f 7bbe aa63 22be ee74 193e 2874 203e
00000290: 99e2 a33d a2b6 8f3e 76d3 fc3d 1c98 66be
000002a0: 5dae 0fbe c863 4e3e 0605 653d 819e ef3c
000002b0: 871d 5c3e 17ef 1ebe 05ec 873e 76e3 febd
000002c0: ad5b 97be 7e81 283e 46b8 883e 4ec9 45be
000002d0: e683 0e3e ac80 69be 1f00 133e 8089 533e
000002e0: 81c0 243e add4 12be ab63 61be deb6 1abe
000002f0: 8b07 963e 901a 5fbe f947 6e3e d6af e33d
00000300: c6d9 5c3d a677 33be 9cc1 28bd 53da 7f3d
00000310: a1d3 72be f6e2 54be baa3 e7bd 34d9 cd3d
00000320: 5c21 a93d 56f6 4dbe 5c4c c53d fde4 9d3d
00000330: 4428 c4bd 7f57 bf3d 0043 f5bd eee3 903e
00000340: 6ce2 abbd 7350 33be 6d8f eb3d 6be5 6fbd
00000350: 0dc6 733d 99ad 61be 17a9 47be 2454 23bc
00000360: 855c 83bd edfd f1bc db5f 803e 75be 1e3e
00000370: 5bc7 cebc dc07 7ebe 45d1 003e 6213 403e
00000380: 20eb 753e ab3b 6b3e 4a56 87be c671 93bd
00000390: 706c 32be d2e5 2ebe 5a11 b23d d84c a13d
000003a0: 3336 c93d 3ff1 a93e 36ae 78bd c1f0 56be
000003b0: 399c 583d 64ef 1a3e 516b 463d 8337 85bc
000003c0: dd9e 74be 8323 e0bd 4acc bebc 7783 6ebe
000003d0: f80e a7bd a4ed 57be 61c8 343e f8e6 fcbd
000003e0: 01d1 3fbe 2ab5 b23d 3973 e6bb 1362 923e
000003f0: c8fd 803e 8108 753e a9c8 37bd 6e2c 773d
0.17193478 -0.2175615 0.21897426 0.2329445 -0.27546668 0.25194398 0.17988393 0.18919171
-0.25030878 0.10809679 0.029843839 0.21790645 -0.051283654 -0.25241825 0.19958174 -0.13309653
-0.019405415 0.10612255 0.24169837 0.21051508 0.15170813 -0.039756175 -0.19763346 -0.09447045
0.23733118 0.20985806 0.25462598 -0.14854094 -0.3026293 0.10162999 -0.09109183 -0.15617663
-0.01205324 -0.19451511 -0.03370546 0.23183787 -0.26147556 -0.028812047 0.0074143745 0.19251148
0.028208997 0.01745508 0.0870029 -0.23262484 -0.026118668 -0.2570953 0.052535158 0.17182648
0.20293723 -0.13698938 -0.2817847 0.068672754 0.12698832 0.097101726 -0.01758309 0.23320462
0.027765935 -0.2020656 0.024540273 0.26190206 -0.2602153 -0.0076732733 -0.21939713 0.20477045
0.12337948 -0.2939308 0.041435104 -0.23464139 -0.09051542 0.024889316 -0.00911354 -0.22715814
-0.007909689 0.05128054 0.1745235 0.24644496 -0.18353051 0.08219575 0.28101757 -0.30861232
0.080829635 0.18982616 -0.19636123 -0.15537015 0.16003412 0.1738123 0.19644289 0.18269913
-0.020789454 -0.02118523 -0.13763647 -0.19453607 -0.2736313 -0.12865365 0.019413749 -0.15144807
0.2793162 -0.22607023 -0.18843648 -0.020338355 0.07686245 0.1645809 -0.25733587 -0.17694357
-0.04475231 0.15461059 0.01140887 -0.27039805 -0.29088804 0.018914264 0.15944448 0.08121437
0.09476739 0.06397622 -0.10370594 0.24585786 -0.15173635 0.029195642 0.10487587 0.175405
-0.045480654 0.008452626 0.22916773 -0.12250351 0.21986763 0.26445916 -0.052251317 0.13440357
-0.09211143 -0.18093704 -0.059135463 0.018762428 0.23213708 0.16583963 0.024801316 -0.15778789
0.029781811 0.03049204 0.10134903 -0.16243182 0.0373518 0.21878032 -0.2227559 -0.1847397
-0.2703558 0.2438665 0.25622934 0.079535894 0.030733364 0.14362863 -0.013308549 -0.021245027
-0.2244628 0.092957444 -0.13794759 -0.30146146 0.106784284 0.2487578 -0.2265355 -0.06385321
-0.24560533 -0.15858331 0.14986011 0.1566931 0.080022044 0.28069025 0.123450205 -0.22518963
-0.14031358 0.20155251 0.055912994 0.029250385 0.21495639 -0.15520893 0.26547256 -0.124457285
-0.2956213 0.16455647 0.2670309 -0.19315073 0.13917503 -0.2280299 0.14355515 0.20657921
0.1608906 -0.14338942 -0.22010677 -0.15108821 0.2930263 -0.21787477 0.23269643 0.111175224
0.053918622 -0.17526111 -0.041200265 0.06246407 -0.23713543 -0.20789704 -0.11310525 0.10051194
0.08258316 -0.20113501 0.09633705 0.07709692 -0.095779926 0.093428604 -0.1197567 0.28298897
-0.08392796 -0.17511158 0.11501966 -0.0585684 0.059515048 -0.22038879 -0.19498096 -0.009968791
-0.06414131 -0.029540027 0.25073132 0.15502341 -0.025241544 -0.24807686 0.1257983 0.18757394
0.24015474 0.2297198 -0.2643302 -0.07199435 -0.17424178 -0.17079857 0.08694716 0.07875985
0.09824791 0.3319187 -0.060713015 -0.20990278 0.05288336 0.15130383 0.04844219 -0.016261822
-0.23888727 -0.10944273 -0.023290772 -0.23292337 -0.08157152 -0.21086746 0.17654563 -0.12348741
-0.18732072 0.087259606 -0.0070327786 0.2859045 0.2519362 0.23929025 -0.0448691 0.060345106

module.conv_7.bias f4 [56]
00000000: 47d9 1e3d c878 173c 376d f63d fe75 4b3e
00000010: a0d7 08be 4adc 4e3e 1584 433e dd30 843e
00000020: 9797 a5bd 9166 64bd 5cfd 01be b047 91bd
00000030: 8cb3 433e e36e 7dbe 2214 863e b647 4ebe
00000040: 1acc dabd 2016 4fbe 20a4 5dbe 0cb1 4dbe
00000050: 312e 813e 9a79 c9bd faa0 82be 0f5b 363e
00000060: 6f79 323d a589 1ebe 05f0 55be 6841 65be
00000070: b8f9 453e d052 2ebe 3b18 743d acca a2bd
00000080: 781d b13d 96ce f2bd 8770 94bd 7483 97bc
00000090: 7163 0d3e 94a7 6fbd ee00 07be 39c1 b4bd
000000a0: ae27 21be 8817 1b3e 7730 773e 7a85 003e
000000b0: 6558 143e bf08 63bc 8662 10be 67a8 66be
000000c0: a2f3 123e 3097 303e adfc 043d 761c d53d
000000d0: 14a0 f0bd 1d3d 2fbe 0102 1cbe cc4a 2c3e
0.03878143 0.009245105 0.1203255 0.19869229 -0.13363504 0.20201221 0.19093354 0.2581853
-0.08085554 -0.055761877 -0.12694305 -0.070937514 0.1911146 -0.24749331 0.26187235 -0.20144543
-0.106834605 -0.20223284 -0.2164464 -0.2008707 0.25230554 -0.09837647 -0.2551344 0.17808174
0.04357284 -0.15482195 -0.20892341 -0.22388232 0.19333541 -0.17023778 0.05959342 -0.07948813
0.08648199 -0.118558094 -0.072480254 -0.018495299 0.13807465 -0.058509424 -0.13183948 -0.08825917
-0.15737793 0.15145695 0.24139582 0.12550917 0.14486845 -0.013857066 -0.14100084 -0.22525178
0.14350751 0.17245173 0.032467533 0.10405819 -0.117492825 -0.17113157 -0.1523514 0.16825408
