model2/FSRCNN3D_epoch_0.pth (torch, 797370 bytes, 45 tensors)

conv_1.weight f4 [56, 1, 5, 5, 5]
000000 6b 59 ad 3d 20 c7 e3 3b 3f 81 fe 3c 58 30 68 3c
       0.08464321 0.006951228 0.031067489 0.014171682
000010 b5 8a b3 3d 15 d2 4a bc 16 b7 27 bb 0a dd a7 3d
       0.08766691 -0.012379189 -0.0025591305 0.08196457
000020 35 f1 ad bd 30 c7 a3 bd 42 a6 26 bd 61 21 47 bc
       -0.08493272 -0.079969764 -0.0406859 -0.012153954
000030 15 3c a9 bd 0e 20 16 bc 34 73 b0 bc ff 4e cd 3b
       -0.08263413 -0.009162916 -0.021539308 0.0062655206
000040 7c ea 90 3d f6 f0 43 3c fa e9 7e bd 0f 34 b2 bd
       0.07075974 0.011959305 -0.062234856 -0.08701336
000050 14 e9 41 3c d6 4c 8b 3c 57 45 43 bd b4 6b a5 bd
       0.011835355 0.017004412 -0.04767355 -0.08077183
000060 ae eb af bd b3 ff 3f bc 59 a2 8b 3d 7e 63 50 bd
       -0.08589874 -0.011718678 0.06818075 -0.050876133
000070 0c b9 b6 3c c1 f4 78 bd e6 2e 94 3d 9c d6 1c 39
       0.022305034 -0.06078029 0.07235508 0.00014957268
000080 01 f3 91 3d f1 6c 11 bd 19 27 68 3d 57 40 84 3d
       0.071264274 -0.035504285 0.05667791 0.06457584
000090 09 99 4c bd e0 2c e3 3c b1 36 92 3c 94 61 de 3c
       -0.049950633 0.027731359 0.017848345 0.027146138
0000a0 9b 21 10 bb 35 bc c4 3c 62 b5 ad bd 1a 64 1b 3d
       -0.0021992687 0.024015525 -0.08481862 0.03793726
0000b0 11 ae a5 bd 7b 74 aa bd 37 04 b5 3d 8d 65 87 3c
       -0.08089841 -0.08322998 0.088386945 0.016527915
0000c0 df a8 ab 3d a6 96 ac bd 5b 5a 6b bd f9 99 e9 bc
       0.08381819 -0.084271714 -0.057459217 -0.028515803
0000d0 76 7a 37 3c 65 0e 75 bd 65 0f 38 3b 0f 46 19 3d
       0.011198631 -0.05982818 0.0028085348 0.03742033
0000e0 f5 fe cf 3c 65 e1 49 bd 2c c3 93 3d 42 50 77 bd
       0.025390128 -0.04928722 0.072149605 -0.060379274
0000f0 cc 5d 4f 3c 8d e9 8d 3d dc 9f cb 3c 99 08 69 bd
       0.01265664 0.06929312 0.0248565 -0.056892965
000100 4b da 98 3d 68 c4 28 3d e2 e4 94 bd 70 3a 86 3d
       0.07463511 0.041202933 -0.072702184 0.06554115
000110 56 52 54 bd 57 81 98 bd 84 4a 03 3d 54 a9 08 bd
       -0.051836334 -0.074465446 0.032053486 -0.03336461
000120 b0 44 7a 3c 6e 21 c4 3c 65 21 81 3b b0 0c ba 3c
       0.015275165 0.023941722 0.0039407485 0.022711128
000130 da b6 90 3d c3 91 08 3d 75 83 82 bd c6 ba 9b bd
       0.07066126 0.033342134 -0.0637273 -0.076039836
000140 5c 1d 86 3d f3 62 76 3d d9 98 95 bd d0 50 a2 bd
       0.065485686 0.06015296 -0.07304544 -0.0792557
000150 58 28 8e 3d 61 fd 9f bd 72 d6 a9 3c 96 40 a1 bd
       0.06941289 -0.07812 0.020732138 -0.07873647
000160 5e 3e b6 bb ed 96 99 bd 5f a9 1c 3d fe 26 08 bc
       -0.005561634 -0.0749949 0.038247462 -0.008310078
000170 4a 91 2d bd 32 e6 84 bc 56 c1 68 bd 50 ea 9b bb
       -0.042374887 -0.016223047 -0.056825005 -0.004758157
000180 53 10 8d 3c ea 21 43 3d 51 67 12 bd ba c6 99 bd
       0.017219698 0.047639765 -0.03574306 -0.07508607
000190 19 64 0e 3d a7 f1 2e 3d 9b 3f 84 3d 0d 5d 98 3c
       0.03476343 0.042710926 0.06457444 0.018599058
0001a0 79 b6 98 bd b5 4a 55 bd 30 32 27 3d 89 13 9f 3d
       -0.07456679 -0.0520732 0.040819347 0.07767398
0001b0 08 04 16 bb b5 6e 10 3c 85 05 b2 bc c8 42 55 bd
       -0.0022890586 0.008815457 -0.021731148 -0.05206564
0001c0 57 28 80 3d e3 e0 83 bd 5b c7 85 bb 5e 04 d3 ba
       0.06257694 -0.06439378 -0.004082603 -0.0016099324
0001d0 55 87 aa bd f4 3c 69 3d 00 da 9b bd c4 2e a4 bd
       -0.08326594 0.056942895 -0.076099396 -0.08016732
0001e0 6f ac 3c 3d 5f 35 06 3d c0 c6 92 3d 03 70 65 3d
       0.046062883 0.032765742 0.07166815 0.056015026
0001f0 c9 13 3c 3c 10 06 1c bd 30 e1 93 bd 78 5c 79 bc
       0.0114793265 -0.03809172 -0.072206855 -0.0152198
000200 7e fa aa bd 3a 33 e9 bc de 74 1d 3d 6c 8f 7b bd
       -0.08348559 -0.02846681 0.03844153 -0.061416075
000210 e0 bc e3 bb e1 c4 7e 3c f5 1a 1e bd 30 17 49 3d
       -0.006950006 0.015549869 -0.038599927 0.04909438
000220 51 09 67 3d ae 4f a8 bd f4 e1 69 bd 3f a7 85 3d
       0.05640537 -0.08218323 -0.05710025 0.0652604
000230 2e 29 2e 3b 18 33 56 3d b5 8c a7 bd 6a 9f 48 bd
       0.0026574838 0.05229482 -0.081811346 -0.048980154
000240 28 0b 75 bd df 5a 88 bd fc 98 a7 3d de a2 08 bc
       -0.059825093 -0.06657957 0.08183476 -0.008339612
000250 cb 7b d4 3b 8c 31 c6 3a a2 d1 8d 3d 07 2d 8e bc
       0.006484484 0.0015120967 0.0692475 -0.017355455
000260 87 6f 12 3d ab 10 93 bd 6b 13 94 bd 71 3d dd 3c
       0.035750892 -0.071809135 -0.07230266 0.027006837
000270 ef a0 20 bc 47 51 68 bd b6 6a 13 3d d9 b6 84 bd
       -0.009803995 -0.056718137 0.03599044 -0.06480188
000280 f1 c8 09 bd c1 2a 0a bd c1 71 9c 3c 55 b4 2d 3d
       -0.0336389 -0.03373218 0.01909721 0.042408306
000290 07 3b c7 bb b1 24 df 3b 99 f2 5f bd 33 52 ed 3b
       -0.0060800347 0.006809794 -0.05467472 0.007242465
0002a0 8f a7 87 3d 88 a8 b0 3b 1b 61 91 bd 28 af d3 3c
       0.06623756 0.0053911842 -0.070985995 0.025840357
0002b0 96 b3 fe 3b f0 19 a8 bd f3 d9 14 bc d3 85 96 bb
       0.007772873 -0.08208072 -0.009085166 -0.00459359
0002c0 e4 03 6d 3c 6b 37 cc 3c f6 6f 03 bd 6a ab 6f 3d
       0.01446626 0.02492877 -0.032089196 0.058513083
0002d0 44 b0 92 bd cd 3f 70 bd a4 f8 22 3c 8b 9a cc bc
       -0.07162526 -0.058654595 0.009946976 -0.024976036
0002e0 0b c9 f8 3b 51 26 b5 3d 33 8e c0 bc 44 11 9f bd
       0.0075923256 0.08845199 -0.023505306 -0.07766965
0002f0 0b 1f b2 bd df ca 45 3d 29 b8 17 bd ed 0c 08 bd
       -0.08697327 0.048289176 -0.037040863 -0.033215452
000300 5f d2 b1 3d 5f 12 74 bc 31 fd ce bc 68 ef 8f 3d
       0.08682703 -0.014896958 -0.025267215 0.07028085
000310 55 a8 bd 3c f5 36 80 3d 61 f3 3b bd f1 ce b4 3c
       0.023151556 0.06260482 -0.0458864 0.022071334
000320 03 24 b2 bd dc 28 b3 3b 6c fd 3d 3d fd e6 96 3b
       -0.08698275 0.0054675173 0.04638426 0.0046051727
000330 97 d0 9f bd 4c f7 14 3d 4d 3a 72 3c c7 32 ff 3c
       -0.07803457 0.036368653 0.014784408 0.031152142
000340 ef d7 8a 3d 36 d0 04 3d a4 ba a9 bd 49 1e 28 3d
       0.06779467 0.032425128 -0.08287552 0.041044507
000350 05 b6 34 3d 96 5c 54 bd 2d bb e9 3c 5c fc 34 bd
       0.0441189 -0.05184611 0.028531635 -0.04418598
000360 3a 1b 37 3d 8e a3 0d 3d e3 23 1c 3d a6 43 83 3c
       0.0447037 0.034579806 0.03812016 0.016023468
000370 9c 4b b5 3d de 20 e7 bc 86 9d 87 bc 8c f3 39 3d
       0.08852312 -0.028213914 -0.016554605 0.04539828
000380 ad bf 85 3d 7e d2 26 3d 04 03 c6 3b 3b d2 19 3d
       0.065307 0.040728085 0.00604284 0.037554007
000390 a5 66 a5 3d 23 20 86 3d 81 c8 1e bd 40 df 96 3c
       0.080762185 0.06549098 -0.038765434 0.018417
0003a0 c4 aa a1 bd 1f 54 7b ba cc 87 0e bd bf 83 81 3d
       -0.07893899 -0.0009587425 -0.034797475 0.06323957
0003b0 99 55 03 3d 2a e2 2a 3d 6e 11 75 3d 4b ba 53 3d
       0.032064054 0.041719593 0.059831075 0.051691335
0003c0 5c 53 b8 3d d6 2b c1 3c f1 16 10 bd 33 32 a1 3d
       0.090002745 0.023580473 -0.03517813 0.07870903
0003d0 7e 3a 88 3d 3c 09 85 3d 38 9c a8 bc f8 1f bc 3c
       0.066517815 0.06495902 -0.020582303 0.022964463
0003e0 7d 6a 37 bd dd f2 28 bd 10 17 a2 3b 2b b1 db bc
       -0.04477929 -0.041247237 0.004946597 -0.026817879
0003f0 04 45 78 bd 04 3d 02 3d 70 67 8f bd 2d 81 0e bd
       -0.060612693 0.03179647 -0.07002151 -0.03479116

conv_1.bias f4 [56]
000000 f1 c5 6a bd 89 5a 4e bc 20 3c 16 bd a5 2a 3b ba
       -0.057317678 -0.012594827 -0.036678433 -0.00071398384
000010 c1 c1 0e 3c ac b4 5d bd b8 fa 1e bd 75 b1 20 3d
       0.008713187 -0.05412738 -0.038813323 0.039231736
000020 20 16 bc 3b e5 da 94 bc fb da 6d bd 36 24 58 bd
       0.005739942 -0.018170783 -0.058070164 -0.05276891
000030 40 7e b0 3d 9d f4 af bd 19 58 65 3d 8c 71 34 3d
       0.0861783 -0.08591578 0.05599222 0.0440536
000040 6c 95 fa ba fc 71 94 bd 70 8a 1b bc d1 67 5a 3c
       -0.0019118018 -0.07248303 -0.009493455 0.013330416
000050 fd 3b 67 3d dd c9 15 b9 76 a4 02 3d 84 de 85 bd
       0.056453694 -0.00014284947 0.031895123 -0.06536582
000060 1f f1 1a bd cf b7 d2 3c 2a dd 20 bd 40 71 52 3d
       -0.037827607 0.025722412 -0.03927342 0.051377535
000070 a2 5f 2b bd c6 77 19 bd e9 10 32 bc 5a ed 80 bb
       -0.04183925 -0.03746774 -0.0108682895 -0.0039345445
000080 b1 c5 95 bd 54 db 00 3d ac ca e1 3c 50 4f 87 3d
       -0.07313097 0.031459168 0.027562462 0.066069245
000090 3e e2 1c bd ea c3 a0 3d 46 5a 45 3d 6e a2 39 bb
       -0.0383017 0.07849868 0.048181795 -0.0028325575
0000a0 24 6b 21 bc a4 dc 13 3d e2 70 59 3c 1d a6 d7 bc
       -0.0098522045 0.03609909 0.013271542 -0.026324326
0000b0 25 1d 77 3d 2e fe 25 bc c1 ee 85 3d 7c 35 91 bd
       0.06033053 -0.010131402 0.06539679 -0.070902795
0000c0 56 34 e9 3b 57 ff 6f 3d ab 30 40 bc 39 e4 7f bd
       0.0071168346 0.05859312 -0.011730353 -0.06247351
0000d0 4f e5 b4 3c 16 cc 7c 3d ae dd 28 3d 0d 7e 9d bd
       0.022082 0.06171807 0.041227035 -0.07690058

conv_2.weight f4 [12, 56, 1, 1, 1]
000000 a2 0d a7 3d ed 7e 71 3d f5 45 ce bc 24 61 aa 3d
       0.08156897 0.058958936 -0.025179842 0.08319309
000010 91 46 42 3d ae d7 67 bd fb e9 1b ba 9e 5f db bb
       0.04743058 -0.056602173 -0.00059476466 -0.006694748
000020 1f 3e 11 3d b9 3a a2 bd cf 62 89 3d 95 e1 06 3c
       0.035459634 -0.07921357 0.06708299 0.008232494
000030 cb ce cd bd 62 67 b8 bc a8 02 40 bc 9d b5 19 bd
       -0.10049208 -0.022510234 -0.011719383 -0.037526716
000040 98 91 eb bd ab 74 76 3d ff af 07 3e 79 5d cb bd
       -0.11502379 0.060169857 0.13250731 -0.09929938
000050 fa 88 13 bd 82 ca e1 3d 88 a0 cd bc 74 9a ef 3d
       -0.036019303 0.110249534 -0.025100961 0.116993815
000060 ca 9b 5e 3c 6b ae 04 be 81 d7 b6 bc e1 7b 42 bc
       0.013586948 -0.1295716 -0.022319557 -0.011870355
000070 9a 23 f1 bd 56 9a d5 bd 48 db d6 3c da fe e4 3c
       -0.117743686 -0.10429828 0.026227608 0.027953554
000080 57 ac ce 3d cb 52 c2 bd 42 2d 1e 3c 9b 35 b5 bd
       0.10091465 -0.09488448 0.009654345 -0.08848115
000090 70 5c ef bd 77 3f c8 bd 08 6e f5 bc 55 64 d4 bd
       -0.11687553 -0.0977773 -0.029959694 -0.10370699
0000a0 1c 02 82 3d 74 ce e8 3d 14 61 d6 bd 31 9e 53 3d
       0.063480586 0.11367503 -0.10467735 0.051664535
0000b0 de 72 2c 3d fc 3f fc 3d ba 40 cb 3d 6f 9a 29 bd
       0.042101733 0.123168916 0.09924455 -0.041407045
0000c0 30 bc 1e bd 53 93 bd bd 2a f3 e0 bd c7 b0 1c 3d
       -0.03875369 -0.092566155 -0.1098388 0.038254526
0000d0 aa b5 bc bd 54 7d eb bd af cf d5 3c 87 3b d6 3d
       -0.09214337 -0.11498514 0.026100008 0.10460573
0000e0 77 90 f5 3d 21 a3 06 3e 3a 23 2c bd 64 d6 ba bd
       0.11990445 0.13148166 -0.042025782 -0.09122923
0000f0 0a 72 9b bd 35 71 d9 3d c4 1e d2 3d 1f 86 f3 3d
       -0.075901106 0.10617296 0.10259774 0.11890816
000100 ff 86 3f bd bc 5a 6a 3d 6e 19 80 bd ed 78 93 3b
       -0.0467596 0.057215437 -0.0625485 0.0045004995
000110 4b 19 9b 3d bc c3 44 bd dd 6a 47 bc bd 03 0d bd
       0.075731836 -0.04803823 -0.012171474 -0.034427393
000120 1d 91 f3 bd 57 e5 a2 3c ac ec a9 bd 19 2f 1c bd
       -0.118929125 0.019884748 -0.08297095 -0.038130853
000130 ab f2 b2 3d 49 cb 0b 3d c4 5e eb bd ed 95 ad bc
       0.087376915 0.034129415 -0.114926845 -0.021189654
000140 16 22 f9 bb c5 59 f3 3d b6 83 08 be 16 1d 6f 3d
       -0.0076029403 0.118823566 -0.13331494 0.058377348
000150 72 0a e1 3d 7a 58 ec bd 68 cc 69 bd 2e f6 55 3d
       0.109883204 -0.11540313 -0.057079703 0.05223673
000160 78 d8 3e bd d1 13 c9 bd 21 68 91 bd 50 fb cb 3d
       -0.04659316 -0.09818233 -0.07099939 0.099600434
000170 45 07 fc bd 1b 31 9e 3c ac 5d 9e bd 9b f0 e4 bd
       -0.12306074 0.019310525 -0.0773271 -0.11178704
000180 e0 cc 37 3d fc 01 15 3d 7b 07 9f bd c4 19 0b 3e
       0.04487312 0.036378846 -0.07765099 0.13584048
000190 b6 6f 72 bd 9c 26 07 3e 20 1e 0b bc 81 77 0b 3d
       -0.059188567 0.13198322 -0.008491069 0.034049515
0001a0 4d f4 d6 bd 22 5a 0a 3e 90 46 c4 bd 70 3e cb 3d
       -0.104958154 0.13510945 -0.09583771 0.099240184
0001b0 3e 29 73 3d 17 f0 e0 3d e9 46 34 bd 13 e9 47 3c
       0.059365503 0.109832935 -0.044012938 0.012201565
0001c0 71 28 06 bd e6 8b 13 3c 2d 2c e4 bd de 91 bd 3a
       -0.03275341 0.009005522 -0.11141238 0.0014463027
0001d0 83 52 ab 3d 46 5a df bd 67 b4 c9 bd 0e a5 b3 bd
       0.08365347 -0.1090589 -0.09848862 -0.08771716
0001e0 e4 ac ff 3d 88 ac eb 3d 40 e3 ae bd c8 fd 56 3d
       0.12484148 0.11507517 -0.08539438 0.05248812
0001f0 31 8c f4 bd e4 a5 9c 3b cf 6a 03 3c 6f 30 e5 3d
       -0.11940802 0.004780518 0.008021071 0.111908786
000200 ea 81 38 3d c2 d5 e3 3d be f3 bf bb 93 8b ee 37
       0.04504577 0.111247554 -0.0058579138 2.8436805e-05
000210 c2 df 83 bd d4 59 f0 bd 3a a0 3f 3d 16 c5 25 3c
       -0.06439163 -0.11735883 0.046783663 0.01011779
000220 00 33 2d 3d a1 bc 0e 3d 7d 01 19 bd a4 dd 44 3d
       0.042284966 0.03484786 -0.037354935 0.048062935
000230 8c 7f ba bc 56 7a 9c bd f5 98 70 3d 47 7f 05 be
       -0.022765897 -0.07640521 0.05873962 -0.13036834
000240 44 69 e4 3d 2e 94 d4 3d 89 f4 44 bc 42 71 1a bd
       0.1115289 0.103798255 -0.012021192 -0.037705667
000250 ee 0c f7 bd 01 22 ae 3d a1 b6 aa 3d 89 37 cf bd
       -0.12063013 0.085025795 0.08335615 -0.10118014
000260 ce f3 c6 bd 56 bc 19 3d 54 2e b3 3b 83 0f 7f bd
       -0.09714471 0.037533127 0.005468169 -0.062270653
000270 72 2b d1 3d d9 f6 f9 3d 46 27 d2 3d f2 cc f7 bd
       0.10213365 0.122052856 0.10261397 -0.12099637
000280 68 c1 6f 3c f6 9e b1 3d a7 26 8f bd d2 59 b7 bc
       0.014633514 0.086728975 -0.06989794 -0.022381697
000290 7f 70 fd bd 7e e9 42 3d 59 fa 41 3d f8 96 c6 bc
       -0.123749726 0.047585957 0.04735789 -0.02424191
0002a0 b0 50 d5 3d 54 2b 27 bc b4 fb 07 3e 72 78 01 be
       0.104157805 -0.010203201 0.13279611 -0.12643602
0002b0 ef 1a 00 be 5d a7 1b bd c3 7d 3d 3b 3c 18 1a 3d
       -0.12510274 -0.038001407 0.002891407 0.037620768
0002c0 1f b8 61 bd 7e c4 fb bc 9f 11 c1 3d a5 ec fb bd
       -0.055107232 -0.030733343 0.09427189 -0.12300996
0002d0 33 6f 60 3c 18 26 d1 bd 48 71 0b 3e 78 98 b8 bd
       0.013698387 -0.10212344 0.13617432 -0.09013456
0002e0 d8 a0 9a 3d fc 8d cc bd 92 05 8d 3d 99 ab 93 3d
       0.0755021 -0.09988019 0.06885828 0.07210464
0002f0 30 b0 05 3d fe f7 de bc 0a 7f aa 3b 4d 82 e2 3d
       0.03263873 -0.027217861 0.0052031325 0.11060009
000300 ae 70 31 3d fc 29 2b bd c7 80 a1 bd e3 52 cf 3d
       0.04332035 -0.041788086 -0.078858905 0.10123231
000310 79 92 70 3d 92 9b 07 be 87 83 c2 3d 42 68 04 bd
       0.058733437 -0.13242939 0.09497743 -0.03232599
000320 8e ba d6 bd d2 80 5a bd 5f eb f4 3d 1b c0 ff 3c
       -0.10484801 -0.05334551 0.11958956 0.031219533
000330 b1 ef 67 3c 5a 7d 00 3e 39 c8 69 bd 82 12 d3 3d
       0.014156268 0.12547818 -0.057075713 0.103062645
000340 ca 51 8e bd 87 33 16 3d 0e 56 d3 bc cf 2f 8e 3d
       -0.06949194 0.036670234 -0.02579787 0.069427125
000350 6f e8 dd 3d 19 22 47 3d 31 60 f2 3d b1 ec 22 3d
       0.10835349 0.048616502 0.11834753 0.039776508
000360 e5 a7 bd bd 20 57 51 3d 47 2c 1e 3c e5 ef 83 3d
       -0.09260539 0.05110848 0.009654111 0.064422406
000370 0e 85 7f bb 69 9e f0 3d 14 5a c5 bd 62 e5 ad bd
       -0.003898922 0.11748964 -0.09636322 -0.08491017
000380 51 69 01 3e 09 96 1a 3c 7c 4a 15 3c a8 24 86 3d
       0.12637831 0.009435185 0.009111997 0.065499604
000390 c9 22 1d b8 22 33 10 3c 53 a3 52 3d c0 3f 07 be
       -3.7464113e-05 0.0088012535 0.05142529 -0.13207912
0003a0 e3 dd 03 be 6b 3b c3 3d 64 ae 00 3e da 29 99 3d
       -0.12877612 0.095328175 0.12566525 0.07478686
0003b0 90 eb c8 3d 1b eb a9 3d db 93 e1 3d 3c aa f6 3d
       0.09810555 0.08296796 0.11014529 0.120441884
0003c0 14 55 29 bd be 38 c1 3d 7f 96 b2 bd b9 12 c0 bd
       -0.041340902 0.09434651 -0.08720111 -0.09378571
0003d0 80 20 19 bd a9 3d 07 be b8 a1 ab bc 7e b5 cc bd
       -0.03738451 -0.13207115 -0.020951137 -0.099955544
0003e0 63 fd bf 3d 9d 1d 93 bc b1 29 9f 3d 6c e7 cc bc
       0.093745016 -0.017958457 0.07771624 -0.025012694
0003f0 66 f1 ea bd b0 f9 ac bd c1 df 1b bd bd 9a 02 3e
       -0.11471824 -0.084460616 -0.038055185 0.1275434

conv_2.bias f4 [12]
000000 45 aa 1f 3d 45 ee e2 3b d5 3c 29 3d 78 e2 7e 3d
       0.03898074 0.0069253766 0.04131778 0.062227696
000010 72 39 41 bd 4c 80 47 3c dc 61 91 bd 83 3a fa 3d
       -0.047173925 0.012176584 -0.07098743 0.122181915
000020 f7 a3 ca 3d da 02 f4 3d 82 b3 ae bc 43 3b f4 3b
       0.09894555 0.119146064 -0.02132583 0.0074533536

conv_3.weight f4 [12, 12, 3, 3, 3]
000000 5d 6e 2e bd c8 f8 8b ba 82 9a 2b bd 57 4c bf 3c
       -0.04258572 -0.0010679001 -0.041895397 0.023351831
000010 8e 61 be bb 10 2d 41 bd 8f 85 c1 3b 02 24 ca 3c
       -0.0058099693 -0.047162116 0.005905814 0.024675373
000020 53 a5 14 3d fd 30 b3 bc 4b e9 f5 bc d3 15 09 3d
       0.036290478 -0.021873945 -0.03001847 0.03346808
000030 dc 9e e9 3c 13 17 c9 3c 9e da 0d 3b d3 5c d8 3c
       0.028518133 0.024547135 0.0021645199 0.02641145
000040 91 26 15 bc 97 40 5e bd a0 17 55 3d 60 0b 29 3d
       -0.009103433 -0.054260816 0.052024484 0.041270614
000050 e1 66 42 3d cd 0c 1e bc 17 e2 0e 3d 92 f5 56 3c
       0.047461394 -0.009646607 0.034883585 0.013120072
000060 f3 41 2b bd b8 33 55 bd 53 4e e4 bc 3b e8 1d 3d
       -0.04181094 -0.052051276 -0.02786938 0.03855155
000070 00 e2 d7 3b d7 ef e1 bb 2f be 64 bd e1 69 95 3c
       0.0065882206 -0.006895046 -0.055845436 0.018238964
000080 81 98 b7 3c 16 3a f0 39 d1 e8 15 bc 2c 18 8b 3b
       0.022411587 0.00045819645 -0.009149746 0.004244825
000090 6b 51 71 bc e7 1e 5e bc a0 d1 87 39 ff 6e 12 3d
       -0.014728884 -0.013557172 0.0002590539 0.035750385
0000a0 bb 8a 46 3c f5 1b e7 3c 0f c3 18 3d 88 92 16 3d
       0.012118037 0.028211573 0.037295397 0.036760837
0000b0 78 9d 0d bd 64 e2 72 bc f3 41 ab bc 8f e1 84 3c
       -0.034574002 -0.014824484 -0.02090547 0.016220836
0000c0 14 13 cb 3c 7b bd 07 3d d5 c3 39 bd c5 7b b1 bc
       0.02478937 0.033139687 -0.045352776 -0.021665463
0000d0 53 76 2d 3c 68 58 10 bd 1d 89 c1 3b 46 c0 41 3d
       0.010587293 -0.03524056 0.0059062378 0.047302507
0000e0 2a 29 31 3d 2b 57 6f 3a 20 92 20 bc 6b c6 ac 3c
       0.043252148 0.00091301155 -0.009800464 0.021090707
0000f0 63 88 51 3d a5 22 13 bd c0 9d 56 bd 00 6e 10 3b
       0.05115546 -0.03592171 -0.052396536 0.0022038221
000100 46 91 25 bd 99 7d ec bb 1d 9d 0d bc 2f 14 08 bc
       -0.040421747 -0.007217121 -0.008643416 -0.008305593
000110 f4 dc 41 3c b5 7a 1e bc 15 0b 38 3c ec eb 32 3d
       0.0118324645 -0.00967281 0.011233111 0.043682024
000120 95 ee 64 bc 69 6c 76 3c 91 a1 8d 3c eb 78 92 ba
       -0.013972898 0.015040495 0.017288955 -0.0011174952
000130 33 9a 59 bd 36 f7 ad bb d3 42 ad 3c 56 fe da 3c
       -0.05312557 -0.005309011 0.021150028 0.026732605
000140 2a 53 c7 3b e9 f3 0c bd 4a 49 99 bc bd 53 f8 bb
       0.006082912 -0.0344123 -0.018711705 -0.0075783418
000150 db c1 1a 3d b6 5a 20 bd da 2b d2 3c 12 8a c9 bc
       0.03778253 -0.03914901 0.025655676 -0.02460197
000160 3f 2a 69 bd b3 1c 0f 3d 02 b7 3b bd fa 64 e8 3c
       -0.056925055 0.03493948 -0.045828827 0.028368462
000170 78 83 e7 bc d7 70 34 3d b0 0c 06 3d d3 59 63 3b
       -0.028260931 0.044052925 0.032726943 0.003469099
000180 e5 7f 1c bc 47 c6 c1 3c a2 db 0f bd 80 cd dd 3b
       -0.009551977 0.023654116 -0.035121568 0.0067688823
000190 63 70 10 bc 13 db 10 bd 03 1d 35 bc bd b1 52 bd
       -0.008815858 -0.035365175 -0.01105428 -0.051439036
0001a0 78 e2 58 3b fb 0e 56 bd 39 0a 1b 3d 24 87 1f bd
       0.003309397 -0.05226038 0.037851546 -0.03894724
0001b0 ab 63 3b bd 12 55 5a 3d ea 47 1a bd cf d2 f6 bc
       -0.045749348 0.053303786 -0.03766624 -0.030129818
0001c0 e6 91 37 3d d0 da e4 3c a0 2e b7 3b cf 1a 01 bd
       0.044816874 0.02793637 0.005590275 -0.031519707
0001d0 c8 08 9c bc f5 39 f4 bc 56 ee 09 3d 9a b3 4b bd
       -0.019047156 -0.029812792 0.03367456 -0.04973183
0001e0 04 fd de 3c bf 91 e9 bc df 76 d2 3c 44 5c 23 3c
       0.027220257 -0.02851188 0.025691448 0.009970728
0001f0 aa 95 ff bc b0 58 c1 3c 2b 05 71 bc e5 79 49 bc
       -0.031199295 0.02360186 -0.014710705 -0.012297128
000200 56 cc 97 3c 15 d5 81 3c 60 fd 49 bd 5b 2d cf 3c
       0.018530052 0.015848676 -0.049313903 0.025290182
000210 e3 d0 56 3d 07 51 96 bc 4d b1 21 3d 0b 13 25 3d
       0.052445304 -0.018349184 0.039475728 0.040301364
000220 47 a8 33 3d 79 8b 0e bd ff 21 e5 bb 2c d6 24 3d
       0.043861654 -0.03480098 -0.006992578 0.040243313
000230 ac aa 43 bd d1 1d 4a bd 7d 14 ff 3b e0 50 13 3d
       -0.047770187 -0.04934484 0.007784425 0.0359658
000240 d5 2b b3 3b 6e 6d f1 3c a9 44 b4 3c 22 c9 3a bc
       0.0054678717 0.029471125 0.022005396 -0.011400493
000250 12 44 9a bc 8c 52 1e 3d 15 bf 9a 3b 4a de a9 bc
       -0.018831287 0.03865294 0.004722486 -0.020735878
000260 fb 6c ef 3c 80 5c bb bb c2 62 72 bc a5 ab a4 3c
       0.02922677 -0.005717814 -0.0147940535 0.020101378
000270 b6 17 bb bc d6 59 ed bc e6 26 15 bd 3e 22 3e bc
       -0.022838455 -0.028973501 -0.03641405 -0.011604844
000280 39 54 13 3c a6 03 19 bc a4 cd 25 bc 52 62 34 3d
       0.008992248 -0.009339249 -0.010119829 0.044039078
000290 10 07 38 3c f5 0e e9 bc 6e 60 03 3d 7a 8b ca ba
       0.011232153 -0.028449515 0.032074384 -0.0015452944
0002a0 6e 40 e0 bc 75 92 9f 3c 41 71 5e 3d 39 50 c0 3c
       -0.027374472 0.019479016 0.054307226 0.023475753
0002b0 80 2b 25 3c d3 f3 a2 3c f3 10 b0 3b 6f ed 3c 3d
       0.010081172 0.019891655 0.0053731143 0.04612487
0002c0 55 d2 0e 3c db 79 86 bc e0 5f 7c 3c 02 c9 5e 3d
       0.008717139 -0.016415527 0.015403718 0.054390915
0002d0 60 9d 89 bc 98 ef 10 3d a4 0b 23 bd 06 55 68 39
       -0.016798675 0.035384744 -0.039806023 0.00022156918
0002e0 4c 76 16 bc f3 a7 03 bd d9 04 fe 3c 08 d6 4b bd
       -0.009183478 -0.03214259 0.03100817 -0.049764663
0002f0 a4 40 49 3d 0d 2e 04 bd c6 b4 e2 bb fd 13 e9 3b
       0.04913391 -0.03227048 -0.0069185225 0.0071129785
000300 f0 90 bc bc 6c cd 47 3d 93 fb 2f 3d f5 87 22 3d
       -0.02301833 0.04877989 0.04296453 0.03968044
000310 c1 99 13 bd ba 75 8f 3c 67 c7 35 bd 9e c0 4b bd
       -0.036035303 0.017512191 -0.044379618 -0.04974424
000320 b5 ac 18 bd 74 71 57 bd 81 96 aa 3b fa 66 c3 bc
       -0.03727408 -0.05259843 0.0052059297 -0.023852814
000330 cf b7 28 bc aa f5 87 3c da a6 36 3d 84 be ad bc
       -0.01029773 0.016596634 0.044592716 -0.021209009
000340 67 20 e9 3b ca 5c 0f 3d 9e fb 0c 3d 4f 4c 0a bd
       0.0071144584 0.0350006 0.03441965 -0.03376418
000350 df 82 c0 3c 14 cd c1 3c 27 ec 41 3c aa ff 99 ba
       0.023499904 0.02365736 0.011836088 -0.0011749167
000360 ab 52 be 39 57 96 cb bc a1 a3 cc 3c 61 a8 3c bd
       0.00036301216 -0.024851961 0.024980368 -0.046059016
000370 cc 76 36 3c 7d a3 d7 3c fc c7 c0 3c b2 46 55 3d
       0.011136722 0.026323074 0.02353286 0.052069373
000380 82 ea fc bc ce c4 19 bc 4a 11 50 bd 9d 31 10 bd
       -0.03087354 -0.009385301 -0.050797738 -0.035203565
000390 6d 22 97 bb 3a 22 3c 3d 39 51 d6 3c 6e 66 2f bd
       -0.004612258 0.04593108 0.026161777 -0.042822294
0003a0 b4 b5 ab 3b bc 60 33 3d a5 41 3a 3d 76 c7 b4 3b
       0.0052401666 0.043793425 0.04547276 0.0055169417
0003b0 46 35 f3 3c e6 e5 fa 3b c4 84 88 3b d6 56 c0 bc
       0.029688489 0.0076568006 0.0041662175 -0.023478907
0003c0 cf 2d ae bc 7c e2 bb 3c 0e 0d 16 3c f0 fc 16 bd
       -0.021262078 0.022935145 0.009158386 -0.036862314
0003d0 e7 68 51 3d 5e fc 5c bd f6 a1 2f bb 7b 87 5d bd
       0.051125433 -0.053951614 -0.0026799417 -0.054084282
0003e0 7d b0 40 bc ec 68 09 bd 57 e7 55 3d 93 71 a9 3c
       -0.011760828 -0.033547327 0.052222576 0.02068404
0003f0 50 a0 19 bd e5 49 02 bd e3 af 20 3d d9 0d 12 3d
       -0.0375064 -0.031808753 0.03923024 0.035657737

conv_3.bias f4 [12]
000000 12 7f 76 bc 3f e8 93 3a 9f e6 a7 bc 99 fc 08 bd
       -0.015044944 0.0011284425 -0.02049571 -0.03344402
000010 04 36 1f bd 27 e8 25 3c 4b 5c 32 3d 14 37 22 bd
       -0.038869873 0.01012615 0.04354505 -0.039603308
000020 f2 e8 14 3c ca 55 9a ba e1 7a 02 bd b1 6c 44 bd
       0.009088742 -0.0011774835 -0.031855468 -0.04795522

conv_4.weight f4 [12, 12, 3, 3, 3]
000000 0c 51 36 3d 38 57 79 bc 0b c0 83 bc 16 df 32 bd
       0.044510886 -0.0152185485 -0.016082784 -0.043669783
000010 e2 b6 c4 3c e4 2d 55 3b df 4b 03 3c 46 df 5e bd
       0.024012987 0.0032528574 0.008013695 -0.05441215
000020 4b 24 8e bc 00 51 b3 3c 0a 5a b7 3c f2 09 3b bc
       -0.01735129 0.02188921 0.022381801 -0.011415945
000030 b4 51 5d 3d e6 56 9c bc f5 ed 1d 3d 12 f5 ce bc
       0.054032996 -0.019084405 0.03855701 -0.025263343
000040 1f fb 19 bc 89 74 18 3d 02 3b 04 3d 10 08 e1 bc
       -0.009398251 0.03722051 0.032282837 -0.027469665
000050 ce f4 e8 bc 96 92 dc bc a5 45 0d 3c 0b 7a 30 bd
       -0.028437044 -0.026925366 0.008622562 -0.04308514
000060 78 8c c1 bc ab 40 8c 3b d4 10 27 bd 1b 50 12 bd
       -0.023626551 0.00428017 -0.040787533 -0.035720926
000070 68 d7 e1 bc 14 7e 40 3d 7f 84 4c 3d 46 c8 f5 3c
       -0.027568534 0.046995237 0.049931046 0.030002724
000080 a1 4a 6f 3b 92 bd c2 bc 2d f8 50 3d 89 49 a1 bb
       0.0036512988 -0.023772035 0.05101793 -0.004922096
000090 61 c1 1c 3d 3c a2 46 bc b5 16 2c 3d 9d 78 aa 37
       0.038270358 -0.012123641 0.042013843 2.0321744e-05
0000a0 87 6d 13 3d 26 de d6 bc 7c b0 3a bb 25 c6 15 3c
       0.035993125 -0.026228976 -0.002848654 0.00914148
0000b0 e0 9f c8 bc 38 68 31 bc 83 60 d6 bc 19 b7 a0 bc
       -0.024490297 -0.01082807 -0.026169067 -0.019618558
0000c0 98 73 d4 bc 6a ba 2b 3d 57 06 23 bb 44 56 c1 bb
       -0.025934026 0.041925825 -0.0024875605 -0.0059001762
0000d0 c7 45 aa bc a7 93 60 3d 12 93 21 3b ce 90 2a bc
       -0.020785226 0.054828312 0.002465431 -0.010410501
0000e0 03 f7 12 3d 7f 49 40 3d 00 31 e9 3c 96 4e 34 3d
       0.0358801 0.04694509 0.028465748 0.044020258
0000f0 e6 43 25 3d e9 f6 a6 bc 3c 79 1f bc da 04 4e bd
       0.040347956 -0.020381408 -0.009733494 -0.050297596
000100 bd 08 23 bd 01 5f 5e bd a4 e3 f0 3c 41 62 02 bc
       -0.039803255 -0.05428982 0.029405423 -0.007957996
000110 a2 fe 3c bd e9 17 d3 bc 37 a8 02 bd 7a 28 9f bc
       -0.046141274 -0.025768237 -0.031898703 -0.01942848
000120 d9 25 06 3d cf 32 38 3d 85 fd 87 bc fe 8e e4 bb
       0.032750938 0.04497033 -0.01660038 -0.006975054
000130 50 60 37 bd 46 88 27 bd 97 93 8c 3a bc 6c 5d bd
       -0.044769585 -0.040901445 0.0010725138 -0.054058775
000140 af 4a ef 3c eb b2 dc bc db aa 4d bd eb 2d b8 bc
       0.029210417 -0.026940783 -0.05021177 -0.022482833
000150 50 71 38 bd b9 80 9e bc ee 97 4a 3d 6d c2 16 bd
       -0.04502994 -0.01934849 0.049461298 -0.036806513
000160 2d f5 03 bd 44 da 82 bc eb 2f 18 bc f2 fd 37 3c
       -0.03221624 -0.015973218 -0.009288768 0.011229979
000170 e4 2d 1a bd 64 a8 1c bd 79 1a ec 3c 60 31 1a bd
       -0.03764142 -0.038246527 0.028821217 -0.037644744
000180 f9 3b 3c bc 85 af 31 3d 1d 1d 86 bb e4 e4 dc 3c
       -0.011488908 0.04338028 -0.004092826 0.026964612
000190 84 9f 5a 3d a7 9e c1 3c 44 28 26 3d dd 3c a9 bc
       0.053374782 0.023635222 0.040565744 -0.020658905
0001a0 ab b2 2f bc 3d 38 08 3d b2 3a bb bc 6e 6d 5f bd
       -0.01072375 0.033256758 -0.022855137 -0.05454772
0001b0 e0 43 aa 3c 3e 7d 3e bd dd de 3f bd 55 c1 02 ba
       0.020784318 -0.04650616 -0.0468434 -0.0004987915
0001c0 b2 17 d3 3c bb 40 10 bd ed bb 2f 3d 60 a7 b1 3c
       0.025768135 -0.03521798 0.04290383 0.021686256
0001d0 9d 45 3e bd 50 19 27 bd 1b 13 31 3d 55 ae 6b bc
       -0.046453107 -0.040795624 0.04323111 -0.014384826
0001e0 e2 3e 52 bd b9 a8 e8 3b 4b 0b e5 bc a0 3a bc 3c
       -0.0513295 0.0071001914 -0.027959486 0.022977173
0001f0 55 fd 3e 3a b9 6b fb bc 4e 57 29 bc 60 27 40 bd
       0.0007285674 -0.030691015 -0.0103357565 -0.04691255
000200 d5 b7 99 3b 84 e7 d8 3c 80 52 62 3d 79 02 54 bd
       0.004691104 0.026477583 0.05525446 -0.05176017
000210 00 89 24 bd 1e 2a 09 bd 55 d3 26 bd e4 3d cb 3c
       -0.040169716 -0.03348743 -0.040728886 0.024809785
000220 92 fd 91 bc d7 e2 63 3d 36 ec 3d 3a 73 5c c0 3c
       -0.017821107 0.055636253 0.0007244976 0.023481583
000230 26 3f 24 bd 3e f4 26 bd b7 14 2e 3d 24 72 f6 bb
       -0.040099286 -0.04076027 0.042500224 -0.007520931
000240 d4 97 c0 3c 50 92 8c bc 96 a0 f7 bc 24 09 55 3d
       0.023509897 -0.017159611 -0.03022794 0.05201067
000250 e4 b3 41 3d 19 68 df 3c 4b 95 de bc ad 39 0e bd
       0.047290698 0.027271317 -0.027170798 -0.034722973
000260 45 35 21 bc d9 b1 d9 3b 1f 49 e7 bc bf 95 52 bd
       -0.009839361 0.0066435155 -0.028233109 -0.05141234
000270 4c 53 bb bc a1 73 1c bc d1 eb d4 bc 05 93 ed 3b
       -0.022866867 -0.009549052 -0.025991352 0.007250192
000280 14 ae a7 bc 4f 41 18 bd 8a a8 87 bc a3 49 e8 3c
       -0.02046875 -0.037171658 -0.016559858 0.028355425
000290 53 24 71 3c 83 97 da bc bc 80 1c bc 1b 72 ea bb
       0.014718133 -0.026683575 -0.009552177 -0.0071547157
0002a0 21 7d 18 3d 3a d7 26 bd df 1a 4d bd 9e 6d b9 3a
       0.037228707 -0.0407326 -0.050074454 0.0014147048
0002b0 61 81 60 3d 42 28 39 bd 20 57 2b 3c 9a c5 2f bc
       0.054810885 -0.04520441 0.010457784 -0.010728264
0002c0 d1 df 55 bd 9d 46 ca bc bd 42 a9 3b f1 45 0c 3d
       -0.0522154 -0.024691874 0.0051654265 0.03424639
0002d0 70 4f fd 3c 55 ee 25 3d 55 45 94 bc 58 c4 86 3c
       0.030921668 0.040510494 -0.018099466 0.016451046
0002e0 89 44 2d bd c3 4a 13 3d 37 b4 47 3d 68 a6 d1 ba
       -0.04230169 0.03595997 0.04875585 -0.0015995027
0002f0 c7 37 69 bc 3b 2f 5c bd d7 9a 3b bd a7 2e 90 3c
       -0.01423449 -0.05375598 -0.045801964 0.01760037
000300 9a c9 18 3c ef 7b 93 bc 45 bc 35 bd 5e d1 55 3d
       0.009325409 -0.018003432 -0.044369 0.05220162
000310 87 0c 19 bd d5 c6 8b 3b b0 f0 18 3d 6a cc 13 bc
       -0.037365463 0.004265646 0.037338912 -0.009020904
000320 b9 e2 51 bd a5 92 de 3c 1c b5 55 bd 89 7d 50 3d
       -0.05124161 0.027169535 -0.052174672 0.05090097
000330 ca bf 0f bd e6 cf d3 bc dc fa 17 bd 45 57 db bc
       -0.035095014 -0.02585597 -0.037104473 -0.026775012
000340 2f ba 41 3c e4 8a 4a bd df 96 d2 3b 49 66 77 bb
       0.011824175 -0.049448863 0.0064266766 -0.0037750176
000350 1d ca 72 3c 75 d8 02 bc fa d9 53 bd 35 27 06 3b
       0.014818695 -0.007986178 -0.05172155 0.0020470147
000360 a1 cf b1 3c c0 5a 3e 3d 6d 58 85 bb 2f 17 63 3d
       0.02170545 0.046473265 -0.004069379 0.05544203
000370 19 01 00 bd f2 be 06 bd 6b 5e 40 bd e9 d8 23 3d
       -0.031251047 -0.032896943 -0.046965044 0.040001784
000380 a8 d0 25 3d 85 95 41 bd 44 4f c6 bc 11 d5 18 bd
       0.040482193 -0.047261734 -0.024207719 -0.03731257
000390 bd c6 02 3d b9 08 43 3d 34 e3 19 3d 88 c3 3a 3d
       0.031927813 0.04761574 0.037570193 0.04559663
0003a0 30 0c b8 bc f4 eb a1 bb 71 43 eb bc ce a9 d0 bc
       -0.022466749 -0.004941458 -0.028718682 -0.025471594
0003b0 c2 fc 27 bd 5c bd 93 bc 55 38 64 3d 92 74 15 3a
       -0.041012533 -0.01803463 0.055717785 0.0005701269
0003c0 4b af 17 3d 7b 2a 4f bd 7c fa e2 bc 89 cc bb 3c
       0.037032407 -0.050577622 -0.02770733 0.022924678
0003d0 75 f6 58 bd 1b 00 f4 3c 63 91 37 bd 6f ab be bc
       -0.052969415 0.029785207 -0.044816386 -0.023275105
0003e0 c7 da 1a bd 83 96 3b bd 5b 86 27 bd 84 a6 a6 bc
       -0.0378063 -0.045797836 -0.040899616 -0.020343073
0003f0 e8 20 f1 3b 7d 35 ff 3c e4 82 fd bc 4f 4f fc 3c
       0.007358659 0.031153435 -0.030946203 0.030799536

conv_4.bias f4 [12]
000000 1b ed a1 bb 0e 70 59 bd db 79 2f 3c 53 b9 37 3d
       -0.0049415953 -0.05308538 0.010710205 0.044854473
000010 ce 12 76 bc 76 95 3b bd 3f 9e 79 3c 85 2d 9b bc
       -0.015019132 -0.045796834 0.015235483 -0.018942604
000020 fa 9b 35 3d 4c 2a 4a bd 80 60 cd 3c 1c 44 0a 3d
       0.044338204 -0.049356744 0.025070429 0.03375636

conv_5.weight f4 [12, 12, 3, 3, 3]
000000 1d 19 46 3d 79 35 90 bc 0e ee f5 3b 00 d2 55 3d
       0.048363794 -0.017603623 0.007505185 0.052202225
000010 97 19 3b bd a4 06 41 bd 00 90 67 bc 2b a4 4f bd
       -0.0456787 -0.047125474 -0.014133453 -0.050693672
000020 fb 1d 33 bd 64 2a f6 3b 9d 6d f5 3c b9 d8 9c bc
       -0.043729763 0.0075123776 0.029959494 -0.01914631
000030 7d cc 60 bd 47 49 a7 3b 0b 19 d3 bc c7 5b da 3a
       -0.054882515 0.005105171 -0.025768777 0.0016659432
000040 d2 f5 ea 3c 1d fa 1d 3d b5 d3 d6 bc c0 2c 04 bc
       0.02868167 0.038568605 -0.026223997 -0.00806731
000050 d2 a8 19 3d ce 0c 6f bc a4 81 62 3c 79 b5 47 bd
       0.037514515 -0.014590455 0.013824854 -0.04875705
000060 67 5b 52 bd 8e 38 b8 bc f9 d0 ef 3c de ad 61 3d
       -0.0513567 -0.022487905 0.02927445 0.055097453
000070 77 87 1a 3d a0 bf 27 bd 0e 97 da 3b e9 af 04 bd
       0.037726846 -0.040954232 0.006670839 -0.032394323
000080 cb 38 60 bd 1d 8e 30 bc b4 3f 26 bd 39 cf d8 3b
       -0.054741662 -0.01077607 -0.040588096 0.0066164997
000090 49 14 34 bd 5d ba 45 3c 19 78 09 bd 19 71 a7 3c
       -0.043964658 0.012068358 -0.0335618 0.020439671
0000a0 55 6a d9 3b b2 d9 b3 bc 32 45 f9 bc ae 7a d6 bc
       0.00663499 -0.021954391 -0.030428503 -0.026181545
0000b0 b5 a5 b8 3c a4 57 8d 3c 9d ed 33 bd d5 dd a8 3b
       0.022539953 0.017253704 -0.043927778 0.0051533976
0000c0 2b ed 0e 3c e0 ed 61 bd 10 e0 13 bd ab d9 84 bb
       0.008723537 -0.055158496 -0.036102355 -0.0040542684
0000d0 39 9d 8d bc b9 f3 4a bc 32 87 0c bc c4 27 91 bc
       -0.017286884 -0.01238721 -0.008577155 -0.017719157
0000e0 62 18 1b bd 8e fc f7 3b 2d e7 31 bd 8e 14 d9 3c
       -0.03786505 0.0075679487 -0.043433357 0.026499059
0000f0 6e 8a fd bc 8e cf 1c bd 9d 39 f6 bc 10 ca 20 bd
       -0.030949797 -0.038283877 -0.030056769 -0.0392552
000100 87 a7 68 bc 64 a5 70 bc 9d dd b7 3b 39 70 09 bb
       -0.014200098 -0.01468787 0.005611135 -0.002097143
000110 8d f0 4c bd 90 6e 07 bd 15 8a e5 bc 12 5f f4 bc
       -0.050034095 -0.033064425 -0.028019944 -0.02983049
000120 b9 75 3e bd b4 24 3b 3d 24 25 2d bd ab 5e 51 bd
       -0.046498988 0.0456893 -0.04227175 -0.051115673
000130 12 d6 1e bd d2 ad a6 3c b9 9e 79 bc 07 83 9f 3c
       -0.038778372 0.020346556 -0.015235596 0.019471658
000140 19 9f 48 bd 44 46 59 3d 84 05 9d bc eb 0d 7a 3c
       -0.048979852 0.053045526 -0.01916767 0.015262107
000150 6b d7 d6 bc 69 61 01 3d 00 4a d0 bb fd 1f ea bc
       -0.026225766 0.03158704 -0.0063564777 -0.028579706
000160 9d f0 4a bd fd d1 d0 bc 09 28 53 bd c0 76 a0 bc
       -0.049545873 -0.025490755 -0.051551852 -0.019587874
000170 0b c3 0b 3d c0 77 05 bc ee c8 99 bc 2b 50 a9 3b
       0.034121554 -0.008146226 -0.018772569 0.0051670275
000180 62 39 2e 3d 87 6b 77 bc 4e ec 88 bc d0 73 14 bd
       0.042535193 -0.01510132 -0.016714241 -0.03624326
000190 e4 3e ef ba 6d d5 0c bd 0e 71 3a bc b9 10 34 bd
       -0.0018252996 -0.034383226 -0.011379493 -0.04396126
0001a0 a0 cb e1 3c 8e a8 0e 3b a7 15 1d bd 79 11 9e bc
       0.027562916 0.0021767947 -0.038350727 -0.019295441
0001b0 d5 31 19 bd 87 16 51 bc d5 a3 5a bc 60 30 97 bc
       -0.03740104 -0.012761719 -0.013344725 -0.018455684
0001c0 b2 69 eb 3c 00 e8 9b bc ce d5 b8 3c 24 c2 d9 bc
       0.028736923 -0.019031525 0.022562888 -0.026581831
0001d0 3d 39 88 bc 67 ff a6 3c 64 a3 c7 bc 55 53 b7 bb
       -0.016628856 0.020385457 -0.024369903 -0.0055946507
0001e0 1d b7 43 bc 92 54 1c 3d ab b9 94 bb 04 c7 58 bd
       -0.011945513 0.03816659 -0.004538735 -0.05292417
0001f0 67 19 ba 3c 1d d3 5e 3a 74 7e 52 bd d9 ea 60 3d
       0.02271719 0.0008500086 -0.051390126 0.05491147
000200 b9 6d 89 bb 6b 3c 0f 3d be 85 1c bd 09 6f 5e bd
       -0.004193988 0.03496973 -0.038213484 -0.05430511
000210 b5 87 39 3d 72 38 45 ba b9 fa d4 3b ab 97 a8 bb
       0.045295436 -0.00075233646 0.006499615 -0.0051450334
000220 72 ec 26 39 65 b8 4f 3d 20 a8 d9 3c 92 a7 29 bd
       0.00015919076 0.05071296 0.026569426 -0.041419573
000230 a0 d8 38 3d f4 fb 2b bd a7 92 16 3d 55 5c 1a 3d
       0.045128465 -0.041988328 0.036760952 0.03768571
000240 0e 5b f9 3c 5d 8b 04 bc 6e 46 8c bc 9e bd 16 3d
       0.030438926 -0.008089867 -0.017123427 0.036801927
000250 32 98 3c 3d 24 90 1e 3d 0e ad cd 3c 22 aa 2a 3d
       0.046043582 0.038711682 0.025106933 0.041666158
000260 55 fd ec bc a9 68 56 bd 8d 81 35 3d 85 b4 04 3d
       -0.028929392 -0.052345905 0.044313002 0.03239872
000270 a5 29 4d 3d 8e 71 f1 3c c9 88 18 3d fd c6 98 bc
       0.050088543 0.029473092 0.037239823 -0.018649573
000280 39 0e 3c 38 55 14 4a 3b 47 94 a7 bb 1d 76 74 3c
       4.483594e-05 0.0030834873 -0.0051141116 0.0149207385
000290 0e fa c1 3c 7e 5f 31 bd c9 80 5f bd c0 8d 41 3d
       0.023678806 -0.04330396 -0.05456618 0.047254324
0002a0 e4 cc 59 ba c0 59 70 3c ab e8 34 bb 22 a2 35 3d
       -0.0008308424 0.014669836 -0.0027604501 0.044344075
0002b0 04 70 b4 3c cb 74 9c bc eb f0 f6 3c 85 43 59 bd
       0.02202607 -0.01909866 0.030144176 -0.053042907
0002c0 55 6f c7 ba 64 bf c4 3b 0e 1d b1 3c c7 35 9a bc
       -0.0015215675 0.006004261 0.0216203 -0.018824471
0002d0 12 1e 22 bd a0 86 5c bd d4 25 49 3d c0 0e c2 3c
       -0.03957946 -0.053839326 0.04910834 0.023688674
0002e0 50 33 03 bd ab 07 c5 3c 1d 19 b6 3b 07 22 1d bc
       -0.032031357 0.024051508 0.005557193 -0.009590632
0002f0 34 7b 26 bd cb e3 ab 3c c0 2d 57 3c 2b a6 21 3d
       -0.04064484 0.020982644 0.013133466 0.03946511
000300 c4 f3 a7 3c 75 be be bc 72 e4 72 bb 54 c3 34 bd
       0.020501979 -0.023284176 -0.0037062434 -0.044131592
000310 f0 40 11 3d c2 a9 62 bd 84 2b 4d bd 0e 5a 20 bd
       0.03546232 -0.055337675 -0.050090328 -0.039148383
000320 82 79 26 bd c0 ec 00 3d 80 6b e3 bb a0 31 a7 bc
       -0.040643223 0.031475782 -0.0069403052 -0.020409405
000330 a4 be ce 3c 40 c9 87 3c c7 2c 62 3d 0e bc f1 3b
       0.025237389 0.016575456 0.055218484 0.007377154
000340 cd e0 3c 3d 2b 92 ab bc 6b 16 e8 bc 2b 0a 29 bc
       0.046112824 -0.020943722 -0.028331002 -0.010317366
000350 87 27 b4 bc c2 51 38 3d a5 cc 40 bd 5b 3c 4f 3d
       -0.021991504 0.044999845 -0.047070164 0.05059467
000360 e2 92 0d 3d ee f4 27 3d 72 29 62 bc cb 58 38 3d
       0.034563906 0.041005068 -0.013803827 0.045006555
000370 d5 cd f4 3b d5 75 2b 3c 0e 8c e6 bb 32 2f 9d 3c
       0.007470826 0.010465105 -0.007035739 0.019187544
000380 3d 8e 1f bd d0 fb 32 bd 95 85 e4 bc db 7f 0c 3d
       -0.03895401 -0.04369718 -0.027895728 0.03430162
000390 d5 87 b4 bb d5 c1 aa 3c e7 bb ae 3c 47 80 31 bd
       -0.0055093565 0.02084438 0.021329833 -0.043335225
0003a0 99 e5 bf 3c d0 19 00 bd 79 85 3e 3c 8d ce 3e 3d
       0.02342491 -0.031274617 0.011628502 0.0465837
0003b0 4b 34 cf bc 97 a8 1c bd 64 36 93 bc 47 47 b6 3c
       -0.02529349 -0.038246717 -0.017970271 0.022250785
0003c0 f5 13 09 bd f2 ea b0 3c 35 17 26 bd a4 ed 18 3c
       -0.033466298 0.021596406 -0.040549476 0.009334002
0003d0 45 fc 0a 3d 0b bd ef 3c d5 f2 23 3d ce ad 12 3c
       0.03393199 0.029264947 0.040026505 0.008952571
0003e0 19 7c 04 bd 8b 92 20 bd 40 af 32 bc 80 65 76 bc
       -0.03234491 -0.039202254 -0.010906041 -0.015038848
0003f0 19 b7 4f bd bd 03 22 3d 6e 5a df bc dd 55 4f 3c
       -0.050711725 0.039554346 -0.0272648 0.012654749

conv_5.bias f4 [12]
000000 dd 09 4f bd e1 e4 5f 3d 0e ba 37 bc cb 3b 29 bc
       -0.050546516 0.054661635 -0.0112137925 -0.010329197
000010 ab 21 4e bd 20 9a 3b bd dd 66 d1 3c 0b e7 c5 bc
       -0.050325077 -0.045801282 0.025561744 -0.024158021
000020 b0 54 5f 3c 7d 26 21 3d a0 34 dd bc 82 63 d9 bc
       0.013631031 0.039343346 -0.027002633 -0.026536707

conv_6.weight f4 [12, 12, 3, 3, 3]
000000 24 6c d6 bc 79 ba 2d 3d 6b 77 25 bc f2 52 cd bb
       -0.026174612 0.042414162 -0.010099272 -0.0062659914
000010 55 ff 26 3c b2 33 c2 3c 15 d5 ec 3c 39 c4 ab bb
       0.010192712 0.02370629 0.0289102 -0.0052418974
000020 4e 06 b3 bc 9d e3 53 bd 1d 7b 94 3c c0 22 f5 3c
       -0.021853592 -0.05173074 0.018125111 0.029923797
000030 ab 84 e2 bc 5d 60 26 3c 64 28 17 3c c7 4f 56 3c
       -0.027651152 0.010154811 0.0092259385 0.013080544
000040 5e 6d 2b bd 79 eb 30 3d bd 6b d4 3c 6e 3c 26 3d
       -0.041852348 0.043193314 0.02593028 0.040584974
000050 24 b5 15 3d 55 e8 d0 bb c7 5c 15 bb cb 0a b7 3c
       0.036549702 -0.0063753524 -0.0022790895 0.022344014
000060 fe 2e 49 3d 39 29 6e 3c 8e 86 bc bc 6a 44 5e bc
       0.04911708 0.014536195 -0.02301338 -0.013566116
000070 59 4c 5d 3d 20 c0 19 bc 58 86 a4 3c 06 c0 53 bd
       0.05402789 -0.009384185 0.020083591 -0.0516968
000080 8a fc 47 bd 66 21 05 bd ba c4 93 3c db b8 3d bd
       -0.048824824 -0.032502554 0.018038142 -0.04631887
000090 97 6b 5a bd dc 9b d9 bc ae 18 dd 3c 33 8e 52 bb
       -0.053325262 -0.026563577 0.026989307 -0.0032128214
0000a0 e6 3a 2b bc 02 ea 0e 3d a7 fb 5a 3c bf 8e 5b 3d
       -0.010451054 0.034891136 0.013365663 0.05360293
0000b0 08 29 a8 3c 5a 09 25 3d d0 7e 34 3d d3 c0 fe 3c
       0.020527378 0.04029212 0.04406625 0.031097805
0000c0 26 33 08 bd 37 07 20 bd ef 48 c6 3c ef 7c f8 3c
       -0.033251904 -0.03906938 0.0242047 0.03033301
0000d0 cb 0e c9 3c bf b3 3e bd 72 50 1e 3a 2d 89 31 3d
       0.024543187 -0.046558138 0.0006039209 0.04334371
0000e0 4d 6a 55 bd 00 7a af 3c 5d 73 74 bc de ed 36 3d
       -0.05210333 0.021420479 -0.014920083 0.04466044
0000f0 64 77 f1 3c ce 05 43 bc 92 be 38 bd ab 9d b3 bb
       0.029475875 -0.011903239 -0.045103617 -0.005481442
000100 07 2e 72 bc b2 a5 50 3c 64 15 f2 3b 32 4f b5 bc
       -0.014781482 0.012734817 0.007387804 -0.02213249
000110 64 58 d6 bc bb 4a 49 bd 32 2c 4e bc 92 e6 05 bd
       -0.026165195 -0.049143534 -0.012583779 -0.032690592
000120 ce c3 4f bc 2b 80 01 bc 44 0f c0 bc cd 21 17 bd
       -0.012680961 -0.007904093 -0.02344478 -0.03689747
000130 32 bd c6 3c 47 4d c1 3c 5d 50 3c bd 32 85 3b bc
       0.024260137 0.023596419 -0.045975078 -0.01144533
000140 1d 54 2e 3d 2a eb 9e 3c 0c be 29 bd 6a 35 62 3b
       0.042560685 0.019399244 -0.04144101 0.00345167
000150 1a e7 69 3a a1 c1 22 bd 18 75 af 3a 7c c1 be bc
       0.00089226814 -0.03973544 0.0013386337 -0.02328562
000160 6c 15 11 bd a7 53 1f bd 9a 5e 1d 3d cf 70 83 ba
       -0.03542082 -0.038898136 0.038420297 -0.0010028126
000170 d0 3a ba 3b 7f d1 2b bd 08 1a fc 3c 38 77 08 3d
       0.0056832805 -0.041947838 0.030774131 0.03331682
000180 2c 08 4b bb fc 6f c2 bc 26 8c 96 3b fe 7a 30 3a
       -0.0030980213 -0.023735039 0.0045943437 0.00067321945
000190 b4 d5 ee 3c 23 48 df bc d1 37 08 bc 87 2a c8 3c
       0.029154636 -0.027256077 -0.008314089 0.024434341
0001a0 42 fd 36 3d f3 8b c2 bc ee 7d 89 bc f8 e7 59 3d
       0.04467512 -0.023748374 -0.01678368 0.05319974
0001b0 20 73 12 3d 52 48 5a 3d 55 25 04 ba a4 92 97 bc
       0.035754323 0.053291626 -0.00050409633 -0.01850254
0001c0 f5 60 eb bc 5d fe b6 bc 97 94 41 3d f2 61 87 bb
       -0.028732756 -0.022338087 0.047260847 -0.004131549
0001d0 1b 0c 48 bd e2 2e 0c 3d eb 10 46 bd 04 45 ea bc
       -0.04883967 0.0342244 -0.048355978 -0.028597362
0001e0 6e 16 fd bc ce de 7c 3c 55 19 bd ba 27 02 db 3c
       -0.030894484 0.01543398 -0.0014427105 0.026734425
0001f0 0e 95 0d bc 4e 28 f9 bc 7e 6f 5c bd 80 7b 4c bd
       -0.008641494 -0.030414727 -0.053817265 -0.049922466
000200 c4 aa 3e 3d 8e 23 1c bb e7 78 ec 3c 17 0e 0d 3d
       0.046549574 -0.0023824903 0.028866244 0.034437265
000210 79 13 16 bc 55 04 e3 bc 39 03 b2 3b 69 59 5f 3d
       -0.009159916 -0.027712027 0.005432513 0.054528628
000220 6e e6 bb bc d7 3a 29 bd 0e f4 be 3b 89 d4 03 bd
       -0.022937026 -0.04131588 0.0058274334 -0.03218511
000230 c7 2e bd 3b f5 82 cf bc 55 73 5e 3b 0e 46 a1 bc
       0.0057733986 -0.025331 0.0033943255 -0.019686725
000240 39 ae 51 39 34 0c 13 3d 7e 74 4f bd 07 74 4c 3d
       0.00019996696 0.03590031 -0.050648205 0.04991534
000250 d9 e2 14 bd ab 6e 98 3b 19 9d 62 bd c0 fa 4c 3d
       -0.03634915 0.0046518645 -0.0553256 0.05004382
000260 80 0c 94 3b d5 a7 c8 3c f2 ae b7 3b d5 8f fc bc
       0.0045180917 0.024494091 0.005605572 -0.030830303
000270 eb 71 ae bc 2b 8c c9 3c 6b 38 c9 bc ab 57 14 bb
       -0.021294555 0.02460297 -0.024563035 -0.0022635262
000280 be fe 0c bd 24 04 f4 bc 23 84 46 bd 29 95 34 3d
       -0.03442263 -0.02978713 -0.04846586 0.044087563
000290 1e 51 27 3d 40 39 5f 3c 37 f4 16 3d 09 1d f2 3a
       0.040848844 0.013624489 0.036853995 0.0018471788
0002a0 d2 ce af 3c 3e ad 09 bd a4 8e 4f bc 19 8c d0 ba
       0.021460924 -0.033612482 -0.0126682855 -0.0015910893
0002b0 1b 2a b8 bc 3c de bb bb fa ba 3c bd d8 28 38 3d
       -0.022481015 -0.0057332795 -0.046076752 0.044960827
0002c0 39 e0 4a 3d 69 75 4e 3d c1 75 98 3c 4e cb 4f 3d
       0.04953024 0.05040494 0.018610837 0.050730996
0002d0 b3 57 b3 bc f2 24 dd bc f5 14 52 bd d3 2e 8c 3b
       -0.021892404 -0.026995156 -0.051289517 0.004278043
0002e0 82 29 d7 bc fd 05 f0 3c 90 21 5d bd 6c 63 1b bd
       -0.02626491 0.02929973 -0.053987086 -0.037936613
0002f0 cc a0 d4 bc 00 46 e6 bc 40 77 97 bc 44 40 00 3d
       -0.02595558 -0.02810955 -0.01848948 0.03131129
000300 69 11 51 bd ed 23 2f bd 62 8b 60 3d 2b 72 ac 3c
       -0.051041994 -0.04275887 0.054820426 0.021050533
000310 64 0b 50 bd 2b c2 2b bc 32 7f 4e 3d 0e f9 5d 3c
       -0.050792113 -0.010483305 0.05041427 0.013548149
000320 f2 ba 30 bc a4 45 3f bd 2b 7c f6 3c d9 f3 9a 3c
       -0.010786759 -0.046697274 0.030088505 0.018915104
000330 92 d4 97 bc 84 a2 c5 bc 72 09 d8 3c 95 77 8f bc
       -0.018533979 -0.024125345 0.026371691 -0.017513076
000340 44 50 53 bd 32 2b 59 3d 15 18 5f 3c a7 c8 a8 bc
       -0.05159022 0.05301971 0.013616581 -0.020603491
000350 20 91 11 3d eb 19 ee bc c7 21 c3 39 f9 72 9a 3c
       0.035538793 -0.029065093 0.00037218464 0.018853651
000360 97 ad 45 bd 03 44 1a bd a7 18 eb 3c 5a 60 99 ba
       -0.04826125 -0.037662517 0.028698279 -0.0011701689
000370 25 37 41 3d ff f8 5c bd 20 c9 ce bb 1c b8 25 3c
       0.04717173 -0.0539484 -0.006310597 0.010114696
000380 fd 30 c2 3c b7 c9 34 bc f6 df 3f 3d 4b 3d 1f bd
       0.023705 -0.011034421 0.046844445 -0.038876813
000390 7b 07 0e 3c 35 ee 44 3d 26 b8 43 3d c5 b4 df 3b
       0.008668776 0.048078734 0.04778304 0.0068269693
0003a0 bd 55 32 3c 86 dc dd 3c 8a 2f 59 3d b4 11 6e bc
       0.010884699 0.027082693 0.053023852 -0.014530588
0003b0 5d 61 5f 3b 9d 3f 2e bc 10 c5 b0 bc d0 e9 5c bd
       0.0034085133 -0.010635284 -0.021578342 -0.05393392
0003c0 62 a6 d7 3c c0 dc 1d 3d c3 cb e9 bc 17 cc 56 bc
       0.026324455 0.0385406 -0.028539544 -0.013110182
0003d0 fc fd 13 bd 00 ef 08 bd 20 98 22 bd 15 dd d0 3c
       -0.03613089 -0.033431053 -0.03969586 0.025496045
0003e0 99 b4 39 bd 42 a2 48 bd c4 21 24 bc f4 20 ca 3a
       -0.045338247 -0.048982866 -0.010017816 0.0015421198
0003f0 1e 48 40 3d 58 ef 93 bc ce a9 ee 3c 5f 86 81 b8
       0.046943776 -0.018058464 0.029133704 -6.176228e-05

conv_6.bias f4 [12]
000000 d1 ee 6a ba d5 4c 1d bc ad 33 34 3d 57 56 56 bd
       -0.0008961978 -0.009600838 0.043994594 -0.052328434
000010 c2 f8 62 bd c1 d5 19 bc b8 df d8 3c 79 0a 45 3d
       -0.055413015 -0.009389342 0.026473865 0.04810569
000020 9d 7c 1e bd fd 6c 5e bd f4 b8 2b 3d f9 7f 3b bd
       -0.03869306 -0.054303158 0.041924432 -0.04577634
