model2/FSRCNN3D_epoch_60.pth (torch, 265262 bytes, 15 tensors)

module.conv_1.weight f4 [56, 1, 5, 5, 5]
000000 e6 16 1a 3d f0 c8 93 3d 6c 8d 51 3d 31 78 a2 bb
       0.037619494 0.0721606 0.05116026 -0.0049581756
000010 9a 93 cc 3c 22 92 b4 3d 8f 55 83 3d f9 63 67 bd
       0.024972726 0.08816935 0.064128034 -0.056491826
000020 d6 84 81 3c 23 b3 8e bd 40 40 9a bd 10 e5 89 3d
       0.015810411 -0.06967761 -0.07531786 0.06733143
000030 d3 79 c2 3b 04 96 c6 3c 66 2d 86 3d 53 f0 4d bd
       0.0059349327 0.024241455 0.06551628 -0.05027802
000040 64 0e a2 3d ea 54 8c bd b3 02 74 3c 94 cc 00 bd
       0.07912901 -0.068521336 0.014893222 -0.0314451
000050 a3 55 fa bc 5c 8a 9a bb 4b f1 89 3d 68 d5 81 bc
       -0.030558413 -0.0047162008 0.06735476 -0.01584883
000060 d9 0e 72 bd 58 95 52 bd 01 01 2e 3d 56 de a5 3d
       -0.05909619 -0.051411957 0.042481426 0.08099048
000070 9a c2 91 3c cb 59 99 bc eb bb 9e 3c 91 ef 35 3d
       0.017792989 -0.018719574 0.019376716 0.04441792
000080 3c f5 d6 bc 20 a0 a2 bd b3 f8 3f bd 2f 36 bc bc
       -0.026239984 -0.07940698 -0.046868037 -0.022975056
000090 27 42 2f 3c 20 40 83 3d dd f9 9f 3d 7a 1f 04 bd
       0.010696924 0.06408715 0.078113295 -0.03225658
0000a0 7d 0a 42 3d 5f d0 79 bd 20 a8 8e bd 67 c8 82 3d
       0.047373284 -0.060989734 -0.06965661 0.0638588
0000b0 7a bd 34 bd 06 a3 3a 3d 7d d4 8c bd d3 32 29 3d
       -0.04412601 0.045565628 -0.068764664 0.041308235
0000c0 b7 5d da 3c 23 ec ea bc f7 bb ad bd 80 53 f5 bb
       0.026656015 -0.028677052 -0.08483117 -0.0074867606
0000d0 96 f4 79 bd fa b4 31 bd a2 49 6e 3d eb 0b 8d 3c
       -0.06102427 -0.043385483 0.05817569 0.017217597
0000e0 0e e2 aa bd e5 ca 13 3d 45 c8 9c bd f3 d2 94 3d
       -0.08343898 0.036082167 -0.07655386 0.07266798
0000f0 b5 ba 9d bd d8 f9 8a 3c 78 10 ee 3c ab f8 5a bd
       -0.07701627 0.016964838 0.029060587 -0.053459805
000100 af 9c 8f 3d e0 f3 b5 3d cf 04 da 3b 61 f7 02 3c
       0.07012307 0.08884406 0.0066534053 0.00799355
000110 3f ae 92 3d 65 52 4d 3d 1b 75 82 bd 2e ed 53 bd
       0.07162141 0.050127406 -0.06369992 -0.051739864
000120 59 1a cd bc ec fd 8a 3d a9 7a 87 3d d2 9f 94 bd
       -0.025036978 0.06786713 0.066151924 -0.07257046
000130 c9 74 1a bd 91 94 93 bd ed d0 92 3c d2 50 51 bd
       -0.03770903 -0.07206071 0.01792189 -0.051102467
000140 19 93 4c bd f7 00 b0 bd 79 55 66 3d 57 49 04 3d
       -0.04994497 -0.08593934 0.056233857 0.032296505
000150 11 c6 6d bd 8c 06 b2 3d 8e cc 3b bd 67 30 4f 3d
       -0.05805022 0.08692655 -0.045849375 0.05058327
000160 ea 18 56 3d e1 bd aa 3d 28 74 02 bd 8e ff af 3d
       0.052269854 0.08336998 -0.031849056 0.08593665
000170 4e d3 8c bd 55 ef 3c 3d 88 5e 0b 3d 3e f2 14 bd
       -0.06876241 0.046126682 0.0340257 -0.036363833
000180 13 82 32 bc 34 6c 6c 3d 44 3c 8c bd 3e 3e 85 bd
       -0.01089527 0.057720378 -0.06847432 -0.065060124
000190 da 6c b5 3d 40 e1 3a 3d 04 b7 9b bc 80 1c c2 3d
       0.088586524 0.04562497 -0.019008167 0.09478092
0001a0 ff 79 90 3d 60 97 82 3c 7f ef 2f 3d c4 29 be 3d
       0.07054519 0.015941322 0.04295301 0.0928531
0001b0 b6 fd f6 bb 9e f5 f3 3b b6 b5 98 3c 53 e2 19 bd
       -0.007537569 0.0074450513 0.018641334 -0.037569355
0001c0 a8 2e ba 3c 6e 6c 9f 3d 64 b5 16 bd 5e 3e 67 bd
       0.022727326 0.07784353 -0.03679408 -0.056455962
0001d0 df 53 54 3d 6c c9 a7 3d fc 97 49 39 3d cb fe bc
       0.0518378 0.08192715 0.00019225472 -0.031102771
0001e0 40 25 6e bd 98 82 49 bd b3 c5 7c 3d 9f 66 34 3d
       -0.058140993 -0.04919681 0.06171198 0.04404318
0001f0 17 93 4f 3d ac e1 fa bc 88 81 11 3d 2e 43 5c 3d
       0.050677385 -0.030625187 0.03552392 0.053775005
000200 32 87 0a bd cc 81 77 3d 13 93 00 bd f0 fc 59 3b
       -0.03382034 0.06042652 -0.03139026 0.0033262335
000210 18 60 d6 3b 00 99 e9 3c 22 cd 2a bd f2 dd 47 bd
       0.006542217 0.028515339 -0.041699536 -0.048795648
000220 b5 51 02 bd 8a 9f 7d 3d 82 c0 88 3c d4 0a 1e 3d
       -0.031816203 0.061919726 0.016693357 0.038584545
000230 0a d7 b5 3d a5 60 ba bc 4a 12 9c bd d9 ea 4a 3c
       0.08878906 -0.022751162 -0.07620676 0.012385094
000240 d1 8e 93 bd cc 51 a6 bd 0f 80 30 bc e7 29 9b 3d
       -0.072049744 -0.0812107 -0.010772719 0.075763516
000250 69 f8 8c 3d a3 46 2b bd cd 8b 1f bd 3c c0 f4 3c
       0.06883318 -0.04181541 -0.038951684 0.02987682
000260 9d 66 fe 3c b7 6d a6 bc 39 76 3e 3d d4 da 0a bd
       0.03105479 -0.020315988 0.046499465 -0.033900097
000270 38 6b 75 3d bb af 25 3d 75 98 09 bd 33 14 7f 3c
       0.059916705 0.040450793 -0.03359266 0.015568781
000280 c7 00 39 bd 57 21 79 3d e8 26 be bc d8 97 4a 3d
       -0.045166757 0.06082281 -0.023211911 0.049461216
000290 59 21 9a 3c f9 c0 5e bd b6 c1 25 3d ee ed 32 3d
       0.01881473 -0.05438325 0.04046794 0.04368394
0002a0 ad 12 f5 3c 93 aa 56 3c f0 37 af bd be 86 30 bd
       0.029916132 0.0131021915 -0.08555591 -0.04309725
0002b0 19 a8 98 3d 90 8f 56 bd cb 2b fb bb 19 c5 dd bc
       0.07453937 -0.052383006 -0.0076651326 -0.027071523
0002c0 8c 38 ea bb 9a 95 d7 bc 51 06 1c 3c 62 da aa 3d
       -0.007147854 -0.026316453 0.00952299 0.083424345
0002d0 55 0f b5 3c fa 60 a2 3a ad ca d7 3c 81 76 63 bb
       0.022102037 0.001238852 0.02634176 -0.0034708085
0002e0 c1 e8 be bc 57 a4 ad bc 64 bb 54 3c f7 62 96 bd
       -0.023304345 -0.021196527 0.0129841305 -0.07343095
0002f0 25 cc dd bc 77 bd ae bd d2 e4 81 3d 42 79 d3 3c
       -0.027074883 -0.08532231 0.06342472 0.025814656
000300 f1 46 2e bc d2 01 0f 3d cd 9a 16 3d 91 73 83 3d
       -0.010637031 0.034913845 0.036768723 0.06418527
000310 8c 8c 6c 3d 2e b0 63 3d ff 87 fd bc ee 65 c6 bd
       0.057751223 0.05558794 -0.030948637 -0.0968741
000320 04 90 29 3d 66 c3 4d 3d 39 00 01 bd 0c 3a 84 3d
       0.04139711 0.050235175 -0.031494353 0.06456384
000330 db 74 9c bc 36 64 82 3d ec df a5 3d 66 3d 08 3d
       -0.01909869 0.0636677 0.0809935 0.03326168
000340 bc 7f 8b bc 30 09 02 3d 5f 49 21 3d 40 67 c3 3d
       -0.017028682 0.031747043 0.039376613 0.09541178
000350 b5 d9 92 bd d3 36 71 bd 2f 42 98 bc 48 03 02 bd
       -0.071704306 -0.058890175 -0.018586246 -0.03174141
000360 63 15 67 3d 51 65 35 bd 1b 73 70 3d 99 80 2d bd
       0.05641688 -0.044286076 0.058703523 -0.04235897
000370 42 1d 52 3d 8f 3c 5d 3d 95 9f 93 bc c8 1a 84 bd
       0.051297434 0.05401283 -0.01802043 -0.064504206
000380 ff f8 e6 3c f2 e5 7f bd 3f 68 3d bd fe 1d e7 3c
       0.028194902 -0.062475152 -0.046241995 0.028212544
000390 df ef 2a 3d ef 1a 9f bd ec 3f 2b bd ec ac 0b bd
       0.041732665 -0.07768809 -0.041809008 -0.034100458
0003a0 6f b1 1e 3d bb 36 9d bc 6c c0 b8 bd d1 01 1b bc
       0.038743433 -0.019191137 -0.090210766 -0.009460882
0003b0 d9 a1 84 3b 9a 2f c4 bd 38 e6 b7 3c c2 13 30 3d
       0.004047614 -0.09579392 0.022448644 0.042987593
0003c0 ec 93 17 3d 22 b7 fb 3b bf d8 28 bc 5e 16 3b bc
       0.037006304 0.0076817432 -0.010305583 -0.011418907
0003d0 a4 aa 69 bd cb 7f 91 bd 2f fe d1 3c bb a1 8f bd
       -0.0570475 -0.07104453 0.0256339 -0.070132695
0003e0 3e ee 6d bd 38 74 40 bd b7 b2 9c bb a1 72 3f bd
       -0.058088534 -0.046985835 -0.0047820467 -0.046740178
0003f0 a1 8c a7 bb 5a 5a d1 3d ad 4c 85 bd f9 52 3f bc
       -0.0051132 0.10222311 -0.06508765 -0.011677497

module.conv_1.bias f4 [56]
000000 4b ea 34 3c 11 b2 66 3b b4 8b 05 3d eb 4e c8 3c
       0.011042188 0.003520135 0.032603934 0.024451694
000010 c5 51 0f 3d b5 b8 11 3d 58 38 38 bd f5 3a 06 3d
       0.03499009 0.03557654 -0.04497561 0.03277107
000020 a2 75 b0 bc c4 87 7e 3d da 7f 25 bd fa de a1 3d
       -0.021540467 0.062141195 -0.040405132 0.079038575
000030 96 4d 03 bd 26 8f c4 3c 98 2a 61 3d 6b 52 cd 3c
       -0.032056414 0.02399404 0.05497226 0.025063714
000040 66 58 72 bc e3 1f a5 3d 0a 8a 53 bc 79 15 b5 b8
       -0.014791584 0.080627225 -0.012911329 -8.634752e-05
000050 28 4e f2 bb 6e df b8 3d 69 70 03 3c a7 56 a1 bd
       -0.007394571 0.09026991 0.008022406 -0.07877856
000060 fd fb aa bc 5f ea 1e bd e5 56 bb 3d 13 e2 50 3d
       -0.02087211 -0.038797732 0.09147433 0.05099685
000070 d3 58 1f bc 84 2a a7 bc 07 1c 16 bb 47 ba b0 3c
       -0.009725767 -0.020406015 -0.002290489 0.021573199
000080 2c c6 88 3d 83 ae 96 3d 92 a1 06 bd e6 3e 5c bd
       0.06678423 0.07357504 -0.03286893 -0.053770922
000090 28 ee 3e 3d 7f fc 97 3c 31 fc 44 bd dc 92 ab 3a
       0.046613842 0.018553017 -0.04809207 0.0013090032
0000a0 d7 93 9e bd 59 74 00 bd 83 65 94 bd fe 56 a6 bd
       -0.07743042 -0.031360958 -0.07245924 -0.08122061
0000b0 5d ec f2 3c 8d ae 0e bc 76 e5 0c bd 73 d2 90 bd
       0.029653722 -0.008708608 -0.03439852 -0.0707139
0000c0 ae cb 94 3d f9 6c 2a 3d 31 00 91 bb 03 b7 22 3b
       0.07265411 0.04160783 -0.0044250716 0.0024828322
0000d0 f3 81 be bc 2f 45 e8 3c af d8 44 bc 98 c5 81 3c
       -0.023255324 0.028353302 -0.012014552 0.01584129

module.conv_2.weight f4 [12, 56, 1, 1, 1]
000000 1f b4 fc 3b 3d 8c a6 3c b6 c6 f0 bb a4 4c 12 bd
       0.007711902 0.020330543 -0.007347907 -0.03571762
000010 3c 9b c3 3d 67 6e ac 3d 25 3b 73 3d f7 27 dc 3d
       0.09551093 0.08419495 0.059382576 0.1074981
000020 04 aa ab 3d 48 82 f8 3d 5d ca c4 bd 79 3c f5 3d
       0.08382037 0.12134224 -0.0960891 0.11974425
000030 c1 66 0b 3d b0 8c 8c 3c e4 91 9d 3d e0 79 c0 bc
       0.03403354 0.017156929 0.07693842 -0.023495615
000040 ec 9b 7a 3d 71 fb ec 3d ce f4 35 3c d7 ca d8 3b
       0.061183855 0.11571396 0.011105729 0.0066159773
000050 69 04 8e 3d aa 00 62 3d c0 9d 3e bd 55 3c ff bc
       0.06934435 0.055176415 -0.04653716 -0.031156698
000060 24 d3 0c 3e 8e 65 cb bd 73 46 fb 3d ab f2 f6 3c
       0.13752419 -0.099314794 0.122692965 0.03014501
000070 3c 53 cb bd a3 1f ca bb cd 3c 0c 3d 9c e2 0c 3c
       -0.09927985 -0.006168322 0.03423767 0.00859895
000080 94 99 37 3d b2 6d bd 3d 24 b0 56 bd 7e f3 5e 3d
       0.044824198 0.09249438 -0.052414075 0.05443143
000090 5b bb 54 bd 3d 0d 1a 3d bc 8c e5 bd 3a f6 2f bd
       -0.05193649 0.03761028 -0.112084836 -0.04295943
0000a0 87 44 97 3d 59 6f 02 3e 79 6a 9e 3d dc be a3 3d
       0.073861174 0.12737788 0.07735152 0.07995388
0000b0 ed 10 6b bd 1c f5 c1 3d 00 76 6d 3d 67 3d 09 be
       -0.05738919 0.09470579 0.05797386 -0.1340233
0000c0 a7 aa d1 3d e5 58 c9 bd 67 ba 0d be 07 02 37 3d
       0.102376275 -0.098314084 -0.13840638 0.044679668
0000d0 70 d1 04 be a7 5f 27 3e 82 1f 94 3d 9d 1d fa 3d
       -0.12970519 0.16345082 0.07232572 0.122126795
0000e0 77 c0 13 3e 89 28 e4 bc 77 50 ca bd 72 ac 7f bd
       0.14428888 -0.02785136 -0.09878629 -0.062420316
0000f0 18 a1 26 bd 48 af 7e 3d e1 3b fc 3d 4d 2b af 3d
       -0.040680975 0.06217888 0.123161085 0.08553181
000100 15 96 27 be 40 5b f3 3d 64 3f fb bd 17 a0 70 bd
       -0.16365846 0.11882639 -0.1226795 -0.058746424
000110 65 9c 55 bd a0 47 21 bc fc dc 08 3d 56 5a 5d bd
       -0.052151103 -0.009843737 0.033413872 -0.05404123
000120 95 bf 03 bd bd e9 bb 3d 62 c5 42 3d 4f bf ef 3d
       -0.03216513 0.091754414 0.04755152 0.11706411
000130 2d 67 02 be 9e ab 84 bd d7 43 7a bd 99 5d 0a 3d
       -0.12734671 -0.06478046 -0.061099853 0.033780668
000140 34 aa 26 bd 95 1a 09 be 85 af a5 bd d5 b2 81 3d
       -0.040689662 -0.13389046 -0.08090118 0.06332938
000150 ce 8d 81 bd 94 49 26 3d bb 7e 0b 3e 98 7f ba ba
       -0.06325875 0.040597513 0.13622563 -0.00142287
000160 3a 6a 05 be 2a 76 41 3d ad da c7 3c de 78 0b 3e
       -0.13028803 0.04723183 0.024396265 0.13620326
000170 78 b4 95 3d b7 06 8d 3d 60 23 f1 bd 4d 38 76 bd
       0.07309812 0.068860464 -0.11774325 -0.060112286
000180 3a 5d e7 3a 27 3c 78 3d 2a 68 b2 3d 7d c0 d8 bb
       0.0017651685 0.06060424 0.08711274 -0.0066147433
000190 ac a4 ba bc 70 a1 97 3d 0a 7a 37 be 4f 41 03 3e
       -0.0227836 0.07403839 -0.17917648 0.12817882
0001a0 c4 5b 46 3d 04 78 b8 3d 83 1a 38 3d 05 58 c5 bd
       0.04842736 0.09007266 0.04494716 -0.09635929
0001b0 8b 61 00 be 77 cb 65 3d 64 77 11 ba 68 fb 87 3d
       -0.1253721 0.056102242 -0.00055491016 0.06639749
0001c0 d8 d0 cb bd e4 d2 1b 3c 13 c2 13 be ae 74 ae 3d
       -0.09951943 0.009510729 -0.14429502 0.08518349
0001d0 b9 fc 84 bd be 96 b9 bd 4c 83 ba bd e7 12 09 3e
       -0.064935155 -0.09061955 -0.09107074 0.13386117
0001e0 3b 7a da bd b8 d7 c5 bd 48 71 04 be 1e df e9 3d
       -0.10667845 -0.09660286 -0.12933838 0.11419509
0001f0 2b ed 07 be d4 89 92 bd 92 a6 a5 3c e7 80 41 3d
       -0.13274066 -0.07155195 0.020221028 0.04724207
000200 c9 7b e5 bd cf bd 7a 3d 0f 41 10 be 9f b6 78 bd
       -0.11205251 0.06121617 -0.14087318 -0.060721036
000210 5f 62 d1 bc 37 d0 56 3d 5d ed 54 3d 42 3f d7 3d
       -0.025559602 0.052444663 0.05198418 0.10510112
000220 02 d0 d7 3d fd 85 13 bd 8d a1 90 3d 75 d2 4d bd
       0.10537721 -0.036016453 0.07062063 -0.050249536
000230 01 42 f1 bd d3 53 f7 bd b6 07 2c 3d ab 8e ae bd
       -0.11780167 -0.12076535 0.04199954 -0.085233055
000240 f9 e7 5b 3c 1c 40 09 3e 47 3d 06 bd fd ff 36 bd
       0.013422006 0.13403362 -0.032773282 -0.044677723
000250 27 af c4 3d 1a ca af b7 87 63 fc bd ac cb c8 3d
       0.0960372 -2.0955737e-05 -0.12323671 0.09804472
000260 13 98 07 bd e8 a1 94 bd 7a fe 15 3c 05 03 3c bb
       -0.033104014 -0.07257444 0.00915491 -0.0028688323
000270 e3 50 58 3a 1c 05 61 3d 68 eb a6 bc a3 cb a3 3d
       0.0008251799 0.054936513 -0.020375922 0.07997825
000280 ef 74 17 3e 6d 6d d1 3d b1 5f 44 bd 60 41 43 bc
       0.147907 0.102259494 -0.04794282 -0.011917442
000290 84 7e a9 3d 21 30 12 bd 67 5a 08 3e 0d a8 ab 3b
       0.08276084 -0.03569043 0.13315736 0.005238539
0002a0 14 d1 9d 3d a4 d3 6d be ce 25 c3 3d 99 f6 21 3c
       0.07705894 -0.23225266 0.09528695 0.009885454
0002b0 f1 da 0c 3e fc 86 8e bd 20 c0 53 bd 81 75 07 bd
       0.13755395 -0.0695934 -0.051696897 -0.033071045
0002c0 e8 d7 c7 bd cc ce 49 bd 26 0f d8 3d 50 7e 83 bd
       -0.09757978 -0.049269482 0.10549764 -0.064205766
0002d0 30 2a 55 be 8d 12 84 3d b2 25 00 bd 59 6a 3c 3e
       -0.20816875 0.06448851 -0.03128595 0.18399943
0002e0 85 bb 29 be 87 37 34 bd 4d b1 91 3d 74 23 f3 bd
       -0.1657544 -0.043998268 0.071138956 -0.118719965
0002f0 1c e1 12 bd 36 41 1c 3e 10 7c be 3d 6d b6 12 3e
       -0.035859212 0.15259251 0.09301007 0.14327402
000300 07 f3 d4 3d c7 20 ef 3d 28 3c 30 be da fd f7 3d
       0.10397916 0.11676174 -0.17210448 0.12108965
000310 e9 0c 19 3d a3 d0 af bd 96 de a9 bd 51 f0 cf bd
       0.037365828 -0.08584716 -0.08294408 -0.101532586
000320 3a 6d 32 be 4f 95 09 3d cc ba d2 3c d4 b1 25 3e
       -0.17424479 0.033589657 0.025723837 0.16181117
000330 2b 49 d1 ba 89 5b 0e be 24 e6 c8 bd 18 0f 5a bd
       -0.001596724 -0.13902105 -0.09809521 -0.05323705
000340 67 e3 1c 3e 73 6f 39 3c 04 44 a7 bc 91 ea 47 3d
       0.15321122 0.0113180755 -0.020418175 0.048807684
000350 9d 1b e0 bd 77 fb 95 3d e3 cb d4 bd ac e8 09 bd
       -0.10942767 0.07323354 -0.10390451 -0.03366916
000360 f1 12 6f 3d 5f 7b a4 3d a6 7b 54 bd 18 2b 76 3d
       0.058367673 0.08031344 -0.051875733 0.06009969
000370 10 87 9d 3d 63 c1 6e 3c 5f e4 3b bd 98 26 e4 bc
       0.07691777 0.014572474 -0.04587209 -0.027850434
000380 3e 1f ce bc 7d 87 87 bd ce 6a 48 3c 21 69 27 3d
       -0.025161382 -0.06617639 0.0122324955 0.040871743
000390 f1 72 8c bc 7b e8 49 3d 86 73 81 3d 0b c2 c6 3c
       -0.017144652 0.049293976 0.063208625 0.024262449
0003a0 d5 08 2b bd 4d 8c d9 3c 5c b0 9c 3d 97 ea 03 3d
       -0.04175647 0.026556158 0.076508254 0.032206144
0003b0 3d e4 7e be d6 3b 67 bd 5d b7 8d 3d b6 9a 55 3d
       -0.24891753 -0.05645355 0.069197394 0.052149497
0003c0 56 1b ea 3c 9f 37 90 bd 1c 32 15 3d db 66 ba 3d
       0.028577488 -0.07041859 0.03642474 0.091016494
0003d0 43 e0 76 bd 25 35 a9 3d 1e c7 78 3d 06 e4 01 3d
       -0.060272466 0.0826209 0.060736768 0.0317116
0003e0 44 9a b6 3d 86 07 53 3d f8 d6 cd bd 70 87 ac 3d
       0.089161426 0.051520847 -0.10050768 0.0842427
0003f0 ae 5d 21 bd 93 8e be 3d 0e d5 0c 3d 62 17 29 bd
       -0.03939598 0.093045376 0.034382872 -0.041282065

module.conv_2.bias f4 [12]
000000 8c 93 84 3d 8d 3b e1 3d 9b e4 b8 bc 0e 05 cd bd
       0.06473455 0.109976865 -0.022569945 -0.1001073
000010 e9 73 70 3d 2c 9b ac bc b9 50 58 bc 5e 3a 01 3e
       0.05870429 -0.021070085 -0.0132028395 0.12619922
000020 7f 08 c7 bd 2d c9 64 3c 9c bc 09 3d 0b 93 b7 3d
       -0.097184174 0.01396398 0.033627138 0.08963593

module.conv_3.weight f4 [12, 12, 3, 3, 3]
000000 bb 7d 01 b8 49 ad da 3b 1f 56 85 bc 09 45 23 bd
       -3.0873092e-05 0.006673489 -0.016276417 -0.03986076
000010 6b 9d e0 3c 47 a7 cd 3c 49 19 db bc 10 ff d3 3c
       0.027418813 0.025104178 -0.026745455 0.02587846
000020 63 e1 03 3c e2 f9 cb bb 53 49 80 bc 3d 4a a5 bc
       0.008049342 -0.0062248567 -0.015659964 -0.020177001
000030 df 16 84 3c e3 c2 9a 3b 9a cb b6 ba 7d 51 07 bd
       0.016124187 0.0047229393 -0.0013946176 -0.033036698
000040 7d 01 77 3d 22 b6 cc 3c a9 15 c7 bc 84 69 ad bc
       0.060304154 0.024989191 -0.02430232 -0.021168478
000050 12 26 40 bd 95 be 8c 3c f8 34 66 bc d7 e5 ee bc
       -0.046911307 0.01718072 -0.014050715 -0.02916233
000060 8e c0 8d 3d a1 56 6c 3d a2 49 78 3c 04 50 d4 bc
       0.069214925 0.057699803 0.015154274 -0.02591706
000070 4e b8 09 3d 8b b4 9c 3c f6 bf 36 3d 67 14 d6 3c
       0.033623032 0.019129058 0.044616662 0.026132775
000080 d6 a4 04 bd 72 3b 0f bd 4d 38 85 3c ae be 42 bd
       -0.032383762 -0.0349688 0.016262198 -0.047545128
000090 f0 13 de bb e2 c2 a7 3c a9 fe 1c bd e0 75 35 3d
       -0.006777279 0.02047867 -0.0383288 0.044301867
0000a0 2d c1 08 3d 5e bd 0d 3b 84 2d 3c bc 23 e8 69 3d
       0.03338735 0.0021627764 -0.011485461 0.05710615
0000b0 c9 27 8b bc fa 0a 0f 3d 9d 3b 2c bc e0 cb 4a bd
       -0.016986744 0.034922577 -0.01051226 -0.049510837
0000c0 73 7e 47 bd 53 21 0c 3c a0 d1 27 3d 67 91 8b 3b
       -0.048704576 0.008552867 0.0409714 0.0042592767
0000d0 f1 e1 88 bc 43 e3 20 bd f5 f7 bb 3c f8 fc 99 3c
       -0.0167093 -0.039279234 0.022945384 0.018797383
0000e0 7d 04 21 bd e6 c7 6f 3b 14 ad ee 3c 3b dd 3e bb
       -0.03931092 0.0036587655 0.029135264 -0.0029123563
0000f0 6d 16 2c bd ad e0 63 bc 66 4c 0e 3c 82 c7 37 3c
       -0.042013574 -0.013908547 0.008685207 0.011217
000100 81 6b e4 3c 4b 32 46 3d 18 e2 ff bc df 5d 19 bd
       0.027883293 0.048387807 -0.03123574 -0.037443038
000110 9b 3a 1b bc b9 db a6 3c c1 a8 51 3d 1a 90 42 bd
       -0.009474422 0.020368444 0.051186327 -0.047500707
000120 2d 62 f8 3c 3a f6 26 bd 1d 62 1a bd 03 51 08 3c
       0.030320251 -0.040762164 -0.037691224 0.008320096
000130 46 03 f9 bb 02 6b 02 3d 05 ef c7 3c 7c 72 23 bd
       -0.007599267 0.03184033 0.024405966 -0.039904103
000140 7c 83 ff 3c b4 6e 88 bd d5 38 0b bd 59 9d cc b9
       0.031190626 -0.0666174 -0.033989746 -0.00039027145
000150 d3 ff 5f 3c a0 06 0a bc 9e c2 2c 3c 52 47 71 bd
       0.013671833 -0.008424431 0.010544447 -0.058905907
000160 2f ca 4c bd 49 24 46 bc 4b 05 80 bd 8a 56 60 bc
       -0.049997505 -0.012093612 -0.062510096 -0.0136925075
000170 fe 55 c8 bb f6 43 65 bd b7 66 d0 bc 0c 02 00 bd
       -0.0061137667 -0.055973016 -0.025439603 -0.031251952
000180 98 b9 a7 bd ca 1a d4 bd 00 10 17 bd aa 41 95 bd
       -0.08189696 -0.10356672 -0.036880493 -0.07287915
000190 d4 5d 81 bd 94 4f fb bc 39 50 d0 bc b7 90 63 bc
       -0.063167244 -0.030677594 -0.025428878 -0.013889483
0001a0 21 01 e1 bb 46 de f5 3c b9 5c a3 bc 88 c3 d0 3c
       -0.0068665897 0.030013215 -0.019941675 0.025483862
0001b0 b5 b6 cc 3b d1 30 57 3d c6 be 5f 3d be de 66 3d
       0.0062473663 0.05253679 0.054625295 0.056364767
0001c0 b2 5e 56 bc 31 9c 02 3d 81 0b e9 3c 32 62 1f bc
       -0.013084101 0.031887237 0.028447868 -0.009728001
0001d0 c9 72 62 3c 10 d1 1d 3d c8 2f c3 bb 5a d6 2c bd
       0.013821312 0.038529456 -0.0059566237 -0.04219661
0001e0 f5 95 7a 3c 1c 38 3a bd 0b 2d b5 3c 67 92 94 b9
       0.015294542 -0.045463666 0.022116205 -0.00028337838
0001f0 80 6f 28 3d 1c bf bb 3b ca 1e e3 3c 9a e3 07 bd
       0.04112196 0.005729569 0.027724642 -0.033176042
000200 1b 4c ee 3c 32 c4 27 3d 9d c9 f4 bc 08 21 de bb
       0.029089024 0.04095859 -0.029881293 -0.00677884
000210 1e 60 44 3c bc 92 76 3c f5 d5 b9 bc 36 15 cc 3c
       0.011985807 0.015049633 -0.02268503 0.024912458
000220 53 20 19 3c b1 ac 2c 3d a0 ac ba 3a 63 f5 c6 bc
       0.009346086 0.04215688 0.001424212 -0.024286931
000230 a1 73 87 bc 52 9e fa bc 38 08 25 3d 9e f0 a3 bd
       -0.016534628 -0.030593071 0.04029104 -0.080048785
000240 20 64 3d 3d d9 58 6b 3d 09 9d 2c 3d e9 85 7d 3c
       0.046238065 0.05745778 0.042141948 0.015473821
000250 a5 54 ce 3b 7e d3 8b 3b 47 d5 7b bd 43 2e 48 bd
       0.0062967115 0.004267155 -0.061482694 -0.048872244
000260 b1 c4 2a 3b 29 52 4b 3c ee 96 74 bb 94 9b fd bc
       0.0026057179 0.012409725 -0.0037321406 -0.030957974
000270 ac 0b 41 bd ed 24 8f bd 64 7e 1a bc 57 5e 1b bd
       -0.04713027 -0.06989465 -0.009429548 -0.037931766
000280 27 af 9d bd d7 d2 b3 bc 73 64 a0 bc fb 29 1c 3c
       -0.07699423 -0.021951122 -0.019579148 0.009531493
000290 a7 4f 9d bc a3 3a 93 3d ad 3a ac 3d 26 49 33 3d
       -0.01920302 0.071889184 0.08409629 0.04377093
0002a0 6c 85 dd 3c 07 ad da 3c 72 c9 55 bb f7 3c 97 3c
       0.02704116 0.026693834 -0.0032621291 0.018461687
0002b0 4e ba 21 3d b8 2d c9 bc e6 7c 45 3d ba 94 4a 3c
       0.039484315 -0.024557933 0.048214816 0.012364561
0002c0 65 69 88 bc 9b 82 19 bd af d2 83 bd 7c 4d 89 bd
       -0.016651819 -0.03747807 -0.06436669 -0.06704232
0002d0 74 94 08 3c 53 6d 10 3d dd 82 0f 3d 16 09 ef bb
       0.008336175 0.03526051 0.03503691 -0.0072947843
0002e0 ff 89 9c 3c 1a eb c2 3c 21 20 3f 3d fc 2c 63 bc
       0.01910877 0.023793746 0.0466615 -0.013865706
0002f0 23 24 83 3d b7 a2 09 3b b6 63 ce 3b f0 bc 43 3b
       0.06403377 0.0021001527 0.0062985076 0.0029867254
000300 79 5a f5 3c 97 35 fb bc 79 ca 82 3c 3c 6a 75 3c
       0.029950367 -0.030665202 0.015965687 0.0149789415
000310 89 f2 15 3d 4f 2b 53 bc 33 ea a0 3c 06 40 63 bb
       0.036608253 -0.012888744 0.019642925 -0.0034675612
000320 04 d1 d2 3b aa a6 db bc 20 08 15 bd 15 32 22 3d
       0.006433608 -0.02681287 -0.0363847 0.039598543
000330 32 86 4b 3d f8 9a fc 3c 8b 53 4d 3d f4 18 5e 3d
       0.049688525 0.030835614 0.0501285 0.054223016
000340 31 ae 4e bd 8c be 99 bc cd 01 00 3c c3 21 48 3d
       -0.05045909 -0.018767618 0.007812929 0.048860323
000350 87 7f db 3c f6 b3 29 3d 8b 71 68 3d 05 2d c2 3c
       0.026794208 0.04143139 0.056748908 0.023703108
000360 ce 4f 88 bc e9 0e 32 bd 0b d9 4f 3d e4 1e 44 bb
       -0.016639616 -0.04347125 0.050744098 -0.0029925639
000370 62 b4 3f bd 8e 98 3c 3d 87 14 25 bc 92 b5 df bc
       -0.046802886 0.046043925 -0.010075695 -0.02730826
000380 8e 7f 1e bd 4d db 10 bd cb 15 36 bd 9d 8b 42 3d
       -0.038695864 -0.03536539 -0.044454377 0.047496427
000390 20 44 83 bc 64 f5 e9 bb 4e b9 38 3d e4 55 08 bc
       -0.016023695 -0.0071398485 0.045098595 -0.008321259
0003a0 e7 5c 4a 3d 19 cd 8f 3c 4d 35 5b bd 54 19 1c bd
       0.049405005 0.017553853 -0.05351763 -0.038110092
0003b0 d5 4c 6e bc 6b 44 e9 bc b4 d8 39 bd 59 5e 36 bd
       -0.014544685 -0.028475007 -0.04537268 -0.04452357
0003c0 9d 6a 04 3d e0 b3 0c 3d 87 9c 0a bd 95 cc 78 bc
       0.032328237 0.03435123 -0.033840682 -0.015185495
0003d0 24 09 86 3c 84 0d 26 bd 18 78 4a bd 8e ea ad bc
       0.01636178 -0.040540233 -0.049430937 -0.021230008
0003e0 59 fc 01 bd d0 c1 ba bc eb e0 1d bc 55 53 a7 3c
       -0.031734798 -0.022797495 -0.009636144 0.020425478
0003f0 94 94 89 bc db af bf 3c b1 db 55 bd 1d 7e 80 bc
       -0.01679448 0.023399284 -0.052211467 -0.015685135

module.conv_3.bias f4 [12]
000000 dc e1 3d bd 8b 4d 63 3d 12 68 35 3b 91 c4 0c 3d
       -0.046357974 0.055493873 0.002768044 0.034367148
000010 d1 8f aa 3c 8f a5 f3 bc 0b 95 44 bd d4 63 e8 bb
       0.02082053 -0.02974203 -0.0479937 -0.0070919786
000020 57 59 47 bd 36 87 ee 3c 61 86 67 3d 54 eb 0a 3d
       -0.048669185 0.029117208 0.056524638 0.033915833

module.conv_4.weight f4 [12, 12, 3, 3, 3]
000000 38 52 b6 3c 6e ac 0d bd 54 18 41 bd 01 ec cf b9
       0.022256002 -0.03458827 -0.04714234 -0.00039657953
000010 c4 d5 0e 3c c0 a7 15 3d 84 6a af bc 46 69 9b bb
       0.008717958 0.036536932 -0.021413095 -0.004742774
000020 02 dd 77 3c c2 f1 fa 3c a4 9b 64 bd e7 13 0a 3d
       0.015128376 0.030632857 -0.055812493 0.033710387
000030 81 2b 85 3c 78 41 66 bd 83 6f 51 3d aa 81 5a bd
       0.016256096 -0.05621478 0.051131736 -0.053346314
000040 36 63 fc bc be b3 d3 3c 1d ea 1f bc 45 74 2e 3b
       -0.030809026 0.025842544 -0.009760407 0.0026619595
000050 6b 29 81 39 ec 52 3c 3d 22 c1 cd bb fd 12 5d bd
       0.00024635656 0.045977518 -0.0062791267 -0.053973187
000060 c4 65 64 bd 7c 01 50 bd a3 c2 d0 bc 15 66 17 bd
       -0.055761114 -0.050782666 -0.025483435 -0.036962587
000070 78 a9 02 bd 8d ef 36 bd 1f b9 73 3d de bf 03 3c
       -0.0318999 -0.044662047 0.059502717 0.00804135
000080 a8 17 e8 bc ae 6d 17 3d 8c 79 76 3d cd 02 23 3d
       -0.028331593 0.036969833 0.06017451 0.039797593
000090 0c 2d 1a bd 70 e7 f1 3b df 50 5f bb d2 32 30 3d
       -0.037640616 0.007382326 -0.0034075303 0.043017216
0000a0 25 c6 86 3d 70 9a 12 bd e0 90 3d 3d c0 d1 01 bc
       0.06580762 -0.035791814 0.04628074 -0.007923543
0000b0 d8 cc 75 bb e2 b9 5f 3d 61 da 32 3d 12 c1 3e 3c
       -0.003750613 0.05462063 0.043665294 0.011642711
0000c0 2c 9b 4b 3d 08 29 d1 bc 55 a6 49 3c 55 36 ea bb
       0.04970853 -0.02553226 0.012307723 -0.00714759
0000d0 6c bc 06 bd 00 b1 36 3d 60 2e 31 bd f4 44 67 3d
       -0.032894537 0.044602394 -0.043257117 0.056462243
0000e0 84 fe 67 3c b2 e4 e7 bc cb ca 05 bc 7e 47 1f bc
       0.014159802 -0.028307293 -0.008166025 -0.009721635
0000f0 90 62 22 bd 47 c9 6b bc 3d 70 a4 bc 89 71 60 bd
       -0.039644778 -0.01439125 -0.02007305 -0.054795776
000100 00 fd 42 bd 22 02 ac 3c 77 cd f4 bc 12 61 39 bd
       -0.04760456 0.02099711 -0.02988313 -0.04525859
000110 4d 6d 3d bd 82 50 f8 3a 43 be b4 bc 3b 91 38 3d
       -0.046246815 0.0018944892 -0.02206338 0.045060378
000120 1d 7b 07 bd db 74 61 3d f8 99 25 3d f3 c4 06 3d
       -0.033076394 0.055043083 0.04043004 0.03290267
000130 1d b0 b1 bb 22 43 e2 3c c7 49 1e 3c dd 72 b3 3c
       -0.0054226057 0.027619902 0.009661145 0.021905357
000140 04 e7 66 3c 8e eb 69 bc 4c d1 c7 bc fe fb 31 bc
       0.014093164 -0.014277352 -0.024391793 -0.010863302
000150 f0 68 cb 3c 89 02 d1 bc bf 8c f6 bc e5 40 63 bc
       0.024830312 -0.025513904 -0.03009641 -0.0138704525
000160 2f 24 a7 3c 39 6b 07 bd 7c 7e 46 bd 51 b3 b6 bc
       0.020402996 -0.03306124 -0.04846047 -0.022302302
000170 c3 95 ca bc 3e c8 44 3c e1 9c f7 bc 23 57 ed 3c
       -0.024729615 0.012010632 -0.030226173 0.028972214
000180 b0 c9 ca bc bd b2 3e bd 48 74 29 3d 0c fe 54 3d
       -0.024754375 -0.046557177 0.04137066 0.05200009
000190 a7 c7 31 3d 3a c2 4d bd 7f 94 55 3d 2b 67 a5 bc
       0.043403294 -0.050234057 0.05214357 -0.020190796
0001a0 a3 fb 15 3c a3 c5 d9 3c 59 c1 fb 3c c6 b4 91 bb
       0.009154233 0.026583498 0.030731844 -0.0044465987
0001b0 19 06 e2 3c 0e 40 0e bd c8 e3 c1 3c ae 1d 21 bd
       0.027590798 -0.034729056 0.023668185 -0.039334945
0001c0 66 ae fe 39 70 03 13 3c cd 37 4b 3d 92 25 09 3d
       0.00048576592 0.0089729875 0.049613763 0.033483095
0001d0 0f 9e 34 bd 25 9b f4 3c a4 c0 49 3c ce 13 20 bd
       -0.04409605 0.029859135 0.0123139955 -0.039081387
0001e0 17 26 c3 bc e4 a5 1a bd ef d5 f4 3b 9d 82 3b bd
       -0.023821874 -0.037755862 0.007471792 -0.04577886
0001f0 85 80 37 bd a5 ac 9e 3b 98 bf 56 3c e7 a0 d1 3c
       -0.0448003 0.004842358 0.013107203 0.02558942
000200 56 ac 8e bc 40 89 33 ba f6 82 1e 3c 92 19 5e 3d
       -0.01741616 -0.000684876 0.009674778 0.054223605
000210 ab 41 66 3d c2 c3 dd bc 5d d8 71 3c d7 5b 32 bc
       0.05621497 -0.027070884 0.014761058 -0.010886154
000220 ce 2e fa ba a5 00 d0 bc 0a 78 5c bc 1d 85 73 3d
       -0.0019087435 -0.025390932 -0.013456354 0.05945312
000230 2d da 5d 3d 3c 62 8c bd 59 09 5a 3d 75 e8 67 bc
       0.054163147 -0.06854674 0.05323157 -0.014154543
000240 d4 29 2f bc 53 22 27 3d 9f ca 54 3d fd f2 32 bd
       -0.010691125 0.04080422 0.051951047 -0.043688763
000250 84 f7 cc bc 98 21 0c bd 16 c3 85 3c 1f 4b 5b bd
       -0.025020368 -0.034211725 0.016328376 -0.053538438
000260 83 55 8b bc d7 9f aa bc a3 9e 43 bc 56 cd 09 3d
       -0.017008549 -0.02082817 -0.011939677 0.03364309
000270 bc b5 80 3c 32 8e 88 3b 2e 55 1e 3d a6 16 c7 bb
       0.015711658 0.0041673416 0.038655452 -0.006075698
000280 36 b3 08 3c 71 f6 b1 bc 09 aa 23 3d fa 21 95 bb
       0.0083435085 -0.021723958 0.03995708 -0.0045511695
000290 6d a4 5b 3d 9c 57 d2 bc 62 da 63 bd 05 b2 31 3c
       0.053623606 -0.025676541 -0.055628188 0.010845666
0002a0 20 d0 64 3c a4 0d ef bc b9 3d 92 bc 8c ed 8e bc
       0.0139656365 -0.029181309 -0.017851697 -0.017447256
0002b0 79 2a 48 3d b1 c8 09 bd 88 ad 1b bc 26 49 ac bc
       0.04886863 -0.03363866 -0.009501822 -0.021030974
0002c0 60 fa 38 3d 04 30 15 bd a5 2b 46 bd f6 ff 58 bd
       0.04516065 -0.036422744 -0.048381466 -0.05297848
0002d0 af 20 1b 3d 1f e0 54 bd 77 2d 21 bd 1d 05 09 bc
       0.037872966 -0.05197155 -0.03935 -0.0083630355
0002e0 2a 30 03 bd 0a 54 5f 3d 19 8d 39 3d 86 5c 3a 3d
       -0.032028355 0.054523505 0.045300577 0.045498393
0002f0 f0 9f 1b 3d 84 09 1c bd d2 31 67 bd 5c f1 9d bd
       0.037994325 -0.038095012 -0.056443997 -0.07712051
000300 5a b1 71 bb 24 aa 58 bc 7a e8 b4 bd 97 68 31 bb
       -0.0036879391 -0.013224158 -0.08833404 -0.0027070397
000310 4c fa c2 3c ec f5 38 bd 52 4f 5c 3d fd 46 9c bc
       0.023800991 -0.045156404 0.053786583 -0.019076819
000320 2e ee 65 3d 83 81 5b 3d 4e 77 8a bb d5 b4 60 3d
       0.05613535 0.05359031 -0.004225648 0.054859955
000330 c3 87 7c 3d d4 db 54 3d 00 c0 07 3d 04 2c f9 b9
       0.06165291 0.051967457 0.03314209 -0.00047525775
000340 cb db 2f 3d 90 fa 29 3d 57 71 21 3d a8 58 62 3d
       0.04293422 0.04149872 0.03941473 0.05526033
000350 1b fe e5 bc 93 3a 11 3d 6a 36 86 3d 3d 2c 4b 3d
       -0.028075268 0.03545625 0.065533474 0.049602736
000360 d1 f5 ab 3b 72 45 24 3d 47 65 b6 bc a1 f2 23 bd
       0.0052478095 0.04010529 -0.02226509 -0.04002631
000370 00 11 fa bc 69 ce 52 bd 26 58 5c 3c f8 e4 49 3c
       -0.030525684 -0.05146638 0.013448751 0.012322657
000380 04 79 ff 3c 2c ab 61 3c 75 88 8c bc 84 f9 4c 3d
       0.031185634 0.013773721 -0.017154912 0.050042644
000390 24 7b 6e 3c fb 70 e2 ba 15 59 b1 bc 5b 8c 99 3c
       0.014555726 -0.0017276102 -0.021648923 0.018743685
0003a0 cf 13 c6 3b 8e 00 9b bc 15 6a 28 bd 2c 8f f5 3b
       0.006044842 -0.018921163 -0.041116793 0.007493874
0003b0 25 33 37 3d 5d d3 2e 3d 2c 5f e7 3c c7 22 42 3c
       0.04472651 0.04268204 0.028243624 0.011849112
0003c0 67 0e ce 3b 2c 9b 82 bb 39 68 6c 3c 9e ca 30 3d
       0.006288338 -0.003985783 0.0144291455 0.04316198
0003d0 c1 bd 7a 3d b3 0b e9 39 94 68 ec 3c a5 f6 50 3a
       0.06121612 0.0004444994 0.02885846 0.0007971323
0003e0 60 fe 27 3d 04 2a e6 3b 65 76 06 3d f3 c8 62 bc
       0.041014075 0.0070240516 0.032827754 -0.013841855
0003f0 8e 4d a3 ba e0 ab e6 3c a9 e2 59 3d 48 2b 23 bc
       -0.0012459026 0.028158128 0.053194676 -0.0099590495

module.conv_4.bias f4 [12]
000000 d0 a5 4d 3d fa b3 36 bd 2b cc 2d bd 6d 26 59 bc
       0.05020696 -0.044605233 -0.042431038 -0.01325379
000010 13 fb 0b 3d d5 7a b5 3c c2 da ef 3b 0f b0 07 bd
       0.03417499 0.022153297 0.007319779 -0.033126887
000020 a8 82 22 3d 8d f8 6f bb 6b a6 9f 3c 42 8c 65 bd
       0.039675385 -0.0036616654 0.019488534 -0.056041963

module.conv_5.weight f4 [12, 12, 3, 3, 3]
000000 40 34 3a 3d b0 b4 81 bd b2 5e 4b bd 0b 9e 06 3d
       0.045459986 -0.063332915 -0.049650855 0.032865565
000010 37 c4 8a 3c c0 01 18 bb e6 7e 88 3c fc 2b a6 3c
       0.016939266 -0.0023194402 0.016662072 0.020284645
000020 7e e5 b9 bc 45 a9 29 bc 58 17 c0 3b df 62 0f 3d
       -0.022692438 -0.010355298 0.005862158 0.0350064
000030 56 72 7f bd 8d a8 54 bd ee 09 84 bd c3 ed 4e bd
       -0.0623649 -0.051918555 -0.064472064 -0.050519716
000040 38 17 87 bd 02 3c 0d bd cf 9a fa 3c 8d 4b f9 3c
       -0.065962255 -0.034481056 0.030591397 0.030431533
000050 cc 57 73 bc c4 c8 e6 3c eb 99 1d bd 20 2f 5b bd
       -0.014852475 0.028171904 -0.038476866 -0.05351174
000060 4a 1f 00 3d b5 8b 1c bd a0 f8 46 3b e7 9e 3e 3d
       0.03127984 -0.038219173 0.0030360594 0.04653826
000070 f4 cc 11 bd 5f 7c 26 bd 3d db e0 3c e4 4a 03 bd
       -0.03559585 -0.040645953 0.027448291 -0.032053843
000080 f1 4a 12 bd 9e 14 07 3d 7b 03 ec 3b 3a ad 6a bb
       -0.035716 0.032978646 0.0072025633 -0.0035808817
000090 b0 4a 57 bd 2e 4f 45 bd a8 a2 a4 3c 64 39 de bc
       -0.052561462 -0.048171215 0.020097092 -0.027126975
0000a0 5c 85 35 bd 2e 39 b1 bc e4 e0 27 bc 5e 0e 40 bc
       -0.044316635 -0.02163371 -0.010246489 -0.011722175
0000b0 18 d8 38 bd b2 9e 60 bc f9 b2 0f bc 87 0b 5e 3d
       -0.045127958 -0.013709711 -0.008770698 0.054210212
0000c0 c4 c3 1f bd f5 b9 8d 3c 9e 54 4c 3d f2 38 e7 3c
       -0.039005056 0.017300585 0.049885385 0.028225396
0000d0 a5 e1 92 bb 34 46 49 3d 8b 01 17 3d 82 42 9b bc
       -0.0044824653 0.049139217 0.036866706 -0.018952612
0000e0 06 63 3a 3d fe c3 06 3d eb 4e 98 3d a8 ce 08 3d
       0.045504592 0.032901756 0.074369274 0.033400208
0000f0 79 24 e8 3c 58 c6 98 3c b5 1c 0c 3d 51 4e d9 3c
       0.028337704 0.018649265 0.034207065 0.026526602
000100 ef e8 32 3c 6c aa 50 3d da eb 82 3d a1 a0 8d 3d
       0.0109197935 0.050943777 0.06392641 0.06915403
000110 eb 01 08 bd be ef d8 bc 65 c4 32 3d 6c 4c 3a 3d
       -0.033204954 -0.026481505 0.043644328 0.045483038
000120 98 f7 69 3d af 21 ad 3c e4 00 c0 3c dd 58 fd bb
       0.05712089 0.021134226 0.023437925 -0.0077315406
000130 b3 b9 02 3c 47 21 07 3d 40 12 64 3d 2d 16 a0 bc
       0.007978844 0.03299072 0.055681467 -0.019541824
000140 07 ad 91 bc 2f ec 68 3d 79 97 1e bd 25 dd 67 3d
       -0.017782701 0.056865867 -0.038718674 0.056607384
000150 a8 a1 08 bd d5 6b 04 3d 6d e9 2e bc e6 e0 01 3d
       -0.033357292 0.0323294 -0.01067577 0.03170862
000160 83 4a 8c 3c 91 38 42 bd c0 36 70 3d e8 4b 9f 3c
       0.017125374 -0.047417227 0.058645964 0.019445375
000170 d1 d0 66 bc eb 2a c0 bc 23 4a 3f bd 9a d6 27 3d
       -0.014087872 -0.023457965 -0.04670156 0.040976144
000180 b6 87 51 3b db 8e 62 bd 6a d1 54 bb c5 b8 8d 3d
       0.003197176 -0.05531202 -0.0032473453 0.069200076
000190 03 3a 75 3d 68 33 98 bc fe ab 47 3d d9 a3 c2 3c
       0.059869777 -0.0185792 0.04874801 0.02375977
0001a0 2d b9 20 3d 46 37 0f 3d b2 d2 29 ba 24 15 5d 3c
       0.039239097 0.034964822 -0.00064782344 0.01349381
0001b0 31 e1 2d bc d9 65 a4 bc ca de 1e 3d ce 89 26 bd
       -0.010612772 -0.020068096 0.038786687 -0.040658765
0001c0 f8 fb 60 bd d1 df 8b 39 f6 95 4b bc 04 f4 d7 3c
       -0.054927796 0.00026678902 -0.01242589 0.026361473
0001d0 9c 3d 51 3d 47 13 4b bd ab 6c 13 3d 51 28 ab bc
       0.051084146 -0.04957893 0.035992306 -0.020893248
0001e0 47 f5 f2 3c 37 69 c6 bc 07 35 fb 3c cd 50 96 bb
       0.029657973 -0.024220092 0.030664934 -0.004587269
0001f0 be 7c 0a 3d 05 df e1 3c e2 84 39 bd 6e 3a 9e bb
       0.03381037 0.027572164 -0.045292743 -0.0048287427
000200 e6 bc 71 3c 99 08 c4 3c 02 05 45 bc a3 f7 9f bc
       0.01475451 0.023929881 -0.01202512 -0.019527262
000210 bf f0 ec bc a0 18 f3 3c 06 b2 8e bc 6a de 64 3d
       -0.02892339 0.029674828 -0.017418873 0.055876173
000220 a3 69 b1 bc 5e 38 f8 bc 0e f4 f9 3c 95 ca ab 3c
       -0.021656817 -0.030300315 0.030511882 0.020970622
000230 95 c9 5f 3c 36 35 f7 ba f1 f4 62 3b 66 14 a6 3c
       0.013658901 -0.0018860463 0.003463086 0.020273399
000240 4a 8c 49 3d 22 76 74 3c 94 af 71 3d 74 b7 6e 3c
       0.049206056 0.014920743 0.059005335 0.014570106
000250 86 b2 c7 bb 36 03 c6 3c 96 b3 17 3d 04 fe 3b 3d
       -0.0060942797 0.024171453 0.0370365 0.045896545
000260 61 72 20 3d be 19 39 3d 76 54 13 3d f7 87 64 3b
       0.03917158 0.045190565 0.03596922 0.003487108
000270 d1 f7 e0 bb 3d 0e f8 3c 21 16 f1 3c 9b 66 63 bc
       -0.0068654795 0.030280227 0.029429497 -0.0138794435
000280 c3 f9 c0 3c eb 4f b0 3c e8 92 5e bc 46 fd cf 3c
       0.023556596 0.021522483 -0.01358483 0.025389325
000290 38 e1 4e bd 92 dc 17 3b ab bd e5 3c 0e d5 17 3d
       -0.050507754 0.0023172242 0.028044542 0.03706842
0002a0 63 c1 05 bd d3 e5 5d bd b8 25 34 bd 13 47 45 bd
       -0.03265513 -0.054174256 -0.043981284 -0.048163485
0002b0 18 82 62 bd e9 49 b5 bd 36 53 2e bc 5e ae 9b bd
       -0.05529985 -0.08851988 -0.010639956 -0.07601617
0002c0 fb aa f8 3c 5e 54 64 bd 49 65 00 bd 7b 53 05 bd
       0.030354967 -0.05574452 -0.031346593 -0.032550316
0002d0 7d 2f 5a 3c a3 db 37 3d 65 43 5c 3d c1 64 39 3d
       0.013316986 0.044887196 0.05377521 0.045262102
0002e0 dc 47 4f ba 3a d3 83 3d ec b2 52 bd d0 f3 80 bd
       -0.0007907131 0.06436773 -0.051440164 -0.062965035
0002f0 99 ab c3 bc 2e 16 bc bb f9 d6 e4 3b 11 4e c7 3c
       -0.023885535 -0.0057399487 0.0069836346 0.024329217
000300 de ca 4a bd 27 5c 3b 3d 0b 6f 92 bc d3 44 be bc
       -0.049509875 0.04574218 -0.017875215 -0.023226177
000310 7d cc 4b bd bc e4 13 bd 90 27 6c 3d 89 36 5f 3d
       -0.049755562 -0.03610681 0.057654917 0.05449537
000320 1d a9 4c 3d 39 69 b9 3c 11 14 3e bd 45 a9 18 3d
       0.049965966 0.022633182 -0.046405856 0.037270803
000330 d6 c2 33 3d 87 31 ba bc 74 0b 06 3d 5e 77 dd 3c
       0.043886982 -0.022728695 0.032725766 0.027034458
000340 b1 7f f2 bc cb 78 85 3c 57 95 36 bd cd 5b bf 3c
       -0.029601904 0.01629295 -0.044576015 0.023359204
000350 81 48 9f 3c bb 7d 87 bb de 63 0d 3d a0 f5 1e bc
       0.019443752 -0.0041348613 0.03451907 -0.009702116
000360 d3 2c 55 bc 1a 48 2b 3d 61 50 4e bd 30 53 92 bb
       -0.013011175 0.04181681 -0.050369624 -0.004465483
000370 c5 29 31 bd 0e f7 5c bc b8 4e ef 3c 34 ec 0c 3d
       -0.043252725 -0.013486637 0.02921234 0.03440495
000380 88 07 0d bc 10 d0 0f 3d f3 a1 90 3b 2d 1d 3d 3d
       -0.008607753 0.035110533 0.004413837 0.046170402
000390 e3 78 fa 3b 0b 8d 64 bd 75 87 a1 bb 6e 82 11 3c
       0.0076438054 -0.05579857 -0.004929478 0.0088811945
0003a0 4c 7a 00 3d 69 6a d9 bc 9f 10 ad 3c f1 db 6b bd
       0.03136663 -0.026539998 0.02112609 -0.0575828
0003b0 48 bf 65 bd 43 aa 50 bd 09 9f 23 bd 47 23 27 bd
       -0.056090623 -0.050943624 -0.03994659 -0.040805127
0003c0 b4 d6 a9 3a e9 9a 7f 3c d7 f8 2f 3d 82 5c 0e 3d
       0.0012957663 0.015600898 0.04296192 0.03475619
0003d0 d8 66 2c 3d 9c f3 d6 bc 78 6b c2 bc c1 d8 0a 3d
       0.042090267 -0.026239209 -0.023732886 0.03389812
0003e0 48 f8 42 3d 63 9a f1 3c b0 0b 4d ba ff 68 16 3d
       0.04760006 0.029492563 -0.0007821871 0.036721226
0003f0 db f3 1e bc 36 0e c6 bc 5f 96 56 3d 10 d2 a7 bc
       -0.009701694 -0.024176698 0.0523895 -0.020485908

module.conv_5.bias f4 [12]
000000 e1 4c 8a 3b 3c 2c 22 3d e3 26 30 bc 92 b0 c7 bc
       0.0042205905 0.039592966 -0.010751459 -0.024376187
000010 d6 7b 96 3b 51 33 61 bc 4c c3 91 bc c4 2f 80 3d
       0.004592399 -0.013745145 -0.01779332 0.062591106
000020 7d 43 6b 3d 65 ff 9a bb f9 ad 07 bd 06 59 1a 3c
       0.05743741 -0.0047301524 -0.033124898 0.009420639

module.conv_6.weight f4 [12, 12, 3, 3, 3]
000000 d3 f1 e9 bc 02 68 2e 3d 59 51 09 3d 69 57 19 bb
       -0.028557694 0.04257966 0.033524845 -0.0023398048
000010 d2 bb 91 bb 99 a1 c7 bc c4 48 40 ba 9b 39 cd bc
       -0.0044474388 -0.024369048 -0.00073350617 -0.025051882
000020 9b 3d 01 3d a3 a6 a4 bc 1c 49 a6 bc bb 33 29 bd
       0.031552892 -0.02009899 -0.020298533 -0.0413091
000030 83 77 dd bc df 7d cc bc e1 23 6e bd 5a 6c 25 bc
       -0.027034527 -0.024962364 -0.058139686 -0.010096634
000040 81 8c 67 3b c7 8a 0e bd 16 c4 76 bd 44 87 84 3c
       0.003533155 -0.034800317 -0.060245596 0.01617778
000050 87 ac a4 3c 0e b0 02 bd 02 c3 d0 3c 25 f4 0e 3d
       0.020101799 -0.03190618 0.025483612 0.034900803
000060 9f 76 08 3d a4 44 f0 3c d8 2f 7f bd 7b 78 39 bd
       0.03331625 0.029329605 -0.062301487 -0.045280915
000070 5a 28 46 bc 7d 45 5a 3d a1 71 8d bc ef 80 60 3c
       -0.0120945815 0.053288925 -0.017266097 0.013702615
000080 89 bd 88 3c f8 57 5f bd 4f c8 55 3d 25 91 ee 3c
       0.01669194 -0.054527253 0.052192982 0.029121945
000090 84 44 90 3b c2 7e 18 bd f8 ca d9 b9 cc 01 e5 bc
       0.004402699 -0.03723026 -0.0004154069 -0.027954958
0000a0 9e 6f 31 bb f0 d2 1e bd 96 53 60 3d bc c9 5f 3d
       -0.0027074586 -0.038775384 0.054767214 0.05463575
0000b0 56 57 8c 3c 9a 5b ed 3c 5e cf 8e bc cc a9 49 3d
       0.017131489 0.028974343 -0.017432865 0.049234197
0000c0 a0 95 ec bb 7d cc 63 3c cd 4b 79 bc 73 37 d0 3c
       -0.007219985 0.013903734 -0.015215826 0.025417065
0000d0 13 8d 23 bc 52 21 cc 3c 8b 5a 1d bd e2 47 b6 3b
       -0.009982365 0.024918232 -0.038416427 0.0055627683
0000e0 16 3d 18 bd 92 f1 47 bd 8d 6f 3c bd 0c 55 79 bd
       -0.03716763 -0.048814364 -0.04600482 -0.060872123
0000f0 a5 f3 1a 3d b4 0d 0e 3d f0 d4 36 3c 01 87 42 bd
       0.037830014 0.034681037 0.011159167 -0.04749203
000100 f9 1e 0f bb 3e d3 0b bd 5d fc 5e bd 98 1c 75 bd
       -0.002183853 -0.034137003 -0.05443989 -0.059841722
000110 ea 37 6c bc fb fe f3 3c 03 33 bd bc 6e 99 43 3c
       -0.014417628 0.02978467 -0.023095613 0.011938436
000120 c6 60 97 bc af b1 84 bd 8e 5c 11 bd 45 48 7e bd
       -0.018478762 -0.06479203 -0.035488658 -0.06208064
000130 29 33 89 bd b1 7d a6 ba b1 9f 83 bc fa aa 64 bd
       -0.06699211 -0.0012702254 -0.016067358 -0.05582712
000140 43 79 04 bd 61 4b a2 bc 99 e7 fa 3c bc 36 51 bd
       -0.032342207 -0.019811334 0.030628012 -0.05107759
000150 e9 05 69 3d 5a 16 cd bb 31 f1 0f bd fc 55 f1 bb
       0.056890402 -0.006258768 -0.035142127 -0.0073649865
000160 f2 3e cc 3c e5 f9 d7 bb 93 25 c8 bc b2 87 0a bc
       0.024932358 -0.006591069 -0.02443198 -0.008455204
000170 d5 d6 72 3c 7c 0a 0f 3d f1 81 fa 3c e5 49 5b 3b
       0.014821728 0.034922108 0.030579539 0.0033460793
000180 cc e0 e8 3a 31 b5 33 bd ee 55 b0 3c b0 43 c7 3c
       0.001776719 -0.04387397 0.02152535 0.024324268
000190 bd 69 70 bd c4 50 a1 3c 52 af 69 bc 67 14 83 bc
       -0.05869459 0.019691832 -0.014262991 -0.01600094
0001a0 bd e9 2d ba 2a f1 1c 3d 45 0e 5d bd 13 17 bd 3c
       -0.0006634256 0.03831593 -0.053968687 0.023082292
0001b0 37 d9 43 bd 47 94 6e 3d cf c8 6f bb 4a 73 43 3d
       -0.047814574 0.058246877 -0.0036588197 0.04771737
0001c0 58 ba 90 3d 8f 6c 1d 3d 94 1a ea 3c ae 1f 68 3c
       0.07066792 0.038433608 0.028577127 0.014167709
0001d0 a5 11 08 3c ee ba 85 bc 8a fb b2 bc 32 6b e4 3c
       0.008304988 -0.016324487 -0.021848459 0.027883146
0001e0 13 27 d0 3c 8d 6e 1a 3d 86 3b a9 3b f9 1d 13 bd
       0.025409257 0.037703086 0.0051645664 -0.035917256
0001f0 29 72 9f bb df dc 84 3d 67 e5 a3 3b a0 13 28 3d
       -0.004865904 0.0648744 0.005001712 0.04103434
000200 57 63 60 bc 0b 1b 07 3d a0 13 98 3d 59 90 98 3d
       -0.013695559 0.032984775 0.07425618 0.07449407
000210 b8 8e ff bc 5b 08 53 3d fa 02 45 3d a7 fe 42 3b
       -0.031195983 0.05152164 0.04809854 0.0029753835
000220 94 be ba 3c 5a c2 7f ba 63 46 68 bd 7c 5e a2 3b
       0.022795953 -0.00097564387 -0.05670775 0.004955111
000230 d9 d2 78 3b c8 da b1 3c 7a 36 01 bc fa 42 bc bb
       0.0037967472 0.021710768 -0.007886523 -0.005745289
000240 27 95 b6 3b fc 99 df 3c c0 37 3f bd d5 a8 3b bd
       0.0055719796 0.027295105 -0.046684027 -0.045815308
000250 21 45 80 bd 66 ed 85 3b 6f fb ac b9 f2 f6 09 bb
       -0.06263185 0.004087138 -0.0003299373 -0.0021051732
000260 a0 6b 39 bc 07 89 b0 3c aa 57 d7 bb a5 0d 13 3c
       -0.011317164 0.021549715 -0.0065717297 0.008975421
000270 a3 5a f3 3c a5 44 b2 3c 7d cf 47 bd 4c a8 0c bb
       0.029706305 0.021761248 -0.04878186 -0.0021462617
000280 d3 22 a6 3c 7e b5 c1 bc f8 68 b7 3c 9e f9 88 bc
       0.020280277 -0.023646113 0.02238892 -0.01672059
000290 d5 e9 4c bd 4b 25 57 3d 27 6e 14 39 28 94 45 bd
       -0.050027687 0.0525258 0.00014155415 -0.048236996
0002a0 c9 4e 60 bc c3 86 99 bc 7d 1c 32 bd 16 f1 8f bc
       -0.013690659 -0.018741017 -0.0434842 -0.017571013
0002b0 d2 3c 57 bd 29 1f e1 3c af 0c 4b bd 57 d6 6d 3c
       -0.052548237 0.027480679 -0.049572643 0.014516435
0002c0 bf 70 77 3c 3e 88 e9 bb c4 64 0a 3c 06 d7 39 3d
       0.015102564 -0.007126837 0.008446876 0.045371078
0002d0 eb ec 20 3c f4 d7 ff 3c 3e 6d a2 bb f5 b8 11 3d
       0.009822111 0.031230904 -0.0049568703 0.03557678
0002e0 3e 04 72 3c 02 f6 3f bd fc b9 63 3d 88 7f c6 3b
       0.014771519 -0.04686547 0.05559729 0.0060576834
0002f0 5d f8 da 3c 63 6c 64 3d fd da 94 bc 8f 67 0a bd
       0.026729757 0.055767428 -0.018170828 -0.033790167
000300 bf ec 45 bc 33 4d 9c 3d 5d c4 0c 3d c4 f0 1e bd
       -0.01208037 0.07631912 0.034366954 -0.03880383
000310 ab ef 2e bd a6 48 47 bd 4e 90 86 3c c2 f0 c1 3d
       -0.042709034 -0.048653267 0.016426232 0.09469749
000320 6b 6a aa 3d 0d 48 55 3d d5 cd da 3c 44 77 0a 3d
       0.08321079 0.052070666 0.026709476 0.033805147
000330 64 ca 0a bc 99 dc b4 bb 69 f4 50 3d a3 42 7e 3c
       -0.008471105 -0.0055194614 0.051014338 0.015518817
000340 85 51 14 3d 3f b9 53 bd 81 f9 0b 3c 1c 09 73 3d
       0.036210556 -0.051690336 0.008543373 0.05933486
000350 3b e3 a1 3c 00 73 33 3d 74 e7 34 3d ac fa a4 3b
       0.019761672 0.043810844 0.044166043 0.005034765
000360 6a 82 08 3d 81 e7 8a bc e9 fe 80 bc 36 eb de bc
       0.033327498 -0.016956093 -0.01574655 -0.027211767
000370 81 54 5f 3c 4f 47 19 3c 85 fb 0f 3d 08 36 c5 3a
       0.013630987 0.00935538 0.035151977 0.001504601
000380 b1 07 e1 3c 5a 15 d8 3c fe 5f 50 3d 29 ea 26 bd
       0.027469488 0.026377369 0.050872795 -0.040750656
000390 dd 2e 4e bd 60 df 0f 3d 89 b2 d0 3c 8a 62 c2 bc
       -0.05033766 0.035125136 0.025475757 -0.023728628
0003a0 a3 bc 87 3c 9a 73 5f bb 38 95 3c 3c 19 32 04 3d
       0.016569441 -0.0034096004 0.011510186 0.03227434
0003b0 80 f4 9d bc e9 95 27 bd 08 cb 75 3c 40 99 e5 bc
       -0.019281626 -0.04091445 0.01500202 -0.028027177
0003c0 31 fc 78 3c be b9 f9 bc d5 4e 30 3d 2d 90 b3 3c
       0.015196846 -0.030484077 0.04304393 0.021919334
0003d0 89 84 86 3d d4 6e 8e 3d a3 22 17 3d c2 d3 6f 3d
       0.06568248 0.069547325 0.036898267 0.058551557
0003e0 b5 4f f1 3d 1e 6e af bd f1 09 ff 3b c1 23 78 3c
       0.11782781 -0.08565925 0.0077831675 0.015145243
0003f0 f8 b7 c8 3d 96 f9 6e 3d 7f b5 10 3e 85 cb 55 3d
       0.09800714 0.058343492 0.14131735 0.052196044

module.conv_6.bias f4 [12]
000000 89 a1 11 3d ad a9 91 3b 91 57 3f 3d 5f bd 09 3d
       0.035554443 0.0044452758 0.04671437 0.033627864
000010 52 be 8b 3b 3e 5e 12 3d ae 62 54 bd 30 68 20 3b
       0.0042646313 0.035734408 -0.05185192 0.0024476163
000020 b9 a1 1a bb 38 08 1a 3d 5f 93 f7 3a e1 61 17 3d
       -0.002359493 0.037605494 0.0018888525 0.03695858
