model2/FSRCNN3D_epoch_90.pth (torch, 265262 bytes, 15 tensors)

module.conv_1.weight f4 [56, 1, 5, 5, 5]
0.03787319 0.07233171 0.05129549 -0.00492721 0.025122605 0.08860114 0.06436552 -0.056368142
0.015820509 -0.069521844 -0.07522843 0.06728501 0.005823837 0.02400073 0.06535775 -0.05073919
0.07874385 -0.06878928 0.014541373 -0.031768773 -0.030589513 -0.004546731 0.06777175 -0.015406141
-0.058531143 -0.05090717 0.042641774 0.0809927 0.0178066 -0.018461725 0.019723011 0.044240776
-0.026648017 -0.079764135 -0.046914186 -0.023014318 0.010315806 0.06359443 0.07759956 -0.032636635
0.047091916 -0.06124606 -0.06981344 0.06359036 -0.04448685 0.0454908 -0.06867187 0.041587953
0.02686676 -0.028486354 -0.0846336 -0.007794114 -0.061468877 -0.043627243 0.05830216 0.017025692
-0.08424776 0.03510931 -0.07726339 0.072399825 -0.07729817 0.01638171 0.028485488 -0.053920712
0.06980063 0.0885829 0.0065047913 0.00801923 0.071528964 0.049839094 -0.06402978 -0.05190124
-0.025040327 0.06773989 0.065943584 -0.072762616 -0.038232826 -0.072537 0.01768498 -0.051109422
-0.05040909 -0.086720616 0.05553071 0.031862658 -0.05821179 0.0866469 -0.046165824 0.05043908
0.052185558 0.08327151 -0.0322638 0.08570904 -0.06879096 0.045923546 0.033584043 -0.036807816
-0.011203804 0.057529487 -0.06881336 -0.06544185 0.08820115 0.045260716 -0.01918792 0.09460426
0.07020264 0.015393003 0.042453747 0.092587255 -0.007759253 0.0071222917 0.018285597 -0.037795708
0.022712404 0.07774443 -0.037064046 -0.057185724 0.05122853 0.08144995 -0.00049166445 -0.031952787
-0.058361743 -0.04938915 0.061570246 0.043758407 0.050441712 -0.025992097 0.039884992 0.05613002
-0.03082281 0.064016104 -0.028061716 0.0047423574 0.0048620617 0.02718049 -0.041888844 -0.04546039
-0.02931212 0.062125135 0.017052656 0.03856501 0.08895496 -0.021389475 -0.07599798 0.012491757
-0.07427493 -0.082640104 -0.010305597 0.07514405 0.067767665 -0.045587905 -0.0403115 0.027997607
0.028272258 -0.020694492 0.04844546 -0.038070723 0.053672835 0.03222163 -0.03987328 0.012317545
-0.04551463 0.060018796 -0.025594054 0.04830329 0.018839266 -0.05483241 0.042128865 0.044710234
0.03145588 0.013162221 -0.08806041 -0.04298763 0.07408414 -0.052806996 -0.0103713 -0.028870834
-0.0069385027 -0.025735013 0.0118851 0.08628899 0.019124951 -0.0007278161 0.023156172 -0.006024714
-0.024839576 -0.019933863 0.016043039 -0.072132684 -0.026048806 -0.08413953 0.06334212 0.02903055
-0.008384816 0.03692733 0.03748473 0.06122884 0.0577681 0.055028286 -0.031220226 -0.098468445
0.043875635 0.057138532 -0.024021845 0.07173034 -0.014372967 0.06647681 0.08768705 0.03879112
-0.012917296 0.03424475 0.044187576 0.10379381 -0.06528352 -0.054209385 -0.0149193 -0.029213613
0.06251666 -0.039414015 0.06300456 -0.038812697 0.051998265 0.05741128 -0.015294966 -0.061183736
0.031250272 -0.066658564 -0.046884764 0.027120387 0.039395843 -0.08277733 -0.045479864 -0.03450931
0.037003852 -0.022354268 -0.09484405 -0.011005042 0.0051273066 -0.09663953 0.020520316 0.041031748
0.03767791 0.010574565 -0.008925067 -0.010045232 -0.05527924 -0.06738998 0.030972714 -0.06594101
-0.05327711 -0.042043213 -0.026634358 -0.06683769 -0.025968606 0.09102515 -0.07771403 -0.021584729
00000000: eb20 1b3d a622 943d 381b 523d 6f74 a1bb
00000010: eccd cd3c 8474 b53d 12d2 833d 48e2 66bd
00000020: 039a 813c 7861 8ebd 5d11 9abd b9cc 893d
00000030: e3d5 be3b 2e9d c43c 49da 853d e6d3 4fbd
00000040: 7544 a13d 65e1 8cbd f03e 6e3c f91f 02bd
00000050: dc96 fabc befc 94bb eacb 8a3d 0a6a 7cbc
00000060: 5abe 6fbd 0984 50bd 24a9 2e3d 80df a53d
00000070: 26df 913c 0b3d 97bc 2792 a13c d135 353d
00000080: f14c dabc 615b a3bd 1729 40bd 8688 bcbc
00000090: a003 293c cc3d 823d 85ec 9e3d fead 05bd
000000a0: 74e3 403d 26dd 7abd 59fa 8ebd aa3b 823d
000000b0: d837 36bd 9054 3a3d d6a3 8cbd 2158 2a3d
000000c0: ae17 dc3c 375c e9bc 6254 adbd c465 ffbb
000000d0: cac6 7bbd 7bb2 32bd 3fce 6e3d 7779 8b3c
000000e0: 178a acbd c8ce 0f3d 453c 9ebd 5c46 943d
000000f0: 814e 9ebd f032 863c 665a e93c f7db 5cbd
00000100: a2f3 8e3d f46a b53d 2526 d53b 1763 033c
00000110: c77d 923d 1424 4c3d 0c22 83bd 6596 54bd
00000120: 5f21 cdbc 36bb 8a3d 6e0d 873d 9104 95bd
00000130: 069a 1cbd 478e 94bd 17e0 903c 1d58 51bd
00000140: c379 4ebd 949a b1bd 2b74 633d 6b82 023d
00000150: 7c6f 6ebd ee73 b13d 6018 3dbd 3599 4e3d
00000160: 86c0 553d 418a aa3d 0c27 04bd 3988 af3d
00000170: 46e2 8cbd 541a 3c3d 6c8f 093d cbc3 16bd
00000180: 2990 37bc 0aa4 6b3d 05ee 8cbd 6006 86bd
00000190: cea2 b43d 4d63 393d fc2f 9dbc e1bf c13d
000001a0: 67c6 8f3d ef32 7c3c fbe3 2d3d 639e bd3d
000001b0: 5541 febb 1d62 e93b adcb 953c accf 1abd
000001c0: 5d0f ba3c 7938 9f3d 78d0 17bd 943b 6abd
000001d0: 02d5 513d 3bcf a63d 0be3 00ba ede0 02bd
000001e0: b90c 6fbd 474c 4abd 1531 7c3d 043c 333d
000001f0: f89b 4e3d 61ed d4bc 725e 233d 98e8 653d
00000200: 1e80 fcbc e01a 833d afe1 e5bc c765 9b3b
00000210: ee51 9f3b 9ea9 de3c a393 2bbd ad34 3abd
00000220: f91f f0bc ed76 7e3d 03b2 8b3c 58f6 1d3d
00000230: 052e b63d fb38 afbc d4a4 9bbd 3aaa 4c3c
00000240: 741d 98bd 373f a9bd cfd8 28bc 20e5 993d
00000250: c6c9 8a3d 62ba 3abd ac1d 25bd 3d5b e53c
00000260: 399b e73c 7f87 a9bc bf6e 463d 0cf0 1bbd
00000270: 0cd8 5b3d d4fa 033d 2a52 23bd 87cf 493c
00000280: 8c6d 3abd 45d6 753d 9faa d1bc acd9 453d
00000290: ce54 9a3c f397 60bd 518f 2c3d 1422 373d
000002a0: e1d7 003d 5ba6 573c 0459 b4bd cc13 30bd
000002b0: 6db9 973d 264c 58bd 63ec 29bc 8782 ecbc
000002c0: 615c e3bb 3cd2 d2bc b9b9 423c 48b8 b03d
000002d0: eeab 9c3c e9ca 3eba 03b2 bd3c f76a c5bb
000002e0: 5e7c cbbc 574c a3bc b16c 833c 4dba 93bd
000002f0: 4e64 d5bc 5951 acbd 83b9 813d 7ad1 ed3c
00000300: 7860 09bc 1d41 173d 9789 193d 18cb 7a3d
00000310: 3e9e 6c3d 5765 613d 8fc1 ffbc d3a9 c9bd
00000320: f0b6 333d 180a 6a3d 76c9 c4bc 5be7 923d
00000330: 987c 6bbc fe24 883d 4595 b33d 70e3 1e3d
00000340: 11a3 53bc 3944 0c3d 08fe 343d d991 d43d
00000350: 5eb3 85bd a90a 5ebd 1470 74bc 6351 efbc
00000360: bc08 803d 9770 21bd 8908 813d 10fa 1ebd
00000370: 22fc 543d 1728 6b3d bd97 7abc cc9b 7abd
00000380: 4900 003d 4984 88bd 3d0a 40bd 932b de3c
00000390: 895d 213d 2987 a9bd 1849 3abd a259 0dbd
000003a0: 5a91 173d 4c20 b7bc 993d c2bd 7e4e 34bc
000003b0: f702 a83b f2ea c5bd 391a a83c e810 283d
000003c0: 2754 1a3d f140 2d3c 723a 12bc c294 24bc
000003d0: 7c6c 62bd c203 8abd 7dba fd3c 150c 87bd
000003e0: 1939 5abd 8135 2cbd 4c30 dabc 33e2 88bd
000003f0: 1dbc d4bc 656b ba3d 8928 9fbd 75d2 b0bc

module.conv_1.bias f4 [56]
0.010846429 -0.0009941543 0.029758587 0.033430833 0.021449996 0.028019171 -0.04252496 0.03359472
-0.018040258 0.061386872 -0.02424821 0.07945991 -0.025567941 0.024489302 0.060468473 0.02788224
-0.015345292 0.085381314 -0.014692038 2.3309207e-05 -0.006988077 0.09375889 0.0075027794 -0.07872652
-0.022509627 -0.03814823 0.08733554 0.049959235 -0.013485801 -0.019940501 -0.002701172 0.017261235
0.06362859 0.074851535 -0.03217858 -0.05241454 0.04607246 0.019989403 -0.048525397 0.0049089743
-0.0781004 -0.023543311 -0.07260315 -0.07803445 0.030066824 -0.0047769533 -0.032722715 -0.07016316
0.07282781 0.040341925 -0.004775914 0.0022498078 -0.025878957 0.030612536 -0.010308536 0.014218051
00000000: 38b5 313c 484e 82ba 48c8 f33c c5ee 083d
00000010: e7b7 af3c 7688 e53c a72e 2ebd 9e9a 093d
00000020: 2ac9 93bc cd70 7b3d 2fa4 c6bc e1bb a23d
00000030: dc73 d1bc ca9d c83c caad 773d 4c69 e43c
00000040: d26a 7bbc 66dc ae3d e0b6 70bc 2488 c337
00000050: 3dfc e4bb a904 c03d e0d9 f53b 5f3b a1bd
00000060: 1c66 b8bc 5241 1cbd fadc b23d 0ea2 4c3d
00000070: 8df3 5cbc 435a a3bc 2506 31bb 6f67 8d3c
00000080: b54f 823d c34b 993d b0cd 03bd a1b0 56bd
00000090: 7ab6 3c3d d1c0 a33c 91c2 46bd 76db a03b
000000a0: 1af3 9fbd e7dd c0bc f6b0 94bd 87d0 9fbd
000000b0: b34e f63c fd87 9cbb 4108 06bd b4b1 8fbd
000000c0: bf26 953d 933d 253d 457f 9cbb 8371 133b
000000d0: 1b00 d4bc 24c7 fa3c 22e5 28bc d4f2 683c

module.conv_2.weight f4 [12, 56, 1, 1, 1]
0.0065216087 0.028982949 -0.002573286 -0.034084294 0.08693378 0.059246648 0.059308786 0.09972713
0.08447592 0.114544414 -0.08741724 0.12060742 0.046863902 0.01569408 0.07348489 -0.045339845
0.07312682 0.11573456 0.0025443598 -0.003601905 0.06827048 0.05524684 -0.045594163 -0.031321507
0.14119208 -0.09923029 0.12577802 0.030185657 -0.099716686 -0.006495321 0.03637037 0.019501954
0.043526217 0.09152865 -0.053133115 0.056788478 -0.051935673 0.036186293 -0.11203667 -0.042806294
0.07277967 0.12011621 0.07771885 0.07129531 -0.058694284 0.09464912 0.05796823 -0.13394332
0.09452679 -0.09864194 -0.14046387 0.045470692 -0.13021919 0.15482232 0.073022015 0.12260644
0.14689176 -0.033551756 -0.12929747 -0.06299879 -0.054544773 0.043455165 0.121255845 0.07883915
-0.16828035 0.11492723 -0.16582063 -0.061424207 -0.05737645 -0.0061805104 0.0315324 -0.05689989
-0.04028168 0.09314041 0.03615223 0.12660886 -0.12638532 -0.065036505 -0.06365601 0.03443598
-0.03690718 -0.13185127 -0.085182935 0.06272867 -0.06687132 0.04085694 0.13979083 0.019199608
-0.14432313 0.051302347 0.025178654 0.13567849 0.07254806 0.06327572 -0.11901316 -0.06140072
0.00034615264 0.063832946 0.08737377 -0.004604065 -0.03171625 0.07336551 -0.20184402 0.12806235
0.049109384 0.09013193 0.050029464 -0.09275023 -0.12086907 0.04710665 -0.0013428939 0.06696216
-0.099248484 0.0036185875 -0.1699723 0.085576154 -0.07561716 -0.11008825 -0.090901725 0.14770256
-0.10655391 -0.09520847 -0.1618595 0.114213124 -0.13034512 -0.070732266 0.026169224 0.055419974
-0.10252913 0.061480306 -0.13612685 -0.071400784 -0.025030077 0.05279759 0.05223207 0.10520952
0.10574605 -0.035984244 0.07534439 -0.05019478 -0.11809853 -0.120597966 0.042568892 -0.09257005
0.015323039 0.1336376 -0.032151718 -0.04547732 0.09615365 0.0005453846 -0.11731458 0.09811853
-0.03207612 -0.07010455 0.009276063 0.002531836 0.00070463924 0.055106506 -0.020932816 0.079961196
0.15009417 0.102364495 -0.048353612 -0.0122618815 0.08211634 -0.04749483 0.13325526 0.005272648
0.07794491 -0.28694203 0.007645346 0.01024266 0.14757478 -0.0624206 -0.052914057 0.036625408
-0.09937212 -0.037034966 0.10552209 -0.06263129 -0.23837678 0.0715088 -0.027428074 0.22881976
-0.17094184 -0.0422456 0.09513617 -0.118719965 -0.03336024 0.15404177 0.096131586 0.14477286
0.09938074 0.11889217 -0.14760001 0.12254484 0.037255425 -0.084313706 -0.08004229 -0.0969418
-0.19332668 0.039651155 0.03138021 0.17328674 0.00040583164 -0.14115612 -0.10943017 -0.0529423
0.14488189 0.0157777 -0.021355681 0.1423795 -0.11318933 0.073706575 -0.117332794 -0.03328974
0.06022003 0.08068611 -0.05573018 0.060990807 0.073155776 0.004295307 -0.048220605 -0.028465025
-0.026238587 -0.06956632 0.020701135 0.038736373 -0.022828192 0.023890603 0.062468622 0.01335015
-0.04328151 0.027004804 0.030228093 0.031663466 -0.26046282 -0.05903334 0.06594932 0.057329528
0.024945978 -0.070698686 0.034346938 0.09648762 -0.06113415 0.08188324 0.058967 0.030970136
0.087512225 0.051090922 -0.107271545 0.083955616 -0.04058607 0.09193781 0.033073235 -0.056862734
00000000: 38b3 d53b a66d ed3c 93a4 28bb f99b 0bbd
00000010: 560a b23d 9dac 723d c5ed 723d bd3d cc3d
00000020: b601 ad3d 4396 ea3d cf07 b3bd 0601 f73d
00000030: 5df4 3f3d df90 803c 3f7f 963d 46b6 39bd
00000040: 84c3 953d 3e06 ed3d 46bf 263b f00d 6cbb
00000050: 65d1 8b3d 834a 623d f2c0 3abd fb4a 00bd
00000060: a894 103e 4039 cbbd f4cb 003e e947 f73c
00000070: 4338 ccbd b4d6 d4bb 19f9 143d 90c2 9f3c
00000080: 8c48 323d 5f73 bb3d 1ca2 59bd 099b 683d
00000090: 80ba 54bd 1438 143d 7b73 e5bd a755 2fbd
000000a0: 820d 953d 7dff f53d 0f2b 9f3d 4703 923d
000000b0: 6b69 70bd 66d7 c13d 1870 6d3d 7028 09be
000000c0: 4397 c13d c904 cabd c3d5 0fbe 7a3f 3a3d
000000d0: 2e58 05be be89 1e3e 918c 953d 1619 fb3d
000000e0: cb6a 163e 916d 09bd 8e66 04be 8205 81bd
000000f0: 576a 5fbd 0bfe 313d fc54 f83d 6c76 a13d
00000100: af51 2cbe f85e eb3d e2cc 29be f397 7bbd
00000110: 9203 6bbd e185 cabb 1e28 013d dc0f 69bd
00000120: 67fe 24bd 66c0 be3d 5c14 143d c1a5 013e
00000130: 276b 01be dc31 85bd 155e 82bd be0c 0d3d
00000140: fc2b 17bd 0504 07be 6474 aebd e477 803d
00000150: d5f3 88bd 9b59 273d 5425 0f3e 7f48 9d3c
00000160: 71c9 13be 6922 523d 7743 ce3c 4def 0a3e
00000170: 1494 943d b396 813d 2cbd f3bd 527f 7bbd
00000180: d27b b539 d9ba 823d 05f1 b23d b2dd 96bb
00000190: e6e8 01bd a840 963d 33b0 4ebe c722 033e
000001a0: ec26 493d 1797 b83d b2eb 4c3d d5f3 bdbd
000001b0: 348a f7bd e7f2 403d 0b04 b0ba 7523 893d
000001c0: ca42 cbbd d325 6d3b 380d 2ebe 8d42 af3d
000001d0: 2bdd 9abd f375 e1bd af2a babd 573f 173e
000001e0: f038 dabd a9fc c2bd 7fbe 25be 92e8 e93d
000001f0: 3179 05be 14dc 90bd d760 d63c 0e00 633d
00000200: cbfa d1bd c6d2 7b3d d664 0bbe 933a 92bd
00000210: e00b cdbc 4942 583d 4cf1 553d 1778 d73d
00000220: 6391 d83d 3764 13bd 294e 9a3d 0b99 4dbd
00000230: a4dd f1bd 11fc f6bd b85c 2e3d 5e95 bdbd
00000240: 7c0d 7b3c 4cd8 083e 85b1 03bd 6d46 3abd
00000250: 34ec c43d 24f8 0e3a a042 f0bd 5ef2 c83d
00000260: 4062 03bd f992 8fbd a1fa 173c 29ed 253b
00000270: 8ab7 383a 5cb7 613d 4c7b abbc b2c2 a33d
00000280: 49b2 193e 7aa4 d13d 700e 46bd 0fe6 48bc
00000290: 9d2c a83d f089 42bd 1174 083e 2dc6 ac3b
000002a0: 95a1 9f3d 11ea 92be d085 fa3b d4d0 273c
000002b0: d81d 173e beac 7fbd 69bc 58bd 8604 163d
000002c0: 9c83 cbbd fab1 17bd f71b d83d d544 80bd
000002d0: 0b19 74be 3573 923d d7b0 e0bc ba4f 6a3e
000002e0: 610b 2fbe b909 2dbd c1d6 c23d 7423 f3bd
000002f0: bfa4 08bd 20bd 1d3e a3e0 c43d 563f 143e
00000300: 2188 cb3d bd7d f33d 7524 17be caf8 fa3d
00000310: 2599 183d aaac acbd 36ed a3bd 6c89 c6bd
00000320: 6ef7 45be 4069 223d 8988 003d 1472 313e
00000330: cdc5 d439 3b8b 10be ed1c e0bd 06da 58bd
00000340: eb5b 143e 3c40 813c 1cf2 aebc efcb 113e
00000350: cfcf e7bd 79f3 963d 2d4c f0bd d35a 08bd
00000360: 47a9 763d c23e a53d 5445 64bd 7fd1 793d
00000370: b2d2 953d a6bf 8c3b f882 45bd 7c2f e9bc
00000380: 4ef2 d6bc c978 8ebd 6d95 a93c 08aa 1e3d
00000390: 3002 bbbc 3ab6 c33c 19df 7f3d 96ba 5a3c
000003a0: f447 31bd 2e39 dd3c e8a0 f73c 8db1 013d
000003b0: 625b 85be f2cc 71bd 7010 873d 5ed2 6a3d
000003c0: 825b cc3c 79ca 90bd 60af 0c3d 4d9b c53d
000003d0: cd67 7abd 66b2 a73d 6287 713d 15b5 fd3c
000003e0: 9c39 b33d b744 513d 2fb1 dbbd ecf0 ab3d
000003f0: 943d 26bd e449 bc3d cd77 073d e6e8 68bd

module.conv_2.bias f4 [12]
0.06473977 0.106036805 -0.022490008 -0.1009677 0.057568304 -0.022244759 -0.0021977613 0.12625645
-0.097184174 0.014624131 0.033356868 0.08516318
00000000: 4996 843d d329 d93d f73c b8bc 27c8 cebd
00000010: becc 6b3d a43a b6bc 5108 10bb 5f49 013e
00000020: 7f08 c7bd 0d9a 6f3c 36a1 083d 096a ae3d

module.conv_3.weight f4 [12, 12, 3, 3, 3]
0.0006347633 0.006686825 -0.015880289 -0.039439686 0.027058143 0.02390125 -0.023955932 0.027642023
0.0070193377 -0.0067186416 -0.017537218 -0.021872198 0.01708065 0.0041646576 -0.0034091577 -0.027632665
0.06458289 0.026126502 -0.025266893 -0.023807103 -0.04962078 0.018048037 -0.014639048 -0.030848995
0.072634876 0.060247034 0.015764913 -0.025660457 0.03412025 0.019384287 0.043641504 0.026618814
-0.031492114 -0.03625275 0.016921438 -0.0456061 -0.0076543805 0.019459886 -0.04009444 0.042729508
0.033124927 0.0015909749 -0.014061953 0.056591783 -0.016710555 0.03477864 -0.011620543 -0.05193015
-0.04938162 0.008164596 0.03921772 0.0019561588 -0.017765578 -0.04071516 0.020338517 0.018513449
-0.038653262 0.004008955 0.030454263 -0.0034662308 -0.04323618 -0.014916411 0.0054123607 0.01036159
0.027871529 0.04754643 -0.029653065 -0.035433795 -0.011565188 0.020218853 0.05180229 -0.050629728
0.03199954 -0.039415404 -0.038263172 0.011294566 -0.00415881 0.030515485 0.0251564 -0.037838135
0.02916133 -0.065342255 -0.03398543 -0.0011854382 0.01797896 -0.0037671793 0.014107578 -0.05995463
-0.048050817 -0.00982692 -0.062912524 -0.016830867 -0.008797806 -0.053688943 -0.025596324 -0.033751175
-0.0823293 -0.10212706 -0.037165154 -0.072896205 -0.066244856 -0.033040933 -0.021333633 -0.013623365
-0.010699293 0.035448063 -0.013165933 0.028151797 0.0063881874 0.053110022 0.055083357 0.056869715
-0.01197366 0.032746904 0.027883599 -0.009562657 0.013981664 0.038858578 -0.005444926 -0.042025987
0.0154790785 -0.044949256 0.021970434 -0.0012285729 0.04078575 0.0049258885 0.02869602 -0.032178093
0.02967707 0.041187488 -0.029518735 -0.007263547 0.011166095 0.014765891 -0.023657935 0.030405222
0.016483057 0.050434038 0.002464313 -0.022189787 -0.011656016 -0.028061753 0.041038137 -0.07724445
0.047006253 0.06023909 0.047244906 0.013333831 0.005154906 0.0075786547 -0.06218359 -0.05174358
0.0031327694 0.007220202 -0.008291186 -0.032282773 -0.053155385 -0.07717355 -0.012240056 -0.04337193
-0.08620978 -0.028150378 -0.021674236 0.004736955 -0.025591955 0.07014635 0.08275238 0.043022763
0.017715279 0.015750395 -0.015017025 0.025173908 0.04365738 -0.020544613 0.045666616 0.009030124
-0.01831448 -0.041859604 -0.07277147 -0.077250056 0.0130221965 0.041199435 0.04292798 -0.011147327
0.018442146 0.02739359 0.048794013 -0.011936258 0.06630887 0.00090896094 0.0050497605 0.0019433582
0.02906912 -0.03129875 0.01599042 0.01472723 0.036585726 -0.012375488 0.0190091 -0.0042691883
0.0057840496 -0.027188007 -0.03615306 0.040562358 0.04854096 0.030117823 0.050111625 0.052890513
-0.051776867 -0.019837983 0.00628148 0.048155133 0.026974462 0.03875845 0.054272316 0.021755284
-0.016639616 -0.04347125 0.050744098 -0.0029925639 -0.046802886 0.046043925 -0.010075695 -0.02730826
-0.038695864 -0.03536539 -0.044454377 0.047496427 -0.016023695 -0.0071398485 0.045098595 -0.008321259
0.049405005 0.017553853 -0.05351763 -0.038110092 -0.014544685 -0.028475007 -0.04537268 -0.04452357
0.032328237 0.03435123 -0.033840682 -0.012987194 0.01805711 -0.038544312 -0.04817733 -0.019982057
-0.030127773 -0.024239985 -0.0109690465 0.020678999 -0.018767174 0.020529535 -0.054686457 -0.017742872
00000000: 3e66 263a 271d db3b 6117 82bc 828b 21bd
00000010: 0aa9 dd3c 8ecc c33c 3b3f c4bc 8671 e23c
00000020: 7902 e63b 0d28 dcbb 36aa 8fbc 532d b3bc
00000030: b8ec 8b3c ae77 883b 2d6c 5fbb e65d e2bc
00000040: 0944 843d 3f07 d63c 84fc cebc 1d07 c3bc
00000050: 293f 4bbd 7ad9 933c 9ed8 6fbc 08b7 fcbc
00000060: 98c1 943d 98c5 763d 6b25 813c e135 d2bc
00000070: adc1 0b3d cccb 9e3c 6fc1 323d b30f da3c
00000080: e0fd 00bd c37d 14bd d49e 8a3c 76cd 3abd
00000090: 99d1 fabb 576a 9f3c 113a 24bd 2305 2f3d
000000a0: 01ae 073d 4288 d03a 1b64 66bc c9cc 673d
000000b0: 93e4 88bc 0c74 0e3d 1764 3ebc b5b4 54bd
000000c0: 6244 4abd ccc4 053c c3a2 203d e632 003b
000000d0: 1e89 91bc f1c4 26bd f69c a63c 84a9 973c
000000e0: e252 1ebd 8d5d 833b 387b f93c b429 63bb
000000f0: 6c18 31bd f663 74bc 2c5a b13b a9c3 293c
00000100: d552 e43c 0cc0 423d fcea f2bc 0723 11bd
00000110: ea7b 3dbc 02a2 a53c a32e 543d 1e61 4fbd
00000120: f311 033d 0c72 21bd d8b9 1cbd d80c 393c
00000130: a046 88bb 9cfb f93c cb14 ce3c 29fc 1abd
00000140: bee3 ee3c 29d2 85bd 4e34 0bbd b560 9bba
00000150: 9d48 933c c8e2 76bb 7923 673c fc92 75bd
00000160: efd0 44bd 1701 21bc 48d8 80bd e3e0 89bc
00000170: ac24 10bc f0e8 5bbd 62af d1bc ac3e 0abd
00000180: 449c a8bd fe27 d1bd 7d3a 18bd 9b4a 95bd
00000190: 62ab 87bd ee55 07bd dfc3 aebc 8934 5fbc
000001a0: 164c 2fbc fd31 113d edb5 57bc 999e e63c
000001b0: 0054 d13b e589 593d 169f 613d 38f0 683d
000001c0: 2c2d 44bc 9e21 063d 256c e43c b1ac 1cbc
000001d0: 5913 653c 2c2a 1f3d 5a6b b2bb 7123 2cbd
000001e0: f69b 7d3c b61c 38bd 57fb b33c 1108 a1ba
000001f0: f50e 273d 5969 a13b ea13 eb3c 2dcd 03bd
00000200: 541d f33c 36b4 283d 46d1 f1bc 0c03 eebb
00000210: fff1 363c a3ec 713c 49ce c1bc 5f14 f93c
00000220: 7a07 873c ec93 4e3d 5080 213b 5bc7 b5bc
00000230: e0f8 3ebc c3e1 e5bc 9b17 283d 5732 9ebd
00000240: a189 403d 44bd 763d e083 413d 2476 5a3c
00000250: 7cea a83b 5d56 f83b 38b4 7ebd 13f1 53bd
00000260: 264f 4d3b 7297 ec3b c1d7 07bc f13a 04bd
00000270: 76b9 59bd 2b0d 9ebd 848a 48bc c4a6 31bd
00000280: c18e b0bd 9f9b e6bc 2b8e b1bc 7538 9b3b
00000290: 38a6 d1bc e4a8 8f3d 147a a93d a338 303d
000002a0: a21f 913c f906 813c f809 76bc 8339 ce3c
000002b0: 15d2 323d 2d4d a8bc eb0c 3b3d 16f3 133c
000002c0: 4008 96bc fa74 2bbd 3509 95bd 4735 9ebd
000002d0: 0d5b 553c bdc0 283d 40d5 2f3d 47a3 36bc
000002e0: fc13 973c 8668 e03c 3bdc 473d 4b90 43bc
000002f0: f2cc 873d 5647 6e3a 7678 a53b 48b8 fe3a
00000300: 5d22 ee3c 1e33 00bd 57fe 823c 7b4a 713c
00000310: eada 153d 8fc2 4abc f9b8 9b3c 8ce4 8bbb
00000320: 2088 bd3b 62b9 debc 3b15 14bd b724 263d
00000330: e3d2 463d a7b9 f63c d941 4d3d b9a3 583d
00000340: fb13 54bd 4483 a2bc e0d4 cd3b 513e 453d
00000350: 8cf9 dc3c 2ec1 1e3d a64c 5e3d 2338 b23c
00000360: ce4f 88bc e90e 32bd 0bd9 4f3d e41e 44bb
00000370: 62b4 3fbd 8e98 3c3d 8714 25bc 92b5 dfbc
00000380: 8e7f 1ebd 4ddb 10bd cb15 36bd 9d8b 423d
00000390: 2044 83bc 64f5 e9bb 4eb9 383d e455 08bc
000003a0: e75c 4a3d 19cd 8f3c 4d35 5bbd 5419 1cbd
000003b0: d54c 6ebc 6b44 e9bc b4d8 39bd 595e 36bd
000003c0: 9d6a 043d e0b3 0c3d 879c 0abd 3dc8 54bc
000003d0: 81ec 933c a4e0 1dbd 9855 45bd 69b1 a3bc
000003e0: 85ce f6bc ef92 c6bc 84b7 33bc 0167 a93c
000003f0: 9ebd 99bc 8e2d a83c e8fe 5fbd 8059 91bc

module.conv_3.bias f4 [12]
-0.046707526 0.05630703 0.0022941488 0.03460312 0.020108271 -0.030141579 -0.048454132 -0.0042669745
-0.030933365 0.029237276 0.057007942 0.033706125
00000000: 6450 3fbd 33a2 663d 6e59 163b 00bc 0d3d
00000010: 1aba a43c 79eb f6bc d777 46bd fad1 8bbb
00000020: f867 fdbc 0383 ef3c 2981 693d 6f0f 0a3d

module.conv_4.weight f4 [12, 12, 3, 3, 3]
0.02359058 -0.03365328 -0.046529118 0.0006767062 0.009497578 0.037051283 -0.021115052 -0.004441149
0.015451579 0.03160512 -0.055257306 0.034087434 0.01703213 -0.05564018 0.051686894 -0.053372588
-0.030766055 0.026105175 -0.00954008 0.0026920023 0.00039718312 0.04603633 -0.006263816 -0.053760543
-0.056288607 -0.05121765 -0.025644716 -0.03760116 -0.032358516 -0.045351587 0.058640223 0.007309029
-0.029262558 0.036196724 0.05944313 0.038849745 -0.0379434 0.0074916696 -0.003486122 0.042443734
0.06564477 -0.036018204 0.04535663 -0.008632448 -0.0045802877 0.054685812 0.044241503 0.012097525
0.049475502 -0.025293415 0.012495447 -0.008165781 -0.033678878 0.043668136 -0.04325757 0.056365028
0.0140706105 -0.028497133 -0.008451756 -0.010027015 -0.039833907 -0.01461654 -0.02034978 -0.055123966
-0.047968764 0.020712966 -0.030285409 -0.045686524 -0.046616778 0.0017063171 -0.022242561 0.044850282
-0.03334483 0.054772533 0.04020055 0.032584656 -0.0057141073 0.027387585 0.0095389495 0.021818044
0.0139708975 -0.014890979 -0.025036918 -0.011602576 0.024153883 -0.026124004 -0.030752188 -0.014408494
0.020002592 -0.03348666 -0.049022917 -0.022858245 -0.025393965 0.011460002 -0.030676436 0.02843904
-0.02527412 -0.046942882 0.04091696 0.05147805 0.042894825 -0.05087503 0.051739372 -0.020526564
0.008656674 0.026116736 0.030342061 -0.004992022 0.027750669 -0.03475429 0.023506805 -0.03916701
0.0004659653 0.008814151 0.049612354 0.033434276 -0.044223893 0.029923502 0.012183124 -0.039296538
-0.023765175 -0.037892994 0.0072498657 -0.04583263 -0.04488522 0.004739331 0.013029813 0.025428237
-0.01757469 -0.00075159845 0.009553322 0.05410658 0.05617444 -0.027031621 0.014836928 -0.009546178
-0.00028482985 -0.023946794 -0.01357461 0.059974436 0.05477082 -0.06846411 0.05385309 -0.013592311
-0.009389617 0.042641647 0.05361638 -0.043449484 -0.023892283 -0.033049107 0.01632314 -0.05293683
-0.016588641 -0.019410381 -0.010067305 0.035140935 0.016439267 0.005575708 0.039818347 -0.005788086
0.009011119 -0.021488339 0.039736666 -0.004853123 0.05338584 -0.02583728 -0.055841923 0.0107039455
0.0139117865 -0.029232178 -0.01784964 -0.017869307 0.04840961 -0.03397392 -0.009755193 -0.021300977
0.04500457 -0.036489923 -0.048403155 -0.052909594 0.037546188 -0.05226773 -0.03957912 -0.008510034
-0.032135557 0.054480813 0.045388296 0.045676723 0.038229674 -0.042604197 -0.056488212 -0.08033785
-0.008159968 -0.011234365 -0.08761851 -0.0014740933 0.031297095 -0.036235858 0.052950103 -0.012426925
0.06093838 0.04930738 0.0014187923 0.06010381 0.05853476 0.056975875 0.039919574 0.0045123403
0.055208888 0.050321985 0.034779042 0.058359757 -0.030371174 0.02678744 0.061627418 0.04197031
-0.002490006 0.043315493 -0.018402372 -0.051283196 -0.03205098 -0.052108508 -0.018368602 -0.012805288
0.0057099136 0.011897218 -0.002011067 0.05015157 0.024692215 0.026017232 -0.009836003 0.03664885
0.04091268 0.0033402026 -0.042567294 0.006597828 0.044162385 0.04460354 0.030721463 0.014267267
0.008584303 -0.0011429694 0.01692024 0.043094177 0.061143003 0.00040616628 0.028560944 0.00049893506
0.040756047 0.006435578 0.032275207 -0.014370408 -0.0013872532 0.027912382 0.05297664 -0.010281982
00000000: 0841 c13c 06d8 09bd 5195 3ebd fc64 313a
00000010: bb9b 1b3c 16c3 173d 79f9 acbc 0f87 91bb
00000020: 9f28 7d3c 5f74 013d 7c55 62bd 449f 0b3d
00000030: f786 8b3c f5e6 63bd a3b5 533d 379d 5abd
00000040: 1809 fcbc 85da d53c ff4d 1cbc 4e6c 303b
00000050: 043d d039 9790 3c3d b240 cdbb 0434 5cbd
00000060: e28e 66bd 99c9 51bd de14 d2bc ad03 1abd
00000070: 5d8a 04bd 96c2 39bd bb30 703d 9480 ef3b
00000080: 08b8 efbc 0443 143d a47a 733d e920 1f3d
00000090: 8a6a 1bbd ae7c f53b 6c77 64bb 7bd9 2d3d
000000a0: c470 863d d387 13bd e0c7 393d 1c6f 0dbc
000000b0: 3d16 96bb 3bfe 5f3d 9436 353d b334 463c
000000c0: d3a6 4a3d 2334 cfbc b4b9 4c3c c5c9 05bc
000000d0: ddf2 09bd 5cdd 323d da2e 31bd 04df 663d
000000e0: 6b88 663c d272 e9bc 3c79 0abc 5948 24bc
000000f0: e128 23bd 367a 6fbc 95b4 a6bc abc9 61bd
00000100: e57a 44bd 3dae a93c 1b19 f8bc cb21 3bbd
00000110: 3cf1 3ebd 80a6 df3a 0836 b6bc eeb4 373d
00000120: 9794 08bd 2a59 603d 55a9 243d 7d77 053d
00000130: 683d bbbb ee5b e03c 4149 1c3c c1bb b23c
00000140: 31e6 643c 4bf9 73bc 391a cdbc bb18 3ebc
00000150: 5dde c53c 0202 d6bc 03ec fbbc 9b11 6cbc
00000160: 7adc a33c 4f29 09bd 41cc 48bd 3741 bbbc
00000170: 0107 d0bc bbc2 3b3c 264d fbbc fdf8 e83c
00000180: ac0b cfbc 2e47 40bd 8b98 273d a6da 523d
00000190: 7cb2 2f3d 5662 50bd aaec 533d 5327 a8bc
000001a0: b9d4 0d3c c4f2 d53c ea8f f83c 1e94 a3bb
000001b0: 5f55 e33c 845a 0ebd 5891 c03c 966d 20bd
000001c0: ce4c f439 3b69 103c 5336 4b3d 61f2 083d
000001d0: 1d24 35bd 2222 f53c ba9b 473c 68f5 20bd
000001e0: 2faf c2bc af35 1bbd 4890 ed3b ffba 3bbd
000001f0: 90d9 37bd 644c 9b3b ff7a 553c e14e d03c
00000200: ccf8 8fbc eb06 45ba 8985 1c3c dc9e 5d3d
00000210: 2b17 663d 6b71 ddbc 9616 733c 9367 1cbc
00000220: 3755 95b9 112c c4bc 0b68 5ebc c1a7 753d
00000230: 5e57 603d e936 8cbd 0f95 5c3d 49b2 5ebc
00000240: e8d6 19bc 02a9 2e3d d99c 5b3d 16f8 31bd
00000250: c0b9 c3bc 805e 07bd 1bb8 853c 4ad4 58bd
00000260: e7e4 87bc 8502 9fbc 56f1 24bc f1ef 0f3d
00000270: a4ab 863c 6eb4 b63b 9018 233d fca9 bdbb
00000280: 5fa3 133c 5008 b0bc eac2 223d f206 9fbb
00000290: 1cab 5a3d b4a8 d3bc 80ba 64bd 9a5f 2f3c
000002a0: 43ee 633c 5278 efbc 6939 92bc a762 92bc
000002b0: 2849 463d 3d28 0bbd 3fd4 1fbc 637f aebc
000002c0: b656 383d 7576 15bd 6342 46bd bbb7 58bd
000002d0: 08ca 193d b016 56bd b71d 22bd ab6d 0bbc
000002e0: 93a0 03bd 4627 5f3d 14e9 393d 8417 3b3d
000002f0: b896 1c3d bd81 2ebd 2f60 67bd 2c88 a4bd
00000300: 63b1 05bc 5810 38bc 5571 b3bd 5d36 c1ba
00000310: 6231 003d 0d6c 14bd 35e2 583d 4d9a 4bbc
00000320: 869a 793d 89f6 493d c5f6 b93a 6a2f 763d
00000330: 25c2 6f3d 895f 693d b582 233d 41dc 933b
00000340: b722 623d 6d1e 4e3d 7874 0e3d a40a 6f3d
00000350: f8cc f8bc 5571 db3c 086d 7c3d 0fe9 2b3d
00000360: 5e2f 23bb 966b 313d 92c0 96bc 540e 52bd
00000370: e347 03bd bb6f 55bd c079 96bc 45cd 51bc
00000380: 3a1a bb3b 8dec 423c 1bcc 03bb bc6b 4d3d
00000390: 5447 ca3c 1722 d53c 3027 21bc 1b1d 163d
000003a0: 0e94 273d 4de7 5a3b 0b5b 2ebd 9832 d83b
000003b0: 9ee3 343d 34b2 363d 94ab fb3c 41c1 693c
000003c0: 2da5 0c3c b0cf 95ba 519c 8a3c 8583 303d
000003d0: 1671 7a3d b7f2 d439 a4f8 e93c f7ca 023a
000003e0: d0ef 263d 8be1 d23b 0233 043d dc71 6bbc
000003f0: 7ed4 b5ba 82a8 e43c 09fe 583d c275 28bc

module.conv_4.bias f4 [12]
0.050757196 -0.044605233 -0.04274786 -0.012415484 0.03489573 0.021687984 0.008481851 -0.03377301
0.040261284 -0.0049006194 0.021201925 -0.056041963
00000000: c7e6 4f3d fab3 36bd 6118 2fbd 506a 4bbc
00000010: d3ee 0e3d 00ab b13c 76f7 0a3c 9155 0abd
00000020: 04e9 243d 6095 a0bb a9af ad3c 428c 65bd

module.conv_5.weight f4 [12, 12, 3, 3, 3]
0.046022024 -0.06300506 -0.049205706 0.03330098 0.017006883 -0.002105386 0.017196275 0.020472374
-0.02234333 -0.010225309 0.005856456 0.035243496 -0.06226589 -0.05208605 -0.064403266 -0.050203245
-0.0659256 -0.034244113 0.030316792 0.030279351 -0.014663847 0.02802057 -0.038525116 -0.053193763
0.031472135 -0.03790174 0.0036940777 0.04653826 -0.03559585 -0.040645953 0.027448291 -0.032053843
-0.035716 0.032978646 0.0072025633 -0.0035808817 -0.052561462 -0.048171215 0.020097092 -0.027126975
-0.044316635 -0.02163371 -0.010246489 -0.011722175 -0.045127958 -0.013709711 -0.008770698 0.054210212
-0.039005056 0.017300585 0.049885385 0.028225396 -0.0044824653 0.049139217 0.03648539 -0.019198371
0.044684153 0.032975618 0.07442157 0.032606766 0.028570903 0.018771777 0.033686265 0.02678828
0.011010424 0.05012476 0.06459169 0.06951274 -0.033983435 -0.02559855 0.04416333 0.045066547
0.05636925 0.020049194 0.021735776 -0.008732675 0.006549118 0.030848844 0.054885775 -0.020804623
-0.019630473 0.057044823 -0.03873362 0.056954682 -0.03289458 0.032423895 -0.010239142 0.03255809
0.017733447 -0.046483207 0.058681235 0.0193783 -0.013693265 -0.023292564 -0.046732787 0.041490253
0.0036082817 -0.054998536 -0.0023726881 0.06922079 0.06014849 -0.017876402 0.049112435 0.024435943
0.04049959 0.035468314 0.00021386943 0.015003607 -0.010534402 -0.020027066 0.038909964 -0.040333368
-0.054698255 0.00052934926 -0.011988683 0.026732944 0.051489558 -0.049541872 0.035929818 -0.020888235
0.02996745 -0.024063675 0.030834822 -0.0041404823 0.03413987 0.027918845 -0.045372058 -0.0049319547
0.01477226 0.024125086 -0.011878158 -0.019298209 -0.028612161 0.029964702 -0.017039608 0.05578966
-0.021653313 -0.030418893 0.030572334 0.021095775 0.01361018 -0.0018620271 0.0034949402 0.020157093
0.04921999 0.015042706 0.058979087 0.014752257 -0.005801497 0.024262056 0.0371535 0.046073277
0.03915896 0.044929232 0.03569126 0.0031241868 -0.007084951 0.030043535 0.029061936 -0.014165145
0.02323582 0.02107247 -0.014467326 0.025273267 -0.05067083 0.0043289503 0.03137903 0.039628886
-0.04014069 -0.06026027 -0.05193234 -0.052500717 -0.060363483 -0.09469752 -0.011163269 -0.0765897
0.027988791 -0.06311068 -0.037696064 -0.040984344 0.014056206 0.046845872 0.055389527 0.049916837
0.0053266953 0.069022276 -0.054143135 -0.06400998 -0.027161337 -0.0057560746 0.007226851 0.024523014
-0.049593817 0.045888882 -0.017779602 -0.023379028 -0.049790636 -0.0362082 0.05765141 0.054769482
0.05020152 0.022642711 -0.046191283 0.037371673 0.043820634 -0.022733288 0.03253719 0.026478166
-0.030010097 0.01591406 -0.04527593 0.022727722 0.018753776 -0.0047812928 0.033865627 -0.0104925465
-0.012359732 0.04261167 -0.049453896 -0.0036925825 -0.04240448 -0.012514329 0.030402198 0.035592314
-0.00737354 0.03583062 0.0053355466 0.047205992 0.008172119 -0.055177085 -0.004138286 0.00961401
0.032073103 -0.025700707 0.022698784 -0.055772513 -0.054400243 -0.04945728 -0.038244206 -0.039093435
0.0028668288 0.0173071 0.04473614 0.03442819 0.04185878 -0.026637686 -0.023731945 0.033977002
0.04742203 0.029596161 -0.00066235295 0.036670543 -0.009863536 -0.024446981 0.0517719 -0.020297417
00000000: 9781 3c3d cc08 81bd ec8b 49bd 9c66 083d
00000010: 0552 8b3c 84fa 09bb 34df 8c3c aeb5 a73c
00000020: 5c09 b7bc 0e88 27bc 83e7 bf3b 7c5b 103d
00000030: 850a 7fbd 2f58 55bd dce5 83bd eba1 4dbd
00000040: 0004 87bd 8e43 0cbd ec5a f83c 670c f83c
00000050: a240 70bc 658b e53c 83cc 1dbd b4e1 59bd
00000060: ede8 003d db3e 1bbd 5718 723b e79e 3e3d
00000070: f4cc 11bd 5f7c 26bd 3ddb e03c e44a 03bd
00000080: f14a 12bd 9e14 073d 7b03 ec3b 3aad 6abb
00000090: b04a 57bd 2e4f 45bd a8a2 a43c 6439 debc
000000a0: 5c85 35bd 2e39 b1bc e4e0 27bc 5e0e 40bc
000000b0: 18d8 38bd b29e 60bc f9b2 0fbc 870b 5e3d
000000c0: c4c3 1fbd f5b9 8d3c 9e54 4c3d f238 e73c
000000d0: a5e1 92bb 3446 493d b471 153d e745 9dbc
000000e0: bb06 373d 7111 073d 566a 983d ac8e 053d
000000f0: 870d ea3c 45c7 993c 9cfa 093d 1873 db3c
00000100: 1165 343c 9f4f 4d3d a648 843d b25c 8e3d
00000110: 3732 0bbd 0db4 d1bc 9ce4 343d b397 383d
00000120: 71e3 663d 353e a43c 3a0f b23c 7e13 0fbc
00000130: fc99 d63b b7b6 fc3c e8cf 603d 756e aabc
00000140: 16d0 a0bc d5a7 693d 25a7 1ebd 5049 693d
00000150: 78bc 06bd ebce 043d 13c2 27bc a25b 053d
00000160: bc45 913c 2d65 3ebd bc5b 703d 3ebf 9e3c
00000170: b759 60bc 0cd0 bebc e16a 3fbd aff1 293d
00000180: ec78 6c3b 2546 61bd 1a7f 1bbb a1c3 8d3d
00000190: 435e 763d 8871 92bc 1f2a 493d e32d c83c
000001a0: e6e2 253d 3947 113d 2342 6039 b0d1 753c
000001b0: 7c98 2cbc cd0f a4bc 0e60 1f3d 9a34 25bd
000001c0: 470b 60bd 07c4 0a3a 2e6c 44bc 0cff da3c
000001d0: b7e6 523d 6bec 4abd 252b 133d ce1d abbc
000001e0: 4c7e f53c 2f21 c5bc 4f99 fc3c e2ac 87bb
000001f0: 40d6 0b3d 10b6 e43c 0dd8 39bd 3c9c a1bb
00000200: 5907 723c f9a1 c53c 9b9c 42bc 4717 9ebc
00000210: 0d64 eabc 8978 f53c a696 8bbc b383 643d
00000220: 4a62 b1bc 0b31 f9bc d572 fa3c 0cd1 ac3c
00000230: 3bfd 5e3c 430f f4ba 5e0b 653b 7d20 a53c
00000240: e69a 493d af75 763c 0e94 713d 73b3 713c
00000250: 7c1a bebb 38c1 c63c 452e 183d 55b7 3c3d
00000260: 2565 203d b707 383d 0031 123d 28bf 4c3b
00000270: e028 e8bb dc1d f63c 4c13 ee3c ed14 68bc
00000280: 0c59 be3c 2ca0 ac3c 5d08 6dbc e209 cf3c
00000290: 378c 4fbd ded9 8d3b 4c87 003d e651 223d
000002a0: 906a 24bd 79d3 76bd 01b7 54bd fe0a 57bd
000002b0: b33f 77bd c6f0 c1bd 25e6 36bc 10db 9cbd
000002c0: c048 e53c 2c40 81bd 3067 1abd 33df 27bd
000002d0: 004c 663c 75e1 3f3d 21e0 623d 9975 4c3d
000002e0: 8f8b ae3b 8d5b 8d3d 31c5 5dbd aa17 83bd
000002f0: 7481 debc 749d bcbb 38cf ec3b 7de4 c83c
00000300: e322 4bbd fbf5 3b3d 87a6 91bc 6085 bfbc
00000310: 44f1 4bbd 0d4f 14bd e323 6c3d f755 603d
00000320: 1ca0 4d3d 357d b93c 1233 3dbd 0a13 193d
00000330: 447d 333d 293b babc b745 053d bde8 d83c
00000340: bcd7 f5bc 345e 823c 4173 39bd 7d2f ba3c
00000350: 85a1 993c 64ac 9cbb afb6 0a3d eee8 2bbc
00000360: 7980 4abc 9389 2e3d 2b90 4abd 41ff 71bb
00000370: 52b0 2dbd e608 4dbc 080e f93c 3fc9 113d
00000380: bd9d f1bb 21c3 123d cfd5 ae3b 125b 413d
00000390: 5ae4 053c 5e01 62bd 769a 87bb 1584 1d3c
000003a0: 165f 033d 4a8a d2bc cdf2 b93c b871 64bd
000003b0: cad2 5ebd b893 4abd f5a5 1cbd 7020 20bd
000003c0: 68e1 3b3b 9fc7 8d3c 3e3d 373d 9304 0d3d
000003d0: 1d74 2b3d 4737 dabc 7f69 c2bc 782b 0b3d
000003e0: 9a3d 423d a673 f23c c1a1 2dba da33 163d
000003f0: ab9a 21bc 0945 c8bc c60e 543d c546 a6bc

module.conv_5.bias f4 [12]
0.004033482 0.04021495 -0.011274942 -0.022053542 0.0055531785 -0.013892255 -0.018450046 0.061865307
0.058472797 -0.0065869433 -0.03352465 0.009141598
00000000: 4d2b 843b 6eb8 243d 89ba 38bc a1a9 b4bc
00000010: 70f7 b53b 579c 63bc 8d24 97bc 7a66 7d3d
00000020: 2c81 6f3d 49d7 d7bb 2551 09bd a4c6 153c

module.conv_6.weight f4 [12, 12, 3, 3, 3]
-0.027048292 0.04319756 0.034261245 -0.00094959926 -0.0040427404 -0.023741348 -0.00014477118 -0.025258433
0.03151145 -0.019456204 -0.020433664 -0.04107155 -0.026996175 -0.025915116 -0.05867967 -0.010762437
0.001976794 -0.036075816 -0.059402753 0.016593836 0.021037031 -0.03163708 0.025073329 0.034920767
0.03281722 0.028152447 -0.06325029 -0.045491483 -0.01195772 0.05377028 -0.018273361 0.0131644225
0.016381748 -0.056338534 0.050726753 0.027714245 0.0039112023 -0.03721216 -8.128926e-05 -0.028858317
-0.0028808864 -0.038744792 0.053131755 0.05364796 0.01622875 0.0281327 -0.017793026 0.04908491
-0.008379677 0.013436154 -0.015545665 0.023730593 -0.0110441195 0.02389915 -0.03608548 0.00650972
-0.035542782 -0.049132075 -0.04758578 -0.06174417 0.038081598 0.034471262 0.0113192955 -0.0461965
-0.002295284 -0.03322384 -0.055619758 -0.06238312 -0.016017377 0.030098464 -0.02341017 0.012003144
-0.017147362 -0.06454143 -0.034223545 -0.06299629 -0.06910011 -0.0026213175 -0.016201176 -0.0566466
-0.033000346 -0.018993337 0.031635944 -0.050137214 0.057169363 -0.0055884393 -0.034664985 -0.0084612025
0.024243185 -0.007411115 -0.024903616 -0.008784905 0.014452067 0.034186423 0.030240016 0.002856265
0.00069017673 -0.04441118 0.020905133 0.023276374 -0.059763208 0.018661458 -0.016107347 -0.017683223
-0.0024016595 0.03672413 -0.0551751 0.021897908 -0.048082955 0.058672775 -0.0036400594 0.045930006
0.07004974 0.037480153 0.02530379 0.012112165 0.0060664397 -0.016646406 -0.021142833 0.028194265
0.02458975 0.03852276 0.005698591 -0.037963767 -0.005316149 0.06424425 0.0038518135 0.040868737
-0.014230497 0.031828657 0.07455872 0.074433915 -0.03315951 0.05085402 0.047000136 0.0053849015
0.023982015 0.00035428398 -0.054989025 0.005137432 0.0041737617 0.023502095 -0.0074569173 -0.005296741
0.006784489 0.02719843 -0.04641648 -0.04590565 -0.06436374 0.0028517824 5.4139437e-05 -0.0031131124
-0.011937505 0.022625593 -0.0065666474 0.009366421 0.029402493 0.020157343 -0.049829934 -0.002368013
0.018994138 -0.024396162 0.021908509 -0.017109312 -0.04868823 0.050199784 -0.0021025576 -0.049049646
-0.01551664 -0.020267148 -0.04421899 -0.01937192 -0.0539132 0.028130952 -0.052750926 0.011949853
0.014356304 -0.008318127 0.00813024 0.046197157 0.008813249 0.031010263 -0.0032597114 0.03319934
0.013408563 -0.046362497 0.054531243 0.0062090177 0.028231513 0.05255776 -0.018126205 -0.058844887
-0.005883257 0.08602882 0.017954642 -0.030540684 -0.03534756 -0.06473753 0.030011795 0.11193643
0.07575907 0.06960934 0.048394173 0.03196612 0.0039794734 0.0077482974 0.041039113 0.0007190813
0.027037185 -0.08580888 0.0006129977 0.05943927 -0.004503682 0.03332921 0.038480356 -0.020512132
0.033376332 -0.017102808 -0.015978493 -0.027246151 0.0132060675 0.008808469 0.03414443 -0.00013730828
0.025670929 0.026345795 0.050666004 -0.04104817 -0.050060302 0.034999296 0.025143282 -0.024522306
0.015113268 -0.0051054056 0.011031876 0.031627703 -0.020000154 -0.04079985 0.014760937 -0.028494647
0.014628649 -0.03163451 0.041589648 0.010835437 0.06622355 0.05433962 0.026495336 0.0620067
0.11253635 -0.08394837 0.01181749 0.011235385 0.08893704 0.069990285 0.13616821 0.05113216
00000000: 6194 ddbc edef 303d 8555 0c3d 87ee 78ba
00000010: f778 84bb 377d c2bc b8cd 17b9 c6ea cebc
00000020: 2612 013d 9e62 9fbc 8064 a7bc a43a 28bd
00000030: 1527 ddbc f04b d4bc 185a 70bd ef54 30bc
00000040: 1a8d 013b 3cc4 13bd 4d50 73bd ccef 873c
00000050: da55 ac3c e295 01bd 9566 cd3c 1409 0f3d
00000060: 596b 063d f69f e63c 5e89 81bd 4755 3abd
00000070: 50ea 43bc 3a3e 5c3d 04b2 95bc 97af 573c
00000080: 0433 863c 3cc3 66bd dbc6 4f3d fc08 e33c
00000090: 8b29 803b c76b 18bd d779 aab8 4768 ecbc
000000a0: 41cd 3cbb dcb2 1ebd afa0 593d f7bd 5b3d
000000b0: 28f2 843c 8c76 e63c aec2 91bc 420d 493d
000000c0: ea4a 09bc 5123 5c3c 3fb3 7ebc a966 c23c
000000d0: 65f2 34bc 26c8 c33c 5ece 13bd 7d4f d53b
000000e0: 4f95 11bd b73e 49bd 4fe9 42bd 74e7 7cbd
000000f0: 73fb 1b3d bd31 0d3d 9174 393c 8b38 3dbd
00000100: 7a6c 16bb b915 08bd 8bd1 63bd 7185 7fbd
00000110: e036 83bc 0e91 f63c afc6 bfbc d6a8 443c
00000120: a078 8cbc 4c2e 84bd fd2d 0cbd 3304 81bd
00000130: 5c84 8dbd 69ca 2bbb 54b8 84bc 4406 68bd
00000140: 5f2b 07bd ea97 9bbc b194 013d ae5c 4dbd
00000150: 6c2a 6a3d 3a1f b7bb dffc 0dbd dba0 0abc
00000160: a599 c63c f0d8 f2bb ab02 ccbc 90ee 0fbc
00000170: 5dc8 6c3c 1007 0c3d e9b9 f73c 2d30 3b3b
00000180: faec 343a 7fe8 35bd 3e41 ab3c 18ae be3c
00000190: 44ca 74bd eadf 983c 8ef3 83bc 68dc 90bc
000001a0: 2965 1dbb 0b6c 163d 49ff 61bd 3e63 b33c
000001b0: a2f2 44bd dd52 703d 108e 6ebb 1a21 3c3d
000001c0: 3d76 8f3d ca84 193d e549 cf3c 1a72 463c
000001d0: fcc8 c63b 0b5e 88bc bc33 adbc a9f7 e63c
000001e0: 7270 c93c 0bca 1d3d 3fbb ba3b e57f 1bbd
000001f0: 1733 aebb 7d92 833d b56e 7c3b fa65 273d
00000200: 0827 69bc c45e 023d 3eb2 983d cf70 983d
00000210: 44d2 07bd 4e4c 503d 3783 403d d473 b03b
00000220: ee75 c43c 31bf b939 2c3c 61bd e757 a83b
00000230: 0dc4 883b 7787 c03c 2859 f4bb 4990 adbb
00000240: 6b50 de3b 3ecf de3c 351f 3ebd 9007 3cbd
00000250: 23d1 83bd f8e4 3a3b c713 6338 5c05 4cbb
00000260: 8695 43bc 4f59 b93c 082d d7bb 9e75 193c
00000270: 7fdd f03c 0321 a53c 791a 4cbd aa30 1bbb
00000280: 9899 9b3c 76da c7bc 7979 b33c d428 8cbc
00000290: 4f6d 47bd 4a9e 4d3d 10cb 09bb 48e8 48bd
000002a0: 8139 7ebc 4a07 a6bc f91e 35bd dcb1 9ebc
000002b0: 16d4 5cbd e272 e63c 5b11 58bd 51c9 433c
000002c0: b436 6b3c c148 08bc b334 053c 3b39 3d3d
000002d0: 7265 103c 3c09 fe3c e2a0 55bb 08fc 073d
000002e0: 97af 5b3c 9ae6 3dbd 275c 5f3d 0475 cb3b
000002f0: c645 e73c ce46 573d 687d 94bc 5607 71bd
00000300: 56c8 c0bb e12f b03d 9d15 933c 7530 fabc
00000310: 9ac8 10bd 1c95 84bd 4cdb f53c ed3e e53d
00000320: 9227 9b3d 578f 8e3d f838 463d e8ee 023d
00000330: 3e66 823b 6ee5 fd3b a118 283d bb80 3c3a
00000340: 167d dd3c 91bc afbd 94b1 203a 9876 733d
00000350: 9f93 93bb 3684 083d 949d 1d3d 0f09 a8bc
00000360: 9fb5 083d 301b 8cbc 54e5 82bc 5233 dfbc
00000370: 435e 583c 6651 103c 08db 0b3d 69fa 0fb9
00000380: d74b d23c 23d3 d73c 2887 4f3d 2022 28bd
00000390: 080c 4dbd 6c5b 0f3d 49f9 cd3c 01e3 c8bc
000003a0: a49d 773c 3f4b a7bb 0bbf 343c 0d8c 013d
000003b0: 5dd7 a3bc be1d 27bd dbd7 713c 9b6d e9bc
000003c0: 00ad 6f3c 3093 01bd e859 2a3d 1e87 313c
000003d0: 36a0 873d 3993 5e3d bf0c d93c bdfa 7d3d
000003e0: 7579 e63d 1fed abbd 259e 413c 9f14 383c
000003f0: 9f24 b63d 1157 8f3d ae6f 0b3e f56f 513d

module.conv_6.bias f4 [12]
0.03534523 0.004728682 0.04654068 0.033840433 0.0025040603 0.036415588 -0.05007492 0.022582527
-0.00087242405 0.037661962 0.0025524148 0.034599148
00000000: 29c6 103d 0ff3 9a3b 71a1 3e3d 449c 0a3d
00000010: 291b 243b 8328 153d 5c1b 4dbd fefe b83c
00000020: 63b3 64ba 6e43 1a3d 6a46 273b d6b7 0d3d

module.conv_7.weight f4 [56, 12, 1, 1, 1]
0.1392035 -0.21557249 0.21339725 0.21594897 -0.2975784 0.2245892 0.18363471 0.16594307
-0.27398553 0.093537055 0.010359757 0.18202944 -0.07525692 -0.25071418 0.19805123 -0.14889626
-0.03108561 0.07415663 0.25068587 0.18048061 0.12553084 -0.053334985 -0.21640198 -0.121672824
0.18402053 0.21692997 0.2646037 -0.14162341 -0.31991562 0.071579605 -0.08484355 -0.1553939
-0.024038563 -0.18477842 -0.03926913 0.20534337 -0.30297393 -0.026650231 0.0023244154 0.16924706
-0.008482822 -0.021366052 0.08929951 -0.2691998 -0.06066391 -0.27608117 0.027224882 0.09839726
0.20304357 -0.14212695 -0.28489727 0.058095686 0.1349062 0.08662036 -0.021497196 0.22168751
0.016758129 -0.21178137 0.013591204 0.28858906 -0.25710458 -0.0016657823 -0.22178562 0.20214328
0.1164017 -0.29527262 0.051061925 -0.23811755 -0.09359408 0.023658587 -0.012421931 -0.24569309
-0.047056463 0.051317453 0.16292943 0.21392533 -0.20383304 0.03652298 0.28418338 -0.35211653
0.039219923 0.15975706 -0.2311112 -0.18980138 0.14385892 0.17704287 0.19295377 0.17565653
-0.02836871 -0.032834597 -0.13593033 -0.20533301 -0.28368756 -0.13498549 0.012110086 -0.17577428
0.30287442 -0.22681677 -0.18320645 -0.0013702536 0.09169623 0.19375166 -0.25921762 -0.15020674
-0.018556418 0.1700935 0.031636942 -0.24711262 -0.3044733 0.02939299 0.16513106 0.086653784
0.06491401 0.064811826 -0.10629069 0.25035548 -0.1499648 0.037691467 0.107213974 0.12200711
-0.014021865 0.0056548268 0.23818186 -0.100108415 0.24476944 0.296332 -0.05648698 0.16361734
-0.06359389 -0.16075385 -0.035317846 0.061563935 0.27278367 0.16193102 0.036342096 -0.12836404
0.063763276 0.07131004 0.08925544 -0.12482257 0.07413856 0.24504219 -0.19045116 -0.11808622
-0.29338175 0.24716257 0.25242233 0.06743927 0.011438135 0.12183667 -0.009047613 -0.039256386
-0.24250807 0.08269774 -0.15244801 -0.34329167 0.14413567 0.24791981 -0.22196692 -0.03366301
-0.22214474 -0.10859397 0.14936781 0.20554116 0.12504795 0.30533612 0.1596517 -0.19908825
-0.14839016 0.20288822 0.049368735 0.019571912 0.20220825 -0.16672127 0.26958585 -0.1376749
-0.3073 0.15543278 0.25789788 -0.2174314 0.16655582 -0.23214656 0.12796621 0.19831201
0.15920188 -0.11964218 -0.21969293 -0.14762205 0.30221066 -0.23148939 0.234886 0.12124364
0.09911058 -0.18004513 -0.046898518 0.064241275 -0.20301142 -0.18860032 -0.11420065 0.10893361
0.09385795 -0.20138326 0.10146517 0.13844457 -0.040629026 0.09293313 -0.110357165 0.32478207
-0.047363404 -0.110954285 0.10917921 0.0014236011 0.11637959 -0.182733 -0.14659542 0.031463165
-0.0459781 -0.026624816 0.2483828 0.16029458 -0.024432762 -0.22821303 0.12391598 0.2003793
0.25260448 0.23483552 -0.25661665 -0.07822131 -0.1404981 -0.1726985 0.09488428 0.10658414
0.12019794 0.3734671 -0.06716907 -0.17161505 0.090106055 0.17391089 0.078131676 0.014259443
-0.20953335 -0.10595037 -0.025867015 -0.23060878 -0.04970707 -0.18658698 0.17809409 -0.11116006
-0.17405804 0.087934725 -0.0068388702 0.3060461 0.2253157 0.24152833 -0.03937571 0.060347367
00000000: 5d8b 0e3e 09bf 5cbe cf84 5a3e ba21 5d3e
00000010: 325c 98be b6fa 653e bd0a 3c3e fbec 293e
00000020: d547 8cbe 5b90 bf3d f8bb 293c ed65 3a3e
00000030: 4d20 9abd 9c5d 80be f1cd 4a3e 4378 18be
00000040: 40a7 febc 6edf 973d e659 803e e9cf 383e
00000050: 288b 003e c975 5abd 7b98 5dbe 9a2f f9bd
00000060: e16f 3c3e e422 5e3e 237a 873e ba05 11be
00000070: fbcb a3be 5498 923d 75c2 adbd 941f 1fbe
00000080: 85ec c4bc 8e36 3dbe abd8 20bd 8845 523e
00000090: 661f 9bbe 9651 dabc 3855 183b 1a4f 2d3e
000000a0: 89fb 0abc dc07 afbc a9e2 b63d 8ed4 89be
000000b0: b87a 78bd 835a 8dbe b706 df3c 8184 c93d
000000c0: a7ea 4f3e ba89 11be 0ede 91be bef5 6d3d
000000d0: da24 0a3e 0466 b13d e31a b0bc 0d02 633e
000000e0: 5848 893c 37dd 58be a4ad 5e3c f2c1 933e
000000f0: 36a3 83be 6156 daba c51b 63be a6fe 4e3e
00000100: 0464 ee3d f92d 97be 4f26 513d 16d5 73be
00000110: 41ae bfbd a7cf c13c 5b85 4bbc f896 7bbe
00000120: 47be 40bd 4032 523d f9d6 263e 3e0f 5b3e
00000130: 9cb9 50be 1f99 153d 7c80 913e 9e48 b4be
00000140: 12a5 203d 5b97 233e 6aa8 6cbe 4b5b 42be
00000150: c14f 133e ba4a 353e ac95 453e 4edf 333e
00000160: 7f65 e8bc 927d 06bd 5231 0bbe d142 52be
00000170: 7f3f 91be a339 0abe 6269 463c 2cfe 33be
00000180: 5b12 9b3e a842 68be 799a 3bbe 159a b3ba
00000190: 3ccb bb3d d666 463e 2cb8 84be cccf 19be
000001a0: a103 98bc fe2c 2e3e bd95 013d 170b 7dbe
000001b0: ede3 9bbe 91c9 f03c 1e18 293e 8a77 b13d
000001c0: a3f1 843d 10bc 843d efae d9bd 982e 803e
000001d0: 5f90 19be 5e62 1a3d 0093 db3d ddde f93d
000001e0: f7bb 65bc 204c b93b f2e5 733e a405 cdbd
000001f0: d7a4 7a3e d4b8 973e e45e 67bd 4e8b 273e
00000200: 833d 82bd a89c 24be 72a9 10bd 772a 7c3d
00000210: 4daa 8b3e 3fd1 253e 73db 143d dd71 03be
00000220: 5296 823d 000b 923d 8ecb b63d faa2 ffbd
00000230: f5d5 973d 57ec 7a3e a105 43be 30d7 f1bd
00000240: 2236 96be 2f18 7d3e 803d 813e 9a1d 8a3d
00000250: 0467 3b3c 8185 f93d 703c 14bc 4ecb 20bd
00000260: 0954 78be 6f5d a93d 551b 1cbe edc3 afbe
00000270: 4d98 133e b1de 7d3e 4c4b 63be 39e2 09bd
00000280: e979 63be 8466 debd e0f3 183e 6279 523e
00000290: 920c 003e 0455 9c3e bc7b 233e cadd 4bbe
000002a0: 97f3 17be eec1 4f3e df36 4a3d 4655 a03c
000002b0: ae0f 4f3e fbb8 2abe 2807 8a3e a6fa 0cbe
000002c0: 6d56 9dbe c529 1f3e 310b 843e 56a6 5ebe
000002d0: 9c8d 2a3e d4b7 6dbe 9309 033e 4e12 4b3e
000002e0: d105 233e f606 f5bd 2ff7 60be 3c2a 17be
000002f0: 5bbb 9a3e 8e0b 6dbe f585 703e 964e f83d
00000300: 7dfa ca3d c05d 38be a918 40bd ee90 833d
00000310: 3ae2 4fbe 7120 41be 08e2 e9bd 9618 df3d
00000320: 9938 c03d 6a37 4ebe f9cc cf3d 6ac4 0d3e
00000330: 9f6a 26bd ba53 be3d f002 e2bd d649 a63e
00000340: 2100 42bd 003c e3bd 5a99 df3d 2098 ba3a
00000350: 6c58 ee3d 5c1e 3bbe 1c1d 16be 85df 003d
00000360: 8853 3cbd 491c dabc 1058 7e3e 4324 243e
00000370: 3727 c8bc adb0 69be a9c7 fd3d 3b30 4d3e
00000380: 6055 813e b978 703e 4263 83be 7f32 a0bd
00000390: bcde 0fbe e0d7 30be b052 c23d c948 da3d
000003a0: 562a f63d 1437 bf3e f08f 89bd dbbb 2fbe
000003b0: 8689 b83d b215 323e 8003 a03d 70a0 693c
000003c0: e98f 56be 82fc d8bd 10e7 d3bc b524 6cbe
000003d0: a499 4bbd a810 3fbe 4c5e 363e e3a7 e3bd
000003e0: 453c 32be 1f17 b43d 9a18 e0bb 13b2 9c3e
000003f0: 29b9 663e 3453 773e 6d48 21bd cd2e 773d

module.conv_7.bias f4 [56]
0.0186902 -0.011008538 0.11667551 0.17015249 -0.14234304 0.19883692 0.15564278 0.24884652
-0.05978339 -0.0525144 -0.101750195 -0.038083173 0.17487003 -0.21829686 0.2510502 -0.19728717
-0.09872347 -0.1571903 -0.20661683 -0.17268842 0.25605476 -0.10219659 -0.2648258 0.17859766
0.039777897 -0.15418504 -0.18152608 -0.19546303 0.15114401 -0.17788239 0.0666927 -0.076921426
0.09614327 -0.12450841 -0.05561901 -0.020588351 0.16473287 -0.07910399 -0.11178465 -0.070672765
-0.16832623 0.15994872 0.21853323 0.10882202 0.1397731 -0.007472167 -0.1381964 -0.21449251
0.14444171 0.14822456 0.04763421 0.11046059 -0.11290026 -0.15188713 -0.15820935 0.17558518
00000000: 311c 993c 285d 34bc 92f3 ee3d 743c 2e3e
00000010: 60c2 11be e89b 4b3e d260 1f3e 9fd1 7e3e
00000020: 6edf 74bd 5719 57bd 6862 d0bd 1afd 1bbd
00000030: 2111 333e 3689 5fbe a789 803e a605 4abe
00000040: 882f cabd 7ef6 20be 5d93 53be 3cd5 30be
00000050: 9c19 833e 724c d1bd 3f97 87be 4ee2 363e
00000060: 26ee 223d afe2 1dbe f9e1 39be 7627 48be
00000070: 7fc5 1a3e cd26 36be 2f96 883d fb88 9dbd
00000080: c3e6 c43d 44fe febd c2d0 63bd e7a8 a8bc
00000090: bcaf 283e 4601 a2bd 5aef e4bd e2bc 90bd
000000a0: b65d 2cbe 99c9 233e 2dc7 5f3e 14de de3d
000000b0: ae20 0f3e 14d9 f4bb 5b83 0dbe eda3 5bbe
000000c0: 87e8 133e 2ec8 173e 171c 433d 2939 e23d
000000d0: 4038 e7bd 4d88 1bbe a201 22be 9acc 333e
