model2/FSRCNN3D_epoch_10.pth (torch, 265262 bytes, 15 tensors)

module.conv_1.weight f4 [56, 1, 5, 5, 5]
000000 81 6a 15 3d c0 24 92 3d 53 01 50 3d 8f 99 9c bb
       0.036478523 0.07135916 0.050782513 -0.004779048
000010 90 5d d0 3c 14 1b b3 3d 0c ec 82 3d 38 65 66 bd
       0.02543524 0.08745399 0.063926786 -0.056248873
000020 55 0c 86 3c 35 92 8d bd 69 19 99 bd 9a d0 8b 3d
       0.016363302 -0.069126524 -0.0747555 0.06826897
000030 2f 90 eb 3b 62 4b d2 3c 53 01 89 3d 16 31 48 bd
       0.007188819 0.025670711 0.06689706 -0.048874937
000040 24 aa a4 3d ab c0 89 bd 13 8b 85 3c 2a e1 f4 bc
       0.08040264 -0.067262016 0.016301667 -0.029892523
000050 c8 cb e5 bc 13 1f 36 bb 9f 3e 8d 3d 73 73 67 bc
       -0.028051272 -0.0027789518 0.0689671 -0.014126646
000060 73 ea 69 bd 0a 89 56 bd 09 8f 2c 3d 02 aa a5 3d
       -0.057108354 -0.052376784 0.042128596 0.08089067
000070 d7 89 8f 3c 9e bb 9f bc 19 d7 9b 3c af ec 37 3d
       0.017521782 -0.019498643 0.019023465 0.044903453
000080 d7 2d d1 bc 4e 46 a2 bd 76 be 42 bd 6f a1 b8 bc
       -0.025534553 -0.07923566 -0.04754492 -0.022537915
000090 6c 0f 3e 3c 7d 22 85 3d 0f ce a0 3d 69 22 05 bd
       0.011600357 0.06500719 0.078518026 -0.03250352
0000a0 94 b2 42 3d 8d 63 7a bd 4d 92 8f bd 4e 7d 81 3d
       0.047533587 -0.061130095 -0.070103265 0.06322728
0000b0 46 57 37 bd 30 bd 40 3d 82 5b 8b bd ed 36 2a 3d
       -0.044760965 0.047055423 -0.06804563 0.041556288
0000c0 a4 d8 dc 3c 3b 66 e5 bc 71 33 ac bd 0a b8 ca bb
       0.026958771 -0.028002849 -0.08408249 -0.00618649
0000d0 57 73 75 bd 6f 1b 31 bd 80 11 6a 3d 32 76 98 3c
       -0.05992445 -0.043239053 0.057145596 0.018611047
0000e0 ef a5 a6 bd 6b 0e 1b 3d 8d cb 9b bd bd d9 92 3d
       -0.08137118 0.037855547 -0.076071836 0.071704365
0000f0 bb 0d 9b bd bd cd 96 3c cd e7 f5 3c cf 32 5b bd
       -0.07570978 0.01840865 0.030017758 -0.05351525
000100 18 a7 8d 3d 17 2b b6 3d d6 4d c8 3b 0f 3d df 3b
       0.06916636 0.088949375 0.0061127944 0.0068126987
000110 72 94 8f 3d 15 75 47 3d 8f ed 7d bd a4 cc 50 bd
       0.070107356 0.048695643 -0.06199413 -0.05097641
000120 61 4e cb bc c5 b2 8b 3d 6a 56 89 3d 8b 9d 91 bd
       -0.024817647 0.06821207 0.06705935 -0.07110127
000130 ca 41 14 bd 74 fa 91 bd 66 cc 8e 3c 5e 55 58 bd
       -0.036195554 -0.07127848 0.01743145 -0.052815787
000140 6c db 46 bd 0c 4c ad bd 2a 35 68 3d bb 63 00 3d
       -0.0485491 -0.084617704 0.056691326 0.03134511
000150 a1 c2 76 bd 01 f1 b3 3d 3b 29 3a bd 7f 1e 4d 3d
       -0.060244206 0.08786202 -0.045449477 0.05007791
000160 5e 43 50 3d 94 cb a6 3d 4e 69 02 bd e4 13 ae 3d
       0.050845496 0.08144298 -0.031838708 0.084998876
000170 9e 4e 90 bd 18 7f 35 3d 41 c0 05 3d 2c 0f 0e bd
       -0.07046245 0.04431066 0.03265405 -0.034682438
000180 41 8a 26 bc bd 90 6d 3d 94 e5 8a bd 14 3d 82 bd
       -0.010164798 0.05799936 -0.0678207 -0.06359306
000190 9d a0 b8 3d c7 6a 3e 3d 50 50 9d bc 2e e1 bf 3d
       0.090150096 0.04648855 -0.019203335 0.093691215
0001a0 50 40 8d 3d d3 0b 8c 3c 9d 38 31 3d fc 82 bc 3d
       0.06897032 0.017095482 0.04326688 0.09204671
0001b0 e1 24 17 bc 43 04 b0 3b a4 d5 a0 3c ab fd 19 bd
       -0.009225101 0.005371602 0.019633122 -0.037595432
0001c0 c5 26 b2 3c 46 ac 9c 3d 8f 49 1b bd d4 96 62 bd
       0.021747002 0.07650046 -0.037911948 -0.055319622
0001d0 b5 f9 54 3d 74 ee a6 3d a4 dd d5 38 bc a8 f8 bc
       0.05199595 0.0815095 0.00010197915 -0.030353896
0001e0 58 a7 64 bd 82 25 43 bd bc 27 81 3d bc ca 3c 3d
       -0.055823654 -0.047643192 0.06306407 0.04609178
0001f0 ff 1a 5c 3d 14 58 28 bd ff 38 f9 3c 06 86 59 3d
       0.053736683 -0.041099623 0.030422686 0.05310633
000200 dd 49 0f bd fc 13 4d 3d cf ba 1d bd f1 94 01 3b
       -0.03498255 0.050067887 -0.038508233 0.0019772614
000210 e6 ca 35 3c 72 b8 0d 3d 76 32 31 bd e3 3a 6d bd
       0.011095738 0.03459973 -0.043261014 -0.057917487
000220 8f 62 15 bd 2a 5d 7d 3d 47 47 92 3c de 10 09 3d
       -0.036470946 0.061856426 0.017856253 0.03346335
000230 05 29 a3 3d 30 26 ec bc 80 c4 a1 bd 9e 7f 2b 3c
       0.07966808 -0.028826803 -0.078988075 0.010467438
000240 45 61 a0 bd cb 5e b5 bd 1b ce 7c bc 94 ca 97 3d
       -0.07831053 -0.08855971 -0.015429999 0.074116856
000250 0c 42 8c 3d fb fb 36 bd 8b 6e 27 bd 76 e6 07 3d
       0.06848535 -0.0446739 -0.040876906 0.03317877
000260 b2 7a 1c 3d 9f 29 64 bc ff d4 2f 3d 38 13 17 bd
       0.03820295 -0.013925939 0.04292774 -0.036883563
000270 a0 f1 7c 3d bd eb 40 3d 4f 77 d0 bc b0 52 83 3c
       0.06175387 0.047099818 -0.025447516 0.01603064
000280 c7 a3 4e bd 46 53 73 3d 9d f4 a9 bc fb 93 58 3d
       -0.05044916 0.059405588 -0.020746524 0.0528755
000290 43 90 7a 3c f0 cd 66 bd 35 a1 28 3d 22 50 42 3d
       0.015293184 -0.05634874 0.041169364 0.0474397
0002a0 ba e7 0c 3d 9d 9d 4c 3c 10 5d b3 bd 81 19 2e bd
       0.03440068 0.01248875 -0.08757985 -0.04250479
0002b0 3c 3e a0 3d 5f 25 41 bd cd 13 b1 bb 06 8b 01 bd
       0.0782437 -0.04715478 -0.0054039718 -0.031626724
0002c0 5e 1a 17 bc 67 fe cf bc 56 ae 41 3c d7 3e a3 3d
       -0.009222595 -0.025389863 0.01182135 0.0797097
0002d0 b0 8e 6f 3c be 66 9b bb 49 96 c5 3c e6 39 f8 ba
       0.014621422 -0.0047424724 0.024119513 -0.0018938154
0002e0 10 8c d3 bc 18 e8 e5 bc d4 67 fa 3b d8 8f 99 bd
       -0.025823623 -0.028064772 0.007641772 -0.07498139
0002f0 52 34 d0 bc 4a 45 b4 bd 55 64 85 3d 88 89 ee 3c
       -0.025415573 -0.08802278 0.065132774 0.029118314
000300 41 01 78 bb 50 a1 34 3d c8 ee 2b 3d 35 e2 89 3d
       -0.0037842544 0.044099152 0.041975766 0.06732599
000310 bc d1 81 3d c2 d3 84 3d bd a3 9e bc 4f 8b b4 bd
       0.06338832 0.06485702 -0.019365186 -0.088156335
000320 b3 1c cc 3c 14 41 0a 3d a5 09 3c bd db 2a 5b 3d
       0.024916029 0.03375347 -0.045907635 0.053507667
000330 f7 71 00 bd ec 0e 3e 3d 67 26 81 3d 7a c6 99 3c
       -0.031358685 0.04640095 0.06306153 0.018771399
000340 52 75 d4 bc f3 82 b4 3c 55 39 d1 3c 9a 72 a7 3d
       -0.025934849 0.022035098 0.025540033 0.081761554
000350 17 0b a6 bd 06 40 81 bd cd 9b cc bc cf dd 1a bd
       -0.08107584 -0.063110396 -0.024976635 -0.03780919
000360 91 90 52 3d df 58 39 bd 0d 76 7b 3d 65 ab 2e bd
       0.0514074 -0.04525077 0.06139188 -0.042643923
000370 99 05 43 3d ff 02 58 3d aa 63 7d bc ad ab 72 bd
       0.04761276 0.052737232 -0.015465656 -0.059245754
000380 88 f8 fa 3c da 9d 87 bd 2d ee 47 bd b6 09 e5 3c
       0.030636087 -0.06621905 -0.048811127 0.027958732
000390 76 24 38 3d 06 e7 99 bd 52 1b 35 bd c2 eb 10 bd
       0.044956647 -0.07514767 -0.044215508 -0.035381086
0003a0 37 3b 28 3d 21 d4 4c bc 60 85 ae bd 66 f2 33 bc
       0.041072097 -0.012501747 -0.08521533 -0.010983085
0003b0 7b 02 89 3b 30 01 bb bd 4a d1 fc 3c 02 da 44 3d
       0.004181204 -0.09131086 0.030861516 0.04805947
0003c0 a2 34 12 3d 3e c7 0d 3c 12 4f a9 bb 10 5b 64 bb
       0.035694726 0.00865346 -0.0051668966 -0.0034844317
0003d0 24 78 58 bd 9e d9 96 bd f8 ad d4 3c e0 39 87 bd
       -0.05284895 -0.07365726 0.025961861 -0.06602836
0003e0 69 17 55 bd bc f5 34 bd 0b ba a8 3b e8 12 33 bd
       -0.05202428 -0.044179663 0.005149131 -0.043719202
0003f0 b2 22 3f bc 4a 83 a5 3d c1 23 9a bd d3 88 3a bd
       -0.011665987 0.08081682 -0.07526351 -0.045540642

module.conv_1.bias f4 [56]
000000 4d 75 3a 3c b7 4f 47 3c 24 e6 15 3d 1d 13 57 3c
       0.011380506 0.012165002 0.036596432 0.013127116
000010 e5 fb 63 3d 43 50 78 3d 47 ac 4f bd 7b f9 16 3d
       0.055660147 0.06062342 -0.050701406 0.036859017
000020 f4 85 8e bc 6b fd 7c 3d 5f 32 13 bd f3 05 91 3d
       -0.017397858 0.061765116 -0.03593671 0.07081213
000030 83 9d 9e bd f5 9a ce 3c 29 4a 8a 3d 9c 6b a7 3c
       -0.07744887 0.025220374 0.06752426 0.020437054
000040 0c c7 05 bd 48 fb 96 3d 9f b1 a5 bb 26 1a f0 3c
       -0.03266053 0.07372147 -0.0050565745 0.029309344
000050 de a8 b0 bb 73 f9 8d 3d c1 97 99 3b 6e 86 a4 bd
       -0.0053912243 0.06932344 0.00468728 -0.08033453
000060 4b c4 bb bc e8 f0 1c bd 85 92 c1 3d f8 5d 4b 3d
       -0.022920748 -0.038315684 0.094517745 0.049650162
000070 06 d7 b6 3b 8f fb b2 bc e8 f5 a5 bb 0c 8a d9 3c
       0.005579832 -0.021848468 -0.0050647147 0.026555084
000080 53 39 a0 3d 83 ed 8c 3d 53 c8 09 bd f9 74 43 bd
       0.07823434 0.06881239 -0.03363831 -0.047718976
000090 ae 2b 28 3d 6b ac ae 3b 32 87 33 bd aa c6 52 bc
       0.04105728 0.0053306124 -0.043830104 -0.012864748
0000a0 46 f3 9d bd 80 c6 20 bd 83 b7 9b bd da 56 9c bd
       -0.07712416 -0.039251804 -0.076033615 -0.07633753
0000b0 2d 28 84 3c 92 f2 a6 bc d0 71 8c bd 10 36 98 bd
       0.016132439 -0.020379338 -0.068576455 -0.074321866
0000c0 3e 56 9c 3d f8 ab 1b 3d d5 3f f1 bb 1b 39 97 3a
       0.07633637 0.0380058 -0.0073623457 0.0011537404
0000d0 21 66 a9 bc af 21 20 3d 11 96 ea bc 2c 10 6d 3c
       -0.020678582 0.039094623 -0.02863601 0.014469188

module.conv_2.weight f4 [12, 56, 1, 1, 1]
000000 42 96 bd 3b 76 d6 e2 3b 76 e7 ae bc c5 fb 20 bd
       0.0057857344 0.0069225384 -0.021350604 -0.039302606
000010 f8 f1 d6 3d ef d3 01 3e 72 56 73 3d b8 2b cb 3d
       0.104953706 0.12678503 0.059408613 0.09920448
000020 00 53 a1 3d 8a 75 ef 3d 4b e5 c5 bd da 1d dd 3d
       0.07877159 0.11692341 -0.09662875 0.10796709
000030 23 b6 07 be bd 4b d6 3c c2 93 9a 3d 6c 48 91 bb
       -0.13253073 0.026159162 0.07547714 -0.004433682
000040 9c d8 d9 3c b7 55 f0 3d 91 5c 0e 3d 08 4d 34 3c
       0.026592545 0.11735099 0.034756247 0.011004694
000050 a1 4a 9c 3d 29 84 4b 3d 30 d1 4c bd 12 5a 01 bd
       0.07631422 0.049686585 -0.050004184 -0.03158004
000060 20 66 eb 3d 16 e0 d0 bd 66 9e bc 3d 5e ed f7 3c
       0.11494088 -0.10198991 0.092098996 0.030264553
000070 3f 0b c3 bd ef d0 b9 bb a4 7a 13 3d 2d 7d 27 bd
       -0.095236294 -0.005670659 0.03600563 -0.04089086
000080 9b c8 c6 3c 14 80 b6 3d 68 f6 57 bd 4c e1 59 3d
       0.024265578 0.08911148 -0.052725226 0.053193375
000090 af 00 5e bd 2e 1f 15 3d 4d e0 c7 bd 6c c3 3b bd
       -0.05419987 0.03640669 -0.09759579 -0.045840666
0000a0 d3 00 95 3d 9c 2b e6 3d 8d 00 9d 3d c5 a7 aa 3d
       0.07275548 0.112387866 0.07666121 0.08332781
0000b0 c9 c9 b3 bd 71 64 c0 3d 79 9d 7a 3d 19 7e 08 be
       -0.08778722 0.09394158 0.061185334 -0.13329352
0000c0 8a f4 e8 3d df 49 c4 bd b4 5e 06 be 4a f3 28 3d
       0.11374767 -0.09584402 -0.13122064 0.041247644
0000d0 91 0d 05 be 30 43 0c 3e 05 20 8f 3d ed eb f5 3d
       -0.12993456 0.13697505 0.06988529 0.1200789
0000e0 a4 6e 0a 3e a8 14 e2 bc e9 dc 76 bd de 87 81 bd
       0.13518769 -0.02759774 -0.06026927 -0.06324743
0000f0 4a b1 51 bc 66 89 aa 3d 6f 22 fb 3d 77 d6 c1 3d
       -0.012798617 0.08326988 0.12262427 0.09464734
000100 ce 32 17 be 65 2f ed 3d b2 11 fc bd 40 1c 6a bd
       -0.14765474 0.115813054 -0.123080626 -0.057155848
000110 af ff 22 3d 27 28 d5 bb 38 1b 32 3d e4 72 51 bd
       0.03979462 -0.0065050307 0.04348299 -0.05113496
000120 21 e0 30 bd c3 7e b8 3d cd 5a 89 3d 98 19 f4 3d
       -0.043182496 0.09008553 0.06706772 0.11918944
000130 a2 c6 00 be 7b ef 73 bd c6 77 5a bd d2 b3 09 3d
       -0.12575772 -0.05955456 -0.05333688 0.033618756
000140 10 61 8a bd 7c 71 0b be f3 62 ab bd 90 be 82 3d
       -0.067567945 -0.1361751 -0.083684824 0.06384003
000150 ee b5 17 bd 7b e4 33 3d 41 86 18 3e b4 5c d6 ba
       -0.037038736 0.043919068 0.14894964 -0.0016354532
000160 9c 24 eb bd bd e2 10 3d f6 72 cc 3c 39 8e 0c 3e
       -0.11481592 0.035372484 0.024957161 0.13726129
000170 dd 46 9a 3d ee f5 93 3d 78 9a e5 bd f6 6d 7a bd
       0.07533047 0.07224642 -0.11211103 -0.061140023
000180 0f 71 8c 3c 36 c0 a8 3d a9 7f b7 3d 48 ac e0 bb
       0.017143754 0.08239786 0.08959896 -0.006856475
000190 42 be 80 bb a6 a9 99 3d 7e 20 aa bd a6 99 07 3e
       -0.0039289305 0.07503061 -0.08306979 0.13242206
0001a0 0b d5 2e 3d ec 25 bd 3d d4 27 2a 3d a9 61 a6 bd
       0.042683642 0.09235749 0.04154189 -0.08124096
0001b0 8e c7 fb bd 1d b5 19 3d 0a 97 31 3b a5 19 88 3d
       -0.122939214 0.03752624 0.0027098083 0.06645516
0001c0 a5 2a cc bd c4 c9 f1 3b 84 cc 06 be 44 50 a8 3d
       -0.09969071 0.0073787887 -0.13163954 0.082184345
0001d0 25 af 96 bd 2b 8b 8d bd a5 39 b9 bd ef 75 f1 3d
       -0.07357625 -0.0691131 -0.09044198 0.11790072
0001e0 3b e7 d9 bd 21 22 d2 bd 74 59 04 be a5 13 e7 3d
       -0.10639807 -0.10260416 -0.12924749 0.11283044
0001f0 25 ee 00 be 31 ba 94 bd 86 26 81 3c 3f 15 30 3d
       -0.12590845 -0.07262076 0.01576544 0.04298901
000200 de be e0 bd 19 ef 76 3d 10 47 05 be f3 ac 2f bd
       -0.10973905 0.060286615 -0.1301539 -0.042889547
000210 63 c9 cf bc db 7d 53 3d 9f eb 50 3d cf dd d7 3d
       -0.025364583 0.051633697 0.051005956 0.105403535
000220 c7 ed cd 3d 54 30 13 bd 60 22 47 3d 07 12 4f bd
       0.10055118 -0.03593476 0.048616767 -0.0505543
000230 74 57 ee bd 9a 71 f6 bd 9f 50 21 3d 55 20 bc bd
       -0.11637774 -0.120333865 0.039383527 -0.09185854
000240 8d 7e 92 bc 13 e9 08 3e 14 0a 08 bd b7 59 2f bd
       -0.01788261 0.13370161 -0.033212736 -0.042810168
000250 be 84 c3 3d 5a db 1e ba 7d f5 f0 bd 87 55 c8 3d
       0.09546803 -0.00060599076 -0.11765573 0.09781938
000260 80 42 02 bd 28 a0 8f bd 44 85 0f 3c ff b1 64 bb
       -0.0318017 -0.07012969 0.0087598 -0.0034896133
000270 82 0a b6 3b 84 29 60 3d 63 0c ea 3c c6 16 a5 3d
       0.005555452 0.054727092 0.02857036 0.08060984
000280 03 ea 09 3e 3c a0 d0 3d 30 ee 43 bd 2d d5 26 bc
       0.13468175 0.10186812 -0.047834575 -0.010182661
000290 09 70 ab 3d 58 35 27 bd 47 3f 08 3e f7 16 ac 3b
       0.083709784 -0.040822357 0.13305388 0.005251761
0002a0 e1 37 90 3d 3d 65 e9 bd a8 57 e7 bc d0 b1 0e bc
       0.07041908 -0.11396263 -0.02824004 -0.008709386
0002b0 f8 91 05 3e 6d 8a 85 3b 28 ac 66 bd e7 76 a0 bc
       0.13043964 0.0040753395 -0.056316525 -0.019587947
0002c0 49 5c c2 bd d7 c7 a7 bd 26 0f d8 3d 9c 3f 82 bd
       -0.09490258 -0.08192413 0.10549764 -0.06359789
0002d0 00 70 88 bd 08 dc 4a 3d da 86 52 3c 5c e2 15 3d
       -0.06661987 0.049526244 0.012849534 0.036592826
0002e0 62 72 b9 bd 22 c9 55 bd 26 9e 20 3d 6d 74 f3 bd
       -0.0905502 -0.05219377 0.039213322 -0.11887441
0002f0 35 11 7d bd 9e f4 0c 3e 46 d4 9e 3d fb a3 06 3e
       -0.061783988 0.13765189 0.07755332 0.13148491
000300 fa 91 0b 3e 2a 17 d9 3d f1 cd da bd 8e 0e dd 3d
       0.13629904 0.10600121 -0.106838115 0.10793792
000310 22 27 c4 3c a6 c2 cc bd 17 66 f1 bd 19 16 86 bd
       0.023944441 -0.09998064 -0.1178705 -0.065471835
000320 84 4b 06 bd 87 54 05 bd cf 03 e0 bb 96 a0 db 3d
       -0.03278686 -0.032551315 -0.0068363915 0.10723989
000330 2b 1f 64 bc 8e 9f 06 be c4 92 ff bd fc 6a 7e bd
       -0.013923447 -0.13146803 -0.12479165 -0.062113747
000340 89 4c 0a 3e 2b a2 70 3d fb 45 f5 bc 31 8b b4 bd
       0.13505758 0.058748405 -0.029940596 -0.08815611
000350 85 8d e1 3c 96 76 85 3d b0 11 4c bd df 97 52 bd
       0.027533302 0.06516759 -0.049821556 -0.051414367
000360 e1 f8 0f 3d 6e ec 87 3d 6c 14 23 bd 10 33 42 3d
       0.03514946 0.06636892 -0.039814398 0.04741198
000370 ef 3c 8c 3d 88 db f1 3d 1c a0 3a bd 18 4f 1d bd
       0.0684756 0.118094504 -0.04556285 -0.038405508
000380 99 32 b8 bc db d1 8f bd c4 f4 c0 bb 54 f7 1f 3d
       -0.022485064 -0.07022449 -0.0058885533 0.03905423
000390 82 b3 d3 bc 56 d2 95 3d 60 d2 82 3d 83 21 2b 3d
       -0.025842432 0.07315509 0.06387782 0.041780006
0003a0 14 7a 13 bd 7e 7b bc 3c 0c 2f 9c 3d 7f ab 07 3d
       -0.036005095 0.023008104 0.07626161 0.033122536
0003b0 11 3f f3 bd 95 a4 4b bd 8b d9 8f 3d 92 39 42 3d
       -0.11877263 -0.049717505 0.07023915 0.047418185
0003c0 b7 5b 29 3d fd 0f 90 bd 59 4c 1a 3d a0 b7 c0 3d
       0.04134723 -0.070342995 0.037670467 0.09410024
0003d0 de 39 6f bd 6d 76 a9 3d 19 50 83 3d de 16 08 3d
       -0.058404796 0.08274541 0.06411762 0.033224933
0003e0 6b fb b3 3d 23 f5 57 3d a1 3c ce bd 17 ad ab 3d
       0.087881885 0.052724015 -0.10070158 0.08382624
0003f0 98 17 19 bd 82 46 c3 3d b6 75 00 3d 14 47 05 bd
       -0.037376016 0.09534933 0.031362258 -0.03253849

module.conv_2.bias f4 [12]
000000 11 ed 5d 3d 8a ce dc 3d 46 6d cf bc 75 84 d0 bd
       0.054181162 0.10781582 -0.02532066 -0.10181514
000010 67 41 6d 3d f8 2d d0 bc 63 fe 90 bd 36 63 00 3e
       0.0579237 -0.025412545 -0.070797704 0.12537846
000020 7f 08 c7 bd 80 57 5d 3c 9f aa 2b 3d 76 85 bf 3d
       -0.097184174 0.013509631 0.041910764 0.093516275

module.conv_3.weight f4 [12, 12, 3, 3, 3]
000000 21 53 f5 b9 3c 18 22 3c 30 b8 22 bc 0d 90 26 bd
       -0.00046791977 0.009893473 -0.009931609 -0.04066472
000010 c2 6d f7 3c 90 f1 06 3d 7e 9e 16 bd c8 0e 9e 3c
       0.030203704 0.032945216 -0.036772244 0.019294158
000020 f4 9e 13 3c 30 3e c9 bb 33 36 33 bc fc 3e 40 bc
       0.009010065 -0.0061414465 -0.010938215 -0.011733767
000030 2e f4 58 3c 32 02 ca 3b f4 ea c2 3b 05 b1 46 bd
       0.013241811 0.0061648125 0.0059484188 -0.048508663
000040 80 b9 45 3d fc 75 ac 3c c7 2b e0 bc 6a b7 9b bc
       0.04827261 0.021052353 -0.027364625 -0.019008357
000050 e1 8d 25 bd 05 ad 45 3c 78 bc 6f bc 95 97 c3 bc
       -0.04041851 0.012065177 -0.014632337 -0.02387599
000060 77 c9 63 3d 41 6b 43 3d 77 de 48 3c 72 25 d9 bc
       0.055612054 0.047709707 0.012260071 -0.026507113
000070 ab 03 08 3d 13 d5 9d 3c 16 9b 3c 3d 02 ae da 3c
       0.033206623 0.01926664 0.04604634 0.026694302
000080 64 6f 02 bd 61 d7 08 bd 8e 0b 88 3c 06 e9 43 bd
       -0.03184451 -0.033408526 0.016607072 -0.04782965
000090 60 dc e6 bb 54 68 ab 3c 88 17 16 bd e8 01 3b 3d
       -0.0070453137 0.020923771 -0.036643535 0.045656115
0000a0 b2 cf 0b 3d 05 50 70 3b 4e 71 06 bc b2 34 72 3d
       0.03413362 0.003666879 -0.008205725 0.059132285
0000b0 90 5d 77 bc 8a 24 0f 3d fc 17 10 bc 18 27 3c bd
       -0.015097991 0.034946956 -0.008794781 -0.04593572
0000c0 b7 bd 43 bd b2 f5 21 3c de 77 34 3d 84 4e 01 3c
       -0.047788348 0.0098852385 0.044059627 0.007892255
0000d0 7d e3 5e bc 2f c6 10 bd 9f 89 f4 3c 79 be b5 3c
       -0.013604042 -0.035345253 0.02985078 0.022185551
0000e0 54 ec 0f bd 99 8c 9f 3a 44 63 cb 3c 73 1f 3a bb
       -0.03513749 0.0012172639 0.024827607 -0.0028400093
0000f0 af 82 31 bd 8a 31 88 bc 4e d3 31 3c 07 b8 8c 3c
       -0.04333752 -0.016625185 0.010853602 0.017177595
000100 b2 fb 03 3d 2d ad 64 3d d0 30 11 bd 67 6d 2f bd
       0.032222457 0.055829216 -0.03544694 -0.042828944
000110 51 88 02 bc c0 62 8b 3c 77 b3 3b 3d ef 61 3d bd
       -0.007967071 0.017014861 0.045825448 -0.046235975
000120 c0 e7 11 3d f7 db 11 bd e7 e8 e5 bc b5 78 88 3b
       0.035621405 -0.035610165 -0.028065158 0.00416478
000130 f8 e9 51 bc 93 af 0c 3d b7 ca a7 3c 0b 99 3d bd
       -0.01281213 0.034347128 0.020482404 -0.04628853
000140 77 15 03 3d 22 34 31 bd 90 97 fc bb 6d 9c 9c 3c
       0.032002892 -0.04326261 -0.0077084973 0.019117558
000150 1d fa 0e 3d 46 e8 4d 3c c3 b7 b5 3c 9e 7d 41 b9
       0.034906495 0.012567585 0.022182351 -0.0001845271
000160 2e 12 6e 3b 37 8d c4 3c e3 d9 18 bd bc 6d d0 3c
       0.0036326754 0.023993118 -0.037317168 0.02544295
000170 24 16 d4 3c c7 50 02 bd e0 59 67 3c 06 0d fc 3b
       0.025889464 -0.031815317 0.014120549 0.007691982
000180 65 cb 01 bd dc cf 57 bd ca 5c 93 3b 07 cb 1f bd
       -0.031688113 -0.052688465 0.0044971453 -0.03901198
000190 58 b1 d6 bb 73 f1 aa 3c f5 a4 81 bb fc 71 0e 3d
       -0.0065519027 0.020867085 -0.003956432 0.034776673
0001a0 2c 98 4f 3d 64 5b 35 3d af 0e 8d 39 23 8c 44 3d
       0.05068223 0.04427661 0.00026904556 0.047985207
0001b0 f8 5c 05 3c 52 84 5a 3d 41 5f 63 3d 84 5c 6c 3d
       0.008139841 0.053348847 0.055510763 0.057705417
0001c0 8a 10 52 bc 57 d0 05 3d 66 ad f1 3c 77 77 1f bc
       -0.012821326 0.03266939 0.029501628 -0.0097330725
0001d0 84 15 68 3c c4 e2 26 3d a2 c5 89 bb 08 dd 22 bd
       0.014165286 0.040743604 -0.004204468 -0.039761573
0001e0 5d 31 91 3c 7f 3c 32 bd 8f 1d d0 3c fa 55 06 3b
       0.017723734 -0.043514725 0.02540472 0.0020498023
0001f0 ba f6 2e 3d 99 a4 0a 3c 18 f6 f5 3c a7 58 fc bc
       0.042715766 0.008462095 0.030024573 -0.030803991
000200 dc 18 05 3d b6 d0 35 3d f9 b8 d8 bc 2a 08 cd ba
       0.03249441 0.044388495 -0.02645539 -0.0015642692
000210 70 02 76 3c 99 30 90 3c ad e0 97 bc c9 bf 0b bb
       0.01501523 0.017601298 -0.018539751 -0.002132403
000220 e6 fb 9d bc 6b 71 c3 3c 34 3c c2 bb b9 fc 09 bd
       -0.019285154 0.023857793 -0.005927587 -0.03368828
000230 e8 20 a6 bc 09 40 29 bd f9 d4 07 3d 65 44 a6 bd
       -0.020279363 -0.041320834 0.03316209 -0.08118514
000240 52 df 0b 3d f2 65 36 3d 2e c5 1c 3d 11 af b3 3c
       0.03414852 0.044530816 0.038273983 0.021934064
000250 80 11 50 3c bb 93 74 3c 21 14 59 bd f1 a2 0d bd
       0.012699485 0.0149278 -0.052997712 -0.03457922
000260 5a a7 b2 3c e2 b6 98 3c 86 55 d7 3b e0 cb 4d bc
       0.021808315 0.018641893 0.0065714745 -0.012560815
000270 fa b1 ff bc bc c4 40 bd 3c ca a0 3c 12 0b 83 bc
       -0.031212796 -0.04706262 0.019627683 -0.01599649
000280 be e6 33 bd ea 8a 97 3c 9c d1 2a bd 8e 72 d9 3b
       -0.043921225 0.018498857 -0.041703805 0.0066359704
000290 12 c4 ac bc 6f 57 f2 3c b3 be 60 3d 6b 23 65 3c
       -0.021089587 0.029582707 0.054869365 0.013985495
0002a0 5e 58 89 3c e8 ab 48 3d 67 31 a6 3c a1 ed 27 bb
       0.01676577 0.048992068 0.020287229 -0.0025623816
0002b0 f9 9c 26 3d 20 7d d0 bc 68 9f e5 3c ef 67 24 3c
       0.040677045 -0.02545029 0.028030112 0.010034545
0002c0 a4 3e b7 bc a5 d4 4d bd 9b bc 4b bd de aa 4d bd
       -0.022368737 -0.05025162 -0.049740415 -0.05021178
0002d0 47 d9 bf bb 6e 7e 30 3d 37 2e 1c 3d 56 d1 f5 bb
       -0.005854759 0.043089323 0.03813001 -0.0075017614
0002e0 1e a4 fb 3c 67 39 d9 3c 67 49 0a 3d 46 5f 95 bc
       0.030717906 0.02651663 0.03376141 -0.018233906
0002f0 8e a4 5c 3d f7 32 9a 3a 07 e0 d7 3b b2 0a 53 3b
       0.05386787 0.0011764456 0.0065879854 0.003220242
000300 92 95 f4 3c 20 f8 f3 bc 91 4e 89 3c de 24 5a 3c
       0.029856477 -0.029781401 0.016761096 0.013314454
000310 ab dd 13 3d c8 e1 58 bc 11 3b 8d 3c de df 93 bb
       0.03610007 -0.013237424 0.01724008 -0.004512771
000320 f3 4c b1 3b 62 09 e2 bc d1 bd 15 bd fc c0 20 3d
       0.0054107844 -0.027592365 -0.036557976 0.039246544
000330 b7 e5 45 3d b0 68 f8 3c 03 8e 4b 3d ff 5f 58 3d
       0.048314776 0.030323356 0.04969598 0.052825924
000340 75 7d 4f bd 90 93 9c bc c1 93 1b 3c a1 ef 4f 3d
       -0.050656755 -0.019113332 0.0094956765 0.050765637
000350 43 69 e6 3c 3e 47 2f 3d 81 c7 70 3d b3 e4 d1 3c
       0.028126365 0.04279255 0.05878401 0.025621748
000360 ce 4f 88 bc e9 0e 32 bd 0b d9 4f 3d e4 1e 44 bb
       -0.016639616 -0.04347125 0.050744098 -0.0029925639
000370 62 b4 3f bd 8e 98 3c 3d 87 14 25 bc 92 b5 df bc
       -0.046802886 0.046043925 -0.010075695 -0.02730826
000380 8e 7f 1e bd 4d db 10 bd cb 15 36 bd 9d 8b 42 3d
       -0.038695864 -0.03536539 -0.044454377 0.047496427
000390 20 44 83 bc 64 f5 e9 bb 4e b9 38 3d e4 55 08 bc
       -0.016023695 -0.0071398485 0.045098595 -0.008321259
0003a0 e7 5c 4a 3d 19 cd 8f 3c 4d 35 5b bd 54 19 1c bd
       0.049405005 0.017553853 -0.05351763 -0.038110092
0003b0 d5 4c 6e bc 6b 44 e9 bc b4 d8 39 bd 59 5e 36 bd
       -0.014544685 -0.028475007 -0.04537268 -0.04452357
0003c0 9d 6a 04 3d e0 b3 0c 3d 87 9c 0a bd 43 4b 7c bc
       0.032328237 0.03435123 -0.033840682 -0.015398803
0003d0 3a e5 87 3c f6 c9 1c bd 74 a2 4f bd 76 35 b5 bc
       0.016588796 -0.038278542 -0.050692037 -0.022120219
0003e0 30 4f f8 bc d7 e0 a2 bc 36 c0 d9 bb be 1c c5 3c
       -0.030311197 -0.019882603 -0.006645228 0.024061557
0003f0 b5 df 66 bc 5d 85 dc 3c 49 b6 3d bd 95 0b 81 bc
       -0.014091422 0.026919061 -0.04631642 -0.015752593

module.conv_3.bias f4 [12]
000000 63 0d 44 bd a6 d4 5a 3d 53 9e 70 3b dc 59 06 3d
       -0.04786433 0.053425454 0.0036715462 0.03280054
000010 cd 6d a6 3c b7 af 09 bd a7 63 41 bd e4 c8 17 bd
       0.020316029 -0.03361484 -0.047214177 -0.03705682
000020 00 c9 62 bd 2f db bb 3c 78 6d 57 3d 38 5b 07 3d
       -0.05536747 0.022931663 0.052594632 0.033045977

module.conv_4.weight f4 [12, 12, 3, 3, 3]
000000 a4 b7 ad 3c 25 9e 0f bd 7a 49 41 bd 72 92 c2 ba
       0.02120573 -0.035062928 -0.047189213 -0.001484467
000010 68 50 08 3c 17 f8 15 3d fa 52 b1 bc f9 b5 92 bb
       0.008319952 0.03661355 -0.021646012 -0.0044772592
000020 29 51 80 3c fa 13 f7 3c 9d 3c 64 bd 0c 94 0b 3d
       0.0156637 0.030160893 -0.055721868 0.034076735
000030 a0 3c 81 3c e5 e3 65 bd c1 9c 52 3d 09 1f 59 bd
       0.015775979 -0.05612554 0.051419023 -0.053008113
000040 42 a8 f6 bc b5 5f d9 3c 0c b2 16 bc 63 66 66 3b
       -0.030109528 0.026534894 -0.009197723 0.0035156242
000050 39 ef 8e 3a 84 a4 3e 3d 7c 91 b1 bb e3 df 59 bd
       0.0010905034 0.046543613 -0.0054189544 -0.05319203
000060 81 6e 5f bd e5 6a 4a bd 52 2d c7 bc b8 a3 12 bd
       -0.054548744 -0.04941835 -0.024313603 -0.035800666
000070 60 7b 03 bd 0e f2 34 bd 82 ce 78 3d 34 2e 03 3c
       -0.03210008 -0.044176154 0.060743816 0.008006621
000080 2e 2d e1 bc e3 b4 22 3d 84 c2 7d 3d 8b 94 2e 3d
       -0.027487364 0.03972329 0.061953083 0.04262213
000090 6f c6 1c bd c4 8d aa 3b 8e a0 98 bb ba 7e 2f 3d
       -0.03827518 0.005204888 -0.0046578115 0.042845465
0000a0 06 62 83 3d d4 3d 15 bd 13 7e 45 3d fa 76 e6 bb
       0.06415181 -0.036435917 0.048215937 -0.007033226
0000b0 4b bf d8 ba 4d 68 5b 3d 6e 8d 28 3d 67 69 26 3c
       -0.0016536502 0.053566266 0.041150503 0.010156966
0000c0 4f 4b 4b 3d d4 e4 dc bc 44 a1 44 3c 07 31 a4 bb
       0.049632367 -0.026964583 0.012001339 -0.0050107273
0000d0 54 c4 01 bd 1c 19 41 3d f2 c5 34 bd e5 d6 63 3d
       -0.031681374 0.047143087 -0.044134088 0.05562486
0000e0 19 54 57 3c 9f 44 ee bc 15 d4 12 bc a3 00 30 bc
       0.013142609 -0.029085455 -0.008961697 -0.010742339
0000f0 44 e1 27 bd cb d9 81 bc ca ad b0 bc 89 f0 5e bd
       -0.040986314 -0.015850922 -0.021567244 -0.05442861
000100 7e c1 42 bd 72 ae a8 3c b3 1f f3 bc 46 04 3a bd
       -0.04754781 0.020590995 -0.029678201 -0.04541423
000110 8d 1b 40 bd 57 79 87 3a e8 e5 be bc 13 af 32 3d
       -0.046901274 0.0010335845 -0.023302987 0.043623995
000120 33 bf 05 bd 8d 7c 61 3d a0 80 24 3d 1b 42 07 3d
       -0.032653045 0.05505042 0.04016173 0.033022027
000130 36 a1 bc bb 76 d9 dc 3c f8 fa 0f 3c b2 37 a9 3c
       -0.0057565225 0.026959162 0.008787863 0.02065644
000140 0a 91 52 3c 41 4d 5e bc fc da c0 bc 1c 98 1f bc
       0.012851963 -0.013568223 -0.02354192 -0.009740856
000150 f2 7d d2 3c 6e 18 cb bc 3e c4 ee bc 65 b2 4f bc
       0.025694821 -0.024791922 -0.02914631 -0.01267681
000160 6b d7 ad 3c 8a 19 03 bd 28 a7 45 bd ae 31 b5 bc
       0.021220883 -0.032006778 -0.048255116 -0.022118416
000170 41 0a c7 bc fa 77 47 3c a4 6b f8 bc 5e d5 ee 3c
       -0.024296882 0.012174601 -0.030324765 0.029154476
000180 63 c1 c5 bc cb d6 3d bd b8 c4 2b 3d 8d 2c 56 3d
       -0.024140066 -0.04634742 0.041935652 0.05228858
000190 17 63 32 3d 43 1f 4c bd 97 f4 55 3d b7 f0 a6 bc
       0.04355153 -0.0498345 0.052235212 -0.020378454
0001a0 b4 65 19 3c e7 d0 dd 3c 34 1a fd 3c 0d 4e 75 bb
       0.009362627 0.027077151 0.030896284 -0.0037430555
0001b0 b1 57 d7 3c 00 ec 10 bd 02 f5 bc 3c 14 9a 26 bd
       0.026286932 -0.035381317 0.023066048 -0.040674284
0001c0 70 1b 50 b9 d7 02 08 3c 49 f0 46 3d af 67 06 3d
       -0.00019846647 0.008301458 0.048568998 0.032813724
0001d0 d8 8a 37 bd f7 76 f0 3c f3 bc 49 3c c9 7c 20 bd
       -0.044810146 0.029353602 0.012313115 -0.039181504
0001e0 8b 5e c8 bc 8a 30 1b bd 9c eb ec 3b 17 f7 3d bd
       -0.024459144 -0.037888087 0.0072302353 -0.04637822
0001f0 9c 04 39 bd 0c 3d 8e 3b 3e f3 59 3c 24 60 d5 3c
       -0.04517041 0.0043407734 0.013302622 0.02604682
000200 d6 1c 8c bc c5 59 50 ba f2 a6 20 3c 36 20 5e 3d
       -0.017103594 -0.0007947947 0.009805428 0.054229937
000210 37 08 65 3d f9 f1 df bc b8 2e 6c 3c 21 01 06 bc
       0.055916037 -0.027337061 0.0144154355 -0.00817898
000220 f9 f4 a7 ba 7e 85 d1 bc 91 9c 18 bc cc 58 7a 3d
       -0.0012814096 -0.02557635 -0.009314672 0.06111984
000230 85 14 60 3d 13 ec 81 bd 81 19 67 3d 28 33 3e bc
       0.05470707 -0.06343856 0.056420807 -0.011608876
000240 3c 5e 20 bc 03 71 1f 3d e3 34 48 3d d1 9a 2b bd
       -0.009788092 0.038926136 0.04887856 -0.04189569
000250 f6 63 d8 bc cd 1a 18 bd e4 fa 9e 3c 91 67 58 bd
       -0.026414853 -0.037134934 0.019406743 -0.052833144
000260 b5 28 8d bc ce ce a1 bc 81 63 60 bc 75 68 fc 3c
       -0.017231325 -0.019751932 -0.013695599 0.030811528
000270 b2 67 90 3c 49 d5 43 3b 45 d9 13 3d 6f 27 45 bb
       0.01762757 0.0029881767 0.036095876 -0.0030083319
000280 b0 5e 16 3c 31 ca b1 bc f9 e8 25 3d a7 3e 86 bb
       0.009177849 -0.021702858 0.040505383 -0.004096824
000290 f0 26 5b 3d 2c 6c ce bc 28 32 62 bd cf 5e 2f 3c
       0.05350393 -0.025198065 -0.055223614 0.0107037565
0002a0 aa ff 67 3c d1 e2 ed bc c6 9a 93 bc 01 07 87 bc
       0.014160076 -0.029038819 -0.018018138 -0.016482832
0002b0 f2 e9 4a 3d 7e d7 09 bd 42 12 10 bc 48 69 a8 bc
       0.049539514 -0.033652775 -0.0087934155 -0.020558015
0002c0 af 62 38 3d 0e 67 14 bd 9c 2e 46 bd 64 76 5a bd
       0.045015987 -0.036231093 -0.048384294 -0.053335562
0002d0 92 94 1e 3d 9c 11 53 bd 3e 2e 21 bd 19 e4 ff bb
       0.038715906 -0.051530465 -0.03935074 -0.007809174
0002e0 8b 36 02 bd 0f c1 5e 3d 5d 69 39 3d b8 39 39 3d
       -0.031790297 0.054383334 0.045266498 0.04522106
0002f0 a4 ea 19 3d 1d c7 64 b9 19 82 d4 bc 72 cb 0a bd
       0.037577286 -0.0002181795 -0.025940942 -0.033885427
000300 62 f4 05 3d b2 61 71 3c 4d 86 20 bd 2b a4 12 3c
       0.032703765 0.014732765 -0.03919058 0.0089502735
000310 f5 16 ef 3c 79 ea 3f bc fd f6 4e 3d 25 a4 23 bd
       0.029185751 -0.0117136175 0.050528515 -0.039951462
000320 d9 15 2d 3d f9 0a 21 3d a2 c1 33 bd 00 33 c4 3c
       0.042257164 0.039317105 -0.043885835 0.0239501
000330 d5 05 7f 3c d5 85 b4 bc f2 12 f4 bc 64 3d ca bb
       0.015565355 -0.022036472 -0.02979419 -0.006171869
000340 a0 cd e9 3c f2 6e 38 3d e2 7d 12 3d a4 a1 20 3d
       0.028540432 0.04502768 0.035764582 0.039216653
000350 eb c0 29 bc 1d 3d 51 3b 40 49 6d 3c 72 0a 04 3d
       -0.010360937 0.0031927295 0.014482796 0.032236524
000360 8e 51 b1 3b c9 74 24 3d 47 65 b6 bc 6d 10 23 bd
       0.0054113334 0.040150438 -0.02226509 -0.039810587
000370 75 8e f9 bc 69 ce 52 bd 00 f5 5f 3c 95 a4 4a 3c
       -0.030463437 -0.05146638 0.013669252 0.012368341
000380 04 79 ff 3c 55 14 5d 3c 72 1a 8f bc 84 f9 4c 3d
       0.031185634 0.013493617 -0.017468665 0.050042644
000390 87 94 68 3c e4 bb 09 bb 15 59 b1 bc 64 33 96 3c
       0.014195568 -0.0021016533 -0.021648923 0.018335052
0003a0 55 f3 b8 3b 8e 00 9b bc 99 03 28 bd 8e 12 f7 3b
       0.005644242 -0.018921163 -0.041019056 0.0075400537
0003b0 25 33 37 3d 1d 1d 2f 3d 79 a4 e7 3c c7 22 42 3c
       0.04472651 0.042752374 0.028276669 0.011849112
0003c0 8e 87 cf 3b 9d b4 81 bb 39 68 6c 3c a3 04 2c 3d
       0.006333298 -0.0039582984 0.0144291455 0.04199661
0003d0 6f db 76 3d 97 a9 e4 b9 0e 01 e3 3c d2 b4 41 b9
       0.060267862 -0.00043613903 0.027710464 -0.00018473275
0003e0 b3 21 24 3d b2 3b d0 3b e1 12 04 3d 4b f6 69 bc
       0.0400712 0.0063547725 0.032244567 -0.014279912
0003f0 9f 19 d5 ba 63 ee e5 3c 7c 89 59 3d 65 89 2c bc
       -0.0016258246 0.028067773 0.05310963 -0.010530804

module.conv_4.bias f4 [12]
000000 a6 e4 43 3d a9 d3 2d bd c4 46 28 bd 1f d7 9d bc
       0.047825478 -0.042438183 -0.041083112 -0.019267617
000010 ff a0 fc 3c 22 54 b9 3c 8d db cf ba a6 1e 03 bd
       0.030838488 0.022623125 -0.0015858278 -0.03201165
000020 31 42 1b 3d 55 16 a9 ba b0 c9 82 3c 42 8c 65 bd
       0.037904922 -0.0012900332 0.015965313 -0.056041963

module.conv_5.weight f4 [12, 12, 3, 3, 3]
000000 36 4c 3b 3d b9 14 7b bd 76 13 48 bd 44 13 09 3d
       0.045726977 -0.06129906 -0.048846684 0.03346564
000010 e4 0d a1 3c ee a6 69 ba 02 d8 8a 3c 93 1a b9 3c
       0.019659944 -0.0008913119 0.016948704 0.02259568
000020 06 a7 b2 bc be 45 1a bc 9e 23 07 3c 03 ae 12 3d
       -0.021808159 -0.009416042 0.008248238 0.03581048
000030 0e 03 7c bd 27 d5 49 bd a7 ca 81 bd 1c 25 4e bd
       -0.06152635 -0.049275544 -0.06337481 -0.05032836
000040 ae 19 83 bd ce bc 0b bd 01 7f ff 3c bc 37 02 3d
       -0.064013824 -0.034115605 0.03118849 0.031791434
000050 4b 73 7c bc 77 77 e6 3c 47 06 1a bd 1d 7f 5f bd
       -0.015408347 0.028133137 -0.037603643 -0.054564584
000060 87 f6 f7 3c 0a 3f 1d bd 8c 75 77 3a e7 9e 3e 3d
       0.03026892 -0.038390197 0.0009439818 0.04653826
000070 28 cd 11 bd 19 7f 26 bd 3d db e0 3c 25 55 03 bd
       -0.035596043 -0.040648554 0.027448291 -0.032063622
000080 d1 51 12 bd 9e 14 07 3d 5a d1 eb 3b 5e da 6a bb
       -0.035722557 0.032978646 0.0071965875 -0.0035835723
000090 b0 4a 57 bd 71 4d 45 bd 8e a8 a4 3c 64 39 de bc
       -0.052561462 -0.048169557 0.020099904 -0.027126975
0000a0 96 8f 35 bd 80 47 b1 bc e4 e0 27 bc 28 2a 40 bc
       -0.044326387 -0.02164054 -0.010246489 -0.011728801
0000b0 5a db 38 bd b2 9e 60 bc f9 b2 0f bc 87 0b 5e 3d
       -0.045131065 -0.013709711 -0.008770698 0.054210212
0000c0 c4 c3 1f bd e0 a2 8d 3c ed 4b 4c 3d f2 38 e7 3c
       -0.039005056 0.017289579 0.049877096 0.028225396
0000d0 c7 21 93 bb f0 41 49 3d c2 e4 15 3d 3b fa b1 bc
       -0.0044901106 0.04913515 0.036595114 -0.021725764
0000e0 d2 b7 3d 3d 9c 73 fd 3c a4 0f 90 3d 7e b0 0a 3d
       0.046317883 0.030938916 0.07034233 0.033859722
0000f0 ac 90 e5 3c 4c b2 87 3c d3 ce 14 3d c4 2e cd 3c
       0.028023086 0.01656451 0.036330055 0.025046714
000100 75 f6 fe 3b 5f 03 57 3d 28 25 78 3d 09 ff 83 3d
       0.007780845 0.05249345 0.06058231 0.064451285
000110 40 98 04 bd 62 a3 e9 bc 50 7e 25 3d 86 2c 42 3d
       -0.03237176 -0.02852029 0.040403664 0.047405742
000120 84 dc 71 3d eb 28 b3 3c de 5c ea 3c 7c 82 e8 bb
       0.05904819 0.021870097 0.028608736 -0.007095633
000130 e4 1a f2 3b 83 0c 19 3d 33 1c 68 3d 3f eb a2 bc
       0.0073884595 0.037365448 0.056667518 -0.019887565
000140 87 38 5e bc a7 7d 68 3d a7 e5 18 bd 3f cd 65 3d
       -0.013563282 0.056760456 -0.03732839 0.05610394
000150 80 b0 10 bd 89 a0 03 3d a0 de 58 bc d2 59 db 3c
       -0.035324574 0.03213552 -0.013236672 0.026776228
000160 67 a2 5d 3c 9d c7 5b bd ef 48 77 3d 9e b5 b9 3c
       0.013527489 -0.053657163 0.06037229 0.02266961
000170 32 0f 52 bc c1 40 bd bc 20 e2 36 bd 3b 02 26 3d
       -0.012821006 -0.023102166 -0.044649243 0.04052947
000180 75 4a d7 3a 0b df 63 bd ee 49 d2 bb de 69 8d 3d
       0.0016425388 -0.055632632 -0.0064175045 0.06904958
000190 3c ac 78 3d e9 e5 9e bc d0 6f 3d 3d 21 6f b6 3c
       0.06071113 -0.01939674 0.04624921 0.022269787
0001a0 3d cb 11 3d 2a 5e 01 3d 9a f9 5c bb d5 db 07 3c
       0.035594214 0.031583942 -0.003371811 0.008292158
0001b0 43 1c 36 bc 8a e1 a4 bc 57 89 1d 3d a7 f3 29 bd
       -0.011115137 -0.020127077 0.038461056 -0.04149213
0001c0 79 5b 62 bd 9a 7e 94 b9 4e 56 5c bc 0d a3 d2 3c
       -0.055263016 -0.00028323085 -0.013448311 0.025712514
0001d0 60 6f 4d 3d e7 65 4b bd 8c 77 15 3d 4d 32 a9 bc
       0.050155044 -0.04965773 0.036490962 -0.020653868
0001e0 07 95 ef 3c e5 9e c4 bc 48 8d fb 3c 82 13 aa bb
       0.029245866 -0.024001548 0.030707017 -0.005190314
0001f0 81 0b 0a 3d 1a 18 df 3c 45 ac 3a bd 55 e4 97 bb
       0.033702377 0.027233172 -0.045574445 -0.0046353736
000200 9e 00 6f 3c d0 92 bf 3c d5 1c 46 bc 01 eb a2 bc
       0.0145875495 0.023385435 -0.012091835 -0.01988745
000210 77 6f f1 bc e1 78 f1 3c 05 20 93 bc ec ae 66 3d
       -0.029472096 0.029476585 -0.017959604 0.056319162
000220 cb 89 b0 bc 36 a7 f3 bc 3f 0c fe 3c 07 67 ad 3c
       -0.02155008 -0.029742818 0.031011699 0.021167291
000230 e7 eb 6c 3c 46 55 76 ba 64 db 89 3b 9d 8e b0 3c
       0.01446054 -0.0009396862 0.0042070616 0.021552378
000240 4d 81 47 3d 69 17 68 3c d4 e1 70 3d c4 68 67 3c
       0.048707295 0.014165738 0.058809116 0.014124099
000250 4b 52 df bb 7e ce c5 3c 2f 14 18 3d 76 94 3b 3d
       -0.00681523 0.024146315 0.037128624 0.04579588
000260 27 96 22 3d 96 18 38 3d ed eb 11 3d 71 34 65 3b
       0.039693978 0.044945322 0.035625387 0.0034973884
000270 e6 ca de bb 51 64 f7 3c 06 17 f4 3c 8f a0 59 bc
       -0.0067990897 0.030199202 0.029796135 -0.013282909
000280 df d6 c4 3c 74 43 b7 3c 73 3b b5 ba fd bc 32 3d
       0.02402824 0.022371031 -0.0013826921 0.043637265
000290 d7 51 25 bd 4c 33 b4 bb 51 0c b5 3c c2 48 9a 3c
       -0.04036125 -0.005499279 0.0221006 0.018833522
0002a0 b3 41 b4 bc d7 63 39 bd 19 46 44 bd f0 59 ae bc
       -0.022003984 -0.04526123 -0.047918413 -0.02128312
0002b0 5e 63 b3 bc 26 42 82 bd f7 c2 27 3b 13 56 7a bd
       -0.021897968 -0.06360273 0.0025598386 -0.061117243
0002c0 30 19 02 3d 27 b4 ad bc 88 98 11 3a 45 f8 72 bc
       0.031762302 -0.021204067 0.000555404 -0.0148297
0002d0 f5 6d c6 3b 2d b0 1e 3d f8 37 16 3d ee 23 f3 3c
       0.0060555884 0.038742233 0.03667447 0.029680219
0002e0 9b d2 9e bc 16 0c 00 3d d6 6f 06 bd 21 f7 49 bd
       -0.019387534 0.031261526 -0.0328215 -0.049307946
0002f0 99 17 c6 bc e8 f7 91 bb 0e 2c fe 3b 76 02 cf 3c
       -0.024181174 -0.0044546016 0.0077567166 0.025269728
000300 1a 30 44 bd 3c 11 40 3d 77 c3 87 bc bb 7d af bc
       -0.047897436 0.046891436 -0.016572697 -0.021422258
000310 71 d9 45 bd 33 e7 0d bd 91 b6 6d 3d 3c c9 5e 3d
       -0.04830307 -0.034644317 0.058035437 0.05439113
000320 c1 12 4d 3d 6d 7c be 3c 46 12 3d bd f2 e4 1a 3d
       0.050066713 0.02325269 -0.046160005 0.037815996
000330 51 c0 37 3d 07 fe b3 bc ac 12 0a 3d bc 8c e7 3c
       0.04486114 -0.021971716 0.033709213 0.02826535
000340 39 84 ec bc 4b 80 8a 3c 5d 73 30 bd 2f 43 c8 3c
       -0.028871642 0.016906878 -0.04307877 0.024446098
000350 8d 2d a8 3c 95 23 2e bb eb 13 12 3d 5b c5 0c bc
       0.020529533 -0.0026571502 0.035663527 -0.008591975
000360 80 d6 57 bc ba d7 28 3d 67 d2 54 bd 28 a8 95 bb
       -0.013173699 0.041221358 -0.051958468 -0.004567165
000370 23 9c 32 bd 24 c0 74 bc 8f de e0 3c aa b5 05 3d
       -0.043605935 -0.014938388 0.027449874 0.03264395
000380 2f 48 39 bc 7f ba 11 3d b8 a9 8f 3b fa ed 38 3d
       -0.011308714 0.035578247 0.0043842457 0.045148827
000390 6c 2f 13 3c af 0a 60 bd 3c e2 a3 bb 4e 8a 18 3c
       0.008983474 -0.05469769 -0.0050013345 0.009310318
0003a0 91 9c 02 3d 30 16 de bc d5 7c 9f 3c ce 34 74 bd
       0.031887595 -0.02711019 0.019468704 -0.05962067
0003b0 b4 0b 70 bd 89 f0 53 bd b8 ad 27 bd db 2a 2e bd
       -0.05860491 -0.051743064 -0.040937155 -0.04252134
0003c0 8d ae b0 39 6a c7 71 3c ec 50 29 3d 82 ba 14 3d
       0.00033699386 0.014757017 0.04133694 0.03631068
0003d0 c2 fa 31 3d ea 03 c0 bc c9 6c b8 bc 57 e5 0e 3d
       0.043452032 -0.023439366 -0.02251281 0.034886684
0003e0 0c 20 4e 3d 12 27 fe 3c a2 63 3f 3a d8 89 23 3d
       0.05032353 0.03102449 0.0007300918 0.03992638
0003f0 7c 92 1f bc 28 f0 c2 bc 97 38 60 3d f7 e6 aa bc
       -0.009739514 -0.023796156 0.05474147 -0.020862086

module.conv_5.bias f4 [12]
000000 b1 a7 a3 3b c5 5e 1a 3d 98 23 1f bc 2a 6f f1 bc
       0.0049943556 0.037688036 -0.009713076 -0.029471952
000010 95 59 39 3a 05 51 62 bc a8 14 90 bc ae 0a 6d 3d
       0.00070705387 -0.013813262 -0.017587975 0.057871513
000020 be 88 5a 3d 45 7c 04 bc ce 42 17 bd d5 e7 15 3c
       0.053353064 -0.008086269 -0.036928944 0.009149511

module.conv_6.weight f4 [12, 12, 3, 3, 3]
000000 ea 90 13 bd 4c 96 13 3d bc 1c d1 3c b8 12 be bb
       -0.036026873 0.036032006 0.025526397 -0.0058005713
000010 e2 c4 db bb 6f ee ea bc 4a a6 3e bb 5f 7c d9 bc
       -0.00670682 -0.028678147 -0.0029090815 -0.026548563
000020 0b 34 e5 3c a5 11 b9 bc 53 32 b8 bc e2 90 3b bd
       0.027978918 -0.022591421 -0.022484934 -0.045792468
000030 c9 86 c5 bc 6a 67 ae bc 7d 8c 6a bd 76 b8 c5 bb
       -0.024112122 -0.021289546 -0.057262886 -0.0060339523
000040 a3 d3 02 3c 55 40 07 bd c3 43 82 bd f3 0b 4a 3c
       0.007985028 -0.033020336 -0.06360581 0.0123319505
000050 a1 7c 63 3c e9 f8 f1 bc 72 7d e4 3c ca 22 0e 3d
       0.013884694 -0.029537635 0.027891848 0.034701146
000060 9e f3 1a 3d f7 32 0a 3d 46 b9 76 bd 57 e0 2f bd
       0.037829988 0.03374001 -0.060235284 -0.042938557
000070 99 07 62 bc c7 ed 59 3d 11 98 75 bc e0 03 3b 3c
       -0.013795757 0.053205278 -0.014989869 0.011414498
000080 7b 8e 85 3c 60 fe 49 bd 37 68 59 3d d4 62 04 3d
       0.016303292 -0.049314857 0.053077903 0.032320812
000090 08 3a c5 3b f7 b5 23 bd 51 7e b8 ba 71 16 df bc
       0.0060188808 -0.039968457 -0.0014075731 -0.02723238
0000a0 df 03 e7 bb bb ab 28 bd c7 76 6d 3d f1 0c 59 3d
       -0.007050022 -0.0411794 0.057974603 0.052990858
0000b0 e9 8b 91 3c 15 84 08 3d bd bf 8d bc e3 38 52 3d
       0.01776691 0.03332909 -0.017303342 0.051323783
0000c0 01 10 68 bb 02 ce 4f 3c 69 fa 6b bc 04 5e fd 3c
       -0.003540993 0.012683393 -0.014402964 0.03092862
0000d0 9d a1 15 bc ae 30 e6 3c ff 6f 0e bd 73 57 24 3c
       -0.00913277 0.028099384 -0.034774777 0.010030615
0000e0 a2 4b 1d bd 77 bf 2d bd 36 8a 20 bd 17 36 74 bd
       -0.038402207 -0.042418923 -0.03919431 -0.059621897
0000f0 0d a2 0b 3d f5 61 f2 3c d3 73 ff 3a db a4 22 bd
       0.03409009 0.029587725 0.0019489474 -0.039708
000100 98 e8 c6 3b 81 9e 05 bd 21 76 32 bd 90 79 47 bd
       0.006070208 -0.032621864 -0.043569688 -0.048699915
000110 0d d8 1c bc 68 a3 ec 3c e8 c0 ce bc f0 3a b4 3b
       -0.009572995 0.028886512 -0.02523847 0.00550019
000120 0b 2d 56 bc 1a e4 74 bd 35 7b 17 bd 32 fa 51 bd
       -0.0130722625 -0.059787847 -0.036982734 -0.051263995
000130 40 10 67 bd 0c 21 68 3b e9 3e 56 bc 6a 31 5d bd
       -0.05641198 0.0035420088 -0.013076522 -0.054002203
000140 86 22 0c bd 11 11 b7 bc 09 38 cf 3c 53 16 5b bd
       -0.03421261 -0.022347005 0.025295274 -0.053488087
000150 ed 2f 59 3d c3 c9 5d bc ef 8f 20 bd 04 77 ed bb
       0.05302422 -0.013536873 -0.039199766 -0.007246854
000160 d3 2b b1 3c 6b 8d d8 bb 18 95 b7 bc d9 f7 1a bc
       0.021627342 -0.006608655 -0.02240996 -0.009458506
000170 35 75 86 3c be 1a 0d 3d d4 7d d7 3c f1 82 f2 3a
       0.01641331 0.03444933 0.026305117 0.0018502158
000180 91 96 d9 3a 8b a0 44 bd 2a f3 a5 3c b2 88 06 3d
       0.0016600658 -0.04800467 0.020257551 0.032845207
000190 3f 2b 59 bd 2f 84 e2 3c 5d 44 e0 bb d0 4b 47 bc
       -0.05301976 0.02765092 -0.006844087 -0.012164071
0001a0 67 0b b3 3b 1b 23 33 3d 16 fd 56 bd 2c 15 dc 3c
       0.0054640057 0.04373465 -0.052487455 0.026865564
0001b0 1d 0e 17 bd 43 1a 7c 3d 0a 7f 0b 3a 95 15 67 3d
       -0.036878694 0.061548483 0.00053213595 0.056417067
0001c0 64 0e 8f 3d 38 f5 1b 3d 7a c7 2f 3d f3 75 9a 3c
       0.06985167 0.038075656 0.042914845 0.01885507
0001d0 5a f6 56 3c 34 bc 27 bc ab 53 c5 bc ac f2 d8 3c
       0.013120258 -0.010237742 -0.024087748 0.026482902
0001e0 93 81 d6 3c 5a 55 e7 3c 78 44 81 bb 49 65 f5 bc
       0.026184833 0.028238941 -0.0039449297 -0.029955523
0001f0 27 f9 12 bc da f7 79 3d e4 e1 6f 3c 8f a2 2d 3d
       -0.008970535 0.061027385 0.014641259 0.042391356
000200 8a f1 41 bc 99 35 17 3d 4d 3c 8c 3d 30 53 8d 3d
       -0.011837373 0.03691635 0.06847439 0.069006324
000210 f1 6f bf bc 6e f7 4d 3d 8a a5 42 3d 3f b4 5e bb
       -0.023368808 0.050284795 0.04752115 -0.0033981947
000220 3e 4d 8d 3c 44 76 28 bc da f2 73 bd 5b 69 7b 3b
       0.017248746 -0.010282103 -0.059557773 0.0038362357
000230 30 ab b9 ba c3 39 89 3c fe 23 3d bc 1f 62 59 bc
       -0.0014165398 0.016751176 -0.011544226 -0.013268023
000240 9e eb 96 3b ed eb db 3c b9 16 54 bd 9a 2a 29 bd
       0.0046057245 0.026845897 -0.051779483 -0.041300394
000250 62 5a 68 bd 4b e4 9c 3b f0 0a bb 3a 81 6e 04 3a
       -0.05672682 0.004787957 0.0014270227 0.0005051867
000260 cc 21 62 bc 8e e7 a4 3c 31 37 05 bc 39 38 42 3b
       -0.013802003 0.020129945 -0.008130834 0.0029635562
000270 68 80 0d 3d 18 44 de 3c b6 de 46 bd a0 1e d4 3a
       0.034546286 0.027132079 -0.048552237 0.0016183443
000280 6a 8d c5 3c 4d aa cc bc 60 94 1d 3d ef dd 11 bc
       0.024115283 -0.02498355 0.03847158 -0.008903011
000290 51 d2 41 bd 4c 85 85 3d e7 64 9d 3b bb 0a 44 bd
       -0.047319714 0.06519565 0.0048032883 -0.047861796
0002a0 43 10 2d bc d7 de ba bc 77 56 48 bd 96 16 16 3b
       -0.010562959 -0.022811336 -0.048910584 0.0022901646
0002b0 ce 34 2e bd 82 0b 01 3d 25 62 0b bd 9c 92 a5 3c
       -0.042530827 0.031505115 -0.034029145 0.02021151
0002c0 75 21 7b 3c a7 91 c2 bb 8c a6 53 3a d7 47 11 3d
       0.015327801 -0.0059377733 0.00080738286 0.035468902
0002d0 f4 88 d9 3c 51 8e 17 3d a9 3d 9c bb 84 f3 52 3d
       0.026554562 0.037000958 -0.0047680927 0.051501766
0002e0 02 8f a1 3c 4c 1c 42 bd ff b8 75 3d 5e 75 2f 3a
       0.019721512 -0.047390267 0.05999088 0.0006693209
0002f0 7e be 99 3c 59 d3 57 3d f8 e3 0d bd 2d ca f6 bc
       0.018767592 0.05269179 -0.034641236 -0.030125702
000300 cf 84 03 bd d4 04 37 3d cc a2 db 3c 90 95 2d bd
       -0.032109078 0.04468234 0.026811026 -0.042378962
000310 ad 53 54 bd ac 64 fc bc 73 db 08 bc c5 44 71 3d
       -0.051837612 -0.030809723 -0.008353102 0.058903474
000320 99 45 89 3d 38 b3 d2 3b 22 e4 df bc 12 03 03 3b
       0.06702728 0.006430056 -0.027330462 0.0019990844
000330 39 35 16 bd 19 93 18 bd a3 7e 3e 3d 7e 43 4b 3c
       -0.03667185 -0.03724966 0.04650749 0.012406228
000340 40 c7 bd 3c 50 b4 2f bd a8 6a 92 bc b5 bb c7 3c
       0.023166299 -0.04289657 -0.017873123 0.024381498
000350 53 51 0c 3c 05 61 00 3d 7e d8 e6 3c 5a 77 67 3c
       0.008564311 0.031342525 0.028179403 0.014127577
000360 17 5a 09 3d 70 c3 9b bc 48 36 8e bc 3b 78 d9 bc
       0.033533182 -0.01901409 -0.017359868 -0.026546588
000370 41 af 4b 3c 2e c1 0f 3c 28 7b 28 3d a5 60 cf 3b
       0.0124319205 0.008774085 0.041133076 0.0063286596
000380 7b 26 08 3d 23 63 d5 3c 32 d4 45 3d 02 60 2f bd
       0.033239823 0.026048249 0.04829807 -0.04281617
000390 44 46 52 bd 86 a6 04 3d 50 30 c1 3c ec 9a a1 bc
       -0.05133654 0.03238537 0.023582608 -0.019727193
0003a0 09 77 a0 3c 99 25 5d 3a c4 ba 5a 3c 3e 1f 03 3d
       0.01958801 0.00084360834 0.013350192 0.032012217
0003b0 74 11 9b bc bc dd 26 bd 5c ab 5e 3c 20 67 e8 bc
       -0.01892922 -0.040738806 0.01359066 -0.028369486
0003c0 6d 72 9a 3c ca ef e2 bc 46 0c 42 3d ad 81 5f 3d
       0.01885339 -0.027702231 0.047374986 0.054567028
0003d0 ce 14 4b 3d af 9c 4e 3d 0a b8 69 3d d2 b1 fd 3c
       0.049580388 0.050442394 0.05706028 0.03096858
0003e0 6a da a5 3d 95 6f 2b bd 03 06 08 3d d7 83 31 3d
       0.080983 -0.04185446 0.03320886 0.043338623
0003f0 19 3b a2 3d f5 5d 5f bc 5e 29 8b 3d fd da 91 3b
       0.07921428 -0.013633241 0.067949995 0.0044511543

module.conv_6.bias f4 [12]
000000 b6 a0 f2 3c e4 8c 69 3b 9f db 3f 3d 2b 9d 06 3d
       0.029617649 0.0035636956 0.046840306 0.03286473
000010 34 12 e3 3a c8 ab 11 3d c4 84 5d bd e0 ca e9 bc
       0.001732415 0.035564214 -0.054081693 -0.028539121
000020 58 99 a9 bb a1 46 17 3d c9 b2 37 3b 92 ec 09 3d
       -0.0051757507 0.03693259 0.0028030148 0.033672877
