model2/FSRCNN3D_epoch_40.pth (torch, 265262 bytes, 15 tensors)

module.conv_1.weight f4 [56, 1, 5, 5, 5]
000000 82 05 18 3d a9 d4 92 3d e7 c7 4f 3d ff 3a a9 bb
       0.037114628 0.07169468 0.05072775 -0.0051645036
000010 48 98 cb 3c 39 8d b3 3d d9 91 82 3d 47 9c 68 bd
       0.024852887 0.087671705 0.063754745 -0.056789663
000020 13 7f 80 3c 97 eb 8e bd dc 02 9a bd 53 59 8a 3d
       0.015685594 -0.06978529 -0.07520077 0.067553185
000030 08 2d cb 3b 87 ca c9 3c 98 f5 86 3d bb 5d 4b bd
       0.0062004365 0.024632705 0.06589812 -0.049649935
000040 fb 31 a3 3d 42 6e 8b bd 00 2b 7c 3c ca 81 fd bc
       0.079685174 -0.068081394 0.015391111 -0.030945677
000050 f8 80 f6 bc db 04 93 bb bd dd 89 3d 4d 61 82 bc
       -0.030090794 -0.004486663 0.06731746 -0.015915537
000060 49 7d 72 bd 24 8b 55 bd b9 db 2b 3d 72 e5 a4 3d
       -0.059201512 -0.052134648 0.04195759 0.08051576
000070 29 2f 8e 3c ca d1 9d bc 45 ea 99 3c c7 d2 34 3d
       0.017356472 -0.019265074 0.018788466 0.044146325
000080 85 8f d8 bc e5 24 a3 bd b2 d0 41 bd 89 a1 bc bc
       -0.026435623 -0.079660214 -0.047318168 -0.023026245
000090 b6 bb 31 3c ce 8e 83 3d c7 2a a0 3d fb 54 04 bd
       0.010847976 0.06423722 0.07820659 -0.032307606
0000a0 51 da 42 3d 08 5f 79 bd b9 ca 8e bd dc a7 82 3d
       0.047571484 -0.060881644 -0.0697226 0.06379673
0000b0 25 e0 34 bd 65 df 3b 3d b9 c4 8c bd 9c 34 28 3d
       -0.044159073 0.045867343 -0.06873459 0.041065797
0000c0 3c 7d d8 3c fe 4d ec bc 19 31 ae bd 04 ea f4 bb
       0.026426904 -0.028845783 -0.085054584 -0.007474186
0000d0 28 35 7a bd 74 d0 32 bd 98 05 6c 3d 35 30 8d 3c
       -0.06108585 -0.043655828 0.057622522 0.017234901
0000e0 39 34 aa bd 3f d7 14 3d 7f e5 9c bd d0 f6 93 3d
       -0.08310742 0.036338087 -0.076609604 0.0722481
0000f0 65 50 9d bd be 9a 8d 3c a6 56 ef 3c 28 32 5b bd
       -0.0768135 0.0172857 0.029216122 -0.05351463
000100 3b 24 8f 3d b9 32 b6 3d dd 8c d7 3b ee 90 fa 3b
       0.06989332 0.08896393 0.0065780715 0.0076466715
000110 be f6 91 3d 06 6a 4c 3d 09 a0 81 bd 0c 85 53 bd
       0.071271405 0.0499058 -0.063293524 -0.051640555
000120 40 72 ce bc 0f d6 8a 3d a2 af 87 3d 35 08 94 bd
       -0.025200963 0.0677911 0.06625296 -0.07228128
000130 cf 04 19 bd 35 68 93 bd e2 0e 91 3c d0 27 53 bd
       -0.0373581 -0.0719761 0.017707292 -0.05155164
000140 92 57 4b bd 49 54 af bd fb 6e 66 3d b7 06 03 3d
       -0.04964406 -0.08560998 0.056258183 0.031988826
000150 61 fb 6f bd 4e 82 b2 3d b9 6c 3b bd 1a 39 4e 3d
       -0.058589343 0.0871626 -0.045757983 0.050347425
000160 b4 89 54 3d 5d 03 aa 3d d1 c6 01 bd 5c bb af 3d
       0.051889136 0.08301423 -0.031683747 0.08580658
000170 6a b2 8d bd 2d a6 3b 3d 6f 47 0b 3d 1e 43 13 bd
       -0.069187954 0.045812774 0.03400367 -0.03595268
000180 7d 7b 30 bc 74 1c 6c 3d 02 f8 8b bd 35 66 84 bd
       -0.010771629 0.057644323 -0.06834413 -0.06464807
000190 88 72 b6 3d ce ec 3b 3d 46 df 9c bc 84 8d c1 3d
       0.08908564 0.04588013 -0.019149434 0.0945082
0001a0 7a 19 90 3d ba 57 85 3c 42 2a 30 3d 3c 70 bd 3d
       0.07036109 0.016277183 0.04300905 0.09249923
0001b0 2d 22 03 bc 61 d3 e8 3b f7 24 9b 3c 87 02 1a bd
       -0.008003754 0.0071052765 0.018938525 -0.037600067
0001c0 64 1d b7 3c 2b cc 9e 3d d4 ba 16 bd a3 61 65 bd
       0.022352882 0.07753786 -0.036799267 -0.056001317
0001d0 88 03 55 3d e8 b1 a7 3d 4c e0 d7 39 e7 9f f9 bc
       0.05200532 0.0818823 0.0004117511 -0.030471755
0001e0 85 b7 6c bd ba e3 48 bd 9e 01 7d 3d 78 e8 35 3d
       -0.057792205 -0.049045302 0.06176912 0.044411153
0001f0 40 6f 52 3d 86 e3 24 bd 13 17 e8 3c 6d 1b 4c 3d
       0.051375628 -0.040256046 0.028331315 0.049830843
000200 f2 a6 1f bd b0 a8 50 3d 9a 52 21 bd a3 89 d8 ba
       -0.03897757 0.050942123 -0.039385416 -0.0016520511
000210 26 0d c1 3b 93 dc e4 3c a5 e3 3b bd 4e d0 6d bd
       0.00589146 0.02793721 -0.045871396 -0.058059983
000220 47 9f 1f bd fb 5f 6e 3d bd d6 53 3c 57 c0 04 3d
       -0.038970258 0.058197003 0.012929616 0.032409992
000230 a0 5a a4 3d e6 bc f7 bc 68 4c a6 bd 80 ce ea 3b
       0.08025098 -0.030241441 -0.08120042 0.00716573
000240 85 fb 9f bd 2d e6 b1 bd 12 09 80 bc 36 fb 95 3d
       -0.078116454 -0.08686481 -0.015629325 0.07323305
000250 2b 22 88 3d 1e 01 33 bd 8c f4 2b bd 4b 29 f0 3c
       0.06647142 -0.043702237 -0.041981265 0.029316565
000260 cc c9 07 3d 8b 59 a3 bc d7 53 2b 3d 60 6b 19 bd
       0.033151433 -0.019940158 0.041828003 -0.037455916
000270 c8 2a 71 3d c9 c1 2f 3d af 1b 00 bd 07 8c 66 3c
       0.05887869 0.042909417 -0.0312764 0.014071471
000280 47 f9 4e bd 18 20 6a 3d 6f 9b c4 bc 4e d3 45 3d
       -0.0505307 0.057159513 -0.023999898 0.04829722
000290 d6 3f 70 3c a6 fc 6e bd 30 49 18 3d 51 9b 2e 3d
       0.014663657 -0.058346413 0.037179172 0.04262859
0002a0 b9 b8 e8 3c 14 bf 25 3c 2a f4 b3 bd f0 61 37 bd
       0.028408395 0.010116357 -0.08786805 -0.044771135
0002b0 05 f2 99 3d e1 20 53 bd 94 d5 da bb c5 cb f9 bc
       0.07516865 -0.051545028 -0.0066782925 -0.030492673
0002c0 5a 77 26 bc 95 da e0 bc 2b 8a 02 3c 3b f3 a2 3d
       -0.010160292 -0.027447978 0.007967512 0.07956549
0002d0 64 e1 83 3c 45 ac 9f bb e3 2f bb 3c c1 10 b7 bb
       0.016098686 -0.004872831 0.022849983 -0.005586714
0002e0 6b d2 d9 bc 0b c3 dd bc 7d 54 e2 3b a1 36 9d bd
       -0.026589593 -0.027070543 0.0069070444 -0.07676435
0002f0 9d cd ef bc 14 a9 b5 bd 9f 86 7d 3d 8d d9 c4 3c
       -0.029272849 -0.0887014 0.061895963 0.024029518
000300 ac 51 22 bc 8f 74 14 3d b5 c0 18 3d f4 7c 84 3d
       -0.009907167 0.03624397 0.037293155 0.064691454
000310 a4 a9 70 3d b5 b0 72 3d 01 28 da bc 79 66 bd bd
       0.058755532 0.059250552 -0.026630403 -0.09248061
000320 51 6c 01 3d 71 f6 1f 3d c8 56 29 bd 78 83 64 3d
       0.03159744 0.039053384 -0.041342527 0.05578944
000330 82 7a db bc c6 11 55 3d d3 17 8a 3d ef 4d b4 3c
       -0.026791815 0.052018903 0.06742825 0.022009818
000340 0b 8e d2 bc b4 87 c7 3c 98 86 f4 3c c5 32 ad 3d
       -0.025702497 0.0243567 0.029849336 0.08456949
000350 ae e0 a2 bd f8 ae 83 bd 2a b1 c1 bc 3c 48 19 bd
       -0.079530105 -0.06429857 -0.023644049 -0.037422404
000360 6e 6e 4d 3d 86 20 43 bd ce 7c 68 3d 3b 74 36 bd
       0.050154142 -0.04763844 0.056759648 -0.04454444
000370 9e 9d 42 3d 77 fb 4f 3d 77 7b 96 bc 13 12 83 bd
       0.047513597 0.050776925 -0.01836942 -0.06399932
000380 a6 b0 ea 3c d0 cf 82 bd ab 6f 44 bd 59 e4 e7 3c
       0.028648686 -0.06387293 -0.047958057 0.028307127
000390 c6 7a 30 3d a8 83 99 bd c9 9e 30 bd 52 04 13 bd
       0.043085836 -0.074958146 -0.04312018 -0.035892792
0003a0 14 f6 21 3d 5e f5 87 bc 42 fe b1 bd 0e 6b 33 bc
       0.03954132 -0.016596492 -0.08691074 -0.010950817
0003b0 a5 49 25 3b 7b 98 c0 bd bc de d3 3c c8 fa 3b 3d
       0.0025220898 -0.09404083 0.025863044 0.04589346
0003c0 4b 23 0a 3d bd 46 a2 3b 96 5f 20 bc 22 1d 23 bc
       0.033725064 0.0049522803 -0.009788414 -0.009955676
0003d0 3a 10 67 bd 45 23 9a bd db a6 b8 3c 4f bc 8f bd
       -0.05641196 -0.075262584 0.0225405 -0.07018339
0003e0 33 63 6c bd 9e 96 40 bd f3 ce a8 3b 02 d1 26 bd
       -0.05771179 -0.04701864 0.0051516234 -0.04072667
0003f0 86 83 af bb de d8 bd 3d 7b 69 8b bd f6 b0 db bc
       -0.005356255 0.0926988 -0.06807228 -0.02681778

module.conv_1.bias f4 [56]
000000 bb 35 36 3c 64 04 d0 3b 37 40 05 3d 02 05 96 3c
       0.011121209 0.0063481797 0.032531943 0.018312935
000010 21 6c 21 3d 48 74 41 3d 9d 01 43 bd 6c b4 0d 3d
       0.03940976 0.047230035 -0.04760896 0.03459589
000020 cd 1f b3 bc 98 29 7e 3d 94 50 28 bd 23 1f 9d 3d
       -0.02186575 0.062051386 -0.04109247 0.076719545
000030 dc 16 24 bd d7 d7 c4 3c 95 70 6d 3d 20 99 ca 3c
       -0.040060863 0.024028702 0.057968695 0.024731219
000040 3d b6 86 bc fd bb a0 3d bf 26 0b bc fe 68 36 3c
       -0.01644432 0.07848356 -0.0084931245 0.0111334305
000050 f7 e8 d1 bb 1c f6 af 3d c6 f6 ff 3b be 8b a3 bd
       -0.0064059454 0.085918635 0.0078114 -0.07985638
000060 9f a0 af bc 5b 24 1d bd db cf c6 3d b6 f4 50 3d
       -0.021438895 -0.03836475 0.09707614 0.051014625
000070 41 7c 90 bb 53 7b a3 bc d5 60 32 bb 94 ed cc 3c
       -0.0044093435 -0.019956267 -0.002721836 0.02501563
000080 2b 14 93 3d 67 3a 94 3d 3a 87 04 bd 36 78 56 bd
       0.07181581 0.07237702 -0.032355525 -0.052360736
000090 1f ab 37 3d 04 4a 62 3c 62 45 41 bd c9 d1 28 bb
       0.04484093 0.013811592 -0.04718531 -0.0025759807
0000a0 f0 42 9c bd c9 75 0b bd c8 8e 97 bd f3 7e a2 bd
       -0.07629955 -0.034047876 -0.0740028 -0.0793437
0000b0 6b cf e3 3c 25 ed 44 bc ef 50 0b bd 88 cf 93 bd
       0.027808866 -0.01201943 -0.03401273 -0.07217318
0000c0 e8 82 97 3d f3 42 23 3d 51 fa b3 bb 40 4d 1c 3b
       0.07398015 0.03985877 -0.0054924865 0.0023849756
0000d0 c3 d4 9d bc f5 8c 0e 3d cc f2 3a bc ef da 7c 3c
       -0.019266492 0.034802396 -0.011410426 0.015433057

module.conv_2.weight f4 [12, 56, 1, 1, 1]
000000 83 ed 10 3c 8f e2 0a 3c a6 35 54 bc f7 20 21 bd
       0.00884569 0.008476867 -0.012952244 -0.03933808
000010 47 ec d4 3d 9f da e7 3d d2 ea 71 3d 6d 51 e1 3d
       0.10396629 0.113209955 0.059061833 0.11001859
000020 53 a1 a8 3d 56 37 fd 3d 25 e6 c4 bd 8d d7 ed 3d
       0.08233895 0.1236407 -0.09614209 0.11613379
000030 2d 50 43 bc 8c 71 a8 3c ee f4 96 3d d7 03 39 bc
       -0.011920971 0.020561956 0.073709354 -0.011292419
000040 e6 02 02 3d 1a a8 ec 3d a9 f2 2e 3c 44 e9 2c 3c
       0.031741045 0.115555 0.010677972 0.010553662
000050 e4 b1 91 3d 4c 7f 56 3d 48 41 43 bd 0c a2 fe bc
       0.07114008 0.052367494 -0.04766968 -0.03108313
000060 68 01 07 3e 9b f2 cc bd 2f ec e7 3d 08 f9 f2 3c
       0.1318413 -0.10007211 0.11324345 0.029659763
000070 1c 6e c9 bd 27 3e c1 bb 0f 54 f8 3c 1c 52 6a bb
       -0.09835455 -0.0058973017 0.03031352 -0.0035754507
000080 14 62 fe 3c 2d df b8 3d 86 76 53 bd 70 7d 59 3d
       0.031052627 0.090269424 -0.051626705 0.053098142
000090 0e cc 56 bd 96 20 1b 3d 54 46 d0 bd 49 f6 32 bd
       -0.052440695 0.037872873 -0.10169664 -0.043691907
0000a0 0f 56 92 3d 39 5f 01 3e 73 91 9d 3d 62 bc a7 3d
       0.071453206 0.12633981 0.07693758 0.08190228
0000b0 7a 17 5e bd 54 9e c1 3d 4b 13 5f 3d ba 19 09 be
       -0.054221608 0.09454027 0.05446176 -0.1338872
0000c0 54 51 e0 3d 9a ec c7 bd 04 bb 08 be 9c 7d 2f 3d
       0.10953012 -0.09761925 -0.13352591 0.0428444
0000d0 ba 0d 04 be dd 63 20 3e 3b 93 91 3d c2 8c f7 3d
       -0.12895861 0.15663095 0.0710816 0.12087394
0000e0 aa 88 0f 3e 2c 92 de bc 86 aa 94 bd 50 56 81 bd
       0.14016977 -0.02716931 -0.07259087 -0.06315291
0000f0 d9 b8 06 bd 46 f9 94 3d bd cd fb 3d 8a a6 ad 3d
       -0.03289113 0.07274108 0.12295101 0.084790304
000100 1e b1 26 be 56 e1 ef 3d 3f 6a fb bd fa 2b 71 bd
       -0.16278502 0.11712901 -0.12276124 -0.05887983
000110 53 eb 23 bd 72 a7 66 bc 73 38 11 3d 93 a3 55 bd
       -0.040019345 -0.014078008 0.035454225 -0.05215795
000120 c0 1a f6 bc 51 cd b8 3d e2 ab 4a 3d d4 9f ec 3d
       -0.030042052 0.09023536 0.049480326 0.11553922
000130 9f 83 03 be 33 ec 84 bd 72 5c 71 bd e5 b0 07 3d
       -0.12843178 -0.06490364 -0.058926053 0.033127684
000140 a5 41 33 bd ac 55 0c be a8 13 b2 bd f5 55 80 3d
       -0.043763775 -0.13704556 -0.086951554 0.06266395
000150 d1 89 6a bd 14 5f 22 3d 57 a6 0c 3e 5f 74 78 bc
       -0.05726034 0.039641455 0.13735329 -0.015164464
000160 66 d9 04 be 84 1a 24 3d c4 bf c5 3c 27 84 0b 3e
       -0.12973556 0.04006435 0.024139293 0.13624631
000170 d0 db 94 3d 9c 24 92 3d 33 51 ec bd b8 4e 79 bd
       0.072684884 0.07135889 -0.11538925 -0.060866088
000180 57 ee c8 3b 95 ea 70 3d c5 e0 b2 3d bd 9f e7 bb
       0.006131928 0.058817465 0.08734278 -0.007068603
000190 19 34 90 bc 8a db 96 3d af f4 1e be da f2 03 3e
       -0.017602967 0.073660925 -0.15523027 0.1288561
0001a0 a1 f3 3c 3d 66 21 b9 3d 9c c0 2a 3d 0d 8b cb bd
       0.04613078 0.09039573 0.041687593 -0.09938631
0001b0 74 1c 01 be d3 f7 72 3d a9 70 3e 39 0a 74 86 3d
       -0.1260851 0.059318375 0.00018161781 0.065651014
0001c0 80 e5 cb bd b3 a5 41 3c a1 07 01 be 02 3b ac 3d
       -0.09955883 0.011819291 -0.12600566 0.08409692
0001d0 d1 2f 8a bd a3 98 ad bd 19 02 ba bd 2d 92 ff 3d
       -0.067474015 -0.08476379 -0.09082431 0.12479053
0001e0 c7 e7 da bd 58 20 c9 bd 27 ee 03 be 43 12 e9 3d
       -0.10688739 -0.09820622 -0.12883817 0.11380436
0001f0 82 1e 11 be 12 52 94 bd 47 a9 91 3c 03 58 2f 3d
       -0.14171794 -0.07242216 0.017780913 0.042808544
000200 e1 19 e3 bd ed ed 79 3d 49 24 11 be 2d ae 76 bd
       -0.110889204 0.06101792 -0.14173998 -0.0602247
000210 ba b9 d2 bc 50 00 55 3d da b1 52 3d 04 3e d7 3d
       -0.025723327 0.05200225 0.051439144 0.105098754
000220 ee fb d6 3d 1c d5 13 bd e3 02 85 3d c4 2d 4e bd
       0.104972705 -0.03609191 0.06494691 -0.050336614
000230 1d c4 f0 bd 25 81 f7 bd 1a 25 2a 3d 44 4a b3 bd
       -0.11756156 -0.12085179 0.04153929 -0.087543994
000240 58 2e 8e ba cc 72 09 3e 6e 2b 07 bd f2 78 34 bd
       -0.0010847552 0.13422698 -0.033000402 -0.044060655
000250 90 0e c4 3d 14 22 ef b8 87 c2 f9 bd e1 99 c8 3d
       0.0957309 -0.000114027556 -0.12195306 0.09794975
000260 86 7b 02 bd c6 f6 99 bd fa e2 13 3c 4f 23 78 bb
       -0.031856082 -0.075177714 0.009026283 -0.0037862842
000270 fa cc 8c 39 34 81 60 3d 33 84 80 bc 8e 26 a4 3d
       0.000268556 0.054810718 -0.015688037 0.08015166
000280 c4 e2 13 3e 45 1a d1 3d 88 f2 44 bd ef 29 40 bc
       0.14441973 0.10210089 -0.04808286 -0.011728748
000290 6d 65 aa 3d e7 49 27 bd bd 38 08 3e d2 d9 ac 3b
       0.08320127 -0.040841963 0.13302894 0.0052749896
0002a0 23 db 95 3d 39 55 f2 bd a5 65 4a 3d 96 0c c4 3b
       0.07317188 -0.11832661 0.049413342 0.0059829457
0002b0 f1 5b fd 3d 35 4f 82 bd 4d b2 5d bd a0 d6 29 bd
       0.12371052 -0.06362764 -0.05412512 -0.041464448
0002c0 71 78 c5 bd 44 c3 65 bd 26 0f d8 3d 41 f3 7e bd
       -0.09642113 -0.056094423 0.10549764 -0.062243704
0002d0 8f 93 0e be 79 11 73 3d e0 a2 25 bd 22 52 fe 3d
       -0.13923477 0.059342835 -0.040438533 0.12418009
0002e0 67 f9 1b be 79 36 3f bd 28 a5 7b 3d 74 23 f3 bd
       -0.15231858 -0.04668281 0.061436802 -0.118719965
0002f0 b2 4a 3b bd ef 8f 1b 3e 1f 46 b7 3d b1 8f 0e 3e
       -0.045725532 0.15191625 0.089489214 0.13922001
000300 52 0c e2 3d f7 c7 e9 3d 1d 17 22 be 58 16 f2 3d
       0.11037506 0.114150934 -0.1582913 0.11820668
000310 69 52 0f 3d 83 f2 b6 bd fe 25 b8 bd 37 c9 ce bd
       0.0349907 -0.08932974 -0.089916214 -0.100969724
000320 54 04 f4 bd 72 0b 89 3c af 45 85 3c 54 b6 15 3e
       -0.11914888 0.01672909 0.01626858 0.14620334
000330 bb 6d 9a bb cf 85 0c be 22 e7 ed bd 05 b1 64 bd
       -0.004712788 -0.13722919 -0.11616351 -0.05583288
000340 e8 cd 1a 3e ae 81 a5 3c b7 5d b1 bc ac e7 4e 3c
       0.1511761 0.020203438 -0.021651132 0.012628477
000350 0e 19 cf bd 3f 93 90 3d 80 94 a8 bd df 15 1a bd
       -0.10112201 0.07059335 -0.08231449 -0.037618514
000360 b1 b0 5d 3d 92 d5 9e 3d 3c 17 45 bd 74 9c 77 3d
       0.054123584 0.07755579 -0.04811786 0.06045194
000370 17 16 9e 3d b8 1d 07 3d dc 91 32 bd 32 c4 ec bc
       0.07719057 0.032987326 -0.043596134 -0.028902147
000380 b5 38 c7 bc 8b 96 89 bd 7b f4 b0 3b 48 31 27 3d
       -0.024319032 -0.06718167 0.005400238 0.040818483
000390 24 8e a5 bc aa 27 85 3d da d6 81 3d d5 e2 db 3c
       -0.02020938 0.06501706 0.06339808 0.02684156
0003a0 7c 8e 26 bd bb 54 d2 3c 01 60 9c 3d fd a9 03 3d
       -0.040663227 0.025675168 0.07635499 0.032144535
0003b0 9a fd 67 be 64 64 60 bd 71 b4 90 3d b2 6b 4d 3d
       -0.22655335 -0.05478324 0.070656665 0.050151534
0003c0 fd aa f5 3c f1 bd 90 bd 74 66 12 3d 98 09 b9 3d
       0.02998876 -0.070674784 0.03574224 0.09035033
0003d0 c0 81 74 bd 2a dd a8 3d f4 87 7d 3d 97 5d 03 3d
       -0.05969405 0.08245309 0.061897233 0.032071676
0003e0 28 a0 b8 3d c5 56 53 3d f5 46 ca bd fd cc ab 3d
       0.090149224 0.05159642 -0.09876815 0.08388708
0003f0 50 2c 20 bd 3f a1 bf 3d cf 2a 0d 3d e2 20 19 bd
       -0.03910476 0.09356927 0.034464654 -0.037384875

module.conv_2.bias f4 [12]
000000 54 cd 7e 3d 98 1e df 3d e3 03 bf bc bf f6 c5 bd
       0.062207535 0.10894507 -0.023317283 -0.09666204
000010 2e 05 6e 3d 61 56 b0 bc 0c 4f 92 bd ba 0b 01 3e
       0.05811041 -0.021525564 -0.07143983 0.1260213
000020 7f 08 c7 bd 6f 5a 63 3c af d4 0f 3d 47 e1 b6 3d
       -0.097184174 0.0138765415 0.03511494 0.08929687

module.conv_3.weight f4 [12, 12, 3, 3, 3]
000000 3e c8 81 ba a6 ae e6 3b 7d 0d 74 bc e2 6e 2a bd
       -0.0009901596 0.0070398627 -0.014895794 -0.041609652
000010 a1 0a de 3c 7b 7e dc 3c 2c e8 f9 bc c1 ca c1 3c
       0.027104678 0.02691578 -0.030506216 0.02365625
000020 03 d8 18 3c 03 bc cf bb 8f 13 64 bc 07 74 8c bc
       0.009328845 -0.0063395514 -0.013920679 -0.01714517
000030 e2 cc 63 3c 5b 4e 8f 3b 76 e1 50 3a d8 08 21 bd
       0.013903828 0.0043733544 0.00079681666 -0.039315075
000040 94 ce 63 3d 48 28 c5 3c 48 e2 cd bc 95 bd a2 bc
       0.05561693 0.02406706 -0.025132313 -0.01986579
000050 b0 5c 34 bd fa 6d 71 3c c9 a7 6e bc 0a 59 df bc
       -0.044033706 0.014735693 -0.01456637 -0.027264137
000060 b5 8f 83 3d 0c 90 5e 3d 55 cd 73 3c a1 ea d6 bc
       0.06423894 0.054336593 0.014880498 -0.026234927
000070 ff a3 07 3d 58 4b 99 3c fd 9d 39 3d a0 28 d5 3c
       0.033115383 0.018712685 0.045316685 0.026020348
000080 2d 1c 06 bd d5 c6 0c bd 07 4d 82 3c 23 8c 46 bd
       -0.032741714 -0.03436931 0.01590587 -0.04847349
000090 cf dd d9 bb 44 70 a9 3c 9f 5c 1a bd 01 4f 39 3d
       -0.006648756 0.020683415 -0.037685987 0.04524136
0000a0 18 b9 09 3d b4 f2 28 3b 20 02 20 bc 67 ce 6c 3d
       0.033623785 0.0025779428 -0.009766132 0.057814028
0000b0 31 cc 87 bc f5 38 0f 3d d4 7c 21 bc b4 f6 44 bd
       -0.016576858 0.034966428 -0.0098564215 -0.048086837
0000c0 d4 24 45 bd 81 82 13 3c ba b5 2c 3d 00 0e c9 3b
       -0.048130825 0.0090032825 0.042165495 0.006135702
0000d0 48 ea 7c bc 51 9a 1a bd 84 2e d2 3c 17 81 a2 3c
       -0.015436716 -0.037744824 0.025656946 0.019836945
0000e0 e8 53 1e bd d9 d5 4c 3b 18 55 e3 3c 89 63 34 bb
       -0.038654238 0.0031255393 0.027750537 -0.0027525148
0000f0 13 b7 2b bd f1 68 6b bc 7b 19 24 3c 3d 7a 55 3c
       -0.04192264 -0.014368282 0.010015841 0.013029632
000100 34 7c ee 3c 1b 0e 4f 3d 54 f7 05 bd bc 3c 21 bd
       0.029111959 0.05055056 -0.032706574 -0.03936456
000110 44 72 09 bc e8 e1 a0 3c ce 01 4b 3d 5d db 3d bd
       -0.008389059 0.01963897 0.049562268 -0.04635178
000120 e6 28 00 3d b9 af 21 bd 00 21 0e bd 75 98 dc 3b
       0.031289004 -0.039474223 -0.03469944 0.0067320415
000130 f3 ec 1b bc 60 b6 08 3d be 16 c0 3c 91 e8 2b bd
       -0.009516942 0.03337705 0.023448344 -0.04196984
000140 84 c8 03 3d 8d b8 7f bd 6a fd 04 bd 06 bc 65 3a
       0.03217365 -0.06243186 -0.032468237 0.00087636744
000150 de 02 7d 3c ff 2a 3a bc 77 0d e4 3b 88 0c 40 bd
       0.015442578 -0.01136279 0.006959613 -0.04688695
000160 0a 2f 36 bd 29 da 18 bc bf ff 67 bd e6 dc e4 bb
       -0.044478454 -0.009329357 -0.056640383 -0.006984341
000170 27 87 38 b9 f0 62 59 bd e9 58 b6 bc b0 51 d5 bc
       -0.00017597956 -0.05307287 -0.022259193 -0.026039928
000180 ad c9 94 bd 9e 74 cb bd c3 28 05 bd 88 05 86 bd
       -0.07265029 -0.09934352 -0.032509577 -0.06544024
000190 54 9e 56 bd f7 84 a8 bc b1 75 c0 bc b4 cd 01 bc
       -0.052397087 -0.020571215 -0.02349362 -0.007922579
0001a0 17 da 8e 3b 0a 96 ee 3c d3 83 ca bc 84 db ce 3c
       0.0043594944 0.029124279 -0.024721062 0.025251158
0001b0 e1 37 d2 3b 1c 33 55 3d ae a7 5c 3d e5 4f 66 3d
       0.0064153527 0.052050695 0.05387085 0.056228537
0001c0 be 6f 64 bc 98 8a fd 3c 0b 95 ea 3c b5 38 28 bc
       -0.013942657 0.030949876 0.028635522 -0.010267426
0001d0 ce ad 56 3c 01 32 1e 3d 4a 60 cb bb 8c c4 2d bd
       0.013102962 0.038621906 -0.006206547 -0.04242377
0001e0 cf a6 80 3c ba 3d 3a bd 67 d3 b7 3c 84 be 2b 3a
       0.01570454 -0.045469023 0.022439672 0.00065515214
0001f0 e9 e7 29 3d e1 91 ce 3b 13 8b e0 3c 62 7f 09 bd
       0.041480932 0.006304011 0.027410066 -0.033568747
000200 28 69 ec 3c e5 c2 2a 3d a8 2a f0 bc 51 5c ba bb
       0.028858736 0.041689772 -0.029317215 -0.0056872745
000210 a5 32 58 3c fb 72 81 3c 8a 3f b0 bc 66 7a 8e 3c
       0.013195668 0.015801897 -0.021514673 0.017392348
000220 6f bf 32 3a c7 ed 0c 3d b8 4b 1d bb 49 7d eb bc
       0.0006818687 0.03440645 -0.002400143 -0.028746264
000230 b4 88 b1 bc 0d 59 18 bd cc 51 14 3d 19 ee ab bd
       -0.02167163 -0.0371943 0.03621082 -0.08395023
000240 2c a9 37 3d b6 44 61 3d 8b 94 22 3d f3 25 8c 3c
       0.04483907 0.05499717 0.039692443 0.01710794
000250 9d 0b 00 3c 20 a9 83 3b 7e fa 79 bd 28 94 39 bd
       0.007815269 0.004017964 -0.061029904 -0.04530731
000260 6f b5 b2 3b 91 dd 90 3c 98 ee 0b 3b c9 0b d3 bc
       0.0054537575 0.017683776 0.002135193 -0.025762456
000270 f5 80 29 bd 82 5a 7d bd 6c 84 36 bb bc 10 fe bc
       -0.04138275 -0.061853893 -0.0027849926 -0.031013839
000280 3e f9 85 bd 16 34 2c bc fe 99 2a bd 45 b1 d5 3b
       -0.0654168 -0.010510465 -0.041650765 0.0065213763
000290 12 c4 ac bc aa f6 f2 3c 53 35 60 3d 6b 23 65 3c
       -0.021089587 0.029658634 0.054738354 0.013985495
0002a0 e7 49 8a 3c df 08 48 3d 67 31 a6 3c aa 62 2f bb
       0.016880943 0.048836585 0.020287229 -0.002676169
0002b0 56 94 25 3d 20 7d d0 bc e2 73 e4 3c 81 36 1f 3c
       0.040424667 -0.02545029 0.027887288 0.009717585
0002c0 a4 3e b7 bc 81 16 4e bd 60 0e 4d bd de aa 4d bd
       -0.022368737 -0.05031443 -0.050062537 -0.05021178
0002d0 e3 0e c2 bb ff 5c 2f 3d 37 2e 1c 3d 1e 5a f6 bb
       -0.005922185 0.042813297 0.03813001 -0.007518067
0002e0 1f af f9 3c 67 39 d9 3c f9 2a 0a 3d 81 0d 96 bc
       0.030479012 0.02651663 0.03373239 -0.018316986
0002f0 8e a4 5c 3d 7b 02 dd 3a 84 e4 c6 3b aa b7 3b 3b
       0.05386787 0.0016861701 0.0060697217 0.0028643408
000300 8d e3 f0 3c 19 c0 fe bc fc 09 7f 3c dd d1 6f 3c
       0.02940538 -0.031097459 0.015566345 0.014637438
000310 07 96 15 3d 67 8e 51 bc ce 6a 9a 3c f6 be 84 bb
       0.03652003 -0.012790299 0.018849757 -0.0040510846
000320 68 22 c2 3b 64 9c e0 bc c7 1a 18 bd 02 d4 1e 3d
       0.0059245117 -0.027418323 -0.037134912 0.038776405
000330 42 a4 4b 3d 5b 88 fd 3c 68 3a 4e 3d ff d1 5c 3d
       0.049717195 0.030948808 0.05034867 0.053911205
000340 27 96 4f bd 24 ec 9b bc 00 f3 08 3c 82 e3 48 3d
       -0.050680306 -0.019033499 0.008358717 0.049045093
000350 fd aa da 3c 36 9c 2e 3d a3 76 6d 3d c5 70 cc 3c
       0.026692862 0.042629443 0.05797447 0.024956116
000360 ce 4f 88 bc e9 0e 32 bd 0b d9 4f 3d e4 1e 44 bb
       -0.016639616 -0.04347125 0.050744098 -0.0029925639
000370 62 b4 3f bd 8e 98 3c 3d 87 14 25 bc 92 b5 df bc
       -0.046802886 0.046043925 -0.010075695 -0.02730826
000380 8e 7f 1e bd 4d db 10 bd cb 15 36 bd 9d 8b 42 3d
       -0.038695864 -0.03536539 -0.044454377 0.047496427
000390 20 44 83 bc 64 f5 e9 bb 4e b9 38 3d e4 55 08 bc
       -0.016023695 -0.0071398485 0.045098595 -0.008321259
0003a0 e7 5c 4a 3d 19 cd 8f 3c 4d 35 5b bd 54 19 1c bd
       0.049405005 0.017553853 -0.05351763 -0.038110092
0003b0 d5 4c 6e bc 6b 44 e9 bc b4 d8 39 bd 59 5e 36 bd
       -0.014544685 -0.028475007 -0.04537268 -0.04452357
0003c0 9d 6a 04 3d e0 b3 0c 3d 87 9c 0a bd 9e bd 7a bc
       0.032328237 0.03435123 -0.033840682 -0.015303997
0003d0 3c a3 87 3c 92 cc 23 bd e8 1a 4a bd c9 05 ac bc
       0.016557328 -0.039990015 -0.049342066 -0.020998852
0003e0 15 b4 fe bc 79 d0 b0 bc ea d8 08 bc 13 c9 ae 3c
       -0.03109173 -0.021583783 -0.008352498 0.021336114
0003f0 5b f8 74 bc 34 ee d2 3c 6f 5c 4a bd 1a f0 6d bc
       -0.014951791 0.02574835 -0.049404558 -0.014522577

module.conv_3.bias f4 [12]
000000 d4 c0 41 bd fc 78 62 3d 1e f9 2d 3b 39 6f 0c 3d
       -0.047303036 0.05529116 0.002654619 0.034285758
000010 88 c5 a8 3c 8b f8 fe bc 64 d3 44 bd db 8c 1d bc
       0.020602003 -0.031124374 -0.04805316 -0.009616102
000020 00 c9 62 bd 26 89 e8 3c 9e d6 64 3d ab 5a 09 3d
       -0.05536747 0.02838571 0.055868737 0.033533733

module.conv_4.weight f4 [12, 12, 3, 3, 3]
000000 6b 1e b4 3c 61 0a 0e bd 59 80 40 bd 17 5a 1b ba
       0.02198716 -0.034677867 -0.046997402 -0.0005926205
000010 82 95 0e 3c be 7c 16 3d dd 43 ad bc 80 09 91 bb
       0.008702638 0.036740057 -0.021150524 -0.0044261813
000020 64 64 7e 3c 9d 91 fa 3c 8d 07 64 bd b8 45 0b 3d
       0.015526865 0.030587012 -0.055671263 0.034002036
000030 ef 01 85 3c 83 da 65 bd 75 1e 52 3d 15 ec 58 bd
       0.016236274 -0.056116592 0.051298577 -0.05295952
000040 b6 4e f9 bc e5 58 d6 3c bd 6f 18 bc f8 14 4f 3b
       -0.03043304 0.026165435 -0.009303984 0.0031598192
000050 36 94 39 3a 0b 1d 3e 3d 99 f7 bf bb 86 b9 5b bd
       0.0007079275 0.046414416 -0.0058583734 -0.053643726
000060 d0 73 61 bd db 6c 4d bd 78 be cc bc 06 0c 15 bd
       -0.055042088 -0.05015264 -0.024993166 -0.03638842
000070 09 1f 01 bd 57 60 34 bd a3 84 75 3d 2f 3b 08 3c
       -0.031523738 -0.04403719 0.059940945 0.008314892
000080 f4 7c e3 bc 6c 1e 19 3d 9d f7 77 3d 51 ea 25 3d
       -0.027769543 0.03738253 0.060538877 0.040506665
000090 a6 ce 19 bd 66 b1 ea 3b 5f 53 59 bb 85 c6 30 3d
       -0.03755059 0.007162261 -0.0033161265 0.043158073
0000a0 02 70 86 3d 2f 1f 12 bd 09 55 3f 3d 73 dd f9 bb
       0.065643325 -0.03567427 0.046711955 -0.0076252758
0000b0 dd b3 4b bb c0 a9 5e 3d ac 8e 30 3d ec 02 3b 3c
       -0.0031082549 0.054361105 0.043104813 0.011414271
0000c0 6f 53 4b 3d de 15 d4 bc 32 db 48 3c bb 1e df bb
       0.049640115 -0.025889333 0.0122592915 -0.0068090833
0000d0 fc d9 05 bd f6 1d 39 3d 3f 2a 32 bd 99 98 66 3d
       -0.03267859 0.04519459 -0.04349732 0.056297872
0000e0 3d 7d 66 3c 35 f0 e8 bc d8 16 07 bc c9 b6 1f bc
       0.014067945 -0.028434852 -0.0082451925 -0.009748169
0000f0 42 50 23 bd c7 b8 6f bc 2c bb a5 bc 74 e9 5f bd
       -0.03987146 -0.014631457 -0.020230852 -0.054665998
000100 61 88 42 bd fa d2 ac 3c bf 24 f4 bc 9d 38 39 bd
       -0.047493342 0.021096695 -0.029802678 -0.045220006
000110 1c 5f 3d bd 88 e9 d2 3a 14 a6 b7 bc 92 5d 37 3d
       -0.04623328 0.0016091326 -0.02241806 0.04476697
000120 d4 7a 06 bd d2 40 62 3d 98 9e 26 3d af 23 07 3d
       -0.03283198 0.0552376 0.04067859 0.032993015
000130 de f6 b0 bb 02 b5 e2 3c 9f e0 18 3c 87 53 b0 3c
       -0.0054005226 0.027674202 0.009330898 0.021524204
000140 cb fc 62 3c 3d 81 62 bc d5 f7 c3 bc ca 90 27 bc
       0.013854216 -0.013824758 -0.023921886 -0.0102273915
000150 39 9d cf 3c 39 85 cd bc ce 0b f2 bc 1a 90 5d bc
       0.025343524 -0.02508794 -0.029546645 -0.013523126
000160 f1 8b a8 3c c8 4a 06 bd 9e 25 45 bd 55 47 b4 bc
       0.020574542 -0.03278616 -0.048131578 -0.02200667
000170 f3 bc c6 bc b9 e5 49 3c 10 18 f6 bc 41 29 f0 3c
       -0.02426002 0.012322837 -0.03004077 0.029316546
000180 9b e6 c8 bc 3e 7b 3e bd 22 54 2a 3d b2 53 56 3d
       -0.024524024 -0.04650425 0.04158414 0.05232591
000190 32 dd 32 3d ba e5 4b bd bd 5e 56 3d 16 c6 a4 bc
       0.04366798 -0.04977963 0.052336443 -0.020113986
0001a0 70 eb 1a 3c fc b1 da 3c 94 96 fb 3c 0c 2a 8a bb
       0.009455547 0.026696198 0.03071145 -0.004216438
0001b0 fa c8 e0 3c d2 64 0e bd e6 81 c2 3c dc 06 22 bd
       0.027439583 -0.03476412 0.023743581 -0.039557323
0001c0 c2 3b cf 39 59 1e 13 3c f3 c6 4a 3d 8e c9 08 3d
       0.0003952664 0.008979403 0.04950614 0.033395343
0001d0 b7 c3 34 bd e4 36 f5 3c f0 69 4c 3c 1b 28 1f bd
       -0.04413196 0.0299334 0.012476429 -0.038856607
0001e0 98 93 c3 bc 32 76 1a bd 71 32 f8 3b a3 cf 3b bd
       -0.02387409 -0.037710376 0.0075743725 -0.045852315
0001f0 8f e4 37 bd 42 4b 9c 3b 71 ef 5c 3c e4 a4 d4 3c
       -0.044895705 0.0047697136 0.013484822 0.025957532
000200 2a 6b 8b bc 78 ce 0c ba 89 9d 20 3c 55 c2 5e 3d
       -0.017018873 -0.00053713424 0.009803184 0.05438455
000210 44 1d 66 3d 4e f8 de bc 4f f0 6f 3c bb 74 37 bc
       0.056180254 -0.02721801 0.014644696 -0.011197264
000220 8b 20 26 bb 51 86 d3 bc 5d c3 4c bc 90 e2 74 3d
       -0.0025348987 -0.025820883 -0.01249775 0.05978638
000230 5d ed 5e 3d 51 b6 8a bd 93 29 5b 3d 91 76 63 bc
       0.054425586 -0.06773055 0.053506445 -0.013883249
000240 3d d8 3a bc 59 22 22 3d 38 66 50 3d c5 f3 31 bd
       -0.011404094 0.039583538 0.050878733 -0.043445367
000250 91 8f d1 bc 24 c4 0e bd b5 95 88 3c 5a 55 5c bd
       -0.025581153 -0.034855023 0.016672948 -0.053792335
000260 ed 07 8d bc ed 0f b3 bc 34 de 5b bc 53 cd 04 3d
       -0.017215693 -0.02185818 -0.013419677 0.032422375
000270 1a ad 7c 3c 5f 55 54 3b 8c f2 1a 3d 92 4e ca bb
       0.01542213 0.0032399518 0.037828967 -0.006173917
000280 f7 74 00 3c 09 3c b4 bc be d3 24 3d f7 ae 8a bb
       0.007840387 -0.022001283 0.040240996 -0.004232283
000290 da c4 5c 3d 14 0f d1 bc 3f 24 63 bd 9f 92 33 3c
       0.05389867 -0.025519885 -0.05545449 0.01096025
0002a0 39 38 64 3c 39 79 ef bc 3f d1 92 bc 53 80 8b bc
       0.01392942 -0.029232608 -0.017922042 -0.017028963
0002b0 14 d3 49 3d 17 6d 08 bd 43 ce 18 bc d7 f6 aa bc
       0.049273565 -0.03330716 -0.00932652 -0.020869656
0002c0 f5 59 39 3d 2f cb 15 bd f2 f3 46 bd 10 de 59 bd
       0.045251805 -0.036570724 -0.048572488 -0.05319029
0002d0 c6 c1 1c 3d 19 77 53 bd 81 ad 1f bd af 53 07 bc
       0.038270734 -0.051627252 -0.038983826 -0.008259698
0002e0 9a ed 02 bd 84 af 5f 3d 4a 37 38 3d f1 ce 38 3d
       -0.031964876 0.054610744 0.044974603 0.04511923
0002f0 83 57 1a 3d 97 61 cd bc 94 b8 5a bd 4a 65 9b bd
       0.037681114 -0.025070949 -0.053398684 -0.07587679
000300 d3 04 21 3c 5a be 3e bc 8a 7b b6 bd 9f 75 bd bb
       0.00982781 -0.011642063 -0.08910282 -0.005781844
000310 2a e6 09 3c 52 02 84 bd f5 7e 6e 3d 84 3b ec bc
       0.008416692 -0.06445755 0.058226544 -0.028836973
000320 b9 5c 2b 3d 40 7d 6e 3d 19 61 92 bc 61 eb 0d 3d
       0.041836474 0.058224916 -0.017868565 0.034648303
000330 5d 36 57 3d 32 09 ca 3c 93 86 1b bb 69 67 b9 3a
       0.05254208 0.024662588 -0.0023731336 0.0014145199
000340 94 b3 0a 3d 30 b8 0c 3d e4 de 43 3d 9a 30 4f 3d
       0.033862665 0.034355342 0.047819987 0.05058346
000350 b1 d7 e4 bc 3b 43 0d 3d b3 ca 4f 3d bb d2 0e 3d
       -0.02793488 0.034487944 0.05073042 0.034868937
000360 8e 51 b1 3b c9 74 24 3d 47 65 b6 bc 6d 10 23 bd
       0.0054113334 0.040150438 -0.02226509 -0.039810587
000370 75 8e f9 bc 69 ce 52 bd 00 f5 5f 3c 95 a4 4a 3c
       -0.030463437 -0.05146638 0.013669252 0.012368341
000380 04 79 ff 3c 55 14 5d 3c 72 1a 8f bc 84 f9 4c 3d
       0.031185634 0.013493617 -0.017468665 0.050042644
000390 87 94 68 3c e4 bb 09 bb 15 59 b1 bc 64 33 96 3c
       0.014195568 -0.0021016533 -0.021648923 0.018335052
0003a0 55 f3 b8 3b 8e 00 9b bc 99 03 28 bd 8e 12 f7 3b
       0.005644242 -0.018921163 -0.041019056 0.0075400537
0003b0 25 33 37 3d 1d 1d 2f 3d 79 a4 e7 3c c7 22 42 3c
       0.04472651 0.042752374 0.028276669 0.011849112
0003c0 8e 87 cf 3b 9d b4 81 bb 39 68 6c 3c 74 9d 2f 3d
       0.006333298 -0.0039582984 0.0144291455 0.04287477
0003d0 6a ad 79 3d e0 04 6c 39 08 f7 ea 3c f0 f2 28 3a
       0.060956396 0.0002250853 0.028682247 0.0006444892
0003e0 76 84 27 3d e6 5a e7 3b fd 94 06 3d 19 29 61 bc
       0.04089781 0.0070603965 0.03285693 -0.013742709
0003f0 a8 09 ad ba 1e ca e6 3c 69 16 5a 3d 71 1c 24 bc
       -0.001320173 0.028172549 0.05324403 -0.010016547

module.conv_4.bias f4 [12]
000000 32 c8 4c 3d cc d1 2f bd 20 09 2e bd b2 1a 69 bc
       0.04999561 -0.042924687 -0.04248917 -0.014227556
000010 f6 28 0a 3d 63 18 b5 3c 1b 8d ac 3b 9d a8 07 bd
       0.03373047 0.022106355 0.0052658445 -0.033119787
000020 1a df 21 3d 42 7e 4c bb f8 4a 92 3c 42 8c 65 bd
       0.039519407 -0.0031203185 0.017858014 -0.056041963

module.conv_5.weight f4 [12, 12, 3, 3, 3]
000000 6b 4e 3a 3d 09 27 81 bd a6 c4 4b bd 40 93 07 3d
       0.04548494 -0.063062735 -0.049748085 0.033099413
000010 6a ba 8f 3c 27 5d 0a bb 48 34 8b 3c 17 c3 ab 3c
       0.017544944 -0.0021112652 0.016992703 0.02096705
000020 4b e2 b7 bc 2f e0 25 bc 04 55 cb 3b 62 b9 0e 3d
       -0.022446772 -0.01012425 0.006205203 0.034844764
000030 8f 2f 7e bd 0f 7d 52 bd db fe 83 bd 9f b5 4d bd
       -0.062057074 -0.051388796 -0.06445094 -0.050222035
000040 9d 09 86 bd 25 37 0d bd 8a a7 fd 3c dc 18 fb 3c
       -0.06544802 -0.034476418 0.030963678 0.030651502
000050 48 20 7a bc 0c 3d e9 3c 1a f7 1c bd 19 4e 5d bd
       -0.0152664855 0.028471492 -0.038321592 -0.054029558
000060 f4 d0 00 3d 28 92 1c bd 90 97 1a 3b e7 9e 3e 3d
       0.031449273 -0.038225323 0.0023588873 0.04653826
000070 f4 cc 11 bd 5f 7c 26 bd 3d db e0 3c 56 56 03 bd
       -0.03559585 -0.040645953 0.027448291 -0.03206476
000080 84 53 12 bd 9e 14 07 3d f8 c3 eb 3b 7e f0 6a bb
       -0.035724178 0.032978646 0.007194992 -0.003584891
000090 b0 4a 57 bd 2e 4f 45 bd a8 a2 a4 3c 64 39 de bc
       -0.052561462 -0.048171215 0.020097092 -0.027126975
0000a0 d4 90 35 bd 57 4a b1 bc e4 e0 27 bc 16 2e 40 bc
       -0.044327572 -0.021641893 -0.010246489 -0.011729738
0000b0 46 dc 38 bd b2 9e 60 bc f9 b2 0f bc 87 0b 5e 3d
       -0.045131944 -0.013709711 -0.008770698 0.054210212
0000c0 c4 c3 1f bd e0 a2 8d 3c ed 4b 4c 3d f2 38 e7 3c
       -0.039005056 0.017289579 0.049877096 0.028225396
0000d0 c7 21 93 bb f0 41 49 3d de b6 18 3d 38 6d 9a bc
       -0.0044901106 0.04913515 0.03728377 -0.018850908
0000e0 4c 8c 3d 3d 0c 0c 07 3d f1 3d 98 3d b7 fc 0c 3d
       0.046276376 0.032970473 0.074336894 0.034420695
0000f0 d6 ec eb 3c c7 d6 9c 3c b9 17 12 3d 5c 52 d8 3c
       0.028799456 0.019145383 0.035667155 0.02640646
000100 a7 6e 30 3c ea 32 54 3d 2f fb 81 3d aa f1 8c 3d
       0.010768569 0.051806368 0.063467376 0.06882031
000110 f6 e7 03 bd 92 04 da bc cc 12 33 3d 87 87 3f 3d
       -0.032203637 -0.026613507 0.043719098 0.04676011
000120 ac a4 6e 3d 7c 7f b7 3c 5f 2d d1 3c 32 52 d7 bb
       0.058262512 0.022399656 0.02553433 -0.0065710777
000130 90 2b 18 3c dd 82 10 3d e7 6a 69 3d 02 4c 94 bc
       0.00928773 0.03528105 0.056986716 -0.01810265
000140 af 0e 7e bc 1e 9e 69 3d 3d 76 1d bd b2 4d 66 3d
       -0.0155064305 0.057035558 -0.03844284 0.05622644
000150 a3 a4 09 bd 37 98 04 3d 87 65 39 bc 44 16 01 3d
       -0.033604275 0.032371726 -0.01131571 0.031515375
000160 8f 1f 8c 3c 8e 36 45 bd a1 1f 72 3d a7 47 a3 3c
       0.017104892 -0.04814773 0.059112195 0.019931627
000170 1d d9 6a bc 6e ee be bc 3e 1c 3e bd c3 a7 25 3d
       -0.01433399 -0.023307052 -0.046413653 0.040443193
000180 86 0a 6b 3b eb cf 60 bd a6 69 71 bb 9a cb 8e 3d
       0.0035864427 -0.054885786 -0.0036836653 0.06972428
000190 8f 35 76 3d a1 f7 9b bc ef 56 47 3d 01 a1 bf 3c
       0.06010967 -0.019038977 0.04866689 0.023392202
0001a0 8f d4 1b 3d f6 5a 10 3d 1c 81 37 ba b6 08 4e 3c
       0.03804451 0.035242997 -0.0007000135 0.012575319
0001b0 4f 86 30 bc 4a 18 a5 bc 33 d2 1d 3d c1 9e 27 bd
       -0.010774209 -0.020153183 0.03853054 -0.040922884
0001c0 96 8f 61 bd e4 ab 60 36 e5 6c 4d bc 5f bd d7 3c
       -0.055068575 3.3478655e-06 -0.0125381695 0.026335416
0001d0 65 9a 50 3d 8b 5a 4b bd d2 9f 13 3d 1a 2f ac bc
       0.050928492 -0.049646895 0.03604109 -0.021018554
0001e0 0b 90 f1 3c 16 7e c6 bc a6 27 fa 3c fb 1f 97 bb
       0.02948763 -0.024230044 0.030536484 -0.0046119667
0001f0 82 e0 0a 3d 64 a2 e1 3c 11 cd 39 bd 56 ed 9e bb
       0.033905514 0.027543254 -0.045361582 -0.00485007
000200 9c ac 6d 3c 9d f3 c2 3c 85 1d 46 bc 5b 0c a2 bc
       0.014506485 0.023797804 -0.012091999 -0.019781282
000210 44 52 ec bc 99 f9 f3 3c 0d 65 8f bc a9 94 64 3d
       -0.028847821 0.029782103 -0.01750424 0.055805836
000220 3c 28 b2 bc 29 38 f8 bc 81 a3 f9 3c 56 62 ab 3c
       -0.0217477 -0.030300217 0.030473473 0.020920914
000230 b0 81 61 3c 1d 80 e6 ba b9 68 6d 3b 24 86 a8 3c
       0.01376383 -0.0017585788 0.003622575 0.020571776
000240 6a 5c 48 3d 14 90 6f 3c d8 ec 70 3d b8 d3 6a 3c
       0.048916258 0.014621753 0.05881962 0.014332704
000250 a9 3c d0 bb 60 41 c5 3c 5f a7 17 3d 72 fe 3b 3d
       -0.0063548875 0.024079025 0.037024852 0.045896955
000260 0d 12 21 3d 69 9a 38 3d b9 22 13 3d 5e 76 63 3b
       0.039323855 0.045069132 0.035921786 0.0034708004
000270 ed 99 de bb 47 13 f9 3c b5 a7 f2 3c 73 dd 5d bc
       -0.0067932517 0.0304047 0.029620985 -0.013541567
000280 d5 37 c4 3c 8b f4 b3 3c 7e a6 2f bc e0 7e fc 3c
       0.023952404 0.021967193 -0.010720847 0.030822217
000290 3e bf 37 bd 83 a8 94 bb 7f ed b4 3c 4f 64 f8 3c
       -0.044860117 -0.0045366897 0.022085903 0.030321268
0002a0 2c 1c d5 bc 72 b8 43 bd f6 6d 1d bd 34 f4 21 bd
       -0.02601441 -0.047783323 -0.038434945 -0.03953953
0002b0 b4 a6 32 bd c6 ae 9c bd 26 7d 31 bc 6c 7f 99 bd
       -0.04361601 -0.07650523 -0.01083306 -0.07495007
0002c0 c9 33 f8 3c 5c 98 32 bd c5 68 9f bc 50 95 b2 bc
       0.03029813 -0.043602332 -0.019459138 -0.021799713
0002d0 f7 6c 41 3c 1c 5f 33 3d 9c 27 53 3d 0d b9 12 3d
       0.011805764 0.043791875 0.051551446 0.03582101
0002e0 c7 53 3a bc 56 40 54 3d c2 5e 39 bd 1f 38 6e bd
       -0.011372513 0.051819168 -0.045256384 -0.05815899
0002f0 af 34 a8 bc 58 5f b3 bb b5 ff e6 3b f6 bb c7 3c
       -0.020532934 -0.0054740123 0.0070495256 0.024381619
000300 1e 1b 49 bd 55 54 3c 3d 0d 88 90 bc ad d4 ba bc
       -0.049098127 0.045978863 -0.017642999 -0.02280649
000310 26 70 4a bd a2 90 12 bd 4c 7a 6c 3d 4b a9 5e 3d
       -0.04942336 -0.035782464 0.05773382 0.05436067
000320 ab fe 4b 3d 9e fc ba 3c 95 f2 3d bd 0e ec 18 3d
       0.049803417 0.022825535 -0.046373922 0.037334494
000330 b3 cc 34 3d 44 91 b8 bc 5c 1b 07 3d 45 6c e1 3c
       0.04414053 -0.022530206 0.032985076 0.027517447
000340 17 09 f0 bc 48 b5 86 3c 53 ba 33 bd e4 eb c3 3c
       -0.02930121 0.016443864 -0.043878864 0.023916192
000350 81 1e a3 3c 83 36 64 bb 0e b0 0f 3d 32 bd 16 bc
       0.019912006 -0.003482253 0.03508001 -0.009200381
000360 36 8e 5a bc a9 89 29 3d f2 ee 50 bd 4a 9e 9b bb
       -0.01333957 0.04139105 -0.051009126 -0.004749094
000370 75 80 32 bd 26 78 66 bc a2 61 e9 3c 83 11 0a 3d
       -0.043579537 -0.014066732 0.028488938 0.033708107
000380 d5 c5 1b bc a3 aa 0e 3d 60 36 83 3b f0 a3 3a 3d
       -0.009507616 0.0348307 0.0040042847 0.0455665
000390 34 7c fc 3b 12 6b 64 bd 9d ee a8 bb ea 38 0f 3c
       0.007705236 -0.055766173 -0.005155398 0.008741597
0003a0 bb 43 00 3d c4 ba db bc 83 e8 a2 3c 85 68 71 bd
       0.031314593 -0.026822455 0.01988626 -0.05893757
0003b0 c9 2e 6b bd fc 88 54 bd f6 b1 27 bd 63 7e 2b bd
       -0.057417665 -0.05188845 -0.0409412 -0.04186858
0003c0 c2 92 c9 39 29 bf 71 3c 43 1e 2c 3d ad 01 0f 3d
       0.0003844705 0.014755049 0.042021047 0.034913708
0003d0 d0 33 2d 3d 4f 49 d3 bc 34 80 c1 bc 6d 57 0b 3d
       0.04228574 -0.025791792 -0.023620702 0.034018923
0003e0 5f e0 44 3d 7a bf f2 3c 4b 9b 14 ba ea 8d 18 3d
       0.04806554 0.029632319 -0.00056688924 0.037244715
0003f0 df c3 23 bc 53 60 c6 bc ad 34 58 3d 92 71 aa bc
       -0.00999543 -0.024215853 0.05278461 -0.020806108

module.conv_5.bias f4 [12]
000000 cc 85 86 3b e3 9b 21 3d e8 5f 30 bc ba d0 d0 bc
       0.0041053053 0.039455306 -0.010765053 -0.025490154
000010 ce f5 83 3b 59 e2 62 bc b2 f3 92 bc ef 4a 7d 3d
       0.004027105 -0.013847911 -0.017938469 0.06183904
000020 57 b1 69 3d 4b 54 41 bb b8 38 11 bd 47 aa 15 3c
       0.05705389 -0.0029499705 -0.03545448 0.009134836

module.conv_6.weight f4 [12, 12, 3, 3, 3]
000000 df 59 fd bc 7f 71 28 3d 0e be 01 3d 52 e9 85 bb
       -0.030926643 0.041123863 0.03167539 -0.004086652
000010 64 95 a8 bb 77 0a d2 bc 8b 28 d5 ba 62 78 cd bc
       -0.005144762 -0.025639756 -0.0016262693 -0.025081817
000020 75 76 fd 3c 1f 7f ae bc 46 13 aa bc 79 e3 2d bd
       0.030940274 -0.02130085 -0.020761143 -0.042453263
000030 1e 7f de bc df a9 c5 bc ad 00 6e bd 5c e5 1c bc
       -0.027160224 -0.024128852 -0.058106113 -0.009576168
000040 e7 ac a0 3b fb de 0b bd d6 af 7d bd 57 3e 74 3c
       0.004903424 -0.034148198 -0.06193527 0.014907441
000050 9a 08 94 3c c4 5f 05 bd cd d6 d0 3c ef e3 0b 3d
       0.018070508 -0.032562032 0.02549305 0.03415292
000060 30 c0 08 3d ca 27 f6 3c d0 b0 7e bd 13 67 37 bd
       0.03338641 0.03004827 -0.06218034 -0.044776034
000070 d2 f5 46 bc 36 38 5a 3d 99 3a 87 bc 7b c9 60 3c
       -0.012143569 0.053276263 -0.016507434 0.013719912
000080 c4 17 8a 3c 23 66 5b bd af fd 56 3d 91 75 f3 3c
       0.016857035 -0.053564202 0.052488025 0.029719146
000090 1a 63 a8 3b 7c 40 18 bd 92 78 93 b9 6d f9 df bc
       0.005138767 -0.037170872 -0.00028127857 -0.027340615
0000a0 08 51 47 bb 29 84 1f bd d0 46 63 3d ba 18 5f 3d
       -0.0030413289 -0.038944397 0.055487454 0.05446694
0000b0 dc 45 8d 3c bd 39 f8 3c 18 da 88 bc b4 68 4d 3d
       0.017245226 0.03030097 -0.016705558 0.05014868
0000c0 3c 3b c6 bb 04 35 69 3c c1 d3 6f bc 2b e3 d8 3c
       -0.0060495418 0.014233831 -0.014637888 0.02647551
0000d0 2b e5 1e bc 7a 62 d1 3c bc 21 22 bd a0 6a c1 3b
       -0.009698193 0.025559653 -0.039582953 0.0059026033
0000e0 99 ef 1b bd f7 3d 43 bd 78 26 32 bd 17 28 74 bd
       -0.038070295 -0.047666516 -0.043493718 -0.059608545
0000f0 b6 66 17 3d a3 c0 0c 3d d3 b3 23 3c c0 b8 42 bd
       0.036963187 0.0343634 0.009991604 -0.047539473
000100 92 58 4c ba 37 a7 0c bd 34 91 56 bd 22 16 67 bd
       -0.00077951804 -0.034339156 -0.05238457 -0.056417592
000110 f1 2f 4c bc f2 a6 ec 3c 87 1e bf bc 01 a1 32 3c
       -0.012462602 0.0288882 -0.023329986 0.010902644
000120 9c 9f 9e bc 82 43 84 bd d2 da 16 bd 1d 98 78 bd
       -0.019363217 -0.064581886 -0.036829777 -0.06069194
000130 49 f9 83 bd 81 1e 1b 38 fa d0 88 bc 1f 40 64 bd
       -0.06444032 3.698329e-05 -0.01670121 -0.055725213
000140 1c 05 06 bd c7 cb a8 bc 0b 13 f2 3c fb ff 53 bd
       -0.032719716 -0.020604981 0.029550096 -0.051757794
000150 8b 1e 65 3d 55 10 fe bb 09 07 14 bd 0e 42 f1 bb
       0.05593733 -0.007753412 -0.03613952 -0.0073626107
000160 05 6f c7 3c 58 dc dc bb b9 24 c1 bc 3d 7e 00 bc
       0.02434493 -0.006740134 -0.023577081 -0.007842598
000170 3a 66 81 3c f4 c6 0f 3d 6b 6d f7 3c d0 3e 5f 3b
       0.015795816 0.035101846 0.030203542 0.0034064539
000180 0e 5b e0 3a 12 f1 36 bd 41 d7 ac 3c 1f 46 d9 3c
       0.001711698 -0.044663496 0.021098735 0.026522694
000190 39 a9 67 bd a2 72 b5 3c 3b 0d 49 bc 14 b4 6a bc
       -0.056557868 0.022149388 -0.012271221 -0.0143251605
0001a0 92 45 b4 3a 05 d3 20 3d 03 63 5b bd 8e af c2 3c
       0.0013753644 0.039263744 -0.05356122 0.023765352
0001b0 e1 d2 3d bd b6 4a 70 3d 98 ab 1c bb f0 ec 4a 3d
       -0.046343688 0.058665 -0.0023905989 0.049542367
0001c0 06 ef 90 3d be c4 20 3d 5f fe fe 3c 6d da 73 3c
       0.0707684 0.039250128 0.031127153 0.01488362
0001d0 87 cb 1c 3c 51 0d 78 bc 48 50 b4 bc 96 b8 e9 3c
       0.009570009 -0.015139894 -0.022010937 0.0285304
0001e0 8d 9a d3 3c 54 86 13 3d 41 ce 86 3b 66 d4 0e bd
       0.025830531 0.036016777 0.004113943 -0.034870528
0001f0 26 9d c1 bb ef db 83 3d 86 78 f1 3b 3a 8d 2c 3d
       -0.005908626 0.064384334 0.007369104 0.04212687
000200 d4 4a 42 bc b0 16 0c 3d a4 ce 96 3d 9f be 98 3d
       -0.011858661 0.034201324 0.07363632 0.07458233
000210 cc 03 f4 bc 0a 03 52 3d 26 5b 47 3d 3b cb fa 39
       -0.029786967 0.05127243 0.04867091 0.00047835134
000220 ae 85 af 3c 40 70 44 bb 58 a5 6e bd 95 bd 9f 3b
       0.021426048 -0.0029974133 -0.058263153 0.004874895
000230 91 1a 42 3b 46 fb 9e 3c be 6a 11 bc 84 c1 f1 bb
       0.0029617886 0.019406926 -0.008875547 -0.007377805
000240 8a 6f 93 3b be d5 df 3c dc e6 42 bd ff b2 39 bd
       0.0044993805 0.0273236 -0.047583446 -0.04533672
000250 32 ac 78 bd 5d 6a a0 3b 62 22 93 ba fd 6e db ba
       -0.060711093 0.004895492 -0.0011225457 -0.0016741451
000260 c5 6f 43 bc 65 bf a5 3c ea 8c e6 bb d9 d0 f9 3b
       -0.011928503 0.020232866 -0.0070358412 0.0076237735
000270 97 02 f6 3c 98 d0 bd 3c 3d 9d 46 bd ab 63 32 bb
       0.030030532 0.023170754 -0.048489798 -0.0027220051
000280 e4 c4 a8 3c 8f 09 c8 bc 17 1c cf 3c 17 0f 6e bc
       0.020601697 -0.02441862 0.025281949 -0.014529965
000290 d3 b1 4c bd bc 87 64 3d a8 13 34 3b a5 c2 42 bd
       -0.049974274 0.05579351 0.0027477536 -0.04754891
0002a0 c6 57 4d bc 5a ed 95 bc 77 14 35 bd 33 ef 58 bc
       -0.012533134 -0.018301655 -0.04420897 -0.013240623
0002b0 79 d6 49 bd 74 77 e8 3c d4 62 3a bd 15 9e 8e 3c
       -0.049276803 0.028377272 -0.045504406 0.017409364
0002c0 f0 f2 80 3c 6e ce dc bb b7 da f9 3b ba ae 30 3d
       0.015740842 -0.0067384755 0.00762495 0.043135382
0002d0 0c 2c 4e 3c d1 8f 05 3d c6 7e be bb b1 55 1e 3d
       0.012583744 0.032607857 -0.0058134524 0.03865594
0002e0 26 c6 85 3c 7e b9 42 bd 13 b7 64 3d 62 5c 9f 3b
       0.016329836 -0.04754018 0.055838656 0.004863308
0002f0 99 fd c4 3c 41 02 63 3d 58 dc cd bc fa cd e0 bc
       0.024046706 0.05542207 -0.025129482 -0.027441967
000300 68 53 88 bc 7e b1 86 3d 10 89 1b 3d a8 ee 29 bd
       -0.016641334 0.06576823 0.03797251 -0.041487366
000310 18 f6 44 bd a5 6b 20 bd af 46 ae 3b ec 1f a0 3d
       -0.048086256 -0.039165158 0.0053184847 0.078185886
000320 ad ae a2 3d be 3a 16 3d 60 3b e5 3b d2 f4 db 3c
       0.07943473 0.036677115 0.0069956034 0.026850138
000330 ac d9 94 bc 20 38 8e bc 60 78 5c 3d 8f f2 94 3c
       -0.0181702 -0.017360747 0.053825736 0.018182067
000340 12 17 0a 3d c6 70 24 bd 2c c2 87 3b ad 52 4d 3d
       0.033713408 -0.04014661 0.00414302 0.050127674
000350 50 78 ca 3c 83 3a 39 3d ff 4a 30 3d b1 ca 90 3c
       0.024715573 0.045221817 0.04304027 0.017674776
000360 db 17 07 3d 24 8e 8c bc 0a 7f 80 bc b2 41 e4 bc
       0.032981735 -0.017157622 -0.015685577 -0.027863357
000370 d3 0d 5a 3c 09 14 19 3c 52 14 10 3d 48 a3 0c 3b
       0.01330896 0.009343156 0.03517563 0.0021459628
000380 e1 94 e9 3c 92 a2 d5 3c 4d b6 4f 3d 4a 70 26 bd
       0.028513374 0.026078496 0.050710965 -0.04063443
000390 ae 3f 52 bd 98 46 0d 3d 96 c0 ce 3c 91 47 c4 bc
       -0.05133026 0.03449115 0.025238317 -0.023959907
0003a0 54 35 8b 3c fd 60 23 bb 55 08 40 3c 7f d6 05 3d
       0.016993202 -0.0024929636 0.0117207365 0.032675263
0003b0 6b 25 98 bc 85 32 2b bd 56 c7 6d 3c c2 bf e5 bc
       -0.01857253 -0.041796226 0.014512857 -0.028045539
0003c0 1d d1 6f 3c dc 01 f9 bc 16 1d 33 3d d2 03 1a 3d
       0.014637259 -0.030396394 0.04372891 0.0376013
0003d0 c3 14 80 3d 36 65 9b 3d 08 9e 4b 3d 71 97 56 3d
       0.0625396 0.07587664 0.049711257 0.05239052
0003e0 68 7f ec 3d d3 f5 a6 bd 56 67 a2 3b 5f 97 8e 3c
       0.11547738 -0.08152356 0.0049561663 0.017406164
0003f0 d0 0f d1 3d 7c 1c 20 3d c0 81 06 3e 3b c5 48 3d
       0.10208094 0.039089665 0.13135433 0.04901622

module.conv_6.bias f4 [12]
000000 e2 ad 0d 3d 78 bb 76 3b 19 7b 3e 3d 99 fa 08 3d
       0.034589656 0.0037648361 0.046504114 0.033442114
000010 ff 82 85 3b f6 ec 11 3d e3 59 57 bd d9 01 15 bc
       0.004074454 0.035626374 -0.052575957 -0.009094679
000020 05 fc 3f bb 4d 23 18 3d 6d a4 06 3b 98 c7 14 3d
       -0.0029294502 0.03714304 0.0020544783 0.03632316
