models/FSRCNN3D_epoch_30.pth (torch, 265262 bytes, 15 tensors)

module.conv_1.weight f4 [56, 1, 5, 5, 5]
00000000: 4cf7 4d3d 2658 7ebd 4b5f 913d 2101 8f3d
00000010: 46a5 93b9 1962 023d e8e6 323c 2cf6 47bd
00000020: 0078 743d eeeb 6ebd 7c89 4b3d d2b4 a63c
00000030: 4682 a63d 176a 123c c17a 073a eb44 fcbc
00000040: 8dd7 5d3d cae1 a23c 66d6 5c3d 9d1b acbd
00000050: f343 c43d 7c9d 873d 6988 933d b92d 58bd
00000060: cd7d bfbb 6861 03bd 062f 203b b3de be3d
00000070: 3c2b 42bd 3bf4 4b3c d0c5 78bb 2e1b 6fbd
00000080: 36bb d5bc 894c 0dbc 35a5 1abd b51e 9abd
00000090: d4fc cdbc b3b1 4d3d 31e5 01bc 8d16 803d
000000a0: 9ddc 04bd 8c77 99bd e243 973d 8c45 09bd
000000b0: 6d0b 5f3d 66f6 84bd 4ce8 c23d 2b0d ccbc
000000c0: 92f4 2e3d 3148 5abd 1cf6 8d3d fce0 a1bd
000000d0: e70e 643d 5398 0dbc ef32 993d 367c 943d
000000e0: 9941 c1bb 2a22 903d e4eb 16bd 8665 22bd
000000f0: c710 d53b c3a7 b1bd 7f40 553d 0d99 103d
00000100: 002d a93a 5e1a 3f3d 8d15 903d d858 623c
00000110: 2344 863d b7fc af3b 9ddd d33c dba4 803d
00000120: 254d d23b ae0a 433d 9a93 8dbc de84 b33b
00000130: ea5c 71bd e9d1 063d 4fc9 e1bc 804a 9cbd
00000140: fd1f 893d 977f 6e3d cc6c c93d bcfe 143d
00000150: e67a 2abd 8ff2 7e3d 28f1 fbbc f4d8 0fbc
00000160: 45cb 11bd b260 b5bd 53ab 56bd d321 5cbd
00000170: 57f3 80bd 5dc6 c6bb 37fa 7ebd 7deb fb3c
00000180: ad60 42bd 791e 90bc 18b2 a53d 1b72 b73d
00000190: c40b 68bd 015a c73c a238 12bd dbbd adbd
000001a0: c81b ee3c 1a80 f4bc b655 b13d 012a bf3d
000001b0: 7ed0 6e3d c8e3 613d a88a 9bbd f020 483d
000001c0: 2051 873d 2c0a 993d 993a 2f3d b85f 43bb
000001d0: 08fe 5fbc 7af2 5c3c 0046 8a3a d807 b2bd
000001e0: 1c19 63bd f345 fcbc 8ca4 72bc 6dea 4fbd
000001f0: e9ab 4e3d 9cbb 3cbb c12a b33d 5b2e 6e3d
00000200: c420 1bbd d788 003c e82f da3c 7417 bc3d
00000210: 5f8d c1bc ddb0 343d a315 2d3d a50e b03d
00000220: 38f1 293d 1de7 9bbc 0502 77bd a580 d63c
00000230: 814c 44bd ee35 d93c 5286 b23d b89a 72bc
00000240: fdd1 58bd 01d9 61bd 68ba 22bd 97eb 8d3c
00000250: b4a1 92bd 238c 1f3c 63b6 603d 2c86 cabc
00000260: a403 84bd eaba b4bd 2364 5b3d 0369 a03b
00000270: dcba 1c3d 896d b5bd 6240 563d 23ba 17bd
00000280: 0957 b33d ea87 8fbd 3b97 b6bd 1122 babd
00000290: 6c79 89bd 0ed4 e9bc c13c 8ebd 8757 81bd
000002a0: cae9 29bd 95b4 973d bde1 233d 9b8f 023d
000002b0: 54a8 a3bd 1069 093d 570a 733a e438 eb3c
000002c0: f891 91bd 806b 7c3b 627b 003d 2b6d b2bc
000002d0: 8eee 7f3d c884 e03c fd1f d5bb 2a73 8ebd
000002e0: 8e5c aebd 3724 e3bc e394 ef3b 04f0 c4bd
000002f0: 899d efbc ddc7 5f3d ad0c 06bd 9a92 94bd
00000300: 9648 893d 310a 83bd e9e7 f8ba c924 483c
00000310: 8182 313d 9135 2d3d 97d4 6b3d 494b 223d
00000320: 1ec4 b83d e1ca 7f3d d542 623d ebf9 83bd
00000330: 5a00 853d d388 99bd 7be7 aabc 9c31 b5bc
00000340: 6e2e 593d fe83 85bd ef24 f23c 7812 2d3d
00000350: d3f3 6e3d 4a82 833d a2e2 773d e097 ac3d
00000360: ebce b03d 87e8 683c 1c59 6b3d 7647 acbd
00000370: 963e 203d e759 e63b b309 83bd 0638 9b3d
00000380: 3dff 4abd e1a9 87bd e266 2abd b182 91bd
00000390: 3881 ddbb 1dc7 b33d cd78 db3b e3d1 cc3d
000003a0: 5968 a3bd d174 47bd 2f75 64bd 4e44 a23d
000003b0: 26dc cc3c b2c3 413d d440 363d 9013 353d
000003c0: fd38 4f3d 52a6 4b3d a0a4 b93c dce6 06bd
000003d0: 6fec ac3d f9b4 96bc d91d 84bd 943a 4dbd
000003e0: 0a41 da3a ed29 a7bd 1f83 b6bb 5e41 babc
000003f0: 8f16 3dbd 8f79 52bd 3312 b03d 3a43 033b
0.05028467 -0.062095784 0.07098254 0.06982637 -0.00028161163 0.031831834 0.01091931 -0.048818752
0.059684753 -0.05833047 0.049691662 0.020349894 0.081303164 0.008936427 0.0005168133 -0.030794581
0.054160643 0.019883055 0.053915404 -0.08403704 0.09583273 0.06621835 0.072037525 -0.05277798
-0.005843854 -0.032075316 0.002444209 0.0931982 -0.047404513 0.012448366 -0.0037959702 -0.05837553
-0.026090246 -0.008624204 -0.03775521 -0.07525388 -0.025144972 0.050218295 -0.007928179 0.06254301
-0.032436956 -0.07493505 0.073859945 -0.03351359 0.054454256 -0.06492309 0.09516963 -0.024908623
0.04271371 -0.053291503 0.06931707 -0.079042405 0.055678274 -0.008642274 0.07480418 0.07250254
-0.0058977124 0.07037766 -0.036846057 -0.0396476 0.006502244 -0.08674576 0.05206346 0.03530221
0.0012907088 0.046656005 0.070353605 0.013815127 0.06555965 0.005370702 0.02586251 0.06281444
0.0064178878 0.047617607 -0.017282296 0.0054784855 -0.0589265 0.03291503 -0.027561812 -0.07631397
0.066955544 0.058227148 0.098352045 0.036375746 -0.04162111 0.06224304 -0.03075464 -0.008779753
-0.035594244 -0.08856334 -0.05240948 -0.053743195 -0.062964134 -0.006066127 -0.062250342 0.030751938
-0.04745548 -0.017592655 0.08090609 0.08957311 -0.056651846 0.02433491 -0.03569854 -0.08483478
0.029065982 -0.02984624 0.08658926 0.093341835 0.058304302 0.05514887 -0.07594806 0.048859537
0.0660727 0.07472643 0.042780492 -0.0029811691 -0.013671406 0.013485545 0.0010549426 -0.08692902
-0.055443868 -0.030795073 -0.014809739 -0.050760675 0.050456915 -0.0028798347 0.08748389 0.058149677
-0.037873045 0.007845125 0.026634172 0.09184161 -0.023626981 0.044113982 0.042256963 0.08596543
0.04148981 -0.019031102 -0.06030466 0.02618439 -0.047924522 0.026514973 0.08717026 -0.014807396
-0.052934635 -0.05513859 -0.039728552 0.017324252 -0.07159749 0.009738001 0.054861438 -0.024722181
-0.06446007 -0.088247135 0.053562295 0.004895331 0.03826414 -0.08858783 0.052307494 -0.03704275
0.08756835 -0.070083454 -0.08915564 -0.09088529 -0.067126125 -0.028543498 -0.06945182 -0.06315523
-0.041482724 0.0740749 0.040010203 0.031875234 -0.079910904 0.03354746 0.0009271255 0.028713651
-0.071079195 0.0038516223 0.031367667 -0.021780571 0.062483363 0.027407065 -0.0065040574 -0.069555596
-0.08513747 -0.02772723 0.00731145 -0.09616092 -0.029249923 0.054633964 -0.032726932 -0.072545245
0.06703298 -0.06398428 -0.0018990013 0.0122158015 0.04333735 0.042287413 0.05757579 0.03962258
0.090217814 0.06244934 0.055239517 -0.064441524 0.06494208 -0.074968 -0.020862332 -0.022118382
0.053022794 -0.06519316 0.029558627 0.04225394 0.058337998 0.06421335 0.06051887 0.08427405
0.086332165 0.014215595 0.05745803 -0.084120676 0.039122187 0.00702976 -0.06398334 0.07579045
-0.04955982 -0.06624199 -0.041602023 -0.071050055 -0.006759789 0.08778212 0.00669775 0.1000097
-0.07978887 -0.04869539 -0.055775817 0.07923184 0.025007319 0.04730577 0.04449542 0.04420811
0.050591458 0.049719162 0.022661507 -0.03293501 0.08443534 -0.018396841 -0.064510055 -0.050104693
0.0016651463 -0.081622936 -0.00556983 -0.022736248 -0.04616409 -0.05138546 0.08597221 0.0020029084

module.conv_1.bias f4 [56]
00000000: f91b 723c e45e e3bb ac7d 9f3d 4dd8 6f3d
00000010: 197f 31bd f5a8 4c3d 08d9 98bd 6340 09bd
00000020: 195d 03bc 392c 90bc ce3b 703d e47c 343d
00000030: 1cdc 67bd 4aef d7bc bb42 1ebd 5a6e 60bd
00000040: 92fb 9a3b c3a4 8e3d 01ac 99bc bcc5 3e3d
00000050: 3d04 953d 385d fc3c 4097 e43c f369 3e3d
00000060: 38a4 4dbc 7147 82bc 6343 30bd fd7a b2bc
00000070: 6857 083d 946a 7d3d c8fe 8d3d 46c4 603b
00000080: 6108 0239 19f4 12bc b15c f63c 4570 07bd
00000090: 3d05 e1bc 2fcc 7f3d 885c 013d 5e4c 863d
000000a0: 4225 d63c 20dc 9e3d d00c 833d 4c42 c0bd
000000b0: ce26 ae3c b788 a0bd 8f6d ce3c 592a 433d
000000c0: 08e2 73bd 4853 ffbc 89a4 0c3c 9d0e 02bc
000000d0: 7c09 e8bc 4d98 c73d 3525 4ebd bfbc a73d
0.014777177 -0.006938802 0.07787642 0.05855589 -0.0433341 0.049965817 -0.074632704 -0.03350867
-0.008017802 -0.017599212 0.058650784 0.044064417 -0.056606397 -0.02635922 -0.038637858 -0.05479274
0.0047296965 0.069650196 -0.018758776 0.046575293 0.07276199 0.030806169 0.027904153 0.04648776
-0.01255136 -0.015903207 -0.043033015 -0.021787161 0.033286482 0.06186922 0.06933361 0.0034296676
0.00012400887 -0.00896933 0.030073496 -0.033066053 -0.027468318 0.062450584 0.031582385 0.06557535
0.026140813 0.07756829 0.06398928 -0.09387645 0.021258738 -0.07838576 0.025198726 0.047647808
-0.059541732 -0.031167641 0.00858415 -0.007938054 -0.028324835 0.09745846 -0.050328452 0.08190297

module.conv_2.weight f4 [12, 56, 1, 1, 1]
00000000: f128 d33d a652 243e 2661 9bbd 25b3 a1bd
00000010: 3897 073e cd3e 8d3c cf26 a43c 0859 9c3a
00000020: 0c98 04bd 1bc3 8b3d 7cc3 b2bd e724 553d
00000030: 2a33 f43d 5f1c 4fbd 1199 983d c667 9fbd
00000040: 459f c13d a698 a8bc 9585 cebd a56c 183d
00000050: bfbe ecbd 867c 883d 8ce8 8a3d c3db b13d
00000060: f11f 4fbd eaa9 3dbd e8e3 84bc 8882 863b
00000070: ffb7 e8bc 70c5 e33d db8d f03c 5d74 bfbd
00000080: bd2c fcbd b0ba b53d df97 e5bd fb59 8b3d
00000090: f1d8 843d 43be 99bd 93df 63bc d92d 2a3e
000000a0: 3ac6 9c3d baf0 fe3d df4b 613d c446 c4bd
000000b0: d887 123e 8c73 723d b557 80bd 1ac7 f23d
000000c0: 7af9 31bd 144a 763c 0bbc 653b 5ea2 caba
000000d0: 0db7 023e c4db 323d 7fa8 98bd 0f79 ac3d
000000e0: 7b15 e0bc 1ff9 1abd ab50 da3d eb00 a7bd
000000f0: 63c3 bcbd f271 43bc 0cbc 2c3c e03f c53b
00000100: fc06 e5bc 85ca b53d ee8c 11be 6695 37bd
00000110: 08fc d73d 63f1 06bd 031d fa3d eb04 3f3c
00000120: 06ad 043d b47d a33d 6c07 1a3d 097c a23d
00000130: f928 033e 511c 3abd bc2e 4e3d b2c6 ac3d
00000140: 5d7b 9b3b 765c ff3c d43b b93d 9f33 af3d
00000150: 6f28 b73c afcc 9f3d f1ca c63d 9723 f2bd
00000160: 345f e0bd 8053 a2bb 66c2 3fbd ad7a 1bbd
00000170: 869e 80bd be2d 103d 3fe6 d13d 4d76 07be
00000180: 5f83 583d fd32 f23d bcb8 4a3d 75eb 7a3d
00000190: 29ac c03d 8621 123e ddc2 c6bd 6621 8c3c
000001a0: 928e 803d 18ba 443e 2436 fcbd a4c3 2b3d
000001b0: fdae a5bc 008b 46bd 6b71 513d 8403 083e
000001c0: b8f0 3d3d e884 70bd f42f 3b3d f9fc 573d
000001d0: 21ad 6abd b765 313d 6c51 d4bd 118b 5f3b
000001e0: 5b0b d13d 3464 0f3e 021e a7bc fd62 34be
000001f0: fc7d 563d c6bc f0bc d9b7 7bbd 588a 593d
00000200: 7849 4cbb d9da c13d 7b83 f9bd 48dd 0b3d
00000210: 0c42 e53d 41cc eebc 7f07 80bc 79f2 d03d
00000220: 3a1d 16be c7c3 e13d 6871 ecbd 938e 9b3d
00000230: d7b8 053e 01c2 87bd e331 b93d b813 1ebd
00000240: 64cb ff3d 0ced 14be a560 d2bd 14eb 053e
00000250: f252 013e 9989 5fbd 1f7f 983d 64c4 22bd
00000260: ac1f 96ba 1fb3 f2bd e3f6 90bd ac36 5d3b
00000270: 6e9a 9fbd dc51 453d 21ab e93c bd41 37bd
00000280: 7eff e63c 1f0d 29bd 9c5d 8b3d 49c8 cfbb
00000290: 1286 a73a 10b7 c73d 2527 78bd 776a 74bd
000002a0: bfc6 2ebd 3faa cfbd c051 663d ce15 783d
000002b0: 7531 2c3d 9767 cabd d6d9 15bb d0cc ac3d
000002c0: 3451 70bc 30aa a2bd 9a90 6c3d 1ed4 d0bd
000002d0: 0ae6 8dbd 680a 9b3d 0599 e8bc ba0f 933d
000002e0: f21f 953d efe6 e5bc 6523 f9bc d1a0 17bd
000002f0: 3999 f5bc 14e7 2aba 4a3a 1c3c 81c2 d63d
00000300: 384b 79bd a3ba 313d 68ec 90bd edbb d6bd
00000310: 37df e03d ee1a 89bd eb3d d63d 4dcf c03d
00000320: 5f31 babd 7263 25bb 3d54 4cbb 771e b6bd
00000330: d06c d23b ead0 d03d b01b 013e 8122 a6bd
00000340: 0427 dc3d 5eca 8fbd 0c39 90bd 4fed 9cbd
00000350: f73e b23d c48f d03d 8bfe a53b f034 553d
00000360: db77 843b 2c35 b13d 1a1e 413d 609c 873c
00000370: b180 e4bd 1ae7 0c3e 7764 ee3d a5ba f5bd
00000380: ce07 653c 5921 86bc 6a4a 1fbd e077 dfbc
00000390: 2734 e73d ca02 8c3d f4f7 b3bc 758f 3e3d
000003a0: 3f71 b03d 253b e3bc cb8b 77bc cbaf 2b3d
000003b0: 5464 bf3d 7d06 f1bc e0da 88bd 0b2e e1bd
000003c0: cb1c 493d 24f2 02be cd05 153e 1039 d4bd
000003d0: d8f5 8ebd 683c e63c 908a b83d 0021 91bc
000003e0: 58b7 d3bd 5c4d cbbd fbb1 e93c 4d79 a23d
000003f0: cc58 b33d 7e6c aabd 0f4a 943d d10a c5bd
0.10310543 0.16047153 -0.07586889 -0.07895497 0.13241279 0.01724186 0.020038037 0.0011928389
-0.032371566 0.06824323 -0.08728692 0.052037146 0.11923821 -0.050564166 0.0745107 -0.07783465
0.094542064 -0.020580601 -0.100840725 0.037212986 -0.115598194 0.06664376 0.06782636 0.08684494
-0.05056757 -0.04630462 -0.016221955 0.004104916 -0.028408049 0.111216426 0.029364517 -0.093483664
-0.12313221 0.088734984 -0.11210608 0.06804272 0.06486691 -0.07506993 -0.013908285 0.16619052
0.07654996 0.12448259 0.055003997 -0.0958381 0.14309633 0.059192225 -0.06266729 0.11854382
-0.04345081 0.01503231 0.003505471 -0.0015459766 0.12765141 0.043666616 -0.07454013 0.084215276
-0.027353993 -0.037835237 0.106599174 -0.08154472 -0.092169546 -0.011929022 0.010542881 0.0060195774
-0.027957432 0.08876518 -0.14213917 -0.04482021 0.10546118 -0.032945048 0.12212565 0.011658887
0.03239157 0.0798296 0.037604734 0.07933814 0.12808599 -0.04543716 0.050337538 0.084363356
0.0047449307 0.031172018 0.090446144 0.08554768 0.022358147 0.07802712 0.09706677 -0.118231945
-0.109556586 -0.0049538016 -0.046816252 -0.03795879 -0.06280236 0.035199873 0.10248994 -0.13228722
0.05285966 0.118261315 0.049492583 0.061259706 0.09407837 0.142706 -0.09705136 0.01710577
0.06277193 0.19211614 -0.12315014 0.041934624 -0.020225042 -0.048472404 0.051133554 0.13282591
0.046372145 -0.0587205 0.04570003 0.052731488 -0.057294015 0.043309893 -0.103670925 0.003410999
0.10207244 0.14003068 -0.020400051 -0.17615886 0.05236624 -0.02938689 -0.061454628 0.05311045
-0.003117172 0.0946557 -0.12183281 0.034146577 0.11194238 -0.02915013 -0.015628574 0.10202498
-0.14659587 0.1102367 -0.11545068 0.07595553 0.13058792 -0.066288 0.09042718 -0.038593024
0.124899656 -0.14543551 -0.1027234 0.13077956 0.12629297 -0.054574583 0.074461214 -0.039738074
-0.0011453531 -0.11850571 -0.0707834 0.003375451 -0.07793127 0.04817377 0.028523983 -0.044740427
0.028198 -0.04127228 0.06804964 -0.0063410145 0.0012781045 0.09751713 -0.060584206 -0.059671845
-0.042670008 -0.10139894 0.056230307 0.06056767 0.042039353 -0.098830394 -0.0022865436 0.084375024
-0.014667798 -0.07942617 0.05775509 -0.10196708 -0.06928642 0.07570344 -0.028393278 0.07180734
0.07281484 -0.02806422 -0.030412385 -0.0370186 -0.029980289 -0.00065194187 0.009535382 0.104863174
-0.06086275 0.04339088 -0.07076341 -0.10485063 0.10980075 -0.066945896 0.10461029 0.094145395
-0.09091448 -0.0025236276 -0.003117814 -0.088925295 0.006421663 0.10196097 0.12608218 -0.0811205
0.10749629 -0.0702102 -0.07042131 -0.076624505 0.08703416 0.10183671 0.0050657443 0.05205244
0.004042608 0.0865272 0.047147848 0.016554058 -0.111573584 0.13760033 0.11640256 -0.1199849
0.013978912 -0.016373323 -0.038889326 -0.02727884 0.11289244 0.068364695 -0.02196882 0.04652353
0.0861535 -0.027738163 -0.015109013 0.041915696 0.09345308 -0.02942204 -0.06682372 -0.1099511
0.049099725 -0.12787682 0.14552994 -0.10362446 -0.06980485 0.028104976 0.09010804 -0.017715931
-0.103377044 -0.099268645 0.02852725 0.079332925 0.08757171 -0.083214745 0.07240688 -0.09621204

module.conv_2.bias f4 [12]
00000000: 8f02 65bd c34d d3bd d4ac 883d f359 7cbd
00000010: 49fd f13d 76cc 163d ad05 acbc 2451 8e3c
00000020: c89b a6bd abb4 0e3c 49e2 febd b612 4a3c
-0.055910643 -0.10317566 0.06673589 -0.06160922 0.118158884 0.036816083 -0.0209988 0.017372675
-0.08135182 0.008710067 -0.12445504 0.012333563

module.conv_3.weight f4 [12, 12, 3, 3, 3]
00000000: 1799 60bd 10e0 303d 1026 8a3c 77bb 633a
00000010: 4460 99bc 40d0 d73c 386c da3c bff5 b3bc
00000020: 621f 29bd 7b40 bc39 ac86 083d 557f b8bc
00000030: 5bf2 73bd bdb4 183d ccd8 48bd c028 5d3d
00000040: 78ab a33c 2542 553d 467d 4abd 4ce8 4e3c
00000050: d004 13bc 7bdf 0a3d d32d d33c 3664 febc
00000060: 217f 9f3b da99 5d3d efcd b13c 139c 00bd
00000070: 19b5 4a3d 67c7 063d 4471 5fbd aac6 a63c
00000080: cfbf d33b 397d bf3c cb0d e4bc 490b 803c
00000090: 80b6 eabc 3f78 9d3c 03a3 31bb c95c 73bc
000000a0: 6947 efbc 6a8f 9f3c 5f21 0cbb a001 d03c
000000b0: 38f7 6ebb 133d c63c 7473 a5bc a590 433c
000000c0: a8f6 723c 17c4 f13c 4f18 39bd 94e6 253c
000000d0: f939 49bd fc06 98bc 947e bd3c 8350 4a3d
000000e0: 49f6 063c d2a1 d03c dc10 283d 277e 02bc
000000f0: 7b0f 15bc 73e4 91bc d79d 943b 76c0 323d
00000100: 4031 083d c76b 623d 9a97 5fbd ddf4 e33c
00000110: a44f 1d3c 82ae fd3a 2732 2a3c 585a b0bc
00000120: c57c eebb 71e9 343d a77b 49bd 510e 5ebd
00000130: d324 c0ba 64ab 3bbb d3a9 983a 1f99 2abd
00000140: 581c 203d b76d 33bc 876e eabc 213a adbb
00000150: 88a4 073d 0a48 023d 8f04 183d fdda 39bd
00000160: 4191 2d3d 2d1d a03b 8bab abbc 68be b73c
00000170: 8d6f 48bd cac7 b93c 1c05 573c b475 383d
00000180: 817d 273d b323 4ebd 59e3 56bd 7fc1 1abc
00000190: 60b2 a9bc ad23 bfbc 6a2f b13b daeb e2bc
000001a0: add1 5cbc 9f7f 20bd d05d 643d fed1 213d
000001b0: 634b 3e3d 9923 3e3d 2b46 973c 9db9 2cbd
000001c0: 8e6f b4bb 76e9 073d 304f 45bd b59b 523d
000001d0: acff 063d ad13 5ebd 6fbf 22bd 5af0 1bbc
000001e0: 1cfb 1ebd 8ff8 633c 37da fbbc 4bac 4f3d
000001f0: 9833 11bd 4815 2f3c 2e71 31bd 39ca 35bb
00000200: 458b d0bc 4e4b 6c3d 34e5 e23c 7bef e7bc
00000210: adaa 253d 087f 3bbd 6852 d33c 9cde 15bc
00000220: 4cd1 4abd 63ff 2f3d 0c49 70bd dc58 e63c
00000230: dcbd 273c c284 ccbc 7058 84bb 19b1 80bb
00000240: 4ad0 e33b 67c9 2dbd 2457 00bd 0fdd 72bd
00000250: dc87 84bd f536 d2bb 80ad d6bc 53f0 8abc
00000260: bebb 873c 0c63 c83b 8793 093b 3371 5dbc
00000270: fbe1 b63c aca8 a5bc a8db 64bd 0fc4 0dbd
00000280: 5039 76bc 1a97 703d b213 b8bc af7b 0e3d
00000290: 810c 46bd 1357 ff3c 6601 6a3c aaa4 393d
000002a0: 5f9c bfbc 464d bfbc 0311 c33c 3b95 873c
000002b0: 39ce 253d 1af3 f73b d544 1cbd c2d3 98bc
000002c0: 1cd8 51bd c69c 4e3d 8ad3 f6bc cfe7 edb8
000002d0: 941c 343c 168f 123d e0c9 40bd 25ae dc3b
000002e0: 6604 8d3c c078 6dbc 34e2 d43c 77ac 8c3c
000002f0: ad4c 483d d460 b63c a168 2fba 8edd dfba
00000300: 6cdd c4bb 54f7 083d 8131 6abd 9acc 22bd
00000310: 2e3b f9bc cb95 b2bc a8aa cd3c 45f8 b73b
00000320: 2384 293d 738d 5ebc 5a2c a63c 6b9c 3c3d
00000330: 6a09 1fbd ca9a fcbc ab88 b33b dab4 fa3c
00000340: dc19 8f3c 7a07 0f3d de92 70bc b7cf c93b
00000350: fd94 33bb f2d0 49bd 75c5 92bc 2e2c 1d3d
00000360: 2e97 14bd 7d6d c43c bd51 393c db6e 593d
00000370: 0715 a43c 1b33 bd3c ea7b 8cbc fd9d 2c3d
00000380: a0bc 13bd 9537 02bc 72d6 25bd 4a66 0b3c
00000390: ffbe e43c a5c3 b7b9 39a6 cc3c d2f9 fdbc
000003a0: 8be2 4d3d 15be 423d be71 c73b 62be c6bc
000003b0: 5e5c 933c 24b9 523d 8b77 62bd 87db 5d3d
000003c0: 552d 263d 71bb d5bb 6257 30bd e220 95bc
000003d0: 0e8a 12bc 4ffc 36bb e092 d63c b6de fd3c
000003e0: 0622 143d 2e92 c23c d34d 193d de25 333c
000003f0: 693c 9f3c 81a3 f13b 74f2 c43b c481 223c
-0.054833498 0.043182433 0.016863853 0.0008687297 -0.01872266 0.026344419 0.02666293 -0.021967767
-0.041289695 0.00035906196 0.033331558 -0.022521654 -0.0595573 0.03728174 -0.04903488 0.05399394
0.019979224 0.052065033 -0.049435876 0.012628626 -0.008973315 0.033904534 0.025778687 -0.031053644
0.00486745 0.054101802 0.021704642 -0.031398844 0.049489114 0.03290501 -0.054551378 0.020358402
0.0064620744 0.02337514 -0.027838608 0.015630381 -0.028651476 0.019222377 -0.002710522 -0.014853665
-0.029208856 0.019477565 -0.0021382195 0.0253914 -0.0036463272 0.024199044 -0.020196654 0.011936341
0.014829315 0.029512448 -0.045189198 0.010125775 -0.049127553 -0.018558018 0.023131646 0.04939319
0.00823743 0.025467787 0.041031703 -0.007964647 -0.009097929 -0.017809128 0.0045354175 0.043640576
0.033250093 0.055278566 -0.054587938 0.02782672 0.009601507 0.0019354376 0.010387934 -0.021527454
-0.0072780573 0.04416794 -0.04919019 -0.054212872 -0.0014659412 -0.0028636092 0.0011647291 -0.041649934
0.03908953 -0.010951451 -0.028617157 -0.0052864705 0.033115894 0.031806983 0.037113722 -0.04537486
0.042374853 0.0048862905 -0.020955821 0.02242966 -0.048934508 0.022678275 0.013123777 0.045034125
0.040891174 -0.050327014 -0.05246291 -0.009445547 -0.020714939 -0.023332441 0.0054072635 -0.027700353
-0.013477725 -0.03918421 0.05575353 0.039506905 0.046458613 0.046420667 0.018466076 -0.042169202
-0.0055064624 0.03318163 -0.048171222 0.051418025 0.03295867 -0.054217983 -0.039733347 -0.0095177535
-0.038813695 0.013914241 -0.030743701 0.05070142 -0.035449594 0.010686226 -0.043320827 -0.0027738942
-0.025457034 0.057689004 0.027697183 -0.028312435 0.040445972 -0.045775443 0.02579613 -0.0091473125
-0.049516007 0.042968165 -0.058663413 0.028118543 0.010238137 -0.024965648 -0.004038863 -0.0039273617
0.00695232 -0.0424284 -0.031333104 -0.05929285 -0.064712256 -0.006415243 -0.026205778 -0.016960299
0.016569015 0.006115323 0.0020992474 -0.013515758 0.022324553 -0.02022203 -0.055873543 -0.034610804
-0.015028313 0.05873785 -0.022470329 0.034785923 -0.04835177 0.03116945 0.01428256 0.04532305
-0.023389993 -0.023352277 0.023811823 0.01655065 0.040479872 0.0075668218 -0.03815158 -0.018655661
-0.05123149 0.05044248 -0.030130167 -0.000113442184 0.010993142 0.03578099 -0.047067523 0.006734627
0.017214011 -0.014494121 0.025986768 0.017172081 0.04890125 0.022262968 -0.0006691311 -0.0017079578
-0.006007841 0.033438995 -0.057176117 -0.039745905 -0.030423727 -0.021799942 0.02510579 0.005614313
0.04138578 -0.013583529 0.02028482 0.04604761 -0.038827337 -0.030835528 0.0054789386 0.030603815
0.017468385 0.03491924 -0.014683453 0.0061587947 -0.0027402036 -0.04927153 -0.01791642 0.03837221
-0.03627699 0.02397799 0.011310992 0.053084236 0.020029558 0.023095658 -0.01714893 0.042142857
-0.03606856 -0.007947822 -0.040487714 0.008508274 0.027923105 -0.00035050247 0.024981605 -0.031002913
0.050264876 0.047544558 0.006086557 -0.024260703 0.01798838 0.051446095 -0.055289786 0.054164436
0.040570576 -0.006522589 -0.043052085 -0.018204156 -0.008944048 -0.0027921384 0.026193082 0.030989986
0.03616526 0.023751345 0.037427735 0.010934321 0.019437985 0.0073742275 0.006010348 0.009918634

module.conv_3.bias f4 [12]
00000000: cb94 cfba d3c4 39bd 0e85 2b3c 5fda 5bbc
00000010: 8075 27bd d4a6 dcbb cba3 493d fff5 243d
00000020: 77b1 bcbc 1afb c639 60ac f6bc e449 65bc
-0.001583719 -0.04535372 0.010468734 -0.013418763 -0.04088354 -0.0067337546 0.04922847 0.040273663
-0.02303384 0.00037952588 -0.030111492 -0.013994668

module.conv_4.weight f4 [12, 12, 3, 3, 3]
00000000: 0ca4 183d 1fb7 463d 9d50 c93b a46d 8739
00000010: 490c 23bd db93 4bbd ffb7 cc3b 506e 753c
00000020: 6b7c 92bb e6e4 193d e7bf 36bd 87ef 47bd
00000030: 0e2e 4b3d 554b 273d 42b2 0b3d 52df 20bc
00000040: d905 80ba 619e 0dbd d375 533d aeb5 41bd
00000050: 7d7b 3a3d c465 e3bb 1e1d c33c e9a6 45bd
00000060: 43cb 21bd 7a5c a23b a598 21bb c7c9 643d
00000070: 726f 5cbc bf8f 09bc bbb6 483d 4980 c0bc
00000080: 533f af3c 6086 a9bc e25a 94bc 60e3 f83a
00000090: 62c9 113d 297a 34bc 0503 83bb dff8 86bc
000000a0: 9380 8b3d e51a 333d d2be 433d 54f6 8d3c
000000b0: 3dd8 a43c 3473 27bd a624 41bd f243 da3c
000000c0: 65c5 4abc 4db7 1bbd 51cd 2c3c 39db d2bc
000000d0: 2dbb f0ba ffa7 28bd 826f 29bd 9dc9 a63c
000000e0: fa2a 3b3d 2640 72bc 92f2 543d 6ab6 fdbc
000000f0: 4774 b639 c768 303d 2f33 733d 8f70 003d
00000100: 7132 ddbc 3cb3 fcbc fbb8 25bd b4ab 96b9
00000110: ad13 393d b454 01bd f26b 4c3d 9e73 9b3c
00000120: 5249 e23b 7c84 12bc f8bb 41bd e60d 3bba
00000130: 38ef ffbb fa22 7d3c 3918 503d 50af bbbc
00000140: b69f b03c 479e 23bd ab84 5b3d ee51 d3bb
00000150: 22a3 843b 0a4b c2bc 8ad5 ffbc bfcc 18bd
00000160: 2573 513d a805 5e3d 9c1c a2bc 4167 343d
00000170: c486 be3b ab48 5c3d c5c2 d6bc 6e10 25bd
00000180: d137 9abc a26a e63b d930 3dbc 43aa 003d
00000190: 0016 ec3b 7e2e 4bbd a7ca b6bc d9d9 05bd
000001a0: aef5 2b3c e99b 183d 06eb 3e3d 47c2 353d
000001b0: 8588 603d 094d 52bc a625 e83c 7b0a ab3c
000001c0: 4328 9c3d f7aa 353c 4748 90bc f9c8 843d
000001d0: dcaf 593c 1487 0f3d 91fe 363d 5df6 aebb
000001e0: 9432 6e3c 40bb 613c b621 d0bc 553a 7a3c
000001f0: 8cce c93a 4393 17bd 745a 833b 6336 523d
00000200: cb9b acbc 344a 433d 4924 00bb 74d2 26bd
00000210: d580 223d af32 583d 31f5 363d 267e 9a3d
00000220: cd1c 6ebb 501d 763d 9240 823d feec 683d
00000230: a09e e53b 5ff3 813d 9d27 a43c 6996 053c
00000240: bf7e 863d 4d63 e8bc 7d64 793b 9f94 5ebc
00000250: dcdc b83a 4e72 603d 19a2 1bbc 8e7a 3b3c
00000260: 4212 d8bc 701e 09bd d384 553d c455 8bbc
00000270: c93e 2d3d ab80 683d a23b 303d f401 873d
00000280: 2f41 7b3d a3d9 08bd 7ad2 6b3c b809 43bd
00000290: 8992 d9bc 7f6a 6b3d e680 c33b dbf3 7f3d
000002a0: 879a ab3b bef5 84bc 17f5 6d3d 0590 48bd
000002b0: a262 32bd 8b5c 433d 0402 91bc 3424 8f3b
000002c0: ebf6 053d 899a f7bc 5cf9 f1bb 5435 70bb
000002d0: eca8 95bc 6253 67bb 2d1c 33bd 5c5e 06bd
000002e0: 02fb 893b ea75 623c 9398 e53c d010 2a3d
000002f0: 48b5 073d 86be 04bc d411 7ebd e7f7 a43c
00000300: c47d 4fbd 8481 d3bb ab69 6ebd e0fb 7fbd
00000310: 0240 8fbc f390 3d3c a881 8d3b a4ee 73bd
00000320: adfd 16bd 5113 5bbd 54ed 3bbd a2e5 ccbc
00000330: 60cf 05bc dedc 9abc 2e02 2dbd 574d 06bc
00000340: 48b7 a53c d629 7cbd f6f8 103d f245 0e3d
00000350: 1b33 1e3c f953 17bd 8163 06bc 3e75 41bd
00000360: bef7 3dbb a451 b03d 9e30 413d 470b 6e37
00000370: 2b6b c8ba 73a1 5d3c dae9 ef3c 9e98 df3c
00000380: c63d 99bc 0b89 92bb 655b 773d 3b85 963c
00000390: 5dc2 56bd 14b2 343d 02d8 25bd a933 02bc
000003a0: b059 e0bc c199 b9bc 7ad1 673d 692e 4a3d
000003b0: 0735 ec3c 08a0 8e3c 9881 a03c d7f6 1fbd
000003c0: 3bbb 893c e0b8 88bd 1618 e9bc aa51 c53c
000003d0: 415f 6d3d dd96 0dbc 68c8 443c d49e 443d
000003e0: 3504 5f3d 69ac e93c 4b27 883c 9166 343c
000003f0: 6d02 0a3d b9cb 883c c132 09bd aeca f13c
0.037265822 0.04851448 0.006143643 0.00025830895 -0.039806638 -0.049701553 0.00624752 0.014979914
-0.004470398 0.03757181 -0.044616606 -0.048812415 0.049604468 0.040843327 0.034105547 -0.009818869
-0.0009767368 -0.03457487 0.051626038 -0.047292404 0.045527924 -0.0069396216 0.023817595 -0.04825488
-0.039500486 0.0049548717 -0.0024657634 0.055856492 -0.013454305 -0.008396088 0.04900239 -0.023498671
0.0213925 -0.020693958 -0.018109743 0.0018988661 0.035592444 -0.011015453 -0.0039981627 -0.016476093
0.06811633 0.04372682 0.047789402 0.017329372 0.020122642 -0.04088135 -0.04715409 0.026643727
-0.012376164 -0.038016606 0.010546998 -0.0257393 -0.001836633 -0.04117584 -0.041366108 0.020359809
0.045695283 -0.014785802 0.051989146 -0.03097077 0.00034800378 0.043068673 0.059374984 0.031357344
-0.027001591 -0.030847184 -0.040459614 -0.00028738158 0.04518478 -0.03157492 0.049907632 0.018976029
0.006905713 -0.00894272 -0.0472984 -0.0007135555 -0.0078104995 0.015450234 0.05080435 -0.022910744
0.021560531 -0.039945867 0.05359332 -0.0064489758 0.0040477673 -0.023717422 -0.031229753 -0.037304636
0.0511352 0.054204613 -0.019789033 0.044043783 0.005814405 0.05378024 -0.02621592 -0.04029887
-0.018825443 0.0070317546 -0.011547291 0.031412374 0.007204771 -0.049604885 -0.022313429 -0.03267846
0.010495586 0.037258063 0.046610855 0.04437473 0.054817695 -0.012835749 0.028338265 0.02087902
0.07624867 0.0110881245 -0.01761259 0.06483645 0.013286557 0.03504093 0.044676367 -0.0053394274
0.014538426 0.013777554 -0.0254067 0.0152726965 0.0015396639 -0.037005674 0.0040085856 0.0513214
-0.021070382 0.047678187 -0.0019552878 -0.040728047 0.039673645 0.05278271 0.044667426 0.07543592
-0.0036333085 0.06008655 0.06359972 0.05686664 0.007007435 0.063452475 0.02003842 0.008153536
0.06567144 -0.028367663 0.003805428 -0.013585239 0.0014103907 0.05479651 -0.009499096 0.0114427935
-0.026375894 -0.033476293 0.052128624 -0.01700867 0.042296205 0.056763332 0.04302562 0.065921694
0.06134146 -0.03341068 0.014393443 -0.04761669 -0.026559131 0.05747461 0.0059662936 0.062488418
0.005236927 -0.01623046 0.058095064 -0.048965473 -0.043551095 0.047695678 -0.017701156 0.0043683294
0.032706182 -0.030225055 -0.0073844623 -0.003665288 -0.018269025 -0.0035297503 -0.043728042 -0.03280483
0.0042108307 0.013822058 0.028026855 0.04151994 0.033131868 -0.008102065 -0.06202872 0.02013774
-0.05065705 -0.0064546485 -0.05820624 -0.062496066 -0.017486576 0.011570203 0.0043184347 -0.059553757
-0.036863018 -0.05348522 -0.04588063 -0.025011841 -0.008167118 -0.018904146 -0.042238407 -0.00819715
0.020228997 -0.061563335 0.035393678 0.034734674 0.009655739 -0.036945317 -0.0082024345 -0.04723095
-0.0028986777 0.08609322 0.047165506 1.4188531e-05 -0.0015290728 0.013527262 0.029286314 0.027294453
-0.018706214 -0.004471903 0.060389895 0.018374076 -0.052431453 0.04411514 -0.040489204 -0.007946887
-0.027386516 -0.022656323 0.056596257 0.049360666 0.02883388 0.017410293 0.019593045 -0.039053764
0.016812911 -0.06675887 -0.028453868 0.024086792 0.05795217 -0.008641926 0.012010671 0.048003033
0.05444737 0.028524594 0.016620299 0.011010782 0.03369372 0.016698705 -0.03349567 0.02951559

module.conv_4.bias f4 [12]
00000000: cfb9 b03c 432d bf3c 541e 49bd 8856 9abc
00000010: b45c ebbc c0be 8abc 4921 05bd 3d62 23bd
00000020: 8f2a 4f3b 9f63 1cbb 0ca6 7d3d ce0e 0fbd
0.021572975 0.023337012 -0.04910119 -0.01884009 -0.028730728 -0.01693666 -0.032502446 -0.03988861
0.003161106 -0.002386309 0.061925933 -0.03492623

module.conv_5.weight f4 [12, 12, 3, 3, 3]
00000000: f6df b63c 4513 273d c3c9 21bc 148b 27bc
00000010: 277e 45bd f7b1 043c da7c f83a 9e6e bebb
00000020: 102f 813d 8c39 30bd 756b 383d 8c95 413a
00000030: 68c9 92bb 39c7 3b3d 222a c53c 568a 5f3c
00000040: 623d 0f3c 6d50 0c3d cb3f da3c fd4b 29bd
00000050: 0351 a8bb 57de b8bc aefa 35bd c6ae 49bd
00000060: f432 333d 7d11 aa3c 32d7 b73c 9922 893d
00000070: 668c 91bb 02d2 1e3d 4c6f db3a f960 ed3c
00000080: fe98 513d 124f 83bc d8d5 4abc 99af 71bd
00000090: 2eef 46bd 785b 22bd e177 c9bb a931 87bd
000000a0: 1240 fdbc ccc7 78bd 47ef 47bd 13da ca3b
000000b0: eb1d 3abd e26a 30bb e6d7 62bd 18cf 913c
000000c0: 58d6 aebc f2fa 51bb 0b3e 6cbb 5c98 643d
000000d0: fb6d 2c3d 72f3 afbc 55fb 233d 6cd5 1abd
000000e0: 27e2 163d c221 943c bfd0 edbc 2a4d c0bc
000000f0: 4f63 a93c ca9b 4f3d d05c e43b 3568 20bd
00000100: d478 0ebd f85b ee3c c293 e3bb 6e5c f5bc
00000110: 26a3 27bd 25ef 44bd 76f1 183c 154e f3bb
00000120: 3fb6 2abd 67c9 173c 4d62 14bc 0c49 80bd
00000130: f9c8 6bbd ada5 68bc c878 423d 2b62 febc
00000140: d2af 303c 28c6 383d 4f77 4a3c df7e 19bd
00000150: 6c7f 0dbc 9a94 703b 594e f3bb 6713 4a3d
00000160: 891c 8d3d 1395 bcbc 0127 18bb 7081 1dbd
00000170: dbbc 6c3c ea2f 353d 931f 52bd 9cea 0ebc
00000180: b235 2cbd 25f3 30bc c211 993c 617a a2bc
00000190: 66f3 6bbd e737 923b 2e0d 2bbd 19af dabb
000001a0: 322b 77bd 16cb 08bd 3369 853d bfa3 5fbc
000001b0: ff2a 2abd 7441 0e3d 907f 313d f908 1ebd
000001c0: c298 1d3b 6d58 2e3d 32f1 203d 4909 00bc
000001d0: 7970 ce3b 65d3 563c 31bf 5b3d 9050 42bd
000001e0: 3346 dcbc a323 95bc b385 f63c 2320 45bd
000001f0: 5c5a bcbc a23e 423d 4d6b 7f3c 2280 853c
00000200: a2f3 6abd 6925 21bd b579 653c 9343 d2bc
00000210: 66b0 bbbc bccd c43c d363 09bd 55e5 5b3d
00000220: aad9 823d 9233 28bd b45c 433d 8680 09bd
00000230: f980 173d d95c 53bd e6ff 5c3d 1a44 463d
00000240: 96db 90bc 9dda 333b aad0 cc3b 5495 713d
00000250: 1420 3dbd e195 f3bc de91 ae3c f153 3cbd
00000260: 05a0 50bd ae60 21bc 34fd 2c3d 9d3f e83c
00000270: c204 213d 9a59 36bd 85e1 14bb 2383 f63c
00000280: fad3 d33c 2a75 8bbb cc92 98bc 00b2 533d
00000290: 2893 1dbd b3dc c5bb 85ea 2e3d 388a eebc
000002a0: cfe4 ce3c 4cac cfbc 2f3a 773d 2e4a 553d
000002b0: 6908 41bd 0cbd d8bb 259c 6d3d 1407 843c
000002c0: 153d 143d 1eef efb9 970e 6a3c a8ab 37bc
000002d0: 992f cd3c eabc fbbc 02fb 8e3c 3445 c43c
000002e0: 7c68 65bc 2b03 80bc a0b5 673d bae2 fc3b
000002f0: 5b49 44bc b7ac 44bd 70c9 833c 883c 98bc
00000300: ddc1 49bd b067 08bb c5d5 9abc a56d 08bd
00000310: e06e 2ebd 1965 c73c f4e6 0e3d 71f6 a8bc
00000320: d7bd 0a3d d752 343d 8ea3 7d3c 454c d83b
00000330: 9227 29bd d01e 07bb d01e 3b3b 406a 79bc
00000340: 64af d0bb 1bbe 02bd b08d 533d 6bed 32bd
00000350: 55a2 1d3b 19b9 bdbc 075d 47bd a7ea 81bc
00000360: b963 98bd 8a41 63bd dbe6 87bb 22b2 f338
00000370: cdf3 5d3d 092c 8d3c 4030 f43c 0c1b 2a3d
00000380: f1ce d3bc 2d3d 333d 1544 81bd a4a6 3ebd
00000390: b5bf 433d e0ba 3e3d 1f5e 96bc 5296 1ebd
000003a0: 591e 61bc 86e3 153d 6bda 8d3d 2dd2 d5bc
000003b0: 72d6 1ebd 0e59 673c e444 ab3d 9c16 d03c
000003c0: 79c7 953c ebd1 ff3c 0a3a fbbc bed0 ef38
000003d0: 8f98 bebd 2859 c9bc 4bb4 ee3c cbe3 b4bc
000003e0: c196 c53c b95f da3c 4ab1 efbc a153 31bd
000003f0: f559 89bc 864b 09bd 61ec db3c 8031 283d
0.02232359 0.04078986 -0.009874764 -0.01022603 -0.04821601 0.008099071 0.0018958107 -0.0058115264
0.063078046 -0.04302363 0.045024354 0.000738465 -0.004479576 0.04584429 0.024067942 0.013643822
0.008742662 0.034256388 0.026641747 -0.041332234 -0.0051366105 -0.022566957 -0.04442852 -0.049238943
0.043749765 0.020760292 0.02244148 0.06696052 -0.0044417856 0.038774498 0.0016741543 0.028976904
0.051171295 -0.016028915 -0.012380086 -0.059005354 -0.048567943 -0.039638013 -0.006148324 -0.06601269
-0.03091434 -0.060737416 -0.048812177 0.0061905473 -0.04543869 -0.0026919176 -0.055381678 0.017798945
-0.021342441 -0.0032040444 -0.0036047723 0.055809364 0.042097073 -0.021478388 0.04003461 -0.03780119
0.03683677 0.018082503 -0.029030202 -0.023474295 0.020677237 0.05068568 0.006969072 -0.03916188
-0.0347832 0.029096588 -0.0069451043 -0.0299513 -0.040927075 -0.04807963 0.0093349125 -0.0074250796
-0.04167771 0.009264327 -0.00905664 -0.062639326 -0.05756471 -0.014199656 0.047478467 -0.03105267
0.010784106 0.04511085 0.012357547 -0.03747451 -0.008636337 0.0036709667 -0.0074251113 0.04933491
0.06890208 -0.023020303 -0.0023216608 -0.03845352 0.0144493235 0.044235148 -0.051299643 -0.008722927
-0.042043395 -0.010800158 0.018685225 -0.019833745 -0.05760517 0.0044622305 -0.041760616 -0.0066737053
-0.06034393 -0.033396803 0.06514206 -0.01364988 -0.04154491 0.03473039 0.043334544 -0.038582776
0.002404735 0.0425648 0.03929252 -0.007814714 0.006300029 0.013111924 0.05364913 -0.04744011
-0.026888942 -0.01820547 0.03009305 -0.04812635 -0.022992305 0.047423013 0.015589547 0.01629645
-0.057361253 -0.039342318 0.014006068 -0.025666988 -0.022911262 0.024023883 -0.033542465 0.053685505
0.063891724 -0.041064806 0.04769583 -0.033569835 0.036988232 -0.05160222 0.05395498 0.04840479
-0.017682832 0.0027443536 0.0062504606 0.0589803 -0.04617317 -0.029734554 0.02130979 -0.04597849
-0.050933857 -0.00984971 0.04223366 0.028350646 0.039311178 -0.044519044 -0.0022717428 0.030091828
0.025857914 -0.0042559104 -0.018624686 0.051683426 -0.038470417 -0.0060382723 0.042704124 -0.029118642
0.025255589 -0.025350712 0.060358223 0.052072696 -0.04712716 -0.006614333 0.05801024 0.016116656
0.036191065 -0.00045763789 0.014285705 -0.01121036 0.02504711 -0.03072973 0.017453674 0.02395878
-0.014001962 -0.01562651 0.056569695 0.0077174576 -0.01198038 -0.048016276 0.016087264 -0.018583551
-0.049257148 -0.0020813756 -0.018900761 -0.03330769 -0.042586207 0.0243402 0.034888223 -0.020625325
0.03387245 0.044024315 0.015480889 0.006600889 -0.041297503 -0.002061773 0.0028552301 -0.015223086
-0.0063685644 -0.03191958 0.051648796 -0.04368345 0.0024053056 -0.02315955 -0.048672702 -0.015858961
-0.074408956 -0.055482425 -0.004147393 0.00011620323 0.054187585 0.017232912 0.029808164 0.0415297
-0.025855513 0.043759514 -0.06311814 -0.04654564 0.047790248 0.046564937 -0.018355427 -0.038717575
-0.013740146 0.036593936 0.069264255 -0.026101196 -0.03877873 0.014120353 0.08362749 0.025401406
0.018283593 0.031228026 -0.030667324 0.00011435289 -0.09306442 -0.024578646 0.029138705 -0.022081276
0.024119737 0.026656972 -0.029259343 -0.043292645 -0.016766528 -0.03351929 0.026846113 0.041062832

module.conv_5.bias f4 [12]
00000000: 0800 52bd 2ef7 593d edc3 993c b4b9 c2bb
00000010: bd9a 75bc e43d e43a 5a4e 4f3d d919 8c3d
00000020: bb5d 11bb 62d9 2d3d 0e88 fd3c 798c 083d
-0.05126956 0.053214245 0.018770183 -0.0059425477 -0.014990506 0.0017413464 0.05061183 0.068408675
-0.0022181112 0.04244364 0.030948665 0.03333709

module.conv_6.weight f4 [12, 12, 3, 3, 3]
00000000: c1ea 923d 64f5 b4bc 31d4 b8bd 547c 283d
00000010: 0311 523d 59ea 08bd 3cf2 afbc f592 1c3b
00000020: 69ac 92bb e6c3 fd3c c2d2 46bd 2028 bdbd
00000030: eb8e d2bc 7fcf 88bc b4ad 48bc db80 c2bc
00000040: 5f10 4ebc 5528 8cba d423 313d 680d 07bd
00000050: be7b 24bd 4e65 d3bc cfcb eb3c ffd7 a7bc
00000060: 4fa3 e7bb cae0 2c3d 79ae 223c 8daf 69bd
00000070: bb69 52bd 4eb3 fcbc d8c6 b8bc ce67 103d
00000080: d2b4 193d 077b 353d 2e8d 493d e64a 14bd
00000090: 7461 68bd 1465 843c ef2b 3abd b654 a93c
000000a0: b488 29bd 70c6 463d 8e14 f0ba 1ffc 10bd
000000b0: 842c 4e3c 46cf b7bc a493 533d ca05 9abb
000000c0: 0511 3cbd 3660 4b3d e158 62bd 5425 ecbc
000000d0: 097c 21bc 3928 533d 52a1 b23b 0996 133b
000000e0: 7a8a 2ebd 5057 a33c 22ae f13c f965 4fbd
000000f0: e75a 143d c08f 503b 462a e8bc 7c8d e93c
00000100: 1f54 db3c 0e85 de3c b986 4d3d 4433 d33c
00000110: f246 eb3c 9e6a 8dbc b133 2d3d 22d5 17bc
00000120: 4752 e4bc 243a 42bd 1d1d 97bc ddbe 15bc
00000130: cf26 4ebd 10db 4a3d ba0c c73c b3d9 d43c
00000140: d266 9dbb 7735 2c3c 73c6 a83b 59a2 3ebd
00000150: bf2f 453d d00d 2a3d a0e6 34bd f666 ac3c
00000160: c91a 43bc 2384 c9bc b828 0f3d 0337 523d
00000170: 2d5e 00bd 9e88 c1bc e1ec 853c 40f5 493d
00000180: be3c 9e3b aae1 853c 01a4 523d b603 98bb
00000190: 302d 513c 3852 e13b 50ee aa3c 04a2 283a
000001a0: 102a d2bc c7b5 e2bb 600b a4bc 4a37 94bc
000001b0: 0ff7 ebbc e62d 5ebc 095d d63b 3e46 523d
000001c0: 6305 373a 6dd2 713d 59f1 59bd 8342 b7bc
000001d0: e987 4fbd 5104 243d edfb 083d 0b45 b63d
000001e0: 2eb2 903c f15f b03c bf10 363d 44a0 343d
000001f0: a348 143d 3607 553d 3254 433d 269b 53bc
00000200: 67ac adbc d046 a3bc fab1 89bc a122 82bc
00000210: 658f 77bb b721 7cbb a2a8 8bbd 54ab 553c
00000220: ee53 5bbd 0938 373d d62d 283d 7886 c9bc
00000230: 01b8 5b3d 109d f33c 937e ecbc cf18 533d
00000240: 7b63 623d d28a f23c 0487 f93b 915f 4abd
00000250: 6162 45bd 0258 2cbd f17e 1fbd 274c 363c
00000260: af4c 4fbd 82b4 71bc 5905 003d 80dc ffbc
00000270: b397 563d 5b7e 83bc a3f6 44bc d897 5e3d
00000280: cc2b 263d 11fe 483d ab5c 64bd c5f9 0a3d
00000290: 943d a03c 5872 873b 622f 1abd 7e6b 0cbd
000002a0: af7d 013d e589 afbc 4ae6 dcba c29c 89bb
000002b0: 3690 8eb9 33ab 40bd ea58 80bc fe3e 243d
000002c0: 2022 8ebc e02e ed3c 54d7 e1b9 5dac 45bd
000002d0: ca9c 24bd 569e 00bd 10cc 53bd 22ce 383c
000002e0: 11b8 f1bc d39a 26bd 38ef fcbc a798 9bbc
000002f0: fa00 3a3d 64bb 0cbd ad09 dbbc 5201 2bbd
00000300: 34dc 00bc 4dd0 2ebd e062 e1bc 0987 243d
00000310: 565b a13c f123 3dbd 98aa 7d3c a97a 13bd
00000320: 5de2 953b e925 55bd 7983 063c 9150 76bd
00000330: 4f51 0f3d c011 c538 4eaa e23b 5c93 013d
00000340: 51ea 373d 8065 36bd 1191 ed3b f605 d53c
00000350: 33d9 fd3c 3e93 bbbb 1311 9a3c 02c1 71bd
00000360: 8449 453d 8d50 08bd 38c3 01bd cab0 2f3d
00000370: 1d85 c6bc c088 a1bb c2c9 de3b 10a5 54bd
00000380: 1900 383d 1a47 72bc 98e8 36bd 19ad da3b
00000390: 36c6 2cbb 77e2 80bb d3b2 b93c a7f4 19bd
000003a0: 90ff 17bd f83b 94bc f8e6 0f3d 5244 bebc
000003b0: c6a0 e3bc 463b 353d d9f9 153b 80a2 c9bb
000003c0: ec2a 6bbd 2b79 a83c 9ae3 d8bc 9d37 743c
000003d0: 438f 3a3b 1ab0 56bd bacb 2cbd 8270 4cbd
000003e0: c00b 123d 7630 9d3c 76bd c93c 6d3e 1abb
000003f0: 7418 e2ba 9535 17bd 31bf bebb 696b e8bb
0.07173682 -0.022089668 -0.09024847 0.041134194 0.051285755 -0.033426616 -0.021477811 0.0023891304
-0.0044761193 0.0309772 -0.048540838 -0.09236169 -0.025702914 -0.016700504 -0.012248445 -0.023743084
-0.012577145 -0.0010693172 0.04324706 -0.03297177 -0.040157072 -0.025805142 0.028783707 -0.020488737
-0.0070690284 0.042206563 0.009929293 -0.057052184 -0.051370364 -0.030847218 -0.022555754 0.035255246
0.03752596 0.04430678 0.049206905 -0.03620424 -0.056733564 0.016161479 -0.045452055 0.020670276
-0.041390136 0.04852909 -0.0018316673 -0.03539669 0.012583856 -0.022437703 0.051654473 -0.004700397
-0.04591467 0.0496523 -0.055260543 -0.028826393 -0.009856232 0.05155203 0.00545136 0.0022519848
-0.04261253 0.019939095 0.029501978 -0.050634358 0.036219504 0.0031823963 -0.02834047 0.028509848
0.02677351 0.027163055 0.05017731 0.025781281 0.028720353 -0.017262753 0.042285625 -0.009267123
-0.027871264 -0.04741873 -0.0184465 -0.009139744 -0.05032998 0.04952532 0.02429806 0.025982713
-0.004803517 0.010510794 0.00515061 -0.046541546 0.048141237 0.04151708 -0.044165254 0.02104519
-0.011908242 -0.02459914 0.03495094 0.051321995 -0.031339813 -0.023624714 0.016348304 0.049306154
0.0048290184 0.016342957 0.051425938 -0.0046391143 0.012767121 0.0068762563 0.02086559 0.00064328336
-0.025654823 -0.006918642 -0.020024955 -0.01809277 -0.02880433 -0.013560748 0.0065418524 0.05133652
0.00069816987 0.05903857 -0.053208683 -0.022370582 -0.050666723 0.04004318 0.03344338 0.08899888
0.017663088 0.021530123 0.044449564 0.044098154 0.036202084 0.05200883 0.047687717 -0.012915408
-0.021200372 -0.019931227 -0.016808499 -0.015885653 -0.0037774679 -0.0038472244 -0.068192735 0.013041336
-0.05354684 0.044731174 0.041059338 -0.024600253 0.053642277 0.02973798 -0.028868949 0.05153733
0.055270653 0.02960721 0.007614972 -0.049407545 -0.048189525 -0.04207612 -0.03893942 0.011126555
-0.05061024 -0.014752509 0.0312551 -0.031233072 0.052390765 -0.016051462 -0.012021693 0.05434403
0.04056911 0.04907042 -0.055752438 0.033929605 0.019560613 0.004133504 -0.037642844 -0.0342822
0.031614 -0.021428058 -0.00168533 -0.004199595 -0.00027191796 -0.04703827 -0.015667398 0.040099137
-0.017350256 0.028953016 -0.00043075776 -0.04826008 -0.04018859 -0.031401 -0.05170828 0.011279615
-0.029506715 -0.040674996 -0.030875787 -0.018993689 0.045411088 -0.034358397 -0.026738012 -0.041749306
-0.0078650005 -0.04267912 -0.027512968 0.040167842 0.019696873 -0.046176855 0.015482567 -0.03600565
0.0045741037 -0.052038107 0.008210056 -0.060135428 0.03498965 9.396998e-05 0.0069172746 0.031634673
0.044901196 -0.04453039 0.0072499593 0.026003819 0.030987358 -0.0057243397 0.01880697 -0.059021957
0.048165813 -0.033279944 -0.031680316 0.04289321 -0.024233395 -0.004929632 0.0067989537 -0.05191523
0.044921968 -0.01478746 -0.044655412 0.006673467 -0.002636326 -0.0039332467 0.022668278 -0.037586834
-0.037108958 -0.018095002 0.03513238 -0.023225937 -0.027786624 0.04424598 0.0022884517 -0.0061534047
-0.05741398 0.02056559 -0.026475716 0.014905837 0.0028466738 -0.052414037 -0.042186476 -0.049911983
0.035655737 0.019188147 0.024626475 -0.0023535744 -0.0017249719 -0.036916334 -0.0058211316 -0.0070928824

module.conv_6.bias f4 [12]
00000000: 4613 0c3d 573e 6fbc 8d71 593d e601 d23c
00000010: 06b0 e03c 3cf7 8c3c 1a04 ec3c 1459 65bd
00000020: b291 2abc 7cf9 abbc fb3b 063d 4e7d 113d
0.034198068 -0.014602265 0.053086806 0.02563567 0.027427685 0.017207734 0.02881055 -0.055993155
-0.010410713 -0.020992987 0.032772046 0.03551989

module.conv_7.weight f4 [56, 12, 1, 1, 1]
00000000: 6c81 38be 28cd 8cbd 3dc8 703e f290 d0bd
00000010: 1667 72be 0931 22be cacb 853e c4af 46be
00000020: 8062 ba3d 546a 813d fe1c 913e a122 9c3e
00000030: 5c1c 4f3d 7e99 2f3e aca3 0f3d 0721 2abe
00000040: 429b 99bb 7c35 64bd 10dd 023d 0e14 cc3c
00000050: cb10 88be b715 7fbe dea1 3d3d 3d9b 9ebe
00000060: cdff 2cbe ff7f 44be ac7d 123e cecd 323e
00000070: 7a92 0bbe 56b1 60be 151c 163d 7d8b 22be
00000080: 25f7 ae3e 8fc9 8dbd 1dd8 a33e bd12 51be
00000090: 2475 643e c1bb 503e 08a3 d13b edc5 83be
000000a0: 91f1 1fbe 940c 723e 4f80 263e 1802 01be
000000b0: bc2e d7bd 5a60 263d 47dc 143b 947f 85bc
000000c0: d25a 9cbc bbdb b2bd 6a53 3d3e 96dc 4e3d
000000d0: f27c 24be c223 28be 848d 863e 654e 37bd
000000e0: 6957 8d3e d46d 52be 0a98 5b3e 2fda 2ebe
000000f0: 9642 233e 64de 943c 436c 833d f9a6 353d
00000100: 2e0a 3fbe e46a 363e 0db7 073e 5538 3e3e
00000110: f464 48bc 94f2 7ebe 9353 18be 7798 813e
00000120: f9a4 f0bc 6d43 953d 6864 dfbd 591e ed3c
00000130: c675 2c3e 2d4d 833e 6dc9 333e 672e 7e3e
00000140: e3e5 5abe 6bd1 463e 2f50 cc3d 133f 07be
00000150: 88b7 883e 2754 7abe 3667 abbd db98 58be
00000160: 1ae5 2abe 3b4d 45be 8b8c 52bd 36e9 7e3d
00000170: 9598 863e 3f70 26bd 4e74 2b3e 46d4 553e
00000180: 3334 25bd 555c cc3d a5cd 5e3e 97b6 85be
00000190: 545d 19be 6f63 463d cc06 67be 7eb1 6e3d
000001a0: b52a fdbd f1d4 2dbe dafc b8bb 2d01 2d3e
000001b0: 150e 153e 7430 253e aec2 25be b310 a6bd
000001c0: c7e5 e53d dfbd 03be c1ec 7fbe 32cf a13d
000001d0: 9e6f 6fbe ad9d dabd 260a 5ebe d276 233e
000001e0: f443 01bd 2a4c c4bd 9e63 213e 3e92 efbc
000001f0: 3557 7dbe 1c8b 13bd 1576 ed3d 6081 41be
00000200: cfb0 9f3e 00e5 eebd 786d 023e aff8 fcbd
00000210: f42f 07be 3478 763e 70dd bd3d e806 6cbd
00000220: 6b18 6c3e 39b1 2abe 0f5c 673d b4e0 d1bd
00000230: f7e8 043d 2b25 b8bd c627 b03d a7da 92be
00000240: e110 5abd e919 533e 7433 cb3d cdcf 203e
00000250: 3775 b63d eeac 5cbe b8e5 7c3d 900f 85be
00000260: b4ee fe3d 804f 7ebe 2aa1 813e 25c5 24be
00000270: 18b0 2f3e a23a 073e c207 833e b457 0b3d
00000280: 72be 893b 271d 103e 2017 283a 771e 1a3e
00000290: a6b8 9bbe f91b ef3d 6583 2d3e 642e 763d
000002a0: f6e8 17bd bac9 96bd 1670 823e ca12 153d
000002b0: 96a3 ee3d ed8d ee3d ab45 34be 7b42 9b3e
000002c0: 08e5 7dbd 675e 79be c1fe 40bd 7ced 79be
000002d0: aab6 1dbe fca1 023e 47e8 edbd 673c 583e
000002e0: 1f9a b1be b939 04be 1b8b 6ebe 2e51 b23d
000002f0: 97bc 50be e413 8e3e e132 6dbd 1536 a4be
00000300: 5477 96bd bab8 073e c06f dfbd 97c9 3fbe
00000310: cff9 b63e a654 973e 1704 15be edc3 0dbe
00000320: 9c77 9c3e 5f99 9d3d 8d1d f43d 0e7a 9c3d
00000330: c2b7 85be 43c6 923d ffc1 6dbe 5557 7b3e
00000340: 222b 7b3e 3565 16bd c200 e5bd 0142 823e
00000350: 18a6 0bbe 1410 86be af7b b43d 2449 5e3e
00000360: fb64 d0bc 420a 22bd 2021 d83d 6005 713e
00000370: 9af7 84bd 99a0 af3d a4c1 ec3d 8c9e 90be
00000380: 9036 54be 3f95 293e ec79 4c3e f4b4 97be
00000390: aeeb 5d3e 9d6a 5b3e 8d7c ccbd f740 3d3d
000003a0: 837b 08be 1b82 223e a4c1 86be 380c 7fbe
000003b0: b555 843d 8604 893d b03e a8bd 0b91 4a3d
000003c0: dfa6 283e 230c 65bd d9a5 c73d 8588 5ebe
000003d0: a725 4a3e 34c3 613e c1fe 0dbe a907 063e
000003e0: 6ad6 3cbe 7585 1f3e 85e3 653e fd40 043e
000003f0: c2bd 02be 366e 8f3e e90e 8e3e dae2 21bc
-0.1801812 -0.06875068 0.23513885 -0.10183896 -0.23672137 -0.15839018 0.2613204 -0.19402987
0.09100819 0.063191086 0.28342432 0.3049517 0.050564155 0.17148396 0.0350682 -0.16614161
-0.0046876976 -0.05571507 0.031949103 0.024911907 -0.26575312 -0.24910627 0.046296947 -0.30977812
-0.16894455 -0.19189452 0.14305753 0.17461321 -0.13630095 -0.21942648 0.036647875 -0.15873523
0.3417293 -0.0692321 0.3200082 -0.20417304 0.2231031 0.20384122 0.0063976087 -0.25736943
-0.15619494 0.2363761 0.16259883 -0.12598455 -0.10506961 0.04061923 0.0022714303 -0.016296186
-0.019086275 -0.087333165 0.18488851 0.050503336 -0.16063288 -0.1641989 0.26279843 -0.044752497
0.2760575 -0.20549709 0.21444717 -0.17075418 0.1594337 0.01817245 0.06417134 0.04434869
-0.18656227 0.17814213 0.13253422 0.18576176 -0.0122311 -0.24897224 -0.14875631 0.25311634
-0.02937554 0.07288251 -0.10907823 0.028945135 0.16841802 0.25644818 0.17557307 0.24822389
-0.21376757 0.19415824 0.09976231 -0.13207655 0.26702523 -0.24446164 -0.08369295 -0.2115206
-0.16688958 -0.19267742 -0.051403563 0.062234126 0.26288286 -0.04063439 0.16743585 0.20881757
-0.040332984 0.099785484 0.21758135 -0.26115867 -0.14977008 0.04843467 -0.22561187 0.05827474
-0.12361661 -0.16975762 -0.0056453766 0.1689498 0.14556153 0.16131765 -0.16187546 -0.08108654
0.11225467 -0.12865399 -0.24992658 0.079008475 -0.23382422 -0.106746055 -0.21683559 0.15963295
-0.031558946 -0.0958484 0.15760657 -0.029244538 -0.24740298 -0.036021337 0.11594788 -0.18897009
0.31189582 -0.11664772 0.12737072 -0.1235212 -0.13201886 0.24069291 0.092707515 -0.057623774
0.2305619 -0.16669168 0.05648428 -0.10247937 0.032448735 -0.08991464 0.08601336 -0.28682443
-0.053238753 0.20615353 0.09921923 0.1570427 0.08909076 -0.21550342 0.061742514 -0.25988436
0.12447873 -0.24835014 0.2531827 -0.1609083 0.17157018 0.1320596 0.25591856 0.034019187
0.004203611 0.1407362 0.00064121373 0.15050684 -0.30414313 0.11675257 0.16944654 0.060102835
-0.037087403 -0.07362695 0.2547614 0.03639487 0.11652295 0.11648164 -0.17604701 0.30324158
-0.061986 -0.24352418 -0.047117952 -0.24407 -0.15401712 0.12757105 -0.11616569 0.21116792
-0.34687898 -0.12912644 -0.23295252 0.0870689 -0.20384441 0.2774955 -0.05790985 -0.3207251
-0.07346979 0.13254061 -0.109099865 -0.18729244 0.35737464 0.2955677 -0.14552341 -0.13844271
0.30560005 0.07695269 0.11919699 0.076404676 -0.2611676 0.07166722 -0.23218535 0.24545033
0.24528173 -0.036717612 -0.11181785 0.25440982 -0.13637578 -0.26184142 0.08812653 0.21707588
-0.025438776 -0.039560564 0.10553193 0.23537207 -0.06492539 0.085755534 0.115603715 -0.28245962
-0.20723939 0.16560839 0.19968385 -0.29630244 0.21671936 0.21427388 -0.09984694 0.046204533
-0.13328366 0.15869944 -0.2631961 -0.24907005 0.0646166 0.06690316 -0.08215082 0.04945473
0.16469906 -0.055919778 0.0974843 -0.21731766 0.19740926 0.2204712 -0.13866712 0.1308886
-0.18441167 0.15578254 0.22450073 0.12915416 -0.127677 0.28013772 0.2774575 -0.009880746

module.conv_7.bias f4 [56]
00000000: 07dd ebbd 4854 5b3e 281f 70bd e582 343e
00000010: d01a e63c d50a fbbd 4c47 47bd 5a82 193e
00000020: 71b4 993b 87dd 9f3d 9516 2e3d 9331 1ebc
00000030: d986 fdbd bef5 64be 7190 31bd 65b1 803e
00000040: f931 46be ddb2 60be ba01 373d adab 5abd
00000050: 12c9 9abd 9648 9bbd b70d 65bd 8304 55bd
00000060: 5d16 00be fa88 cabd e673 f2bd b604 ba3c
00000070: 3422 573e 16ad 71be 5530 2fbe 5b6c 18be
00000080: 152f cdbc 4fd7 5c3c b137 09bd 1ec4 cb3b
00000090: 575a 283e 0729 18be becc ce3d 51d2 4fbe
000000a0: 6ab0 75be 47d9 a8bd c1c4 343e cd76 75be
000000b0: 3c71 db3d 910e 423e 78e0 1bbd fff5 853e
000000c0: ee3a 5bbe 7248 1bbd 4a6f 863c 1ac9 143e
000000d0: d8f8 0f3e 0625 8a3c 9efa 98bd 7984 813e
-0.11516767 0.2141887 -0.058623463 0.17628057 0.028088957 -0.122579254 -0.04865198 0.14991131
0.0046906997 0.07805925 0.042502005 -0.009655374 -0.12379236 -0.22359368 -0.04335064 0.2513534
-0.19355 -0.21943231 0.04467938 -0.05338638 -0.07557882 -0.07582204 -0.055921283 -0.052006256
-0.12508531 -0.098894075 -0.11838512 0.022707324 0.21009141 -0.23601183 -0.17108281 -0.14885084
-0.025046865 0.013479068 -0.033500377 0.0062184473 0.16440712 -0.148594 0.10097645 -0.20295073
-0.23993078 -0.08244567 0.1765318 -0.239711 0.10714957 0.18950869 -0.038055867 0.26164243
-0.21409199 -0.037910886 0.016410489 0.14529839 0.1405977 0.016863357 -0.074696764 0.2529638
