models/FSRCNN3D_epoch_40.pth (torch, 265262 bytes, 15 tensors)

module.conv_1.weight f4 [56, 1, 5, 5, 5]
0.05007697 -0.06295032 0.0699867 0.06799349 -0.00392879 0.03381252 0.011385687 -0.048927274
0.059153304 -0.059848916 0.05204633 0.02079603 0.08121686 0.009093145 0.0006500152 -0.028965324
0.054899607 0.020650374 0.055087123 -0.08285934 0.09633775 0.066986114 0.07357866 -0.05136282
-0.005474144 -0.032517698 0.0015865695 0.09219261 -0.04952033 0.008286439 -0.0024939028 -0.058803853
-0.027328191 -0.010488025 -0.04046892 -0.07400866 -0.026522005 0.047957916 -0.009808613 0.061322544
-0.032256972 -0.076660365 0.07191786 -0.03457004 0.0543797 -0.06471472 0.0953109 -0.023839708
0.044221904 -0.052154914 0.06833323 -0.079651944 0.055186503 -0.010771572 0.06994534 0.07369779
-0.0055134865 0.07036357 -0.038060594 -0.042532314 0.007360708 -0.087988816 0.050203327 0.0334421
-0.0004026911 0.04670238 0.06864082 0.012092269 0.064660676 0.0053357864 0.02570672 0.062499765
0.007173891 0.048994176 -0.01608789 0.002350748 -0.0610819 0.031254195 -0.031075083 -0.08297211
0.06788727 0.059486564 0.09990808 0.0363365 -0.044340547 0.06385801 -0.030018765 -0.0079566045
-0.035294253 -0.089376174 -0.051825542 -0.054186694 -0.06300616 -0.005730994 -0.062031545 0.02985151
-0.048450258 -0.017486155 0.081418015 0.08953344 -0.06313632 0.018657401 -0.04070571 -0.09124358
0.020044219 -0.031325955 0.08571637 0.09318316 0.056789763 0.05093552 -0.07499602 0.04961212
0.06737253 0.07530292 0.04153834 -0.0032192443 -0.014484112 0.013285291 0.00080942095 -0.08810227
-0.057797477 -0.033277545 -0.016345546 -0.052283067 0.0479628 -0.0007232773 0.0890875 0.059192516
-0.03713886 0.0082945395 0.028007897 0.09252864 -0.023507545 0.044298124 0.042750265 0.08719379
0.042520944 -0.018273158 -0.059458904 0.027179642 -0.04755602 0.027265191 0.08791845 -0.014358425
-0.053111643 -0.055895906 -0.039982446 0.017070726 -0.072576635 0.0075007523 0.057437226 -0.023322131
-0.06402733 -0.087969646 0.054134816 0.0064244806 0.038443934 -0.08937003 0.0518378 -0.036436778
0.08893699 -0.06933566 -0.08890507 -0.090253234 -0.065675646 -0.027836444 -0.06842929 -0.062115677
-0.040470444 0.07488881 0.039341 0.031804897 -0.07982193 0.033168428 -0.00043702396 0.031152802
-0.07005605 0.0036734522 0.030992826 -0.021664694 0.06382305 0.027204633 -0.007841846 -0.07055958
-0.084865876 -0.026973438 0.0073464867 -0.09664393 -0.029249586 0.055651113 -0.032203835 -0.07168375
0.06801958 -0.06283007 -0.000720945 0.0115759885 0.04339078 0.04268969 0.05775124 0.039021134
0.09278188 0.06390706 0.055641524 -0.064405836 0.06513057 -0.07316869 -0.02016851 -0.022320228
0.05295304 -0.06447388 0.030429987 0.042746816 0.05855143 0.0647892 0.061737835 0.084710814
0.0872618 0.015476451 0.05891173 -0.08276701 0.038527746 0.007203452 -0.06329943 0.07636591
-0.049726285 -0.06415237 -0.04009485 -0.07021621 -0.006412669 0.08777798 0.008560654 0.10138469
-0.078919485 -0.047974743 -0.055011477 0.07987661 0.025660554 0.047943633 0.04522425 0.044942565
0.050381497 0.050054863 0.023416238 -0.032142352 0.0848 -0.019009339 -0.06436223 -0.049413268
0.0021887564 -0.08198516 -0.0041204602 -0.021502905 -0.044850457 -0.049765304 0.087890096 0.0024482724
00000000: 821d 4d3d 19ec 80bd 3055 8f3d 2c40 8b3d
00000010: 14bd 80bb ff7e 0a3d 088b 3a3c f767 48bd
00000020: bc4a 723d 2324 75bd 882e 553d 705c aa3c
00000030: 0655 a63d 6afb 143c c865 2a3a b048 edbc
00000040: 69de 603d f92a a93c 09a3 613d 28b2 a9bd
00000050: ba4c c53d 0430 893d 69b0 963d d261 52bd
00000060: 7360 b3bb 4731 05bd 70f4 cf3a 7bcf bc3d
00000070: d4d5 4abd d8c3 073c bf70 23bb 4fdc 70bd
00000080: 5fdf dfbc f7d5 2bbc bdc2 25bd da91 97bd
00000090: ad44 d9bc 856f 443d 4eb4 20bc 592d 7b3d
000000a0: e31f 04bd 1c00 9dbd ac49 933d 5099 0dbd
000000b0: 40bd 5e3d 2789 84bd 5c32 c33d 7e4b c3bc
000000c0: 0722 353d 64a0 55bd 4bf2 8b3d 8f20 a3bd
000000d0: 3e0b 623d 3f7b 30bc 813f 8f3d deee 963d
000000e0: 7aaa b4bb c61a 903d 6de5 1bbd 5d36 2ebd
000000f0: 1832 f13b 7b33 b4bd 01a2 4d3d 95fa 083d
00000100: 4920 d3b9 ff4a 3f3d 8f93 8c3d a71e 463c
00000110: d16c 843d d2d7 ae3b e696 d23c c1ff 7f3d
00000120: f612 eb3b 1eae 483d c0ca 83bc 020f 1a3b
00000130: 0431 7abd 6604 003d 2c91 febc 48ed a9bd
00000140: 7b08 8b3d 2fa8 733d 9c9c cc3d 95d5 143d
00000150: 6f9e 35bd fdc7 823d eae9 f5bc 6b5c 02bc
00000160: b590 10bd db0a b7bd 0547 54bd def2 5dbd
00000170: 6009 81bd 10cb bbbb ca14 7ebd 278b f43c
00000180: c773 46bd 203f 8fbc 7dbe a63d 4f5d b73d
00000190: 9d4d 81bd 68d7 983c 08bb 26bd eadd babd
000001a0: c633 a43c a54f 00bd 108c af3d d0d6 be3d
000001b0: 629c 683d c4a1 503d 8397 99bd 1436 4b3d
000001c0: 9cfa 893d 6b38 9a3d 1b24 2a3d f5f9 52bb
000001d0: c54e 6dbc 8daa 593c 522f 543a f76e b4bd
000001e0: 0cbd 6cbd 094e 08bd 18e7 85bc c526 56bd
000001f0: a474 443d 519a 3dba 8273 b63d da73 723d
00000200: eb1e 18bd d2e5 073c d170 e53c a87f bd3d
00000210: e592 c0bc f371 353d e71a 2f3d a892 b23d
00000220: 712a 2e3d 97b1 95bc 2e8b 73bd d7a7 de3c
00000230: 1aca 42bd 405b df3c 970e b43d 993f 6bbc
00000240: 988b 59bd 1bf3 64bd a2c4 23bd e8d7 8b3c
00000250: 0fa3 94bd dfc8 f53b 4c43 6b3d 0e0e bfbc
00000260: c320 83bd 6e29 b4bd 78bc 5d3d 7384 d23b
00000270: 6377 1d3d a207 b7bd df53 543d bb3e 15bd
00000280: 9924 b63d dbff 8dbd dd13 b6bd b0d6 b8bd
00000290: f480 86bd 4109 e4bc a824 8cbd 026d 7ebd
000002a0: 56c4 25bd 4e5f 993d 0724 213d da45 023d
000002b0: ae79 a3bd 9edb 073d 5d20 e5b9 2934 ff3c
000002c0: 8c79 8fbd 4dbe 703b abe4 fd3c 287a b1bc
000002d0: a9b5 823d 40dc de3c 167b 00bc 8b81 90bd
000002e0: 29ce adbd 66f7 dcbc ccba f03b 41ed c5bd
000002f0: d49c efbc 6cf2 633d 2be8 03bd eece 92bd
00000300: d94d 8b3d 0dad 80bd cdfd 3cba 37a9 3d3c
00000310: 88ba 313d 62db 2e3d 908c 6c3d a0d4 1f3d
00000320: 6d04 be3d b4e1 823d 5ee8 633d 35e7 83bd
00000330: 2d63 853d 77d9 95bd 6e38 a5bc e9d8 b6bc
00000340: 49e5 583d e20a 84bd 4f48 f93c 4917 2f3d
00000350: a0d3 6f3d 33b0 843d d0e0 7c3d dd7c ad3d
00000360: 51b6 b23d f190 7d3c 6d4d 713d c081 a9bd
00000370: 45cf 1d3d ef0a ec3b 22a3 81bd bb65 9c3d
00000380: caad 4bbd 5162 83bd 7f3a 24bd 84cd 8fbd
00000390: 5e21 d2bb f1c4 b33d fc41 0c3c c7a2 cf3d
000003a0: 8aa0 a1bd 2a81 44bd b753 61bd 5996 a33d
000003b0: 1536 d23c 8b60 443d 103d 393d b215 383d
000003c0: d45c 4e3d 5406 4d3d 69d3 bf3c b3a7 03bd
000003d0: 9fab ad3d 79b9 9bbc 58d0 83bd 9165 4abd
000003e0: 3d71 0f3b d6e7 a7bd ed04 87bb dc26 b0bc
000003f0: 1db5 37bd b4d6 4bbd b9ff b33d 3273 203b

module.conv_1.bias f4 [56]
0.016784858 -0.0039449185 0.07751582 0.059100676 -0.029362017 0.050582156 -0.07337715 -0.036708172
-0.0071466877 -0.012149596 0.058891986 0.046272427 -0.05713951 -0.024420934 -0.0343958 -0.054396994
0.0045530517 0.06921831 -0.017833019 0.046854746 0.073167264 0.030086748 0.028150706 0.04703549
-0.011951901 -0.014826652 -0.04168338 -0.019418048 0.033356693 0.06276969 0.06901436 0.003054715
0.00095000764 0.0080383355 0.030533623 -0.033230852 -0.027877726 0.05695104 0.030959403 0.06632803
0.029605037 0.078536674 0.06271094 -0.09330933 0.018986482 -0.077646464 0.02458318 0.050018176
-0.060081027 -0.02117524 0.0096490625 0.008723755 -0.027373523 0.097023256 -0.05115761 0.08298941
00000000: 6680 893c 6044 81bb 9dc0 9e3d 8d13 723d
00000010: 9d88 f0bc 3c2f 4f3d c246 96bd 4f5b 16bd
00000020: c32e eabb 190f 47bc b938 713d 2888 3d3d
00000030: 1e0b 6abd 690e c8bc 9ce2 0cbd 62cf 5ebd
00000040: c431 953b 54c2 8d3d 8d16 92bc c3ea 3f3d
00000050: b8d8 953d 7c78 f63c 4f9c e63c 49a8 403d
00000060: e8d1 43bc 7ceb 72bc 31bc 2abd 9912 9fbc
00000070: 07a1 083d 658d 803d 6757 8d3d 9d31 483b
00000080: ef09 793a 39b3 033c a621 fa3c 131d 08bd
00000090: d45f e4bc 7e45 693d 939e fd3c fdd6 873d
000000a0: 4386 f23c d6d7 a03d 986e 803d f618 bfbd
000000b0: 8a89 9b3c 1c05 9fbd aa62 c93c dcdf 4c3d
000000c0: 8617 76bd b277 adbc 1a17 1e3c 15ee 0e3c
000000d0: 703e e0bc 21b4 c63d a48a 51bd 5af6 a93d

module.conv_2.weight f4 [12, 56, 1, 1, 1]
0.10369018 0.17166203 -0.07359061 -0.079502344 0.11304134 0.02674429 0.020809127 0.003124008
-0.027282812 0.06936518 -0.089681424 0.055166475 0.11838177 -0.0518135 0.07279315 -0.07780201
0.09508059 -0.020968163 -0.1036467 0.036918726 -0.115860775 0.06469304 0.06768144 0.08598989
-0.05698752 -0.04571117 -0.01750742 0.003126818 -0.026808172 0.10937734 0.029054135 -0.092102274
-0.13359907 0.08047576 -0.11272496 0.06651129 0.065098286 -0.07375646 -0.01474861 0.17185135
0.07410456 0.12716621 0.06054982 -0.09613608 0.14401178 0.060581684 -0.05800526 0.11918334
-0.045197614 0.018620307 0.002486534 0.01069559 0.12783423 0.044263937 -0.07336893 0.08193446
-0.026810603 -0.04085169 0.10672025 -0.08120674 -0.11302384 -0.0027055792 0.0010815765 0.005486647
-0.027458176 0.088748574 -0.1416513 -0.059644867 0.10555774 -0.0330352 0.12282679 0.012017426
0.032349188 0.08010836 0.037862238 0.08008432 0.12829037 -0.047038715 0.051162902 0.08444594
0.007258587 0.031518735 0.09085572 0.08653205 0.022581078 0.07777266 0.097203396 -0.11817213
-0.11613444 -0.014784057 -0.04643494 -0.037894696 -0.06313678 0.03488159 0.10262305 -0.13254943
0.05268949 0.11879273 0.05214911 0.06162748 0.09262241 0.14225158 -0.09519858 0.019008238
0.06328579 0.20157021 -0.12279047 0.037048914 -0.020109275 -0.048220094 0.051214673 0.13225003
0.04662556 -0.061761472 0.04535504 0.052799128 -0.06747168 0.046799246 -0.108183905 0.002627147
0.10336134 0.13993195 -0.020883199 -0.18243511 0.052183036 -0.029592508 -0.06079834 0.053131055
-0.00355595 0.09458666 -0.122338474 0.034497637 0.11167668 -0.029485526 -0.016566208 0.10203542
-0.14845596 0.11038974 -0.11545204 0.07572373 0.13067484 -0.06660463 0.090302326 -0.038939815
0.12949702 -0.14822654 -0.1031447 0.13059528 0.1263514 -0.05343238 0.07456233 -0.038253546
-0.0014957096 -0.1188028 -0.07163564 0.0019867853 -0.078846596 0.04877013 0.028527576 -0.044848464
0.028414829 -0.040693004 0.067860864 -0.004382443 0.0010155408 0.097404465 -0.061098043 -0.06033069
-0.042778876 -0.10062813 0.05662778 0.060398053 0.017873814 -0.09469041 -0.005022999 0.081914224
-0.016845006 -0.07934082 0.056392286 -0.12342886 -0.06997404 0.07511391 -0.028203165 0.071611986
0.07252196 -0.028117023 -0.031122113 -0.037473172 -0.030357009 -0.0018624917 0.00810447 0.10476002
-0.06828354 0.043390132 -0.07162923 -0.10650942 0.10977966 -0.067696124 0.10452833 0.09208447
-0.09840629 -0.02243395 -0.0036888283 -0.0897552 0.0058851186 0.10188376 0.12592554 -0.07480928
0.106833175 -0.071040004 -0.071452625 -0.08050398 0.0850935 0.102689415 0.004388177 0.05392231
0.003825239 0.08428275 0.04688585 0.014205662 -0.111644275 0.1374096 0.11632914 -0.12019782
0.01419584 -0.003895353 -0.039812207 -0.027442005 0.10574962 0.06139661 -0.01623568 0.053141497
0.08981499 -0.028329113 -0.020123135 0.05399107 0.093801476 -0.026794901 -0.07422178 -0.10923103
0.04976508 -0.1291799 0.14606449 -0.10630786 -0.07046217 0.028969144 0.08773956 -0.018888758
-0.10113734 -0.098293535 0.027317008 0.077048086 0.08754782 -0.086357616 0.07178563 -0.09584437
00000000: 845b d43d 2cc8 2f3e acb6 96bd 20d2 a2bd
00000010: 3882 e73d d716 db3c e777 aa3c 28bc 4c3b
00000020: 3480 dfbc 550f 8e3d e5aa b7bd 3ef6 613d
00000030: 2472 f23d 643a 54bd 9314 953d a956 9fbd
00000040: 9db9 c23d 6dc5 abbc b944 d4bd 1738 173d
00000050: 6a48 edbd c97d 843d 919c 8a3d 781b b03d
00000060: bf6b 69bd a33b 3bbd b96b 8fbc 4deb 4c3b
00000070: d09c dbbc 3a01 e03d f002 ee3c 1ea0 bcbd
00000080: 32ce 08be 7ad0 a43d 58dc e6bd 1237 883d
00000090: 4052 853d a00d 97bd 27a4 71bc cdf9 2f3e
000000a0: 22c4 973d dc37 023e 1703 783d fee2 c4bd
000000b0: d377 133e 8024 783d ec96 6dbd 6516 f43d
000000c0: 2221 39bd 9d89 983c 1ef5 223b 8e3c 2f3c
000000d0: fae6 023e 1a4e 353d 7342 96bd 41cd a73d
000000e0: e9a1 dbbc 1a54 27bd 2590 da3d b84f a6bd
000000f0: 0b79 e7bd 1650 31bb afc3 8d3a 55c9 b33b
00000100: f8ef e0bc d0c1 b53d 0a0d 11be 2d4e 74bd
00000110: a82e d83d eb4f 07bd 9d8c fb3d bde4 443c
00000120: 9580 043d da0f a43d 6f15 1b3d 3f03 a43d
00000130: 8d5e 033e abab 40bd 3190 513d fef1 ac3d
00000140: 71d9 ed3b ca19 013d 9012 ba3d b737 b13d
00000150: f4fb b83c 4647 9f3d 9312 c73d 3b04 f2bd
00000160: e5d7 edbd d438 72bc 9032 3ebd 7837 1bbd
00000170: db4d 81bd 00e0 0e3d 092c d23d 0abb 07be
00000180: efd0 573d 9a49 f33d 4e9a 553d 196d 7c3d
00000190: d1b0 bd3d 66aa 113e 79f7 c2bd 2ab7 9b3c
000001a0: fb9b 813d 6c68 4e3e 9279 fbbd 9ac0 173d
000001b0: 35bc a4bc 6f82 45bd 7ac6 513d 8d6c 073e
000001c0: 71fa 3e3d 99f9 7cbd 35c6 393d e643 583d
000001d0: 982e 8abd 91b0 3f3d 868f ddbd 362c 2c3b
000001e0: 1caf d33d 524a 0f3e 3e13 abbc 45d0 3abe
000001f0: e1bd 553d fd6b f2bc ae07 79bd f39f 593d
00000200: f10a 69bb a7b6 c13d 988c fabd 654d 0d3d
00000210: beb6 e43d a18b f1bc dbb5 87bc f2f7 d03d
00000220: d704 18be 0414 e23d 1f72 ecbd 0b15 9b3d
00000230: a0cf 053e 0268 88bd 6df0 b83d 5b7f 1fbd
00000240: de9a 043e b3c8 17be 873d d3bd c5ba 053e
00000250: 4362 013e e9db 5abd 23b4 983d c0af 1cbd
00000260: b00b c4ba e24e f3bd b5b5 92bd ba34 023b
00000270: 537a a1bd 30c3 473d aab2 e93c 06b3 37bd
00000280: 37c6 e83c b5ad 26bd a3fa 8a3d 999a 8fbb
00000290: e51b 853a fe7b c73d f141 7abd 501d 77bd
000002a0: e738 2fbd 1f16 cebd 88f2 673d f363 773d
000002b0: 1b6c 923c 0ced c1bd f897 a4bb a5c2 a73d
000002c0: 8afe 89bc 717d a2bd 99fb 663d 45c8 fcbd
000002d0: 8d4e 8fbd 52d5 993d 530a e7bc 4ea9 923d
000002e0: 6586 943d ac55 e6bc cdf3 febc 787d 19bd
000002f0: 43af f8bc da1e f4ba 9cc8 043c 6c8c d63d
00000300: 3ed8 8bbd dab9 313d 59b2 92bd 9c21 dabd
00000310: 29d4 e03d 44a4 8abd f312 d63d c896 bc3d
00000320: 3d89 c9bd 67c7 b7bc 45c0 71bb 93d1 b7bd
00000330: f4d7 c03b 6fa8 d03d a0f2 003e 9c35 99bd
00000340: 5acb da3d 6c7d 91bd c155 92bd 45df a4bd
00000350: 8045 ae3d d44e d23d b2ca 8f3b a4dd 5c3d
00000360: dcb0 7a3b 6f9c ac3d 610b 403d ddbe 683c
00000370: c1a5 e4bd 1ab5 0c3e f93d ee3d 462a f6bd
00000380: ab95 683c 2e49 7fbb 2012 23bd 0ece e0bc
00000390: 4293 d83d 037b 7b3d b000 85bc e6aa 593d
000003a0: ecf0 b73d 7512 e8bc 46d9 a4bc bd25 5d3d
000003b0: fd1a c03d fb80 dbbc 9701 98bd 85b4 dfbd
000003c0: 78d6 4b3d bc47 04be ee91 153e efb7 d9bd
000003d0: 784e 90bd b350 ed3c ccb0 b33d 99bc 9abc
000003e0: 1821 cfbd 1f4e c9bd ebc7 df3c 63cb 9d3d
000003f0: 454c b33d 43dc b0bd 5804 933d 0e4a c4bd

module.conv_2.bias f4 [12]
-0.05352692 -0.10288725 0.06648092 -0.060294155 0.116204806 0.03756346 -0.0030026452 0.018876715
-0.08135182 0.009467018 -0.12445504 0.01303603
00000000: 0b3f 5bbd 8db6 d2bd 2627 883d 01f7 76bd
00000010: c9fc ed3d 25dc 193d 07c8 44bb 57a3 9a3c
00000020: c89b a6bd 8d1b 1b3c 49e2 febd 1395 553c

module.conv_3.weight f4 [12, 12, 3, 3, 3]
-0.055174302 0.043796413 0.017837197 0.00014922861 -0.019125333 0.025823953 0.025635527 -0.023482544
-0.043628283 -0.00044286798 0.03319553 -0.022412086 -0.06021985 0.036908142 -0.04975084 0.053551327
0.01934237 0.050368454 -0.04951081 0.013289278 -0.008260998 0.034570105 0.027038027 -0.03037351
0.0057854787 0.05531259 0.021648567 -0.03133071 0.04932161 0.032762807 -0.054446578 0.020135447
0.006183484 0.023815846 -0.02788481 0.015424494 -0.029045537 0.01866273 -0.003201027 -0.015394978
-0.029982097 0.018744191 -0.0022354918 0.024868883 -0.004256889 0.023536827 -0.02089891 0.011393815
0.014013785 0.028533619 -0.04603383 0.009852001 -0.049803015 -0.019288443 0.023034602 0.049384627
0.008002623 0.025341632 0.04097878 -0.008223136 -0.009201425 -0.017882459 0.0043375473 0.043412693
0.033145763 0.054943766 -0.054784488 0.02772573 0.009268388 0.001736888 0.010228611 -0.021842178
-0.0076793195 0.043890085 -0.04966086 -0.054485433 -0.0016618554 -0.0032747276 0.00084470963 -0.04195996
0.038623516 -0.010800743 -0.02873229 -0.005998003 0.033336382 0.03208898 0.037063688 -0.04533505
0.04272384 0.005334374 -0.02088601 0.022324968 -0.049619697 0.022932747 0.01349774 0.04505449
0.04086225 -0.050109707 -0.052216027 -0.0095715765 -0.021013176 -0.024121333 0.005514174 -0.027556513
-0.01368647 -0.039365746 0.055656105 0.039339263 0.0456675 0.04623285 0.018565265 -0.043094326
-0.005482516 0.034082655 -0.049346846 0.05134897 0.03412714 -0.054805588 -0.03983971 -0.009308558
-0.03929307 0.014373032 -0.029228566 0.04956555 -0.03542945 0.012123365 -0.044873882 -0.003926654
-0.026216203 0.056305233 0.027206302 -0.02762735 0.03826696 -0.046780333 0.026226845 -0.006891124
-0.05085426 0.042763814 -0.0547943 0.02702464 0.0093549695 -0.019475516 -0.0032750182 -0.0038871858
0.0067689745 -0.04523792 -0.031858817 -0.05941391 -0.06868205 -0.008355721 -0.02230961 -0.017166939
0.017065829 0.007993563 0.0023226968 -0.010976543 0.02342382 -0.021865044 -0.05493028 -0.028787507
-0.012515668 0.062243078 -0.006096454 0.03329894 -0.05537433 0.05017277 0.022050096 0.050974615
-0.039279487 -0.043378156 0.0030858743 0.022984948 0.030139185 -0.0041782614 -0.029486025 -0.020228336
-0.049394675 0.053295262 -0.032808226 -0.0005790974 0.01695383 0.024660552 -0.056157228 0.009016487
0.009636673 -0.015569093 0.037335165 0.022523655 0.05838551 0.02201742 -0.0010399084 -0.0017873102
-0.006065909 0.03329742 -0.0572337 -0.03986602 -0.030660825 -0.022106739 0.024786705 0.005215648
0.041161284 -0.013557891 0.020290071 0.04596697 -0.038763583 -0.030822556 0.0052827974 0.03069382
0.017479809 0.034937147 -0.014559566 0.0062258095 -0.0029123812 -0.049185 -0.017915491 0.038077112
-0.03627699 0.02397799 0.011310992 0.053084236 0.020029558 0.023095658 -0.01714893 0.042142857
-0.03606856 -0.007947822 -0.040487714 0.008508274 0.027923105 -0.00035050247 0.024981605 -0.031002913
0.050264876 0.047544558 0.006086557 -0.024260703 0.01798838 0.051446095 -0.055289786 0.054164436
0.040570576 -0.006522589 -0.043052085 -0.016774619 -0.0074511315 -0.0033768585 0.027582932 0.033363696
0.03740622 0.022087669 0.036996584 0.009769073 0.018869486 0.0062869573 0.002887841 0.0091886325
00000000: 73fe 61bd de63 333d 501f 923c 407a 1c39
00000010: bbac 9cbc c18c d33c 9901 d23c 775e c0bc
00000020: 92b3 32bd bc30 e8b9 09f8 073d 8d99 b7bc
00000030: 17a9 76bd fe2c 173d 89c7 4bbd a358 5b3d
00000040: e473 9e3c 274f 4e3d d9cb 4abd 46bb 593c
00000050: 2359 07bc 6299 0d3d da7e dd3c ded1 f8bc
00000060: 1d94 bd3b 748f 623d 5658 b13c a154 00bd
00000070: 7505 4a3d 4b32 063d 6003 5fbd 18f3 a43c
00000080: d39e ca3b 7319 c33c af6e e4bc 04b7 7c3c
00000090: e8f0 edbc 95e2 983c 52c8 51bb 383b 7cbc
000000a0: 049d f5bc 6b8d 993c 5481 12bb d4b9 cb3c
000000b0: 607d 8bbb 4ed0 c03c 3134 abbc 20ad 3a3c
000000c0: 139a 653c 56bf e93c f88d 3cbd 4a6a 213c
000000d0: 3ffe 4bbd cc02 9ebc 10b3 bc3c 8947 4a3d
000000e0: 6f1d 033c 4199 cf3c 5dd9 273d 55ba 06bc
000000f0: 93c1 16bc 3c7e 92bc fc21 8e3b 82d1 313d
00000100: dac3 073d b70c 613d b365 60bd 1221 e33c
00000110: 70da 173c 4aa8 e33a e795 273c 5eee b2bc
00000120: cda2 fbbb 17c6 333d 3069 4bbd 1e2c 5fbd
00000130: 9dd2 d9ba d09c 56bb 816f 5d3a 35de 2bbd
00000140: b133 1e3d 99f5 30bc fb5f ebbc e58a c4bb
00000150: bb8b 083d bc6f 033d 18d0 173d 3fb1 39bd
00000160: 31ff 2e3d f9cb ae3b 2319 abbc dae2 b63c
00000170: 063e 4bbd 75dd bb3c a025 5d3c 0f8b 383d
00000180: 2d5f 273d d63f 4dbd 79e0 55bd 1ad2 1cbc
00000190: d323 acbc 1a9a c5bc 3eb0 b43b 32be e1bc
000001a0: 373d 60bc fa3d 21bd a8f7 633d 3522 213d
000001b0: d80d 3b3d a85e 3d3d 2f16 983c ad83 30bd
000001c0: ada6 b3bb 419a 0b3d eb1f 4abd 4c53 523d
000001d0: e6c8 0b3d d37b 60bd f72e 23bd ec82 18bc
000001e0: c5f1 20bd de7c 6b3c bf70 efbc 3f05 4b3d
000001f0: 791e 11bd 14a1 463c adcd 37bd 29ab 80bb
00000200: 5dc3 d6bc 51a0 663d c0df de3c c152 e2bc
00000210: d1bd 1c3d bc9c 3fbd aed9 d63c f0ce e1bb
00000220: 8e4c 50bd 1c29 2f3d fd6f 60bd c762 dd3c
00000230: 9645 193c 1e8b 9fbc b0a1 56bb 28c0 7ebb
00000240: 46ce dd3b 664b 39bd 647e 02bd 005c 73bd
00000250: 2da9 8cbd 6fe6 08bc a5c2 b6bc aea1 8cbc
00000260: a3cd 8b3c 6ff7 023c 6338 183b f5d6 33bc
00000270: 50e3 bf3c 521e b3bc 93fe 60bd c7d3 ebbc
00000280: 840e 4dbc 99f2 7e3d c3c4 c7bb 7864 083d
00000290: 32d0 62bd f681 4d3d 67a2 b43c c2ca 503d
000002a0: 87e3 20bd 4bad 31bd 613c 4a3b ee4a bc3c
000002b0: 74e6 f63c cce9 88bb ad8c f1bc e5b5 a5bc
000002c0: 1252 4abd 224c 5a3d eb61 06bd 92ce 17ba
000002d0: c2e2 8a3c ed04 ca3c 1f05 66bd e3b9 133c
000002e0: 23e3 1d3c 8215 7fbc c2ec 183d 8783 b83c
000002f0: a525 6f3d e05d b43c 894d 88ba 2e44 eaba
00000300: 88c4 c6bb e062 083d e26d 6abd 8d4a 23bd
00000310: 692c fbbc 3119 b5bc 7d0d cb3c 07e8 aa3b
00000320: bc98 283d eb21 5ebc 5d37 a63c dd47 3c3d
00000330: 90c6 1ebd 967f fcbc 511b ad3b 9b71 fb3c
00000340: d131 8f3c 411a 0f3d 3f8b 6ebc e001 cc3b
00000350: a6dd 3ebb 3676 49bd 82c3 92bc bff6 1b3d
00000360: 2e97 14bd 7d6d c43c bd51 393c db6e 593d
00000370: 0715 a43c 1b33 bd3c ea7b 8cbc fd9d 2c3d
00000380: a0bc 13bd 9537 02bc 72d6 25bd 4a66 0b3c
00000390: ffbe e43c a5c3 b7b9 39a6 cc3c d2f9 fdbc
000003a0: 8be2 4d3d 15be 423d be71 c73b 62be c6bc
000003b0: 5e5c 933c 24b9 523d 8b77 62bd 87db 5d3d
000003c0: 552d 263d 71bb d5bb 6257 30bd ed6a 89bc
000003d0: 9f28 f4bb 494e 5dbb 9af5 e13c 5fa8 083d
000003e0: 4437 193d 33f1 b43c bb89 173d 760e 203c
000003f0: 2e94 9a3c d202 ce3b ef41 3d3b eb8b 163c

module.conv_3.bias f4 [12]
-0.0019033244 -0.04578452 0.010124473 -0.013555097 -0.04192197 -0.007281647 0.051630937 0.04084352
-0.022503547 0.00014457943 -0.030641159 -0.01409555
00000000: f878 f9ba 8d88 3bbd 1ee1 253c 3316 5ebc
00000010: 5fb6 2bbd e29a eebb f67a 533d 894b 273d
00000020: 5c59 b8bc 3f9a 1739 2b03 fbbc 06f1 66bc

module.conv_4.weight f4 [12, 12, 3, 3, 3]
0.036390245 0.047715202 0.005346124 -5.516643e-05 -0.040052574 -0.050000653 0.006230368 0.015054271
-0.0045137024 0.03664722 -0.045488536 -0.04969304 0.04926526 0.040556956 0.033761054 -0.009788229
-0.00082734425 -0.03454945 0.050564025 -0.0483036 0.044515245 -0.007429193 0.023409717 -0.04868189
-0.039699413 0.004951955 -0.002508077 0.050004713 -0.019197833 -0.015577906 0.04768707 -0.025060588
0.018402567 -0.02176574 -0.019646354 -0.0007404765 0.030474843 -0.016234152 -0.011125199 -0.016687138
0.06737923 0.041044626 0.04842323 0.017213657 0.018326167 -0.0484766 -0.054917958 0.016899753
-0.016303862 -0.042581845 0.0034808042 -0.028749224 -0.005718446 -0.047500588 -0.04164822 0.020155352
0.045445476 -0.0148333935 0.052030504 -0.031032808 0.00015789451 0.0429468 0.05915387 0.031007098
-0.027270798 -0.03113175 -0.040666748 -0.0003934255 0.045011386 -0.031839922 0.049729917 0.018730655
0.006646113 -0.009138577 -0.047486015 -0.0010296899 -0.008037914 0.015204386 0.05043848 -0.023187071
0.02127477 -0.04014624 0.053692564 -0.006181361 0.0038212345 -0.023551395 -0.030948803 -0.037303805
0.051402077 0.054405943 -0.019830408 0.044249967 0.0061205523 0.053697344 -0.0259926 -0.040097877
-0.018817265 0.0072240084 -0.011546462 0.03152352 0.0075444467 -0.049204603 -0.022596532 -0.032737855
0.010354141 0.036651198 0.046101905 0.043683425 0.05131893 -0.014071745 0.026921585 0.020067539
0.07743193 0.012252857 -0.018863305 0.06456225 0.011176443 0.03191313 0.04364329 -0.005740834
0.014437963 0.015313724 -0.023149904 0.015286639 0.002215607 -0.037746146 0.0005317843 0.050122038
-0.021359222 0.047932282 -2.077058e-06 -0.03802154 0.039516784 0.052983988 0.043333806 0.073330805
-0.0045116805 0.058747433 0.06451146 0.058777135 0.009082674 0.06560759 0.023125429 0.01160425
0.06321576 -0.029827463 0.0017463593 -0.012454807 0.003389231 0.0569137 -0.007021705 0.014783156
-0.022645252 -0.036930997 0.049582325 -0.020351155 0.042446166 0.05775397 0.04397812 0.06718274
0.0634783 -0.031069288 0.014412022 -0.047514055 -0.0261309 0.057724092 0.006363617 0.06329502
0.0053901235 -0.016054912 0.058642585 -0.048346132 -0.043009378 0.048287988 -0.017133987 0.0049319067
0.033527303 -0.030149586 -0.0073198383 -0.0031620027 -0.017952448 -0.0033004691 -0.0436136 -0.032528337
0.004422342 0.014125198 0.027993888 0.041460156 0.03341362 -0.007864249 -0.061830264 0.020417832
-0.05033527 -0.006192029 -0.05783714 -0.062332522 -0.017348813 0.011847581 0.0046511325 -0.059236657
-0.036501195 -0.053120904 -0.04557095 -0.024648879 -0.00808293 -0.018852057 -0.04209005 -0.0080887955
0.020388275 -0.061343484 0.03558678 0.03492655 0.00988765 -0.0370417 -0.008294632 -0.04724771
-0.0046180603 0.08537717 0.045974705 -0.0014635125 -0.003016852 0.011609313 0.03032103 0.027800122
-0.018256003 -0.0049249176 0.06047591 0.017489722 -0.05356338 0.042447153 -0.04267499 -0.0072968956
-0.027570626 -0.022539355 0.055521466 0.048677802 0.02702694 0.017906884 0.01948512 -0.039781496
0.020366034 -0.06395952 -0.025442665 0.024002498 0.057960544 -0.008585957 0.012004896 0.048068754
0.054493558 0.02848545 0.016599923 0.010928341 0.033620916 0.016732164 -0.03339128 0.029507404
00000000: f00d 153d 0471 433d 8a2e af3b 8162 67b8
00000010: 2b0e 24bd 7ccd 4cbd 1d28 cc3b 30a6 763c
00000020: aee7 93bb 651b 163d 3052 3abd ee8a 4bbd
00000030: 5fca 493d 0d1f 263d 0849 0a3d cf5e 20bc
00000040: 22e2 58ba b983 0dbd 391c 4f3d ffd9 45bd
00000050: 9e55 363d 9670 f3bb bcc5 bf3c a966 47bd
00000060: da9b 22bd 0244 a23b 8d5e 24bb bed1 4c3d
00000070: c644 9dbc 793a 7fbc 8453 433d dd4b cdbc
00000080: fbc0 963c 114e b2bc 64f1 a0bc 891c 42ba
00000090: 61a6 f93c 7cfd 84bc 7746 36bc 77b3 88bc
000000a0: 1ffe 893d 691e 283d 7057 463d a803 8d3c
000000b0: c220 963c 668f 46bd a7f1 60bd 5a71 8a3c
000000c0: ad8f 85bc 4d6a 2ebd 341e 643b 7e83 ebbc
000000d0: cd61 bbbb fa8f 42bd 5397 2abd d61c a53c
000000e0: 0925 3a3d c307 73bc f01d 553d 8438 febc
000000f0: 7c90 2539 fce8 2f3d 544b 723d 9902 fe3c
00000100: 0267 dfbc 0308 ffbc 2d92 26bd ad44 ceb9
00000110: dc5d 383d 946a 02bd 99b1 4b3d 0871 993c
00000120: a3c7 d93b f8b9 15bc b280 42bd a9f6 86ba
00000130: 74b1 03bc d11b 793c 9498 4e3d d0f2 bdbc
00000140: 6d48 ae3c 6270 24bd bcec 5b3d 048d cabb
00000150: ad6d 7a3b dbee c0bc 5888 fdbc e0cb 18bd
00000160: fc8a 523d c4d8 5e3d 6173 a2bc 743f 353d
00000170: ea8e c83b bff1 5b3d 6fee d4bc ac3d 24bd
00000180: aa26 9abc 60b7 ec3b 5f2d 3dbc ce1e 013d
00000190: 6837 f73b c48a 49bd 5d1c b9bc 2118 06bd
000001a0: 6aa4 293c 911f 163d 5ad5 3c3d 64ed 323d
000001b0: cc33 523d 2d8d 66bc a88a dc3c ae64 a43c
000001c0: a294 9e3d 35c0 483c 3887 9abc 3739 843d
000001d0: 661d 373c 58b7 023d 4ec3 323d 9b1d bcbb
000001e0: 358d 6c3c 6ae6 7a3c dea4 bdbc d074 7a3c
000001f0: b833 113b b49b 1abd 7167 0b3a c44c 4d3d
00000200: 89f9 aebc a454 443d 9663 0bb6 79bc 1bbd
00000210: 5adc 213d bd05 593d ca7e 313d 762e 963d
00000220: b8d6 93bb 26a1 703d 961e 843d 4bc0 703d
00000230: 7fcf 143c 465d 863d 8a71 bd3c c11f 3e3c
00000240: 4477 813d b958 f4bc 18e6 e43a 3f0f 4cbc
00000250: dc1d 5e3b 571e 693d 5516 e6bb 0d35 723c
00000260: 8982 b9bc f544 17bd d616 4b3d 77b7 a6bc
00000270: 08dc 2d3d 6d8f 6c3d 6722 343d 1b97 893d
00000280: e900 823d 0585 febc 6720 6c3c 199e 42bd
00000290: 7810 d6bc 1970 6c3d e385 d03b d2a0 813d
000002a0: a29f b03b 9785 83bc 3533 703d 9806 46bd
000002b0: 9a2a 30bd a0c9 453d 935c 8cbc d59b a13b
000002c0: ed53 093d 44fc f6bc 41db efbb 9a39 4fbb
000002d0: 0311 93bc af4c 58bb 2da4 32bd 6f3c 05bd
000002e0: 4be9 903b 606d 673c 7053 e53c 20d2 293d
000002f0: b8dc 083d 0dd9 00bc bb41 7dbd 4c43 a73c
00000300: 5b2c 4ebd 81e6 cabb a3e6 6cbd 6350 7fbd
00000310: 191f 8ebc 5b1c 423c 8768 983b 23a2 72bd
00000320: 4782 15bd 4e95 59bd 9ba8 3abd 72ec c9bc
00000330: 446e 04bc a16f 9abc 9e66 2cbd de86 04bc
00000340: 5005 a73c 4e43 7bbd 72c3 113d 240f 0f3d
00000350: cfff 213c 0ab9 17bd 35e6 07bc d186 41bd
00000360: 1953 97bb 3ada ae3d f94f 3c3d 55d3 bfba
00000370: 61b6 45bb fd34 3e3c cf63 f83c 15bd e33c
00000380: 9d8d 95bc 3461 a1bb 96b5 773d 9b46 8f3c
00000390: 4665 5bbd 11dd 2d3d f8cb 2ebd cc1a efbb
000003a0: cbdb e1bc 74a4 b8bc 7a6a 633d 6062 473d
000003b0: 9a67 dd3c 75b1 923c 429f 9f3c ecf1 22bd
000003c0: abd6 a63c 35fd 82bd 236d d0bc e3a0 c43c
000003d0: 0968 6d3d 1dac 0cbc 2fb0 443c bee3 443d
000003e0: a334 5f3d 525a e93c 90fc 873c c90c 333c
000003f0: 16b6 093d e411 893c 4bc5 08bd 83b9 f13c

module.conv_4.bias f4 [12]
0.021464454 0.023200355 -0.04853833 -0.018907713 -0.028706808 -0.015714746 -0.032845784 -0.039966963
0.0041498574 -0.0013839761 0.062261026 -0.03435054
00000000: 39d6 af3c ac0e be3c 21d0 46bd 59e4 9abc
00000010: 8a2a ebbc 36bc 80bc 4d89 06bd 66b4 23bd
00000020: 87fb 873b 8866 b5ba 6b05 7f3d 27b3 0cbd

module.conv_5.weight f4 [12, 12, 3, 3, 3]
0.022694029 0.04181606 -0.00897093 -0.010888925 -0.04831646 0.008363168 0.003651176 -0.003710543
0.065616466 -0.04270945 0.045978762 0.0020590986 -0.0051772185 0.045742385 0.02489836 0.015243235
0.01054051 0.036848444 0.027022557 -0.04044099 -0.0036045364 -0.022896796 -0.04436324 -0.04807775
0.045145098 0.022064032 0.024534382 0.06775746 -0.0024339356 0.04099757 0.0011619441 0.029125374
0.05174159 -0.017108036 -0.013323107 -0.05932898 -0.050161224 -0.040400986 -0.0061314274 -0.06961767
-0.033961292 -0.062440705 -0.051666707 0.0035197271 -0.046731744 -0.0035040951 -0.055393793 0.01898333
-0.022541394 -0.0037088979 -0.002437393 0.056576278 0.04321195 -0.01901667 0.041042283 -0.037062533
0.035982225 0.018363392 -0.029065253 -0.024632365 0.021560987 0.051408898 0.007347363 -0.039846785
-0.035435762 0.027242003 -0.009097894 -0.031966895 -0.04334564 -0.048757344 0.0089037055 -0.0075944313
-0.043870214 0.007514189 -0.011462075 -0.06464378 -0.0589827 -0.015525498 0.048593722 -0.029384123
0.012828433 0.04453045 0.012645662 -0.0382384 -0.0088674985 0.0040308186 -0.007967717 0.05042754
0.07037732 -0.022343652 -0.0036920316 -0.038903814 0.01324687 0.04266019 -0.052104887 -0.009985061
-0.042207908 -0.0103684515 0.018703118 -0.02194404 -0.058765378 0.002956139 -0.04400037 -0.00799223
-0.061677743 -0.033904493 0.0654022 -0.01349864 -0.04056108 0.036932394 0.0445197 -0.03808928
0.0042277686 0.043789838 0.040885966 -0.005114516 0.008278115 0.010930991 0.052897234 -0.04850895
-0.029623969 -0.019418623 0.028992152 -0.048841793 -0.022613408 0.047435228 0.012846563 0.014785817
-0.059082165 -0.04231057 0.012130404 -0.027571388 -0.024046568 0.023415213 -0.034813724 0.059408855
0.06807115 -0.04005139 0.05286146 -0.029572992 0.038367018 -0.048772417 0.05631602 0.049040116
-0.014671295 0.0045143673 0.004875066 0.059468236 -0.046385396 -0.032058164 0.020807963 -0.046404928
-0.052683085 -0.011595977 0.04011999 0.023671402 0.037118167 -0.046608087 -0.0061548264 0.030243726
0.026549822 -0.005285246 -0.01677444 0.053675473 -0.037374154 -0.004982143 0.043479513 -0.029164001
0.025970368 -0.024848714 0.060175918 0.05266085 -0.046446353 -0.0064593107 0.05766971 0.015760764
0.035591103 -0.000553824 0.014370254 -0.01140807 0.02489405 -0.030610325 0.017391441 0.024041709
-0.013643773 -0.01532972 0.0572629 0.008753222 -0.011347471 -0.048016276 0.016087668 -0.018584816
-0.049257148 -0.0020809001 -0.018900616 -0.03330769 -0.0425862 0.024340352 0.034888223 -0.020625275
0.03387249 0.044024315 0.015480873 0.0066009467 -0.041297503 -0.0020617668 0.0028552304 -0.015223086
-0.0063685644 -0.03191958 0.051648796 -0.04368345 0.0024053056 -0.02315955 -0.048672702 -0.015858961
-0.07363441 -0.0594432 -0.00797056 0.006894931 0.057603247 0.018731024 0.030306445 0.040334012
-0.030006932 0.050610546 -0.06133601 -0.047202848 0.05894879 0.05432485 -0.015035161 -0.036636822
-0.012748749 0.033414822 0.07586046 -0.023357304 -0.039977893 0.020873332 0.0878513 0.024193345
0.014769553 0.027544407 -0.038380723 -0.013279086 -0.109173276 -0.04176094 0.019414863 -0.03105713
0.01712294 0.005325129 -0.047383808 -0.056142274 -0.013673943 -0.035159446 0.020927442 0.07047636
00000000: d4e8 b93c 5147 2b3d cffa 12bc 7667 32bc
00000010: 7be7 45bd ab05 093c 9248 6f3b 952c 73bb
00000020: ed61 863d 1bf0 2ebd 3a54 3c3d f1f1 063b
00000030: a8a5 a9bb 5e5c 3b3d a5f7 cb3c c3be 793c
00000040: 1ab2 2c3c 65ee 163d 695e dd3c 74a5 25bd
00000050: 163a 6cbb 1092 bbbc 3bb6 35bd 2ded 44bd
00000060: 11ea 383d a1bf b43c 54fc c83c 6cc4 8a3d
00000070: aa82 1fbb 11ed 273d 604c 983a 5698 ee3c
00000080: fdee 533d 2726 8cbc 2949 5abc f202 73bd
00000090: db75 4dbd 817b 25bd 24ea c8bb b593 8ebd
000000a0: ff1a 0bbd d3c1 7fbd 78a0 53bd 39ab 663b
000000b0: c969 3fbd f6a4 65bb 9ae4 62bd ee82 9b3c
000000c0: bba8 b8bc fb10 73bb abbc 1fbb 87bc 673d
000000d0: 04ff 303d d9c8 9bbc f41b 283d e2ce 17bd
000000e0: 1962 133d d36e 963c 411a eebc d0c9 c9bc
000000f0: aba0 b03c 2392 523d 26c2 f03b 6236 23bd
00000100: 1725 11bd 9f2a df3c 550f 15bc b8ef 02bd
00000110: 338b 31bd c8b5 47bd d9e0 113c b5da f8bb
00000120: 41b1 33bd 9639 f63b 6dcb 3bbc f563 84bd
00000130: d897 71bd a95e 7ebc 360a 473d f9b6 f0bc
00000140: 592e 523c 9065 363d c02f 4f3c de9f 1cbd
00000150: fc48 11bc f514 843b 078b 02bc 1c8d 4e3d
00000160: fc21 903d 090a b7bc 03f6 71bb 9b59 1fbd
00000170: 6609 593c 74bc 2e3d ef6b 55bd 6298 23bc
00000180: 33e2 2cbd 70e0 29bc 4837 993c fdc3 b3bc
00000190: f7b3 70bd c8bb 413b bb39 34bd d8f1 02bc
000001a0: cda1 7cbd 70df 0abd 97f1 853d 6629 5dbc
000001b0: 6023 26bd 6c46 173d 4a5a 363d 8103 1cbd
000001c0: 1889 8a3b f95c 333d 0b78 273d ab97 a7bb
000001d0: eea0 073c e617 333c c5aa 583d 52b1 46bd
000001e0: f7ad f2bc ce13 9fbc f380 ed3c 550e 48bd
000001f0: c13f b9bc 714b 423d 647a 523c 3640 723c
00000200: 2400 72bd d94d 2dbd 9abe 463c 64dd e1bc
00000210: 4ffd c4bc 43d1 bf3c d698 0ebd b356 733d
00000220: e368 8b3d ed0c 24bd 4285 583d 0f43 f2bc
00000230: bc26 1d3d 96c5 47bd a1ab 663d 4ade 483d
00000240: df5f 70bc 42ed 933b 05bf 9f3b f794 733d
00000250: 9dfe 3dbd 6c4f 03bd 7675 aa3c 1813 3ebd
00000260: 38ca 57bd 0dfd 3dbc dc54 243d 87ea c13c
00000270: 3809 183d 1fe8 3ebd 6dae c9bb b1c1 f73c
00000280: 037f d93c db2f adbb 8d6a 89bc d0da 5b3d
00000290: a415 19bd 3f41 a3bb 9317 323d 58e9 eebc
000002a0: cfbf d43c 888f cbbc 067b 763d e7b2 573d
000002b0: 883e 3ebd a0a8 d3bb 1337 6c3d b81c 813c
000002c0: fac7 113d 802e 11ba 3771 6b3c eae8 3abc
000002d0: 9bee cb3c 81c2 fabc 7f78 8e3c 1ef3 c43c
000002e0: 228a 5fbc 8229 7bbc 818c 6a3d ad69 0f3c
000002f0: beea 39bc b7ac 44bd 49ca 833c 2f3f 98bc
00000300: ddc1 49bd b65f 08bb 77d5 9abc a56d 08bd
00000310: de6e 2ebd 6b65 c73c f4e6 0e3d 56f6 a8bc
00000320: e1bd 0a3d d752 343d 7da3 7d3c c14c d83b
00000330: 9227 29bd b51e 07bb d11e 3b3b 406a 79bc
00000340: 64af d0bb 1bbe 02bd b08d 533d 6bed 32bd
00000350: 55a2 1d3b 19b9 bdbc 075d 47bd a7ea 81bc
00000360: a3cd 96bd b67a 73bd f496 02bc e0ee e13b
00000370: 62f1 6b3d ce71 993c 3945 f83c 4735 253d
00000380: 19d1 f5bc 014d 4f3d 783b 7bbd c657 41bd
00000390: 4974 713d bc83 5e3d 0956 76bc 7e10 16bd
000003a0: 21e0 50bc fbdd 083d bb5c 9b3d d157 bfbc
000003b0: dcbf 23bd 8dfe aa3c 62eb b33d 1f31 c63c
000003c0: fffb 713c cfa4 e13c 1b35 1dbd 8690 59bc
000003d0: 3d96 dfbd 850d 2bbd eb0b 9f3c 866b febc
000003e0: 6845 8c3c 6b7e ae3b 8615 42bd 71f5 65bd
000003f0: ac08 60bc 5a03 10bd 0770 ab3c e955 903d

module.conv_5.bias f4 [12]
-0.052774243 0.054687843 0.019156259 -0.006015984 -0.014257963 0.0016131756 0.05042284 0.06951665
-0.0013131882 0.042690225 0.030705355 0.03385634
00000000: ce29 58bd 5c00 603d 96ed 9c3c bb21 c5bb
00000010: 3b9a 69bc 3171 d33a 2e88 4e3d bf5e 8e3d
00000020: 491f acba f2db 2e3d cc89 fb3c f2ac 0a3d

module.conv_6.weight f4 [12, 12, 3, 3, 3]
0.079883136 -0.018158806 -0.09136602 0.047190625 0.052796457 -0.037543416 -0.018104931 0.0015863362
-0.010326157 0.04021871 -0.043694492 -0.09208705 -0.01827224 -0.014198942 -0.0150969075 -0.018690465
-0.012113033 -0.005509337 0.05339923 -0.02707886 -0.038818873 -0.017227719 0.032513775 -0.022416884
-0.0008222594 0.043737143 0.006116213 -0.058667637 -0.052404605 -0.030827686 -0.024578232 0.033858124
0.037121814 0.041506562 0.047051 -0.037474856 -0.058025442 0.015491588 -0.045060784 0.018936867
-0.042438056 0.048497032 -0.0042049675 -0.037070464 0.011811626 -0.024005169 0.0506683 -0.0046882727
-0.047959007 0.048234627 -0.055739153 -0.03151217 -0.01190606 0.05032603 0.0053076246 0.0022883515
-0.042563193 0.019708728 0.029442074 -0.050694913 0.035908047 0.0030466001 -0.028475704 0.028906187
0.027326923 0.027694521 0.050495196 0.026243119 0.029142689 -0.017056096 0.042641487 -0.008948766
-0.027921421 -0.047362626 -0.018426541 -0.009247083 -0.05034548 0.049455013 0.024081554 0.02586586
-0.004968919 0.010960733 0.005455184 -0.0467728 0.048607595 0.041829757 -0.044421557 0.02141389
-0.011692153 -0.024937417 0.03537113 0.051581446 -0.03163528 -0.023159117 0.016646288 0.04901412
0.0052182553 0.016568199 0.051074777 -0.0043976787 0.0128348265 0.0063927243 0.021147095 0.0007456629
-0.026130456 -0.0066900495 -0.019968921 -0.018597832 -0.035264246 -0.008226591 0.016612023 0.04539302
0.004036573 0.06466206 -0.06093562 -0.023512352 -0.05122558 0.04642726 0.053421542 0.11184097
0.023530617 0.038773198 0.063320406 0.047389157 0.04955518 0.06635309 0.041701786 -0.015779039
-0.025006795 -0.025656765 -0.019808484 -0.020716984 -0.012187325 -0.010532381 -0.07668038 0.013541965
-0.053196635 0.044500057 0.041628018 -0.02419213 0.053450704 0.030303158 -0.028465653 0.051360447
0.055763528 0.0299476 0.0073656677 -0.048840392 -0.04778399 -0.0422763 -0.03837473 0.011528767
-0.050792657 -0.014351388 0.031506192 -0.03154663 0.05285858 -0.015740436 -0.01228438 0.05481423
0.040882863 0.048832685 -0.055776764 0.033823874 0.019560548 0.0040734215 -0.03777038 -0.03428954
0.031543333 -0.021562036 -0.0016823785 -0.004210644 -0.0003629725 -0.04702307 -0.015711104 0.0399852
-0.01734841 0.028897682 -0.0005552977 -0.04825108 -0.04023758 -0.031527497 -0.05170765 0.011218411
-0.029638011 -0.040678557 -0.03097057 -0.019157026 0.045387927 -0.033447213 -0.02700413 -0.04284089
-0.006945135 -0.0429433 -0.028625697 0.0407973 0.01919229 -0.04749498 0.016675962 -0.036001083
0.0037521257 -0.05085807 0.008201949 -0.06098487 0.035876658 -0.00015374665 0.005867063 0.032534525
0.04464207 -0.045569897 0.00809079 0.025691612 0.029889971 -0.0051889904 0.018241407 -0.060331106
0.05373097 -0.036411174 -0.028767215 0.044830218 -0.03305337 -0.005971738 0.007716211 -0.062438313
0.04314569 -0.008044349 -0.04532678 0.012005913 -0.0008997824 -0.011551267 0.022928296 -0.038318682
-0.048011 -0.020031942 0.043105625 -0.021885155 -0.02138756 0.047355156 -0.003148055 -0.005078951
-0.057631265 0.011393789 -0.028764207 0.014827378 0.0025212734 -0.052408483 -0.04229802 -0.05023656
0.035662092 0.019023003 0.024256006 -0.0023961097 -0.0017885253 -0.037238516 -0.005806776 -0.007190942
00000000: c599 a33d c7c1 94bc 1c1e bbbd f54a 413d
00000010: 1941 583d 20c7 19bd cb50 94bc 9cec cf3a
00000020: 0b2f 29bc 60bc 243d fff8 32bd 2398 bcbd
00000030: aaaf 95bc aea2 68bc 0559 77bc bf1c 99bc
00000040: be75 46bc ab87 b4bb 27b9 5a3d 7cd4 ddbc
00000050: 8a00 1fbd 2521 8dbc 2a2d 053d 9da3 b7bc
00000060: e58c 57ba b825 333d 836a c83b 7a4d 70bd
00000070: 36a6 56bd 588a fcbc 4a58 c9bc d1ae 0a3d
00000080: 0b0d 183d c902 2a3d 8db8 403d 3c7f 19bd
00000090: 16ac 6dbd 6ed0 7d3c a891 38bd 7d21 9b3c
000000a0: 87d3 2dbd d3a4 463d d3c9 89bb 33d7 17bd
000000b0: 8d85 413c 7da6 c4bc 9089 4f3d 15a0 99bb
000000c0: aa70 44bd ac91 453d bd4e 64bd e812 01bd
000000d0: a311 43bc ab22 4e3d 95eb ad3b 2bf8 153b
000000e0: be56 2ebd 3374 a13c 8130 f13c 78a5 4fbd
000000f0: 5114 133d 78a9 473b e145 e9bc abcc ec3c
00000100: b6dc df3c 9fdf e23c 0dd4 4e3d cffb d63c
00000110: a6bc ee3c 3ab9 8bbc d7a8 2e3d d89d 12bc
00000120: 77bb e4bc 50ff 41bd 42f3 96bc 1481 17bc
00000130: 1037 4ebd 5791 4a3d ae46 c53c a4e4 d33c
00000140: 50d2 a2bb a594 333c 66c1 b23b d694 3fbd
00000150: c218 473d ae55 2b3d 61f3 35bd 2f6c af3c
00000160: 7290 3fbc 8e49 ccbc 51e1 103d 1147 533d
00000170: ff93 01bd 30b8 bdbc cc5d 883c 08c3 483d
00000180: e6fd aa3b 08ba 873c c933 513d 671a 90bb
00000190: 2a49 523c 0f7a d13b ac3c ad3c 9778 433a
000001a0: 8a0f d6bc 3438 dbbb dd95 a3bc 7b5a 98bc
000001b0: 3e71 10bd d3c8 06bc f015 883c 08ee 393d
000001c0: 3b45 843b 8b6d 843d a197 79bd fa9c c0bc
000001d0: ead1 51bd 832a 3e3d 8cd0 5a3d e10c e53d
000001e0: 48c3 c03c a5d0 1e3d 21ae 813d 221b 423d
000001f0: 5ffa 4a3d 21e4 873d 7ecf 2a3d 0b43 81bc
00000200: 0ddb ccbc 232e d2bc 6745 a2bc aab6 a9bc
00000210: 59ad 47bc 0290 2cbc 9a0a 9dbd 1edf 5d3c
00000220: b7e4 59bd b145 363d 2482 2a3d 932e c6bc
00000230: 20ef 5a3d 543e f83c cd30 e9bc 555f 523d
00000240: 4c68 643d ab54 f53c b35b f13b dd0c 48bd
00000250: 25b9 43bd ea29 2dbd d22e 1dbd 27e3 3c3c
00000260: f60b 50bd 1622 6bbc a30c 013d 0a37 01bd
00000270: 3d82 583d 16f2 80bc 6d44 49bc e384 603d
00000280: ca74 273d c804 483d 2d76 64bd e78a 0a3d
00000290: 713d a03c 567a 853b 1db5 1abd 3073 0cbd
000002a0: 9533 013d dea2 b0bc 4183 dcba 71f9 89bb
000002b0: 584d beb9 439b 40bd 93b4 80bc 85c7 233d
000002c0: 411e 8ebc d5ba ec3c 6691 11ba eda2 45bd
000002d0: 29d0 24bd fa22 01bd 67cb 53bd 6dcd 373c
000002e0: 6acb f2bc 8f9e 26bd feb5 fdbc 32ef 9cbc
000002f0: b1e8 393d f2ff 08bd c437 ddbc ee79 2fbd
00000300: 0494 e3bb 50e5 2fbd 7080 eabc 121b 273d
00000310: 2639 9d3c 198a 42bd 079c 883c df75 13bd
00000320: 39e6 753b 8d50 50bd 7861 063c 45cb 79bd
00000330: 67f3 123d 0d37 21b9 7e40 c03b ec42 053d
00000340: 9ada 363d 80a7 3abd 3c8f 043c 3777 d23c
00000350: d0db f43c 6808 aabb 016f 953c c01d 77bd
00000360: 0115 5c3d e223 15bd 39a9 ebbc e49f 373d
00000370: f862 07bd 92ae c3bb 45d8 fc3b 51bf 7fbd
00000380: 89b9 303d 72cc 03bc 93a8 39bd 73b4 443c
00000390: 60df 6bba 8641 3dbc 1fd4 bb3c 0df4 1cbd
000003a0: 2fa7 44bd 071a a4bc 868f 303d 7f48 b3bc
000003b0: f734 afbc 7bf7 413d 994f 4ebb 546d a6bb
000003c0: c30e 6cbd 04ad 3a3c eaa2 ebbc 88ee 723c
000003d0: f33b 253b 47aa 56bd b040 2dbd dac4 4dbd
000003e0: 6a12 123d 21d6 9b3c 88b4 c63c 0d08 1dbb
000003f0: f36c eaba 6a87 18bd c546 bebb fea1 ebbb

module.conv_6.bias f4 [12]
0.03438231 -0.01410411 0.054359697 0.026382308 0.02789447 0.017185608 0.028360438 -0.056516107
-0.007973276 -0.008344061 0.032776292 0.03567021
00000000: 77d4 0c3d ed14 67bc 46a8 5e3d b61f d83c
00000010: f282 e43c d5c8 8c3c 2654 e83c 6f7d 67bd
00000020: 58a2 02bc 87b5 08bc 6f40 063d ed1a 123d

module.conv_7.weight f4 [56, 12, 1, 1, 1]
-0.18086506 -0.06887549 0.2348658 -0.1020486 -0.23668389 -0.15852144 0.26632732 -0.19632287
0.1146038 0.03906228 0.2836805 0.30511382 0.051034708 0.16203146 0.02470606 -0.17501508
-0.01516777 -0.061191697 0.025702083 0.021158949 -0.28748292 -0.2346168 0.034737967 -0.3212806
-0.16939132 -0.18679324 0.1485593 0.17968732 -0.13062133 -0.2159107 0.039735254 -0.157122
0.36150354 -0.09217793 0.3264073 -0.19808787 0.22357425 0.19365434 -0.004452305 -0.2672695
-0.16669206 0.22937487 0.15828885 -0.13081829 -0.12773745 0.060102485 -0.009246114 -0.0277326
-0.019792192 -0.089276224 0.18296693 0.04868624 -0.1623973 -0.16580126 0.26460117 -0.04942834
0.29372793 -0.24121343 0.21319056 -0.17246315 0.1595167 0.024252487 0.07144006 0.050106954
-0.17976156 0.18088922 0.13052516 0.18787213 -0.027438525 -0.2598256 -0.14126506 0.26113108
-0.028905177 0.071310595 -0.11080231 0.027398627 0.16658886 0.25528777 0.1704661 0.248426
-0.23287807 0.22168718 0.09753008 -0.13406883 0.2661023 -0.24576528 -0.08515462 -0.21249509
-0.16889872 -0.1927542 -0.046169754 0.06075355 0.28674006 -0.07187574 0.16529547 0.20676297
-0.038384173 0.10064442 0.21759294 -0.26072526 -0.14979807 0.049782634 -0.23733379 0.060357735
-0.14694932 -0.1289035 -0.0067031668 0.16839889 0.14611948 0.15707342 -0.16706295 -0.08519703
0.10655321 -0.13073386 -0.25225532 0.07857833 -0.24487506 -0.08379605 -0.22331883 0.15330932
-0.03246558 -0.094647944 0.15897843 -0.028181544 -0.24573532 -0.03543311 0.118833 -0.19107568
0.33238813 -0.14575411 0.12958178 -0.121856056 -0.13236497 0.23686145 0.0886092 -0.061461188
0.22700526 -0.16930279 0.05928456 -0.105326615 0.048860103 -0.10576761 0.082448825 -0.29075235
-0.05368734 0.20309977 0.095825434 0.15414593 0.086181484 -0.2174301 0.06281665 -0.26334113
0.13683772 -0.2729565 0.2509017 -0.16383778 0.1723482 0.13193253 0.25595036 0.03376568
0.0035895447 0.1401939 -0.0047784373 0.1511655 -0.31715173 0.13831627 0.16837633 0.05980182
-0.035806023 -0.07036018 0.2584682 0.039991125 0.11975004 0.11935479 -0.18485868 0.30826113
-0.08678508 -0.2216028 -0.04391737 -0.2406656 -0.15326011 0.121674106 -0.122306205 0.20529237
-0.35263446 -0.13314644 -0.23373386 0.085767165 -0.20570585 0.3096715 -0.06470893 -0.32734305
-0.07366288 0.13443391 -0.10638904 -0.18521771 0.36123532 0.295226 -0.14411637 -0.13850158
0.32716942 0.09654601 0.12465987 0.08090168 -0.26159734 0.06927663 -0.23423335 0.24259391
0.24415416 -0.038463198 -0.10663334 0.25322986 -0.097944066 -0.24645163 0.087486535 0.21730042
-0.024239171 -0.044477656 0.10034037 0.2307774 -0.0704658 0.08222469 0.10506493 -0.2843651
-0.23484296 0.1758741 0.19357613 -0.30222115 0.21767662 0.21932009 -0.09427934 0.051215474
-0.12806629 0.1623272 -0.26821554 -0.24296899 0.049387384 0.093138486 -0.07670665 0.055167504
0.16532207 -0.059305612 0.093677536 -0.2206139 0.19338441 0.21828568 -0.14472136 0.12974823
-0.2025666 0.18841873 0.21973547 0.12477609 -0.12661895 0.28226566 0.28001258 -0.0076147057
00000000: b134 39be 980e 8dbd a980 703e dbfe d0bd
00000010: 435d 72be 7253 22be 0e5c 883e dd08 49be
00000020: 66b5 ea3d c5ff 1f3d 923e 913e e137 9c3e
00000030: c509 513d 93eb 253e 5d64 ca3c 2737 33be
00000040: 3d82 78bc 25a4 7abd 2d8d d23c 8855 ad3c
00000050: f630 93be 633f 70be 6649 0e3d e47e a4be
00000060: eb74 2dbe ba46 3fbe ee1f 183e f4ff 373e
00000070: 99c1 05be b217 5dbe 6fc1 223d 97e4 20be
00000080: fe16 b93e c8c7 bcbd dc1e a73e 8cd7 4abe
00000090: a6f0 643e 534d 463e a4e4 91bb 8cd7 88be
000000a0: 53b1 2abe 3fe1 6a3e 7916 223e 3bf5 05be
000000b0: 9bcd 02be 062e 763d 037d 17bc 7a2f e3bc
000000c0: 3c23 a2bc 74d6 b6bd af5b 3b3e 396b 473d
000000d0: 7a4b 26be cec7 29be ce79 873e 5f75 4abd
000000e0: 8263 963e a700 77be a04e 5a3e 2e9a 30be
000000f0: 5958 233e 27ad c63c 2b4f 923d f33c 4d3d
00000100: 6a13 38be 063b 393e 63a8 053e 8d61 403e
00000110: c2c6 e0bc dc07 85be caa7 10be f9b2 853e
00000120: 8dca ecbc 4a0b 923d 52ec e2bd 1673 e03c
00000130: 4596 2a3e 14b5 823e aa8e 2e3e 6363 7e3e
00000140: 9777 6ebe f701 633e dabd c73d 5749 09be
00000150: 903e 883e e5a9 7bbe 8c65 aebd 5098 59be
00000160: c9f3 2cbe 5b61 45be 7f1c 3dbd b7d8 783d
00000170: 98cf 923e 9733 93bd 3743 293e acb9 533e
00000180: b938 1dbd a91e ce3d afd0 5e3e c87d 85be
00000190: aa64 19be e0e8 4b3d a107 73be ac39 773d
000001a0: e279 16be 47ff 03be 3da6 dbbb c270 2c3e
000001b0: 58a0 153e dbd7 203e 8d12 2bbe c87b aebd
000001c0: 9238 da3d 19df 05be 9c27 81be aded a03d
000001d0: 87c0 7abe 439d abbd b1ad 64be 1efd 1c3e
000001e0: a1fa 04bd c8d6 c1bd 3ecb 223e fbdc e6bc
000001f0: 0aa2 7bbe 4f22 11bd b75e f33d 58a9 43be
00000200: c72e aa3e 9140 15be 16b1 043e ab8f f9bd
00000210: af8a 07be cf8b 723e be78 b53d babe 7bbd
00000220: 1174 683e b65d 2dbe 5ed4 723d 7bb5 d7bd
00000230: 8821 483d b09c d8bd eeda a83d 7edd 94be
00000240: 42e7 5bbd 63f9 4f3e 2040 c43d 6ed8 1d3e
00000250: eb7f b03d ffa5 5ebe 04a6 803d a6d4 86be
00000260: 301f 0c3e f4c0 8bbe 3076 803e 17c5 27be
00000270: 0c7c 303e 5219 073e ed0b 833e e24d 0a3d
00000280: 913e 6b3b fd8e 0f3e 7094 9cbb 21cb 1a3e
00000290: b661 a2be c8a2 0d3e d86a 2c3e c1f2 743d
000002a0: 56a9 12bd 0019 90bd f255 843e bccd 233d
000002b0: 823f f53d 4970 f43d 984b 3dbe 67d4 9d3e
000002c0: 60bc b1bd d8eb 62be b3e2 33bd 0b71 76be
000002d0: 38f0 1cbe 4630 f93d ad7b fabd 2a38 523e
000002e0: 818c b4be 8a57 08be ee57 6fbe b2a6 af3d
000002f0: 8ea4 52be 438d 9e3e 1e86 84bd 8299 a7be
00000300: 90dc 96bd 0ba9 093e 7fe2 d9bd b6a9 3dbe
00000310: d6f3 b83e dd27 973e 3e93 13be 5cd3 0dbe
00000320: c082 a73e eab9 c53d ad4d ff3d c8af a53d
00000330: 16f0 85be e8e0 8d3d deda 6fbe 8a6a 783e
00000340: 8c03 7a3e 968b 1dbd 9562 dabd 58a7 813e
00000350: e696 c8bd d15d 7cbe 242c b33d 0084 5e3e
00000360: 3a91 c6bc 342e 36bd 407f cd3d e950 6c3e
00000370: 6050 90bd 6b65 a83d 482c d73d 4d98 91be
00000380: ac7a 70be 5718 343e d238 463e bbbc 9abe
00000390: 9fe6 5e3e 7295 603e 8715 c1bd 51c7 513d
000003a0: cf23 03be 1a39 263e 8c53 89be ddcc 78be
000003b0: 6d4a 4a3d 64bf be3d 6018 9dbd 52f7 613d
000003c0: 304a 293e 71ea 72bd 02da bf3d 9ce8 61be
000003d0: 9006 463e 4886 5f3e d631 14be b8dc 043e
000003e0: 9e6d 4fbe d7f0 403e 5602 613e 9b8a ff3d
000003f0: 66a8 01be 2085 903e cf5d 8f3e c884 f9bb

module.conv_7.bias f4 [56]
-0.11519477 0.20671572 -0.05454799 0.16829927 0.026606262 -0.11809319 -0.05007264 0.14782137
0.0048532765 0.074412346 0.04381805 -0.012690842 -0.12546355 -0.22290929 -0.04012882 0.24726807
-0.19181964 -0.21951585 0.040146094 -0.048418693 -0.07888857 -0.073376685 -0.05765491 -0.057735354
-0.121733755 -0.099779144 -0.12047753 0.019005358 0.19975919 -0.2348901 -0.16577673 -0.14972006
-0.028187878 0.017824762 -0.029256333 0.0046157218 0.16474256 -0.14674342 0.099761024 -0.20404238
-0.2419069 -0.08333434 0.17605479 -0.23549402 0.10433839 0.18871894 -0.03642502 0.2616164
-0.2127624 -0.035747685 0.012881715 0.14672981 0.13306355 0.016007168 -0.07599584 0.25284567
00000000: 3ceb ebbd 49ad 533e b76d 5fbd a556 2c3e
00000010: 60f5 d93c d8da f1bd f818 4dbd 7c5e 173e
00000020: 3c08 9f3b 8065 983d 8e7a 333d 40ed 4fbc
00000030: 8479 00be 5542 64be 1e5e 24bd d733 7d3e
00000040: 5e6c 44be c3c8 60be 3b70 243d ae52 46bd
00000050: 5590 a1bd 8446 96bd 8e27 6cbd e87b 6cbd
00000060: 8c4f f9bd 0259 ccbd ecbc f6bd 20b1 9b3c
00000070: ac8d 4c3e 0887 70be 60c1 29be 3750 19be
00000080: 44ea e6bc 3c05 923c faaa efbc 7b3f 973b
00000090: 46b2 283e e843 16be 824f cc3d 7cf0 50be
000000a0: 71b6 77be 32ab aabd b547 343e 5825 71be
000000b0: 5eaf d53d 8a3f 413e 6732 15bd 96f2 853e
000000c0: 63de 59be 2a6c 12bd d40d 533c 5740 163e
000000d0: d041 083e 7721 833c b5a3 9bbd fd74 813e
