models/FSRCNN3D_epoch_50.pth (torch, 265262 bytes, 15 tensors)

module.conv_1.weight f4 [56, 1, 5, 5, 5]
0	0x3d4c595b	0.049889904
1	0xbd818cd2	-0.063256875
2	0x3d8e644c	0.06952724
3	0x3d88a6a2	0.06672408
4	0xbbcb8466	-0.0062108515
5	0x3d10c9a7	0.03534856
6	0x3c43abfa	0.011942858
7	0xbd484e93	-0.04890306
8	0x3d71522d	0.05891626
9	0xbd76887b	-0.06018875
10	0x3d5e293f	0.054238554
11	0x3cb00b6f	0.021489827
12	0x3da697e8	0.081344426
13	0x3c1f3b2c	0.0097186975
14	0x3b1063bc	0.0022032103
15	0xbcde49fe	-0.027134892
16	0x3d65253e	0.05594372
17	0x3cb06e9e	0.021537121
18	0x3d676fcd	0.056503106
19	0xbda525a4	-0.0806382
20	0x3dc40f04	0.095731765
21	0x3d8906c6	0.06690745
22	0x3d979041	0.07400561
23	0xbd516765	-0.051123995
24	0xbbba5f8b	-0.005687659
25	0xbd048f77	-0.03236338
26	0x3ae3cf83	0.0017380569
27	0x3dbca1e5	0.092105664
28	0xbd4f8634	-0.050665095
29	0x3bc3a203	0.005970241
30	0xba8be937	-0.0010674362
31	0xbd709ee6	-0.058745287
32	0xbce68333	-0.028138733
33	0xbc3f7fac	-0.011688154
34	0xbd29f011	-0.04148871
35	0xbd93b12e	-0.07211529
36	0xbcde508b	-0.027138015
37	0x3d3d422a	0.046205677
38	0xbc31cc3c	-0.010851916
39	0x3d7e7ebb	0.06213258
40	0xbcff2edf	-0.03115028
41	0xbd9e93cd	-0.077430345
42	0x3d90712f	0.07052838
43	0xbd0ef9da	-0.034906246
44	0x3d657fe3	0.056030165
45	0xbd8453e2	-0.06461312
46	0x3dc38afd	0.09547994
47	0xbcbdba5e	-0.023160156
48	0x3d396554	0.04526265
49	0xbd504497	-0.050846662
50	0x3d8a71d6	0.06759994
51	0xbda30cfe	-0.079614624
52	0x3d6208e3	0.055184256
53	0xbc4c0718	-0.012452863
54	0x3d87d802	0.06632997
55	0x3d992128	0.07477027
56	0xbb9e9434	-0.0048394445
57	0x3d906a61	0.0705154
58	0xbd1ff9e5	-0.039056677
59	0xbd35abc0	-0.044353247
60	0x3c0f3e43	0.008742872
61	0xbdb563bd	-0.08856914
62	0x3d474297	0.04864749
63	0x3d031743	0.032004606
64	0xba3000dc	-0.0006713995
65	0x3d4290c9	0.04750136
66	0x3d8a925b	0.06766196
67	0x3c2d2618	0.010568164
68	0x3d82fdd6	0.063960716
69	0x3bd2325e	0.0064146956
70	0x3cd1030a	0.025514144
71	0x3d7ec989	0.062203918
72	0x3bf3f313	0.007444748
73	0x3d4bc5d8	0.049749225
74	0xbc740d8b	-0.014895807
75	0xb9ae0e5d	-0.00033198568
76	0xbd7f516f	-0.06233352
77	0x3cf8c035	0.030365089
78	0xbd0ad4c9	-0.033894334
79	0xbdb4b3b9	-0.08823342
80	0x3d8ba35b	0.06818267
81	0x3d787845	0.060661573
82	0x3dcf796f	0.101305835
83	0x3d13af05	0.036055584
84	0xbd3f1c09	-0.046657596
85	0x3d856805	0.06513981
86	0xbcefe60a	-0.029284496
87	0xbbf340a9	-0.0074234796
88	0xbd10df2e	-0.03536909
89	0xbdb7ff16	-0.08984201
90	0xbd50f16d	-0.05101149
91	0xbd5e3c1f	-0.054256555
92	0xbd815e4c	-0.06316814
93	0xbbbadac7	-0.00570235
94	0xbd7ba506	-0.061436675
95	0x3ced9097	0.02899961
96	0xbd49ea79	-0.049295876
97	0xbc91324c	-0.017724179
98	0x3da69584	0.081339866
99	0x3db72152	0.08941902
100	0xbd8a5dd3	-0.06756177
101	0x3c7e67b5	0.015527655
102	0xbd311b7b	-0.043239098
103	0xbdc302ae	-0.095219955
104	0x3c6745ae	0.014115734
105	0xbd06807a	-0.03283737
106	0x3daed1cb	0.085361086
107	0x3dbf8611	0.09351743
108	0x3d645d1f	0.05575287
109	0x3d4427e6	0.047889613
110	0xbd988b57	-0.07448452
111	0x3d4e3516	0.050343595
112	0x3d8c3b39	0.06847233
113	0x3d9ad45f	0.07560038
114	0x3d26b718	0.040701956
115	0xbb57e144	-0.0032940665
116	0xbc73a7ba	-0.014871532
117	0x3c572378	0.013131015
118	0x39d20067	0.0004005462
119	0xbdb5f4e4	-0.088846
120	0xbd73291c	-0.059365377
121	0xbd0e78ce	-0.034783177
122	0xbc8e07b1	-0.017337652
123	0xbd5b5bb5	-0.053554256
124	0x3d3d2819	0.04618082
125	0xb960c02e	-0.00021433897
126	0x3db77310	0.08957493
127	0x3d73902f	0.059463676
128	0xbd18641c	-0.037204847
129	0x3c020872	0.007936584
130	0x3ce9178d	0.028453613
131	0x3dbdeb13	0.092733525
132	0xbcc1baa0	-0.02364856
133	0x3d34d319	0.04414663
134	0x3d2faa50	0.042887032
135	0x3db380eb	0.087648235
136	0x3d3023b0	0.043002784
137	0xbc93471f	-0.01797825
138	0xbd722aac	-0.059122726
139	0x3ce37e69	0.027770238
140	0xbd44120f	-0.047868785
141	0x3ce1189e	0.027477559
142	0x3db49e3f	0.088192455
143	0xbc6b860f	-0.014375224
144	0xbd5b464c	-0.053533837
145	0xbd6591be	-0.056047194
146	0xbd218a36	-0.03943845
147	0x3c915394	0.017740048
148	0xbd949b1d	-0.07256148
149	0x3bd6257e	0.006535231
150	0x3d6fd7ca	0.0585554
151	0xbcba621d	-0.022751862
152	0xbd8324f0	-0.0640353
153	0xbdb49b12	-0.0881864
154	0x3d5dab52	0.054118462
155	0x3beef60e	0.0072925156
156	0x3d1d7b5d	0.038447727
157	0xbdb88d1b	-0.09011289
158	0x3d52148d	0.05128913
159	0xbd138250	-0.036012948
160	0x3db7d11b	0.089754306
161	0xbd8d3074	-0.06894007
162	0xbdb64162	-0.088991895
163	0xbdb87ea2	-0.09008528
164	0xbd846df0	-0.064662814
165	0xbce34b92	-0.027745996
166	0xbd8b2f33	-0.06796112
167	0xbd7cb14c	-0.06169252
168	0xbd249056	-0.040176712
169	0x3d99e6f0	0.07514751
170	0x3d202fb9	0.039108012
171	0x3d043208	0.032274276
172	0xbda235b8	-0.07920402
173	0x3d08425a	0.033266403
174	0xba909cc8	-0.0011033053
175	0x3d03a7fe	0.03214263
176	0xbd8eeb16	-0.06978433
177	0x3b523f24	0.0032081092
178	0x3cf8414b	0.030304572
179	0xbcb41e5d	-0.021987135
180	0x3d843d0e	0.06456958
181	0x3cdcba02	0.026944164
182	0xbc1350f4	-0.008991469
183	0xbd9284ae	-0.07154213
184	0xbdad9581	-0.08475781
185	0xbcd9084c	-0.026493214
186	0x3befc938	0.0073176883
187	0xbdc7203a	-0.097229436
188	0xbcf27a86	-0.02959944
189	0x3d665860	0.056236625
190	0xbd035f2d	-0.03207319
191	0xbd91cc50	-0.07119048
192	0x3d8c3be9	0.068473645
193	0xbd7fd36a	-0.06245748
194	0xb990300e	-0.00027501624
195	0x3c39c791	0.011339084
196	0x3d33b554	0.0438741
197	0x3d31a76a	0.04337255
198	0x3d6d94ba	0.058003165
199	0x3d1e45e6	0.03864088
200	0x3dbfbf34	0.09362641
201	0x3d83c10e	0.06433307
202	0x3d635720	0.05550301
203	0xbd84e633	-0.064892195
204	0x3d848e3d	0.06472442
205	0xbd9406c5	-0.07227854
206	0xbca29b99	-0.019849585
207	0xbcb98ce2	-0.022650186
208	0x3d574f05	0.052565593
209	0xbd839ce8	-0.06426412
210	0x3cfd625c	0.03093069
211	0x3d307481	0.043079857
212	0x3d6fc32e	0.058535747
213	0x3d84b8e4	0.064805776
214	0x3d7f023d	0.062257994
215	0x3dadb091	0.08480943
216	0x3db3e9a9	0.087848015
217	0x3c843ff8	0.016143784
218	0x3d73488f	0.05939537
219	0xbda8c6e4	-0.082410604
220	0x3d1df3f1	0.03856272
221	0x3c02d4ee	0.007985337
222	0xbd7f0628	-0.06226173
223	0x3d9d9d51	0.07696021
224	0xbd4bf092	-0.049789973
225	0xbd82b759	-0.06382627
226	0xbd22f2c1	-0.03978229
227	0xbd8fa701	-0.07014275
228	0xbbde4049	-0.0067825657
229	0x3db25970	0.08708465
230	0x3c15a2bd	0.009133038
231	0x3dd0ba8e	0.101918325
232	0xbda1199f	-0.07866215
233	0xbd44ad2e	-0.04801672
234	0xbd61b398	-0.055102915
235	0x3da39a8f	0.07988464
236	0x3cd3bb5b	0.025846174
237	0x3d44c022	0.048034795
238	0x3d38a978	0.045083493
239	0x3d373165	0.04472484
240	0x3d4ce5ac	0.05002372
241	0x3d4db0b8	0.05021736
242	0x3cc24b7c	0.023717634
243	0xbd03f72c	-0.032218143
244	0x3dac9bd4	0.08428159
245	0xbc98d505	-0.018656263
246	0xbd81a2e4	-0.06329897
247	0xbd4502ad	-0.048098255
248	0x3b422c3c	0.0029628417
249	0xbda7f236	-0.08200495
250	0xbb44ec87	-0.0030048208
251	0xbcaa9a75	-0.020825604
252	0xbd355656	-0.04427179
253	0xbd484e7f	-0.048902985
254	0x3db64ec1	0.0890174
255	0x3b599a83	0.0033203668

module.conv_1.bias f4 [56]
0	0x3c8de52d	0.017321194
1	0xbb39dec0	-0.002836153
2	0x3d9ea251	0.07745803
3	0x3d72ca14	0.059274748
4	0xbcb4cafb	-0.022069445
5	0x3d5be5fb	0.053686123
6	0xbd9423c9	-0.07233388
7	0xbd24654d	-0.04013567
8	0xbbe30551	-0.006928124
9	0xbbf415be	-0.007448881
10	0x3d711ce3	0.05886544
11	0x3d44783c	0.047966227
12	0xbd6b27d0	-0.057411015
13	0xbccaffdb	-0.024780205
14	0xbd0100f0	-0.031495035
15	0xbd5dcbc4	-0.054149404
16	0x3bb8eaaa	0.0056432085
17	0x3d8de19c	0.06927797
18	0xbc9292b7	-0.017892225
19	0x3d4207b7	0.04737064
20	0x3d966e60	0.07345271
21	0x3cf2c76e	0.029636111
22	0x3ce442d3	0.027863896
23	0x3d444ec6	0.047926687
24	0xbc56b89b	-0.013105537
25	0xbc600825	-0.013673817
26	0xbd2b06ba	-0.04175446
27	0xbc9d5725	-0.019206593
28	0x3d0ca769	0.034339342
29	0x3d819172	0.063265696
30	0x3d8ddefb	0.06927296
31	0x3b82c342	0.0039905617
32	0x3a6bb550	0.0008991556
33	0x3cec2978	0.028828368
34	0x3cfc65e3	0.030810302
35	0xbd07229d	-0.032991994
36	0xbcdaf8b1	-0.026729913
37	0x3d5c35ae	0.05376213
38	0x3d004693	0.031317305
39	0x3d88f5d2	0.066875115
40	0x3d057602	0.032583244
41	0x3da26060	0.07928538
42	0x3d7ba16c	0.06143324
43	0xbdc205bc	-0.0947375
44	0x3c8cbbf5	0.017179469
45	0xbd9da81b	-0.07698079
46	0x3cc90385	0.024537811
47	0x3d5687a2	0.052375443
48	0xbd7673a4	-0.060168877
49	0xbc877d93	-0.01653937
50	0x3c25982f	0.010107084
51	0x3c900441	0.017580153
52	0xbcdef60f	-0.02721694
53	0x3dc7d885	0.09758095
54	0xbd505d8b	-0.05087046
55	0x3dae1614	0.08500305

module.conv_2.weight f4 [12, 56, 1, 1, 1]
0	0x3dd519f3	0.1040534
1	0x3e393757	0.18087517
2	0xbd901cd1	-0.07036746
3	0xbda3a066	-0.07989578
4	0x3df01d75	0.117243685
5	0x3d2ee377	0.042697396
6	0x3c96baa3	0.018399542
7	0x3be36d66	0.0069405315
8	0xbcb1a179	-0.021683441
9	0x3d9107d1	0.07081569
10	0xbdbb3be0	-0.091422796
11	0x3d6fa88e	0.058510356
12	0x3defcf19	0.117094226
13	0xbd58b5e5	-0.052907843
14	0x3d9116f5	0.07084457
15	0xbd9fa300	-0.07794762
16	0x3dc3aa02	0.09553911
17	0xbcacfbb1	-0.02111611
18	0xbdda080f	-0.10646068
19	0x3d174cea	0.036938585
20	0xbdecd23e	-0.11563538
21	0x3d84dad2	0.06487049
22	0x3d92939f	0.07157063
23	0x3daf0be4	0.0854719
24	0xbd81146d	-0.06302724
25	0xbd398d4b	-0.045300763
26	0xbc99dd8d	-0.018782401
27	0x3b23c5c1	0.0024989697
28	0xbcced582	-0.025248293
29	0x3dde4a23	0.10853984
30	0x3ceeda2e	0.02915677
31	0xbdbb3333	-0.09140625
32	0xbe11035c	-0.14161438
33	0x3d959a52	0.07304825
34	0xbde65039	-0.1124577
35	0x3d8527e6	0.06501751
36	0x3d845777	0.06461995
37	0xbd9264d0	-0.07148135
38	0xbc81090c	-0.015751384
39	0x3e38e21f	0.18055008
40	0x3d93e722	0.072218195
41	0x3e0623c0	0.13099575
42	0x3d8a0227	0.06738692
43	0xbdc75136	-0.09732287
44	0x3e16122e	0.14655373
45	0x3d7a4c4e	0.061107926
46	0xbd58cd16	-0.05292996
47	0x3df5d348	0.12003189
48	0xbd4345d5	-0.04767402
49	0x3ceb600f	0.028732328
50	0x3b026ee1	0.0019902515
51	0x3cc7c91e	0.024387892
52	0x3e025594	0.12727958
53	0x3d3a0345	0.045413274
54	0xbd938a3e	-0.07204102
55	0x3da66cdb	0.08126231
56	0xbcd82692	-0.02638558
57	0xbd2a540b	-0.041584056
58	0x3ddb0c35	0.10695688
59	0xbda60035	-0.08105508
60	0xbdfba724	-0.12287739
61	0x3980a6d3	0.00024538356
62	0xbb6bb4bc	-0.003596588
63	0x3bac9503	0.005266787
64	0xbcd0aa9c	-0.025471978
65	0x3db5e0e0	0.08880782
66	0xbe10de8b	-0.14147393
67	0xbd93ba3a	-0.07213254
68	0x3dd7de58	0.105404556
69	0xbd076f99	-0.033065412
70	0x3dfb879a	0.12281723
71	0x3c48e920	0.012262613
72	0x3d04e1f3	0.032442044
73	0x3da44991	0.08021844
74	0x3d1a229e	0.03763067
75	0x3da4fc64	0.08055952
76	0x3e03929c	0.12848896
77	0xbd42fde2	-0.047605403
78	0x3d54b2ed	0.05192845
79	0x3dad1584	0.084513694
80	0x3becef72	0.0072306925
81	0x3d026eb3	0.031843852
82	0x3dba5551	0.09098304
83	0x3db20192	0.08691706
84	0x3cbc0146	0.022949826
85	0x3d9f03f4	0.07764426
86	0x3dc75af9	0.097341485
87	0xbdf1ffe8	-0.11816388
88	0xbde3c165	-0.111208715
89	0xbcaf06f2	-0.021365616
90	0xbd3dba8a	-0.046320476
91	0xbd1b20e9	-0.037873182
92	0xbd81cee3	-0.06338289
93	0x3d0ebcea	0.03484813
94	0x3dd27714	0.102766186
95	0xbe06f662	-0.13179925
96	0x3d575028	0.052566677
97	0x3df42f8a	0.1192313
98	0x3d6fa3e5	0.05850591
99	0x3d7eb2fc	0.06218241
100	0x3dbc817b	0.09204384
101	0x3e11bd24	0.14232308
102	0xbdc02ea0	-0.09383893
103	0x3cac3513	0.021021402
104	0x3d824b0a	0.06361969
105	0x3e524f5d	0.20538087
106	0xbdfb14f4	-0.12259856
107	0x3d139865	0.036034007
108	0xbca4819e	-0.020081338
109	0xbd44911f	-0.04798996
110	0x3d5274bb	0.051380854
111	0x3e07c329	0.13258041
112	0x3d40129b	0.046892744
113	0xbd7f943a	-0.06239722
114	0x3d393b30	0.04522246
115	0x3d58787a	0.05284927
116	0xbd91d969	-0.07121546
117	0x3d50ca6d	0.0509743
118	0xbddd5ff4	-0.10809317
119	0x3b0cc409	0.002147915
120	0x3dd4c9de	0.103900656
121	0x3e0f3e9e	0.1398873
122	0xbcac53f6	-0.02103613
123	0xbe3ecd37	-0.18632971
124	0x3d550be4	0.052013293
125	0xbcf36158	-0.029709503
126	0xbd7837da	-0.06060014
127	0x3d59c000	0.05316162
128	0xbb6e2634	-0.0036338689
129	0x3dc1a476	0.094551966
130	0xbdfaeff3	-0.12252798
131	0x3d0e8ae2	0.034800418
132	0x3de4a9ba	0.11165185
133	0xbcec92c4	-0.028878577
134	0xbc927255	-0.017876783
135	0x3dd125c6	0.10212283
136	0xbe18b0c9	-0.14911188
137	0x3de25452	0.11051239
138	0xbdec725a	-0.11545248
139	0x3d9af7df	0.07566809
140	0x3e060618	0.13088262
141	0xbd88a771	-0.06672562
142	0x3db8fa4b	0.090321146
143	0xbd20bbc7	-0.03924158
144	0x3e070dc6	0.13188848
145	0xbe198d5e	-0.14995334
146	0xbdd3922d	-0.10330615
147	0x3e059d57	0.13048302
148	0x3e01456d	0.1262414
149	0xbd562318	-0.05227956
150	0x3d990443	0.07471516
151	0xbd15dde2	-0.036588557
152	0xbac6606f	-0.0015134941
153	0xbdf323af	-0.118720405
154	0xbd8fb223	-0.07016399
155	0x3a90493f	0.0011008157
156	0xbda2188b	-0.079148374
157	0x3d491510	0.049092352
158	0x3ce9a606	0.028521549
159	0xbd336cb3	-0.043804836
160	0x3ce6a79d	0.028156096
161	0xbd2dbe01	-0.04241753
162	0x3d8abddf	0.06774496
163	0xbbc9a51c	-0.006153716
164	0x3a5126a7	0.0007978477
165	0x3dc78a98	0.097432315
166	0xbd7b8219	-0.061403368
167	0xbd755dec	-0.059904024
168	0xbd2f9089	-0.04286245
169	0xbdcba923	-0.0994437
170	0x3d6a2afb	0.057169896
171	0x3d76f9b9	0.060296748
172	0x3bdd8553	0.0067602783
173	0xbdac7131	-0.08420027
174	0xbb5ff6e8	-0.0034174267
175	0x3da4fa63	0.0805557
176	0xbcb88545	-0.022524485
177	0xbda2c553	-0.07947793
178	0x3d6763c7	0.05649164
179	0xbe072f80	-0.13201714
180	0xbd907a51	-0.0705458
181	0x3d98c398	0.074591815
182	0xbce302b1	-0.027711244
183	0x3d92ea5d	0.071736075
184	0x3d946596	0.072459385
185	0xbce2e523	-0.027697152
186	0xbd03cd44	-0.03217818
187	0xbd182cf9	-0.037152264
188	0xbcf97fa7	-0.030456377
189	0xbb6e961b	-0.0036405388
190	0x3bea3b82	0.007148207
191	0x3dd6c6d9	0.10487146
192	0xbd956d86	-0.072962806
193	0x3d3266a1	0.043554906
194	0xbd94f631	-0.0727352
195	0xbddacbff	-0.106834404
196	0x3de22dca	0.1104389
197	0xbd8b3753	-0.06797662
198	0x3dd65a1f	0.10466408
199	0x3db7dc1f	0.08977532
200	0xbdd6056f	-0.10450255
201	0xbd13f404	-0.036121383
202	0xbb73ae6b	-0.0037182819
203	0xbdb94a70	-0.09047401
204	0x3bbd3f9f	0.0057754065
205	0x3dd074a8	0.101785004
206	0x3e0101fa	0.1259841
207	0xbd8ec185	-0.06970505
208	0x3ddadd0d	0.10686693
209	0xbd91b167	-0.07113915
210	0xbd906eec	-0.07052407
211	0xbdab44e3	-0.083627485
212	0x3dabb369	0.08383829
213	0x3dd332e5	0.10312442
214	0x3b8c38d2	0.0042792344
215	0x3d6da9a9	0.05802313
216	0x3b6a0639	0.0035709275
217	0x3dc7275b	0.09724303
218	0x3d3fcc32	0.046825595
219	0x3c58454b	0.0132001145
220	0xbde61316	-0.11234109
221	0x3e0cf4fe	0.13765332
222	0x3dee1f40	0.11627054
223	0xbdf67bf3	-0.1203536
224	0x3c6eac14	0.014567394
225	0x3c5842df	0.013199537
226	0xbd2175e6	-0.039419077
227	0xbce4daf3	-0.027936434
228	0x3dc046a6	0.09388475
229	0x3d6636ca	0.056204595
230	0xbc112b43	-0.008860412
231	0x3d73f448	0.059559137
232	0x3dc28cde	0.094995245
233	0xbceae1ab	-0.02867206
234	0xbccc9260	-0.02497214
235	0x3d8a07d4	0.06739774
236	0x3dc061b0	0.093936324
237	0xbcb58270	-0.022156924
238	0xbd9ae7d6	-0.075637504
239	0xbddddd11	-0.10833181
240	0x3d4d1d93	0.050077032
241	0xbe04a1a6	-0.12952289
242	0x3e113be9	0.1418301
243	0xbddcf076	-0.10788052
244	0xbd903bf6	-0.07042687
245	0x3ccfd3db	0.025369575
246	0x3dad4995	0.084613
247	0xbc9becc9	-0.019033806
248	0xbdc857e2	-0.09782387
249	0xbdc6a2f2	-0.09699048
250	0x3cd0ae5c	0.025473766
251	0x3d9afc3a	0.0756764
252	0x3db506d7	0.08839195
253	0xbdb2edd4	-0.08736768
254	0x3d923ef5	0.07140914
255	0xbdc3e468	-0.095650494

module.conv_2.bias f4 [12]
0	0xbd48177e	-0.04885053
1	0xbdd1a212	-0.102359906
2	0x3d88b6d0	0.06675494
3	0xbd6d59b1	-0.057946865
4	0x3debe143	0.11517575
5	0x3d1c08a8	0.038094193
6	0xba821a1f	-0.0009925998
7	0x3c9c66ce	0.01909199
8	0xbda69bc8	-0.08135182
9	0x3c31ade3	0.0108446805
10	0xbdfee249	-0.12445504
11	0x3c6682a6	0.014069235

module.conv_3.weight f4 [12, 12, 3, 3, 3]
0	0xbd6075a4	-0.05479969
1	0x3d37fdca	0.044919766
2	0x3c987531	0.018610569
3	0xb94ad761	-0.00019344456
4	0xbca0dcbe	-0.019636508
5	0x3cc93327	0.024560524
6	0x3cc856b4	0.024455406
7	0xbcd5028b	-0.02600219
8	0xbd43273c	-0.04764484
9	0xb9def638	-0.00042526587
10	0x3d0911fe	0.033464424
11	0xbcb88c4e	-0.02252784
12	0xbd77a242	-0.060457475
13	0x3d1540b6	0.036438666
14	0xbd518ca2	-0.05115951
15	0x3d58d40b	0.052936595
16	0x3c9274f4	0.017878033
17	0x3d414129	0.047181282
18	0xbd47f14f	-0.048814114
19	0x3c6ab246	0.01432473
20	0xbbfc9375	-0.007708008
21	0x3d12ada9	0.035810146
22	0x3ce97bb9	0.028501378
23	0xbcf669df	-0.03007978
24	0x3bd805e5	0.0065924996
25	0x3d657cd6	0.056027256
26	0x3ca70ea0	0.020392716
27	0xbcff91c3	-0.031197434
28	0x3d499bd1	0.049220864
29	0x3d054c5b	0.03254352
30	0xbd5dd6b0	-0.05415982
31	0x3ca4a8cd	0.020100022
32	0x3bc3e2d0	0.005977966
33	0x3cc4df0e	0.024032142
34	0xbce66bca	-0.02812757
35	0x3c751589	0.014958748
36	0xbcee4d2b	-0.02908953
37	0x3c970def	0.018439261
38	0xbb66a198	-0.0035191532
39	0xbc7e106f	-0.015506848
40	0xbcf85147	-0.030312194
41	0x3c9660c7	0.018356694
42	0xbb1aa2ef	-0.002359565
43	0x3cc79d98	0.024367139
44	0xbb9fe212	-0.0048792446
45	0x3cbfff0b	0.023437044
46	0xbcac356e	-0.021021571
47	0x3c38d655	0.0112815695
48	0x3c618a8e	0.013765944
49	0x3ce6bf3c	0.02816736
50	0xbd3dbf9e	-0.04632532
51	0x3c1d996e	0.0096191
52	0xbd4e3de4	-0.050351992
53	0xbca2e3e3	-0.019884055
54	0x3cbca1ec	0.02302643
55	0x3d4a2f0b	0.04936127
56	0x3bfe3fb6	0.00775906
57	0x3ccf4a09	0.025303857
58	0x3d27ba00	0.040948868
59	0xbc0a2f3c	-0.008434113
60	0xbc1782e1	-0.009247513
61	0xbc92e085	-0.017929325
62	0x3b8a7e09	0.0042264503
63	0x3d316857	0.043312397
64	0x3d07760d	0.033071566
65	0x3d5fd0c1	0.054642443
66	0xbd60d780	-0.054893017
67	0x3ce28f64	0.027656265
68	0x3c133345	0.008984392
69	0x3ad3c39a	0.0016156316
70	0x3c25ea3c	0.010126647
71	0xbcb49617	-0.022044225
72	0xbc001fa3	-0.007820043
73	0x3d335c29	0.043789063
74	0xbd4c8c23	-0.049938332
75	0xbd5f9a5c	-0.054590568
76	0xbae38e4d	-0.0017361135
77	0xbb67ca7c	-0.0035368493
78	0x3a3270a3	0.00068069453
79	0xbd2c8854	-0.0421222
80	0x3d1d2763	0.03836764
81	0xbc30faaf	-0.010801955
82	0xbced4b2f	-0.028966514
83	0xbbdc0b37	-0.006715204
84	0x3d08644f	0.033298787
85	0x3d03f09c	0.032211885
86	0x3d175bfe	0.036952965
87	0xbd3aaba5	-0.04557385
88	0x3d2ffbb9	0.04296467
89	0x3bbe4b29	0.0058072996
90	0xbcab9a90	-0.020947725
91	0x3cb56ec4	0.022147544
92	0xbd4de812	-0.050270148
93	0x3cbc2d99	0.022970961
94	0x3c61e660	0.013787836
95	0x3d38ac18	0.045085996
96	0x3d26b6db	0.04070173
97	0xbd4c311e	-0.04985153
98	0xbd542aa0	-0.051798463
99	0xbc1ede06	-0.009696489
100	0xbcae0298	-0.021241471
101	0xbcca8410	-0.024721175
102	0x3bb439df	0.005500063
103	0xbce06872	-0.027393553
104	0xbc618208	-0.013763912
105	0xbd21ee1c	-0.03953372
106	0x3d6450b9	0.055741046
107	0x3d21bebd	0.039488543
108	0x3d3cc217	0.046083536
109	0x3d40462a	0.046941914
110	0x3c9d67a2	0.019214455
111	0xbd335895	-0.04378565
112	0xbbb2d08b	-0.005456989
113	0x3d0df994	0.034661844
114	0xbd4ec34f	-0.05047923
115	0x3d51a6e4	0.05118455
116	0x3d0f69a2	0.03501285
117	0xbd5e6ccc	-0.054302976
118	0xbd206c1f	-0.039165612
119	0xbc0e5c77	-0.0086890375
120	0xbd231b23	-0.0398208
121	0x3c6f8b4a	0.014620611
122	0xbce7153e	-0.028208371
123	0x3d44d77c	0.048057064
124	0xbd12c12a	-0.035828747
125	0x3c556f26	0.013026988
126	0xbd38fe46	-0.04516437
127	0xbb84f173	-0.0040571033
128	0xbcd6c7d0	-0.026218325
129	0x3d60e097	0.054901686
130	0x3cda4aee	0.026647057
131	0xbcdea4bd	-0.027178163
132	0x3d127828	0.03575912
133	0xbd44d198	-0.048051447
134	0x3cd80083	0.026367432
135	0xbbaff48e	-0.0053697294
136	0xbd51d94e	-0.05123263
137	0x3d31ab8f	0.0433765
138	0xbd4f1ed5	-0.050566513
139	0x3ce45398	0.027871892
140	0x3c29c84e	0.010362698
141	0xbc7faba9	-0.015604892
142	0xbb29aae9	-0.0025889224
143	0xbb7b1bc6	-0.0038316115
144	0x3bd0e043	0.0063743903
145	0xbd3edb32	-0.04659576
146	0xbcfed780	-0.031108618
147	0xbd6f3c5d	-0.058407176
148	0xbd8fabb6	-0.07015173
149	0xbc0047d8	-0.007829629
150	0xbca26ad6	-0.019826334
151	0xbc8ebbe2	-0.017423574
152	0x3c8f7c47	0.017515315
153	0x3c136085	0.00899518
154	0x3b5837b9	0.0032992198
155	0xbc0305f1	-0.007997022
156	0x3cceefe1	0.025260868
157	0xbcaf7de8	-0.021422341
158	0xbd551b3a	-0.05202792
159	0xbccbaad6	-0.024861734
160	0xbc2fd4bd	-0.010731873
161	0x3d84efa1	0.06491018
162	0x3aaef358	0.0013347669
163	0x3d1350d4	0.035965756
164	0xbd5a2e05	-0.053266544
165	0x3d4de525	0.050267357
166	0x3cb58ea2	0.02216274
167	0x3d584deb	0.052808683
168	0xbd775078	-0.060379475
169	0xbd7be060	-0.061493278
170	0xbc555ad7	-0.013022146
171	0x3cc5574a	0.024089474
172	0x3cd519eb	0.026013335
173	0xbbec3626	-0.0072086034
174	0xbd08b752	-0.033377953
175	0xbcc486d5	-0.023990074
176	0xbd49c470	-0.049259603
177	0x3d201b19	0.039088342
178	0xbd37125d	-0.044695247
179	0xbc14c448	-0.00908
180	0x3cbf4078	0.02334617
181	0x3cd6169c	0.026133828
182	0xbd52c553	-0.051457714
183	0x3bf26950	0.007397808
184	0x3c082de4	0.008311722
185	0xbc38a5aa	-0.011269966
186	0x3d0537f3	0.03252406
187	0x3ca89e7a	0.02058338
188	0x3d7b441d	0.061344255
189	0x3cb49bd8	0.022046968
190	0xba993965	-0.0011690079
191	0xbadea58d	-0.0016986594
192	0xbbd0328e	-0.006353683
193	0x3d06d431	0.032917205
194	0xbd6bd526	-0.05757632
195	0xbd25c16e	-0.040467672
196	0xbd008b7e	-0.03138303
197	0xbcbbc8cb	-0.022922894
198	0x3ccba8ea	0.024860818
199	0x3ba87d95	0.0051419237
200	0x3d2895e1	0.04115856
201	0xbc605f65	-0.013694619
202	0x3ca4aab7	0.020100934
203	0x3d3ac793	0.045600485
204	0xbd205a2f	-0.039148506
205	0xbd000d38	-0.031262606
206	0x3b9638be	0.004584401
207	0x3d000ae4	0.031260386
208	0x3c926d4e	0.017874386
209	0x3d102be4	0.035198107
210	0xbc6c860b	-0.014436255
211	0x3bcc31af	0.0062315087
212	0xbb56f37b	-0.0032798934
213	0xbd4a30a4	-0.049362794
214	0xbc95060f	-0.018191366
215	0x3d195509	0.03743461
216	0xbd14972e	-0.03627699
217	0x3cc46d7d	0.02397799
218	0x3c3951bd	0.011310992
219	0x3d596edb	0.053084236
220	0x3ca41507	0.020029558
221	0x3cbd331b	0.023095658
222	0xbc8c7bea	-0.01714893
223	0x3d2c9dfd	0.042142857
224	0xbd13bca0	-0.03606856
225	0xbc023795	-0.007947822
226	0xbd25d672	-0.040487714
227	0x3c0b664a	0.008508274
228	0x3ce4beff	0.027923105
229	0xb9b7c3a5	-0.00035050247
230	0x3ccca639	0.024981605
231	0xbcfdf9d2	-0.031002913
232	0x3d4de28b	0.050264876
233	0x3d42be15	0.047544558
234	0x3bc771be	0.006086557
235	0xbcc6be62	-0.024260703
236	0x3c935c5e	0.01798838
237	0x3d52b924	0.051446095
238	0xbd62778b	-0.055289786
239	0x3d5ddb87	0.054164436
240	0x3d262d55	0.040570576
241	0xbbd5bb71	-0.006522589
242	0xbd305762	-0.043052085
243	0xbc822235	-0.015885452
244	0xbbd5585c	-0.0065107774
245	0xbb6ae08a	-0.0035839402
246	0x3ce08189	0.027405517
247	0x3d0d01c4	0.034425512
248	0x3d1d9038	0.038467616
249	0x3c97f70b	0.018550416
250	0x3d0ed695	0.03487261
251	0x3c024a77	0.007952324
252	0x3c9a3b3c	0.018827073
253	0x3bb515c3	0.005526276
254	0x3a972570	0.0011531543
255	0x3c077111	0.008266703

module.conv_3.bias f4 [12]
0	0xbafc185e	-0.0019233336
1	0xbd3c0528	-0.045903355
2	0x3c243ab4	0.010023762
3	0xbc5ad2d2	-0.013355928
4	0xbd31685d	-0.04331242
5	0xbbe85bf0	-0.007091038
6	0x3d5c3870	0.05376476
7	0x3d28675f	0.041114207
8	0xbcaf5553	-0.02140299
9	0x39cd7154	0.00039185083
10	0xbcf9f5af	-0.030512659
11	0xbc6474a4	-0.013943825

module.conv_4.weight f4 [12, 12, 3, 3, 3]
0	0x3d11e039	0.035614226
1	0x3d408dac	0.04701011
2	0x3b9acc7e	0.0047240844
3	0xb9a0017d	-0.00030518687
4	0xbd24eb26	-0.040263318
5	0xbd4da0ab	-0.050202053
6	0x3bd273ad	0.006422481
7	0x3c7a9c24	0.015296016
8	0xbb8eede3	-0.0043618544
9	0x3d127b56	0.035762154
10	0xbd3dd735	-0.046347816
11	0xbd4edb33	-0.050502013
12	0x3d488b2b	0.048960846
13	0x3d24ddee	0.04025071
14	0x3d08fb9f	0.03344309
15	0xbc1c3962	-0.0095351655
16	0xba07f806	-0.00051867997
17	0xbd0cb6ed	-0.03435414
18	0x3d4b1c7a	0.049587704
19	0xbd49cdbc	-0.04926847
20	0x3d3288cf	0.043587502
21	0xbbff2376	-0.0077862097
22	0x3cbcf5d2	0.023066435
23	0xbd48bf96	-0.049010836
24	0xbd220e6b	-0.03956453
25	0x3baad82b	0.0052137575
26	0xbb14f2df	-0.002272777
27	0x3d318a0b	0.04334454
28	0xbccd73b2	-0.025079582
29	0xbcbe9b5a	-0.023267437
30	0x3d3dae14	0.046308592
31	0xbcd6c23a	-0.026215661
32	0x3c7d1b7b	0.015448446
33	0xbcbee336	-0.023301702
34	0xbcaf5519	-0.021402882
35	0xbb6f8967	-0.0036550404
36	0x3ccb4afc	0.024816029
37	0xbcae0d41	-0.021246554
38	0xbc96546d	-0.018350804
39	0xbc8bc416	-0.017061274
40	0x3d891fed	0.066955425
41	0x3d1c4a6e	0.03815692
42	0x3d4673a4	0.048450127
43	0x3c889100	0.016670704
44	0x3c8070c1	0.015678765
45	0xbd5fc2ca	-0.054629125
46	0xbd7725c6	-0.060338758
47	0x3c1eab7a	0.009684438
48	0xbc9f96bb	-0.019481054
49	0xbd3b8de7	-0.045789625
50	0xbb1be91d	-0.002379007
51	0xbd01d7bc	-0.03169988
52	0xbc186744	-0.009301964
53	0xbd5c4851	-0.053779904
54	0xbd2b3068	-0.04179421
55	0x3ca46c99	0.020071315
56	0x3d39a921	0.04532731
57	0xbc72f974	-0.014829982
58	0x3d557638	0.052114695
59	0xbcfe5b1c	-0.031049304
60	0xb79ff3ba	-1.9067771e-05
61	0x3d2f72c7	0.04283407
62	0x3d716d1e	0.058941953
63	0x3cfc6621	0.030810418
64	0xbce09eb5	-0.027419427
65	0xbd002d2a	-0.03129307
66	0xbd26f4a5	-0.040760655
67	0xb9d541c4	-0.00040675525
68	0x3d380904	0.044930473
69	0xbd030dcb	-0.031995576
70	0x3d4b65e8	0.049657732
71	0x3c984a9d	0.018590266
72	0x3bd51b53	0.0065035014
73	0xbc17b709	-0.009259948
74	0xbd42fea1	-0.047606114
75	0xba9f1791	-0.0012137761
76	0xbc05c7e3	-0.0081653325
77	0x3c76b524	0.015057836
78	0x3d4dba98	0.050226778
79	0xbcbefccf	-0.023313908
80	0x3cad3c3d	0.021146888
81	0xbd25674c	-0.040381715
82	0x3d5bebb6	0.05369159
83	0xbbc6778f	-0.006056733
84	0x3b5da804	0.003382207
85	0xbcc14bae	-0.023595657
86	0xbcfce0a4	-0.030868836
87	0xbd1a8213	-0.037721705
88	0x3d520cef	0.051281866
89	0x3d5e307c	0.054245457
90	0xbca28813	-0.019840276
91	0x3d35ed5f	0.044415828
92	0x3bcf4225	0.0063250237
93	0x3d5b516b	0.053544443
94	0xbcd3c4bf	-0.025850652
95	0xbd23db3a	-0.040003993
96	0xbc9bc584	-0.019015081
97	0x3becac47	0.0072226855
98	0xbc40a148	-0.011757202
99	0x3d01b0bf	0.0316627
100	0x3c006244	0.007835928
101	0xbd487564	-0.048940077
102	0xbcba98b6	-0.022777896
103	0xbd061318	-0.032733053
104	0x3c274777	0.01020991
105	0x3d13d146	0.03608825
106	0x3d3adb5a	0.045619346
107	0x3d2ffef4	0.04296775
108	0x3d427e17	0.04748353
109	0xbc823fc5	-0.015899548
110	0x3cedc0ea	0.029022653
111	0x3cab8463	0.02093715
112	0x3da5db36	0.08098452
113	0x3c9e3185	0.019310722
114	0xbc8f58e4	-0.017498441
115	0x3d8b8552	0.06812538
116	0x3c85f6d1	0.016353043
117	0x3ce9415d	0.02847355
118	0x3d2c99f9	0.042139027
119	0xbb11915c	-0.0022211885
120	0x3c81a2a5	0.015824625
121	0x3c9aa397	0.018876834
122	0xbc762856	-0.015024265
123	0x3c8dcb6c	0.017308913
124	0x3bbbea65	0.005734729
125	0xbd02e268	-0.0319542
126	0xbb8e358c	-0.0043398794
127	0x3d42f2b1	0.04759473
128	0xbc9621ca	-0.018326659
129	0x3d4832e7	0.04887667
130	0x3b593d71	0.0033148194
131	0xbcf4060d	-0.029788041
132	0x3d246fec	0.0401458
133	0x3d5f3108	0.05449012
134	0x3d4179ab	0.047235172
135	0x3d91a213	0.07110991
136	0xbbb21e31	-0.005435728
137	0x3d69d34d	0.057086278
138	0x3d8456ef	0.06461894
139	0x3d750651	0.059820477
140	0x3c1ed4bc	0.0096942745
141	0x3d878d22	0.06618716
142	0x3cc78ede	0.024360117
143	0x3c496c62	0.012293907
144	0x3d7948eb	0.060860556
145	0xbcfedd30	-0.03111133
146	0xb98702bb	-0.0002575124
147	0xbc407b0f	-0.011748089
148	0x3ba0d2b3	0.00490793
149	0x3d6e27fe	0.05814361
150	0xbbc07336	-0.005873109
151	0x3c873325	0.01650388
152	0xbcaefcd0	-0.021360785
153	0xbd234472	-0.039860196
154	0x3d434d16	0.047680937
155	0xbcbc6553	-0.022997534
156	0x3d2e5de7	0.04257002
157	0x3d70a5ec	0.058751985
158	0x3d374992	0.044747896
159	0x3d89f015	0.06735245
160	0x3d839750	0.06425345
161	0xbcfbe52c	-0.030748926
162	0x3c68ba18	0.014204524
163	0xbd428d06	-0.04749777
164	0xbcd4b821	-0.025966706
165	0x3d6c89e4	0.05774869
166	0x3bdb938a	0.0067009376
167	0x3d82d07d	0.06387422
168	0x3bb7c25d	0.0056078867
169	0xbc804d62	-0.015661899
170	0x3d7298c0	0.059227705
171	0xbd44b6c8	-0.048025876
172	0xbd2e7f62	-0.04260195
173	0x3d46f33f	0.04857182
174	0xbc8a96c3	-0.016917592
175	0x3baebca8	0.005332548
176	0x3d0b5a99	0.034021948
177	0xbcf74494	-0.030184068
178	0xbbeb43a8	-0.007179696
179	0xbb331d97	-0.002733087
180	0xbc903c44	-0.017606862
181	0xbb3b028d	-0.0028535456
182	0xbd31f790	-0.043448985
183	0xbd04c2ad	-0.03241222
184	0x3b99b6d1	0.004690983
185	0x3c6a8036	0.014312794
186	0x3ce54b74	0.02799008
187	0x3d2a9743	0.04164816
188	0x3d0a5a7b	0.033777695
189	0xbbfb915b	-0.00767724
190	0xbd7c9100	-0.06166172
191	0x3ca876a3	0.020564383
192	0xbd4d241b	-0.05008326
193	0xbbc34ec1	-0.005960316
194	0xbd6bcca6	-0.057568215
195	0xbd7ed306	-0.062212966
196	0xbc8cdbe7	-0.017194701
197	0x3c462469	0.012093642
198	0x3ba1434d	0.004921353
199	0xbd717dac	-0.05895774
200	0xbd14a76f	-0.03629249
201	0xbd585be8	-0.052822024
202	0xbd398c41	-0.045299772
203	0xbcc805b1	-0.024416776
204	0xbc038cb7	-0.0080291545
205	0xbc99f4a9	-0.01879342
206	0xbd2c0d5b	-0.042004924
207	0xbc0249d8	-0.007952176
208	0x3ca8d737	0.020610435
209	0xbd7a9187	-0.061173942
210	0x3d12c237	0.03582975
211	0x3d1029b2	0.035196014
212	0x3c254bf0	0.010088906
213	0xbd179988	-0.037011653
214	0xbc06f155	-0.008236249
215	0xbd415fee	-0.047210626
216	0xbbdc852f	-0.006729744
217	0x3dac163d	0.08402679
218	0x3d34f8e0	0.04418266
219	0xbb1e02ab	-0.0024110477
220	0xbb8d7198	-0.00431652
221	0x3c23a986	0.009989148
222	0x3d03de75	0.032194573
223	0x3ced7cb3	0.028990125
224	0xbc88e3e3	-0.016710227
225	0xbbb3c173	-0.0054857074
226	0x3d773f34	0.06036301
227	0x3c86eeaf	0.016471235
228	0xbd5cce1a	-0.05390749
229	0x3d294081	0.04132128
230	0xbd349313	-0.044085573
231	0xbbbc38f9	-0.0057440964
232	0xbcdc62d6	-0.026902597
233	0xbcab5324	-0.020913668
234	0x3d5d91c3	0.054094087
235	0x3d43fa58	0.04784617
236	0x3ccff4d0	0.02538529
237	0x3c983db0	0.018584102
238	0x3ca147d7	0.019687576
239	0xbd22964f	-0.039694127
240	0x3cc3ac5f	0.023885904
241	0xbd796639	-0.060888503
242	0xbcae735d	-0.021295244
243	0x3cc3d15f	0.023903547
244	0x3d6d3f50	0.057921708
245	0xbc0d66a7	-0.008630431
246	0x3c44e97b	0.012018557
247	0x3d451fdf	0.048126098
248	0x3d5f2623	0.05447973
249	0x3ce90552	0.02844492
250	0x3c87a773	0.016559338
251	0x3c30a068	0.010780431
252	0x3d092a1b	0.03348742
253	0x3c888a84	0.016667612
254	0xbd08fa6e	-0.033441953
255	0x3cf1b823	0.029506749

module.conv_4.bias f4 [12]
0	0x3cb14c22	0.021642748
1	0x3cbd1ae2	0.023084108
2	0xbd44078b	-0.047858756
3	0xbc99cf5f	-0.01877564
4	0xbce8d7f4	-0.028423287
5	0xbc6e65e2	-0.014550658
6	0xbd055f21	-0.032561425
7	0xbd258cbd	-0.04041742
8	0x3ba64525	0.0050741606
9	0xb93b55d5	-0.00017865685
10	0x3d7ebc06	0.062191032
11	0xbd0b5a3e	-0.03402161

module.conv_5.weight f4 [12, 12, 3, 3, 3]
0	0x3cbd2214	0.023087539
1	0x3d2d8682	0.042364605
2	0xbc0f0445	-0.008729045
3	0xbc308a49	-0.010775157
4	0xbd44c3d9	-0.048038337
5	0x3c0fe3de	0.008782355
6	0x3ba07628	0.004896898
7	0xbb1bcf54	-0.00237747
8	0x3d89b834	0.06724587
9	0xbd2d0ab6	-0.042246543
10	0x3d3f148e	0.04665046
11	0x3b3a6d70	0.0028446577
12	0xbba8f482	-0.0051561007
13	0x3d3cb6bb	0.046072703
14	0x3cd42fb9	0.025901662
15	0x3c849245	0.016183028
16	0x3c3da461	0.0115748355
17	0x3d1dd6dd	0.038534988
18	0x3cde86db	0.027163913
19	0xbd245c30	-0.04012698
20	0xbb3ef4bf	-0.002913758
21	0xbcbee287	-0.023301376
22	0xbd366ba2	-0.04453624
23	0xbd421406	-0.047382377
24	0x3d38b4d7	0.045094337
25	0x3cb3bb7e	0.02193999
26	0x3ccdb635	0.025111297
27	0x3d8c0959	0.068377204
28	0xbaaa0852	-0.001297245
29	0x3d2bc906	0.041939758
30	0x3ab5547a	0.001383438
31	0x3cf207ab	0.029544672
32	0x3d55dc04	0.052211776
33	0xbc8ca66f	-0.017169205
34	0xbc5d60b1	-0.013511823
35	0xbd72755c	-0.059193954
36	0xbd4db520	-0.050221562
37	0xbd24dc6c	-0.040249273
38	0xbbbc5215	-0.0057470896
39	0xbd90fe3e	-0.07079743
40	0xbd0f65d7	-0.03500923
41	0xbd80562d	-0.06266437
42	0xbd570700	-0.05249691
43	0x3b2d6497	0.0026457661
44	0xbd3ee91f	-0.04660904
45	0xbb52bafc	-0.0032154908
46	0xbd60a251	-0.054842297
47	0x3ca4cfa4	0.020118542
48	0xbcb88077	-0.022522194
49	0xbb5d5a2d	-0.0033775673
50	0xba82e347	-0.0009985947
51	0x3d6b14e9	0.05739299
52	0x3d34f873	0.044182252
53	0xbc8bbb2d	-0.017057026
54	0x3d288429	0.041141663
55	0xbd177d5a	-0.03698478
56	0x3d10614b	0.035249036
57	0x3c967f0a	0.018371124
58	0xbcee5d29	-0.029097157
59	0xbccdd749	-0.02512707
60	0x3cb544f3	0.022127604
61	0x3d557d8b	0.05212168
62	0x3c0700b2	0.008239912
63	0xbd252f73	-0.040328454
64	0xbd127e50	-0.035764992
65	0x3cd7b656	0.026332062
66	0xbc289905	-0.010290389
67	0xbd0697a8	-0.032859474
68	0xbd34b15a	-0.044114448
69	0xbd47e70e	-0.048804335
70	0x3c1920b0	0.009346172
71	0xbbd30202	-0.0064394483
72	0xbd378885	-0.04480793
73	0x3be8c94f	0.007104076
74	0xbc44db57	-0.012015185
75	0xbd857752	-0.06516899
76	0xbd70af17	-0.05876073
77	0xbc718c39	-0.014742904
78	0x3d4d0f6c	0.050063536
79	0xbcde2355	-0.027116457
80	0x3c82410d	0.01590016
81	0x3d33ca8d	0.04389434
82	0x3c4b58c3	0.012411299
83	0xbd1fbbc1	-0.038997415
84	0xbc1532cf	-0.009106352
85	0x3b848eb9	0.004045334
86	0xbc085101	-0.008320094
87	0x3d50690b	0.050881427
88	0x3d91589d	0.0709698
89	0xbcb425b6	-0.021990638
90	0xbb94f071	-0.0045452644
91	0xbd210d9e	-0.039319627
92	0x3c4d260a	0.012521276
93	0x3d2b59f0	0.041833818
94	0xbd57257c	-0.052525982
95	0xbc2a6e5a	-0.010402286
96	0xbd2d0304	-0.042239204
97	0xbc250924	-0.01007298
98	0x3c9c48c8	0.019077674
99	0xbcbaf3d0	-0.022821337
100	0xbd7265d5	-0.059179146
101	0x3b29083a	0.0025792257
102	0xbd37feb4	-0.04492064
103	0xbc08f9a8	-0.008360304
104	0xbd7c70c8	-0.061630994
105	0xbd0b1e66	-0.033964537
106	0x3d86d7fb	0.06584164
107	0xbc4fe656	-0.012689194
108	0xbd23a724	-0.03995432
109	0x3d1be81d	0.038063157
110	0x3d3919dc	0.045190677
111	0xbd19f67e	-0.03758859
112	0x3bb3430f	0.0054706405
113	0x3d38831f	0.04504692
114	0x3d2bd6c1	0.041952852
115	0xbb5f075f	-0.0034031493
116	0x3c2432c9	0.010021874
117	0x3c244dc0	0.010028303
118	0x3d580158	0.052735656
119	0xbd46e318	-0.048556417
120	0xbcfc63ee	-0.030809369
121	0xbca102bf	-0.01965463
122	0x3cf0cf59	0.029395746
123	0xbd47b5c6	-0.048757337
124	0xbcb33071	-0.021873685
125	0x3d46cee1	0.04853714
126	0x3c43629a	0.011925364
127	0x3c6d8a73	0.014498341
128	0xbd722bdf	-0.05912387
129	0xbd31a6b8	-0.043371886
130	0x3c3fc488	0.011704572
131	0xbce08cd6	-0.027410906
132	0xbcc5aa59	-0.02412908
133	0x3cc0e3e0	0.02354616
134	0xbd0d525e	-0.03450238
135	0x3d7c2d28	0.0615665
136	0x3d8e62bc	0.06952426
137	0xbd230f09	-0.03980926
138	0x3d62a3ec	0.05533211
139	0xbce12423	-0.027483052
140	0x3d231fdd	0.03982531
141	0xbd41919d	-0.04725801
142	0x3d6e31b2	0.058152862
143	0x3d517b29	0.051142845
144	0xbc5b8f6c	-0.013400894
145	0x3babc8b8	0.0052424334
146	0x3b909142	0.0044118473
147	0x3d71d880	0.05904436
148	0xbd4005ff	-0.04688072
149	0xbd05b5ed	-0.0326442
150	0x3ca6fdef	0.020384757
151	0xbd3cd4f0	-0.04610151
152	0xbd53d762	-0.051719077
153	0xbc6196d0	-0.013768867
154	0x3d1ce7fd	0.03830718
155	0x3caf23f7	0.021379454
156	0x3d0f56dd	0.03499495
157	0xbd4449e8	-0.047922045
158	0xbbea4e59	-0.007150453
159	0x3cfb23b3	0.030656671
160	0x3ce6aa9a	0.028157521
161	0xbb611b96	-0.0034348718
162	0xbc83552f	-0.01603183
163	0x3d5f8318	0.05456838
164	0xbd16e76e	-0.036841802
165	0xbb94f04f	-0.0045452486
166	0x3d332853	0.043739628
167	0xbcef0a69	-0.029179769
168	0x3cd3a9af	0.025837747
169	0xbccd572d	-0.025065983
170	0x3d75140b	0.059833568
171	0x3d588db5	0.052869517
172	0xbd3d01dd	-0.046144355
173	0xbbcc3bd7	-0.0062327194
174	0x3d6a8e35	0.057264525
175	0x3c7c5465	0.015400981
176	0x3d113728	0.03545299
177	0xbaa7e344	-0.0012808819
178	0x3c641973	0.013922083
179	0xbc3e2f8b	-0.011608015
180	0x3cc43d56	0.023955029
181	0xbd0018bc	-0.03127359
182	0x3c8b1c21	0.016981186
183	0x3cbd23e9	0.023088412
184	0xbc696b18	-0.014246725
185	0xbc7dc2c4	-0.01548833
186	0x3d65f3ea	0.056140818
187	0x3c04bca1	0.008101613
188	0xbc413a43	-0.011793676
189	0xbd44acad	-0.04801624
190	0x3c83caad	0.016087854
191	0xbc983faa	-0.018585045
192	0xbd49c1dd	-0.049257148
193	0xbb085cb0	-0.00208072
194	0xbc9ad56a	-0.018900592
195	0xbd086da5	-0.03330769
196	0xbd2e6ede	-0.0425862
197	0x3cc76570	0.024340361
198	0x3d0ee6fe	0.03488826
199	0xbca8f64a	-0.020625252
200	0x3d0abde1	0.03387249
201	0x3d3452d7	0.044024315
202	0x3c7da369	0.015480855
203	0x3bd84cbc	0.0066009443
204	0xbd292792	-0.041297503
205	0xbb071eb3	-0.0020617663
206	0x3b3b1ed1	0.0028552304
207	0xbc796a0d	-0.015223038
208	0xbbd0af43	-0.006368549
209	0xbd02be1b	-0.03191958
210	0x3d538db0	0.051648796
211	0xbd32ed6c	-0.043683454
212	0x3b1da239	0.002405299
213	0xbcbdb919	-0.02315955
214	0xbd475d07	-0.048672702
215	0xbc81eaa7	-0.015858961
216	0xbd994f61	-0.074858434
217	0xbd7ed89b	-0.06221829
218	0xbc0b4bc0	-0.008501947
219	0x3c187e9a	0.009307528
220	0x3d713a69	0.058893595
221	0x3ca7d113	0.020485437
222	0x3cf1baaf	0.029507963
223	0x3d20fc7c	0.039303288
224	0xbd022aa1	-0.031778935
225	0x3d574eb2	0.052565284
226	0xbd7afeda	-0.0612782
227	0xbd3fd4a1	-0.046833638
228	0x3d82d5f8	0.063884676
229	0x3d6c6bf2	0.057720132
230	0xbc5a9d45	-0.01334316
231	0xbd16cd49	-0.03681687
232	0xbc55e3bb	-0.013054783
233	0x3cff8224	0.031189986
234	0x3d9ac762	0.075575605
235	0xbccc2ad3	-0.024922764
236	0xbd2de632	-0.04245586
237	0x3cad5804	0.021160133
238	0x3db23a2f	0.08702504
239	0x3ca9bc79	0.020719754
240	0x3c23af6b	0.009990553
241	0x3cbccd5f	0.023047147
242	0xbd384e82	-0.044996746
243	0xbc694c03	-0.014239314
244	0xbde88d22	-0.11355044
245	0xbd3b5db1	-0.045743648
246	0x3c66ab4a	0.014078924
247	0xbd1481fb	-0.03625677
248	0x3c7d2549	0.015450784
249	0xbc14f036	-0.009090474
250	0xbd70c72f	-0.058783706
251	0xbd7d949c	-0.061909303
252	0xba86f07f	-0.0010295062
253	0xbcda332f	-0.026635734
254	0x3ceb6afa	0.028737534
255	0x3dc27cd7	0.094964676

module.conv_5.bias f4 [12]
0	0xbd579929	-0.0526363
1	0x3d68e0e2	0.05685509
2	0x3ca4db8c	0.02012422
3	0xbbc4b5a2	-0.0060030976
4	0xbc6367c2	-0.013879718
5	0x3ad38bee	0.0016139725
6	0x3d4d5f79	0.050139878
7	0x3d8f8d22	0.07009341
8	0xb99cbe4f	-0.0002989643
9	0x3d2e49b3	0.042550754
10	0x3cfd84c8	0.030947104
11	0x3d0e08c1	0.034676317

module.conv_6.weight f4 [12, 12, 3, 3, 3]
0	0x3da32da1	0.079676874
1	0xbcae99ca	-0.021313567
2	0xbdbcb832	-0.0921482
3	0x3d3bc15f	0.04583871
4	0x3d475593	0.048665594
5	0xbd1f7986	-0.038934253
6	0xbca353c8	-0.019937411
7	0xbb1a4c47	-0.0023544
8	0xbc3b03fd	-0.011414525
9	0x3d271135	0.040787894
10	0xbd3d25ff	-0.046178814
11	0xbdbce686	-0.09223656
12	0xbc97a62a	-0.01851185
13	0xbc8f2787	-0.017474903
14	0xbc81f3e9	-0.015863376
15	0xbc9d1c24	-0.019178458
16	0xbc75b402	-0.0149965305
17	0xbbbed5c0	-0.005823821
18	0x3d60e217	0.054903116
19	0xbce88e0c	-0.028388046
20	0xbd1bd5e9	-0.038045797
21	0xbc840b08	-0.016118541
22	0x3cfbab2b	0.030721268
23	0xbcb5a214	-0.022172011
24	0xb5a1af29	-1.2046413e-06
25	0x3d2c65ca	0.04208926
26	0x3bd6a5ed	0.0065505416
27	0xbd7cb283	-0.06169368
28	0xbd5c955d	-0.05385338
29	0xbcfd1e51	-0.030898245
30	0xbce4c6ff	-0.02792692
31	0x3d0423d7	0.032260742
32	0x3d170428	0.036869198
33	0x3d1ab6c3	0.03777195
34	0x3d38f907	0.045159366
35	0xbd1c4562	-0.038152106
36	0xbd78c2d7	-0.06073269
37	0x3c6c6002	0.014427187
38	0xbd374e17	-0.044752207
39	0x3c816c61	0.01579875
40	0xbd331fb2	-0.0437314
41	0x3d46f4e7	0.0485734
42	0xbbf993f3	-0.007616514
43	0xbd1dd7ae	-0.038535766
44	0x3c3decc2	0.011592092
45	0xbcd8d00a	-0.026466388
46	0x3d4c046d	0.04980891
47	0xbb8c7ed1	-0.0042875786
48	0xbd50661b	-0.050878625
49	0x3d40cd4b	0.047070783
50	0xbd640469	-0.05566827
51	0xbd0e7bac	-0.03478591
52	0xbc5a8cd7	-0.013339243
53	0x3d4cd886	0.05001118
54	0x3ba3a09e	0.0049935123
55	0x3b101021	0.002198227
56	0xbd2ec4eb	-0.042668264
57	0x3c9db7b7	0.019252641
58	0x3cef3ebb	0.029204717
59	0xbd50c6e8	-0.05097094
60	0x3d10f055	0.03538545
61	0x3b336f0c	0.0027379422
62	0xbcec3f45	-0.028838763
63	0x3cef398a	0.029202241
64	0x3ce3af98	0.02779369
65	0x3ce613e7	0.028085662
66	0x3d4f9f11	0.050688807
67	0x3cd9de2f	0.026595203
68	0x3cf0bcb3	0.029386854
69	0xbc8b344f	-0.016992716
70	0x3d2f8eef	0.04286092
71	0xbc10fd8b	-0.008849512
72	0xbce3f712	-0.027827773
73	0xbd414e57	-0.04719385
74	0xbc967321	-0.018365445
75	0xbc16c26e	-0.009201629
76	0xbd4dc9c4	-0.050241247
77	0x3d4a6817	0.049415674
78	0x3cc4af2d	0.024009312
79	0x3cd3d093	0.025856292
80	0xbba7fcda	-0.005126578
81	0x3c37a604	0.011209015
82	0x3bbee0db	0.0058251447
83	0xbd3f5ef5	-0.046721417
84	0x3d486cc8	0.048931867
85	0x3d2d1cbb	0.042263728
86	0xbd35ac66	-0.044353865
87	0x3cb1ab26	0.021688055
88	0xbc398eb4	-0.011325527
89	0xbccc4751	-0.02493635
90	0x3d11e268	0.03561631
91	0x3d54b213	0.051927637
92	0xbd018bb0	-0.031627357
93	0xbcbadfe5	-0.02281184
94	0x3c8bfb44	0.017087586
95	0x3d48fcea	0.049069323
96	0x3bb5934b	0.0055412403
97	0x3c8b0969	0.01697226
98	0x3d51467a	0.051092602
99	0xbb8a3203	-0.0042173876
100	0x3c566b61	0.013087125
101	0x3bce574a	0.0062970268
102	0x3caf4f93	0.021400249
103	0x3a8bacc2	0.0010656344
104	0xbcd690d1	-0.0261921
105	0xbbd3317e	-0.006445109
106	0xbca1127a	-0.01966213
107	0xbc98e566	-0.018664073
108	0xbd2f1080	-0.042740345
109	0xbbd950d3	-0.0066319495
110	0x3c9a3578	0.018824324
111	0x3d20905d	0.039200176
112	0x3be0c016	0.006858836
113	0x3d8aa2f4	0.06769362
114	0xbd8bd71d	-0.06828139
115	0xbcc9ba38	-0.024624929
116	0xbd5c62b2	-0.05380506
117	0x3d4c2ea5	0.04984917
118	0x3d8d9669	0.06913454
119	0x3e031fd2	0.12805107
120	0x3ce216fa	0.027598847
121	0x3d5d9e8b	0.054106276
122	0x3da13970	0.078722835
123	0x3d49bbe3	0.04925145
124	0x3d7a9eee	0.061186723
125	0x3d9ebca4	0.07750824
126	0x3d23d3fd	0.03999709
127	0xbc3dc719	-0.011583113
128	0xbcbbc884	-0.022922762
129	0xbcd8a8c4	-0.026447661
130	0xbc6f7a41	-0.01461655
131	0xbc933575	-0.017969826
132	0xbc7e9ff9	-0.01554107
133	0xbc2695aa	-0.010167519
134	0xbda22fbe	-0.07919262
135	0x3c6524db	0.013985838
136	0xbd584428	-0.052799374
137	0x3d36522d	0.044511963
138	0x3d2cba6b	0.04216997
139	0xbcc248ee	-0.023716416
140	0x3d5b2c68	0.053509146
141	0x3cfcb1ad	0.030846441
142	0xbce55c56	-0.02799813
143	0x3d52a223	0.051424157
144	0x3d665351	0.0562318
145	0x3cf8bc82	0.030363325
146	0x3bf1ff51	0.0073851724
147	0xbd45b7d0	-0.048271
148	0xbd41ad68	-0.047284514
149	0xbd2cdad4	-0.04220088
150	0xbd1ad2c4	-0.037798658
151	0x3c4508ce	0.012026025
152	0xbd4fafa4	-0.050704613
153	0xbc64d3c7	-0.013966507
154	0x3d02642f	0.031833824
155	0xbd01669c	-0.031591997
156	0x3d5a6d31	0.05332679
157	0xbc7b60a5	-0.015342866
158	0xbc492457	-0.0122767305
159	0x3d627fd1	0.055297676
160	0x3d292081	0.041290764
161	0x3d482afa	0.04886911
162	0xbd646343	-0.055758726
163	0x3d0a3f65	0.033751864
164	0x3ca03d49	0.019560473
165	0x3b849dd3	0.0040471344
166	0xbd1b2187	-0.03787377
167	0xbd0c7c4a	-0.03429822
168	0x3d00efb1	0.031478588
169	0xbcb19724	-0.021678515
170	0xbadb0701	-0.0016710461
171	0xbb8901f8	-0.004181143
172	0xb9dd3c1a	-0.00042197184
173	0xbd408dba	-0.04701016
174	0xbc80c77a	-0.015720118
175	0x3d236a84	0.039896503
176	0xbc8e1e05	-0.017348299
177	0x3cec5c08	0.028852478
178	0xba2e35e0	-0.0006645601
179	0xbd459473	-0.048237275
180	0xbd24d852	-0.04024536
181	0xbd0185be	-0.031621687
182	0xbd53c978	-0.051705807
183	0x3c3755d4	0.011189897
184	0xbcf3a885	-0.029743442
185	0xbd26a11d	-0.040680993
186	0xbcfe3cfe	-0.031034943
187	0xbc9dfeb2	-0.019286487
188	0x3d39ec50	0.04539138
189	0xbd07aabd	-0.033121813
190	0xbcdeca63	-0.027196115
191	0xbd3026f0	-0.043005884
192	0xbbd46895	-0.0064821937
193	0xbd301e02	-0.042997368
194	0xbceaee5b	-0.02867811
195	0x3d2836be	0.04106783
196	0x3c9bb936	0.019009214
197	0xbd431c3e	-0.047634356
198	0x3c8e513c	0.01737272
199	0xbd12d35f	-0.03584611
200	0x3b80a75e	0.0039262017
201	0xbd4d0c6d	-0.05006068
202	0x3c0ab7ce	0.008466674
203	0xbd78b1b5	-0.06071635
204	0x3d1569f2	0.03647799
205	0xb77914a2	-1.48463605e-05
206	0x3bc6822a	0.0060579972
207	0x3d07ce00	0.03315544
208	0x3d374d8d	0.044751693
209	0xbd39f255	-0.04539712
210	0x3c0f60ce	0.008751107
211	0x3cd3cf19	0.025855588
212	0x3cf6af7a	0.03011297
213	0xbb9bba1c	-0.0047524106
214	0x3c957fc7	0.018249406
215	0xbd76a073	-0.06021161
216	0x3d5b02b8	0.05346939
217	0xbd3e3a9b	-0.04644261
218	0xbcea8d00	-0.028631687
219	0x3d29bb95	0.041438658
220	0xbd45f28d	-0.048327018
221	0xbc01bd0f	-0.00791861
222	0x3ad09886	0.0015914596
223	0xbda39434	-0.07987252
224	0x3d253068	0.040329367
225	0xbbfffe61	-0.0078123068
226	0xbd5af1dc	-0.05345331
227	0x3c64e2b5	0.013970067
228	0xbbb50618	-0.005524408
229	0xbcda3b19	-0.026639508
230	0x3cae323b	0.021264186
231	0xbd40e3fe	-0.04709243
232	0xbd89546b	-0.067055546
233	0xbcc730d5	-0.024315277
234	0x3d3edc68	0.046596915
235	0xbccd7d81	-0.025084259
236	0xbc7fab78	-0.015604846
237	0x3d3e9d25	0.046536583
238	0xbc49b1ed	-0.012310487
239	0xbb0e9c99	-0.002176082
240	0xbd810c01	-0.06301118
241	0xbb041cf7	-0.0020158866
242	0xbcf07813	-0.02935413
243	0x3c723e6d	0.014785391
244	0x3b04d318	0.0020267423
245	0xbd569bda	-0.052394725
246	0xbd2d8b74	-0.04236932
247	0xbd4fc28f	-0.050722655
248	0x3d1229de	0.03568446
249	0x3c9a3140	0.018822312
250	0x3cc21a7a	0.023694266
251	0xbb1ea236	-0.0024205572
252	0xbaed84f0	-0.0018121284
253	0xbd1a9082	-0.03773547
254	0xbbbd4cc3	-0.005776973
255	0xbbed7e43	-0.0072477176

module.conv_6.bias f4 [12]
0	0x3d0df986	0.034661792
1	0xbc61b521	-0.013776095
2	0x3d63305d	0.055466045
3	0x3cdb56fc	0.026774876
4	0x3ce89b18	0.028394267
5	0x3c8c5d27	0.017134262
6	0x3ce59dac	0.028029285
7	0xbd67f67b	-0.056631546
8	0xbb85084b	-0.0040598265
9	0xbb8221da	-0.0039713206
10	0x3d06eab0	0.03293866
11	0x3d12345b	0.03569446
