models/FSRCNN3D_checkpoint_epoch_10.pth (torch, 799402 bytes, 45 tensors)

module.conv_1.weight f4 [56, 1, 5, 5, 5]
-0.007226897 -0.021396015 -0.04763877 0.06522874 -0.07308262 -0.0013590867 0.0745156 0.010053069
-0.019202277 0.022446278 0.03446897 0.046748806 -0.03804828 0.034980938 0.05734288 0.042845454
0.060007166 -0.006860757 0.014792748 0.07303511 0.012636195 0.068776086 0.091274165 0.077816255
-0.071351044 0.0019226503 -0.020784514 0.08176257 0.018840505 0.025299463 -0.042984385 -0.02001254
-0.06654107 0.0707622 0.06720658 0.016101876 0.08106792 -0.08842333 0.05946638 -0.033585235
-8.5251966e-05 0.04111257 0.06308729 0.08207485 0.045497198 -0.042645115 0.0352371 -0.016399605
-0.021015847 -0.046252836 -0.076476656 0.083085746 -0.03451362 -0.07469286 0.032699104 -0.062155813
-0.079694495 0.060687963 -0.09200954 0.021439169 0.058473933 -0.050885107 -0.09186847 -0.023374993
-0.021568056 0.0011221946 0.045268353 -0.016275324 0.054780062 -0.0675571 0.084064074 0.07871512
0.017636674 0.076271415 0.009661727 -0.049161065 0.02992507 0.08302579 0.061995167 -0.03759791
-0.0019407741 0.005791861 0.05654045 0.007815437 0.07238766 -0.08640519 -0.09245047 0.026952924
-0.05746133 0.063083425 0.0058390712 -0.0321518 0.06974708 -0.037572242 -0.06342262 -0.07517609
0.07728355 -0.015172083 -0.012919336 -0.06023832 -0.013099419 -0.011311078 0.008431456 0.01654069
0.012426188 0.045659572 0.00086975703 -0.074497014 -0.018568536 0.042105816 0.06493081 -0.025707899
-0.054139033 -0.030544108 -0.018524524 -0.042016577 -0.085717455 -0.066458635 0.019931503 -0.035723247
0.049804755 0.07733737 0.0013529542 0.005150387 0.06147483 -0.071200326 0.001195351 -0.043925945
-0.0154233 -0.07647428 0.0024957943 0.07817502 -0.0373245 0.085856624 -0.02165354 0.016607555
0.02329585 0.07198401 0.06341533 0.08959261 0.054556347 -0.04048135 0.022304006 -0.061158344
0.030335916 -0.06499952 -0.0210694 -0.008496826 0.08315571 -0.062007267 -0.002392847 -0.018170817
0.08897869 0.0522106 -0.05151392 -0.088322796 -0.06970777 -0.0095603345 0.05096954 -0.0026915865
0.018050915 0.052726287 -0.04369399 -0.016703913 -0.07742896 0.080710456 -0.00306217 -0.008600512
-0.043004096 0.0809054 -0.012695288 -0.08342044 -0.08562908 0.026416356 -0.05378459 0.05696219
-0.055362616 0.04450405 -0.060005598 -0.0828405 -0.025070123 -0.01231683 -0.05033513 0.025383135
0.033443592 -0.038605835 0.032114502 0.06326153 0.04859928 0.06699875 0.06434434 -0.023722114
0.052378874 -0.027476221 0.07177083 0.0147636365 0.0059437966 0.06702434 -0.0095327385 -0.0711187
0.08264496 -0.051825415 0.07517824 -0.060408212 -0.033830367 -0.037538815 -0.087946646 -0.03228632
0.060042363 -0.064648956 -0.024260337 0.08377905 -0.04452729 -0.03887342 -0.048393276 0.012132741
-0.052463766 0.05681901 -0.049100116 0.039180327 -0.015376397 -0.02597405 -0.07151506 0.02517933
-0.022479177 0.08160696 0.024310187 -0.07696556 0.058543988 0.051255394 0.08414953 0.08654777
-0.031133037 0.08215015 0.052538626 0.03871335 0.068313465 -0.027909921 0.062185746 -0.0604168
0.09062844 -0.03537259 -0.05168753 0.07998968 -0.050683495 -0.045583524 -0.002102135 0.030147735
0.0140439775 -0.064063855 0.06016154 0.02003688 0.0051579652 -0.044690214 0.07273064 -0.053095043
00000000: 9bcf ecbb b246 afbc df20 43bd a596 853d
00000010: 57ac 95bd 6223 b2ba a39b 983d a1b5 243c
00000020: 184e 9dbc 42e1 b73c 562f 0d3d ad7b 3f3d
00000030: 83d8 1bbd 2c48 0f3d 5ee0 6a3d b77e 2f3d
00000040: 13ca 753d 33d0 e0bb 485d 723c 6f93 953d
00000050: 0b08 4f3c 7ada 8c3d f3ed ba3d 215e 9f3d
00000060: 7f20 92bd 7001 fc3a 4944 aabc 2273 a73d
00000070: 6757 9a3c d240 cf3c 6510 30bd 57f1 a3bc
00000080: af46 88bd c6eb 903d 9aa3 893d 15e8 833c
00000090: f006 a63d 4a17 b5bd 0593 733d ac90 09bd
000000a0: 4dc9 b2b8 a765 283d e933 813d dc16 a83d
000000b0: 455b 3a3d a5ac 2ebd c754 103d 7758 86bc
000000c0: 6d29 acbc 9d73 3dbd cb9f 9cbd dc28 aa3d
000000d0: 275e 0dbd 92f8 98bd 7fef 053d 1897 7ebd
000000e0: de36 a3bd f193 783d 7f6f bcbd 32a1 af3c
000000f0: 5d82 6f3d e76c 50bd 8925 bcbd ea7c bfbc
00000100: 7eaf b0bc 9a16 933a 4f6b 393d d453 85bc
00000110: 0f61 603d 605b 8abd c929 ac3d 6535 a13d
00000120: c97a 903c 3034 9c3d 384c 1e3c 1d5d 49bd
00000130: 6c25 f53c 6d09 aa3d a5ee 7d3d 4400 1abd
00000140: 9361 feba a7c9 bd3b f596 673d 520c 003c
00000150: fb3f 943d 34f5 b0bd ac56 bdbd 61cc dc3c
00000160: 925c 6bbd e231 813d ae55 bf3b 9bb1 03bd
00000170: 8fd7 8e3d 5ae5 19bd b8e3 81bd ecf5 99bd
00000180: d646 9e3d 5494 78bc 9fab 53bc 75bc 76bd
00000190: f29e 56bc 1a52 39bc 1724 0a3c 5780 873c
000001a0: 3697 4b3c 8805 3b3d 6800 643a e491 98bd
000001b0: 0b1d 98bc 2677 2c3d 72fa 843d 5f99 d2bc
000001c0: e4c0 5dbd a337 fabc bec0 97bc 9319 2cbd
000001d0: a28c afbd 771b 88bd 6447 a33c 8a52 12bd
000001e0: 1200 4c3d 0e63 9e3d 9c55 b13a 94c4 a83b
000001f0: 08cd 7b3d 7ad1 91bd 53ad 9c3a b1eb 33bd
00000200: 02b2 7cbc 8c9e 9cbd 7b90 233b 3a1a a03d
00000210: 93e1 18bd 99d5 af3d c462 b1bc 910c 883c
00000220: f0d6 be3c 5a6c 933d e6df 813d 557c b73d
00000230: 7a76 5f3d c6cf 25bd e4b6 b63c 2c81 7abd
00000240: 0783 f83c 781e 85bd bc99 acbc 4536 0bbc
00000250: 8a4d aa3d 55fb 7dbd 50d1 1cbb f7da 94bc
00000260: 763a b63d c8da 553d 4300 53bd 95e2 b4bd
00000270: f3c2 8ebd f3a2 1cbc 70c5 503d 5465 30bb
00000280: 83df 933c 85f7 573d 78f8 32bd a5d6 88bc
00000290: 1393 9ebd 864b a53d b0ae 48bb 29e9 0cbc
000002a0: 1025 30bd bbb1 a53d e6ff 4fbc 56d8 aabd
000002b0: 4d5e afbd 1d67 d83c 3b4d 5cbd 2f51 693d
000002c0: e9c3 62bd e149 363d 6ec8 75bd 48a8 a9bd
000002d0: dc5f cdbc 88cc 49bc 362c 4ebd 4bf0 cf3c
000002e0: 26fc 083d 2721 1ebd 7f8a 033d 438f 813d
000002f0: 0a10 473d a436 893d f7c6 833d e154 c2bc
00000300: 3b8b 563d d015 e1bc 96fc 923d 2ee3 713c
00000310: 2ec4 c23b 0f44 893d 342f 1cbc aea6 91bd
00000320: c341 a93d e346 54bd 0df7 993d 9a6e 77bd
00000330: b691 0abd 4dc2 19bd 5f1d b4bd a93e 04bd
00000340: fbee 753d ac66 84bd 9dbd c6bc 5a94 ab3d
00000350: 3f62 36bd bc39 1fbd 0738 46bd 67c8 463c
00000360: 3fe4 56bd 0dbb 683d 341d 49bd 8d7b 203d
00000370: 49ed 7bbc 88c7 d4bc 7d76 92bd e244 ce3c
00000380: 4026 b8bc 8d21 a73d 2826 c73c 1fa0 9dbd
00000390: d2cb 6f3d 2df1 513d 9756 ac3d f53f b13d
000003a0: b60a ffbc 563e a83d be32 573d e491 1e3d
000003b0: eee7 8b3d 59a3 e4bc 7bb6 7e3d 9b77 77bd
000003c0: 679b b93d d9e2 10bd 4eb6 53bd a1d1 a33d
000003d0: 7f99 4fbd cab5 3abd f9c3 09bb 62f8 f63c
000003e0: b618 663c e933 83bd f26b 763d 6224 a43c
000003f0: 2604 a93b 160d 37bd cdf3 943d 307a 59bd

module.conv_1.bias f4 [56]
-0.017895749 0.037329834 0.049091384 -0.04590916 0.001958203 -0.056763195 0.07413559 -0.008447654
-0.066048265 0.09259283 0.030617334 -0.0004085837 -0.04818069 -0.06270469 0.06734737 0.0075413473
0.055345885 -0.022429546 0.047035098 -0.0619657 0.04129566 0.04807335 0.022608317 -0.026841875
-0.048036277 0.060300868 0.00519912 0.010383468 -0.06912389 -0.040129866 0.09168719 0.062791795
0.073397 0.027029393 -0.015080638 0.060202174 0.019809432 -0.06525487 0.10384662 -0.02910678
-0.020624094 0.07388239 0.045505743 0.051703334 0.035253633 -0.067050464 -0.01931835 0.032906048
-0.06608898 -0.064138986 0.08915222 0.08699515 0.05436875 -0.07636366 0.012474495 -0.05008901
00000000: 1b9a 92bc 2be7 183d 0c14 493d 3e0b 3cbd
00000010: 3255 003b 8680 68bd 66d4 973d 0768 0abc
00000020: 5044 87bd 4fa1 bd3d 34d1 fa3c 2d37 d6b9
00000030: 1d59 45bd 516b 80bd 6bed 893d 681d f73b
00000040: 5eb2 623d 2bbe b7bc e0a7 403d bfcf 7dbd
00000050: a325 293d 90e8 443d 1435 b93c 7ee3 dbbc
00000060: b0c1 44bd 0bfe 763d 615d aa3b 6c1f 2a3c
00000070: d390 8dbd 375f 24bd 7ec6 bb3d fc98 803d
00000080: 2b51 963d bf6c dd3c c814 77bc 8e96 763d
00000090: 6447 a23c 58a4 85bd 89ad d43d 5871 eebc
000000a0: dcf3 a8bc a74f 973d 3b64 3a3d e0c6 533d
000000b0: 1d66 103d c151 89bd 8441 9ebc 7ec8 063d
000000c0: a959 87bd 4d5b 83bd 7095 b63d 832a b23d
000000d0: c4b1 5e3d 8d64 9cbd d361 4c3c 222a 4dbd

module.conv_2.weight f4 [12, 56, 1, 1, 1]
0.086498186 0.08511794 0.041643646 -0.10739429 0.06580568 -0.026330182 -0.047129173 0.06534405
-0.041622207 0.13749449 0.005132531 0.09578124 0.06396974 0.06590904 -0.06778255 0.1106764
-0.07406205 0.06544564 -0.06379053 -0.009629262 -0.09525061 0.14342706 0.057386108 -0.066272445
-0.075012006 -0.03882488 0.098568924 -0.0322692 -0.07868117 -0.033223946 0.12622094 0.024309134
-0.025799422 -0.15486419 0.12699158 0.13927197 -0.025521636 0.056446332 0.03782319 0.13005067
0.107914075 0.005902962 0.058402117 0.009089161 -0.09077688 0.039884735 0.024245044 0.13582094
0.083386116 0.10798077 0.078415595 -0.05440637 0.036158238 -0.0047398317 -0.08331373 0.0627741
0.13819663 -0.0008303929 -0.09638457 -0.13103938 -0.0274289 -0.02899694 0.06195894 0.05673106
-0.09305741 -0.04355135 0.11716515 0.026800906 -0.05241076 0.022023415 0.12005298 0.12608312
-0.12218347 0.11837543 -0.039963815 -0.0725477 -0.0143858595 -0.12648575 0.06879261 -0.014761315
-0.0017129445 0.13179113 -0.017405385 -0.121365875 -0.0237119 -0.0056930115 -0.021908857 -0.019824525
0.12235812 0.04644234 0.044881605 -0.03606489 -0.11841338 0.02756991 -0.115548536 -0.061361182
-0.03864296 -0.10874939 0.060594168 0.08919652 0.043473553 -0.0075204056 -0.046883702 0.09572386
-0.080604486 0.03665639 0.10569882 0.0963026 -0.007659698 -0.122279584 -0.04600189 0.0049900245
-0.0019503894 -0.005615098 -0.11771275 0.099644884 -0.053036306 -0.08514562 0.08706667 -0.11801796
0.09631783 -0.07579922 -0.016053762 0.10421511 -0.026281927 -0.050721973 0.104376756 -0.070228964
0.048849 -0.12802519 0.120997876 0.053808864 -0.0108171515 0.13081743 -0.051172044 0.059588857
-0.14328404 0.033040415 -0.029880632 0.016319383 -0.06333538 0.041059956 0.048627228 0.03680625
-0.065402485 -0.104391135 -0.07241774 -0.020280408 -0.096088454 0.01795942 0.109883204 -0.016824393
-0.08266462 -0.022448262 0.0009357863 -0.059971023 0.07659232 0.098888576 0.037933145 -0.06281963
-0.12845221 0.14389998 -0.00017054979 -0.03704767 0.053282343 -0.075234056 0.10122269 -0.12798601
-0.035157718 -0.123911284 -0.12267155 -5.301192e-05 0.026251586 -0.11708417 0.017539822 -0.07145801
-0.09711027 -0.042109493 0.08106476 -0.12478631 0.07938866 0.05760545 0.005680279 -0.011876975
0.0498428 -0.02764542 -0.037448637 -0.11779148 0.062120747 0.12173494 -0.048614245 -0.11765626
-0.006791815 -0.015632436 -0.0507568 -0.013338562 -0.12899217 0.072264 -0.06776984 -0.06192528
-0.034456275 0.02514433 -0.12296941 0.060285605 0.10044132 0.03229274 0.07231328 -0.14020889
0.08557979 -0.046641976 -0.05070834 0.11964089 0.13316464 -0.060687955 0.09110167 -0.030762598
0.014032023 0.04247528 0.0101663675 0.03689439 0.122154705 0.09796867 -0.038783383 -0.022235332
-0.011828668 -0.0039775334 0.105052054 -0.03188385 -0.03908831 0.11948634 0.0072809593 0.051787443
-0.090917 -0.10287382 -0.030708639 -0.13458864 0.002297295 -0.06739809 -0.045693047 0.07439836
-0.11087655 -0.07924033 0.12581971 0.10617889 0.08312839 0.122818306 0.07018163 0.043667883
0.10272349 0.0151499845 0.08689983 -0.014614945 -0.09166632 0.10647706 0.058227316 0.05597464
00000000: f625 b13d 5152 ae3d 8792 2a3d 8af1 dbbd
00000010: 21c5 863d 65b2 d7bc 850a 41bd 1ad3 853d
00000020: 0c7c 2abd 5bcb 0c3e ca2e a83b f428 c43d
00000030: 9102 833d 52fb 863d 94d1 8abd 4faa e23d
00000040: d8ad 97bd 5d08 863d 9ca4 82bd 0dc4 1dbc
00000050: c012 c3bd 8bde 123e b20d 6b3d d9b9 87bd
00000060: e59f 99bd d606 1fbd 81de c93d b52c 04bd
00000070: 9823 a1bd d515 08bd 1040 013e f323 c73c
00000080: 4f59 d3bc b894 1ebe 150a 023e 509d 0e3e
00000090: c012 d1bc 4534 673d 7dec 1a3d 012c 053e
000000a0: 0e02 dd3d a26d c13b 0f37 6f3d b4ea 143c
000000b0: 3be9 b9bd 2d5e 233d 8b9d c63c a514 0b3e
000000c0: 57c6 aa3d 0625 dd3d 5b98 a03d 37d9 5ebd
000000d0: a91a 143d 9750 9bbb 64a0 aabd b58f 803d
000000e0: 6b83 0d3e b9ae 59ba 4665 c5bd 302f 06be
000000f0: 93b2 e0bc fe8a edbc a8c8 7d3d d45e 683d
00000100: e294 bebd e662 32bd 48f4 ef3d 938d db3c
00000110: aaac 56bd 736a b43c 56de f53d ef1b 013e
00000120: 543b fabd d16e f23d 19b1 23bd e393 94bd
00000130: abb2 6bbc 7b85 01be 24e3 8c3d 71d9 71bc
00000140: e184 e0ba 41f4 063e bd95 8ebc ac8e f8bd
00000150: 753f c2bc 718c babb 347a b3bc 0b67 a2bc
00000160: e596 fa3d 533a 3e3d c6d5 373d c7b8 13bd
00000170: b782 f2bd 4bda e13c b6a4 ecbd dd55 7bbd
00000180: 1548 1ebd 00b8 debd 9731 783d aaac b63d
00000190: 5311 323d bc6d f6bb 2009 40bd df0a c43d
000001a0: f713 a5bd 0325 163d 9f78 d83d 4c3a c53d
000001b0: 34fe fabb b86d fabd 7a6c 3cbd 5c83 a33b
000001c0: 35a4 ffba dbfe b7bb 6213 f1bd 9e12 cc3d
000001d0: 993c 59bd d460 aebd 0350 b23d 66b3 f1bd
000001e0: 4842 c53d 9f3c 9bbd 2e83 83bc bb6e d53d
000001f0: 324d d7bc d8c1 4fbd 7bc3 d53d 34d4 8fbd
00000200: e415 483d 0919 03be bccd f73d af66 5c3d
00000210: 6c3a 31bc 01f5 053e c799 51bd 7213 743d
00000220: 0db9 12be 6355 073d 3ac8 f4bc 3ab0 853c
00000230: fbb5 81bd 7c2e 283d 582d 473d 27c2 163d
00000240: bdf1 85bd 05cb d5bd c14f 94bd 1923 a6bc
00000250: 06ca c4bd a21f 933c 720a e13d 4fd3 89bc
00000260: 114c a9bd 6be5 b7bc 8e4f 753a 2da4 75bd
00000270: 6fdc 9c3d 1886 ca3d c95f 1b3d 94a7 80bd
00000280: fa88 03be 845a 133e 9cd5 32b9 4cbf 17bd
00000290: 963e 5a3d 5014 9abd d74d cf3d c40e 03be
000002a0: 8a01 10bd 33c5 fdbd 393b fbbd 1e59 5eb8
000002b0: 910d d73c d3c9 efbd acaf 8f3c 9458 92bd
000002c0: c0e1 c6bd 017b 2cbd 4805 a63d f78f ffbd
000002d0: 8696 a23d b1f3 6b3d a221 ba3b a597 42bc
000002e0: f727 4c3d a678 e2bc be63 19bd a93c f1bd
000002f0: 5372 7e3d 2b50 f93d bb1f 47bd c4f5 f0bd
00000300: e08d debb 980f 80bc 5de6 4fbd fc89 5abc
00000310: 8616 04be 26ff 933d eaca 8abd 5da5 7dbd
00000320: 0622 0dbd 7bfb cd3c 63d7 fbbd 0aee 763d
00000330: 2eb4 cd3d 6445 043d fc18 943d eb92 0fbe
00000340: 7544 af3d a80b 3fbd 8cb3 4fbd 4806 f53d
00000350: 505c 083e ef93 78bd 8393 ba3d d801 fcbc
00000360: 92e6 653c 8ffa 2d3d d690 263c 921e 173d
00000370: 3f2c fa3d cca3 c83d 53db 1ebd df26 b6bc
00000380: 08cd 41bc f855 82bb 8825 d73d a498 02bd
00000390: 101b 20bd 41b5 f43d 1d95 ee3b 121f 543d
000003a0: b132 babd 82af d2bd af90 fbbc 9bd1 09be
000003b0: 378e 163b 0308 8abd a228 3bbd 2b5e 983d
000003c0: 3f13 e3bd c148 a2bd e2d6 003e 5174 d93d
000003d0: 383f aa3d 2a88 fb3d 63bb 8f3d 18dd 323d
000003e0: b160 d23d a437 783c 8af8 b13d 8673 6fbc
000003f0: 8dbb bbbd a510 da3d c47f 6e3d aa45 653d

module.conv_2.bias f4 [12]
-0.013682776 0.11038925 0.0007618877 0.07510482 -0.030428134 -0.086288884 0.03548717 0.0011392095
-0.0809522 0.11724767 0.0333837 0.104579285
00000000: b92d 60bc c213 e23d 6bb9 473a 8ed0 993d
00000010: 6c44 f9bc 3ab8 b0bd ff5a 113d 8751 953a
00000020: 44ca a5bd 8c1f f03d 59bd 083d aa2d d63d

module.conv_3.weight f4 [12, 12, 3, 3, 3]
0.051806267 0.009530972 -0.035637207 0.054639157 -0.01406771 -0.004990259 -0.033781577 -0.029679364
-0.024581138 0.030856056 0.002645681 -0.01930459 0.039466478 -0.015604664 -0.022242313 -0.032367423
-0.058599137 -0.014252869 0.065492414 0.043363784 -0.02731159 0.014832612 -0.026798626 0.0077447486
0.011250804 -0.052412707 -0.06258176 -0.020435104 0.03811699 -0.03281678 -0.025675165 0.028065335
-0.03704048 0.012200398 -0.01895701 0.024153898 -0.016780594 -0.0032067946 0.04177244 -0.04483472
0.007768471 -0.023811108 0.007981476 -0.006830712 0.029098174 0.041899513 -0.031640757 0.011613114
-0.012968244 0.05927582 0.0042233025 0.057191152 0.01278894 0.06244339 -0.053311035 0.019008143
-0.009688442 -0.009502338 -0.011624281 -0.012887149 0.023560861 -0.026879909 0.017992536 -0.054087
-0.015334481 -0.02676619 0.040166605 -0.01785187 0.00019925524 0.0011121796 -0.003138448 0.027403155
0.024650851 0.027673718 0.026025359 0.044377703 -0.021800129 0.027999323 0.030674255 -0.011707282
0.004411249 0.019207051 0.013989555 -0.023417067 -0.028005522 0.05079613 -0.033783916 0.015304005
0.025747249 -0.02664205 0.025213925 0.030121375 0.016574908 -0.045111477 -0.016608307 0.057481572
-0.0065376465 0.007159392 -0.01479854 0.048834566 0.023315107 0.043087162 -0.043486107 0.040577494
-0.022769429 0.03495365 -0.043070324 0.04317924 -0.041734025 -0.07325198 -0.03787821 0.029694835
-0.042676084 -0.013709059 -0.06931737 -0.056521792 0.0017538986 -0.022529813 -0.03793221 0.030071918
-0.05358138 -0.0007690259 -0.037770413 -0.006309019 -0.060177 -0.04501492 -0.056215223 -0.0047226576
0.01987784 0.023666829 -0.030884536 0.022642724 0.023516327 -0.053470958 0.0061148563 -0.0053759087
0.00413598 0.037127733 0.00092510384 -0.029119326 -0.01908915 0.0027812587 0.013246987 0.016403403
0.0051096147 0.0065231854 0.022256667 -0.03243759 0.04373081 -0.04845555 -0.04565221 -0.034817815
0.03358229 0.0076715415 -0.05074496 0.03661414 -0.008320425 -0.026398804 -0.014166302 -0.020239433
-0.046076197 0.042898703 -0.016569393 0.07599489 0.085473925 0.08293879 0.056110676 0.09123662
0.06394204 0.021346182 0.08565899 -0.0010154021 0.009619742 -0.014989457 0.040028132 0.024627658
0.021681186 0.011807958 -0.009230037 -0.019626169 0.033198193 0.03770514 0.075461075 0.05202283
0.03972038 0.0039803213 0.06278833 0.060940713 0.06627239 0.040379588 -0.05156641 0.0020453683
-0.05402144 0.0054815575 0.00902806 0.056759965 -0.050662242 -0.04577242 0.0033366003 0.037659112
-0.023447948 -0.031597443 0.005676894 0.0063452977 -0.021219635 0.050446395 -0.0038203644 0.037599396
-0.009815825 -0.010794987 -0.008876939 -0.015709072 0.008351458 -0.024354333 -0.051523574 0.027758371
-0.009503757 0.04862249 -0.007931511 -0.00895412 -0.015760742 -0.019723836 0.046326555 -0.0059377267
0.032782543 0.0395261 -0.028323818 -0.032212242 -0.0057562734 -0.003156461 0.0010824678 -0.013525992
0.043027267 0.046522133 -0.017205462 -0.0104842875 0.012989528 0.036994513 -0.050724074 -0.037947375
0.02481406 -0.003808334 0.00073655223 0.011984099 0.055611197 -0.004003691 -0.0036019422 -0.010204196
0.033928014 -0.01430911 -0.040555436 -0.037108768 -0.028958723 0.03201402 -0.015026604 -0.042468116
00000000: cf32 543d cb27 1c3c 52f8 11bd 4fcd 5f3d
00000010: 417c 66bc 5485 a3bb 8d5e 0abd 2322 f3bc
00000020: 625e c9bc d7c5 fc3c 2963 2d3b a924 9ebc
00000030: 9aa7 213d b4aa 7fbc 8335 b6bc b493 04bd
00000040: a605 70bd de84 69bc e320 863d 399e 313d
00000050: 8ebc dfbc 7c04 733c cb88 dbbc a9c7 fd3b
00000060: 4b55 383c b5ae 56bd de2a 80bd 8567 a7bc
00000070: 9020 1c3d e36a 06bd b954 d2bc 46e9 e53c
00000080: c2b7 17bd 2ee4 473c bb4b 9bbc 65de c53c
00000090: 7577 89bc 1629 52bb 9419 2b3d 9da4 37bd
000000a0: a88e fe3b 830f c3bc bdc4 023c 2ad4 dfbb
000000b0: 4b5f ee3c d39e 2b3d bd99 01bd ee44 3e3c
000000c0: c278 54bc 34cb 723d a163 8a3b 4541 6a3d
000000d0: b488 513c a4c4 7f3d ac5c 5abd f7b6 9b3c
000000e0: 45bc 1ebc b2af 1bbc c573 3ebc 9f24 53bc
000000f0: b502 c13c 4133 dcbc 1565 933c 558a 5dbd
00000100: 7a3d 7bbc c544 dbbc bd85 243d 163e 92bc
00000110: 2cef 5039 8ec6 913a 6cae 4dbb 957c e03c
00000120: 95f0 c93c feb3 e23c 2233 d53c 65c5 353d
00000130: 2f96 b2bc d65e e53c 9348 fb3c e6cf 3fbc
00000140: 3d8c 903b 1b58 9d3c 7234 653c 26d5 bfbc
00000150: d66b e5bc 9a0f 503d 0161 0abd a6bd 7a3c
00000160: e5eb d23c 6e40 dabc 6f8d ce3c 1ac1 f63c
00000170: 1ac8 873c d0c6 38bd 250e 88bc cc71 6b3d
00000180: c139 d6bb 5599 ea3b 9375 72bc c106 483d
00000190: 53ff be3c 2a7c 303d 7d1e 32bd 9634 263d
000001a0: f486 babc 8f2b 0f3d 826a 30bd b7dc 303d
000001b0: 4cf1 2abd 2205 96bd 2f26 1bbd 9542 f33c
000001c0: 1ecd 2ebd f69b 60bc 44f6 8dbd 6583 67bd
000001d0: 12e3 e53a 7190 b8bc ce5e 1bbd 6259 f63c
000001e0: 2678 5bbd 7498 49ba 26b5 1abd e3bb cebb
000001f0: 287c 76bd 9161 38bd ef41 66bd 86c0 9abb
00000200: dad6 a23c f0e0 c13c 9101 fdbc 3c7d b93c
00000210: 50a5 c03c 5d04 5bbd 225f c83b 6428 b0bb
00000220: 1d87 873b 4013 183d ab82 723a a78b eebc
00000230: d960 9cbc c745 363b e409 593c 6e60 863c
00000240: 8e6e a73b 72c0 d53b 9d53 b63c 47dd 04bd
00000250: 141f 333d 5479 46bd d0fd 3abd 209d 0ebd
00000260: 958d 093d 8e61 fb3b f2d9 4fbd b5f8 153d
00000270: 6452 08bc 4e42 d8bc c719 68bc 2bcd a5bc
00000280: 65ba 3cbd 8db6 2f3d 89bc 87bc 35a3 9b3d
00000290: f40c af3d d0db a93d 4fd4 653d 44da ba3d
000002a0: 0bf4 823d 30de ae3c fb6d af3d 3e17 85ba
000002b0: 1f9c 1d3c 5796 75bc 8af4 233d f1bf c93c
000002c0: be9c b13c 2a76 413c 9539 17bc 0fc7 a0bc
000002d0: d4fa 073d b470 1a3d 568b 9a3d e415 553d
000002e0: d6b1 223d 5b6d 823b 2b97 803d f89c 793d
000002f0: d2b9 873d 1165 253d 4d37 53bd 960b 063b
00000300: 9645 5dbd a39e b33b 6eea 133c 237d 683d
00000310: 3683 4fbd dc7b 3bbd ddaa 5a3b 7140 1a3d
00000320: e915 c0bc 526c 01bd 3d05 ba3b 37ec cf3b
00000330: cdd4 adbc e1a0 4e3d 145f 7abb d301 1a3d
00000340: 8ed2 20bc 75dd 30bc 9570 11bc 50b0 80bc
00000350: 8ed4 083c bd82 c7bc 620a 53bd 8665 e33c
00000360: a5b5 1bbc 6028 473d 2bf3 01bc 4db4 12bc
00000370: ac1c 81bc e293 a1bc eac0 3d3d 4391 c2bb
00000380: fd46 063d 1fe6 213d 5a07 e8bc fcf0 03bd
00000390: 1f9f bcbb a1dc 4ebb 98e1 8d3a 1f9c 5dbc
000003a0: 5c3d 303d fe8d 3e3d 78f2 8cbc 4ac6 2bbc
000003b0: 07d2 543c 8f87 173d 0cc4 4fbd b56e 1bbd
000003c0: db46 cb3c 3e95 79bb 2f15 413a f458 443c
000003d0: 91c8 633d 6531 83bb 900e 6cbb 802f 27bc
000003e0: 1af8 0a3d c270 6abc 751d 26bd 5dff 17bd
000003f0: d83a edbc 2221 033d 2532 76bc 0cf3 2dbd

module.conv_3.bias f4 [12]
0.05440018 -0.03022418 -0.02313647 0.040459212 0.023955867 -0.009108144 -0.023435142 0.01698623
0.03296634 -0.0041165776 -0.038138047 -0.03652309
00000000: b9d2 5e3d b398 f7bc b288 bdbc 8fb8 253d
00000010: 183f c43c 533a 15bc 0efb bfbc b526 8b3c
00000020: b707 073d 5be4 86bb a436 1cbd 3c99 15bd

module.conv_4.weight f4 [12, 12, 3, 3, 3]
-0.011967092 -0.026410365 0.0027274925 0.043312456 0.009552286 -0.025470292 -0.032018486 0.055384826
-0.034066673 0.05846418 -0.035257805 0.00658015 0.033094365 -0.021496288 -0.020201162 -0.011045637
0.0490126 -0.045678396 -0.027489292 -0.04366252 0.028912188 0.012523305 0.017031567 0.039932482
-0.019148018 -0.02630746 0.009309586 0.049655274 0.028817026 0.055463012 -0.00051087776 0.05227116
-0.0043575387 0.038862724 0.042502135 0.06259092 0.017736046 0.016895765 0.054542124 -0.005432029
-0.036595605 0.00987927 0.04994769 -0.03603821 0.03638026 -0.032607075 0.023417396 0.05029654
0.008279902 0.015000831 -0.02674668 0.03582208 -0.011661131 0.029837096 -0.0058095437 0.05571632
-0.004611252 0.018707782 0.055119883 -0.028255029 -0.03898169 0.0214028 -0.021410346 -0.0058287685
0.0022643146 -0.017319722 0.05631706 0.04141484 -0.0419996 -0.03208105 0.011033309 0.017796712
-0.017255668 -0.0050661485 -0.028757725 -0.021516088 0.05558186 -0.0257416 0.00669641 -0.026649857
-0.011270522 -0.020418927 0.057253107 0.026993575 0.021053167 0.011472436 0.02140937 -0.011019083
0.009101064 -0.021217516 0.010819533 0.0074771517 -0.03650151 -0.014792298 0.035097916 -0.012273055
0.031738393 0.029704932 0.06404298 0.032880053 -0.04015475 -0.039562993 0.027498117 -0.01734075
-0.01674808 0.057549853 -0.047593214 -0.017565316 0.02117786 -0.045863066 0.029914184 0.011846113
-0.03871306 -3.7911766e-06 -0.033917893 0.032051146 -0.047049914 0.013539732 -0.013067799 0.05181786
0.024235532 -0.0448873 -0.04527687 -0.037390426 -0.02259967 -0.017106226 -0.050146174 0.036280744
0.061400928 0.033661682 0.02918816 -0.017741894 -0.012351581 0.038052402 0.0513325 0.020277606
-0.026336627 0.011778177 0.051700346 0.0070396285 -0.030351298 0.010325945 0.041781597 -0.041761216
0.024398187 0.0513414 -0.04645811 0.04576894 -0.042308442 0.039245848 -0.029937027 -0.0149475755
0.021106834 -0.005013585 0.041850973 0.045869898 0.041911643 0.049085677 -0.0040567643 0.059187427
-0.0016721667 -0.04012584 -0.04837045 -0.0075132716 0.063735336 0.0104651665 -0.017831111 0.03734946
0.027512249 -0.03317961 0.0066221575 -0.015688794 -0.026637224 0.014236566 0.048488613 0.055344813
0.0432993 0.064536326 -0.029253356 0.011761599 0.034959555 0.031343922 -0.013693451 0.00048024722
0.013205596 -0.021427728 0.03780806 -0.031829733 0.003597046 0.03400221 -0.041014344 -0.03437546
-0.028567284 0.058603596 0.046572484 -0.042178985 0.025751848 -0.015952317 -0.049439378 -0.042014766
-0.03925531 -0.015032205 0.0010204895 -0.047998443 0.013603892 0.05766757 0.05532282 -0.007136899
0.041019894 -0.00036075234 0.03203049 0.0015282886 -0.0013025103 -0.0065528266 -0.03710231 0.010066339
0.023919057 0.04949336 0.05760297 0.024384176 -0.01783439 0.014121236 0.023823803 0.05656
-0.0055531063 0.048240643 0.011740424 -0.026981097 -0.0056577595 0.034584682 -0.033167224 0.046988316
0.028162038 0.06267808 0.044560988 -0.038389403 0.052784435 0.008103997 -0.02400013 -0.012593215
0.053336866 -0.013325278 0.04682126 -0.044845134 0.05479221 -0.038901687 -0.0048808856 -0.036810443
-0.005407246 -0.008596367 -0.035231266 -0.012845642 0.02895212 0.037422772 0.01018021 0.048319392
00000000: 9f11 44bc 8d5a d8bc bbbf 323b 6768 313d
00000010: 3181 1c3c 13a7 d0bc d125 03bd 33db 623d
00000020: 7f89 0bbd 2378 6f3d 7d6a 10bd 4d9e d73b
00000030: f58d 073d fc18 b0bc e87c a5bc c2f8 34bc
00000040: 70c1 483d 4519 3bbd 3931 e1bc 78d7 32bd
00000050: 41d9 ec3c 8c2e 4d3c c985 8b3c 3e90 233d
00000060: 4edc 9cbc be82 d7bc 3c87 183c 5463 4b3d
00000070: af11 ec3c 2f2d 633d 6dec 05ba 491a 563d
00000080: afc9 8ebb 852e 1f3d b816 2e3d ab2f 803d
00000090: 2f4b 913c fd68 8a3c 9067 5f3d 29ff b1bb
000000a0: 46e5 15bd a9dc 213c f395 4c3d cd9c 13bd
000000b0: 7803 153d ff8e 05bd d7d5 bf3c bf03 4e3d
000000c0: 6da8 073c 0cc6 753c da1b dbbc 2cba 123d
000000d0: 540e 3fbc ed6c f43c fc5d bebb cc36 643d
000000e0: fc19 97bb 1041 993c 63c5 613d 1777 e7bc
000000f0: 44ab 1fbd ed54 af3c c064 afbc 41ff bebb
00000100: e564 143b 17e2 8dbc b8ac 663d 9ba2 293d
00000110: c607 2cbd 6b67 03bd 0dc5 343c 69ca 913c
00000120: c25b 8dbc ef01 a6bb 5295 ebbc 8242 b0bc
00000130: cea9 633d 0ce0 d2bc 8f6d db3b cd50 dabc
00000140: ffa7 38bc 9845 a7bc 3c82 6a3d a121 dd3c
00000150: b177 ac3c e2f6 3b3c b462 af3c 6289 34bc
00000160: a11c 153c 5bd0 adbc 6944 313c e502 f53b
00000170: 9b82 15bd 655b 72bc d5c2 0f3d ec14 49bc
00000180: 1e00 023d c257 f33c f728 833d 3cad 063d
00000190: 4f79 24bd ce0c 22bd bb43 e13c 300e 8ebc
000001a0: 4533 89bc 65b9 6b3d 1af1 42bd 23e5 8fbc
000001b0: 317d ad3c e9da 3bbd 970e f53c 3316 423c
000001c0: 9691 1ebd eb6b 7eb6 7ded 0abd 1048 033d
000001d0: 69b7 40bd c1d5 5d3c 521a 56bc f73e 543d
000001e0: 9889 c63c bfdb 37bd 3d74 39bd b426 19bd
000001f0: f122 b9bc 5b22 8cbc 1366 4dbd 1e9b 143d
00000200: 8a7f 7b3d d5e0 093d 021c ef3c 7357 91bc
00000210: 495e 4abc d6dc 1b3d 0742 523d 391d a63c
00000220: e9bf d7bc 41f9 403c bec3 533d afac e63b
00000230: 49a3 f8bc 272e 293c 2e23 2b3d cf0d 2bbd
00000240: b5de c73c 5c4b 523d dc4a 3ebd 3678 3b3d
00000250: 9e4b 2dbd 41c0 203d 7f3e f5bc ade6 74bc
00000260: 3de8 ac3c 0049 a4bb ed6b 2b3d 13e2 3b3d
00000270: 8bab 2b3d 100e 493d 9bee 84bb 846e 723d
00000280: 9b2c dbba fe5a 24bd 1820 46bd e431 f6bb
00000290: ac87 823d 1776 2b3c 8d12 92bc bffb 183d
000002a0: 5e61 e13c 58e7 07bd affe d83b c985 80bc
000002b0: 4f36 dabc 7c40 693c ff9b 463d 3eb1 623d
000002c0: 9b5a 313d 9f2b 843d bca4 efbc b9b3 403c
000002d0: c031 0f3d 7c62 003d 7f5a 60bc b1c9 fb39
000002e0: 495c 583c 3489 afbc a0dc 1a3d e55f 02bd
000002f0: 6bbc 6b3b e745 0b3d a8fe 27bd 48cd 0cbd
00000300: f005 eabc 530a 703d cac2 3e3d dfc3 2cbd
00000310: 8af5 d23c 6fae 82bc f280 4abd ad17 2cbd
00000320: 2dca 20bd a349 76bc f2c1 853a 049a 44bd
00000330: dce2 5e3c d434 6c3d 2e9a 623d a6dc e9bb
00000340: 7a04 283d 5c23 bdb9 6732 033d db50 c83a
00000350: feb8 aaba 18b9 d6bb 98f8 17bd 49ed 243c
00000360: e6f1 c33c 8db9 4a3d 18f1 6b3d 53c1 c73c
00000370: 6d19 92bc c25c 673c 232a c33c 75ab 673d
00000380: d5f6 b5bb fb97 453d e85a 403c 7607 ddbc
00000390: ba64 b9bb aba8 0d3d 5bda 07bd d276 403d
000003a0: 13b4 e63c 5d5d 803d 9585 363d 353e 1dbd
000003b0: 7e34 583d a1c6 043c ec9b c4bc c653 4ebc
000003c0: c277 5a3d 4452 5abc a6c7 3f3d 88af 37bd
000003d0: cc6d 603d 6057 1fbd d6ef 9fbb 8cc6 16bd
000003e0: 442f b1bb c7d7 0cbc a94e 10bd 8776 52bc
000003f0: ff2c ed3c 9f48 193d e5ca 263c 8eea 453d

module.conv_4.bias f4 [12]
0.00019473559 0.035483178 0.035272557 0.012307184 -0.006230342 0.015630519 -0.015194174 -0.046649776
0.044368453 0.038773473 -0.03642397 0.048034582
00000000: f031 4c39 cf56 113d f579 103d 12a4 493c
00000010: e627 ccbb 930b 803c fcf0 78bc d613 3fbd
00000020: b2bb 353d efd0 1e3d 4d31 15bd e9bf 443d

module.conv_5.weight f4 [12, 12, 3, 3, 3]
0.020555358 -0.01614439 -0.054639786 0.049925666 0.0294848 -0.0060330476 -0.017824873 -0.014238745
-0.021385849 -0.0011635757 0.036276795 -0.025830008 0.030614749 -0.0085161 -0.0040037576 0.04388987
0.013252084 0.030598281 -0.025746565 0.0030213045 0.0108028585 0.010586419 -0.010117901 -0.0011588135
-0.048046786 -0.013686565 0.03220165 0.02794913 -0.013888577 0.024738023 -0.042362336 -0.043500956
-0.033102535 -0.015396222 -0.03570803 -0.011793673 0.0063740658 -0.05005232 0.029111553 -0.026827466
0.041718606 0.043437093 -0.027365718 0.050392356 0.006858153 -0.022213498 -0.036144868 -0.0014287947
0.04024332 0.021318844 -0.029432368 -0.043070603 0.0017372434 0.038069606 0.038270008 0.005321252
-0.046587963 0.022412669 0.051126737 -0.027015993 0.058296256 0.049122266 0.02907971 -0.020331992
0.032950778 -0.016994983 -0.028367452 0.049201623 0.012098705 0.018997142 -0.00862212 -0.029939879
-0.015905675 0.013803526 -0.016213624 0.02928633 -0.012458875 0.009831236 -0.03650624 0.01323821
0.016055727 -0.011912192 -0.045893945 -0.038104173 0.040412612 0.021682022 -0.022548469 0.04935438
0.03075909 0.026143456 0.049426083 0.04209541 -0.035726197 -0.023806505 -0.047207564 0.04771048
0.05587481 -0.03824449 -0.03909835 0.056604095 -0.02781474 0.05026954 0.05165238 -0.027631842
-0.048304036 -0.030173674 0.035041727 -0.035823222 -0.0524927 0.039859734 0.031250972 0.05220659
-0.040101815 0.027326891 0.009753109 0.04086568 -0.002651086 0.024902659 -0.02195922 -0.054248933
-0.021788502 -0.04102676 -0.049215537 0.030435964 0.03040184 0.045122594 0.016086962 -0.0006100028
0.028340567 0.04414818 0.004129237 -0.053530503 0.01993123 0.035548028 -0.039462022 0.04274146
-0.038524188 0.03389764 0.049362663 -0.032493416 0.011992172 -0.03483992 0.035361506 -0.016981833
0.02248073 -0.018389827 -0.0057464917 0.011225159 -0.01253004 0.036442965 -0.031827725 0.005858897
0.035671405 0.01708634 0.03475321 0.02441382 0.0270855 0.02841369 0.006845187 -0.030599942
-0.004341322 -0.024772013 0.0013333695 0.0459188 -0.01560737 -0.039741233 -0.020563174 -0.054677114
0.029448027 -0.05209653 0.0301934 0.00014065558 0.022442264 -0.0527692 -0.00020678042 0.0412261
-0.035383705 -0.029749643 0.012734405 0.0039412403 -0.04479193 -0.041785996 -0.048987728 0.0016055193
0.008800639 0.03727112 -0.010362806 0.040393002 0.027735833 0.01357584 -0.023071144 -0.041772664
0.058782093 0.02420254 0.03172369 0.0132439155 -0.051189065 -0.010528939 -0.043874417 0.0026430103
-0.04173613 -0.033572055 0.02444746 -0.025331615 0.04061862 0.010435403 0.006887137 0.044355538
0.007596818 0.029896442 -0.04346092 -0.02651781 -0.052497316 -0.044106703 -0.0037794865 0.017411401
0.035057936 0.0057234857 -0.031832576 -0.020489447 -0.012984162 -0.01994137 0.055850457 0.0140471645
0.038895473 0.032773707 -0.04889895 0.023655549 -0.03273499 0.024278967 -0.010390411 0.015315286
0.0008371032 -0.03621631 0.0251365 0.0026514272 -0.004900324 0.019266013 0.008762551 0.032351535
0.043220263 -0.025803057 0.038516764 -0.03939895 0.066872776 0.008147852 0.05125004 -0.0159142
0.039766386 -0.031927977 0.05647821 0.034145236 -0.027746132 0.029630858 0.0474302 0.06255739
00000000: b663 a83c 3d41 84bc f8cd 5fbd db7e 4c3d
00000010: 1b8a f13c dfb0 c5bb 7805 92bc a049 69bc
00000020: 6031 afbc 1f83 98ba fa96 143d 7499 d3bc
00000030: c8cb fa3c 1d87 0bbc f431 83bb ddc5 333d
00000040: 451f 593c 3fa9 fa3c 76ea d2bc 1401 463b
00000050: 79fe 303c a972 2d3c 8dc5 25bc 54e3 97ba
00000060: b5cc 44bd 9d3d 60bc e1e5 033d 93f5 e43c
00000070: ea8c 63bc 65a7 ca3c 2184 2dbd 0f2e 32bd
00000080: 8696 07bd 6f40 7cbc 9542 12bd 403a 41bc
00000090: 8add d03b a903 4dbd 5a7b ee3c 46c5 dbbc
000000a0: 21e1 2a3d 18eb 313d 122e e0bc 3768 4e3d
000000b0: 5bba e03b 15f9 b5bc a40c 14bd 6546 bbba
000000c0: 2ed6 243d dba4 ae3c 261c f1bc cd6a 30bd
000000d0: 37b4 e33a e0ee 1b3d 03c1 1c3d e65d ae3b
000000e0: 05d3 3ebd c69a b73c 456a 513d a550 ddbc
000000f0: 0ec8 6e3d 6e34 493d 9238 ee3c 478f a6bc
00000100: 65f7 063d 1039 8bbc dc62 e8bc a487 493d
00000110: a639 463c e59f 9b3c cb43 0dbc 7a44 f5bc
00000120: 9e4c 82bc 2f28 623c 6fd2 84bc e3e9 ef3c
00000130: 4f20 4cbc 3113 213c 9187 15bd 14e5 583c
00000140: 4d87 833c 5b2b 43bc 4afb 3bbd 1f13 1cbd
00000150: b287 253d 7f9e b13c 91b7 b8bc d227 4a3d
00000160: 7dfa fb3c cd2a d63c 0173 4a3d 3d6c 2c3d
00000170: a255 12bd dc05 c3bc b85c 41bd 106c 433d
00000180: fcdc 643d 41a6 1cbd 9725 20bd b2d9 673d
00000190: bddb e3bc 6fe7 4d3d 7291 533d 2c5c e2bc
000001a0: 74da 45bd c82e f7bc ea87 0f3d 5fbb 12bd
000001b0: 9602 57bd f643 233d 0501 003d 94d6 553d
000001c0: cd41 24bd a5dc df3c 81cb 1f3c c562 273d
000001d0: d8bd 2dbb a900 cc3c d2e3 b3bc 2134 5ebd
000001e0: cd7d b2bc ad0b 28bd 3b96 49bd d854 f93c
000001f0: 480d f93c 78d2 383d cec8 833c 98e8 1fba
00000200: 7a2a e83c b9d4 343d 8d4e 873b cd42 5bbd
00000210: d246 a33c cf9a 113d eea2 21bd ab11 2f3d
00000220: 8acb 1dbd 40d8 0a3d 8130 4a3d d117 05bd
00000230: d17a 443c 4eb4 0ebd 3ad7 103d 7c1d 8bbc
00000240: 8229 b83c 43a6 96bc 114d bcbb bbe9 373c
00000250: cc4a 4dbc 3845 153d ca5d 02bd fefb bf3b
00000260: 2e1c 123d a7f8 8b3c 6259 0e3d 7eff c73c
00000270: 69e2 dd3c d4c3 e83c 974d e03b bbac fabc
00000280: a641 8ebb adee cabc 75c4 ae3a 5a15 3c3d
00000290: 0eb6 7fbc b4c7 22bd 1a74 a8bc 1cf5 5fbd
000002a0: fd3c f13c 2c63 55bd 2658 f73c f27c 1339
000002b0: d7d8 b73c 8424 58bd 32d3 58b9 b3dc 283d
000002c0: 81ee 10bd 86b5 f3bc f7a3 503c 8525 813b
000002d0: be77 37bd cb27 2bbd 5ba7 48bd 4a70 d23a
000002e0: 8e30 103c 9aa9 183d c2c8 29bc 2273 253d
000002f0: 4236 e33c 336d 5e3c b2ff bcbc d019 2bbd
00000300: 7ec5 703d 6844 c63c b3f0 013d 02fd 583c
00000310: a0ab 51bd 9281 2cbc a9b5 33bd 5b36 2d3b
00000320: 81f3 2abd da82 09bd 0a46 c83c 3f84 cfbc
00000330: b65f 263d 41f9 2a3c 7ead e13b 27ae 353d
00000340: baee f83b 62e9 f43c 1404 32bd e13b d9bc
00000350: 6d07 57bd 3ba9 34bd 43b1 77bb 5ba2 8e3c
00000360: e998 0f3d 148c bb3b e062 02bd 7cd9 a7bc
00000370: 86bb 54bc 155c a3bc 73c3 643d 1426 663c
00000380: dc50 1f3d b93d 063d 444a 48bd 48c9 c13c
00000390: 2015 06bd afe4 c63c 8b3c 2abc f7ec 7a3c
000003a0: 0b71 5b3a 8e57 14bd 10eb cd3c 91c3 2d3b
000003b0: e692 a0bb c2d3 9d3c cd90 0f3c 0b83 043d
000003c0: bb07 313d ef60 d3bc c1c3 1d3d cb60 21bd
000003d0: 98f4 883d 917e 053c 90eb 513d 7f5e 82bc
000003e0: 14e2 223d e9c6 02bd b255 673d e0db 0b3d
000003f0: db4b e3bc 6abc f23c 2b46 423d 171e 803d

module.conv_5.bias f4 [12]
-0.049180776 0.016161118 0.040594466 -0.02439765 0.02319845 0.007893989 0.03532146 0.058086388
-0.03842142 0.012959614 0.016330106 0.012880524
00000000: c871 49bd 5264 843c 6246 263d 95dd c7bc
00000010: ad0a be3c ca55 013c 3cad 103d feeb 6d3d
00000020: c75f 1dbd 9054 543c b7c6 853c d508 533c

module.conv_6.weight f4 [12, 12, 3, 3, 3]
0.015225877 -0.044359088 -0.0054846066 -0.011887046 0.026356002 -0.006810277 -0.0128128305 -0.050219852
0.04686137 0.04069267 -0.022932217 -0.04129638 -0.05428696 -0.0083966665 0.01703782 -0.055640813
-0.01664988 -0.011865843 -0.03910339 0.005813039 0.03635053 -0.023553034 -0.007804685 0.04708868
-0.040429775 -0.020786652 0.009911873 0.05492198 0.022134852 -0.023556827 0.02281112 -0.03641611
-0.037418228 0.002085414 0.02176697 0.057796553 -0.047566906 0.03142563 -0.00040257836 0.007823873
0.0006265221 0.04909911 -0.04498238 0.028416794 -0.04420336 0.039964035 0.013068165 -0.037030157
-0.02988572 0.02564594 0.06342281 0.021521328 0.013884498 -0.016473902 0.050525513 -0.0070237755
-0.04225115 -0.0049783136 0.05454402 0.048363093 -0.048940282 -0.008836055 -0.0023714409 -0.0038870412
0.027687361 0.008151855 0.02887535 -0.03864704 0.06656038 -0.035539072 0.045933463 0.053436667
0.00269339 0.020139923 0.046516813 -0.029843016 0.009839423 0.0027019766 0.031766307 -0.04667406
0.058018383 0.0008026019 0.020778373 -0.04441803 0.015801063 -0.023471488 -0.024225788 0.03334389
-0.03923798 -0.021249793 0.00947364 -0.0048463843 0.03083443 0.026365131 0.041994054 0.05317895
-0.03338354 0.0148272505 0.030618137 -0.003877751 -0.02942479 0.049961038 -0.010487289 0.042259086
0.051844105 0.04081993 -0.010649887 0.010706452 0.03702658 -0.028875533 -0.00025402327 -0.0029546318
-0.05152859 -0.04826841 0.010202995 0.004303884 -0.015987959 0.011616876 0.023647798 -0.026291214
-0.011916343 0.025766425 -0.049362205 -0.021999706 0.0126985395 -0.04263444 0.0025912053 0.03470282
0.027383462 -0.021925353 -0.0033640622 -0.0030876994 -0.012741914 0.006893952 0.031036867 -0.04026163
-0.014860974 -0.0062380875 -0.046170086 -0.006913912 0.005593085 -0.014984389 0.050315294 0.0039203446
-0.027352791 -0.04391053 -0.012943685 0.060590856 -0.037080888 -0.043404866 0.0025452133 0.035667695
0.06196856 -0.04900029 0.057836156 0.0013876923 -0.03495999 -0.007883264 -0.0329725 0.025538541
-0.008616613 0.032264326 -0.0054479023 0.047219567 0.006755942 0.0098593095 0.023584899 0.010158054
-0.019931499 0.03970159 0.044022065 0.0031368416 -0.00856394 0.025262436 0.008636985 0.025920367
0.04140822 0.0054965424 -0.00488955 -0.048802704 0.047881126 -0.03679323 -0.049693726 -0.024124457
0.025416613 -0.005822924 -0.0100188665 0.0070721926 -0.0006776805 0.035628967 0.015086326 0.062461916
0.028589137 0.0032716994 0.019823644 0.04709182 0.056760106 0.0372951 -0.049542718 0.0061606984
0.04596943 -0.057091344 -0.038755532 0.025843278 -0.023792554 -0.04373095 0.038635366 -0.039749444
0.034851052 -0.0077966703 -0.027660087 -0.041911583 -0.01329563 -0.054785967 -0.008646067 -0.026114088
-0.023581628 -0.0017916209 0.034185503 -0.02001665 0.03304296 0.020770079 -0.05107764 0.03331029
0.003682749 0.05094473 0.050099045 -0.02727505 -0.022360023 -0.036000296 -0.028647507 0.0040357197
0.02571861 0.03363701 -0.0053268257 0.049781542 -0.0048698154 -0.041249953 -0.036315564 -0.020531233
0.05098996 -0.017978875 -0.044757947 0.02554439 0.023515698 -0.0017718682 0.031578906 0.00043948673
-0.016558148 -0.029148564 -0.013429881 -0.048552778 -0.043062516 -0.040979557 0.035550166 0.057446267
00000000: f575 793c e0b1 35bd 37b8 b3bb e2c1 42bc
00000010: 8be8 d73c be28 dfbb e8ec 51bc 55b3 4dbd
00000020: b5f1 3f3d 5bad 263d 58dc bbbc 6526 29bd
00000030: 015c 5ebd 2c92 09bc e692 8b3c 9fe7 63bd
00000040: 5465 88bc f468 42bc e02a 20bd 4e7b be3b
00000050: 4be4 143d 4bf2 c0bc 71be ffbb 0fe0 403d
00000060: b199 25bd c548 aabc 6965 223c dff5 603d
00000070: 2654 b53c 3ffa c0bc 63de ba3c 0f29 15bd
00000080: db43 19bd 71ab 083b a550 b23c 14bc 6c3d
00000090: 84d5 42bd 29b8 003d 2711 d3b9 b42f 003c
000000a0: 303d 243a 261c 493d 723f 38bd 56ca e83c
000000b0: 950e 35bd 54b1 233d db1b 563c efac 17bd
000000c0: e6d2 f4bc 6f17 d23c d1e3 813d 7f4d b03c
000000d0: ce7b 633c 47f4 86bc d7f3 4e3d b327 e6bb
000000e0: 8b0f 2dbd 1f21 a3bb 8d69 5f3d 6118 463d
000000f0: 9b75 48bd 1ac5 10bc 2d6a 1bbb bbbd 7ebb
00000100: 9bd0 e23c 5c8f 053c ff8b ec3c 5c4c 1ebd
00000110: cf50 883d 6b91 11bd ba24 3c3d 68e0 5a3d
00000120: 9683 303b 7bfc a43c 6a88 3e3d 5779 f4bc
00000130: 8835 213c a513 313b 631d 023d 4d2d 3fbd
00000140: afa4 6d3d b465 523a 6837 aa3c aeef 35bd
00000150: 3b71 813c 4747 c0bc 2975 c6bc 9a93 083d
00000160: 01b8 20bd 0c14 aebc 5337 1b3c 6bce 9ebb
00000170: 7d98 fc3c b0fb d73c f501 2c3d 2cd2 593d
00000180: 2ebd 08bd ffed 723c e3d2 fa3c de21 7ebb
00000190: 420c f1bc f2a3 4c3d e1d2 2bbc dd17 2d3d
000001a0: 7c5a 543d cd32 273d dd7c 2ebc 1d6a 2f3c
000001b0: 2fa9 173d 628c ecbc 6d2e 85b9 7fa2 41bb
000001c0: a50f 53bd 19b5 45bd 762a 273c 9907 8d3b
000001d0: 2ef9 82bc b654 3e3c 07b9 c13c ac60 d7bc
000001e0: c43c 43bc 1c14 d33c 0630 4abd ba38 b4bc
000001f0: 890d 503c 73a1 2ebd 36d1 293b 8b24 0e3d
00000200: 4853 e03c cc9c b3bc 9977 5cbb 005b 4abb
00000210: 76c3 50bc a9e6 e13b 0741 fe3c 61e9 24bd
00000220: 717b 73bc df68 ccbb d81c 3dbd 198e e2bb
00000230: 3346 b73b 1581 75bc 6917 4e3d 3c76 803b
00000240: f612 e0bc 87db 33bd c011 54bc 1e2e 783d
00000250: 21e2 17bd 4dc9 31bd 98cd 263b 4a18 123d
00000260: bfd2 7d3d 87b4 48bd 9be5 6c3d 3ae3 b53a
00000270: 3532 0fbd ce28 01bc 2c0e 07bd 3436 d13c
00000280: b22c 0dbc 9927 043d 5184 b2bb 4e69 413d
00000290: f360 dd3b f188 213c 1e35 c13c f76d 263c
000002a0: 6247 a3bc 229e 223d 7b50 343d 7893 4d3b
000002b0: c54f 0cbc 2bf3 ce3c 2482 0d3c f356 d43c
000002c0: aa9b 293d 571c b43b 8538 a0bb 58e5 47bd
000002d0: 001f 443d 7fb4 16bd a68b 4bbd a7a0 c5bc
000002e0: 8036 d03c 3ace bebb 2c26 24bc dabd e73b
000002f0: 5ea6 31ba aeef 113d a32c 773c 11d8 7f3d
00000300: c433 ea3c 026a 563b 3265 a23c 5ae3 403d
00000310: 497d 683d bfc2 183d 4eed 4abd afdf c93b
00000320: 714a 3c3d 9dd8 69bd 1fbe 1ebd 48b5 d33c
00000330: 9ae8 c2bc 3a1f 33bd 1e40 1e3d 50d0 22bd
00000340: fabf 0e3d 367b ffbb 6897 e2bc 7bab 2bbd
00000350: ead5 59bc 4067 60bd 3ca8 0dbc 36ed d5bc
00000360: 422e c1bc d2d4 eaba 1906 0c3d f5f9 a3bc
00000370: 0e58 073d 0326 aa3c ca36 51bd 5f70 083d
00000380: 475a 713b 6cab 503d a834 4d3d ed6f dfbc
00000390: 5e2c b7bc 0c75 13bd 2dae eabc 123e 843b
000003a0: d6af d23c f6c6 093d a78c aebb bbe7 4b3d
000003b0: f992 9fbb b6f5 28bd a1bf 14bd 1e31 a8bc
000003c0: d9da 503d 6f48 93bc 1c54 37bd 7842 d13c
000003d0: fea3 c03c 083e e8ba e258 013d e96a e639
000003e0: f4a4 87bc f8c8 eebc 0109 5cbc 47df 46bd
000003f0: 5262 30bd 2eda 27bd 0d9d 113d c74c 6b3d

module.conv_6.bias f4 [12]
-0.0005036766 -0.047778815 0.04235776 -0.0288526 -0.0033210183 0.022585178 0.043265183 0.037799962
0.022756765 0.0268281 -0.03553876 0.009141897
00000000: 2a09 04ba b8b3 43bd 557f 2d3d 4a5c ecbc
00000010: 71a5 59bb 8d04 b93c d536 313d 22d4 1a3d
00000020: 656c ba3c 9bc6 db3c 1791 11bd e5c7 153c

module.conv_7.weight f4 [56, 12, 1, 1, 1]
-0.14641 0.24849264 -0.100415386 0.32214177 0.006083324 -0.09135383 0.29606697 0.005523312
0.07471769 0.043269638 0.034449358 -0.10625064 -0.26616582 0.21635772 0.041699357 0.19716033
0.025079874 0.20955262 -0.02331609 -0.27816418 0.17395969 -0.1849827 0.014920022 0.18321402
0.22567816 -0.027385443 0.087242685 0.16082884 0.08555907 0.2302076 -0.24614188 -0.23277062
0.111250706 0.32209015 -0.10339176 -0.02381192 -0.24537614 0.22718412 0.19596891 0.1554167
-0.1197622 0.13288596 0.14808798 0.1829938 -0.003977748 -0.25782597 0.29915363 -0.13365927
-0.012355455 -0.18520881 -0.16924003 -0.048282202 -0.12254592 0.13506031 0.0447685 -0.0042785723
-0.1863215 0.1771862 0.19847028 -0.15399161 -0.27921104 -0.2880862 0.12958424 0.044042733
-0.2887038 0.053238083 -0.19709384 -0.28592566 0.21797764 -0.008313048 -0.16569681 0.08155254
0.13472436 0.12958698 0.0391871 0.14145206 0.2739744 0.22151753 -0.15984008 0.23002727
-0.09372211 -0.32283875 -0.14430879 0.0057534114 0.008845739 -0.08225217 -0.19530892 0.041463148
0.20509182 0.10962535 0.19329172 -0.3148333 -0.13429697 -0.24828185 -0.3126881 0.1939548
0.20093867 -0.17266698 -0.28338513 -0.039977476 -0.06151375 -0.040695265 0.20498578 0.13185897
-0.082853176 -0.30742598 0.20563811 0.27304667 0.123535335 -0.07956443 -0.03350801 0.13653389
-0.27870607 -0.32306588 -0.042430643 -0.22082004 0.06551012 0.09170511 0.092524074 0.21889152
-0.16720271 -0.10985384 -0.21496984 -0.07081516 0.08508857 0.11697223 -0.16528668 0.09554578
-0.1404398 -0.10305606 0.027204076 -0.12675631 0.042865653 -0.18340395 0.2864554 0.107825495
-0.07767306 -0.17463182 -0.15151387 0.097605005 0.24960671 0.2831695 0.19027552 -0.05289678
0.17845471 0.18407722 0.11676665 0.0025742855 0.18050946 0.019165393 -0.067108504 0.21614173
-0.0019309727 -0.10681673 0.1777785 -0.2684641 -0.18504404 -0.056352958 -0.2580176 -0.0794284
-0.1976423 0.12242658 0.12082491 0.14435872 -0.12360287 0.19946659 -0.21900798 -0.16140763
0.08360098 0.1310533 -0.053563233 -0.20992148 0.00052382215 -0.001852549 -0.15883398 0.04472933
-0.07459941 -0.31592935 -0.23777063 0.12557241 0.13388024 -0.11938954 0.22186317 0.07188236
-0.12247171 -0.22084817 -0.01609834 0.026101293 0.11670691 0.05934783 0.04961135 0.18759805
0.18176933 0.1431625 0.036630712 0.28439152 0.27062225 -0.24939983 -0.10931769 -0.25410554
0.1726143 0.15050778 -0.12393404 0.09801543 -0.016434034 0.16913116 0.16672523 0.27598155
-0.114887565 -0.15263882 -0.18334416 0.20628385 -0.22923578 -0.17948486 0.20754735 0.10196583
0.21256772 0.065722086 0.28262016 0.015584103 0.096383005 -0.08595168 0.20560661 -0.080212615
-0.2951381 -0.27847058 -0.26004145 0.0047339783 0.06674221 0.23133029 -0.029751286 -0.22710225
-0.13967787 0.01628294 -0.1780044 0.05987697 0.22035265 -0.15060183 -0.22640371 0.24999516
-0.048854142 -0.23871343 -0.09293875 0.029922754 -0.078207865 -0.2779345 0.2040878 0.06618463
0.08241053 0.26041195 -0.20704155 0.09096153 -0.21698931 0.24047731 -0.06929492 0.26423174
00000000: 81ec 15be db74 7e3e 95a6 cdbd c4ef a43e
00000010: 9f56 c73b b817 bbbd 1796 973e e6fc b43b
00000020: 9705 993d 813b 313d c51a 0d3d ef99 d9bd
00000030: e346 88be e18c 5d3e f2cc 2a3d 66e4 493e
00000040: 4f74 cd3c f694 563e 6301 bfbc 896b 8ebe
00000050: 7d22 323e 1b6c 3dbe 1c73 743c 759c 3b3e
00000060: 2d18 673e 7057 e0bc 4bac b23d 51b0 243e
00000070: 9839 af3d 8bbb 6b3e 9e0c 7cbe 6c5b 6ebe
00000080: 69d7 e33d 00e9 a43e 0fbf d3bd 3711 c3bc
00000090: e243 7bbe f4a2 683e 13ac 483e 8e25 1f3e
000000a0: e245 f5bd 4213 083e 60a4 173e ba62 3b3e
000000b0: c557 82bb c401 84be aa2a 993e fadd 08be
000000c0: 896e 4abc 61a7 3dbe 424d 2dbe 8fc3 45bd
000000d0: 5bf9 fabd 404d 0a3e 2d5f 373d 4433 8cbb
000000e0: 10cb 3ebe 4d70 353e cb3b 4b3e faaf 1dbe
000000f0: c0f4 8ebe 0980 93be bbb1 043e 2766 343d
00000100: fcd0 93be 2d10 5a3d f8d2 49be d964 92be
00000110: 8835 5f3e 7333 08bc 6dac 29be 0505 a73d
00000120: 2ff5 093e 73b2 043e a782 203d cfd8 103e
00000130: 5f46 8c3e 7ed5 623e 1ead 23be 458c 6b3e
00000140: 61f1 bfbd 1f4b a5be afc5 13be 1d87 bc3b
00000150: b8ed 103c d373 a8bd 10ff 47be 43d5 293d
00000160: 9703 523e 4183 e03d 44ee 453e d531 a1be
00000170: 2585 09be 993d 7ebe a818 a0be 169c 463e
00000180: dec2 4d3e 9dcf 30be db17 91be 6cbf 23bd
00000190: d8f5 7bbd 14b0 26bd cbe7 513e 0a06 073e
000001a0: edae a9bd f066 9dbe cc92 523e c6cc 8b3e
000001b0: 1800 fd3d adf2 a2bd b23f 09bd 8acf 0b3e
000001c0: 90b2 8ebe e468 a5be c1cb 2dbd a61e 62be
000001d0: 2b2a 863d e4cf bb3d 437d bd3d 1925 603e
000001e0: 3037 2bbe 0dfb e0bd 0e21 5cbe 8a07 91bd
000001f0: eb42 ae3d 238f ef3d e940 29be 82ad c33d
00000200: 73cf 0fbe 0e0f d3bd 15db de3c 68cc 01be
00000210: e593 2f3d 3fce 3bbe 48aa 923e 9dd3 dc3d
00000220: 0e13 9fbd afd2 32be 7426 1bbe 22e5 c73d
00000230: e798 7f3e 98fb 903e 96d7 423e 4baa 58bd
00000240: d5bc 363e bd7e 3c3e 5a23 ef3d 58b5 283b
00000250: 79d7 383e be00 9d3c 2f70 89bd 4254 5d3e
00000260: b118 fdba bbc2 dabd 910b 363e 2074 89be
00000270: 2f7c 3dbe 5cd2 66bd e21a 84be 5bab a2bd
00000280: be62 4abe c9ba fa3d 0d73 f73d c6d2 133e
00000290: 8023 fdbd f840 4c3e a143 60be 0b48 25be
000002a0: fe36 ab3d d632 063e 1f65 5bbd a8f5 56be
000002b0: 1c51 093a 3bd1 f2ba 60a5 22be 1a36 373d
000002c0: 93c7 98bd 7ec1 a1be 257a 73be 0e96 003e
000002d0: e717 093e 8182 f4bd 1930 633e 0f37 933d
000002e0: 73d2 fabd 0626 62be aae0 83bc 61d2 d53c
000002f0: 0804 ef3d b616 733d 4535 4b3d b419 403e
00000300: bd21 3a3e 3199 123e 160a 163d c49b 913e
00000310: 008f 8a3e ab62 7fbe f4e1 dfbd 1f1a 82be
00000320: cec1 303e b61e 1a3e 21d1 fdbd 50bc c83d
00000330: aba0 86bc b830 2d3e 05ba 2a3e 744d 8d3e
00000340: 2c4a ebbd 5a4d 1cbe 92be 3bbe 133c 533e
00000350: c9bc 6abe e1ca 37be 4b87 543e 76d3 d03d
00000360: 5aab 593e 4d99 863d 97b3 903e 7754 7f3c
00000370: 7464 c53d 6f07 b0bd 8a8a 523e 8346 a4bd
00000380: 571c 97be b293 8ebe 2724 85be 7d1f 9b3b
00000390: 24b0 883d d9e1 6c3e f8b8 f3bc 7e8d 68be
000003a0: b707 0fbe cd63 853c c946 36be 8e41 753d
000003b0: 20a4 613e 5e37 1abe 60d6 67be bbfe 7f3e
000003c0: 481b 48bd 4b71 74be ac56 bebd 9020 f53c
000003d0: 722b a0bd 6e4d 8ebe 64fc 503e cf8b 873d
000003e0: dac6 a83d b754 853e b302 54be 0a4a ba3d
000003f0: 7232 5ebe af3f 763e 7fea 8dbd 6249 873e

module.conv_7.bias f4 [56]
-0.18851556 0.04648421 -0.14609309 -0.09224952 -0.25997707 0.2534295 0.25242853 0.22034301
0.19317435 0.2423689 0.18197809 -0.16513546 0.020422036 -0.26982683 0.210418 0.07182483
-0.12909918 -0.12689693 -0.015587466 -0.27441764 0.15170394 -0.15290692 0.21727574 0.05917087
0.09745323 -0.25267732 0.11205891 0.018189503 -0.16478126 0.20388402 -0.15872158 0.2380908
0.045222998 0.092575215 -0.04695518 0.04857124 0.1034238 -0.06881821 0.16845216 0.2369781
-0.05352784 0.13118437 -0.1925186 0.013540948 -0.18352284 -0.2606365 -0.1176283 -0.13027334
0.14913377 0.1508273 -0.105870605 -0.21429598 0.18611786 0.014054855 -0.05291218 -0.24154346
00000000: 390a 41be 3a66 3e3d 6d99 15be 51ed bcbd
00000010: b71b 85be 83c1 813e 503e 813e 99a1 613e
00000020: 7fcf 453e 8e2f 783e 7758 3a3e 4519 29be
00000030: 1d4c a73c be26 8abe d177 573e e518 933d
00000040: 9332 04be 45f1 01be 9262 7fbc 7880 8cbe
00000050: 4758 1b3e a293 1cbe 887d 5e3e 275d 723d
00000060: 8f95 c73d ec5e 81be 247f e53d 2702 953c
00000070: 6bbc 28be f9c6 503e e987 22be 13ce 733e
00000080: c03b 393d 1398 bd3d 1354 40bd a3f2 463d
00000090: dbcf d33d 90f0 8cbd b97e 2c3e 63aa 723e
000000a0: 0240 5bbd 3255 063e 9923 45be dada 5d3c
000000b0: 69ed 3bbe 2672 85be 1be7 f0bd 6066 05be
000000c0: 86b6 183e 7972 1a3e b0d2 d8bd 6870 5bbe
000000d0: ae95 3e3e 5646 663c 71ba 58bd 2b57 77be
