models/FSRCNN3D_checkpoint_epoch_40.pth (torch, 799402 bytes, 45 tensors)

module.conv_1.weight f4 [56, 1, 5, 5, 5]
-0.0122663705 -0.024024123 -0.050116114 0.064464495 -0.072447255 0.005305967 0.08393073 0.019940708
-0.007361871 0.036044154 0.038801886 0.053338673 -0.031757604 0.042999495 0.06797608 0.045311313
0.06411222 -0.004170909 0.018333565 0.079104826 0.014505538 0.07161635 0.09175938 0.07810681
-0.06936189 0.0016273673 -0.0192511 0.083522305 0.02314516 0.03220388 -0.036423497 -0.01300692
-0.05984896 0.08077351 0.0816462 0.015196697 0.07906847 -0.092019424 0.05924101 -0.027585898
0.0012120997 0.04142996 0.060967825 0.08204578 0.050841145 -0.03451966 0.04320415 -0.0111580575
-0.01549858 -0.037897445 -0.07544664 0.0850387 -0.03266701 -0.069716476 0.041330002 -0.059361603
-0.07894665 0.059835915 -0.0886396 0.03158459 0.05133786 -0.0623388 -0.106466584 -0.03348176
-0.022408139 -0.0023137962 0.03824133 -0.026588729 0.04799865 -0.06611062 0.09126006 0.08453984
0.020678151 0.08071591 0.018562172 -0.045586623 0.03392621 0.08632887 0.068003885 -0.02799934
0.0025826362 0.007466062 0.055666212 0.010566667 0.08193675 -0.08902479 -0.100276835 0.015078748
-0.065295584 0.06458891 0.0060434323 -0.036268156 0.061952632 -0.041790858 -0.059116375 -0.06795518
0.08260356 -0.012503418 -0.008298947 -0.050570674 -0.0045849304 -0.0022516835 0.016352447 0.026104666
0.024449077 0.057784367 0.011243695 -0.06668368 -0.008586786 0.056826737 0.07355316 -0.020658039
-0.052793242 -0.026632858 -0.007836798 -0.032230616 -0.07908919 -0.063271314 0.02546884 -0.023819953
0.05991162 0.08577173 0.0071696723 0.012438576 0.07297573 -0.07155183 0.0011662215 -0.043692276
-0.01442608 -0.074300274 0.004009883 0.07988029 -0.03554634 0.08827549 -0.018043183 0.019092124
0.02594965 0.074426964 0.06605314 0.093107514 0.057597797 -0.03729752 0.025047641 -0.058650125
0.033279695 -0.063014545 -0.019081004 -0.0071382485 0.084022045 -0.060996223 -0.0021963452 -0.017835313
0.0894365 0.053422518 -0.04901147 -0.086981535 -0.06852867 -0.008498537 0.052760154 0.0005950378
0.019241225 0.053611413 -0.04313318 -0.015650462 -0.07498261 0.08297228 -0.0010074764 -0.0069737285
-0.041277144 0.08352647 -0.010665134 -0.081593916 -0.084367186 0.027440961 -0.052352227 0.057471808
-0.05484944 0.044890407 -0.059104353 -0.08077516 -0.0242851 -0.011974187 -0.05040494 0.025886554
0.035508633 -0.038878325 0.031186294 0.061907995 0.047902532 0.06799994 0.065151215 -0.023345128
0.052472204 -0.026897883 0.073625594 0.015720928 0.0065994374 0.06734697 -0.009072769 -0.069978654
0.083872125 -0.050614566 0.076028235 -0.059394903 -0.032008003 -0.03593866 -0.086803906 -0.031806204
0.060730457 -0.06278139 -0.023664776 0.08373417 -0.045084205 -0.038952205 -0.047057766 0.013151378
-0.051852185 0.057230204 -0.04814733 0.04130154 -0.014621223 -0.025470652 -0.0711899 0.025787184
-0.02119347 0.08291764 0.025688082 -0.07600773 0.059423454 0.05258734 0.08612635 0.08825601
-0.030088475 0.08312308 0.054198675 0.040309213 0.0695245 -0.027235122 0.062982924 -0.058781862
0.09230553 -0.033939593 -0.05051346 0.08139971 -0.048581302 -0.044762593 -0.0014254157 0.030628365
0.01463454 -0.063072234 0.055316407 0.01603746 0.0015806556 -0.05048467 0.06486409 -0.051678635
00000000: e3f8 48bc 3dce c4bc 8e46 4dbd f605 843d
00000010: 3a5f 94bd addd ad3b e0e3 ab3d b25a a33c
00000020: da3b f1bb 09a3 133d baee 1e3d a779 5a3d
00000030: 4314 02bd 3d20 303d 0b37 8b3d 5b98 393d
00000040: 454d 833d 1fac 88bb 4630 963c b601 a23d
00000050: a3a8 6d3c 98ab 923d 58ec bb3d 77f6 9f3d
00000060: 9b0d 8ebd 634d d53a 7cb4 9dbc be0d ab3d
00000070: eb9a bd3c 37e8 033d ce30 15bd fa1a 55bc
00000080: 2f24 75bd 956c a53d 1f36 a73d 91fb 783c
00000090: a6ee a13d ae74 bcbd b4a6 723d d2fb e1bc
000000a0: 51df 9e3a 76b2 293d 66b9 793d 9e07 a83d
000000b0: ce3e 503d 7d64 0dbd d6f6 303d 49d0 36bc
000000c0: c2ed 7dbc 5a3a 1bbd c583 9abd c528 ae3d
000000d0: d8cd 05bd 83c7 8ebd a649 293d 2725 73bd
000000e0: c8ae a1bd 8116 753d ae88 b5bd d85e 013d
000000f0: a647 523d f856 7fbd 270b dabd 2c24 09bd
00000100: 4691 b7bc 0fa3 17bb f1a2 1c3d 9bd0 d9bc
00000110: 3c9a 443d 0165 87bd 8ee6 ba3d 3923 ad3d
00000120: 3a65 a93c 624e a53d b20f 983c 0ab9 3abd
00000130: 36f6 0a3d 31cd b03d 9f45 8b3d df5e e5bc
00000140: 7241 293b dea5 f43b 4102 643d d01f 2d3c
00000150: 74ce a73d a152 b6bd f15d cdbd da0c 773c
00000160: b1b9 85bd 3147 843d fc07 c63b eb8d 14bd
00000170: 0bc2 7d3d e42c 2bbd 0324 72bd 162c 8bbd
00000180: 0e2c a93d 23db 4cbc 4ef8 07bc 3223 4fbd
00000190: 2f3d 96bb fb90 13bb 91f5 853c 74d9 d53c
000001a0: 6e49 c83c 4daf 6c3d 7a37 383c 7491 88bd
000001b0: 97af 0cbc 27c3 683d 0aa3 963d 0c3b a9bc
000001c0: ba3d 58bd 272d dabc ea65 00bc 4004 04bd
000001d0: 83f9 a1bd 6494 81bd 07a4 d03c 1022 c3bc
000001e0: e365 753d 17a9 af3d 92ef ea3b 2bcb 4b3c
000001f0: 4d74 953d c489 92bd e6db 983a acf6 32bd
00000200: 5d5b 6cbc be2a 98bd 5665 833b 4798 a33d
00000210: 0a99 11bd c8c9 b43d 4ccf 93bc 1667 9c3c
00000220: 5c94 d43c 2a6d 983d de46 873d 27af be3d
00000230: abeb 6b3d 49c5 18bd b630 cd3c 1d3b 70bd
00000240: 4a50 083d c50d 81bd c44f 9cbc f8e7 e9bb
00000250: c013 ac3d 2dd7 79bd 8ff0 0fbb 5d1b 92bc
00000260: 7c2a b73d 92d1 5a3d 40c0 48bd 6023 b2bd
00000270: c258 8cbd 733d 0bbc 081b 583d 50fc 1b3a
00000280: c69f 9d3c a497 5b3d 6bac 30bd 6635 80bc
00000290: 7c90 99bd 5fed a93d 4c0d 84ba e083 e4bb
000002a0: 3912 29bd ed0f ab3d d0bc 2ebc b61a a7bd
000002b0: b4c8 acbd decb e03c 4a6f 56bd 8f67 6b3d
000002c0: cea9 60bd 01df 373d 6817 72bd 726d a5bd
000002d0: 8cf1 c6bc 612f 44bc 6975 4ebd 0a10 d43c
000002e0: 8071 113d e13e 1fbd 667a ff3c 3d93 7d3d
000002f0: 7235 443d 8d43 8b3d 006e 853d 483e bfbc
00000300: 18ed 563d f358 dcbc 04c9 963d 2dc9 803c
00000310: 1840 d83b 35ed 893d f4a5 14bc f850 8fbd
00000320: 26c5 ab3d 3851 4fbd b1b4 9b3d 1248 73bd
00000330: d31a 03bd 6b34 13bd 3fc6 b1bd 3947 02bd
00000340: 80c0 783d 8893 80bd a2dc c1bc d27c ab3d
00000350: 37aa 38bd 598c 1fbd a5bf 40bd e178 573c
00000360: f562 54bd 386a 6a3d 2236 45bd ce2b 293d
00000370: db8d 6fbc d4a7 d0bc 03cc 91bd a53f d33c
00000380: ee9d adbc b9d0 a93d d06f d23c f1a9 9bbd
00000390: 0266 733d d365 573d 0363 b03d 91bf b43d
000003a0: 1b7c f6bc 6f3c aa3d 6eff 5d3d 461b 253d
000003b0: dc62 8e3d 311c dfbc 31fd 803d 40c5 70bd
000003c0: af0a bd3d 3e04 0bbd 34e7 4ebd e4b4 a63d
000003d0: 30fd 46bd fb58 37bd 04d5 baba 56e8 fa3c
000003e0: b6c5 6f3c 042c 81bd 7593 623d fe60 833c
000003f0: 002e cf3a 03c9 4ebd 77d7 843d faac 53bd

module.conv_1.bias f4 [56]
-0.010445825 0.037434783 0.050872095 -0.040433735 0.006969972 -0.05229474 0.07414572 -0.010066071
-0.03329071 0.10867399 0.0448306 0.016786575 -0.04899505 -0.055696923 0.054926243 0.01025706
0.057248287 -0.009361167 0.046937704 -0.06228032 0.046845496 0.04875141 0.058774326 -0.026683262
-0.049300306 0.0655587 0.004096784 0.010454342 -0.0713653 -0.04023754 0.09207499 0.067457125
0.07854395 0.037042346 0.0049522617 0.065037236 0.020127688 -0.065809436 0.10448695 -0.023330694
-0.01775981 0.07266662 0.046478417 0.05194958 0.034636673 -0.06752039 -0.0072381347 0.039627302
-0.06315875 -0.06435564 0.08681228 0.083023235 0.060531802 -0.07479432 -0.00039800754 -0.04482228
00000000: f724 2bbc 3755 193d 425f 503d d89d 25bd
00000010: 5d64 e43b 0233 56bd b6d9 973d 29ec 24bc
00000020: d75b 08bd 7890 de3d 4ba0 373d 0084 893c
00000030: 09af 48bd 7522 64bd 57fa 603d 3a0d 283c
00000040: 2e7d 6a3d 955f 19bc c041 403d a619 7fbd
00000050: 10e1 3f3d 8faf 473d 59bd 703d db96 dabc
00000060: 1eef 49bd a443 863d 513e 863b b048 2b3c
00000070: f827 92bd 1ed0 24bd d091 bc3d f626 8a3d
00000080: a7db a03d b7b9 173d 9546 a23b 3e32 853d
00000090: d2e2 a43c 19c7 86bd 41fd d53d 0320 bfbc
000000a0: 057d 91bc 3dd2 943d 2760 3e3d 15c9 543d
000000b0: 2fdf 0d3d 2148 8abd e02d edbb 3d50 223d
000000c0: 6059 81bd e4cc 83bd a3ca b13d 1608 aa3d
000000d0: 32f0 773d c42d 99bd abab d0b9 9197 37bd

module.conv_2.weight f4 [12, 56, 1, 1, 1]
0.0912209 0.071229555 0.030453693 -0.11331674 0.046356775 -0.052340914 -0.04427063 0.071656585
-0.13570029 0.18848713 -0.022883922 0.12910174 0.054251608 0.052558903 -0.019585283 0.09453851
-0.06502094 0.05810766 -0.05029686 -0.0265808 0.0027850566 0.14715451 0.13159528 -0.0632377
-0.08886831 -0.037004184 0.09007198 -0.042650253 -0.077889 -0.060438707 0.14268467 0.023171648
-0.0041410034 -0.27584973 0.14984645 0.20449564 -0.028090276 0.056072574 0.031306993 0.11734763
0.11447555 -0.006732511 0.06303318 0.0014088444 -0.086643934 0.02916855 0.02133527 0.1445526
0.06753855 0.093854524 0.06861507 -0.036333982 0.032905567 0.04516859 -0.085905656 0.06252361
0.13778609 -0.0038668297 -0.10263015 -0.13980392 -0.012372644 -0.023903787 0.05417151 0.115571134
-0.03678565 -0.022278933 0.1458216 0.07825956 -0.057214927 0.014882876 0.12551902 0.14012955
-0.12559968 0.1996596 -0.052730672 -0.06305224 0.008425746 -0.13218549 0.08887361 -0.021872377
-0.005530069 0.12263677 0.0020046495 -0.14794429 -0.022319458 -0.0004640082 -0.023206642 -0.015383524
0.19025141 0.036168195 0.08715977 -0.02333406 -0.12021616 0.027540382 -0.11812647 -0.06864921
-0.0533079 -0.11258175 0.07509385 0.0926536 0.039413635 -0.020021932 -0.05616046 0.09336257
-0.08894742 0.09204706 0.11468623 0.098099925 -0.017177483 -0.067163005 -0.034801684 0.0657682
-0.0077557326 -0.0070509845 -0.11554403 0.10095669 -0.06030279 -0.084687464 0.08703235 -0.10251528
0.12706994 -0.10416624 0.03806776 0.09910448 -0.022173313 -0.049392246 0.09079183 -0.07301146
0.048716385 -0.16410159 0.1241393 0.060895205 0.028812598 0.13196294 -0.15025689 0.060061935
-0.1437415 0.03420575 -0.0058154245 0.017103184 -0.064813934 0.050548084 0.052968822 0.048801504
-0.086256266 -0.08522793 -0.0776244 -0.016475715 -0.09851252 0.01842145 0.11505599 -0.01664699
-0.087375 -0.013285994 0.017938985 -0.062143106 0.07653062 0.0996592 0.03710421 -0.06307717
-0.1316726 0.13567378 0.012357707 -0.039854992 0.05596042 -0.06792836 0.13078327 -0.15110382
-0.03985157 -0.12291645 -0.12507862 -0.0008992585 0.015429226 -0.12252153 0.017258216 -0.09676715
-0.07301683 -0.06297334 0.08332329 -0.18849282 0.07921528 0.05592669 -0.008214955 -0.015163678
0.049170237 -0.04485605 -0.036580507 -0.117684074 0.09751362 0.12156097 -0.14315316 -0.11502901
-0.01045432 -0.016534518 -0.047513224 -0.011471886 -0.13012359 0.06912783 -0.069305345 -0.057284325
-0.052038252 0.03326639 -0.14794315 0.05284352 0.09886488 0.03151887 0.07151075 -0.14163056
0.08493379 -0.045546394 -0.0533412 0.116977625 0.13220096 -0.061382405 0.08992318 -0.03435767
0.01095899 0.031816624 0.0077030067 0.03120637 0.12271108 0.09611169 -0.012457494 -0.040455192
-0.012466708 -0.00263905 0.104801625 -0.031815276 -0.057362884 0.121101774 0.006847691 0.050155926
-0.035458546 -0.10355036 -0.032043032 -0.22359908 0.003702089 -0.066281416 -0.07193938 0.07422371
-0.11041777 -0.07990036 0.12598275 0.10721838 0.11988119 0.122889966 0.07867754 0.043649618
0.10270859 0.016306626 0.101237595 -0.014717786 -0.0895572 0.10548864 0.05866369 0.056509204
00000000: 06d2 ba3d cde0 913d 067a f93c 9b12 e8bd
00000010: 9ae0 3d3d 6d63 56bd 1f55 35bd b0c0 923d
00000020: 04f5 0abe c502 413e 1077 bbbc 3f33 043e
00000030: ef36 5e3d 0148 573d 5171 a0bc 689d c13d
00000040: b329 85bd 4c02 6e3d 1504 4ebd fabf d9bc
00000050: 7f85 363b acaf 163e eac0 063e c482 81bd
00000060: 9700 b6bd b391 17bd a977 b83d 08b2 2ebd
00000070: 4584 9fbd 948e 77bd ee1b 123e 78d2 bd3c
00000080: 41b1 87bb 2d3c 8dbe 5971 193e 4e67 513e
00000090: 941d e6bc 5bac 653d c33b 003d f453 f03d
000000a0: 2872 ea3d 659c dcbb 8a17 813d f9a8 b83a
000000b0: 6072 b1bd e2f2 ee3c 4ec7 ae3c 9905 143e
000000c0: a751 8a3d cd36 c03d 0f86 8c3d f1d2 14bd
000000d0: fdc7 063d b302 393d 4eef afbd 610c 803d
000000e0: cc17 0d3e a36a 7dbb c22f d2bd c228 0fbe
000000f0: a1b6 4abc e0d1 c3bc f2e2 5d3d 8fb0 ec3d
00000100: 8dac 16bd 4f82 b6bc 4252 153e 8c46 a03d
00000110: 335a 6abd 4ed7 733c 0f88 003e 1f7e 0f3e
00000120: 349d 00be 9173 4c3e 1efc 57bd 8821 81bd
00000130: 240c 0a3c a25b 07be 5e03 b63d b32d b3bc
00000140: 9535 b5bb fd28 fb3d 7060 033b b57e 17be
00000150: 4cd7 b6bc 2046 f3b9 db1b bebc 2d0b 7cbc
00000160: 44d1 423e 1a25 143d d280 b23d 1227 bfbc
00000170: e433 f6bd 5e9c e13c 4aec f1bd f597 8cbd
00000180: 6259 5abd 4391 e6bd ceca 993d 2cc1 bd3d
00000190: 3170 213d 0905 a4bc 8308 66bd e034 bf3d
000001a0: 112a b6bd 2b83 bc3d 9de0 ea3d 9de8 c83d
000001b0: cbb7 8cbc c28c 89bd 368c 0ebd 7ab1 863d
000001c0: cd23 febb f20b e7bb 59a2 ecbd 62c2 ce3d
000001d0: 0f00 77bd 9f70 adbd 043e b23d 88f3 d1bd
000001e0: 9f1e 023e 1c55 d5bd f1ec 1b3d 4af7 ca3d
000001f0: cfa4 b5bc 864f 4abd 11f1 b93d 0887 95bd
00000200: d58a 473d 3f0a 28be bf3c fe3d 406d 793d
00000210: 6608 ec3c 4b21 073e f1dc 19be 8103 763d
00000220: f930 13be 541b 0c3d 518f bebb fa1b 8c3c
00000230: 2bbd 84bd 820b 4f3d d6f5 583d 16e4 473d
00000240: 20a7 b0bd fb8b aebd 8bf9 9ebd 14f8 86bc
00000250: efc0 c9bd 95e8 963c 7aa2 eb3d 455f 88bc
00000260: aaf1 b2bd 7fad 59bc c7f4 923c c589 7ebd
00000270: 16bc 9c3d 1f1a cc3d 96fa 173d 9a2e 81bd
00000280: 2fd5 06be 11ee 0a3e fb77 4a3c fd3e 23bd
00000290: c136 653d 061e 8bbd 0dec 053e f6ba 1abe
000002a0: 663b 23bd 9fbb fbbd 9c14 00be 37bc 6bba
000002b0: ddca 7c3c 91ec fabd 1a61 8d3c db2d c6bd
000002c0: d989 95bd 2bf8 80bd 67a5 aa3d 4304 41be
000002d0: 9f3b a23d 6313 653d 0598 06bc 1371 78bc
000002e0: bb66 493d faba 37bd 71d5 15bd 5904 f1bd
000002f0: 39b5 c73d f5f4 f83d be96 12be 5494 ebbd
00000300: 9948 2bbc 6673 87bc 3a9d 42bd 94f4 3bbc
00000310: 1e3f 05be e492 8d3d f6ef 8dbd f8a2 6abd
00000320: 1026 55bd 5742 083d 697e 17be 7272 583d
00000330: ac79 ca3d ee19 013d 3a74 923d 9a07 11be
00000340: c4f1 ad3d db8e 3abd 4d7c 5abd f791 ef3d
00000350: b05f 073e 1e6c 7bbd a529 b83d a1ba 0cbd
00000360: 568d 333c 2652 023d 8169 fc3b 80a4 ff3c
00000370: f24f fb3d 35d6 c43d 841a 4cbc 58b4 25bd
00000380: 2a41 4cbc e9f3 2cbb 3ca2 d63d bc50 02bd
00000390: 58f5 6abd 3504 f83d 9862 e03b 4d70 4d3d
000003a0: fb3c 11bd 3612 d4bd 8e3f 03bd 28f7 64be
000003b0: bf9e 723b 8dbe 87bd f454 93bd 9a02 983d
000003c0: b622 e2bd cda2 a3bd 9f01 013e 4f95 db3d
000003d0: 4584 f53d bcad fb3d b121 a13d f1c9 323d
000003e0: e258 d23d 7995 853c a855 cf3d de22 71bc
000003f0: c469 b7bd 6e0a d83d 5649 703d 3276 673d

module.conv_2.bias f4 [12]
0.0043196264 0.10874678 0.0036115726 0.076891504 -0.030599076 -0.086288884 0.030016493 0.0015870108
-0.07664989 0.119643085 0.04938555 0.11171555
00000000: a78b 8d3b a2b6 de3d 22b0 6c3b 4b79 9d3d
00000010: eaaa fabc 3ab8 b0bd 26e5 f53c 3f03 d03a
00000020: 9efa 9cbd 6f07 f53d 8148 4a3d 1fcb e43d

module.conv_3.weight f4 [12, 12, 3, 3, 3]
0.05078691 0.008183796 -0.03802473 0.056273654 -0.0127841635 -0.0048200428 -0.031441294 -0.027778925
-0.02372607 0.031274576 0.002627745 -0.020408496 0.04194055 -0.013506146 -0.021151047 -0.029675553
-0.056240723 -0.012650873 0.065583594 0.04291259 -0.028767414 0.016549475 -0.02552567 0.008184501
0.0132351145 -0.050678406 -0.06129861 -0.025429584 0.0361057 -0.037764356 -0.02727013 0.029472288
-0.038980022 0.0088888705 -0.019805187 0.019719884 -0.020963669 -0.0043546003 0.03862156 -0.044300612
0.011589122 -0.022377124 0.009424755 -0.0025238101 0.030594468 0.037152316 -0.03350326 0.008813849
-0.0135806 0.061901666 0.005601525 0.058825564 0.017439634 0.06533083 -0.05168101 0.020109423
-0.008346396 -0.007690794 -0.010619879 -0.011830962 0.02587558 -0.025513085 0.01908183 -0.05329434
-0.0151195545 -0.02640834 0.04120055 -0.01765412 0.00033468657 0.0027469208 -0.0024239926 0.0277628
0.026290298 0.02884958 0.027154712 0.046059906 -0.020769035 0.028834846 0.032481402 -0.010599269
0.00512877 0.01987909 0.01445905 -0.022802388 -0.027077457 0.05151075 -0.03284162 0.016228868
0.02642405 -0.025779411 0.025775006 0.030314948 0.016879529 -0.04434678 -0.016229354 0.05803875
-0.005858626 0.0074232733 -0.01439806 0.049393658 0.023354853 0.04310484 -0.04271202 0.040813193
-0.022504061 0.035518356 -0.043071907 0.043176647 -0.036403883 -0.07353267 -0.037018973 0.03652916
-0.041939277 -0.011686579 -0.059028532 -0.052537106 0.0066305674 -0.016197292 -0.036564883 0.033473775
-0.047499027 -0.0003643488 -0.03498537 0.0014695524 -0.058456734 -0.041199356 -0.050031327 -0.0036508732
0.023129249 0.02890435 -0.031326395 0.024969848 0.029040264 -0.053820357 0.008583718 -0.0053759087
0.00413598 0.037127733 0.00092510384 -0.029119326 -0.01908915 0.0027812587 0.013246987 0.016403403
0.0051096147 0.0065231854 0.022256667 -0.03243759 0.04373081 -0.04845555 -0.04565221 -0.034817815
0.03358229 0.0076715415 -0.05074496 0.03661414 -0.008320425 -0.026398804 -0.014166302 -0.020239433
-0.046076197 0.042898703 -0.033859428 0.07048611 0.07680399 0.08341943 0.06836639 0.09999647
0.046983637 0.013059283 0.07335461 -0.013957099 0.0083482945 -0.018405076 0.047250744 0.044108704
0.039385587 0.0071027665 -0.0030334282 -0.015054412 -0.00091977057 0.012459071 0.048386324 0.03785944
0.03613887 -0.0006161121 0.04720301 0.055001296 0.060002904 0.04022219 -0.05152485 0.0019468843
-0.05364226 0.0059594223 0.009320407 0.05725983 -0.050149363 -0.045507584 0.0032039331 0.037615974
-0.023731688 -0.031106321 0.0061536664 0.0065078894 -0.020610247 0.050972935 -0.0036557221 0.037786655
-0.009587851 -0.010920519 -0.007954577 -0.014859568 0.008743477 -0.023274949 -0.050589334 0.028183043
-0.0112868445 0.047136944 -0.009048021 -0.009400157 -0.015991667 -0.019601908 0.046858594 -0.0053933267
0.033463866 0.03819547 -0.029540382 -0.03306446 -0.006013831 -0.0034385326 0.0011455806 -0.012968514
0.043383192 0.047035016 -0.018602861 -0.012035522 0.011664652 0.03646086 -0.05157016 -0.03859029
0.024941305 -0.004099757 0.0005237165 0.012943078 0.05642392 -0.0030896734 -0.0020876876 -0.008870837
0.035389435 -0.01276453 -0.039262295 -0.03574208 -0.028281564 0.03247448 -0.014364404 -0.04134592
00000000: ef05 503d 5415 063c d2bf 1bbd 347f 663d
00000010: ab74 51bc 73f1 9dbb 96c8 00bd a190 e3bc
00000020: 2d5d c2bc c519 003d 3f36 2c3b b82f a7bc
00000030: dbc9 2b3d e248 5dbc f644 adbc 251a f3bc
00000040: ac5c 66bd 9b45 4fbc b150 863d 1dc5 2f3d
00000050: a4a9 ebbc c492 873c 361b d1bc 4918 063c
00000060: 18d8 583c 2994 4fbd 4014 7bbd b451 d0bc
00000070: 92e3 133d ccae 1abd 9c65 dfbc de6f f13c
00000080: 84a9 1fbd a0a2 113c 7d3e a2bc 988b a13c
00000090: 00bc abbc 09b1 8ebb a431 1e3d 8f74 35bd
000000a0: 4de0 3d3c 3b50 b7bc 4a6a 1a3c 8266 25bb
000000b0: 40a1 fa3c 072d 183d b73a 09bd f667 103c
000000c0: 2a81 5ebc 9a8c 7d3d ff8c b73b 13f3 703d
000000d0: 90dd 8e3c 2ccc 853d 77af 53bd 84bc a43c
000000e0: 52bf 08bc 0e03 fcbb 00ff 2dbc a7d6 41bc
000000f0: 06f9 d33c d100 d1bc 7f51 9c3c 2a4b 5abd
00000100: 02b8 77bc 4e56 d8bc e8c1 283d 609f 90bc
00000110: df78 af39 af05 343b d9db 1ebb d06e e33c
00000120: c05e d73c f455 ec3c 8f73 de3c 50a9 3c3d
00000130: d323 aabc 0e37 ec3c 380b 053d 8ea8 2dbc
00000140: 3e0f a83b 79d9 a23c a7e5 6c3c 13cc babc
00000150: 8bd1 ddbc f0fc 523d ef84 06bd 67f2 843c
00000160: 4077 d83c 582f d3bc 1b26 d33c 0e57 f83c
00000170: f046 8a3c f8a4 35bd 6cf3 84bc 0aba 6d3d
00000180: b8f9 bfbb ee3e f33b d7e5 6bbc 0151 4a3d
00000190: ad52 bf3c b38e 303d cdf2 2ebd bc2b 273d
000001a0: 705a b8bc b27b 113d 2b6c 30bd ffd9 303d
000001b0: 3d1c 15bd 4c98 96bd 35a1 17bd 9a9f 153d
000001c0: 85c8 2bbd 1179 3fbc e7c7 71bd 2631 57bd
000001d0: 3b45 d93b 2fb0 84bc 0fc5 15bd cc1b 093d
000001e0: 578e 42bd 1106 bfb9 d24c 0fbd ff9d c03a
000001f0: 5470 6fbd a8c0 28bd a6ed 4cbd 7d43 6fbb
00000200: 8d79 bd3c d1c8 ec3c 1b50 00bd 918d cc3c
00000210: d9e5 ed3c bc72 5cbd b9a2 0c3c 6428 b0bb
00000220: 1d87 873b 4013 183d ab82 723a a78b eebc
00000230: d960 9cbc c745 363b e409 593c 6e60 863c
00000240: 8e6e a73b 72c0 d53b 9d53 b63c 47dd 04bd
00000250: 141f 333d 5479 46bd d0fd 3abd 209d 0ebd
00000260: 958d 093d 8e61 fb3b f2d9 4fbd b5f8 153d
00000270: 6452 08bc 4e42 d8bc c719 68bc 2bcd a5bc
00000280: 65ba 3cbd 8db6 2f3d 2fb0 0abd 065b 903d
00000290: 694b 9d3d ced7 aa3d ae03 8c3d f3ca cc3d
000002a0: ea71 403d 9af6 553c f13a 963d 51ac 64bc
000002b0: 49c7 083c 3ec6 96bc ff89 413d 54ab 343d
000002c0: c852 213d 53be e83b 7bcc 46bb c8a6 76bc
000002d0: c21c 71ba 2221 4c3c bd30 463d 8012 1b3d
000002e0: 5a06 143d 9582 21ba f257 413d 0a49 613d
000002f0: 9bc5 753d 06c0 243d b90b 53bd 992e ff3a
00000300: fdb7 5bbd 4247 c33b 9fb4 183c 4989 6a3d
00000310: 6b69 4dbd 2966 3abd 14f9 513b 3513 1a3d
00000320: f568 c2bc afd2 febc b2a4 c93b 2240 d53b
00000330: d2d6 a8bc ffc8 503d d794 6fbb 2ec6 1a3d
00000340: 5d16 1dbc faeb 32bc ea53 02bc 8c75 73bc
00000350: cd40 0f3c 1bab bebc c336 4fbd 20e0 e63c
00000360: 75ec 38bc ab12 413d 273e 14bc 1e03 1abc
00000370: f500 83bc 2e94 a0bc ccee 3f3d 81ba b0bb
00000380: 6811 093d da72 1c3d acfe f1bc 996e 07bd
00000390: ac0f c5bb 0159 61bb 4e27 963a e479 54bc
000003a0: 93b2 313d caa7 403d 0765 98bc a330 45bc
000003b0: 191d 3f3c fc57 153d 3b3b 53bd da10 1ebd
000003c0: b551 cc3c 4157 86bb 054a 093a 340f 543c
000003d0: c51c 673d 1e7c 4abb 96d1 08bb fd56 11bc
000003e0: 83f4 103d 5222 51bc 80d1 20bd 4a66 12bd
000003f0: bdae e7bc f603 053d ad58 6bbc 575a 29bd

module.conv_3.bias f4 [12]
0.056240037 -0.029043067 -0.022834381 0.042762958 0.028658995 -0.009429527 -0.020652777 0.018296959
0.04022342 -0.004774135 -0.039024528 -0.035410814
00000000: f45b 663d baeb edbc 2b0f bbbc 3628 2f3d
00000010: 45c6 ea3c 4e7e 1abc 0330 a9bc 81e3 953c
00000020: 50c1 243d 5970 9cbb 2fd8 1fbd ee0a 11bd

module.conv_4.weight f4 [12, 12, 3, 3, 3]
-0.00932958 -0.021882607 0.006211631 0.04575124 0.013815534 -0.022570856 -0.02743483 0.06173629
-0.029363055 0.062022734 -0.029869592 0.010305559 0.035645913 -0.017085101 -0.017783402 -0.008142241
0.053922325 -0.042595122 -0.019258792 -0.034218777 0.035413492 0.019533027 0.025196785 0.04484671
-0.014180678 -0.019849926 0.013162617 0.0496791 0.028091175 0.05410391 -0.0002746014 0.05163014
-0.005763771 0.038542166 0.041101646 0.060249653 0.019121304 0.017522428 0.054634564 -0.0039124032
-0.035921652 0.009956938 0.051009905 -0.03597394 0.0356978 -0.031489536 0.02375377 0.050294824
0.009303446 0.015227724 -0.026849154 0.036631167 -0.011725876 0.029290784 -0.0035506284 0.05695238
-0.0038059019 0.020864982 0.056316253 -0.027440475 -0.03824744 0.021037525 -0.022401651 -0.004806851
0.002277122 -0.017396972 0.057783946 0.04198551 -0.04148804 -0.030940875 0.011208348 0.017602703
-0.01708976 -0.0059355716 -0.029582014 -0.021298852 0.054859374 -0.026391732 0.007012313 -0.027303481
-0.012146386 -0.017995039 0.05904191 0.028354373 0.022283003 0.012252333 0.021825347 -0.01040907
0.009227485 -0.021725522 0.013201776 0.009527075 -0.034696307 -0.013175633 0.03654511 -0.011084455
0.03267175 0.030288901 0.06405372 0.03644541 -0.036689155 -0.036412537 0.030480133 -0.014455332
-0.014282125 0.059442677 -0.046105053 -0.016766325 0.019593837 -0.047657043 0.02787785 0.011213886
-0.039485466 -0.0009968448 -0.03418698 0.031619575 -0.047770254 0.013626942 -0.01295789 0.05192983
0.024838623 -0.044206105 -0.04452348 -0.036313932 -0.021522209 -0.016076816 -0.049677838 0.036725547
0.061988104 0.034106165 0.029697334 -0.016931126 -0.011662499 0.03874638 0.052217916 0.022172004
-0.02559983 0.012233027 0.053206302 0.007217188 -0.030370109 0.011647907 0.041651603 -0.042226277
0.025665237 0.051075507 -0.046858083 0.046381414 -0.043364435 0.038190313 -0.029634245 -0.016294695
0.019681899 -0.0042091943 0.040779162 0.044524867 0.042141877 0.04741685 -0.0058490783 0.05890337
-0.003755658 -0.042362485 -0.046936553 -0.006760197 0.06465104 0.010518475 -0.018415025 0.036887012
0.026225112 -0.035191253 0.004565759 -0.014535315 -0.025676787 0.015806446 0.048559356 0.055330817
0.043829214 0.06371328 -0.030357756 0.0108917635 0.03616426 0.03283657 -0.011318128 0.0007951667
0.013902605 -0.019959074 0.03746184 -0.032124884 0.0036637508 0.03506847 -0.04195047 -0.035681453
-0.026881576 0.058387503 0.04623745 -0.04058898 0.025558725 -0.016276818 -0.05002069 -0.04457063
-0.041810058 -0.01502036 -0.0008147111 -0.049598426 0.014473086 0.056923408 0.054773245 -0.0068233623
0.039489232 -0.0019097532 0.03207159 -0.00025794958 -0.0028955454 -0.0062092184 -0.038398117 0.008954605
0.024745183 0.04907454 0.056636326 0.02527364 -0.018169459 0.013350024 0.02420209 0.055750392
-0.006823638 0.049551297 0.0120261535 -0.026953172 -0.0045162393 0.034707226 -0.033185523 0.048065763
0.02821271 0.06247868 0.046595544 -0.037165076 0.053912528 0.009554116 -0.023322664 -0.011853441
0.05474866 -0.012750313 0.047302336 -0.041269396 0.057079248 -0.036757924 -0.0009626381 -0.03409439
-0.0026746239 -0.005218724 -0.033111118 -0.010881362 0.031044737 0.038000785 0.010930876 0.050603528
00000000: 18db 18bc 2743 b3bc f08a cb3b a765 3b3d
00000010: 8d5a 623c 84e6 b8bc 02bf e0bc 31df 7c3d
00000020: ca8a f0bc 8d0b 7e3d 13b1 f4bc a6d8 283c
00000030: 7301 123d 0ef6 8bbc 7fae 91bc 0967 05bc
00000040: a8dd 5c3d 3978 2ebd 9dc4 9dbc fd28 0cbd
00000050: bd0d 113d ba03 a03c 7d69 ce3c 2fb1 373d
00000060: 1356 68bc 509c a2bc 04a8 573c 507c 4b3d
00000070: 771f e63c 109c 5d3d 60f8 8fb9 207a 533d
00000080: 04de bcbb 64de 1d3d 335a 283d 57c8 763d
00000090: 48a4 9c3c 328b 8f3c 7ec8 5f3d 9e33 80bb
000000a0: 9522 13bd 6d22 233c c3ef 503d 6959 13bd
000000b0: db37 123d 2cfb 00bd 4497 c23c f201 4e3d
000000c0: 7b6d 183c b47d 793c c2f2 dbbc 900a 163d
000000d0: e31d 40bc 3af3 ef3c a9b1 68bb e646 693d
000000e0: 706c 79bb 0aed aa3c dfab 663d d9ca e0bc
000000f0: 59a9 1cbd e356 ac3c ab83 b7bc ca82 9dbb
00000100: c53b 153b 1884 8ebc dcae 6c3d 00f9 2b3d
00000110: 5def 29bd b877 fdbc 38a3 373c 8b33 903c
00000120: d3ff 8bbc 2f7f c2bb fb55 f2bc ee7a aebc
00000130: 39b4 603d 7933 d8bc 8cc7 e53b 8dab dfbc
00000140: a301 47bc 556a 93bc eed5 713d 6e47 e83c
00000150: d88a b63c 02be 483c 12cb b23c ce8a 2abc
00000160: e12e 173c b9f9 b1bc 434c 583c 7317 1c3c
00000170: b71d 0ebd 9cde 57bc 53b0 153d 939b 35bc
00000180: d0d2 053d 6e20 f83c 992e 833d c847 153d
00000190: 5e47 16bd 5025 15bd 79b1 f93c 0fd6 6cbc
000001a0: 93ff 69bc 2a7a 733d a7d8 3cbd 8859 89bc
000001b0: 4183 a03c 0834 43bd 1760 e43c 72ba 373c
000001c0: 83bb 21bd 90a8 82ba a607 0cbd 8783 013d
000001d0: beaa 43bd 8a43 5f3c 544d 54bc 60b4 543d
000001e0: 5e7a cb3c 7611 35bd 415e 36bd ebbd 14bd
000001f0: 584f b0bc 87b3 83bc fd7a 4bbd 876d 163d
00000200: 3de7 7d3d e8b2 0b3d d347 f33c 25b3 8abc
00000210: 1114 3fbc 86b4 1e3d 74e2 553d 10a2 b53c
00000220: bcb6 d1bc 096d 483c daee 593d 297e ec3b
00000230: bcca f8bc ddd6 3e3c df9a 2a3d 76f5 2cbd
00000240: e73f d23c 8d34 513d 43ee 3fbd 70fa 3d3d
00000250: e89e 31bd 726d 1c3d 84c3 f2bc 747c 85bc
00000260: ef3b a13c 48ed 89bb 0d08 273d b55f 363d
00000270: f69c 2c3d 2c38 423d a0a9 bfbb a944 713d
00000280: 7c21 76bb 4984 2dbd 8b40 40bd a584 ddbb
00000290: c467 843d af55 2c3c 1bdb 96bc d616 173d
000002a0: 0cd6 d63c b424 10bd 5d9c 953b 8825 6ebc
000002b0: 2058 d2bc 857c 813c 2de6 463d 91a2 623d
000002c0: 4386 333d 1c7c 823d d4b0 f8bc 5e73 323c
000002d0: fa20 143d a47f 063d ab6f 39bc bc72 503a
000002e0: c0c7 633c 3681 a3bc 9671 193d 6295 03bd
000002f0: 8a1b 703b f5a3 0f3d 42d4 2bbd b726 12bd
00000300: c036 dcbc bc27 6f3d 7b63 3d3d a140 26bd
00000310: 8860 d13c f656 85bc 7fe2 4cbd b18f 36bd
00000320: 0641 2bbd f517 76bc 5692 55ba b827 4bbd
00000330: 8620 6d3c 8528 693d e959 603d 8396 dfbb
00000340: 76bf 213d af50 faba 805d 033d 683d 87b9
00000350: 31c3 3dbb b376 cbbb 5847 1dbd 56b6 123c
00000360: 69b6 ca3c 6302 493d 7efb 673d aa0a cf3c
00000370: 1ed8 94bc 0fba 5a3c 7643 c63c 865a 643d
00000380: d398 dfbb 4df6 4a3d 5809 453c e6cc dcbc
00000390: f6fc 93bb 2a29 0e3d 8bed 07bd 9be0 443d
000003a0: 571e e73c a5e9 7f3d f8da 3e3d 683a 18bd
000003b0: 62d3 5c3d de88 1c3c 2c0f bfbc ef34 42bc
000003c0: 2240 603d b0e6 50bc 18c0 413d 190a 29bd
000003d0: eecb 693d 7a8f 16bd 8d59 7cba 8fa6 0bbd
000003e0: be48 2fbb d401 abbb 869f 07bd bd47 32bc
000003f0: 8851 fe3c b6a6 1b3d 6b17 333c a545 4f3d

module.conv_4.bias f4 [12]
0.0048275427 0.037854668 0.042250138 0.0124429185 0.0012476936 0.015658632 -0.012852955 -0.047718033
0.048467495 0.03928715 -0.036610868 0.047172792
00000000: 5d30 9e3b 7f0d 1b3d 7b0e 2d3d 62dd 4b3c
00000010: a689 a33a 8846 803c 3395 52bc fc73 43bd
00000020: da85 463d 90eb 203d 47f5 15bd 4238 413d

module.conv_5.weight f4 [12, 12, 3, 3, 3]
0.024217544 -0.01185787 -0.054102354 0.050515532 0.030738112 -0.009143531 -0.022796473 -0.018444242
-0.030211821 0.0030310515 0.041042767 -0.024740633 0.03292042 -0.005769008 -0.005754378 0.0413399
0.011139437 0.023577586 -0.02190649 0.00748563 0.011867033 0.01298086 -0.007424192 -0.002745822
-0.049728576 -0.0151798185 0.02593681 0.035466325 -0.007999339 0.029984366 -0.041027214 -0.04433215
-0.034164112 -0.020276545 -0.044294707 -0.021120071 0.017109418 -0.04099778 0.037447672 -0.023696152
0.042273086 0.043574292 -0.03151917 0.041863393 -0.0026567942 -0.012480636 -0.028595012 0.005142172
0.04233774 0.020508267 -0.030839512 -0.046466544 -0.0060466966 0.029146852 0.041134235 0.008655221
-0.04764727 0.025722995 0.05507958 -0.02851102 0.061268732 0.052599948 0.026077447 -0.017912887
0.0358729 -0.01833551 -0.024809603 0.05347138 0.010957008 0.023080556 -0.003961615 -0.031755578
-0.012583213 0.01770476 -0.016472563 0.032969564 -0.008116788 0.008908152 -0.033319116 0.016875988
0.013454577 -0.00687146 -0.041761797 -0.037569944 0.04411542 0.024315357 -0.024625659 0.054436725
0.034563307 0.024325646 0.05190684 0.043840483 -0.036886726 -0.021073507 -0.045372367 0.04516186
0.06394992 -0.031421036 -0.03824933 0.0589318 -0.025836606 0.049897928 0.053989537 -0.025806922
-0.050212305 -0.022184761 0.041886836 -0.034638077 -0.055316597 0.02610501 0.01832235 0.07054424
-0.034376316 0.029692208 0.03421875 0.051566754 0.00096229004 0.013570352 -0.04253041 -0.07177095
-0.0066618263 -0.037447013 -0.04740749 0.06012712 0.04687509 0.05468841 0.0088380715 -0.015211765
0.01814754 0.05567896 0.005660952 -0.052033644 0.04389551 0.046747845 -0.03355963 0.046659067
-0.036377914 0.03470733 0.05224693 -0.03191611 0.010450035 -0.03670284 0.03040044 -0.024652012
0.026090674 -0.016645156 -0.0052811364 0.015158303 -0.011057296 0.035637848 -0.03148323 0.0028812601
0.029680075 0.020248825 0.036102254 0.024706557 0.030921917 0.029850533 0.0062045422 -0.029455058
-0.0064543933 -0.029771728 0.008125521 0.04638656 -0.009178694 -0.042635508 -0.031323567 -0.058798123
0.014315971 -0.07632058 0.012269709 0.011342776 0.027347336 -0.0419072 0.0011076279 0.03456598
-0.035124976 -0.04415406 -0.010883952 -0.012918046 -0.034424596 -0.037647072 -0.038844194 0.006027007
0.0054588346 0.04066487 -0.020594956 0.02114272 0.015303043 0.016425263 -0.02330326 -0.044660598
0.0626004 0.024795592 0.028352123 0.01635997 -0.05159755 -0.015973747 -0.040849235 0.0025936833
-0.04419147 -0.028809095 0.025848141 -0.027843878 0.0457594 0.011683629 0.002802576 0.048762865
0.009124934 0.029232925 -0.038485806 -0.024895515 -0.05447724 -0.0393226 -0.003126469 0.012972052
0.036931086 0.009233723 -0.03400784 -0.020681078 -0.011621796 -0.025138993 0.05369774 0.013568958
0.031346608 0.03513781 -0.045033567 0.021813095 -0.031827305 0.026642019 -0.014767302 0.015117006
0.0022256246 -0.042287294 0.027689768 0.0066815666 -0.0064797313 0.02033067 0.01129729 0.02826077
0.04322479 -0.024203524 0.032715745 -0.028550932 0.083938554 0.015214683 0.054191716 -0.006096743
0.038989086 -0.042747505 0.053269424 0.021246115 -0.017323595 0.046146255 0.05359885 0.06999782
00000000: df63 c63c 8347 42bc 6e9a 5dbd 60e9 4e3d
00000010: 7ece fb3c c0ce 15bc abbf babc 6118 97bc
00000020: c87e f7bc 9ba4 463b 761c 283d deac cabc
00000030: 90d7 063d f209 bdbb 398f bcbb 0754 293d
00000040: 2f82 363c c825 c13c 3d75 b3bc 044a f53b
00000050: f26d 423c acad 543c a346 f3bb 40f3 33bb
00000060: 31b0 4bbd c6b4 78bc 6f79 d43c 2345 113d
00000070: a90f 03bc c6a1 f53c 270c 28bd a195 35bd
00000080: abef 0bbd ff1a a6bc 5e6e 35bd 0004 adbc
00000090: 0d29 8c3c 4aed 27bd bb62 193d 6f1e c2bc
000000a0: 8b26 2d3d f57a 323d 3f1a 01bd f378 2b3d
000000b0: 9c1d 2ebb 957b 4cbc 1640 eabc aa7f a83b
000000c0: 576a 2d3d f400 a83c 25a3 fcbc b453 3ebd
000000d0: 5e23 c6bb 61c5 ee3c 5f7c 283d a1ce 0d3c
000000e0: c929 43bd 08b9 d23c 209b 613d f18f e9bc
000000f0: ecf4 7a3d 0b73 573d 5fa0 d53c 0cbe 92bc
00000100: 76ef 123d 5a34 96bc 823d cbbc ce04 5b3d
00000110: 0685 333c 6f13 bd3c 6fd0 81bb 2312 02bd
00000120: d229 4ebc 9309 913c 78f1 86bc 180b 073d
00000130: 47fc 04bc 7ff3 113c a079 08bd 833f 8a3c
00000140: 9670 5c3c fc29 e1bb 6b0e 2bbd f1e2 19bd
00000150: 5fb2 343d 0031 c73c c0bb c9bc 0bf9 5e3d
00000160: 4192 0d3d 9446 c73c 449c 543d 1492 333d
00000170: 8916 17bd 59a2 acbc 60d8 39bd a4fb 383d
00000180: 2df8 823d 58b3 00bd 54ab 1cbd 7962 713d
00000190: 4aa7 d3bc c561 4c3d 2224 5d3d 0a69 d3bc
000001a0: 6bab 4dbd d1bc b5bc 8891 2b3d a8e0 0dbd
000001b0: a893 62bd 2dda d53c c118 963c 8079 903d
000001c0: 2ece 0cbd 133d f33c f628 0c3d a937 533d
000001d0: 3142 7c3a 2f56 5e3c 5e34 2ebd a6fc 92bd
000001e0: 734b dabb 0a62 19bd 5b2e 42bd db47 763d
000001f0: 1800 403d f400 603d 8fcd 103c c43a 79bc
00000200: 26aa 943c 9f0f 643d 827f b93b 3b21 55bd
00000210: c7cb 333d ab7a 3f3d d375 09bd 941d 3f3d
00000220: 0201 15bd 4629 0e3d e000 563d 78ba 02bd
00000230: a036 2b3c b855 16bd 580a f93c 04f3 c9bc
00000240: 1cbc d53c 6c5b 88bc 620d adbb 885a 783c
00000250: a929 35bc fef8 113d 8ff4 00bd 86d3 3c3b
00000260: a123 f33c dde0 a53c f5df 133d 6865 ca3c
00000270: f64f fd3c 1b89 f43c 794f cb3b bc4b f1bc
00000280: 607f d3bb d7e3 f3bc e820 053c d5ff 3d3d
00000290: 3c62 16bc 92a2 2ebd 244d 00bd 4dd6 70bd
000002a0: 898d 6a3c f74d 9cbd e406 493c 0dd7 393c
000002b0: 8507 e03c e2a6 2bbd d32d 913a 0f95 0d3d
000002c0: 35df 0fbd e3da 34bd 9a52 32bc 36a6 53bc
000002d0: ce00 0dbd d133 1abd 171b 1fbd 337e c53b
000002e0: 06e0 b23b 3590 263d c1b6 a8bc 7f33 ad3c
000002f0: 9db9 7a3c 468e 863c 7ae6 bebc 08ee 36bd
00000300: a334 803d 2020 cb3c b642 e83c 5805 863c
00000310: f457 53bd 60db 82bc 8751 27bd c9fa 293b
00000320: 1d02 35bd 0d01 ecbc 7bbf d33c d818 e4bc
00000330: 356e 3b3d b16c 3f3c 6cab 373b 92bb 473d
00000340: bf80 153c e379 ef3c 4ba3 1dbd aef1 cbbc
00000350: 8723 5fbd bc10 21bd 72e5 4cbb bb88 543c
00000360: 0d45 173d 0b49 173c ce4b 0bbd 5d6b a9bc
00000370: 5869 3ebc 4af0 cdbc 29f2 5b3d 5650 5e3c
00000380: 4d65 003d aaec 0f3d 1e75 38bd 60b1 b23c
00000390: 595d 02bd 5d40 da3c 8ef2 71bc 52ad 773c
000003a0: c9db 113b 7135 2dbd a7d5 e23c 0bf1 da3b
000003b0: ed53 d4bb 818c a63c 4518 393c 2183 e73c
000003c0: 7a0c 313d 7846 c6bc f200 063d a5e3 e9bc
000003d0: fae7 ab3d 0147 793c 22f8 5d3d 30c7 c7bb
000003e0: 05b3 1f3d 0218 2fbd 0a31 5a3d 550c ae3c
000003f0: 36ea 8dbc db03 3d3d 788a 5b3d 045b 8f3d

module.conv_5.bias f4 [12]
-0.049596246 0.0149190845 0.044694316 -0.025700878 0.023763528 0.015007858 0.037223257 0.067088455
-0.02960888 0.013729404 0.018832423 0.0115130665
00000000: 6f25 4bbd 2d6f 743c 6311 373d a68a d2bc
00000010: bbab c23c 85e3 753c 6a77 183d ac65 893d
00000020: 528e f2bc 4bf1 603c 7446 9a3c 4da1 3c3c

module.conv_6.weight f4 [12, 12, 3, 3, 3]
0.014488103 -0.046420503 -0.0068912418 -0.013455135 0.023416933 -0.008944699 -0.013230585 -0.052069176
0.04583503 0.03967905 -0.02478603 -0.04250137 -0.057110984 -0.01199801 0.014413597 -0.058712848
-0.020727614 -0.014898777 -0.039275672 0.0050267032 0.03593877 -0.02545206 -0.01015645 0.045506865
-0.0435715 -0.024630569 0.0070301266 0.054790273 0.02176643 -0.024799835 0.022417063 -0.037030037
-0.03884639 0.00064832356 0.02022252 0.055777572 -0.047346383 0.031334955 -0.0015740083 0.007990136
0.0003790912 0.047711078 -0.046114646 0.026985124 -0.0464157 0.03923225 0.012039747 -0.03909384
-0.030591734 0.024457473 0.061092723 0.019839948 0.011808221 -0.019370666 0.055205707 -0.0026534963
-0.037419308 -0.00045105309 0.05880683 0.053099073 -0.044335105 -0.0045101554 0.002430961 0.0003348917
0.0316781 0.012603985 0.033188675 -0.034495454 0.07117275 -0.03128644 0.050010715 0.0579935
0.006927603 0.024265543 0.051105276 -0.025401862 0.014210765 0.007475243 0.035876308 -0.042685892
0.06241147 0.0010323813 0.0209468 -0.04451143 0.015578007 -0.023821544 -0.024874186 0.032543425
-0.040222507 -0.02240975 0.009562026 -0.004769615 0.030526042 0.02620074 0.04171678 0.052436505
-0.0343279 0.013707424 0.02918312 -0.004622232 -0.03015903 0.048799176 -0.011347309 0.0412778
0.050328787 0.03925042 -0.012371548 0.008630227 0.036103785 -0.029639699 -0.001439223 -0.0035498748
-0.05186873 -0.049040884 0.009237437 0.0037065079 -0.016844992 0.011135437 0.023332955 -0.027199674
-0.011944002 0.026011324 -0.049752858 -0.022594716 0.012511755 -0.043249417 0.0016442531 0.03401398
0.026158744 -0.022406789 -0.003484054 -0.0038027854 -0.01368145 0.006440476 0.030181102 -0.03988783
-0.014620463 -0.006085126 -0.04468078 -0.005402671 0.0067742714 -0.013904466 0.051471904 0.004640792
-0.027376052 -0.04404564 -0.013162964 0.06247434 -0.03514382 -0.041924804 0.004778845 0.038051806
0.0636939 -0.049493026 0.05735595 0.0009198604 -0.03388419 -0.006701381 -0.032204658 0.02708947
-0.00689242 0.033304524 -0.005492482 0.04735986 0.006952797 0.009756978 0.023775913 0.0104282
-0.020707173 0.039293762 0.043792997 0.0030022496 -0.0084550725 0.025369788 0.008862389 0.02648172
0.04192134 0.0050998842 -0.0048306747 -0.048688054 0.046692792 -0.03767938 -0.050534535 -0.02459717
0.025287038 -0.0060216594 -0.010763662 0.006787636 -0.0009559045 0.05261173 0.031844325 0.06895066
0.046339612 0.01986084 0.025432033 0.07808715 0.08840003 0.06076212 -0.058888283 -0.00488323
0.021990677 -0.074936934 -0.058683038 -0.0069729113 -0.045641884 -0.06491242 0.012649559 -0.05055672
0.022226386 -0.034156866 -0.04514222 -0.061256852 -0.047057882 -0.07326889 -0.026508361 -0.050680716
-0.015847888 0.0054573906 0.041479968 -0.013747285 0.038771883 0.026763406 -0.04397629 0.039943945
0.010779545 0.05817585 0.056713503 -0.020737523 -0.017371332 -0.031605937 -0.02397331 0.009095963
0.030317144 0.038834497 0.000988883 0.05536736 0.0006009643 -0.03693542 -0.032583002 -0.016462227
0.05524769 -0.0140508795 -0.04008439 0.025124788 0.023100622 -0.002270663 0.030975668 -0.00015101164
-0.017276585 -0.030307459 -0.014672886 -0.049879566 -0.042285454 -0.040037848 0.036149826 0.05834833
00000000: 825f 6d3c 6d23 3ebd edcf e1bb ed72 5cbc
00000010: ded4 bf3c c98c 12bc 18c5 58bc 7d46 55bd
00000020: 83bd 3b3d 8086 223d 130c cbbc eb15 2ebd
00000030: 35ed 69bd 4d93 44bc 0227 6c3c e27c 70bd
00000040: f5cc a9bc 001a 74bc 87df 20bd 0bb7 a43b
00000050: 8834 133d d780 d0bc 3d67 26bc 6865 3a3d
00000060: 0778 32bd 0cc6 c9bc fa5c e63b c46b 603d
00000070: 834f b23c 0629 cbbc fda3 b73c cfac 17bd
00000080: 641d 1fbd 42f4 293a b3a9 a53c 0677 643d
00000090: 48ee 41bd 1559 003d f44e ceba 0fe9 023c
000000a0: c2c0 c639 b16c 433d b6e2 3cbd e80f dd3c
000000b0: 641e 3ebd ffb1 203d 5c42 453c dd20 20bd
000000c0: 849b fabc 0a5b c83c 5d3c 7a3d 6387 a23c
000000d0: 4577 413c 3baf 9ebc 611f 623d 48e6 2dbb
000000e0: fd44 19bd 527b ecb9 6edf 703d 6a7e 593d
000000f0: ba98 35bd edc9 93bb c250 1f3b 6794 af39
00000100: e5c0 013d f280 4e3c d9f0 073d 1b4b 0dbd
00000110: 05c3 913d 3626 00bd 09d8 4c3d 988a 6d3d
00000120: f200 e33b 88c8 c63c c453 513d 9117 d0bc
00000130: 45d4 683c e2f2 f43b 09f3 123d 67d7 2ebd
00000140: 2ba3 7f3d f850 873a a098 ab3c 9e51 36bd
00000150: e63a 7f3c 6625 c3bc f3c4 cbbc 414c 053d
00000160: 5bc0 24bd a794 b7bc 0baa 1c3c 6e4a 9cbb
00000170: c011 fa3c efa2 d63c 37df 2a3d a9c7 563d
00000180: 699b 0cbd 1a95 603c 7011 ef3c 1876 97bb
00000190: 1210 f7bc a5e1 473d 10ea 39bc e912 293d
000001a0: 8f25 4e3d 0cc5 203d 09b2 4abc cc65 0d3c
000001b0: 90e1 133d f4ce f2bc 4fa4 bcba 04a5 68bb
000001c0: 4e74 54bd 18df 48bd 9e58 173c e2e8 723b
000001d0: 82fe 89bc 6871 363c c124 bf3c dad1 debc
000001e0: c6b0 43bc b315 d53c a7c9 4bbd 8e18 b9bc
000001f0: 1bfe 4c3c 4d26 31bd fb83 d73a 3e52 0b3d
00000200: dd4a d63c 718e b7bc ba54 64bb 2738 79bb
00000210: 2928 60bc a10a d33b 5c3e f73c 6c61 23bd
00000220: ab8a 6fbc bd65 c7bb 3203 37bd e408 b1bb
00000230: b5fa dd3b 8fcf 63bc 34d4 523d c911 983b
00000240: be43 e0bc 3369 34bd 79a9 57bc 18e5 7f3d
00000250: f7f2 0fbd 58b9 2bbd db97 9c3b 36dc 1b3d
00000260: f371 823d 33b9 4abd 13ee 6a3d c922 713a
00000270: 26ca 0abd 4297 dbbb 08e9 03bd bcea dd3c
00000280: cfd9 e1bb 536a 083d 47fa b3bb 6afc 413d
00000290: 4ad4 e33b bbdb 1f3c b4c5 c23c 0adb 2a3c
000002a0: 17a2 a9bc 7ff2 203d 4960 333d 64c1 443b
000002b0: 2587 0abc 4dd4 cf3c 8e33 113c 31f0 d83c
000002c0: b6b5 2b3d ee1c a73b a34a 9ebb 206d 47bd
000002d0: f140 3f3d b255 1abd 4dfd 4ebd 0180 c9bc
000002e0: c326 cf3c 5751 c5bb 125a 30bc d16a de3b
000002f0: aa95 7aba 667f 573d 326f 023d 0136 8d3d
00000300: 9bce 3d3d 33b3 a23c d756 d03c 28ec 9f3d
00000310: 130b b53d b3e1 783d d734 71bd 8103 a0bb
00000320: cb25 b43c 8978 99bd a05d 70bd 057d e4bb
00000330: fcf2 3abd cef0 84bd 1940 4f3c 9014 4fbd
00000340: 1c14 b63c 12e8 0bbd 0ce7 38bd 77e8 7abd
00000350: c4bf 40bd 000e 96bd 1028 d9bc 9596 4fbd
00000360: 6ed3 81bc e9d3 b23b e6e6 293d 4b3c 61bc
00000370: 44cf 1e3d ee3e db3c 7b20 34bd 439c 233d
00000380: b09c 303c cd49 6e3d 6b4c 683d bde1 a9bc
00000390: 534e 8ebc 3a75 01bd ad63 c4bc 3c07 153c
000003a0: a95b f83c ec10 1f3d 689d 813a e3c8 623d
000003b0: 088a 1d3a 9849 17bd c175 05bd cbdb 86bc
000003c0: 674b 623d a935 66bc 882f 24bd 80d2 cd3c
000003d0: 843d bd3c 67cf 14bb afc0 fd3c e158 1eb9
000003e0: a087 8dbc 5947 f8bc 8b66 70bc 844e 4cbd
000003f0: 8333 2dbd bafe 23bd d711 143d a9fe 6e3d

module.conv_6.bias f4 [12]
0.0082426565 -0.04364523 0.044337794 -0.008028247 0.016804494 0.022619842 0.04405216 0.05361775
0.024164416 0.02968269 -0.031554062 0.010657212
00000000: 350c 073c 57c5 32bd 8c9b 353d e988 03bc
00000010: 94a9 893c 3f4d b93c 0a70 343d 499e 5b3d
00000020: 74f4 c53c 1d29 f33c d53e 01bd 969b 2e3c

module.conv_7.weight f4 [56, 12, 1, 1, 1]
-0.15165098 0.23412216 -0.10615632 0.3175966 0.11411763 -0.062025595 0.29417232 0.008195015
0.08640985 0.04908212 0.025967548 -0.10774036 -0.25592062 0.22402838 0.04515422 0.20511314
-0.09085678 0.18205439 -0.023034316 -0.26713145 0.15719293 -0.17779993 0.025647655 0.18626946
0.22139417 -0.035574216 0.08128374 0.1630863 0.20283683 0.28045642 -0.23255846 -0.21896197
0.11716201 0.33826983 -0.10488001 -0.029092738 -0.24725123 0.2229482 0.19158591 0.15395151
-0.23451707 0.11491212 0.14711215 0.18783945 -0.022931926 -0.2544347 0.2990103 -0.12961896
0.03822245 -0.14468108 -0.14915091 -0.0042192764 0.010655185 0.17046852 0.07711695 0.06703938
-0.17377205 0.24821481 0.24869716 -0.1556769 -0.2757843 -0.27561992 0.13330331 0.04582424
-0.39941123 0.024579424 -0.19783868 -0.29387903 0.20324063 -0.017413596 -0.1591912 0.08211349
0.07114841 0.07800467 0.013103937 0.08726909 0.13900459 0.16870539 -0.22102943 0.14278553
-0.1274316 -0.41150486 -0.20751393 0.006828829 0.03068936 -0.060062747 -0.18549149 0.05689805
0.07234495 0.06948088 0.18557566 -0.30284935 -0.14268877 -0.23849021 -0.29090163 0.19504942
0.16866606 -0.19133113 -0.29465 -0.07075769 -0.185571 -0.091771655 0.18384798 0.08153761
-0.101279266 -0.35898283 0.17654072 0.27567762 0.068277724 -0.12780507 -0.060612556 0.08672385
-0.40780976 -0.36082298 -0.08562685 -0.29730532 0.050034802 0.0148505345 0.03721284 0.22170472
-0.1827026 -0.11859422 -0.21791582 -0.08374068 0.17007336 0.1378613 -0.17079878 0.06484388
-0.12769552 -0.13012874 0.008325599 -0.12787877 0.033308677 -0.19379021 0.282302 0.10047248
-0.031894457 -0.18955588 -0.15345187 0.099051714 0.24598967 0.2633287 0.1688841 -0.054926056
0.15339373 0.16375709 0.103977524 -0.021601928 0.056237996 -0.030741671 -0.0959966 0.18339124
-0.028873425 -0.1424941 0.15353292 -0.266032 -0.12820882 -0.008992945 -0.23374373 -0.030585865
-0.072799005 0.15951045 0.1623209 0.22473308 -0.107094504 0.27945444 -0.16322407 -0.1625995
0.079124525 0.13051094 -0.054513082 -0.21111019 -0.09912391 -0.030355506 -0.15476488 0.036736365
-0.08809479 -0.32177743 -0.23714857 0.1280522 0.1105084 -0.13738596 0.2108295 0.04955297
-0.24543735 -0.25683033 -0.043415625 -0.008391364 0.09874227 0.022605566 0.027572216 0.1891283
0.18457936 0.14444843 0.03569627 0.28816658 0.16727744 -0.26631376 -0.10477108 -0.24442743
0.1550177 0.16043037 -0.11695419 0.100484334 -0.023378976 0.16156332 0.16037808 0.2708268
-0.21789674 -0.15677577 -0.17787991 0.20585032 -0.244971 -0.1803722 0.20347561 0.1062805
0.23112021 0.082111396 0.28994167 0.03219462 -0.018811429 -0.103950806 0.22150266 -0.0506181
-0.308541 -0.25231007 -0.2392596 0.007039556 0.13412863 0.28493348 -0.0040000514 -0.16450092
-0.00990687 0.067521065 -0.14295328 0.15316142 0.23233096 -0.056504287 -0.15865506 0.24826175
-0.09539606 -0.26444143 -0.10094388 -0.011017266 -0.10070728 -0.3234667 0.1451002 -0.01922842
0.08221277 0.17402902 -0.25733814 0.08954117 -0.194276 0.25824106 -0.061822817 0.2835783
00000000: 654a 1bbe b8bd 6f3e 7c68 d9bd 069c a23e
00000010: 81b6 e93d 8d0e 7ebd c19d 963e 6244 063c
00000020: a6f7 b03d 550a 493d e5b9 d43c faa6 dcbd
00000030: 0708 83be b267 653e a2f3 383d 2e09 523e
00000040: 1f13 babd 776c 3a3e 76b2 bcbc 74c5 88be
00000050: 2ff7 203e 2f11 36be 081b d23c 6cbd 3e3e
00000060: 27b5 623e 45b6 11bd 1778 a63d 1800 273e
00000070: 75b4 4f3e fc97 8f3e ce23 6ebe 9137 60be
00000080: a3f2 ef3d b431 ad3e 55cb d6bd e553 eebc
00000090: 6d2f 7dbe 884c 643e 192f 443e 77a5 1d3e
000000a0: 3e25 70be 0c57 eb3d 91a4 163e fc58 403e
000000b0: bcdb bbbc 4445 82be e117 993e d5ba 04be
000000c0: 258f 1c3d 4727 14be 04bb 18be db41 8abb
000000d0: 1693 2e3c 4d8f 2e3e 7eef 9d3d f14b 893d
000000e0: 4df1 31be 062c 7e3e 78aa 7e3e c469 1fbe
000000f0: 9a33 8dbe 0e1e 8dbe aa80 083e 33b2 3b3d
00000100: a17f ccbe ca5a c93c 3996 4abe 5077 96be
00000110: 501e 503e f5a6 8ebc 0503 23be 1e2b a83d
00000120: 42b6 913d eac0 9f3d e5b1 563c 23ba b23d
00000130: 3857 0e3e 1bc1 2c3e 8a55 62be 5f36 123e
00000140: 6e7d 02be c4b0 d2be 887e 54be 5fc4 df3b
00000150: 4168 fb3c 5b04 76bd 7bf1 3dbe ee0d 693d
00000160: 9729 943d fe4b 8e3d 8c07 3e3e 120f 9bbe
00000170: 011d 12be c736 74be 0ff1 94be 09bb 473e
00000180: ccb6 2c3e 4fec 43be 5ddc 96be 68e9 90bd
00000190: 5306 3ebe c7f2 bbbd a542 3c3e 31fd a63d
000001a0: 816b cfbd 99cc b7be 17c7 343e 9e25 8d3e
000001b0: 31d5 8b3d 55df 02be df44 78bd 469c b13d
000001c0: 71cc d0be cabd b8be 215d afbd 6738 98be
000001d0: 4bf1 4c3d a84f 733c 7e6c 183d 9006 633e
000001e0: 6416 3bbe 87e1 f2bd 5325 5fbe 3c80 abbd
000001f0: b627 2e3e 832b 0d3e e0e5 2ebe decc 843d
00000200: 9dc2 02be 7840 05be 1868 083c a7f2 02be
00000210: ae6e 083d f170 46be e389 903e 84c4 cd3d
00000220: c3a3 02bd f01a 42be 7d22 1dbe a0db ca3d
00000230: b7e4 7b3e 05d3 863e f4ef 2c3e 25fa 60bd
00000240: 3f13 1d3e f0af 273e 2bf2 d43d 87f6 b0bc
00000250: d059 663d f5d5 fbbc de99 c4bd eaca 3b3e
00000260: f687 ecbc f9e9 11be bc37 1d3e 5935 88be
00000270: 2c49 03be 2557 13bc 845a 6fbe 358f fabc
00000280: a517 95bd b556 233e 7337 263e 6e20 663e
00000290: 5d54 dbbd a714 8f3e 3624 27be 7c80 26be
000002a0: 0a0c a23d a9a4 053e 1c49 5fbd 452d 58be
000002b0: 7a01 cbbd 1cac f8bc af7a 1ebe df78 163d
000002c0: 0b6b b4bd 03c0 a4be 13d7 72be 1e20 033e
000002d0: 3a52 e23d e8ae 0cbe b0e3 573e 0ef8 4a3d
000002e0: ee53 7bbe 447f 83be 95d4 31bd ee7b 09bc
000002f0: 6339 ca3d 4f2f b93c 21df e13c d9aa 413e
00000300: 5f02 3d3e 4aea 133e 4136 123d 928a 933e
00000310: c74a 2b3e 475a 88be 3892 d6bd 2f4b 7abe
00000320: f6bc 1e3e dc47 243e ae85 efbd bbca cd3d
00000330: 4485 bfbc db70 253e 273a 243e cfa9 8a3e
00000340: 5320 5fbe d489 20be 2726 36be 6dca 523e
00000350: aed9 7abe 7db3 38be e95b 503e 97a9 d93d
00000360: c7aa 6c3e 052a a83d 3c73 943e 82de 033d
00000370: 6d1a 9abc 29e4 d4bd 98d1 623e ed54 4fbd
00000380: 16f9 9dbe c92e 81be 7800 75be 13ac e63b
00000390: 0459 093e cde2 913e dd12 83bb ee72 28be
000003a0: 6d50 22bc 7c48 8a3d 5862 12be 59d6 1c3e
000003b0: 2be8 6d3e 0a71 67bd 7976 22be 5438 7e3e
000003c0: 025f c3bd de64 87be aabb cebd c381 34bc
000003d0: 9e3f cebd 6d9d a5be 2695 143e eb84 9dbc
000003e0: 2b5f a83d aa34 323e d3c1 83be 5c61 b73d
000003f0: 4af0 46be 2c38 843e ec39 7dbd 2d31 913e

module.conv_7.bias f4 [56]
-0.1904403 0.052298274 -0.14531252 -0.092832364 -0.23173113 0.25225624 0.2082533 0.22487937
0.17338431 0.20657772 0.17062142 -0.16694342 0.0008189699 -0.23502818 0.20835105 0.053880822
-0.12582506 -0.13014494 -0.0015735917 -0.24072348 0.121002406 -0.13543624 0.19880868 0.06126553
0.101467274 -0.22616069 0.07527197 0.01805926 -0.15023151 0.1713481 -0.15052707 0.2267357
0.027567754 0.062728055 -0.046011023 0.049903523 0.075955026 -0.072349556 0.14873888 0.20094173
-0.030631844 0.13111882 -0.16663808 0.0064818584 -0.14421746 -0.2405754 -0.10083369 -0.115696415
0.14854404 0.15524244 -0.10903111 -0.21290395 0.16052614 0.020770893 -0.021678185 -0.23445033
00000000: c802 43be b736 563d cecc 14be e51e bebd
00000010: ed4a 6dbe bb27 813e 5a40 553e c746 663e
00000020: a88b 313e 1c89 533e 62b7 2e3e 37f3 2abe
00000030: 24b0 563a 3aab 70be fa59 553e 23b2 5c3d
00000040: 49d8 00be b744 05be fa40 ceba 3780 76be
00000050: 1cd0 f73d ccaf 0abe 8194 4b3e 90f1 7a3d
00000060: 13ce cf3d ab96 67be 3128 9a3d 03f1 933c
00000070: 4ad6 19be e075 2f3e c523 1abe 672d 683e
00000080: c5d5 e13c 9177 803d 0e76 3cbd a367 4c3d
00000090: 4f8e 9b3d 012c 94bd 014f 183e abc3 4d3e
000000a0: a2ef fabc 0344 063e 2ca3 2abe c565 d43b
000000b0: bead 13be 6659 76be e581 cebd 3ef2 ecbd
000000c0: ee1b 183e e0f7 1e3e b44b dfbd 7e03 5abe
000000d0: f760 243e b827 aa3c 7396 b1bc bf13 70be
