models/FSRCNN3D_epoch_90.pth (torch, 265262 bytes, 15 tensors)

module.conv_1.weight f4 [56, 1, 5, 5, 5]
0.047518406 -0.06481564 0.06796862 0.063769035 -0.010536071 0.03732011 0.013103512 -0.04844755
0.059314538 -0.059557825 0.05661813 0.02105562 0.07937007 0.009928229 0.0053961384 -0.023568405
0.058000185 0.022120059 0.058603264 -0.07654144 0.09120323 0.06428292 0.07121398 -0.05502932
-0.011599351 -0.03137616 0.0032462322 0.09290895 -0.05184072 0.0035763704 0.0031551975 -0.05722427
-0.028859902 -0.01238026 -0.04018587 -0.068009414 -0.029798724 0.03961648 -0.013744709 0.06627026
-0.026903039 -0.0785742 0.0660366 -0.03555537 0.061788265 -0.06490832 0.095405445 -0.023888916
0.045113467 -0.0508064 0.065383434 -0.07971622 0.054228734 -0.017563678 0.0578552 0.07780374
-0.0017963878 0.07180779 -0.0404684 -0.046948012 0.011611658 -0.090688735 0.04286898 0.02784298
-0.0001550056 0.050582856 0.065608114 0.0052554924 0.06186332 0.010169696 0.024415182 0.060562603
0.004980924 0.048275433 -0.015363389 -0.005606877 -0.06360221 0.029561445 -0.039661992 -0.09921165
0.06875385 0.06542303 0.106976114 0.037083745 -0.0511638 0.06614059 -0.028244201 -0.00723398
-0.036570635 -0.092130765 -0.048045307 -0.05318964 -0.06372723 -0.0056382297 -0.059853245 0.027769512
-0.050606184 -0.019782139 0.07890115 0.08656048 -0.0718388 0.0148670105 -0.04225798 -0.09745295
0.007985504 -0.03512483 0.087484285 0.098153725 0.057020675 0.044132553 -0.07533656 0.05171131
0.07106327 0.07598814 0.037805535 -0.0020287698 -0.013447322 0.014215593 9.644131e-05 -0.09058937
-0.058817405 -0.033769958 -0.016994113 -0.055383835 0.042328577 -0.0016223841 0.08917802 0.058935765
-0.038830686 0.0049121887 0.028500238 0.0929307 -0.02435634 0.0433024 0.04253103 0.08826484
0.04389407 -0.018001005 -0.05908134 0.02855861 -0.049550787 0.027376056 0.08802412 -0.015280945
-0.055439085 -0.05579665 -0.03696646 0.020794213 -0.07087286 0.005911138 0.059808616 -0.022011347
-0.064487174 -0.0891538 0.05351919 0.009034982 0.03822709 -0.09259351 0.04959147 -0.034545094
0.091902085 -0.06808577 -0.09012867 -0.09036855 -0.06198224 -0.028052578 -0.06723116 -0.061507743
-0.040335327 0.07520103 0.038644128 0.03382876 -0.07726875 0.034033474 -0.0019287785 0.03274168
-0.070104614 0.0014297132 0.028168749 -0.023153242 0.065413825 0.025649542 -0.012673674 -0.07442661
-0.08416214 -0.025550824 0.0070668412 -0.0994523 -0.03114433 0.057708394 -0.032346014 -0.070244685
0.06898528 -0.062394124 0.0001069127 0.0099164415 0.044416875 0.044224065 0.05762466 0.037060596
0.09343616 0.06430708 0.054773662 -0.06641641 0.06304525 -0.0713246 -0.019235011 -0.023262655
0.051841933 -0.06361787 0.031567067 0.044046417 0.058584817 0.06464139 0.06321123 0.08455917
0.08936996 0.017684445 0.059886094 -0.08245178 0.03815304 0.009580281 -0.06033475 0.0773064
-0.050777778 -0.065053776 -0.039821777 -0.06993217 -0.0077298284 0.084773585 0.009248925 0.10320581
-0.077394366 -0.047757875 -0.055583302 0.07916462 0.026353497 0.048390836 0.044186704 0.043092765
0.0494057 0.051215645 0.024719782 -0.03305186 0.08207899 -0.016935702 -0.059760958 -0.04429666
0.004774413 -0.08189264 -0.0020556874 -0.021337945 -0.04525143 -0.04911228 0.08956188 0.0059679872
00000000: a9a2 423d 10be 84bd 2233 8b3d 5799 823d
00000010: 7c9f 2cbc f9dc 183d 1db0 563c f070 46bd
00000020: cdf3 723d e8f2 73bd 6ae8 673d d67c ac3c
00000030: c68c a23d 03aa 223c 17d2 b03b 8712 c1bc
00000040: 9a91 6d3d 2035 b53c fa09 703d c2c1 9cbd
00000050: c2c8 ba3d c3a6 833d a3d8 913d 6d66 61bd
00000060: 340b 3ebc 4a84 00bd bdbe 543b 0c47 be3d
00000070: ef56 54bd 8a61 6a3b 6ec7 4e3b ff63 6abd
00000080: 9a6b ecbc 93d6 4abc f099 24bd 8548 8bbd
00000090: 741c f4bc e444 223d 7d31 61bc b4b8 873d
000000a0: c363 dcbc 83eb a0bd 323e 873d 82a2 11bd
000000b0: b115 7d3d a7ee 84bd ee63 c33d b0b2 c3bc
000000c0: e6c8 383d 5f1a 50bd c0e7 853d 4242 a3bd
000000d0: f31e 5e3d b4e1 8fbc 93f9 6c3d 9157 9f3d
000000e0: c674 ebba f60f 933d 31c2 25bd 8f4c 40bd
000000f0: d33e 3e3c 04bb b9bd 6297 2f3d f616 e43c
00000100: 0089 22b9 f82f 4f3d 8c5d 863d 4436 ac3b
00000110: 6564 7d3d cc9e 263c 5902 c83c 7e10 783d
00000120: 0537 a33b 76bc 453d b9b6 7bbc e5b9 b7bb
00000130: e041 82bd d82a f23c 9d74 22bd 7a2f cbbd
00000140: d2ce 8c3d 82fc 853d 4b16 db3d 20e5 173d
00000150: 2291 51bd b874 873d 6260 e7bc 060b edbb
00000160: 17cb 15bd 0eaf bcbd 28cb 44bd 61dd 59bd
00000170: 6c83 82bd e6c0 b8bb ad28 75bd e37c e33c
00000180: 6e48 4fbd 270e a2bc ed96 a13d 9f46 b13d
00000190: 3920 93bd c394 733c b416 2dbd 6a95 c7bd
000001a0: a2d5 023c 0edf 0fbd f62a b33d d204 c93d
000001b0: 838e 693d 56c4 343d 0e4a 9abd 3dcf 533d
000001c0: 9f89 913d ac9f 9b3d fad9 1a3d 1cf5 04bb
000001d0: 2852 5cbc 85e8 683c 8940 ca38 eb86 b9bd
000001e0: 85ea 70bd 5e52 0abd 3d37 8bbc 29da 62bd
000001f0: bb60 2d3d 2da6 d4ba f7a2 b63d a166 713d
00000200: ed0c 1fbd 6df6 a03b 5579 e93c 7352 be3d
00000210: f286 c7bc db5d 313d 0435 2e3d 32c4 b43d
00000220: 45ca 333d d876 93bc 46ff 71bd bff3 e93c
00000230: c4f5 4abd c043 e03c fd45 b43d ee5c 7abc
00000240: 1814 63bd 078b 64bd 256a 17bd a058 aa3c
00000250: ca25 91bd 38b2 c13b e1f9 743d 2451 b4bc
00000260: da11 84bd 4496 b6bd f036 5b3d 7607 143c
00000270: 0294 1c3d aba1 bdbd 6d20 4b3d 287f 0dbd
00000280: 2937 bc3d 8d70 8bbd 6195 b8bd 2513 b9bd
00000290: 17e1 7dbd 85ce e5bc 7eb0 89bd 8bef 7bbd
000002a0: a836 25bd ff02 9a3d 4e49 1e3d 0790 0a3d
000002b0: 143f 9ebd af66 0b3d 11cf fcba 241c 063d
000002c0: 0293 8fbd 3765 bb3a 26c2 e63c deab bdbc
000002d0: aff7 853d fd1e d23c 3ea5 4fbc fa6c 98bd
000002e0: 335d acbd f64f d1bc f690 e73b a6ad cbbd
000002f0: 6522 ffbc a35f 6c3d 417d 04bd 72dc 8fbd
00000300: 2848 8d3d fb90 7fbd 5236 e038 9278 223c
00000310: 78ee 353d 4b24 353d d607 6c3d dacc 173d
00000320: 755b bf3d 6eb3 833d 595a 603d 5405 88bd
00000330: de1d 813d a212 92bd be92 9dbc 5391 bebc
00000340: 3558 543d 164a 82bd 784c 013d 046a 343d
00000350: a2f6 6f3d b562 843d e474 813d 5c2d ad3d
00000360: 9907 b73d f8de 903c 1f4b 753d 7bdc a8bd
00000370: 5d46 1c3d 9cf6 1c3c 9221 77bd d152 9e3d
00000380: 5cfc 4fbd ea3a 85bd 291c 23bd 9938 8fbd
00000390: 804a fdbb c69d ad3d ce88 173c 915d d33d
000003a0: f080 9ebd c39d 43bd 51ab 63bd 0f21 a23d
000003b0: 4ae3 d73c 7835 463d 1efd 343d 0a82 303d
000003c0: a25d 4a3d 7fc7 513d 2481 ca3c 6361 07bd
000003d0: 0819 a83d bebc 8abc e8c7 74bd 6a70 35bd
000003e0: ae72 9c3b 54b7 a7bd b6b8 06bb eacc aebc
000003f0: 9059 39bd f529 49bd 386c b73d 1b8f c33b

module.conv_1.bias f4 [56]
0.017364027 -0.0021425385 0.07657309 0.057813797 0.01142934 0.047779787 -0.06756904 -0.044359714
-0.008811095 -0.0031500391 0.05954941 0.053803828 -0.060714286 -0.022044271 -0.025603183 -0.054091092
0.007948758 0.06850543 -0.01808648 0.04772223 0.073827535 0.031140126 0.024073552 0.049462378
-0.015074838 -0.011701025 -0.042342342 -0.017654262 0.036390003 0.06432032 0.06959301 0.012405938
0.0010650017 0.043747243 0.031047108 -0.034631114 -0.021745197 0.04669593 0.03115483 0.07003395
0.0455563 0.08078398 0.058816515 0.0024893277 0.0050214026 -0.074633814 0.022453085 0.05190391
-0.058825575 -0.0022685681 0.0112999845 0.025504475 -0.024142124 0.09880428 -0.016102817 0.08258462
00000000: 013f 8e3c d569 0cbb 5ad2 9c3d 29ce 6c3d
00000010: 2042 3b3c bdb4 433d a361 8abd 88b2 35bd
00000020: 695c 10bc e370 4ebb 15ea 733d 6761 5c3d
00000030: 8baf 78bd 3096 b4bc c4bd d1bc 9f8e 5dbd
00000040: 823b 023c 934c 8c3d 192a 94bc 6378 433d
00000050: e432 973d 9419 ff3c e635 c53c 1099 4a3d
00000060: 74fc 76bc a8b5 3fbc 2a6f 2dbd ac9f 90bc
00000070: af0d 153d 5fba 833d c886 8e3d 4642 4b3c
00000080: 8797 8b3a 4f30 333d 8156 fe3c 5bd9 0dbd
00000090: fc22 b2bc 3b44 3f3d 6a38 ff3c f66d 8f3d
000000a0: 3e99 3a3d 1272 a53d 96e9 703d fd23 233b
000000b0: 948a a43b 9dd9 98bd 88ef b73c 3299 543d
000000c0: 16f3 70bd 42ac 14bb 9223 393c c3ee d03c
000000d0: b4c5 c5bc e659 ca3d 0eea 83bc 2022 a93d

module.conv_2.weight f4 [12, 56, 1, 1, 1]
0.098888695 0.19892047 -0.06959003 -0.08153095 0.16083482 0.060099494 0.04283447 0.02547136
-0.012403804 0.07542708 -0.0976913 0.0592158 0.117276214 -0.054601077 0.06754158 -0.079465084
0.09012385 -0.020330898 -0.11389049 0.03944459 -0.115507744 0.06484255 0.12154573 0.08737382
-0.054986823 -0.046887342 -0.01983951 0.013983213 -0.029329697 0.10495036 0.032790575 -0.06072828
-0.14260384 0.069488056 -0.11392791 0.06580535 0.06032905 -0.08307465 -0.018268045 0.18973991
0.072283655 0.13233984 0.11516254 -0.1883863 0.15247898 0.050000586 -0.04396838 0.13687761
-0.048646543 0.058004647 0.0035073494 0.066204704 0.11700467 0.050967794 0.0014365113 0.076275155
-0.02520957 -0.042026304 0.10761197 -0.08079041 -0.15414391 0.010018923 0.0074668853 0.005472637
-0.011806236 0.08885684 -0.14219107 -0.115027905 0.103780985 -0.03273843 0.12339077 0.012539148
0.032518774 0.080165505 0.036015294 0.081473604 0.12890708 -0.04896573 0.054242015 0.08474151
0.0057122344 0.03278727 0.09148029 0.08747632 0.023507854 0.07671765 0.09742511 -0.11827162
-0.08569831 -0.06558619 -0.04605731 -0.038309112 -0.06403844 0.035901796 0.10283544 -0.12824936
0.051691964 0.119231425 0.07704197 -0.022595458 0.0906997 0.1450577 -0.092994176 0.025953118
0.063404486 0.20865592 -0.12222978 0.04383179 -0.020364203 -0.047515675 0.08247142 0.14024104
0.047531277 -0.062064778 0.044857375 0.05234334 -0.08588886 0.060616184 -0.10168833 0.0021558746
0.10455903 0.13963681 -0.022286639 -0.20125484 0.051545277 -0.030082503 -0.061216034 0.053138066
-0.0047777393 0.094130725 -0.122888125 0.034514572 0.11148029 -0.026148215 -0.02166408 0.10211489
-0.14962398 0.110524766 -0.11554978 0.0752693 0.13066131 -0.06712089 0.08989617 -0.04205528
0.13048734 -0.17323051 -0.10365351 0.12978089 0.12685582 -0.0520194 0.07435859 -0.03158488
-0.0014539704 -0.118968956 -0.064161964 -0.023448618 -0.07784486 0.049059514 0.026351823 -0.04058825
0.024877058 -0.044732723 0.06730939 -0.0038129196 -0.00020153669 0.09736795 -0.077781945 -0.060320288
-0.044418376 -0.09498351 0.057815563 0.058563467 -0.032326788 -0.046015237 0.02233141 0.08508549
-0.05211287 -0.08173883 0.05844624 -0.13684697 -0.07288122 0.07325044 -0.027811792 0.07157101
0.072444126 -0.026247665 -0.036855146 -0.037823442 -0.031631548 -0.011136517 0.012407413 0.104713045
-0.07079218 0.043217048 -0.07699305 -0.107527316 0.11323297 -0.06738157 0.10444572 0.082180254
-0.098779306 -0.05555267 -0.0035784328 -0.09276893 0.009602689 0.10218282 0.12567666 -0.062998176
0.10774507 -0.07275244 -0.048987243 -0.085358165 0.080566436 0.103331834 0.0030625253 0.07126617
0.0032550779 0.1275202 0.046065073 0.011480027 -0.11637052 0.13844642 0.15491194 -0.1197328
0.018194497 0.03531362 -0.038830508 -0.026735043 0.07567301 0.05315174 0.0015743655 0.07813366
0.09767485 -0.03652674 -0.02875679 0.121996805 0.09338033 -0.0092473375 -0.08306424 -0.105463654
0.051016495 -0.12740384 0.13993612 -0.10955398 -0.06977265 0.009636849 0.08956149 -0.018297782
-0.07489519 -0.09421468 0.02643896 0.06997045 0.09427218 -0.08294497 0.07164129 -0.094020665
00000000: 2886 ca3d cfb1 4b3e 3885 8ebd b3f9 a6bd
00000010: e2b1 243e e32a 763d 3273 2f3d 50a9 d03c
00000020: 5339 4bbc 8379 9a3d 6012 c8bd 448c 723d
00000030: 832e f03d 61a5 5fbd 3d53 8a3d 97be a2bd
00000040: da92 b83d fc8c a6bc 6b3f e9bd a790 213d
00000050: 538f ecbd 2ccc 843d f8ec f83d 0cf1 b23d
00000060: dd39 61bd f10c 40bd 7886 a2bc d919 653c
00000070: d544 f0bc 37f0 d63d 694f 063d 38be 78bd
00000080: be06 12be c14f 8e3d 0953 e9bd f5c4 863d
00000090: 981b 773d 0b23 aabd dea6 95bc 2e4b 423e
000000a0: 7409 943d 1884 073e 56da eb3d 57e8 40be
000000b0: 7323 1c3e 6acd 4c3d 3018 34bd a529 0c3e
000000c0: 9941 47bd 4896 6d3d 8fdb 653b 5596 873d
000000d0: 25a0 ef3d 9bc3 503d 5249 bc3a 2636 9c3d
000000e0: 4d84 cebc c623 2cbd aa63 dc3d 7175 a5bd
000000f0: e7d7 1dbe 6926 243c c6ac f43b ce53 b33b
00000100: f16e 41bc 93fa b53d 899a 11be c093 ebbd
00000110: 208b d43d bb18 06bd 4db4 fc3d 0071 4d3c
00000120: 6832 053d d02d a43d c684 133d a2db a63d
00000130: 3800 043e 4a90 48bd e02c 5e3d f58c ad3d
00000140: b22d bb3b f24b 063d 055a bb3d c926 b33d
00000150: 8b93 c03c 251e 9d3d d186 c73d 6438 f2bd
00000160: 9882 afbd 0d52 86bd 97a6 3cbd 04ea 1cbd
00000170: 9626 83bd c30d 133d 639b d23d cd53 03be
00000180: f4ba 533d 9b2f f43d 2ec8 9d3d 1c1a b9bc
00000190: c4c0 b93d 018a 143e bb73 bebd a29b d43c
000001a0: 36da 813d e6a9 553e 9b53 fabd f788 333d
000001b0: d4d2 a6bc cc9f 42bd c7e6 a83d 599b 0f3e
000001c0: 28b0 423d a337 7ebd 5ebc 373d f865 563d
000001d0: 80e6 afbd ad48 783d f941 d0bd 9349 0d3b
000001e0: 0b23 d63d f4fc 0e3e 7892 b6bc c015 4ebe
000001f0: 2421 533d 956f f6bc aabd 7abd 4da7 593d
00000200: 958e 9cbb 9cc7 c03d c5ac fbbd 275f 0d3d
00000210: c74f e43d c834 d6bc de78 b1bc 9d21 d13d
00000220: 0737 19be cf5a e23d 5da5 ecbd ca26 9a3d
00000230: 14cc 053e ad76 89bd 7c1b b83d 2842 2cbd
00000240: 799e 053e 5763 31be 4b48 d4bd 48e5 043e
00000250: 7ee6 013e 4b12 55bd 5149 983d 265f 01bd
00000260: 2793 beba ffa5 f3bd 5967 83bd 5117 c0bc
00000270: 206d 9fbd a1f2 483d c7df d73c dd3f 26bd
00000280: f9ca cb3c a939 37bd 81d9 893d 2de2 79bb
00000290: 9853 53b9 d968 c73d 244c 9fbd 6812 77bd
000002a0: 0bf0 35bd b786 c2bd 03d0 6c3d 3fe0 6f3d
000002b0: 1869 04bd 797a 3cbd 5cf0 b63c 4d41 ae3d
000002c0: 4e74 55bd b066 a7bd 5365 6f3d 9d21 0cbe
000002d0: c042 95bd 5404 963d 8ed5 e3bc d293 923d
000002e0: 965d 943d 5805 d7bc 6cf5 16bd c1ec 1abd
000002f0: 1590 01bd f075 36bc 7648 4b3c cb73 d63d
00000300: 7efb 90bd 5c04 313d 88ae 9dbd 4837 dcbd
00000310: b0e6 e73d 59ff 89bd a3e7 d53d 1f4e a83d
00000320: ce4c cabd 328b 63bd 2484 6abb a3fd bdbd
00000330: 9954 1d3c 3a45 d13d 62b1 003e 3005 81bd
00000340: 72a9 dc3d 3bff 94bd d9a6 48bd 43d0 aebd
00000350: 0400 a53d a49f d33d a6b4 483b fff3 913d
00000360: 2553 553b a894 023e bbae 3c3d b916 3c3c
00000370: ab53 eebd e6c4 0d3e 3ca1 1e3e 7836 f5bd
00000380: a00c 953c 04a5 103d bd0c 1fbd 7303 dbbc
00000390: 73fa 9a3d a4b5 593d f15a ce3a 8a04 a03d
000003a0: c009 c83d 109d 15bd 5c93 ebbc 76d9 f93d
000003b0: 303e bf3d 2582 17bc 961d aabd 54fd d7bd
000003c0: acf6 503d 2776 02be 6a4b 0f3e d65d e0bd
000003d0: f7e4 8ebd e0e3 1d3c 046c b73d 3be5 95bc
000003e0: a662 99bd a0f3 c0bd 8596 d83c ab4c 8f3d
000003f0: c611 c13d 0ddf a9bd abb8 923d e88d c0bd

module.conv_2.bias f4 [12]
-0.040908545 -0.10188288 0.066489816 -0.051801696 0.11778058 0.039167367 0.0036870432 0.021370012
-0.08135182 0.010550443 -0.0994135 0.017319242
00000000: b88f 27bd f9a7 d0bd d02b 883d 042e 54bd
00000010: f236 f13d f66d 203d 52a2 713b 2a10 af3c
00000020: c89b a6bd c4db 2c3c 4e99 cbbd 15e1 8d3c

module.conv_3.weight f4 [12, 12, 3, 3, 3]
-0.052694708 0.053635735 0.022948967 0.003064348 -0.014135431 0.028647654 0.023077382 -0.033986226
-0.058548484 0.0045955135 0.039249223 -0.021967817 -0.055931717 0.04135828 -0.04992149 0.052384872
0.014628233 0.03960745 -0.044987727 0.018872445 -0.008574793 0.042608697 0.03843202 -0.025917865
0.007758516 0.061176717 0.019555092 -0.031303413 0.048152965 0.030762147 -0.05243768 0.020599036
0.005952608 0.023644136 -0.030658735 0.011395195 -0.027802214 0.018769693 -0.003943876 -0.013874029
-0.029540885 0.01917223 -0.0035463686 0.021545261 -0.008105142 0.025197348 -0.019541329 0.012458637
0.015045344 0.028997831 -0.044846732 0.0077261496 -0.05332936 -0.022789152 0.023196986 0.04931912
0.006416809 0.025158247 0.040896248 -0.009613637 -0.0100968825 -0.018737087 0.0028104044 0.043694463
0.03335556 0.05357779 -0.054830708 0.02792911 0.007948484 0.0012311264 0.009936095 -0.022995219
-0.007267511 0.04430617 -0.05044249 -0.054264475 -0.001266572 -0.0041758907 0.0006706969 -0.04201861
0.03777859 -0.011311641 -0.030362202 -0.010383483 0.03226183 0.032255393 0.035402235 -0.04827326
0.042931434 0.00648855 -0.021766813 0.021134015 -0.05322364 0.022588575 0.014938331 0.044821326
0.039404266 -0.0491249 -0.05068785 -0.010083705 -0.021880247 -0.026637064 0.0052918964 -0.026551986
-0.013987542 -0.039840344 0.056498054 0.040153522 0.051160187 0.05210183 0.024629321 -0.045282986
-0.0046834927 0.03700021 -0.059355423 0.045067586 0.03148447 -0.05328381 -0.03808478 -0.0070664645
-0.04257048 0.014971291 -0.025207378 0.03640332 -0.044139992 0.008194615 -0.04946469 -0.007658218
-0.027905965 0.048618894 0.02368371 -0.026593957 0.023836834 -0.05659289 0.021244606 -0.003953606
-0.052269537 0.04662128 -0.037498374 0.031428333 0.01608478 -0.005718242 -0.0027656322 -0.0054075234
0.0059471135 -0.04572246 -0.021990739 -0.054453015 -0.07290027 -0.001214198 -0.015403313 -0.022070887
0.016163278 0.011116932 0.009362154 0.004385608 0.03045491 -0.019419532 -0.04048436 -0.019161941
-0.012141688 0.0665592 0.026671167 0.05312306 -0.034773376 0.04375162 0.023234237 0.054923665
-0.09417113 -0.08181626 -0.03199593 0.03641447 0.030915987 0.007700487 -0.04402047 -0.02648273
-0.04430865 0.011309214 -0.061366864 -0.022378923 0.046135753 0.047722317 -0.016498761 0.0001428509
0.009580036 0.0013791817 0.014356963 0.015930483 0.062196963 0.022577776 -0.001330151 -0.0011384677
-0.007698752 0.031450447 -0.059095427 -0.04281836 -0.033621978 -0.025522858 0.026752517 0.0061526108
0.04197465 -0.013872552 0.019931741 0.044169996 -0.040699586 -0.03231364 0.0023980017 0.035525993
0.020998225 0.03705415 -0.012893852 0.007246024 -0.004587 -0.049702942 -0.018402535 0.035550322
-0.03627699 0.02397799 0.011310992 0.053084236 0.020029558 0.023095658 -0.01714893 0.042142857
-0.03606856 -0.007947822 -0.040487714 0.008508274 0.027923105 -0.00035050247 0.024981605 -0.031002913
0.050264876 0.047544558 0.006086557 -0.024260703 0.01798838 0.051446095 -0.055289786 0.054164436
0.040570576 -0.006522589 -0.043052085 -0.013697398 -0.004504283 -0.008080061 0.02509991 0.03699895
0.03859443 0.012184669 0.035286296 0.007574714 0.02085095 0.0040735262 -0.0027158961 0.0063300435
00000000: 68d6 57bd 25b1 5b3d 79ff bb3c 3ad3 483b
00000010: 4b98 67bc 7cae ea3c c70c bd3c 2435 0bbd
00000020: 89d0 6fbd f695 963b cbc3 203d daf5 b3bc
00000030: a818 65bd 4d67 293d 7a7a 4cbd 8591 563d
00000040: 42ab 6f3c 6c3b 223d 0d45 38bd 639a 9a3c
00000050: 4a7d 0cbc 7586 2e3d e56a 1d3d b451 d4bc
00000060: 263b fe3b 7094 7a3d 0032 a03c 0238 00bd
00000070: 0b3c 453d e600 fc3c e5c8 56bd 4fbf a83c
00000080: 180e c33b 59b1 c13c 0728 fbbc e9b2 3a3c
00000090: 78c1 e3bc e6c2 993c a13b 81bb e54f 63bc
000000a0: baff f1bc 150f 9d3c 316a 68bb b07f b03c
000000b0: 6ecb 04bc ab6a ce3c 2315 a0bc 501f 4c3c
000000c0: bf80 763c dc8c ed3c 35b1 37bd a42b fd3b
000000d0: e36f 5abd 51b0 babc 9b07 be3c d802 4a3d
000000e0: 1844 d23b ab18 ce3c d382 273d 8482 1dbc
000000f0: 656d 25bc 857e 99bc c32e 383b f7f8 323d
00000100: d79f 083d 6274 5b3d 2a96 60bd 97cb e43c
00000110: 5c3a 023c bf5d a13a 01cb 223c 7860 bcbc
00000120: 4d24 eebb 637a 353d c99c 4ebd 6d44 5ebd
00000130: 1b03 a6ba e9d5 88bb b5d1 2f3a b51b 2cbd
00000140: b9bd 1a3d 7654 39bc 27ba f8bc 7c1f 2abc
00000150: fb24 043d 3b1e 043d ef01 113d 2fba 45bd
00000160: dfd8 2f3d e79d d43b 5150 b2bc 3e21 ad3c
00000170: 0801 5abd ad0b b93c e7bf 743c 9196 373d
00000180: 5e66 213d 3137 49bd 109e 4fbd 2036 25bc
00000190: 343e b3bc f935 dabc a567 ad3b 8d83 d9bc
000001a0: 012c 65bc a12f 23bd 816a 673d 0578 243d
000001b0: 588d 513d ba68 553d 6ec3 c93c a77a 39bd
000001c0: fc77 99bb 888d 173d ac1e 73bd ca98 383d
000001d0: dcf5 003d 2040 5abd c9fe 1bbd cd8d e7bb
000001e0: 625e 2ebd 254a 753c b47f cebc a61b 153d
000001f0: 23cc 34bd b542 063c 7d9b 4abd caf1 fabb
00000200: 0d9b e4bc 9b24 473d 5704 c23c 92db d9bc
00000210: 7745 c33c f2cd 67bd 2b09 ae3c 408d 81bb
00000220: 9518 56bd f5f5 3e3d e597 19bd ffba 003d
00000230: 3bc4 833c 1760 bbbb 9c3f 35bb 9831 b1bb
00000240: 01e0 c23b 7947 3bbd ec25 b4bc 200a 5fbd
00000250: bd4c 95bd b925 9fba 2d5e 7cbc 01ce b4bc
00000260: da68 843c cb23 363c b863 193c 25b5 8f3b
00000270: 937c f93c b615 9fbc eed2 25bd 81f9 9cbc
00000280: eeed 46bc 3150 883d 7e7d da3c 9197 593d
00000290: 876e 0ebd e634 333d ba55 be3c a3f7 603d
000002a0: cbdc c0bd 498f a7bd 2a0e 03bd 5727 153d
000002b0: 8643 fd3c 5e54 fc3b cf4e 34bd 4ff2 d8bc
000002c0: fd7c 35bd 484a 393c d25b 7bbd 0154 b7bc
000002d0: d8f8 3c3d 7a78 433d 6928 87bc 3fca 1539
000002e0: 95f5 1c3c a9c5 b43a 7839 6b3c a580 823c
000002f0: 3ec2 7e3d 07f5 b83c 7658 aeba a338 95ba
00000300: d045 fcbb 2fd2 003d 0c0e 72bd 4e62 2fbd
00000310: 33b7 09bd 5015 d1bc 1828 db3c d79b c93b
00000320: 9ced 2b3d b349 63bc e447 a33c 99eb 343d
00000330: 9cb4 26bd 4f5b 04bd cb27 1d3b b483 113d
00000340: 7804 ac3c 18c6 173d bc40 53bc 0e70 ed3b
00000350: 8b4e 96bb 5095 4bbd eac0 96bc 379d 113d
00000360: 2e97 14bd 7d6d c43c bd51 393c db6e 593d
00000370: 0715 a43c 1b33 bd3c ea7b 8cbc fd9d 2c3d
00000380: a0bc 13bd 9537 02bc 72d6 25bd 4a66 0b3c
00000390: ffbe e43c a5c3 b7b9 39a6 cc3c d2f9 fdbc
000003a0: 8be2 4d3d 15be 423d be71 c73b 62be c6bc
000003b0: 5e5c 933c 24b9 523d 8b77 62bd 87db 5d3d
000003c0: 552d 263d 71bb d5bb 6257 30bd 0d6b 60bc
000003d0: aa98 93bb 3b62 04bc 549e cd3c 368c 173d
000003e0: 3115 1e3d 35a2 473c 5d88 103d 4e35 f83b
000003f0: 9dcf aa3c 377b 853b 2dfd 31bb 416c cf3b

module.conv_3.bias f4 [12]
-0.00095200184 -0.04362282 0.009659145 -0.013177184 -0.045651194 -0.005646488 0.05815175 0.042550966
-0.02341727 -0.00028010146 -0.03057019 -0.014707323
00000000: c38f 79ba d8ad 32bd 6441 1e3c 1ee5 57bc
00000010: bffc 3abd 2d06 b9bb 8830 6e3d ec49 2e3d
00000020: 93d5 bfbc 95da 92b9 566e fabc fcf6 70bc

module.conv_4.weight f4 [12, 12, 3, 3, 3]
0.03375809 0.045632474 0.003785285 -0.0010061043 -0.040827446 -0.050775625 0.007419442 0.01640993
-0.0036459786 0.033931475 -0.047888108 -0.05182842 0.048419952 0.039704323 0.032755237 -0.008014173
0.0011525861 -0.033149064 0.04799245 -0.050609484 0.0423365 -0.008143662 0.022823205 -0.049267434
-0.03805351 0.0071408 -0.00038102453 0.03734072 -0.027155869 -0.029996399 0.048366472 -0.02081803
0.016641684 -0.025481172 -0.021923758 -0.0042444887 0.025295433 -0.016129319 -0.01875358 -0.009405913
0.07769185 0.042555127 0.055430673 0.024852987 0.020517688 -0.051458977 -0.051059518 0.016712038
-0.018547093 -0.041107208 -0.0027117552 -0.03055896 -0.006886055 -0.055422932 -0.042308908 0.01988901
0.045123298 -0.015061112 0.05222589 -0.03122992 -0.00045918408 0.042718343 0.05860985 0.030115878
-0.027860695 -0.031640742 -0.041267674 -0.00058386667 0.044647593 -0.03232745 0.049689874 0.018537816
0.0058424626 -0.009797595 -0.048020344 -0.0020278972 -0.008783112 0.014521685 0.049543854 -0.023683488
0.020930298 -0.040887106 0.05378698 -0.0055554863 0.0019354938 -0.023868337 -0.030717859 -0.03907278
0.050924204 0.053836115 -0.019848874 0.04495515 0.007039788 0.052895144 -0.025464313 -0.039642926
-0.019641818 0.0073552765 -0.012158372 0.031471577 0.008231789 -0.048559118 -0.023487145 -0.032629337
0.010003558 0.034698818 0.04464707 0.041374717 0.04074298 -0.017181795 0.042818423 0.027549366
0.09630298 0.04509115 -0.0058438466 0.08810821 0.040988058 0.022957398 0.04332233 0.01717158
0.021599794 0.032040033 0.012140947 0.025130482 0.019419089 -0.0115029 -0.015517934 0.04627873
0.0016497866 0.054931443 0.019950094 0.0034253513 0.04062675 0.05995733 0.060883872 0.06559816
-0.0051327525 0.05424139 0.064129986 0.064907454 0.011770545 0.06562955 0.027807722 0.012484405
0.05391175 -0.03416548 -0.006477792 -0.008729946 0.013211434 0.0642776 -0.004128291 0.0220932
-0.018207463 -0.046023794 0.045535613 -0.027348148 0.04634231 0.068633236 0.054356713 0.06873698
0.070025094 -0.025543097 0.013995121 -0.047037467 -0.025530765 0.057751883 0.007712555 0.065192334
0.0059149624 -0.014704788 0.06045524 -0.04719548 -0.041407123 0.04902567 -0.016533775 0.006321212
0.03489414 -0.030702055 -0.0070951963 -0.0020900066 -0.01663911 -0.0013929054 -0.043112352 -0.03211105
0.0054671397 0.014369391 0.027833596 0.042055737 0.03423677 -0.0075432956 -0.061380014 0.020827617
-0.05011093 -0.00570236 -0.056938272 -0.06252061 -0.017005134 0.012863 0.0055016167 -0.058218684
-0.035861857 -0.052269116 -0.044636667 -0.023804797 -0.007898128 -0.018431712 -0.04142007 -0.00764638
0.021310544 -0.060757637 0.036518194 0.036095712 0.010710881 -0.036335897 -0.0073770513 -0.046460304
-0.009716735 0.082557514 0.04134751 -0.0021844567 -0.0053043016 0.009010507 0.036032826 0.031123254
-0.01237965 -0.0045237117 0.0618269 0.014924532 -0.051192686 0.040816113 -0.044813592 -0.0029725442
-0.026806153 -0.016583191 0.051168896 0.04682938 0.022307953 0.024188828 0.023924641 -0.035161734
0.033077437 -0.05225716 -0.008453665 0.02356834 0.057858095 -0.00862159 0.012187682 0.04856123
0.054833017 0.028383939 0.01665718 0.0106971925 0.033016488 0.01645116 -0.033565514 0.029619973
00000000: ec45 0a3d 1ee9 3a3d 8b12 783b 42df 83ba
00000010: ae3a 27bd 1afa 4fbd ca1e f33b 1e6e 863c
00000020: 5ff1 6ebb bbfb 0a3d 5226 44bd 0a4a 54bd
00000030: 0054 463d 00a1 223d 5b2a 063d e14d 03bc
00000040: 5f12 973a 50c7 07bd bb93 443d e44b 4fbd
00000050: 0a69 2d3d fe6c 05bc bbf7 ba3c a6cc 49bd
00000060: ffdd 1bbd 5ffd e93b 3fc4 c7b9 95f2 183d
00000070: fc75 debc 02bb f5bc ec1b 463d 938a aabc
00000080: 2454 883c e4bd d0bc 7499 b3bc 5a15 8bbb
00000090: 5e38 cf3c a221 84bc 1ca1 99bc 421b 1abc
000000a0: e81c 9f3d 494e 2e3d 460b 633d 7e98 cb3c
000000b0: b614 a83c a6c6 52bd c923 51bd afe7 883c
000000c0: 13f0 97bc 0860 28bd b4b7 31bb c956 fabc
000000d0: 6ba4 e1bb 2803 63bd 1b4c 2dbd 47ee a23c
000000e0: 35d3 383d e2c2 76bc d1ea 553d e4d5 ffbc
000000f0: a5be f0b9 6ef9 2e3d e210 703d 93b5 f63c
00000100: 1d3c e4bc b999 01bd 4b08 29bd a10e 19ba
00000110: 65e0 363d ca69 04bd 9c87 4b3d 9edc 973c
00000120: 2172 bf3b 1886 20bc fbb0 44bd 78e6 04bb
00000130: 0be7 0fbc 5dec 6d3c 7fee 4a3d e003 c2bc
00000140: 0476 ab3c 3d79 27bd bd4f 5c3d cc0a b6bb
00000150: 65b0 fd3a 8887 c3bc 05a4 fbbc c80a 20bd
00000160: e695 503d 4283 5c3d 1b9a a2bc e422 383d
00000170: 06ae e63b 94a8 583d 899a d0bc 9f60 22bd
00000180: e1e7 a0bc 8804 f13b e933 47bc 57e8 003d
00000190: a0de 063c ede5 46bd 1d68 c0bc 57a6 05bd
000001a0: f7e5 233c 5920 0e3d d9df 363d 8978 293d
000001b0: 1ce2 263d d6c0 8cbc 5f62 2f3d 35af e13c
000001c0: 7f3a c53d 7fb1 383d bd7d bfbb 1472 b43d
000001d0: 18e3 273d 2711 bc3c c172 313d 6aab 8c3c
000001e0: 0df2 b03c 693c 033d d3ea 463c 71de cd3c
000001f0: c814 9f3c a976 3cbc ef3e 7ebc c48e 3d3d
00000200: a73d d83a cbff 603d 616e a33c dc7b 603b
00000210: 3c68 263d d195 753d 5e61 793d 5458 863d
00000220: a630 a8bb 382c 5e3d 9556 833d 33ee 843d
00000230: 3ed9 403c c968 863d 05cd e33c 648b 4c3c
00000240: 91d2 5c3d 1af1 0bbd a843 d4bb 0c08 0fbc
00000250: c574 583c f9a3 833d 9d46 87bb ccfc b43c
00000260: d127 95bc 7283 3cbd 8d83 3a3d 3909 e0bc
00000270: 6fd1 3d3d 958f 8c3d 25a5 5e3d f9c5 8c3d
00000280: 5169 8f3d c23f d1bc cb4b 653c 5caa 40bd
00000290: e525 d1bc 3d8d 6c3d 9ab9 fc3b 8f83 853d
000002a0: 4dd2 c13b 5aec 70bc ea9f 773d 0c50 41bd
000002b0: 849a 29bd 24cf 483d d771 87bc 2b22 cf3b
000002c0: 28ed 0e3d e082 fbbc d27e e8bb 7ef8 08bb
000002d0: be4e 88bc 2692 b6ba 9496 30bd e086 03bd
000002e0: b125 b33b 986d 6b3c 4803 e43c a342 2c3d
000002f0: db3b 0c3d c02d f7bb 9c69 7bbd ae9e aa3c
00000300: 1e41 4dbd ddda babb 1b38 69bd ce0a 80bd
00000310: 5a4e 8bbc 55bf 523c e846 b43b b776 6ebd
00000320: e2e3 12bd 2418 56bd f0d4 36bd 4702 c3bc
00000330: 2667 01bc 1afe 96bc 17a8 29bd 7c8e fabb
00000340: 7393 ae3c 00dd 78bd 1a94 153d 19d9 133d
00000350: b17c 2f3c f3d4 14bd 31bb f1bb 294d 3ebd
00000360: f132 1fbc ea13 a93d 025c 293d 1a29 0fbb
00000370: b5cf adbb cea0 133c 2897 133d 32f6 fe3c
00000380: 04d4 4abc a53b 94bb 343e 7d3d 0686 743c
00000390: 6caf 51bd cc2e 273d 758e 37bd 04cf 42bb
000003a0: 9498 dbbc 79d9 87bc 7a96 513d 2ad0 3f3d
000003b0: 2bbf b63c a627 c63c 9cfd c33c c005 10bd
000003c0: 357c 073d 9b0b 56bd 3e81 0abc 6412 c13c
000003d0: 9cfc 6c3d 9241 0dbc d8ae 473c 24e8 463d
000003e0: 9698 603d 6f85 e83c a374 883c 4743 2f3c
000003f0: 4c3c 073d 95c4 863c fe7b 09bd 96a5 f23c

module.conv_4.bias f4 [12]
0.021199632 0.021942511 -0.046112075 -0.018923985 -0.027472587 -0.012305336 -0.033363905 -0.042995382
0.007955351 0.0022180977 0.06272494 -0.032499384
00000000: daaa ad3c c8c0 b33c 04e0 3cbd 7906 9bbc
00000010: 310e e1bc 529c 49bc 97a8 08bd ed1b 30bd
00000020: 2957 023c 815d 113b ef75 803d 131e 05bd

module.conv_5.weight f4 [12, 12, 3, 3, 3]
0.024997916 0.044308506 -0.007720424 -0.009520231 -0.046567395 0.010462857 0.0066361134 -0.00065840414
0.06944524 -0.041721214 0.047434445 0.0038969547 -0.0055817487 0.04644681 0.028010601 0.016307125
0.011887651 0.040285897 0.025610156 -0.041530192 -0.0034580184 -0.026218573 -0.04681911 -0.047504853
0.041829478 0.018509598 0.023217814 0.069128975 0.00050210924 0.043024406 0.0017736172 0.030456377
0.053219546 -0.017467901 -0.014083913 -0.058835417 -0.050324887 -0.040368468 -0.005614181 -0.07308493
-0.037214868 -0.06289368 -0.054182798 0.00085082697 -0.045840435 -0.0028307156 -0.054386873 0.02124792
-0.022831455 -0.0031478486 0.0013910678 0.05788375 0.045241594 -0.013857991 0.039795198 -0.037643764
0.03327592 0.017956277 -0.028959647 -0.025653606 0.022291336 0.052917186 0.009643592 -0.04248572
-0.037279893 0.023839377 -0.012776466 -0.0343546 -0.04492141 -0.04907064 0.010347713 -0.0036488206
-0.046813067 0.006300573 -0.013171452 -0.0647879 -0.056532253 -0.011270312 0.054480687 -0.02079975
0.023618309 0.042376462 0.012237893 -0.040442396 -0.009820887 0.004201205 -0.009147662 0.051056523
0.07152405 -0.022440553 -0.006423611 -0.03999329 0.011031394 0.0402871 -0.052931003 -0.010877419
-0.042008076 -0.008967611 0.019887587 -0.02396213 -0.05922295 0.0025222243 -0.045596838 -0.0075102746
-0.059840348 -0.032668546 0.06858391 -0.0095586665 -0.039251965 0.040028427 0.045828007 -0.037006103
0.007915214 0.04753989 0.04282898 -0.0011664684 0.012165291 0.009302851 0.053625792 -0.047747836
-0.03179889 -0.0185786 0.031777352 -0.047630828 -0.019707799 0.05112329 0.011723828 0.015316352
-0.058357995 -0.04329727 0.012836994 -0.025404165 -0.022574382 0.025056092 -0.03312875 0.061822683
0.06924626 -0.04329051 0.05841871 -0.024248334 0.041864537 -0.04706624 0.059870485 0.05423405
-0.014214655 0.004185094 0.0005953409 0.05644318 -0.048670225 -0.03383701 0.017800951 -0.046290662
-0.049623266 -0.019477902 0.034769747 0.017359592 0.03268152 -0.046741858 -0.004429938 0.0340715
0.035336424 0.0041167857 -0.014442995 0.056383412 -0.035662316 -0.0030529883 0.044486843 -0.029070167
0.026081985 -0.025222654 0.05927677 0.053064253 -0.04609404 -0.0062941904 0.056322206 0.014324546
0.034994327 -0.0029885706 0.013041039 -0.011844918 0.020432953 -0.034426086 0.014481045 0.019733733
-0.016694764 -0.016741466 0.05257235 0.0060365903 -0.013355786 -0.047808204 0.016264752 -0.018438341
-0.049092468 -0.0019376979 -0.018760866 -0.033150334 -0.042448238 0.02446868 0.034889713 -0.020611322
0.033885196 0.044026803 0.015488489 0.0066195577 -0.041297346 -0.002063126 0.0028529437 -0.015252503
-0.006389633 -0.031941567 0.051702086 -0.043638647 0.002454824 -0.023113225 -0.048647214 -0.015842693
-0.079973236 -0.06888787 -0.009330405 0.0104377745 0.05842055 0.022462107 0.030269423 0.04018619
-0.030651266 0.052084334 -0.06381926 -0.047169406 0.068850875 0.060126904 -0.012763548 -0.036608126
-0.013029837 0.029012708 0.07211522 -0.029334316 -0.046851777 0.019703876 0.083629385 0.013674655
0.003942306 0.017057886 -0.05390513 -0.00014648958 -0.12740412 -0.047361244 0.013811653 -0.061208554
0.009853784 -0.016103942 -0.0692687 -0.05857818 0.030531228 -0.024393493 0.046056207 0.15996793
00000000: 6ec8 cc3c d67c 353d 9cfb fcbb befa 1bbc
00000010: 74bd 3ebd 676c 2b3c c173 d93b c198 2cba
00000020: 4e39 8e3d dde3 2abd 9f4a 423d 0d64 7f3b
00000030: 1ae7 b6bb 033f 3e3d 7d76 e53c 8596 853c
00000040: 6cc4 423c d302 253d 64cc d13c 901b 2abd
00000050: ec9f 62bb 55c8 d6bc 65c5 3fbd 7394 42bd
00000060: 6355 2b3d 71a1 973c 4933 be3c 7e93 8d3d
00000070: fb9f 033a 5c3a 303d b878 e83a a77f f93c
00000080: bdfc 593d d818 8fbc 36c0 66bc 68fd 70bd
00000090: 7821 4ebd 6859 25bd 2af7 b7bb 8dad 95bd
000000a0: 9e6e 18bd 67ce 80bd c8ee 5dbd 080a 5f3a
000000b0: 2ec3 3bbd 8783 39bb c5c4 5ebd 1e10 ae3c
000000c0: 0809 bbbc 234c 4ebb 7d54 b63a 8317 6d3d
000000d0: 404f 393d a10c 63bc 4a00 233d 5930 1abd
000000e0: 554c 083d 0b19 933c c83c edbc 8327 d2bc
000000f0: 529c b63c b1bf 583d 2800 1e3c 8205 2ebd
00000100: cdb2 18bd cc4a c33c 6254 51bc 69b7 0cbd
00000110: 83ff 37bd 4cfe 48bd 7489 293c 0d21 6fbb
00000120: 0fbf 3fbd 0975 ce3b 13cd 57bc 85af 84bd
00000130: 5d8e 67bd 1da7 38bc 2427 5f3d 3d64 aabc
00000140: 2f7b c13c f192 2d3d 7281 483c eda6 25bd
00000150: c9e7 20bc 43aa 893b 13e0 15bc a520 513d
00000160: 337b 923d 40d5 b7bc 287d d2bb 01d0 23bd
00000170: 05bd 343c 1604 253d 2ece 58bd 3437 32bc
00000180: a910 2cbd e3ec 12bc 4beb a23c 3b4c c4bc
00000190: c493 72bd e74b 253b c0c3 3abd c018 f6bb
000001a0: 271b 75bd 74cf 05bd b975 8c3d f49b 1cbc
000001b0: abc6 20bd d9f4 233d 26b6 3b3d b693 17bd
000001c0: d0ae 013c 30b9 423d 716d 2f3d 2fe4 98ba
000001d0: ee50 473c fc6a 183c b8a6 5b3d 3c93 43bd
000001e0: 8e3f 02bd 2632 98bc f828 023d 8b18 43bd
000001f0: 4072 a1bc a866 513d 4c15 403c 70f1 7a3c
00000200: cb08 6fbd 7a58 31bd 4152 523c 651c d0bc
00000210: e9ed b8bc 6f42 cd3c 03b2 07bd c839 7d3d
00000220: fcd0 8d3d 6451 31bd 7548 6f3d 71a4 c6bc
00000230: 267a 2b3d 88c8 40bd c13a 753d 8624 5e3d
00000240: 96e4 68bc 1d23 893b a710 1c3a f730 673d
00000250: 6e5a 47bd ad98 0abd 4dd3 913c 479b 3dbd
00000260: c441 4bbd 1f90 9fbc b96a 0e3d b435 8e3c
00000270: 0fdd 053d 6474 3fbd 0329 91bb 8f8e 0b3d
00000280: edbc 103d 1ae6 863b 50a2 6cbc 4bf2 663d
00000290: a612 12bd a514 48bb d637 363d 8f24 eebc
000002a0: e3a9 d53c bd9f cebc 33cc 723d e759 593d
000002b0: 1bcd 3cbd 7f3f cebb 1db2 663d 80b1 6a3c
000002c0: 3656 0f3d e5db 43bb 15aa 553c 3011 42bc
000002d0: 0263 a73c 5e02 0dbd e841 6d3c a3a8 a13c
000002e0: 75c3 88bc 6625 89bc 1b56 573d 97ce c53b
000002f0: 3ad2 5abc 89d2 43bd a83d 853c 010c 97bc
00000300: 2f15 49bd 5afa fdba 63b0 99bc a5c8 07bd
00000310: 34de 2dbd 8b72 c83c 84e8 0e3d 13d9 a8bc
00000320: 34cb 0a3d 7355 343d 6ec3 7d3c e0e8 d83b
00000330: 6827 29bd 8335 07bb 74f8 3a3b a2e5 79bc
00000340: 2060 d1bb 29d5 02bd 91c5 533d 70be 32bd
00000350: 1de1 203b f257 bdbc 4d42 47bd 89c8 81bc
00000360: 02c9 a3bd 1515 8dbd 8ede 18bc 3303 2b3c
00000370: 634a 6f3d 7402 b83c 95f7 f73c 469a 243d
00000380: 5d18 fbbc 6256 553d acb3 82bd b534 41bd
00000390: b001 8d3d a147 763d 331e 51bc 67f2 15bd
000003a0: 197b 55bc 0fac ed3c 25b1 933d 854e f0bc
000003b0: a6e7 3fbd 066a a13c e245 ab3d a90b 603c
000003c0: 762e 813b fbbc 8b3c a0cb 5cbd ff9a 19b9
000003d0: 3a76 02be ddfd 41bd 454a 623c d2b5 7abd
000003e0: c471 213c 6aec 83bc c0dc 8dbd acef 6fbd
000003f0: a01c fa3c ddd4 c7bc 6fa5 3c3d a2ce 233e

module.conv_5.bias f4 [12]
-0.053645678 0.0607566 0.020024117 -0.0061809593 -0.011160219 0.00074062706 0.04618155 0.07310972
-0.00012785381 0.0392334 0.031180548 0.037738606
00000000: 92bb 5bbd eadb 783d 9e09 a43c a589 cabb
00000010: 5ad9 36bc a426 423a dd28 3d3d 8dba 953d
00000020: 7f10 06b9 34b3 203d 596e ff3c cc93 1a3d

module.conv_6.weight f4 [12, 12, 3, 3, 3]
0.08224301 -0.03135883 -0.09824974 0.0471115 0.037386287 -0.044912938 -0.021837797 -0.013736224
-0.015614306 0.046099305 -0.05344536 -0.09569867 -0.012800592 -0.02461133 -0.018838855 -0.015514937
-0.021307647 -0.006453217 0.060222995 -0.034843475 -0.041549187 -0.008599297 0.025859421 -0.024721816
0.0061861486 0.037891302 0.0057549383 -0.0717324 -0.058057815 -0.032334846 -0.03818457 0.02892195
0.036611542 0.025680153 0.041368015 -0.03825108 -0.06602804 0.015132909 -0.041851815 0.010056696
-0.042435218 0.052403014 -0.014903274 -0.03742423 0.015970591 -0.031608254 0.050395485 -0.0022368454
-0.055971917 0.048376724 -0.052821428 -0.04167442 -0.012761178 0.05288746 0.0032977047 0.0031655896
-0.042907126 0.017316515 0.030203406 -0.051234007 0.03341308 0.0038931943 -0.028995253 0.029519672
0.03036934 0.029286325 0.051041394 0.029422091 0.030722314 -0.016979119 0.045570925 -0.007652958
-0.028409645 -0.04639112 -0.018920312 -0.009569407 -0.04907881 0.049086988 0.023435788 0.027066706
-0.0053935084 0.009472744 0.0052697794 -0.048029263 0.047602814 0.04220036 -0.045271795 0.020477038
-0.011301395 -0.025790546 0.034018014 0.05134816 -0.033046383 -0.02397556 0.017033268 0.04809785
0.0044907853 0.01700956 0.050213594 -0.005311139 0.01274288 0.0049946285 0.020644674 0.0011298502
-0.02710804 -0.0071316273 -0.019519895 -0.0194386 -0.0537059 0.06155511 0.07746531 0.028980736
0.06942431 0.11726591 -0.07970144 0.028529141 -0.016974987 0.061087474 0.14092767 0.1905362
0.03899712 0.12258737 0.13717231 0.05651304 0.12334759 0.12846468 0.037692174 0.032373976
0.0048746723 -0.027157605 0.02891796 0.008740134 -0.019894835 0.025756517 -0.06038558 0.013479008
-0.05334239 0.0429678 0.0420503 -0.023934077 0.05214298 0.030939562 -0.028088257 0.0501525
0.05607948 0.030077364 0.0060471017 -0.048061326 -0.047259193 -0.043346394 -0.037391685 0.012175401
-0.05174453 -0.014016807 0.031557318 -0.032844678 0.05356769 -0.015365416 -0.01334395 0.055710424
0.041400902 0.04794528 -0.05554548 0.033698753 0.01955857 0.0042058136 -0.03795693 -0.034334954
0.031485848 -0.021854514 -0.0016412925 -0.003930573 -0.00043265164 -0.04696582 -0.01555657 0.039830342
-0.017377673 0.028908834 -0.00081633986 -0.048214592 -0.040073946 -0.031681564 -0.05164358 0.011308018
-0.029808499 -0.040647343 -0.031067519 -0.019464156 0.045424096 -0.03505922 -0.030926658 -0.046992004
-0.0071956157 -0.045571335 -0.03162415 0.039864086 0.01625201 -0.050375436 0.018816734 -0.036401607
0.0029093907 -0.047471024 0.009025653 -0.060743015 0.03853086 0.00033540366 0.0062056077 0.03475284
0.04438454 -0.045934897 0.011407084 0.026548292 0.03051316 -0.002663012 0.01868929 -0.05970752
0.06736108 -0.060615677 -0.033581715 0.057133876 -0.06392201 -0.010877172 0.007251696 -0.10406013
0.033105828 0.008488305 -0.06319933 0.01461699 0.010865817 -0.039468624 0.02165334 -0.041192487
-0.08942252 -0.02983066 0.062476333 -0.03197737 -0.012661678 0.06384688 -0.019877179 0.0017896594
-0.05498473 -0.017934753 -0.031806458 0.018188445 0.00079219387 -0.05230706 -0.038869534 -0.051810585
0.03583583 0.021111557 0.021733833 -0.0023852342 0.0017110052 -0.038842097 -0.005493596 -0.0036560418
00000000: 066f a83d 1e72 00bd 2937 c9bd fdf7 403d
00000010: 5d22 193d a1f6 37bd 2ee5 b2bc e60d 61bc
00000020: 25d3 7fbc a0d2 3c3d 86e9 5abd aafd c3bd
00000030: 93b9 51bc b39d c9bc f153 9abc 5d32 7ebc
00000040: 608d aebc 8275 d3bb 63ac 763d 08b8 0ebd
00000050: 7b2f 2abd 11e4 0cbc 23d7 d33c 6885 cabc
00000060: 2db5 ca3b e933 1b3d ec93 bc3b 70e8 92bd
00000070: 08ce 6dbd 8b71 04bd 6c67 1cbd baed ec3c
00000080: fcf5 153d 2f5f d23c 8271 293d 2aad 1cbd
00000090: b639 87bd 05f0 773c cf6c 2bbd d7c4 243c
000000a0: 8dd0 2dbd 8ba4 563d dd2c 74bc 264a 19bd
000000b0: c2d4 823c a877 01bd 7f6b 4e3d 0a98 12bb
000000c0: cf42 65bd ac26 463d 485b 58bd ccb2 2abd
000000d0: 4314 51bc 85a0 583d 4e1e 583b c875 4f3b
000000e0: 62bf 2fbd 5ddb 8d3c 226d f73c c0da 51bd
000000f0: 27dc 083d f624 7f3b 7487 edbc 3dd3 f13c
00000100: 1fc9 f83c e0e9 ef3c c810 513d 9906 f13c
00000110: 5dad fb3c cb17 8bbc 94a8 3a3d aac5 fabb
00000120: 58bb e8bc 9d04 3ebd c5fe 9abc 01c9 1cbc
00000130: dd06 49bd 700f 493d 69fc bf3c ffba dd3c
00000140: 07bc b0bb 9133 1b3c 1dae ac3b 55ba 44bd
00000150: 2bfb 423d 49da 2c3d eb6e 39bd 76bf a73c
00000160: 7c29 39bc b246 d3bc 7956 0b3d 7352 523d
00000170: a55b 07bd 6568 c4bc 5a89 8b3c 4002 453d
00000180: 7027 933b a257 8b3c c5ac 4d3d 1009 aebb
00000190: 83c7 503c fba9 a33b 051f a93c 7b17 943a
000001a0: ae11 debc 6db0 e9bb 30e8 9fbc b33d 9fbc
000001b0: b8fa 5bbd 3621 7c3d 22a6 9e3d 0269 ed3c
000001c0: 552e 8e3d 1c29 f03d 823a a3bd f2b5 e93c
000001d0: 210f 8bbc dc36 7a3d 584f 103e ec1b 433e
000001e0: 72bb 1f3d 160f fb3d e676 0c3e 387a 673d
000001f0: a99d fc3d 3f8c 033e 1c63 1a3d 939a 043d
00000200: b7bb 9f3b a079 debc 5ce5 ec3c c732 0f3c
00000210: 7efa a2bc 55ff d23c df56 77bd 0fd7 5c3c
00000220: 8d7d 5abd 01ff 2f3d ef3c 2c3d 6611 c4bc
00000230: e193 553d f774 fd3c 5819 e6bc b56c 4d3d
00000240: 99b3 653d ce64 f63c c426 c63b f4db 44bd
00000250: db92 41bd fd8b 31bd 0628 19bd 557b 473c
00000260: 13f2 53bd c0a6 65bc 3f42 013d 2488 06bd
00000270: cb69 5b3d 3abf 7bbc 95a0 5abc 9d30 643d
00000280: fe93 293d 4562 443d a883 63bd b407 0a3d
00000290: 4b39 a03c ecd0 893b ba78 1bbd cfa2 0cbd
000002a0: 4ef7 003d 3d08 b3bc a320 d7ba 09cc 80bb
000002b0: 85d5 e2b9 3b5f 40bd fce0 7ebc 2425 233d
000002c0: 9f5b 8ebc 38d2 ec3c a4ff 55ba aa7c 45bd
000002d0: 9424 24bd 87c4 01bd 3888 53bd 4445 393c
000002e0: f430 f4bc d47d 26bd 4f81 febc 4b73 9fbc
000002f0: 9e0e 3a3d 429a 0fbd e759 fdbc b07a 40bd
00000300: 33c9 ebbb 02a9 3abd 5388 01bd 8648 233d
00000310: ef22 853c 7956 4ebd 8d25 9a3c da19 15bd
00000320: 7aab 3e3b fa70 42bd 55e0 133c abcd 78bd
00000330: 89d2 1d3d 1ed9 af39 6958 cb3b fe58 0e3d
00000340: 90cc 353d 3b26 3cbd c7e4 3a3c ce7b d93c
00000350: bcf6 f93c ed85 2ebb 481a 993c df8f 74bd
00000360: 9bf4 893d 2548 78bd fb8c 09bd 3605 6a3d
00000370: 8be9 82bd 2b36 32bc a39f ed3b 7a1d d5bd
00000380: fa99 073d 8812 0b3c a66e 81bd 1a7c 6f3c
00000390: 8a06 323c daa9 21bd 5862 b13c 74b9 28bd
000003a0: 2723 b7bd 6e5f f4bc 2fe7 7f3d b4fa 02bd
000003b0: ed72 4fbc 27c2 823d 77d5 a2bc 0193 ea3a
000003c0: ab37 61bd e7eb 92bc 7d47 02bd efff 943c
000003d0: 3bab 4f3a ee3f 56bd a935 1fbd 5637 54bd
000003e0: 97c8 123d 25f2 ac3c 270b b23c 9751 1cbb
000003f0: cf43 e03a e418 1fbd a003 b4bb 349a 6fbb

module.conv_6.bias f4 [12]
0.036318477 -0.012923209 0.061934505 0.028238023 0.030657731 0.016652707 0.0266675 -0.057171337
0.0012941178 0.001217228 0.03422248 0.037002947
00000000: afc2 143d debb 53bc 09af 7d3d 6d53 e73c
00000010: ec25 fb3c 426b 883c cd75 da3c 7e2c 6abd
00000020: 639f a93a 658b 9f3a df2c 0c3d 6790 173d

module.conv_7.weight f4 [56, 12, 1, 1, 1]
-0.1832532 -0.06954734 0.2337123 -0.10273302 -0.23723225 -0.15860538 0.27505553 -0.2017058
0.16338013 -0.038592394 0.28305632 0.30482322 0.053317927 0.15260313 0.013739601 -0.18342404
-0.027547158 -0.06397881 0.020000484 0.025735078 -0.30390483 -0.17375678 0.02107641 -0.33358496
-0.17087471 -0.17646497 0.15924649 0.18935987 -0.11944196 -0.20927662 0.037700087 -0.15508917
0.3690577 -0.15382986 0.33797008 -0.18655951 0.22498348 0.17617126 -0.022664605 -0.28392395
-0.18470007 0.21781245 0.1622672 -0.1378545 -0.1495333 0.10197618 -0.028415827 -0.04662341
-0.024415266 -0.09092101 0.18129945 0.046438016 -0.16354653 -0.16912185 0.25841618 -0.060240112
0.319898 -0.32649776 0.21228419 -0.1735265 0.16006435 0.03242371 0.08236111 0.057736114
-0.16976735 0.18200594 0.122588366 0.1889285 -0.052332982 -0.24289498 -0.12968357 0.27182513
-0.027645517 0.0681656 -0.11392602 0.024481483 0.1635286 0.25325572 0.17847462 0.24863318
-0.24065995 0.27500707 0.09419643 -0.1373657 0.2607615 -0.2512052 -0.09068211 -0.21695821
-0.17584728 -0.19529426 -0.053230245 0.056606453 0.32699463 -0.18032104 0.15832041 0.20037183
-0.030811604 0.10179319 0.2177906 -0.25869983 -0.15031146 0.056169283 -0.23429753 0.07233736
-0.17726885 -0.022294093 -0.0077847852 0.16780828 0.14938813 0.15364541 -0.17176008 -0.0870959
0.10096578 -0.1280119 -0.24480504 0.09091834 -0.23866755 -0.016871337 -0.22931537 0.14776446
-0.03681624 -0.09078415 0.16293728 -0.025533238 -0.24113978 -0.035710942 0.10540069 -0.19878693
0.34368983 -0.20933527 0.13450375 -0.11760426 -0.13447984 0.2308638 0.08218987 -0.06802944
0.22158253 -0.17432193 0.060259245 -0.11316484 0.06928056 -0.1414421 0.076833494 -0.29682553
-0.05558301 0.19936308 0.09099808 0.14996825 0.082638085 -0.22004302 0.064107835 -0.27317697
0.14900222 -0.3710303 0.24769022 -0.16716753 0.17637905 0.13374487 0.25798637 0.03558472
0.0040643183 0.1415806 -0.00034733882 0.15626523 -0.2971026 0.24130954 0.1684109 0.06093296
-0.028772991 -0.06548975 0.26379937 0.045282524 0.12353704 0.124146394 -0.20724046 0.31714207
-0.14840434 -0.19773741 -0.040806834 -0.23675162 -0.14987738 0.11521636 -0.12897854 0.19860515
-0.35933292 -0.13705853 -0.24229093 0.089515574 -0.2159386 0.4459729 -0.073068544 -0.33509827
-0.07469684 0.13495661 -0.10200386 -0.18278995 0.3692352 0.2902042 -0.13551459 -0.1497891
0.35514545 0.09197192 0.13735974 0.08885047 -0.26365137 0.06210138 -0.23811704 0.23321222
0.246963 -0.043538705 -0.060251854 0.24737352 0.056032307 -0.12940592 0.09211605 0.22528286
-0.019793818 -0.05322979 0.09081218 0.22251515 -0.08120338 0.07748167 0.08974689 -0.28498918
-0.27714425 0.21611667 0.18173079 -0.3132059 0.2231166 0.22789185 -0.085419916 0.059682954
-0.120255046 0.16879357 -0.29087308 -0.22883444 0.0006031614 0.18035242 -0.068853796 0.063194625
0.16748151 -0.06731018 0.08521907 -0.22758514 0.18442681 0.21534906 -0.12526311 0.13049069
-0.206613 0.2499301 0.21005714 0.11581646 -0.12208177 0.28664973 0.2851495 -0.0032469882
00000000: baa6 3bbe d66e 8ebd 4752 6f3e b165 d2bd
00000010: 03ed 72be 7369 22be 14d4 8c3e f78b 4ebe
00000020: 1f4d 273e 0f13 1ebd c2ec 903e ca11 9c3e
00000030: e663 5a3d ff43 1c3e 101c 613c 83d3 3bbe
00000040: 94aa e1bc 5307 83bd 0ed8 a33c 5fd2 d23c
00000050: 6a99 9bbe 4ced 31be 6fa8 ac3c a6cb aabe
00000060: c8f9 2ebe 3cb3 34be 8311 233e 8ee7 413e
00000070: fc9d f4bd 9c4c 56be 686b 1a3d b2cf 1ebe
00000080: 21f5 bc3e 9385 1dbe 6a0a ad3e 7509 3fbe
00000090: 1262 663e 3d66 343e 1fab b9bc 7b5e 91be
000000a0: 0422 3dbe 3a0a 5f3e 5f29 263e bb29 0dbe
000000b0: 421f 19be e3d8 d03d 4fc8 e8bc 30f8 3ebd
000000c0: 8602 c8bc cb34 babd 90a6 393e ca35 3e3d
000000d0: be78 27be 472e 2dbe 204f 843e 56be 76bd
000000e0: acc9 a33e b72a a7be 0761 593e eeb0 31be
000000f0: e9e7 233e b9ce 043d f1ac a83d b47c 6c3d
00000100: 7ed7 2dbe c45f 3a3e 9c0f fb3d 7976 413e
00000110: 1c5b 56bd 76b9 78be c5cb 04be aa2c 8b3e
00000120: da78 e2bc 689a 8b3d 0c52 e9bd 648d c83c
00000130: 0b74 273e bcaa 813e 0dc2 363e b299 7e3e
00000140: 906f 76be bacd 8c3e 0fea c03d 98a9 0cbe
00000150: 8882 853e f89d 80be 8bb7 b9bd 4b2a 5ebe
00000160: 4f11 34be 38fb 47be f507 5abd 2bdc 673d
00000170: d76b a73e 14a6 38be bf1e 223e 462e 4d3e
00000180: 9e68 fcbc f378 d03d 8004 5f3e 4e74 84be
00000190: 3feb 19be c311 663d b1eb 6fbe 9c25 943d
000001a0: f785 35be 1aa2 b6bc 8317 ffbb efd5 2b3e
000001b0: 34f9 183e 3955 1d3e e0e1 2fbe 565f b2bd
000001c0: 26c7 ce3d 8d15 03be 2cae 7abe 6533 ba3d
000001d0: 4465 74be c235 8abc a6d1 6abe 914f 173e
000001e0: a0cc 16bd 0aed b9bd 08d9 263e 152b d1bc
000001f0: 59ed 76be a345 12bd 51dc d73d cd8e 4bbe
00000200: 1df8 af3e fc5b 56be 5abb 093e 81da f0bd
00000210: 15b5 09be 8f67 6c3e 2a53 a83d 0553 8bbd
00000220: 88e6 623e 7381 32be 66d2 763d f8c2 e7bd
00000230: f7e2 8d3d 33d6 10be e15a 9d3d 84f9 97be
00000240: 03ab 63bd d625 4c3e 345d ba3d 4791 193e
00000250: 283e a93d f552 61be f84a 833d dadd 8bbe
00000260: 0a94 183e aff7 bdbe 81a2 7d3e f72d 2bbe
00000270: b69c 343e 6af4 083e ca16 843e 49c1 113d
00000280: f92d 853b 81fa 103e 071b b6b9 fe03 203e
00000290: d51d 98be d919 773e e873 2c3e d794 793d
000002a0: 56b5 ebbc 7d1f 86bd b610 873e 2b7a 393d
000002b0: fd00 fd3d 7740 fe3d d836 54be 7260 a23e
000002c0: 4ff7 17be ad7b 4abe 1125 27bd 046f 72be
000002d0: 7579 19be 8ef6 eb3d f312 04be 265f 4b3e
000002e0: 7cfa b7be 1259 0cbe 1d1b 78be f153 b73d
000002f0: 021f 5dbe 8f56 e43e f6a4 95bd 0092 abbe
00000300: a8fa 98bd 1132 0a3e 66e7 d0bd 4a2d 3bbe
00000310: 650c bd3e a595 943e 56c4 0abe 5062 19be
00000320: a0d5 b53e c65b bc3d 08a8 0c3e 3cf7 b53d
00000330: 50fd 86be 045e 7e3d f4d4 73be 2fcf 6e3e
00000340: dee3 7c3e a455 32bd a6ca 76bd 7c4f 7d3e
00000350: 2282 653d fc82 04be 57a7 bc3d 8db0 663e
00000360: a526 a2bc 7b07 5abd bcfb b93d 03db 633e
00000370: f54d a6bd b6ae 9e3d 38cd b73d 1aea 91be
00000380: dae5 8dbe b04d 5d3e a317 3a3e 865c a0be
00000390: ae78 643e 7b5c 693e a3f0 aebd 1d76 743d
000003a0: 4748 f6bd 39d8 2c3e 51ed 94be 9353 6abe
000003b0: 7a1d 1e3a 4eae 383e 3803 8dbd 2f6c 813d
000003c0: 4680 2b3e ebd9 89bd 5687 ae3d 140c 69be
000003d0: 62da 3c3e 7784 5c3e f944 00be 5a9f 053e
000003e0: 5c92 53be aded 7f3e 3819 573e 2e31 ed3d
000003f0: 0206 fabd c1c3 923e 1eff 913e 6ccb 54bb

module.conv_7.bias f4 [56]
-0.115034804 0.1963504 -0.045096386 0.15242437 0.025168015 -0.110297725 -0.052858833 0.1410014
0.005022649 0.070607916 0.047608398 -0.01757533 -0.12747484 -0.21954215 -0.035698496 0.24025899
-0.18639246 -0.21504459 0.030665632 -0.040445898 -0.08660046 -0.06857014 -0.059574444 -0.067542106
-0.117696464 -0.099749885 -0.121531695 0.015405141 0.17942256 -0.23379394 -0.15972634 -0.15118037
-0.03616989 0.028402824 -0.024555905 0.0027471047 0.16447324 -0.1426909 0.09799592 -0.20170456
-0.24186257 -0.08284131 0.17176124 -0.22829646 0.098828495 0.18812038 -0.033473637 0.26042458
-0.20975325 -0.03127109 0.0063094595 0.15014488 0.11516894 0.014199171 -0.07640981 0.24800472
00000000: 5e97 ebbd 1410 493e fdb6 38bd 2215 1c3e
00000010: 272d ce3c c6e3 e1bd 8182 58bd ac62 103e
00000020: 0995 a43b e29a 903d 0601 433d 23fa 8fbc
00000030: c488 02be a8cf 60be 9638 12bd 7406 763e
00000040: aadd 3ebe a634 5cbe 7e36 fb3c 99aa 25bd
00000050: 955b b1bd 806e 8cbd 5504 74bd 8453 8abd
00000060: d80a f1bd ab49 ccbd 9ce5 f8bd d865 7c3c
00000070: 8cba 373e ae67 6fbe 4d8f 23be 07cf 1abe
00000080: e126 14bd 0aad e83c 7729 c9bc c508 343b
00000090: ac6b 283e 901d 12be 16b2 c83d a48b 4ebe
000000a0: d2aa 77be b4a8 a9bd 2ee2 2f3e 8cc6 69be
000000b0: 9866 ca3d a1a2 403e a71b 09bd 5f56 853e
000000c0: 8ec9 56be 1d16 00bd 95bf ce3b 94bf 193e
000000d0: b1dd eb3d a4a3 683c bf7c 9cbd f3f4 7d3e
