models/FSRCNN3D_epoch_60.pth (torch, 265262 bytes, 15 tensors)

module.conv_1.weight f4 [56, 1, 5, 5, 5]
0	0x3d4b0512	0.049565382
1	0xbd8170c9	-0.0632034
2	0x3d8e5de2	0.069515005
3	0x3d86fef2	0.06591596
4	0xbc02d2df	-0.007984846
5	0x3d1465cd	0.036229897
6	0x3c4a3acd	0.012343121
7	0xbd486568	-0.048924834
8	0x3d704148	0.058656007
9	0xbd781b3e	-0.060572855
10	0x3d63c053	0.055603337
11	0x3cb1a56c	0.021685325
12	0x3da5bac0	0.0809226
13	0x3c21247b	0.009835358
14	0x3b535093	0.003224407
15	0xbcd2597a	-0.025677431
16	0x3d68a976	0.056802236
17	0x3cb3ec4b	0.02196326
18	0x3d6aea2a	0.057352223
19	0xbda21349	-0.079138346
20	0x3dc1a3d9	0.094550796
21	0x3d880b9b	0.066428386
22	0x3d96d908	0.07365614
23	0xbd54ad05	-0.051922817
24	0xbbef4354	-0.0073017273
25	0xbd02604b	-0.031830113
26	0x3b2b8931	0.0026174302
27	0x3dbddf83	0.09271147
28	0xbd51589f	-0.051109906
29	0x3b93b625	0.0045077973
30	0x39802820	0.00024443958
31	0xbd6f7663	-0.05846251
32	0xbceb71bd	-0.028740758
33	0xbc4e8f9a	-0.0126074795
34	0xbd2c5c35	-0.042080123
35	0xbd90644a	-0.070503786
36	0xbce4a3e7	-0.027910186
37	0x3d349c93	0.044094633
38	0xbc461fe0	-0.0120925605
39	0x3d80fe3b	0.062984906
40	0xbcf5580c	-0.02994921
41	0xbd9fe612	-0.07807554
42	0x3d8d0fab	0.06887754
43	0xbd116bc6	-0.03550317
44	0x3d6b76ea	0.057486452
45	0xbd84868f	-0.064709775
46	0x3dc3a554	0.09553018
47	0xbcbce715	-0.023059407
48	0x3d3a642e	0.045505695
49	0xbd4f3d2f	-0.05059546
50	0x3d89a287	0.06720453
51	0xbda1d687	-0.07902246
52	0x3d6395b6	0.055562697
53	0xbc624328	-0.013809957
54	0x3d817b1e	0.06322311
55	0x3d9b5ec6	0.07586436
56	0xbb7a172c	-0.0038160784
57	0x3d913073	0.07089319
58	0xbd235660	-0.039877295
59	0xbd3bf5ba	-0.04588864
60	0x3c26398d	0.010145557
61	0xbdb622ed	-0.0889338
62	0x3d40c212	0.04706008
63	0x3cfa655d	0.030565912
64	0xba4b3562	-0.000775179
65	0x3d464f9e	0.048415773
66	0x3d88e299	0.06683845
67	0x3c100b3a	0.008791739
68	0x3d80ed47	0.06295257
69	0x3bed52bc	0.0072425287
70	0x3cce55fd	0.025187487
71	0x3d7d0ae3	0.06177796
72	0x3be7985e	0.007067724
73	0x3d4b3f57	0.049620952
74	0xbc724a19	-0.014788174
75	0xbb0ab3d5	-0.0021164317
76	0xbd7fee31	-0.062483016
77	0x3cf91f9e	0.030410584
78	0xbd12c75f	-0.035834666
79	0xbdbd561e	-0.09244941
80	0x3d8c3f0e	0.06847964
81	0x3d7f1109	0.062272105
82	0x3dd3238d	0.10309515
83	0x3d13b58a	0.0360618
84	0xbd476e0e	-0.04868894
85	0x3d877946	0.06614928
86	0xbce8bd21	-0.028410496
87	0xbbe1198a	-0.0068694996
88	0xbd1189ee	-0.03553193
89	0xbdb937d0	-0.090438485
90	0xbd4d0ee8	-0.050063044
91	0xbd5d1562	-0.05397547
92	0xbd81a20e	-0.063297376
93	0xbbbed641	-0.005823881
94	0xbd7a4ac0	-0.061106443
95	0x3ce93f31	0.028472515
96	0xbd4bd14b	-0.049760144
97	0xbc9431b8	-0.018090114
98	0x3da5776d	0.08079419
99	0x3db56440	0.08857012
100	0xbd8ea863	-0.06965711
101	0x3c74f38a	0.014950642
102	0xbd31547c	-0.04329346
103	0xbdc610be	-0.09671162
104	0x3c311527	0.010808266
105	0xbd0a11e8	-0.033708483
106	0x3db041d9	0.086063094
107	0x3dc274c1	0.09494925
108	0x3d648312	0.05578906
109	0x3d3c387b	0.0459523
110	0xbd979976	-0.07402317
111	0x3d531767	0.05153599
112	0x3d8f7bc4	0.07006028
113	0x3d9c3dbc	0.076289624
114	0x3d248328	0.040164143
115	0xbb4398c4	-0.0029845694
116	0xbc6d901f	-0.014499693
117	0x3c5df154	0.013546307
118	0x39a8ac3e	0.00032171787
119	0xbdb73dab	-0.08947309
120	0xbd74e4f3	-0.059788655
121	0xbd0f4dff	-0.034986492
122	0xbc8f037d	-0.017457718
123	0xbd5ea4f2	-0.054356523
124	0x3d366310	0.044528067
125	0xba209d37	-0.00061269425
126	0x3db71aee	0.08940683
127	0x3d727f50	0.059203446
128	0xbd1b0a28	-0.037851483
129	0x3be0354b	0.0068422905
130	0x3ce91c18	0.028455779
131	0x3dbdce7f	0.09267902
132	0xbcc4b3cd	-0.024011517
133	0x3d330f15	0.043715555
134	0x3d2e9563	0.042622935
135	0x3db3d277	0.08780377
136	0x3d312ed5	0.043257553
137	0xbc931b2f	-0.017957298
138	0xbd721df4	-0.059110597
139	0x3ce52da1	0.02797586
140	0xbd462e71	-0.048384134
141	0x3ce1ba91	0.027554782
142	0x3db4d2e6	0.08829288
143	0xbc6f76b1	-0.014615701
144	0xbd5e2483	-0.05423404
145	0xbd65f724	-0.056143895
146	0xbd1ea076	-0.038727246
147	0x3c9880b6	0.018616062
148	0xbd942835	-0.072342314
149	0x3bbc6a71	0.0057499935
150	0x3d71467a	0.058905102
151	0xbcb9eba2	-0.022695366
152	0xbd83f6da	-0.064435676
153	0xbdb5e830	-0.08882177
154	0x3d5b6c88	0.0535703
155	0x3bffefcb	0.007810568
156	0x3d1ca052	0.03823883
157	0xbdba7ef1	-0.091062434
158	0x3d4ef326	0.050524853
159	0xbd12b76c	-0.035819456
160	0x3db91213	0.090366505
161	0xbd8cbfda	-0.0687253
162	0xbdb6fed2	-0.08935322
163	0xbdb8c5a4	-0.09022072
164	0xbd82eb21	-0.063925035
165	0xbce3c446	-0.027803551
166	0xbd8a716d	-0.067599155
167	0xbd7bbf2b	-0.06146161
168	0xbd24735f	-0.04014909
169	0x3d99d7ca	0.075118616
170	0x3d1ef262	0.038805373
171	0x3d062255	0.032747585
172	0xbda0fbbf	-0.07860517
173	0x3d0860d8	0.033295482
174	0xbaf1df81	-0.001845345
175	0x3d048011	0.032348696
176	0xbd8f677c	-0.0700216
177	0x3b1c8b69	0.0023886806
178	0x3cefd3c8	0.02927579
179	0xbcba2f1e	-0.022727545
180	0x3d84f600	0.06492233
181	0x3cd8d44e	0.026468422
182	0xbc28ea77	-0.010309807
183	0xbd94dbc4	-0.072684795
184	0xbdadb1ea	-0.084812
185	0xbcd6a052	-0.026199494
186	0x3beb1350	0.007173933
187	0xbdc8b96a	-0.0980099
188	0xbcf76fd6	-0.030204695
189	0x3d67b9f2	0.056573816
190	0xbd033f53	-0.032042813
191	0xbd90dea6	-0.07073717
192	0x3d8cddc9	0.0687824
193	0xbd7f7359	-0.062365863
194	0xb92ef1f2	-0.00016684065
195	0x3c32c4e1	0.010911197
196	0x3d3512df	0.04420745
197	0x3d3375a8	0.043813378
198	0x3d6d1430	0.05788058
199	0x3d1b1728	0.03786388
200	0x3dbfb87a	0.09361358
201	0x3d83829d	0.06421397
202	0x3d6162ae	0.05502575
203	0xbd86820a	-0.06567772
204	0x3d82f421	0.0639422
205	0xbd93286b	-0.071854435
206	0xbca19dcd	-0.019728566
207	0xbcbce1f3	-0.02305696
208	0x3d555f2b	0.052092712
209	0xbd83835f	-0.064215414
210	0x3cffc38c	0.031221174
211	0x3d319681	0.043356422
212	0x3d6f63b8	0.05844471
213	0x3d8464c8	0.06464535
214	0x3d8008b5	0.06251661
215	0x3dadcfed	0.08486924
216	0x3db53335	0.088476576
217	0x3c893061	0.016746702
218	0x3d7430c1	0.059616808
219	0xbda8d1af	-0.08243119
220	0x3d1dbd16	0.038510405
221	0x3c0e7969	0.008695939
222	0xbd7ba72f	-0.061438736
223	0x3d9df59f	0.07712864
224	0xbd4e2c28	-0.05033508
225	0xbd836835	-0.0641636
226	0xbd2330e9	-0.039841566
227	0xbd8fcdf0	-0.07021701
228	0xbbed4676	-0.0072410656
229	0x3db0a2fe	0.08624838
230	0x3c1886fd	0.009309527
231	0x3dd1940d	0.102333166
232	0xbda07e09	-0.07836539
233	0xbd44c2f6	-0.04803749
234	0xbd626a29	-0.055277023
235	0x3da35a3a	0.07976194
236	0x3cd571e3	0.026055282
237	0x3d45309e	0.048142068
238	0x3d37901c	0.044815168
239	0x3d353fa0	0.04425013
240	0x3d4c18e5	0.04982843
241	0x3d4f30c9	0.050583635
242	0x3cc54293	0.024079597
243	0xbd0509aa	-0.03247992
244	0x3daae6cd	0.08344803
245	0xbc93ebd5	-0.01805679
246	0xbd7dff4a	-0.06201104
247	0xbd3f6ca5	-0.04673447
248	0x3b67ec0a	0.0035388493
249	0xbda885f5	-0.08228675
250	0xbb13bd39	-0.0022543205
251	0xbca945b4	-0.02066312
252	0xbd35813f	-0.04431271
253	0xbd47599d	-0.048669446
254	0x3db7571f	0.08952164
255	0x3b8e91c7	0.004350874

module.conv_1.bias f4 [56]
0	0x3c92c908	0.017918125
1	0xbb341af1	-0.0027481879
2	0x3d9db7ac	0.07701048
3	0x3d700614	0.058599547
4	0xbc340e2a	-0.010989705
5	0x3d5cbbb4	0.053889945
6	0xbd91a249	-0.071110316
7	0xbd2ee3fa	-0.042697884
8	0xbbd7dc5b	-0.0065875477
9	0xbb995117	-0.004678856
10	0x3d714164	0.058900252
11	0x3d4df677	0.050283875
12	0xbd6eaedf	-0.05827224
13	0xbcc2c4de	-0.023775514
14	0xbcef1d75	-0.02918885
15	0xbd5e84d4	-0.054325894
16	0x3be0c347	0.0068592164
17	0x3d8dac52	0.06917633
18	0xbc948750	-0.018130928
19	0x3d4377e2	0.04772175
20	0x3d967ec6	0.07348399
21	0x3cf4814c	0.02984681
22	0x3cda8d40	0.026678681
23	0x3d4748cb	0.048653405
24	0xbc6ae5e7	-0.01433704
25	0xbc520cdc	-0.012820449
26	0xbd2c3452	-0.042042084
27	0xbca5e255	-0.020249525
28	0x3d0faf94	0.035079554
29	0x3d82706d	0.063691
30	0x3d8e58be	0.0695052
31	0x3baa8570	0.0052038953
32	0x3a30bc54	0.000674193
33	0x3d1c61bb	0.03817914
34	0x3cfd547b	0.030924072
35	0xbd05a986	-0.032632373
36	0xbccd5e51	-0.025069388
37	0x3d5105c4	0.05103089
38	0x3d008b05	0.03138258
39	0x3d8ba802	0.06819154
40	0x3d12b89f	0.0358206
41	0x3da37852	0.07981934
42	0x3d78f81f	0.0607835
43	0xbdc0e5eb	-0.09418853
44	0x3c642f3d	0.013927278
45	0xbd9c804b	-0.076416574
46	0x3cc4af00	0.024009228
47	0x3d5c0f68	0.05372563
48	0xbd783c7a	-0.06060455
49	0xbc53ccf7	-0.012927285
50	0x3c2d098c	0.010561358
51	0x3cb32fa1	0.021873297
52	0xbcd8ee70	-0.026480883
53	0x3dc98e17	0.098415546
54	0xbd3d7053	-0.0462497
55	0x3db217ba	0.08695932

module.conv_2.weight f4 [12, 56, 1, 1, 1]
0	0x3dd46d9d	0.103724696
1	0x3e41dc83	0.18931775
2	0xbd8a782b	-0.067612015
3	0xbda5053d	-0.0805764
4	0x3e09285d	0.13394304
5	0x3d586650	0.052831948
6	0x3c885c4b	0.016645571
7	0x3c4779f0	0.012175068
8	0xbc8f80c7	-0.01751746
9	0x3d951da2	0.07281043
10	0xbdbda05a	-0.092591
11	0x3d7fe91b	0.062478166
12	0x3dedfd75	0.11620609
13	0xbd5b38ac	-0.053520843
14	0x3d8ef188	0.06979662
15	0xbda03440	-0.07822466
16	0x3dc270cd	0.09494171
17	0xbca8a6fa	-0.020587433
18	0xbdde8a59	-0.108662315
19	0x3d1a66d0	0.037695706
20	0xbdeb79e3	-0.114978574
21	0x3d8584de	0.06519483
22	0x3da89b58	0.082327545
23	0x3db03257	0.086033516
24	0xbd8324e8	-0.06403524
25	0xbd39ffaa	-0.045409836
26	0xbca29b59	-0.019849466
27	0x3b97d4cf	0.004633523
28	0xbccc4c4c	-0.024938725
29	0x3ddf51ff	0.109043114
30	0x3cf5139b	0.029916575
31	0xbd9c0d5f	-0.07619738
32	0xbe15a0b9	-0.14612092
33	0x3d954fb4	0.07290593
34	0xbde54a3b	-0.11195799
35	0x3d83b7fa	0.06431575
36	0x3d829540	0.063761234
37	0xbd8f311f	-0.06991791
38	0xbc87ba1d	-0.016568238
39	0x3e3fdbc6	0.1873618
40	0x3d92e7db	0.07173129
41	0x3e0945aa	0.13405481
42	0x3da4dd6b	0.080500446
43	0xbdcf5c35	-0.10125009
44	0x3e17c523	0.14821295
45	0x3d770511	0.060307566
46	0xbd49d79f	-0.049277898
47	0x3dfc7444	0.123268634
48	0xbd4c452c	-0.049870655
49	0x3d27354b	0.04082231
50	0x3b0c441d	0.0021402903
51	0x3d17d6fd	0.037070263
52	0x3e008265	0.12549742
53	0x3d41cd03	0.047314655
54	0xbd8fde89	-0.07024867
55	0x3da8808b	0.082276426
56	0xbcd51589	-0.026011245
57	0xbd2bd436	-0.041950427
58	0x3ddb6ff2	0.10714711
59	0xbda5e2fb	-0.08099934
60	0xbe09317b	-0.13397782
61	0x3b142282	0.0022603576
62	0xbb310b74	-0.0027014883
63	0x3b9faad1	0.004872658
64	0xbcb3a39e	-0.021928605
65	0x3db5dd1f	0.08880066
66	0xbe10efcc	-0.14153975
67	0xbdbc3cbb	-0.09191271
68	0x3dd6e82d	0.10493503
69	0xbd071c3c	-0.03298591
70	0x3dfbe10d	0.122987844
71	0x3c4b14de	0.012395112
72	0x3d04f976	0.032464467
73	0x3da439e0	0.08018851
74	0x3d182f0b	0.03715424
75	0x3da5abe6	0.08089428
76	0x3e03bff6	0.12866196
77	0xbd46d7c8	-0.04854563
78	0x3d57b135	0.052659232
79	0x3dad34ea	0.08457358
80	0x3bde1aa1	0.0067780768
81	0x3d03befe	0.032164566
82	0x3dbaaafe	0.091146454
83	0x3db2a727	0.08723288
84	0x3cbe78b3	0.023250913
85	0x3d9e5d8d	0.07732687
86	0x3dc779b9	0.09740014
87	0xbdf2036e	-0.118170604
88	0xbdd90cc4	-0.10598138
89	0xbd14a63d	-0.03629135
90	0xbd3d707a	-0.046249844
91	0xbd1b90ca	-0.03797988
92	0xbd82c23e	-0.06384705
93	0x3d0f66a5	0.03501
94	0x3dd294b5	0.1028227
95	0xbe05ca16	-0.13065371
96	0x3d564e7c	0.052320942
97	0x3df4553e	0.11930321
98	0x3d8dc7e4	0.06922892
99	0x3d812daa	0.06307538
100	0x3dba9a65	0.0911148
101	0x3e1219f1	0.14267708
102	0xbdbf146c	-0.09330067
103	0x3cbb3824	0.022853918
104	0x3d8284d7	0.063729934
105	0x3e544900	0.20730972
106	0xbdfacce8	-0.12246114
107	0x3d18d08e	0.03730827
108	0xbca57915	-0.020199338
109	0xbd43f2b0	-0.047838867
110	0x3d53ea04	0.051736847
111	0x3e08e320	0.13367891
112	0x3d411437	0.04713842
113	0xbd7fc9db	-0.062448364
114	0x3d38a136	0.045075618
115	0x3d584628	0.05280128
116	0xbd9aeff5	-0.075652994
117	0x3d626169	0.05526868
118	0xbdd918c9	-0.106004305
119	0x3ae533fc	0.0017486806
120	0x3dd65fde	0.10467504
121	0x3e0f227b	0.13977997
122	0xbcae743b	-0.021295657
123	0xbe42cc1c	-0.19023174
124	0x3d544d75	0.05183168
125	0xbcf43a64	-0.029813
126	0xbd78822a	-0.06067101
127	0x3d59b3ea	0.053150095
128	0xbb7bad6f	-0.0038402935
129	0x3dc160eb	0.09442314
130	0xbdfb26ab	-0.12263235
131	0x3d0ed573	0.03487153
132	0x3de499a5	0.11162118
133	0xbce4310a	-0.027855415
134	0xbc9e325c	-0.019311123
135	0x3dd12ca1	0.102135904
136	0xbe18abfe	-0.1490936
137	0x3de27204	0.11056903
138	0xbdec7ff6	-0.11547844
139	0x3d9ab62b	0.07554277
140	0x3e062338	0.13099372
141	0xbd88ff57	-0.06689327
142	0x3db8da12	0.090259686
143	0xbd227746	-0.03966453
144	0x3e0712dc	0.13190788
145	0xbe1ece17	-0.15508305
146	0xbdd3d150	-0.103426576
147	0x3e056c2a	0.13029543
148	0x3e0141b8	0.12622726
149	0xbd539ab0	-0.051661193
150	0x3d990dcf	0.07473337
151	0xbd0e701c	-0.034774885
152	0xbac626c0	-0.001511775
153	0xbdf31a7d	-0.118702866
154	0xbd8ae7fa	-0.06782527
155	0x39a4be6f	0.00031422402
156	0xbda22696	-0.07917516
157	0x3d4a060e	0.04932218
158	0x3ce61465	0.028085897
159	0xbd2e62ca	-0.04257468
160	0x3ce1baa6	0.027554821
161	0xbd3329bf	-0.043740984
162	0x3d8a7833	0.067612074
163	0xbbd9ef79	-0.006650862
164	0x3a12a8d2	0.0005594614
165	0x3dc7844b	0.0974203
166	0xbd7d94df	-0.061909553
167	0xbd739b34	-0.059474185
168	0xbd3127e0	-0.04325092
169	0xbdc9209f	-0.09820675
170	0x3d6afc95	0.057369787
171	0x3d75563b	0.05989669
172	0xbbab30b0	-0.00522431
173	0xbd94f9a6	-0.07274179
174	0x3b3146e8	0.002705032
175	0x3da4c5db	0.080455504
176	0xbcf56995	-0.029957572
177	0xbda42033	-0.08013954
178	0x3d6abd23	0.05730928
179	0xbe060e88	-0.1309148
180	0xbd91fe7c	-0.07128617
181	0x3d97ae72	0.0740632
182	0xbce06520	-0.02739197
183	0x3d92cec5	0.071683444
184	0x3d9437e1	0.072372206
185	0xbcdecd73	-0.027197575
186	0xbd09e21e	-0.033662908
187	0xbd176c36	-0.036968432
188	0xbcfb85d9	-0.030703472
189	0xbbe1fa7e	-0.006896316
190	0x3bf925b2	0.0076033706
191	0x3dd6d8d0	0.104905725
192	0xbd96dc7f	-0.07366275
193	0x3d326167	0.04354992
194	0xbd97ce68	-0.07412416
195	0xbddacc33	-0.10683479
196	0x3de3e569	0.11127741
197	0xbd8b3add	-0.06798337
198	0x3dd665b7	0.10468619
199	0x3db35aab	0.08757528
200	0xbde02b09	-0.10945708
201	0xbd288924	-0.041146412
202	0xbb7168dd	-0.0036836185
203	0xbdbacf2a	-0.09121545
204	0x3bc99176	0.0061513735
205	0x3dd050e3	0.10171678
206	0x3e0101d8	0.1259836
207	0xbd879b34	-0.066213995
208	0x3ddb807a	0.10717864
209	0xbd9297d6	-0.07157867
210	0xbd8137f3	-0.063094996
211	0xbdb3d2f8	-0.087804735
212	0x3da8295a	0.08211012
213	0x3dd33c1e	0.10314201
214	0x3b76b6e1	0.0037645625
215	0x3d80e1de	0.06293081
216	0x3b5fb37b	0.0034134078
217	0x3de0bcc5	0.10973505
218	0x3d3f2bb4	0.046672538
219	0x3c4c8927	0.012483872
220	0xbde8c795	-0.11366192
221	0x3e0d316f	0.13788389
222	0x3dee4032	0.11633338
223	0xbdf64c90	-0.12026322
224	0x3c755665	0.014974211
225	0x3cdbfa2a	0.026852686
226	0xbd1ec755	-0.038764317
227	0xbce991bc	-0.028511874
228	0x3db079c6	0.086169764
229	0x3d5b5d8c	0.05355601
230	0xbb625ab8	-0.0034538936
231	0x3d86923d	0.065708615
232	0x3dc926e8	0.09821874
233	0xbcf1c36f	-0.029512135
234	0xbce53a1b	-0.027981808
235	0x3da93633	0.08262291
236	0x3dc0450e	0.09388171
237	0xbc8dabbb	-0.017293802
238	0xbd97f321	-0.0741942
239	0xbddc55d3	-0.10758557
240	0x3d4db464	0.050220862
241	0xbe041d6c	-0.12901849
242	0x3e0ca2ac	0.1373393
243	0xbdddd9d4	-0.10832563
244	0xbd8f8491	-0.07007707
245	0x3c984c2c	0.01859101
246	0x3dac2fd2	0.084075585
247	0xbc973b0f	-0.018460779
248	0xbdbda3d5	-0.09259764
249	0xbdc45fa6	-0.09588556
250	0x3cc77055	0.024345556
251	0x3d9a2d7f	0.07528209
252	0x3db784f5	0.089609064
253	0xbdb19ddf	-0.0867269
254	0x3d920625	0.07130078
255	0xbdc36d31	-0.09542311

module.conv_2.bias f4 [12]
0	0xbd32d352	-0.043658562
1	0xbdd143bf	-0.10218
2	0x3d88f6bc	0.06687686
3	0xbd63ee97	-0.05564746
4	0x3deba467	0.11505967
5	0x3d1d6561	0.03842676
6	0x39d5573c	0.0004069152
7	0x3ca09420	0.019601882
8	0xbda69bc8	-0.08135182
9	0x3c36d3f1	0.011158929
10	0xbdfee249	-0.12445504
11	0x3c77df5e	0.0151289385

module.conv_3.weight f4 [12, 12, 3, 3, 3]
0	0xbd5c5209	-0.053789172
1	0x3d40555e	0.046956412
2	0x3c9f6065	0.019455144
3	0x395ac7a6	0.00020864475
4	0xbc9ec077	-0.019378884
5	0x3cc17a75	0.023617962
6	0x3cc25a71	0.023724766
7	0xbcea8394	-0.028627194
8	0xbd555e07	-0.052091625
9	0x39da67e0	0.00041657593
10	0x3d0ce7b2	0.03440065
11	0xbcbaa50a	-0.022783775
12	0xbd757239	-0.059923384
13	0x3d162c73	0.036663484
14	0xbd565264	-0.052324668
15	0x3d57c734	0.05268021
16	0x3c87b6c9	0.016566651
17	0x3d33cde6	0.043897532
18	0xbd42d4d2	-0.047566243
19	0x3c8187ec	0.015811883
20	0xbbf0570d	-0.007334596
21	0x3d1b0245	0.03784396
22	0x3cfd9789	0.030956047
23	0xbcef3033	-0.029197788
24	0x3bf7a4c4	0.0075574834
25	0x3d6a7c4a	0.057247438
26	0x3c9f4068	0.019439891
27	0xbcfe4669	-0.031039434
28	0x3d493092	0.049118586
29	0x3d040326	0.032229565
30	0xbd5c1253	-0.053728413
31	0x3ca56803	0.020191198
32	0x3bc0144d	0.005861795
33	0x3cc53978	0.024075255
34	0xbcea5757	-0.0286061
35	0x3c68bcd1	0.014205174
36	0xbcec3787	-0.028835071
37	0x3c974356	0.018464725
38	0xbb724cbb	-0.0036972004
39	0xbc7a2c82	-0.015269401
40	0xbcf85ec7	-0.03031863
41	0x3c95aed1	0.018271836
42	0xbb25aecf	-0.0025281196
43	0x3cc2c04f	0.02377334
44	0xbbb8344b	-0.005621468
45	0x3cc292e7	0.02375169
46	0xbcaa22b4	-0.0207685
47	0x3c3b82cb	0.011444758
48	0x3c6465a2	0.013940247
49	0x3ce7103c	0.028205983
50	0xbd3d4ddf	-0.04621684
51	0x3c196712	0.009362953
52	0xbd509f39	-0.050933097
53	0xbca80b0e	-0.020513084
54	0x3cbc5d13	0.0229936
55	0x3d49dd04	0.049283043
56	0x3bf21b11	0.0073884805
57	0x3cce95e2	0.025217954
58	0x3d276afb	0.04087351
59	0xbc0f6ff5	-0.00875472
60	0xbc1aeddb	-0.009456123
61	0xbc9474e0	-0.018122137
62	0x3b80b709	0.0039280695
63	0x3d31421f	0.04327595
64	0x3d074d81	0.033032898
65	0x3d5e68d6	0.054299198
66	0xbd613147	-0.054978635
67	0x3ce2450a	0.027620811
68	0x3c0df26d	0.008663756
69	0x3abaa984	0.0014241193
70	0x3c23a5aa	0.009988228
71	0xbcb6e19d	-0.022324378
72	0xbc006973	-0.007837641
73	0x3d335cdc	0.04378973
74	0xbd4d8861	-0.05017889
75	0xbd5fca8f	-0.054636534
76	0xbae35f43	-0.0017347116
77	0xbb77bd03	-0.0037801869
78	0x3a033057	0.00050044566
79	0xbd2d1780	-0.04225874
80	0x3d1c1526	0.038106106
81	0xbc327a61	-0.010893435
82	0xbceffde4	-0.02929587
83	0xbbf88d0d	-0.007585174
84	0x3d0794f8	0.033101052
85	0x3d0407ad	0.032233883
86	0x3d1623c1	0.03665519
87	0xbd3cbf05	-0.046080608
88	0x3d305fce	0.043060116
89	0x3bc87d1b	0.0061184294
90	0xbcaca619	-0.021075295
91	0x3cb39bdd	0.021924907
92	0xbd50f5fd	-0.051015843
93	0x3cbbccd1	0.022924813
94	0x3c66ad75	0.014079441
95	0x3d387caf	0.045040783
96	0x3d259fea	0.04043571
97	0xbd4b1feb	-0.049590986
98	0xbd529139	-0.051408026
99	0xbc202e7e	-0.00977671
100	0xbcaf61ac	-0.021408878
101	0xbccf372e	-0.025294866
102	0x3bb385a5	0.005478578
103	0xbcde82ee	-0.027162042
104	0xbc62a905	-0.013834243
105	0xbd22837d	-0.03967618
106	0x3d652284	0.05594112
107	0x3d22a8cb	0.039711755
108	0x3d3ee811	0.046608035
109	0x3d4362f6	0.0477018
110	0x3ca3b75c	0.019984894
111	0xbd36ddc8	-0.0446451
112	0xbbba2fb3	-0.0056819557
113	0x3d0ef0b4	0.03489752
114	0xbd56444d	-0.05231123
115	0x3d4d61ee	0.05014222
116	0x3d0e72de	0.034777515
117	0xbd5d5b07	-0.05404189
118	0xbd1eb4c5	-0.038746614
119	0xbc073092	-0.008251326
120	0xbd273735	-0.040824134
121	0x3c6c06b1	0.014405892
122	0xbce2eb1b	-0.027699998
123	0x3d39da02	0.045373924
124	0xbd199932	-0.037499614
125	0x3c4c6e80	0.012477517
126	0xbd3c97d1	-0.04604322
127	0xbb9a85cc	-0.004715657
128	0xbcda0268	-0.026612476
129	0x3d583c8a	0.05279211
130	0x3cd0b9d7	0.02547924
131	0xbcdfd243	-0.02732194
132	0x3d037960	0.032098174
133	0xbd4edf76	-0.050506078
134	0x3cce4b18	0.025182292
135	0xbb8a9bd8	-0.004230004
136	0xbd51bd86	-0.051206134
137	0x3d3623ab	0.04446761
138	0xbd3dc866	-0.046333693
139	0x3cef0025	0.029174874
140	0x3c456281	0.012047411
141	0xbc4dd5ed	-0.012563211
142	0xbb24842f	-0.0025103202
143	0xbb8cd161	-0.004297421
144	0x3bc7cdad	0.0060975165
145	0xbd406090	-0.04696709
146	0xbcef75de	-0.029231008
147	0xbd6a5039	-0.057205413
148	0xbd916524	-0.07099369
149	0xbbcc8937	-0.006241943
150	0xbc95ded4	-0.01829473
151	0xbc979e2f	-0.018508045
152	0x3c8e07d7	0.017337723
153	0x3c1de429	0.009636917
154	0x3b9ab4cf	0.004721261
155	0xbb974a06	-0.0046169786
156	0x3cdcc391	0.026948722
157	0xbca96749	-0.020679133
158	0xbd46b692	-0.048513956
159	0xbcb7187e	-0.022350546
160	0xbc2816ad	-0.010259313
161	0x3d87f82f	0.06639134
162	0x3c2942af	0.01033084
163	0x3d2f2a28	0.042764813
164	0xbd41c817	-0.04730996
165	0x3d40ac4b	0.04703931
166	0x3cb154c3	0.021646863
167	0x3d58d5e5	0.05293836
168	0xbda4ffd3	-0.08056607
169	0xbd9d6e41	-0.07687045
170	0xbce21ba7	-0.027601076
171	0x3ce11694	0.027476586
172	0x3cdc39ec	0.026883088
173	0xbba30169	-0.0049745333
174	0xbd1fc52e	-0.039006405
175	0xbcdb8f1d	-0.02680164
176	0xbd4a3dca	-0.049375333
177	0x3cc424d4	0.023943342
178	0xbd63ea88	-0.05564359
179	0xbc94de07	-0.018172277
180	0x3cf13dc7	0.029448403
181	0x3cfe50d5	0.031044403
182	0xbd2fdfc8	-0.042938024
183	0x3b7a5f43	0.0038203753
184	0x3bfca567	0.007710147
185	0xbbf34f24	-0.007425206
186	0x3ccb8bfe	0.024847027
187	0x3c92c322	0.017915312
188	0x3d7d1975	0.061791856
189	0x3cb618c1	0.0222286
190	0xba9e4b17	-0.0012076822
191	0xbaca3525	-0.0015427215
192	0xbbdacfb5	-0.0066775926
193	0x3d050a71	0.03248066
194	0xbd6d9a73	-0.058008622
195	0xbd28cf80	-0.041213512
196	0xbd040319	-0.032229517
197	0xbcc399de	-0.02387708
198	0x3ccf0752	0.025272045
199	0x3bae8ccf	0.0053268443
200	0x3d2969fb	0.041360836
201	0xbc61272a	-0.013742248
202	0x3ca3a982	0.019978289
203	0x3d393d6d	0.045224596
204	0xbd224501	-0.03961659
205	0xbd02118a	-0.031755008
206	0x3b78f9d3	0.0037990704
207	0x3d041645	0.0322478
208	0x3c9853fc	0.018594734
209	0x3d12369b	0.035696607
210	0xbc676141	-0.014122308
211	0x3bd08836	0.006363894
212	0xbb6e8d5f	-0.0036400182
213	0xbd4af642	-0.049551256
214	0xbc976b12	-0.018483672
215	0x3d16638d	0.036716033
216	0xbd14972e	-0.03627699
217	0x3cc46d7d	0.02397799
218	0x3c3951bd	0.011310992
219	0x3d596edb	0.053084236
220	0x3ca41507	0.020029558
221	0x3cbd331b	0.023095658
222	0xbc8c7bea	-0.01714893
223	0x3d2c9dfd	0.042142857
224	0xbd13bca0	-0.03606856
225	0xbc023795	-0.007947822
226	0xbd25d672	-0.040487714
227	0x3c0b664a	0.008508274
228	0x3ce4beff	0.027923105
229	0xb9b7c3a5	-0.00035050247
230	0x3ccca639	0.024981605
231	0xbcfdf9d2	-0.031002913
232	0x3d4de28b	0.050264876
233	0x3d42be15	0.047544558
234	0x3bc771be	0.006086557
235	0xbcc6be62	-0.024260703
236	0x3c935c5e	0.01798838
237	0x3d52b924	0.051446095
238	0xbd62778b	-0.055289786
239	0x3d5ddb87	0.054164436
240	0x3d262d55	0.040570576
241	0xbbd5bb71	-0.006522589
242	0xbd305762	-0.043052085
243	0xbc7c9cca	-0.015418241
244	0xbbb3df8f	-0.0054892967
245	0xbb7a63e7	-0.003820652
246	0x3cd825c3	0.026385194
247	0x3d10c7fa	0.035346963
248	0x3d21a476	0.039463483
249	0x3c73c353	0.014878112
250	0x3d084399	0.03326759
251	0x3bd89f8b	0.006610816
252	0x3c9b27cd	0.018939877
253	0x3bab61c1	0.005230159
254	0x384b6325	4.8491307e-05
255	0x3beaea5e	0.007169052

module.conv_3.bias f4 [12]
0	0xbafa389a	-0.0019090355
1	0xbd3a78da	-0.04552541
2	0x3c220b88	0.009890445
3	0xbc5853ef	-0.013203605
4	0xbd359a08	-0.04433635
5	0xbbdaffa5	-0.0066833072
6	0x3d624c4c	0.055248544
7	0x3d2a10fb	0.0415201
8	0xbcb19150	-0.021675736
9	0x39d53422	0.00040665368
10	0xbcf958c7	-0.03043784
11	0xbc651a0c	-0.013983261

module.conv_4.weight f4 [12, 12, 3, 3, 3]
0	0x3d0f0ebc	0.03492616
1	0x3d3e24c9	0.0464218
2	0x3b8cb324	0.004293816
3	0xba14d695	-0.0005677727
4	0xbd25d6af	-0.04048794
5	0xbd4e4ad1	-0.05036432
6	0x3bdce55c	0.006741209
7	0x3c804474	0.015657641
8	0xbb84ec7a	-0.0040565105
9	0x3d0f7b21	0.035029534
10	0xbd40ab13	-0.04703815
11	0xbd5142bc	-0.051089033
12	0x3d478cef	0.04871839
13	0x3d23d6c8	0.039999753
14	0x3d0813e1	0.033222083
15	0xbc151abc	-0.009100612
16	0xb812b673	-3.497903e-05
17	0xbd0b10dc	-0.033951625
18	0x3d481e87	0.04885724
19	0xbd4caf89	-0.04997209
20	0x3d2ff2a9	0.042956028
21	0xbc02bae8	-0.007979132
22	0x3cbb7bef	0.022886245
23	0xbd49476b	-0.049140375
24	0xbd206de0	-0.039167285
25	0x3bbbc789	0.0057305736
26	0xbae48f82	-0.0017437788
27	0x3d210396	0.03931006
28	0xbce46041	-0.027877929
29	0xbce2b9b7	-0.027676446
30	0x3d3b97b2	0.045798965
31	0xbcd62242	-0.026139382
32	0x3c643be5	0.013930296
33	0xbcc787ea	-0.024356801
34	0xbcb68f68	-0.022285178
35	0xbba17869	-0.004927684
36	0x3cba5e93	0.022750175
37	0xbcb3bb96	-0.021940034
38	0xbcaa9139	-0.0208212
39	0xbc80f79f	-0.015743075
40	0x3d8cf03b	0.06881758
41	0x3d1b3173	0.037888955
42	0x3d4be576	0.049779378
43	0x3c92ee74	0.017935969
44	0x3c8001d0	0.015625864
45	0xbd64abd6	-0.055827938
46	0xbd74e018	-0.059784025
47	0x3c18d50d	0.009328139
48	0xbca37132	-0.019951437
49	0xbd3a15a0	-0.04543078
50	0xbb7ea22e	-0.003885399
51	0xbd041e2f	-0.032255348
52	0xbc21c2a9	-0.009873071
53	0xbd659486	-0.056049846
54	0xbd2bad55	-0.04191335
55	0x3ca4359f	0.0200451
56	0x3d39a43f	0.045322653
57	0xbc73678e	-0.014856232
58	0x3d55c979	0.052194092
59	0xbcfe2c6b	-0.03102704
60	0xb9407e7c	-0.00018357666
61	0x3d2f2f22	0.04276956
62	0x3d70fa37	0.058832373
63	0x3cfaecec	0.030630551
64	0xbce18447	-0.027528895
65	0xbd00719f	-0.031358358
66	0xbd276ae4	-0.040873423
67	0xb9db768a	-0.00041859254
68	0x3d37eb60	0.044902205
69	0xbd0385af	-0.032109912
70	0x3d4b68e6	0.049660586
71	0x3c983673	0.01858065
72	0x3bce9266	0.006304073
73	0xbc1a677d	-0.009424088
74	0xbd4374b2	-0.04771871
75	0xbabd4c70	-0.0014442336
76	0xbc087366	-0.008328294
77	0x3c7490f2	0.014927136
78	0x3d4cebf4	0.05002971
79	0xbcbfb1eb	-0.023400268
80	0x3cacf6e7	0.021113826
81	0xbd263f25	-0.040587563
82	0x3d5c32d6	0.05375942
83	0xbbbd6903	-0.0057803406
84	0x3b3bcd16	0.0028656176
85	0xbcc1b92f	-0.023647873
86	0xbcfb8869	-0.030704694
87	0xbd1ca309	-0.03824142
88	0x3d518b5a	0.051158287
89	0x3d5df195	0.05418547
90	0xbca2608c	-0.019821428
91	0x3d36f968	0.044671446
92	0x3bdb8a36	0.0066998256
93	0x3d5a6cdb	0.05332647
94	0xbcd263ab	-0.025682291
95	0xbd22fc00	-0.039791107
96	0xbc9dcca3	-0.019262617
97	0x3bee3a71	0.0072701504
98	0xbc41beb3	-0.011825251
99	0x3d01ce44	0.03169085
100	0x3c04a607	0.008096225
101	0xbd472ee3	-0.0486287
102	0xbcbcb861	-0.023037137
103	0xbd05f7b4	-0.03270693
104	0x3c26a3a9	0.010170856
105	0x3d118202	0.035524376
106	0x3d39392c	0.04522054
107	0x3d2db4ba	0.042408682
108	0x3d36bfd5	0.04461654
109	0xbc8f3f15	-0.017486135
110	0x3d043fa3	0.03228725
111	0x3cbad6b4	0.022807457
112	0x3dadcfd9	0.084869094
113	0x3cdcb7ff	0.026943205
114	0xbc606ed2	-0.013698297
115	0x3d975e8a	0.07391079
116	0x3cc42634	0.023943998
117	0x3cd0e922	0.025501791
118	0x3d257a65	0.040399928
119	0x3ae16e24	0.0017198962
120	0x3c8f600b	0.017501852
121	0x3cb449b9	0.02200781
122	0xbbebe92f	-0.0071994285
123	0x3ca9e57b	0.020739308
124	0x3c28baa3	0.010298404
125	0xbccd19a0	-0.025036633
126	0xbc1d681d	-0.009607342
127	0x3d3335bc	0.043752417
128	0xbc83931a	-0.016061354
129	0x3d4adc90	0.04952675
130	0x3bb8f099	0.005643916
131	0xbcb64759	-0.022250818
132	0x3d27d374	0.04097314
133	0x3d640936	0.055672847
134	0x3d50df92	0.050994463
135	0x3d8d9a37	0.0691418
136	0xbbcd317b	-0.006262002
137	0x3d62ed6a	0.055402197
138	0x3d82f60a	0.063945845
139	0x3d753c3d	0.0598719
140	0x3c106d2a	0.008815089
141	0x3d875e9c	0.06609842
142	0x3cca2938	0.024677858
143	0x3c3e006d	0.011596781
144	0x3d70e65b	0.058813434
145	0xbd0449fa	-0.032297112
146	0xbb10c43f	-0.0022089628
147	0xbc3c44ad	-0.011490983
148	0x3bbd1a58	0.0057709627
149	0x3d6eec25	0.058330674
150	0xbba883ed	-0.00514268
151	0x3c8fcb96	0.017553132
152	0xbcad27bd	-0.021137113
153	0xbd2c508a	-0.042068996
154	0x3d3dc903	0.046334278
155	0xbccc80de	-0.024963792
156	0x3d2f1104	0.042740837
157	0x3d745a32	0.05965633
158	0x3d39800d	0.045288134
159	0x3d8a7d23	0.06762149
160	0x3d84ed70	0.064906
161	0xbcfb849e	-0.030702885
162	0x3c6781ed	0.014130098
163	0xbd41f610	-0.047353804
164	0xbcd3e331	-0.02586517
165	0x3d6c9623	0.05776037
166	0x3be64c81	0.007028163
167	0x3d839a00	0.064258575
168	0x3bbec2b6	0.005821551
169	0xbc7a1ab8	-0.015265159
170	0x3d745fe7	0.059661772
171	0xbd430c9e	-0.047619455
172	0xbd2c6982	-0.042092808
173	0x3d47d6df	0.0487889
174	0xbc88e731	-0.016711803
175	0x3bbb8e24	0.0057237316
176	0x3d0c9973	0.034326028
177	0xbcf78a74	-0.030217387
178	0xbbe69cef	-0.007037751
179	0xbb212692	-0.002458964
180	0xbc8c1916	-0.017101806
181	0xbb1129a2	-0.002215006
182	0xbd311896	-0.043236338
183	0xbd03fc45	-0.032223005
184	0x3ba4fb36	0.0050348295
185	0x3c6bc66f	0.014390572
186	0x3ce5c5f9	0.028048502
187	0x3d2b9c40	0.04189706
188	0x3d0b608e	0.03402763
189	0xbbf73eab	-0.0075453124
190	0xbd7be0c5	-0.061493654
191	0x3ca9c9fe	0.0207262
192	0xbd4ca080	-0.049957752
193	0xbbbd3363	-0.005773948
194	0xbd6aab92	-0.05729253
195	0xbd7ec652	-0.06220085
196	0xbc8bb797	-0.017055316
197	0x3c4af8cc	0.012388419
198	0x3baa7bc1	0.005202741
199	0xbd701a36	-0.058618747
200	0xbd139182	-0.03602744
201	0xbd5734c0	-0.05254054
202	0xbd3842a5	-0.044985432
203	0xbcc5952b	-0.02411898
204	0xbc021ec4	-0.007941905
205	0xbc98a8b8	-0.018635139
206	0xbd2b2393	-0.041781973
207	0xbbfea4ff	-0.007771134
208	0x3cab7027	0.020927502
209	0xbd798358	-0.060916275
210	0x3d13ee91	0.036116187
211	0x3d11a8bb	0.035561305
212	0x3c2a3809	0.010389336
213	0xbd16e6cc	-0.0368412
214	0xbc02e10a	-0.007988224
215	0xbd4065fb	-0.046972256
216	0xbc04da64	-0.008108709
217	0x3da9f7f2	0.08299245
218	0x3d2d420f	0.042299327
219	0xbb1b79eb	-0.0023723792
220	0xbba38c67	-0.0049911025
221	0x3c106255	0.008812507
222	0x3d0ab53a	0.033864237
223	0x3cf46213	0.029831922
224	0xbc7d7c77	-0.015471569
225	0xbbae9f5e	-0.0053290566
226	0x3d781932	0.060570903
227	0x3c7b4efc	0.015338656
228	0xbd597245	-0.05308749
229	0x3d279ede	0.040922992
230	0xbd383273	-0.044969987
231	0xbb8def46	-0.004331502
232	0xbcd9599f	-0.026531992
233	0xbc9f5f89	-0.019454734
234	0x3d593cf3	0.05303664
235	0x3d416a89	0.04722074
236	0x3cc22038	0.023697004
237	0x3ca5cc99	0.020239161
238	0x3ca9c458	0.020723507
239	0xbd1f30cb	-0.038864892
240	0x3cdf50b7	0.027260168
241	0xbd6cc816	-0.057808004
242	0xbc8b0cac	-0.016973816
243	0x3cc337cd	0.023830319
244	0x3d6d4e58	0.057936043
245	0xbc0c799c	-0.008573916
246	0x3c4633e2	0.012097331
247	0x3d45c97c	0.048287854
248	0x3d5fbef8	0.05462548
249	0x3ce8f567	0.02843733
250	0x3c87fa9d	0.016598994
251	0x3c3079bd	0.010771212
252	0x3d08a1a9	0.033357296
253	0x3c8830c1	0.01662481
254	0xbd08f236	-0.033434115
255	0x3cf223f0	0.029558152

module.conv_4.bias f4 [12]
0	0x3cb13272	0.0216305
1	0x3cbaab76	0.022786837
2	0xbd423fa0	-0.04742396
3	0xbc99c170	-0.018768996
4	0xbce6e8f0	-0.028187245
5	0xbc63708f	-0.0138818165
6	0xbd05b488	-0.03264287
7	0xbd2b6a33	-0.041849326
8	0x3bc5218b	0.0060159615
9	0x3a44e079	0.00075102557
10	0x3d7f3f5b	0.06231628
11	0xbd098258	-0.03357157

module.conv_5.weight f4 [12, 12, 3, 3, 3]
0	0x3cc1dd54	0.023665108
1	0x3d2fe723	0.04294504
2	0xbc0bba0d	-0.008528245
3	0xbc2c0e82	-0.010501506
4	0xbd434921	-0.047677163
5	0x3c175bed	0.009238225
6	0x3bbb3e33	0.005714202
7	0xbaca0d15	-0.0015415276
8	0x3d8bed34	0.06832352
9	0xbd2c0e95	-0.042006094
10	0x3d405e93	0.046965193
11	0x3b51dc54	0.0032022195
12	0xbbaf876f	-0.005356721
13	0x3d3d0959	0.046151493
14	0x3cda151f	0.0266214
15	0x3c86f637	0.016474826
16	0x3c43ba73	0.011946308
17	0x3d21d60d	0.039510775
18	0x3cdb5f9d	0.02677899
19	0xbd25bbf0	-0.040462434
20	0xbb424edc	-0.0029649055
21	0xbcc6f12a	-0.024284918
22	0xbd3984a7	-0.045292523
23	0xbd41cfa9	-0.04731718
24	0x3d34c56e	0.044133596
25	0x3cab72a5	0.02092869
26	0x3ccacd36	0.024756055
27	0x3d8ca7cd	0.06867943
28	0xba2ca545	-0.00065859064
29	0x3d2d3c95	0.042294104
30	0x3abe0ff4	0.0014500604
31	0x3cf386c8	0.029727355
32	0x3d56a6a9	0.052405033
33	0xbc8f4b26	-0.017491888
34	0xbc657c9b	-0.014006759
35	0xbd732715	-0.059363443
36	0xbd4de1c1	-0.050264124
37	0xbd250bb1	-0.040294353
38	0xbbbb5a16	-0.005717526
39	0xbd92eb76	-0.07173817
40	0xbd1331e5	-0.035936255
41	0xbd80c65d	-0.06287835
42	0xbd5a5115	-0.053299982
43	0x3ae71546	0.0017630241
44	0xbd3e9f2a	-0.04653851
45	0xbb498a11	-0.003075246
46	0xbd5fc785	-0.054633636
47	0x3ca96160	0.020676315
48	0xbcb914ec	-0.022592984
49	0xbb5326ae	-0.00322191
50	0x38a5e54d	7.910524e-05
51	0x3d6c5c94	0.057705477
52	0x3d36ff45	0.044677038
53	0xbc8037d3	-0.015651619
54	0x3d26526f	0.04060596
55	0xbd192fbf	-0.03739905
56	0x3d0c7352	0.034289666
57	0x3c946be9	0.018117862
58	0xbcefba75	-0.029263714
59	0xbcd13ac5	-0.025540719
60	0x3cb4a876	0.022052985
61	0x3d55feb2	0.05224485
62	0x3c0dd477	0.008656613
63	0xbd289900	-0.041161537
64	0xbd15409c	-0.03643857
65	0x3ccec9ff	0.025242804
66	0xbc397439	-0.011319214
67	0xbd099394	-0.033588007
68	0xbd36b2ab	-0.044603985
69	0xbd48b65b	-0.049002033
70	0x3c1d7adb	0.009611811
71	0xbbb26229	-0.0054438305
72	0xbd3b727d	-0.04576348
73	0x3bd86ed1	0.006605007
74	0xbc4e97e8	-0.012609459
75	0xbd85a56d	-0.06525693
76	0xbd6e2620	-0.058141828
77	0xbc5e3f28	-0.013564862
78	0x3d531680	0.05153513
79	0xbccbc71c	-0.024875216
80	0x3c9a7eb1	0.01885924
81	0x3d310ad1	0.043223206
82	0x3c46cadf	0.012133329
83	0xbd22d74a	-0.039756097
84	0xbc1b402b	-0.009475748
85	0x3b80f9f6	0.0039360477
86	0xbc0f67b5	-0.008752753
87	0x3d50ad08	0.050946265
88	0x3d91b729	0.07115013
89	0xbcb4cbe0	-0.022069871
90	0xbbb063d7	-0.0053829956
91	0xbd22f03f	-0.039779898
92	0x3c40580d	0.011739743
93	0x3d2825c0	0.041051626
94	0xbd58d1ec	-0.052934572
95	0xbc31159f	-0.0108083775
96	0xbd2d59cb	-0.04232196
97	0xbc21a75f	-0.009866565
98	0x3c9e120c	0.019295715
99	0xbcc07df6	-0.023497563
100	0xbd73a158	-0.05948004
101	0x3b141e74	0.002260116
102	0xbd3a7c31	-0.045528594
103	0xbc0a4978	-0.008440368
104	0xbd7b323b	-0.0613272
105	0xbd0a5612	-0.03377349
106	0x3d884275	0.06653301
107	0xbc3fed6a	-0.011714319
108	0xbd2236e2	-0.03960312
109	0x3d1f0def	0.038831647
110	0x3d3a0ca8	0.045422226
111	0xbd184db3	-0.037183475
112	0x3bd6b561	0.006552384
113	0x3d3cdbc2	0.046108015
114	0x3d2e583d	0.04256462
115	0xbb136331	-0.0022489543
116	0x3c369b48	0.01114542
117	0x3c1cb02e	0.009563489
118	0x3d5882a5	0.052858967
119	0xbd4699bc	-0.048486456
120	0xbd00925e	-0.031389587
121	0xbc9f159a	-0.01941948
122	0x3cf6c73d	0.030124301
123	0xbd4644f7	-0.048405614
124	0xbcac4a0c	-0.021031402
125	0x3d4b177e	0.04958295
126	0x3c3f0676	0.011659255
127	0x3c7097a5	0.014684592
128	0xbd71650c	-0.058934256
129	0xbd32833d	-0.04358219
130	0x3c449124	0.011997495
131	0xbcdb1209	-0.026741998
132	0xbcc1a50d	-0.023638273
133	0x3cc5bd6f	0.02413818
134	0xbd0ae2b6	-0.033907615
135	0x3d7bebf9	0.061504338
136	0x3d8dbfa9	0.06921322
137	0xbd284624	-0.041082516
138	0x3d66c8be	0.056343786
139	0xbcd89643	-0.026438838
140	0x3d2636bb	0.04057954
141	0xbd409c64	-0.047024146
142	0x3d71d751	0.059043232
143	0x3d579420	0.052631497
144	0xbc621ed2	-0.013801293
145	0x3b98bb72	0.004661017
146	0x3b4163db	0.0029508981
147	0x3d6d42bd	0.057924975
148	0xbd439627	-0.04775062
149	0xbd081a52	-0.033228226
150	0x3c9fd8bd	0.019512529
151	0xbd3c5d3a	-0.045987345
152	0xbd4f8584	-0.05066444
153	0xbc86df15	-0.016463796
154	0x3d14c29c	0.036318406
155	0x3c9e0d4d	0.019293452
156	0x3d08ce72	0.033400007
157	0xbd45e951	-0.04831821
158	0xbbe09c7f	-0.0068545933
159	0x3d0160a4	0.031586304
160	0x3cfa7c34	0.030576803
161	0xba1ef27f	-0.00060633564
162	0xbc7e4f14	-0.015521783
163	0x3d621e6c	0.055204794
164	0xbd158437	-0.036503043
165	0xbb882f68	-0.004156042
166	0x3d33e6cc	0.043921277
167	0xbcef708e	-0.029228475
168	0x3cd2b35d	0.025720293
169	0xbccf3668	-0.025294498
170	0x3d73a7e2	0.059486277
171	0x3d58b8c3	0.052910578
172	0xbd3cc0bf	-0.046082254
173	0xbbcc63e9	-0.006237496
174	0x3d68da07	0.056848552
175	0x3c75afbf	0.014995514
176	0x3d108cb6	0.035290442
177	0xbb005802	-0.0019583707
178	0x3c5df03b	0.013546045
179	0xbc4010d3	-0.011722761
180	0x3cb92162	0.022598926
181	0xbd04c4bd	-0.032414187
182	0x3c83bd55	0.016081491
183	0x3cb28f38	0.021796808
184	0xbc786d5b	-0.015162791
185	0xbc8286d7	-0.015933437
186	0x3d6044ba	0.054753043
187	0x3bee1f5e	0.007266923
188	0xbc4b19f8	-0.012396328
189	0xbd44a9d9	-0.04801354
190	0x3c83cc62	0.016088668
191	0xbc983fa0	-0.018585026
192	0xbd49c356	-0.049258552
193	0xbb0865a5	-0.0020812538
194	0xbc9ad58f	-0.01890066
195	0xbd086da5	-0.03330769
196	0xbd2e6ede	-0.0425862
197	0x3cc76570	0.024340361
198	0x3d0ee9d1	0.034890953
199	0xbca8f493	-0.020624435
200	0x3d0abde4	0.0338725
201	0x3d34515b	0.0440229
202	0x3c7da134	0.015480328
203	0x3bd84c24	0.0066008735
204	0xbd292792	-0.041297503
205	0xbb071eb3	-0.0020617663
206	0x3b3b1ed1	0.0028552304
207	0xbc795e89	-0.015220293
208	0xbbd0a857	-0.006367724
209	0xbd02be19	-0.031919573
210	0x3d538c36	0.051647387
211	0xbd32edf5	-0.043683965
212	0x3b1da102	0.0024052267
213	0xbcbdb919	-0.02315955
214	0xbd475d07	-0.048672702
215	0xbc81eaa7	-0.015858961
216	0xbd9d94ad	-0.07694373
217	0xbd852ef7	-0.065030985
218	0xbc131ea9	-0.008979478
219	0x3c29e61b	0.010369803
220	0x3d72c500	0.059269905
221	0x3cb1ac9b	0.02168875
222	0x3cf2e325	0.029649327
223	0x3d218b80	0.03943968
224	0xbd026ca5	-0.031841893
225	0x3d58811e	0.05285751
226	0xbd7daa28	-0.06192985
227	0xbd3f1220	-0.046648145
228	0x3d88ef2f	0.06686246
229	0x3d744d5a	0.05964408
230	0xbc4a636f	-0.012352808
231	0xbd16046d	-0.036625315
232	0xbc53e9b3	-0.012934136
233	0x3cf689fe	0.030095097
234	0x3d980599	0.07422943
235	0xbcdb21e4	-0.026749559
236	0xbd35ceb6	-0.044386588
237	0x3ca9b28f	0.020715026
238	0x3dafad53	0.08577981
239	0x3c917671	0.017756673
240	0x3bde912f	0.0067922096
241	0x3ca31a74	0.019910075
242	0xbd4b495a	-0.0496305
243	0xbc13d93d	-0.009023962
244	0xbde99d51	-0.11406959
245	0xbd350b89	-0.044200454
246	0x3c1d16e3	0.009587976
247	0xbd32e652	-0.04367668
248	0x3c4e1d93	0.012580293
249	0xbc92d4f7	-0.017923815
250	0xbd87ebc3	-0.06636765
251	0xbd8440a8	-0.06457645
252	0x3c5c8ec7	0.013461775
253	0xbc92983d	-0.017894858
254	0x3d237a86	0.03991177
255	0x3de7a001	0.11309815

module.conv_5.bias f4 [12]
0	0xbd592120	-0.053010106
1	0x3d6fa939	0.058510993
2	0x3ca5e221	0.020249428
3	0xbbc6910a	-0.0060597705
4	0xbc5d1798	-0.013494395
5	0x3ab58428	0.001384859
6	0x3d4a688c	0.04941611
7	0x3d9187af	0.07105958
8	0x390a00bb	0.00013160978
9	0x3d2ac19c	0.041688547
10	0x3cfe3750	0.031032234
11	0x3d11bdec	0.035581514

module.conv_6.weight f4 [12, 12, 3, 3, 3]
0	0x3da1c608	0.078990996
1	0xbcca114d	-0.024666453
2	0xbdbfea9e	-0.093709216
3	0x3d3618a6	0.0444571
4	0x3d374dd9	0.044751976
5	0xbd2698e4	-0.04067315
6	0xbcb2cab5	-0.021825174
7	0xbbc65de8	-0.006053675
8	0xbc4fd9c3	-0.012686196
9	0x3d273c88	0.04082921
10	0xbd480b36	-0.048838817
11	0xbdbec7c7	-0.09315448
12	0xbc99eb75	-0.018789032
13	0xbca79f20	-0.020461619
14	0xbc8b1a55	-0.01698033
15	0xbca1d00c	-0.019752525
16	0xbc901d94	-0.017592229
17	0xbbd06f6b	-0.0063609383
18	0x3d63bf48	0.055602342
19	0xbcf6df0d	-0.030135656
20	0xbd1cb0d7	-0.038254585
21	0xbc7a2f1c	-0.015270021
22	0x3ced9325	0.029000828
23	0xbcb8388c	-0.022487901
24	0x3a162bd9	0.00057285797
25	0x3d260c61	0.04053915
26	0x3bd585e1	0.0065162037
27	0xbd83ef17	-0.06442087
28	0xbd61badb	-0.05510984
29	0xbcfe259b	-0.031023791
30	0xbcfaed81	-0.030630829
31	0x3d000912	0.03125865
32	0x3d178adb	0.036997657
33	0x3d0ebc6f	0.034847673
34	0x3d34be14	0.044126585
35	0xbd1c301e	-0.038131826
36	0xbd80b513	-0.06284537
37	0x3c6344f6	0.013871422
38	0xbd3526df	-0.044226523
39	0x3c5d265a	0.013497913
40	0xbd352666	-0.044226073
41	0x3d498265	0.04919662
42	0xbc25ebe5	-0.010127042
43	0xbd1fed42	-0.039044626
44	0x3c470f2f	0.012149616
45	0xbce7ee04	-0.028311737
46	0x3d4aba21	0.049493913
47	0xbb70e1c0	-0.0036755651
48	0xbd58c7dc	-0.052924976
49	0x3d3f69f6	0.04673191
50	0xbd619eee	-0.055083208
51	0xbd185d69	-0.037198458
52	0xbc638f7e	-0.013889192
53	0x3d4e3b76	0.050349675
54	0x3b93b4a6	0.004507619
55	0x3b040aad	0.0020147965
56	0xbd2fd35a	-0.04292617
57	0x3c98da59	0.018658804
58	0x3cecfe83	0.028929954
59	0xbd5250cb	-0.05134658
60	0x3d0e5dfb	0.034757596
61	0x3b1f7c9a	0.0024335743
62	0xbcefca79	-0.029271351
63	0x3cef76ec	0.029231511
64	0x3ce5d298	0.02805452
65	0x3ce70f83	0.028205639
66	0x3d4f8fa4	0.050674096
67	0x3cdbb284	0.026818521
68	0x3cf11801	0.029430391
69	0xbc8bfb59	-0.017087625
70	0x3d302b79	0.04301021
71	0xbc11e389	-0.008904346
72	0xbce4afb5	-0.027915815
73	0xbd414b8e	-0.047191195
74	0xbc97ddc6	-0.018538367
75	0xbc18178b	-0.009282957
76	0xbd4dc233	-0.05023403
77	0x3d498a23	0.049204003
78	0x3cc3774f	0.023860602
79	0x3cd374f7	0.02581261
80	0xbbb0fba2	-0.0054010907
81	0x3c34f418	0.011044525
82	0x3bbee53b	0.0058256662
83	0xbd409cdb	-0.04702459
84	0x3d483e8b	0.04888777
85	0x3d2d962c	0.042379543
86	0xbd36a417	-0.044590082
87	0x3cb1560f	0.021647481
88	0xbc37e62d	-0.011224312
89	0xbcce643e	-0.025194284
90	0x3d115180	0.035478115
91	0x3d54af65	0.05192508
92	0xbd02e482	-0.031956203
93	0xbcbae44a	-0.022813935
94	0x3c8d122d	0.017220581
95	0x3d4802e8	0.048830897
96	0x3bb67a7c	0.0055688005
97	0x3c8c403e	0.017120477
98	0x3d50556c	0.050862715
99	0xbb8c2674	-0.004277045
100	0x3c56f159	0.013119065
101	0x3bc3e9a4	0.00597878
102	0x3caf9996	0.02143554
103	0x3a9c3743	0.0011918325
104	0xbcd8a28f	-0.026444701
105	0xbbd11715	-0.0063809254
106	0xbc9fd943	-0.019512778
107	0xbc9ab857	-0.018886728
108	0xbd48d4bb	-0.049031
109	0xb99b0e09	-0.0002957436
110	0x3cca7df7	0.024718268
111	0x3d0a0a53	0.033701252
112	0x3c5af5c4	0.013364259
113	0x3d96d895	0.073655285
114	0xbd98ddf7	-0.074642114
115	0xbcb353ec	-0.021890603
116	0xbd59b380	-0.0531497
117	0x3d534479	0.051578972
118	0x3daa777e	0.083235726
119	0x3e10fdc7	0.14159308
120	0x3cf3b808	0.029750839
121	0x3d8ad451	0.067787774
122	0x3dbbea50	0.09175551
123	0x3d4ab6d1	0.049490754
124	0x3d92f418	0.071754634
125	0x3db25224	0.08707073
126	0x3d1e76a7	0.038687374
127	0xbbc044e4	-0.0058675874
128	0xbca4c612	-0.020113979
129	0xbcde47fc	-0.027133934
130	0xbc0814df	-0.008305757
131	0xbc6b4d9d	-0.014361766
132	0xbc983933	-0.018581962
133	0xbc0ce680	-0.008599877
134	0xbda534f0	-0.08066738
135	0x3c67367a	0.014112109
136	0xbd57fb84	-0.0527301
137	0x3d3514ca	0.04420928
138	0x3d2dab51	0.04239971
139	0xbcc10df3	-0.023566222
140	0x3d5a1ae6	0.05324831
141	0x3cfebb4e	0.031095173
142	0xbce41bc2	-0.027845267
143	0x3d519779	0.051169846
144	0x3d67338a	0.056445636
145	0x3cf9e9e5	0.030507037
146	0x3bea00d1	0.0071412106
147	0xbd446972	-0.047952123
148	0xbd40bdb3	-0.04705591
149	0xbd2da461	-0.042393092
150	0xbd1967e8	-0.03745261
151	0x3c48fa21	0.012266667
152	0xbd5066be	-0.050879233
153	0xbc616b9a	-0.013758564
154	0x3d02e87b	0.031959992
155	0xbd026600	-0.031835556
156	0x3d5ba03b	0.053619605
157	0xbc782d88	-0.015147574
158	0xbc4c547b	-0.012471314
159	0x3d63d504	0.05562307
160	0x3d2a05c3	0.0415094
161	0x3d478331	0.0487091
162	0xbd64250c	-0.055699393
163	0x3d0a1eb6	0.033720694
164	0x3ca03d50	0.019560486
165	0x3b85d745	0.0040845
166	0xbd1b50c3	-0.037918817
167	0xbd0c7fa8	-0.03430143
168	0x3d00f15c	0.03148018
169	0xbcb20c2b	-0.021734318
170	0xbad80309	-0.0016480397
171	0xbb86d2f5	-0.0041145035
172	0xb9e84d9f	-0.0004430832
173	0xbd4080a0	-0.046997666
174	0xbc806bb0	-0.01567635
175	0x3d234395	0.039859373
176	0xbc8e1a07	-0.017346395
177	0x3cec6f51	0.028861674
178	0xba3e2139	-0.00072528754
179	0xbd4586c4	-0.048224226
180	0xbd24b9d7	-0.040216293
181	0xbd01c048	-0.031677514
182	0xbd53c6f5	-0.051703412
183	0x3c3796c8	0.011205383
184	0xbcf4230a	-0.029801864
185	0xbd26a0ad	-0.040680576
186	0xbcfe5e9f	-0.031050978
187	0xbc9ea8b7	-0.019367559
188	0x3d39f185	0.045396347
189	0xbd0857dc	-0.033286914
190	0xbce4bf10	-0.027923137
191	0xbd336f2c	-0.043807194
192	0xbbd0a9d9	-0.0063679037
193	0xbd31fe95	-0.04345568
194	0xbcef8bb5	-0.029241422
195	0x3d281a59	0.041040752
196	0x3c975d5b	0.018477133
197	0xbd4578ae	-0.048210792
198	0x3c925b30	0.017865747
199	0xbd1341ae	-0.03595131
200	0x3b73b23a	0.0037185089
201	0xbd4a0b05	-0.049326915
202	0x3c0cebfe	0.008601187
203	0xbd78a977	-0.06070849
204	0x3d17c9f7	0.037057843
205	0x382cf474	4.123566e-05
206	0x3bc65aad	0.00605329
207	0x3d0a238c	0.033725306
208	0x3d374af6	0.044749223
209	0xbd3a26da	-0.045447208
210	0x3c1baf69	0.00950227
211	0x3cd55540	0.026041627
212	0x3cf7afc7	0.030235184
213	0xbb892e65	-0.004186439
214	0x3c96192b	0.018322548
215	0xbd765179	-0.060136292
216	0x3d60bdfe	0.05486869
217	0xbd584649	-0.052801404
218	0xbcf6b941	-0.030117633
219	0x3d2cafde	0.042159908
220	0xbd67c801	-0.056587223
221	0xbc18f11a	-0.009334827
222	0xba1c7595	-0.0005968449
223	0xbdb9937a	-0.09061332
224	0x3d1a6e2a	0.037702717
225	0xbbbb4c8f	-0.0057159136
226	0xbd6e1004	-0.058120742
227	0x3c6cad09	0.014445552
228	0xbbaf6bba	-0.005353418
229	0xbd0d3c10	-0.03448111
230	0x3ca8f538	0.020624742
231	0xbd504a10	-0.05085188
232	0xbda106dc	-0.078626364
233	0xbce128e9	-0.027485328
234	0x3d4dfacd	0.05028801
235	0xbcdbd87e	-0.02683663
236	0xbc4edbd8	-0.012625657
237	0x3d473e21	0.048643235
238	0xbc87300c	-0.016502403
239	0x391a0de0	0.00014691753
240	0xbd84ea84	-0.06490043
241	0xbc2454b7	-0.010029963
242	0xbcf6413d	-0.030060405
243	0x3c75b386	0.014996415
244	0x3ac77470	0.0015217196
245	0xbd568557	-0.052373257
246	0xbd2cad30	-0.042157352
247	0xbd51bbb3	-0.051204395
248	0x3d1254e0	0.035725474
249	0x3c9aaefb	0.018882265
250	0x3cbd7e03	0.023131376
251	0xbb1bde88	-0.0023783762
252	0xbad06b00	-0.0015901029
253	0xbd1ca215	-0.03824051
254	0xbbbb98b5	-0.005724991
255	0xbbe67ba9	-0.0070337844

module.conv_6.bias f4 [12]
0	0x3d0f4e8f	0.03498703
1	0xbc5dfd3c	-0.013549145
2	0x3d688736	0.056769572
3	0x3cde6fe0	0.027152956
4	0x3cee65f0	0.029101342
5	0x3c8b0c11	0.016973527
6	0x3cdf0fdf	0.027229248
7	0xbd68bde1	-0.056821708
8	0xbaca9d9f	-0.0015458352
9	0xba88b017	-0.0010428455
10	0x3d0890b3	0.03334112
11	0x3d138143	0.036011945
