models/FSRCNN3D_epoch_100.pth (torch, 265282 bytes, 15 tensors)

module.conv_1.weight f4 [56, 1, 5, 5, 5]
000000 32 aa 3d 3d a4 21 87 bd d4 47 89 3d 11 ed 80 3d
       0.04630489 -0.06598213 0.06703153 0.06295217
000010 f7 4a 36 bc d5 50 18 3d be 04 57 3c 60 ad 45 bd
       -0.011126271 0.037186462 0.013123689 -0.048261046
000020 2d 66 74 3d 95 df 71 bd 93 90 66 3d 16 7b a8 3c
       0.059667755 -0.059051115 0.05629022 0.020566504
000030 da 78 a1 3d 29 1c 23 3c 2b 2c c2 3b 6a f3 c1 bc
       0.07884379 0.009955444 0.0059256754 -0.02367564
000040 68 fc 6c 3d 21 7b b3 3c 45 82 70 3d 39 20 9c bd
       0.0578579 0.021909298 0.058717985 -0.076233335
000050 67 19 b7 3d 13 84 80 3d 5f ca 8e 3d 5c 11 68 bd
       0.08940392 0.06275191 0.06972193 -0.05665718
000060 5c b6 5d bc 71 a7 01 bd 9a 0d 3a 3b 57 78 bd 3d
       -0.013532247 -0.031653825 0.0028389455 0.09251469
000070 b2 91 55 bd ab 82 73 3b cc 02 80 3b d6 c7 68 bd
       -0.0521409 0.0037156742 0.0039065834 -0.056831203
000080 2c 8d eb bc 17 7d 44 bc 43 1c 20 bd 72 95 8a bd
       -0.02875384 -0.011992714 -0.039089452 -0.06766786
000090 b3 ec f9 bc f8 83 1c 3d 30 0d 69 bc 17 b7 89 3d
       -0.030508375 0.038211793 -0.014224336 0.06724375
0000a0 fa 7d d6 bc ab 01 a1 bd e3 0a 86 3d 73 f2 10 bd
       -0.026183117 -0.07861646 0.06545045 -0.035387468
0000b0 fd ef 80 3d e6 05 86 bd 31 52 c2 3d 2c 3f c9 bc
       0.06295774 -0.06544094 0.09488333 -0.024566256
0000c0 01 22 36 3d 47 10 53 bd 8b 5c 84 3d e0 bb a4 bd
       0.044466022 -0.051529195 0.06462964 -0.08043647
0000d0 7d b7 5a 3d f2 41 99 bc c3 b0 68 3d e5 69 a0 3d
       0.053397644 -0.018708203 0.056809198 0.07832698
0000e0 20 b7 a3 ba 6c 8d 93 3d b8 de 25 bd 6c e5 3f bd
       -0.0012490489 0.072047085 -0.040495604 -0.046849653
0000f0 fe c0 3e 3c 6c 47 bb bd bf 69 29 3d fd cf db 3c
       0.011642693 -0.09144482 0.041360613 0.026832575
000100 69 64 1e b9 d3 09 51 3d 66 cc 85 3d 2a 4f 8f 3b
       -0.0001510546 0.05103476 0.065331265 0.0043734508
000110 52 62 7c 3d 40 4e 32 3c b8 39 c4 3c dd d5 75 3d
       0.061617203 0.010882914 0.023953304 0.06001841
000120 24 33 8a 3b 01 09 43 3d 94 53 82 bc 5c 3e d9 bb
       0.004217522 0.04761601 -0.015908994 -0.0066297483
000130 c9 8c 83 bd a4 d1 ee 3c 82 27 26 bd 2c d8 cd bd
       -0.06423337 0.029152699 -0.04056502 -0.10050997
000140 84 0d 8d 3d d5 d1 87 3d 7d 89 dd 3d 2b fe 19 3d
       0.068873435 0.06631819 0.108172394 0.03759591
000150 ab e9 52 bd 30 b6 86 3d ad 18 e9 bc cb 05 f8 bb
       -0.051492374 0.06577718 -0.02845415 -0.00756905
000160 0e d9 17 bd b4 1b be bd 36 f7 43 bd cf d8 59 bd
       -0.037072234 -0.09282628 -0.04784318 -0.05318528
000170 6d 15 83 bd 93 e0 bd bb 01 f5 74 bd 10 d4 de 3c
       -0.06400571 -0.0057945936 -0.059803966 0.027200729
000180 4f c0 51 bd d1 8e a8 bc b3 c1 9f 3d f6 6f af 3d
       -0.05120879 -0.020575913 0.07800617 0.08566277
000190 f6 4e 94 bd 55 17 6f 3c 0c f6 2b bd 5f 52 c7 bd
       -0.07241623 0.014592965 -0.041982695 -0.09732508
0001a0 2b b5 00 3c a3 71 11 bd c3 89 b3 3d c3 c0 ca 3d
       0.007855694 -0.035508763 0.0876651 0.09900048
0001b0 9c a0 6b 3d 5f 27 34 3d 5e 9e 9b bd 02 6a 52 3d
       0.057526216 0.04398286 -0.075985655 0.05137063
0001c0 df 8a 91 3d 46 1a 9b 3d 49 d7 17 3d 00 32 05 bb
       0.07106566 0.07573371 0.037070546 -0.0020323992
0001d0 e0 02 5c bc cd 5b 69 3c b7 b6 fd b8 7b 75 ba bd
       -0.01342842 0.014243078 -0.000120980134 -0.09104439
0001e0 82 4a 70 bd 1d 6a 09 bd 3a ee 89 bc e1 d7 63 bd
       -0.058664806 -0.033548463 -0.016837228 -0.0556258
0001f0 51 69 2b 3d 47 7a fc ba ee 9a b6 3d cc 9b 71 3d
       0.041848484 -0.0019262516 0.08916269 0.05898647
000200 d1 7e 1f bd e1 89 94 3b d6 ff e8 3c cf 9f be 3d
       -0.0389393 0.004533038 0.028442305 0.09307825
000210 9e d9 c6 bc ec b8 31 3d 68 a0 2e 3d 29 37 b5 3d
       -0.02427369 0.043389246 0.042633444 0.088484116
000220 f1 27 35 3d b1 e3 91 bc dd 10 71 bd 4a 97 ec 3c
       0.044227544 -0.017808767 -0.058853973 0.028880734
000230 38 e9 4b bd 1f 25 e0 3c e0 3e b4 3d 73 e3 7a bc
       -0.04978296 0.02736145 0.08801055 -0.015313017
000240 3e 94 63 bd 36 21 63 bd 02 eb 14 bd 57 8d b0 3c
       -0.055561297 -0.055451594 -0.036356933 0.021551771
000250 4f 95 8f bd 3f cc d5 3b 0c 3c 76 3d c2 9a b1 bc
       -0.070109 0.006524592 0.06011586 -0.02168024
000260 70 ae 83 bd 24 4e b6 bd 9c 05 5c 3d 30 7f 19 3c
       -0.06429756 -0.08901623 0.053716287 0.009368703
000270 7f 0c 1d 3d fa 22 be bd e4 da 4a 3d b1 88 0b bd
       0.038341995 -0.09284015 0.049525157 -0.034065906
000280 57 58 bd 3d 77 c2 8a bd 0f b1 b8 bd f6 d3 b8 bd
       0.09245365 -0.067753725 -0.09018146 -0.09024803
000290 ca 51 7b bd 1c 1e e6 bc b9 a0 89 bd 8b 48 7c bd
       -0.061357297 -0.02809053 -0.067201085 -0.06159262
0002a0 ac 66 25 bd 5e 20 9a 3d 8d 23 1f 3d 26 01 0c 3d
       -0.04038112 0.07525705 0.038852263 0.034180783
0002b0 05 69 9d bd 63 24 0d 3d fb a8 c8 ba b1 15 07 3d
       -0.076860465 0.03445853 -0.0015309149 0.03297967
0002c0 90 32 8f bd c3 da bd 3a 3d e7 e6 3c 6b 4a bc bc
       -0.06992066 0.0014484752 0.028186435 -0.022984704
0002d0 0b 39 86 3d 2e 0c d1 3c 80 63 57 bc cf f8 98 bd
       0.06553849 0.025518503 -0.013146281 -0.074693315
0002e0 f3 bb ab bd f8 34 cf bc c8 b5 e9 3b c0 38 cc bd
       -0.08385458 -0.025293812 0.0071322657 -0.09971762
0002f0 76 ff ff bc d1 dd 6d 3d 50 18 05 bd ed f5 8f bd
       -0.031249743 0.05807287 -0.03249389 -0.070293285
000300 54 0b 8d 3d 4e f7 7f bd 81 72 d4 38 ff 1e 21 3c
       0.06886926 -0.062491708 0.00010130276 0.00983405
000310 dd f0 35 3d 49 2d 35 3d 45 01 6c 3d 17 06 18 3d
       0.04441916 0.04423264 0.0576184 0.037115183
000320 1e b2 bf 3d 15 49 84 3d e8 6e 61 3d af b7 87 bd
       0.09360145 0.06459252 0.05503741 -0.06626832
000330 7b 2d 81 3d 76 b3 91 bd 9f 93 9b bc d2 54 bd bc
       0.06307503 -0.071143076 -0.01899129 -0.023111735
000340 46 f7 54 3d 2b c5 81 bd 78 bd 01 3d 3d 37 35 3d
       0.05199363 -0.06336435 0.031674832 0.044242132
000350 ca 5d 70 3d f5 83 84 3d 9a ba 81 3d 16 e5 ac 3d
       0.058683194 0.06470481 0.063344195 0.08442132
000360 4d 1b b7 3d ec 3f 91 3c d4 09 75 3d 96 14 a9 bd
       0.08940754 0.017730676 0.059823826 -0.082558796
000370 aa 6b 1c 3d d2 c8 1e 3c bf ad 76 bd 0b 60 9e 3d
       0.038188614 0.009691434 -0.06022429 0.077331625
000380 3c 98 4f bd 7f 39 85 bd ad 4c 22 bd df a3 8e bd
       -0.05068229 -0.06505107 -0.039623905 -0.0696485
000390 7b 9e fa bb 68 2b ad 3d 96 d7 18 3c 38 f0 d3 3d
       -0.007648287 0.08455545 0.009328743 0.103485525
0003a0 d3 cc 9d bd 1e ec 42 bd d5 d6 63 bd ed f1 a1 3d
       -0.07705083 -0.04758846 -0.0556248 0.07907472
0003b0 5f 28 d8 3c 70 56 46 3d 4f 41 34 3d 89 23 2f 3d
       0.026386438 0.048422277 0.044007596 0.0427585
0003c0 a6 1a 4a 3d a9 dd 51 3d 1d 8a ca 3c cd 4a 08 bd
       0.04934182 0.051236782 0.02472406 -0.03327446
0003d0 cb 75 a7 3d d5 5a 88 bc d3 44 73 bd d7 cb 33 bd
       0.08176764 -0.016644875 -0.059391808 -0.04389557
0003e0 5c 51 a5 3b 7d 14 a7 bd 12 4d 10 bb 36 f1 b0 bc
       0.005045099 -0.08158205 -0.0022018594 -0.021599393
0003f0 bf a5 3a bd 88 37 4a bd e9 fc b6 3d 43 57 cc 3b
       -0.045568224 -0.049369365 0.089349575 0.0062359883

module.conv_1.bias f4 [56]
000000 47 44 8a 3c 26 bd 06 bb 36 bd 9c 3d e5 87 69 3d
       0.01687826 -0.0020559519 0.076532766 0.057014365
000010 54 76 70 3c 7e b2 2c 3d 22 34 8a bd 1a c4 31 bd
       0.014676649 0.04216241 -0.06748225 -0.043399908
000020 42 b0 15 bc 98 b8 81 bb 18 c0 74 3d c7 35 58 3d
       -0.009136261 -0.003958773 0.059753507 0.05278566
000030 4b 89 7a bd 28 6c b6 bc 7c 99 cf bc 51 68 5c bd
       -0.06116609 -0.02226837 -0.025341742 -0.05381042
000040 05 7d fa 3b 2f bc 8b 3d c3 5f 93 bc 9a 55 42 3d
       0.007644298 0.068230025 -0.017989999 0.047444917
000050 07 0b 97 3d 5c f2 ff 3c 53 75 be 3c 33 1d 4a 3d
       0.0737515 0.031243496 0.023249304 0.049344253
000060 9e 4d 74 bc 9c c9 3d bc 37 43 2d bd 61 6c 8b bc
       -0.0149110835 -0.011583712 -0.04230043 -0.017019453
000070 0b 9f 13 3d 19 24 84 3d 38 59 8e 3d 75 b9 8f 3c
       0.036040347 0.064521976 0.06950611 0.017544487
000080 9c aa b9 3a 58 a7 23 3d f9 ba ff 3c 4b 13 11 bd
       0.0014165225 0.039954513 0.031217085 -0.03541879
000090 dd a6 ad bc 61 80 39 3d 39 73 fd 3c b7 48 90 3d
       -0.02119773 0.045288447 0.030938732 0.07045119
0000a0 f1 5c 47 3d 6e a1 a6 3d f8 af 6f 3d be 16 88 3c
       0.04867262 0.08136259 0.058517426 0.016612407
0000b0 38 70 74 3b 89 b9 97 bd 23 8e b2 3c 20 6e 4c 3d
       0.0037298333 -0.07408435 0.021796292 0.04990971
0000c0 18 af 69 bd c0 98 20 3a a2 5c 3b 3c 45 74 c1 3c
       -0.057051748 0.0006126277 0.01143566 0.023615012
0000d0 1c dd be bc e7 04 ca 3d 63 a7 7b bc 7c f6 a6 3d
       -0.023298793 0.09864216 -0.015359732 0.08152482

module.conv_2.weight f4 [12, 56, 1, 1, 1]
000000 b0 8f c5 3d 23 22 4c 3e 2f fa 94 bd 09 89 a6 bd
       0.09646547 0.19934897 -0.07274281 -0.08131606
000010 1d 68 22 3e 48 2b 75 3d 65 7a 57 3d 9a dd f5 3c
       0.15860029 0.05985573 0.05260696 0.030012894
000020 7e 9a 57 bc e0 8d 9a 3d 03 86 ca bd e9 e1 70 3d
       -0.013159392 0.07546592 -0.09888842 0.058809195
000030 4a 78 f3 3d 5a 43 60 bd cf 09 86 3d ce de a3 bd
       0.11888178 -0.05475173 0.065448396 -0.08001481
000040 71 7c b4 3d 00 24 a9 bc 4b 7d eb bd 71 0a 21 3d
       0.08812798 -0.020647049 -0.11498507 0.0393166
000050 d1 73 ee bd e7 26 8b 3d 3f 41 0a 3e 8f ba b2 3d
       -0.11643184 0.067945294 0.13501452 0.087269895
000060 ec 55 53 bd 8c 73 43 bd f5 83 9e bc 4e 53 86 3c
       -0.051595613 -0.047717616 -0.019350031 0.016397145
000070 ff bd 02 bd cc 84 d1 3d b0 a0 0b 3d de f4 98 bd
       -0.031919476 0.10230407 0.03408879 -0.0746858
000080 50 e0 16 be 14 b1 8b 3d 18 a9 ec bd c3 8a 89 3d
       -0.14734006 0.06820884 -0.115556896 0.0671592
000090 5a 24 76 3d ab bc ba bd c7 c0 98 bc 3c 6b 40 3e
       0.06009326 -0.09118017 -0.01864661 0.18790907
0000a0 59 13 96 3d 37 11 05 3e 45 ec fe 3d 1a 2d 44 be
       0.07327909 0.12994848 0.124474086 -0.1915783
0000b0 64 f9 1d 3e 0b a6 34 3d 08 92 31 bd 10 00 13 3e
       0.15427166 0.044103663 -0.043352157 0.14355493
0000c0 30 83 3b bd 32 d0 6d 3d 71 cf 85 3b 5a 01 a4 3d
       -0.045779407 0.05805988 0.004083567 0.0800807
0000d0 06 a1 e9 3d 62 1b 53 3d 54 08 a2 3b 4d b9 91 3d
       0.11407666 0.051539786 0.0049448404 0.071154214
0000e0 d3 9e cc bc 52 b0 2c bd 4a 84 dc 3d 8a 1b a5 bd
       -0.024978077 -0.04216034 0.1076742 -0.08061893
0000f0 78 96 1f be b5 74 2e 3c 01 d5 4c 3c cc d0 cf 3b
       -0.15584743 0.010647942 0.012501956 0.006342029
000100 95 67 29 bc db e1 b5 3d 01 d4 11 be 6b 45 e0 bd
       -0.010339637 0.08880969 -0.1424103 -0.109507404
000110 c5 e4 d3 3d d7 b3 05 bd 4f ee fc 3d 90 7b 4d 3c
       0.10346369 -0.03264221 0.12350141 0.012541667
000120 45 9f 05 3d 0f 1e a4 3d dc ba 12 3d b4 f1 a6 3d
       0.032622594 0.08013546 0.035822734 0.0815157
000130 f0 02 04 3e 48 3c 48 bd 63 51 5f 3d b7 8b ad 3d
       0.12891746 -0.048885614 0.054520976 0.08473914
000140 d5 d8 b1 3b 12 e0 06 3d 7f aa bb 3d e0 ea b2 3d
       0.0054274597 0.032928534 0.09163379 0.08736205
000150 cb dc c0 3c 98 c2 9c 3d 28 85 c7 3d 28 c8 f1 bd
       0.023542782 0.07654303 0.097421944 -0.11805755
000160 76 f3 ac bd 85 a4 87 bd 51 54 3c bd c7 39 1d bd
       -0.08444874 -0.066231765 -0.045978848 -0.03838518
000170 6b 4f 82 bd ee 6e 14 3d 29 95 d2 3d 91 d8 02 be
       -0.06362804 0.036238603 0.10282356 -0.12777926
000180 55 a5 52 3d d6 16 f4 3d 84 0a a1 3d 73 6a 08 bd
       0.051427204 0.11918418 0.07863334 -0.033304643
000190 01 59 b9 3d fe 34 16 3e f0 6e be bd 93 a2 d8 3c
       0.09050179 0.14668652 -0.092985034 0.026444709
0001a0 52 a3 81 3d 5f 56 54 3e 05 30 fa bd af fc 37 3d
       0.06329979 0.20736073 -0.1221619 0.044918712
0001b0 52 45 a6 bc ce 8e 42 bd 86 a4 a4 3d ab d1 10 3e
       -0.020296726 -0.04749947 0.08039193 0.14142482
0001c0 43 30 43 3d cc 11 7e bd 2e c5 37 3d bf d5 55 3d
       0.047653448 -0.06202869 0.04486578 0.052205797
0001d0 e9 6c b5 bd ba 51 78 3d ab e9 cc bd fb 17 38 3b
       -0.088586636 0.060624816 -0.10005506 0.0028090465
0001e0 dd 9a d4 3d 99 f3 0e 3e e3 5b b9 bc df 31 51 be
       0.103811 0.13960113 -0.022626823 -0.2042918
0001f0 85 f7 52 3d ce cc f6 bc 68 f1 7a bd 7d af 59 3d
       0.051505584 -0.030126955 -0.06126538 0.053145874
000200 8c 06 a6 bb 79 b6 c0 3d d5 d6 fb bd c5 c0 0c 3d
       -0.0050666984 0.09409804 -0.12296835 0.034363527
000210 b5 37 e4 3d ca 0c d9 bc 92 f2 b6 bc 97 1e d1 3d
       0.11143438 -0.026495356 -0.022332463 0.10210913
000220 7e 5a 19 be c7 53 e2 3d ac bb ec bd d9 1d 9a 3d
       -0.14975926 0.110511355 -0.11559233 0.07525224
000230 25 8f 05 3e e4 a6 89 bd d1 da b7 3d ba db 33 bd
       0.13042887 -0.06721285 0.08977283 -0.04391072
000240 6b 96 05 3e c1 09 36 be 14 4e d4 bd 08 c3 04 3e
       0.13045661 -0.17777158 -0.10366455 0.12965024
000250 9f 31 02 3e da 1d 59 bd 9a db 97 3d b1 ae fe bc
       0.12714241 -0.053006984 0.074149325 -0.031089159
000260 f8 92 c1 ba 6f 22 f4 bd fa ce 80 bd cb 35 14 bd
       -0.0014768532 -0.1192063 -0.06289478 -0.036184113
000270 58 45 9f bd b1 74 49 3d cc c9 d2 3c 3d 86 25 bd
       -0.07776898 0.04918355 0.02573099 -0.040411223
000280 71 61 c3 3c a5 04 39 bd 0a be 89 3d da 3a f8 ba
       0.023850175 -0.045170445 0.067257 -0.0018938438
000290 1c a1 ec b9 2c 63 c7 3d 06 7e a4 bd d2 bd 7b bd
       -0.00045133464 0.097357124 -0.080318496 -0.061460324
0002a0 24 7d 36 bd d2 7d bf bd eb 0d 6d 3d 13 61 6e 3d
       -0.044552937 -0.0935017 0.0578746 0.058198046
0002b0 3f 31 23 bd c1 60 2e bd 78 33 cd 3c 6a 27 b4 3d
       -0.039841887 -0.04257274 0.025048956 0.0879658
0002c0 42 5a 6a bd 7f ee a7 bd fc f7 6f 3d ac 02 12 be
       -0.057214983 -0.081997864 0.058586106 -0.14258832
0002d0 64 ba 95 bd e5 18 96 3d c1 b0 e2 bc 5e a7 92 3d
       -0.07310942 0.07328967 -0.027672173 0.07160829
0002e0 17 b9 94 3d 2d 20 d5 bc 35 69 18 bd d2 66 1c bd
       0.072618656 -0.02601632 -0.03720971 -0.038183995
0002f0 8a 4e 02 bd b0 0f 3b bc 21 23 66 3c b5 84 d6 3d
       -0.031813182 -0.011417314 0.014046461 0.104745306
000300 d2 11 8e bd e3 d3 30 3d fe 01 9e bd da 3d dc bd
       -0.06936993 0.04317082 -0.07715224 -0.10753985
000310 83 aa e8 3d d1 82 89 bd 41 de d5 3d 13 59 a8 3d
       0.113606475 -0.067144044 0.10442782 0.082201146
000320 0b 22 bf bd 55 d7 85 bd 36 f3 63 bb ca 53 be bd
       -0.09332665 -0.06535212 -0.0034782416 -0.09293325
000330 c4 c7 2e 3c b3 ad d1 3d 07 b6 00 3e e2 81 81 bd
       0.010667745 0.102382086 0.12569438 -0.06323601
000340 eb 1d dd 3d b7 5a 95 bd 39 94 3a bd 6c 69 99 bd
       0.10796722 -0.07292693 -0.045551512 -0.07490811
000350 45 ff a4 3d d0 9c d2 3d 8b 29 3b 3b 70 12 94 3d
       0.08056501 0.10283816 0.0028558697 0.07230079
000360 27 62 59 3b 14 2c 04 3e ed 77 3c 3d 11 fa 02 3c
       0.0033170076 0.1290744 0.046012808 0.007994191
000370 aa ee ee bd 98 df 0d 3e 88 39 20 3e a5 fe f5 bd
       -0.11666615 0.13854825 0.15646946 -0.1201146
000380 6c ae a0 3c 3d e4 19 3d 47 6f 22 bd 72 64 d3 bc
       0.01961442 0.03757118 -0.039656904 -0.025804732
000390 59 6c 9a 3d 76 42 5f 3d b2 42 2d bb 41 57 aa 3d
       0.07540197 0.05450674 -0.0026437459 0.083174236
0003a0 88 ca cd 3d c5 a8 24 bd 2d 02 e7 bc 96 fc 03 3e
       0.100483954 -0.040200014 -0.02819928 0.12889323
0003b0 54 ed bf 3d 84 20 ff bb 1d bf b9 bd 4b 61 d6 bd
       0.093714386 -0.0077858586 -0.09069655 -0.10467776
0003c0 f8 7f 54 3d a7 7c 02 be f4 42 15 3e a0 af e4 bd
       0.051879853 -0.12742864 0.14576322 -0.1116631
0003d0 ca 7c 90 bd 9d 95 32 3c 9b fe bb 3d a3 b7 9f bc
       -0.070550516 0.010899928 0.091794215 -0.019496744
0003e0 9d ff 8d bd f8 55 c0 bd 91 fa f7 3c ea 21 87 3d
       -0.0693352 -0.09391397 0.030270847 0.065982655
0003f0 4e d8 c4 3d 52 05 a8 bd e4 67 92 3d 2e c1 be bd
       0.09611569 -0.0820414 0.07148722 -0.0931419

module.conv_2.bias f4 [12]
000000 2f fe 2c bd 6f b9 d0 bd 94 86 87 3d a1 99 52 bd
       -0.042234596 -0.10191619 0.066174656 -0.051416043
000010 52 37 f2 3d 43 db 20 3d 4f 0d 90 3b 39 db b2 3c
       0.11826958 0.039271604 0.0043961178 0.02183305
000020 7e 23 a6 bd 6a d6 16 3c 40 f0 b6 bd 98 28 8c 3c
       -0.08112238 0.009206394 -0.08932543 0.0171092

module.conv_3.weight f4 [12, 12, 3, 3, 3]
000000 a5 00 5e bd 02 72 5f 3d 17 84 be 3c b5 58 72 3b
       -0.054199833 0.054552086 0.023256345 0.0036979143
000010 7a 84 3e bc 68 17 04 3d 94 98 b8 3c aa 19 10 bd
       -0.011628265 0.032248884 0.022533692 -0.035180725
000020 a3 b7 6f bd a8 80 a4 3b 38 25 24 3d 45 09 b5 bc
       -0.05852474 0.00502022 0.040074557 -0.022099147
000030 aa 47 5f bd 47 5b 32 3d 4a bc 43 bd 5d 75 54 3d
       -0.054511704 0.04354408 -0.04778699 0.05186974
000040 2d 53 69 3c c6 c3 22 3d 60 98 3b bd 29 b5 95 3c
       0.014241022 0.039737485 -0.045799613 0.01827486
000050 49 33 26 bc 2c 1f 32 3d 9a b4 25 3d 58 8f cb bc
       -0.010144063 0.04348676 0.04045544 -0.024848625
000060 64 f1 ea 3b 3f f1 7f 3d 05 97 a8 3c 24 c6 02 bd
       0.0071698893 0.06248593 0.020579824 -0.031927243
000070 2b e7 41 3d 02 be f4 3c d3 d1 55 bd ca 3c a9 3c
       0.0473396 0.029875759 -0.052202057 0.02065887
000080 16 4d c6 3b 01 49 be 3c 38 47 01 bd 3b bf 28 3c
       0.00605167 0.02322817 -0.03156206 0.010299499
000090 fb ce e3 bc 25 f1 97 3c 17 b7 8a bb a0 ac 5c bc
       -0.027808657 0.018547604 -0.004233252 -0.013468891
0000a0 df 57 ef bc f5 88 a1 3c dc 57 88 bb 50 0d a9 3c
       -0.029216705 0.019718627 -0.0041608643 0.02063623
0000b0 c7 3a 13 bc 33 09 d0 3c cf 91 9e bc f5 50 50 3c
       -0.008986182 0.025395012 -0.019356636 0.012714614
0000c0 a4 e5 7b 3c c8 7b f0 3c ce 96 34 bd 68 08 e1 3b
       0.015374575 0.029355898 -0.04408913 0.006867457
0000d0 bd 46 5e bd 2d b5 c0 bc fc c1 bd 3c 48 d8 49 3d
       -0.05426668 -0.023523891 0.023163788 0.049278527
0000e0 ef 44 c7 3b d9 c8 cc 3c 30 44 27 3d c8 7e 23 bc
       0.0060812156 0.024998115 0.040836513 -0.0099789575
0000f0 2a 4c 2c bc 92 7c 9c bc f4 4e 10 3b 2b 9e 33 3d
       -0.010516206 -0.019102369 0.0022019716 0.043852013
000100 7e 63 09 3d 6e 04 5b 3d a1 90 60 bd 85 ff e5 3c
       0.03354215 0.05347102 -0.05482543 0.028075943
000110 e8 e0 fd 3b 9b 51 8e 3a a3 5c 22 3c 9f db be bc
       0.007747758 0.001085806 0.009909782 -0.023298083
000120 2c b5 e5 bb 65 bf 36 3d cf 1a 4e bd 78 8a 5d bd
       -0.0070101228 0.04461612 -0.050318535 -0.054087132
000130 3b 92 80 ba 93 ce 88 bb 4c 52 4d 3a ca 44 2b bd
       -0.0009809205 -0.004175016 0.00078323926 -0.04181365
000140 f1 8b 1a 3d 31 5c 3e bc ad 39 fc bc 2d ba 38 bc
       0.037731115 -0.01161866 -0.03078922 -0.0112748565
000150 15 b8 01 3d 43 ca 02 3d c3 7f 0d 3d 54 10 4a bd
       0.031669695 0.031931173 0.03454567 -0.049331978
000160 0b 1d 2e 3d a9 d8 c6 3b f2 a1 b5 bc 1f cf aa 3c
       0.042508166 0.0060683084 -0.022171948 0.020850716
000170 22 3e 5c bd 76 dd b5 3c 94 8a 74 3c 5a 0b 36 3d
       -0.053770192 0.022200327 0.014925618 0.04444442
000180 91 db 1e 3d 5a 4c 4a bd 23 d7 50 bd 94 dd 26 bc
       0.038783614 -0.04938922 -0.05098642 -0.010184664
000190 ae af b3 bc af 00 db bc 8a 53 a9 3b 74 e7 d8 bc
       -0.021934357 -0.026733724 0.0051674293 -0.026477553
0001a0 65 e1 66 bc da 5e 23 bd 4a 80 67 3d 33 f4 23 3d
       -0.014091824 -0.03988538 0.05651883 0.04002781
0001b0 4e 07 58 3d f9 d3 58 3d dd 0e cf 3c b1 8e 3b bd
       0.05274134 0.052936528 0.025275642 -0.045790378
0001c0 00 ce a9 bb 45 da 15 3d 24 32 7c bd 59 74 30 3d
       -0.005182028 0.03658511 -0.061571255 0.043079708
0001d0 d0 cf f4 3c e7 b9 59 bd 39 99 1e bd 1e 33 01 bc
       0.029884249 -0.053155806 -0.038720343 -0.007885722
0001e0 7c 26 2f bd ac d3 75 3c e2 32 cc bc 0e 41 0d 3d
       -0.04276131 0.01500408 -0.024926607 0.03448587
0001f0 51 9e 3b bd c5 89 e4 3b 82 80 4e bd b8 b5 15 bc
       -0.04580528 0.006974431 -0.050415523 -0.009137563
000200 9e e8 ee bc 46 f4 45 3d 8b 98 c0 3c 1c 3b d8 bc
       -0.029163655 0.04832866 0.023510238 -0.026395373
000210 8d 95 be 3c cc f2 69 bd 4e 19 ac 3c 08 09 a1 bb
       0.02326467 -0.057116315 0.02100816 -0.0049144067
000220 2b 19 5b bd e5 41 3c 3d 0e 11 10 bd 35 84 03 3d
       -0.0534908 0.04596128 -0.035172515 0.032108504
000230 fc 23 8d 3c 50 31 5d bb 83 41 10 bb ce 20 a2 bb
       0.017229073 -0.0033751316 -0.0022011704 -0.0049477583
000240 29 73 af 3b 6e a7 3b bd 73 e4 a9 bc 13 36 5b bd
       0.0053543043 -0.04581397 -0.020738816 -0.053518366
000250 bc 19 96 bd ee 47 aa 39 18 60 67 bc bb 9d b8 bc
       -0.07329127 0.0003247852 -0.014122032 -0.02253615
000260 52 04 86 3c 99 bf 35 3c c3 90 28 3c 11 fe c4 3b
       0.016359482 0.011093044 0.01028842 0.0060117324
000270 e6 fd 00 3d 28 a9 9c bc 2c 0f 1e bd bd b7 96 bc
       0.031492136 -0.019123629 -0.038588688 -0.01839816
000280 52 6e 51 bc 9c c1 87 3d 80 18 ed 3c e3 b7 56 3d
       -0.01278265 0.06628725 0.028942347 0.05242146
000290 98 a9 0c bd 72 af 32 3d bb b4 b9 3c da ee 5d 3d
       -0.034341425 0.04362435 0.022669187 0.054182865
0002a0 3a 50 c0 bd 8e 54 a5 bd 4f bc fd bc 5e d0 1b 3d
       -0.09390302 -0.08072768 -0.030973582 0.03804051
0002b0 4d 1c f4 3c f4 db 1c 3c 45 40 36 bd 2e c3 e0 bc
       0.029798651 0.009573925 -0.044494886 -0.027436819
0002c0 8d 55 35 bd 8a 19 30 3c 2d 46 7d bd 96 6d bb bc
       -0.04427104 0.0107482765 -0.061834503 -0.022879403
0002d0 5c 46 51 3d 00 3d 53 3d 81 62 27 bc 5b 61 62 ba
       0.05109249 0.051571846 -0.010216356 -0.0008635723
0002e0 22 6f 09 3c cc d2 c6 3a 06 db 42 3c fe fc 69 3c
       0.0083883125 0.0015169024 0.01189304 0.014281509
0002f0 f0 cd 78 3d 99 38 b6 3c 66 2b dc ba 64 05 98 ba
       0.060743272 0.022243785 -0.0016797602 -0.0011598286
000300 04 91 06 bc 2e 49 fe 3c bf 32 73 bd a0 24 31 bd
       -0.008213285 0.031040754 -0.059374567 -0.04324782
000310 d8 af 0a bd 7e ab d2 bc e3 8c dc 3c 77 c4 cc 3b
       -0.033859104 -0.02571654 0.026922649 0.0062490064
000320 92 91 2c 3d 5e a2 67 bc d8 ad a2 3c 9e ce 33 3d
       0.042131014 -0.014137832 0.019858286 0.043898217
000330 79 2f 28 bd 74 5a 04 bd 38 a8 14 3b 0b 98 14 3d
       -0.0410609 -0.032312825 0.0022683274 0.036277812
000340 a3 14 b1 3c 6c 5f 19 3d 42 49 4f bc aa 98 f7 3b
       0.021616286 0.037444517 -0.012651743 0.007556041
000350 21 3d 9c bb 5e 68 4b bd 00 10 94 bc d4 de 11 3d
       -0.0047680293 -0.04966008 -0.018074036 0.035612896
000360 f7 9c 14 bd 88 61 c4 3c d4 39 39 3c db 6e 59 3d
       -0.036282506 0.023972288 0.011305291 0.053084236
000370 f3 14 a4 3c 0d 33 bd 3c ea 7b 8c bc fd 9d 2c 3d
       0.02002952 0.023095632 -0.01714893 0.042142857
000380 a0 bc 13 bd 95 37 02 bc 72 d6 25 bd 4d 66 0b 3c
       -0.03606856 -0.007947822 -0.040487714 0.008508277
000390 8b b6 e4 3c b6 b7 b9 b9 9e 9e cc 3c 58 fa fd bc
       0.027919075 -0.00035422825 0.024977978 -0.031003162
0003a0 46 e2 4d 3d b7 bd 42 3d be 71 c7 3b 62 be c6 bc
       0.05026462 0.047544207 0.006086557 -0.024260703
0003b0 5e 5c 93 3c 24 b9 52 3d 8b 77 62 bd 87 db 5d 3d
       0.01798838 0.051446095 -0.055289786 0.054164436
0003c0 55 2d 26 3d 71 bb d5 bb 62 57 30 bd 85 3b 53 bc
       0.040570576 -0.006522589 -0.043052085 -0.0128926085
0003d0 23 d5 97 bb 98 69 34 bc c4 a7 c9 3c 33 f6 16 3d
       -0.004633562 -0.011011504 0.02461613 0.036855888
0003e0 5f 57 14 3d a4 76 4c 3c ce fc 17 3d 6d e0 08 3c
       0.036216136 0.012479458 0.037106328 0.0083542885
0003f0 e8 27 b3 3c 24 09 64 3b 21 ec 8a bb 32 b6 c9 3b
       0.021869615 0.0034795487 -0.0042395745 0.0061557526

module.conv_3.bias f4 [12]
000000 c8 88 34 ba bc de 2b bd 58 6d 1a 3c 9c bd 5b bc
       -0.0006886837 -0.041960463 0.009425484 -0.013411906
000010 78 71 3a bd 1a 4c bc bb b4 6a 70 3d a1 69 2f 3d
       -0.04551837 -0.0057463767 0.05869551 0.042825345
000020 57 6c c5 bc 7e ed 2a ba 78 e1 fb bc b6 0c 76 bc
       -0.024099512 -0.00065203744 -0.03074716 -0.015017679

module.conv_4.weight f4 [12, 12, 3, 3, 3]
000000 76 89 09 3d 87 98 3a 3d db c4 73 3b 7a 6b 8f ba
       0.03357836 0.045555618 0.0037196192 -0.0010942065
000010 2f 76 27 bd 22 a1 50 bd 43 2c f4 3b 05 1b 87 3c
       -0.040884193 -0.05093492 0.0074515655 0.016492376
000020 9c 8b 72 bb 98 ac 0a 3d 1d 31 44 bd 6c 9f 54 bd
       -0.0037009483 0.033856004 -0.0478984 -0.05190985
000030 c9 5b 46 3d 4f ab 22 3d fb 88 05 3d 6c 18 ff bb
       0.048427377 0.039714154 0.032601338 -0.0077848937
000040 5c d7 bb 3a 61 4f 07 bd 26 e7 44 3d 25 b2 4e bd
       0.001433115 -0.033034686 0.048072003 -0.05046286
000050 5c 96 2d 3d c0 9b 04 bc a1 9c bb 3c 35 fb 49 bd
       0.042379722 -0.008093774 0.022901835 -0.049311835
000060 16 b3 1a bd 67 50 f6 3b 54 40 76 b8 14 f2 16 3d
       -0.037768446 0.007516909 -5.871088e-05 0.036851957
000070 ec a6 de bc 87 4a f9 bc 81 fe 48 3d 5a bd 9e bc
       -0.027179204 -0.030431045 0.04907084 -0.0193774
000080 e3 b4 90 3c cb d5 d7 bc 7a d5 b9 bc 05 6a a6 bb
       0.017664379 -0.026347062 -0.022684801 -0.0050785565
000090 be dc d5 3c 2d 1d 70 bc 01 5e 93 bc 0e 94 f8 bb
       0.026106235 -0.014655394 -0.01798916 -0.007586009
0000a0 fa 57 a4 3d 25 47 35 3d b9 31 68 3d 79 66 d8 3c
       0.08024593 0.0442573 0.056688044 0.02641605
0000b0 9a a0 b0 3c b9 4b 4a bd d2 80 44 bd db 64 a2 3c
       0.021560956 -0.04938862 -0.047974415 0.019823482
0000c0 ea 9c 8d bc 05 53 1f bd 42 04 66 ba 66 6e f3 bc
       -0.017286737 -0.038897533 -0.0008774438 -0.029715728
0000d0 5d 52 b3 bb b5 11 5e bd 3c 62 2d bd 1a 42 a3 3c
       -0.005472465 -0.054216105 -0.04233001 0.01992898
0000e0 6d c5 38 3d cf 05 77 bc 01 12 56 3d 35 24 00 bd
       0.045110155 -0.0150770685 0.052263264 -0.03128453
0000f0 59 c4 00 ba d3 1e 2f 3d 8d fe 6f 3d 66 0b f6 3c
       -0.00049120706 0.042754006 0.058592368 0.030034732
000100 63 89 e4 bc f7 dc 01 bd a9 58 29 bd 79 32 20 ba
       -0.027897542 -0.03170487 -0.04134432 -0.00061110366
000110 de 8e 36 3d 1e 95 04 bd 0c a2 4b 3d 22 e3 97 3c
       0.044569843 -0.03236877 0.049715087 0.018540923
000120 6c 68 bc 3b 22 ef 21 bc 06 2b 45 bd bf 60 0e bb
       0.0057497527 -0.009883674 -0.048136733 -0.0021725146
000130 8c 28 12 bc e2 54 6b 3c 70 5c 4a 3d 67 de c2 bc
       -0.0089208 0.014363499 0.04940456 -0.02378769
000140 37 bc aa 3c f4 7b 27 bd 2a 4a 5c 3d 19 ee b6 bb
       0.020841701 -0.040889695 0.053781666 -0.0055825827
000150 93 9b eb 3a fc d0 c3 bc cb e1 fb bc 67 a4 20 bd
       0.0017975442 -0.023903362 -0.030747315 -0.039219286
000160 37 52 50 3d be dd 5b 3d 1d 61 a2 bc 30 42 38 3d
       0.050859656 0.053678267 -0.019821698 0.044984996
000170 0a 1f e6 3b ca 7b 58 3d 74 05 d0 bc eb 40 22 bd
       0.007022743 0.05285243 -0.025393225 -0.03961269
000180 0a 81 a1 bc dd 62 f1 3b 87 47 49 bc 01 ad 00 3d
       -0.019714851 0.0073665217 -0.01228512 0.03141499
000190 74 48 06 3c 5a 5f 47 bd 38 d4 c0 bc 9c 79 05 bd
       0.008195985 -0.04867492 -0.023538694 -0.03258668
0001a0 91 3c 23 3c eb 71 0d 3d fe 5d 36 3d bd 68 28 3d
       0.009963171 0.03453247 0.04452323 0.04111551
0001b0 68 18 28 3d 4e 05 78 bc 07 ea 3c 3d ba cb ee 3c
       0.0410389 -0.0151379835 0.046121623 0.029149879
0001c0 7e 12 cd 3d ad ed 4a 3d 9b 6b 90 bb 39 e8 ba 3d
       0.10013293 0.04954307 -0.004407359 0.09126324
0001d0 a0 3f 34 3d ca fc c4 3c 34 eb 3c 3d eb 98 af 3c
       0.04400599 0.02404632 0.046122745 0.021435222
0001e0 7b 9c c0 3c bb 94 12 3d b4 b4 8a 3c cf 2b d4 3c
       0.023512116 0.03578637 0.01693187 0.025899796
0001f0 4a a0 af 3c 03 fb 18 bc 4b e4 76 bc 9e 94 49 3d
       0.021438736 -0.00933719 -0.015069078 0.049213998
000200 c2 21 e1 3b 10 ae 6d 3d 6d 3c d3 3c 9e e1 2f 3c
       0.0068704793 0.058027327 0.02578565 0.010734944
000210 9f 81 28 3d 5f 1d 7e 3d 6e e4 81 3d a6 40 85 3d
       0.04113924 0.06203973 0.06342398 0.06506471
000220 d5 0e 92 bb 0f d7 5b 3d b9 b9 84 3d 92 23 8a 3d
       -0.0044573345 0.053671893 0.06480736 0.06745066
000230 28 d6 5a 3c 5c 71 85 3d 74 21 eb 3c 26 e6 4b 3c
       0.013356723 0.06515762 0.028702475 0.012445008
000240 21 eb 5a 3d fd 8a 0b bd b8 38 fa bb 1f cc e5 bb
       0.053446893 -0.034068096 -0.007636156 -0.0070128585
000250 65 5a 8a 3c 14 ca 89 3d 79 e4 87 bb 40 7e bf 3c
       0.016888807 0.067279965 -0.004147109 0.02337563
000260 b6 f2 8f bc 1f b4 3d bd 0e 95 3b 3d 38 1d e5 bc
       -0.017571788 -0.046314355 0.045796447 -0.027968034
000270 fa 40 45 3d 8f aa 94 3d 5d da 6e 3d 3e 93 8c 3d
       0.04815767 0.07259094 0.058313716 0.06864022
000280 7b c8 91 3d b0 e3 c7 bc 19 68 63 3c 2c 91 40 bd
       0.07118317 -0.024400562 0.013879799 -0.047013447
000290 c9 53 d0 bc d5 1f 6c 3d 9e 6c ff 3b 38 e5 85 3d
       -0.025430577 0.057647545 0.0077949306 0.06537861
0002a0 45 35 bc 3b a8 92 71 bc 1d cf 77 3d 2b 1c 41 bd
       0.005743655 -0.014744438 0.060500253 -0.047146004
0002b0 a8 f1 28 bd c7 54 49 3d 08 a3 87 bc e5 22 d2 3b
       -0.041246086 0.049153116 -0.016557232 0.006412851
0002c0 96 7d 0f 3d ca 50 fd bc 57 2f ec bb 90 00 07 bb
       0.035031877 -0.030922312 -0.007207792 -0.00205997
0002d0 ce e5 86 bc be a3 88 ba 22 88 2f bd 90 40 03 bd
       -0.016467001 -0.0010424776 -0.042854436 -0.032043993
0002e0 2f 22 b9 3b 1b 4e 6d 3c c6 d2 e3 3c b2 97 2c 3d
       0.005649827 0.014483954 0.027810466 0.042136855
0002f0 a3 af 0c 3d ea 7a f4 bb be f1 7a bd 8f 92 ab 3c
       0.034347188 -0.0074609416 -0.0612657 0.020943908
000300 85 33 4d bd e8 34 b8 bb 7b 8a 68 bd 8a 07 80 bd
       -0.05009796 -0.0056215413 -0.05677269 -0.06251438
000310 f5 7c 8a bc f5 1a 56 3c ea 6f b8 3b db df 6d bd
       -0.016905287 0.0130679505 0.0056285756 -0.058074813
000320 13 8d 12 bd f1 bc 55 bd 9e 69 36 bd 37 26 c2 bc
       -0.03577907 -0.05218214 -0.04453432 -0.023699863
000330 c3 02 00 bc 3c 0c 96 bc 5b 03 29 bd 21 25 f6 bb
       -0.007813158 -0.01831638 -0.041262966 -0.0075117503
000340 24 16 b0 3c 34 5c 78 bd 4c 48 16 3d d9 a1 14 3d
       0.021494932 -0.060634807 0.03669004 0.036287162
000350 3f cf 31 3c 47 c8 13 bd 75 f3 e8 bb 00 53 3d bd
       0.010852634 -0.03607967 -0.0071091005 -0.046221733
000360 85 5f 27 bc 2b 09 a9 3d 89 82 29 3d 16 3d 3a bb
       -0.010215645 0.08253702 0.041384254 -0.0028417758
000370 a6 c5 bb bb 92 88 10 3c 1f be 14 3d 45 a5 00 3d
       -0.0057303486 0.008821623 0.036314126 0.031407613
000380 9b 71 41 bc ba c8 9b bb 05 4e 7d 3d d5 81 70 3c
       -0.011806871 -0.004754153 0.061841983 0.014679392
000390 2f 70 53 bd 78 4e 24 3d 77 01 3a bd cd 0c 55 bb
       -0.05162066 0.040113896 -0.045411553 -0.003250885
0003a0 e1 dc df bc 39 2e 87 bc 79 21 4e 3d a8 59 3e 3d
       -0.027327003 -0.016501533 0.05032489 0.04647222
0003b0 8b b3 b2 3c 5e 1a c7 3c 76 60 c4 3c cd b1 0f bd
       0.021814128 0.024304565 0.023971777 -0.035081673
0003c0 fe 1e 09 3d 9f 5a 54 bd f2 5f f7 bb c3 d7 c0 3c
       0.033476822 -0.051844236 -0.0075492794 0.023540383
0003d0 b9 02 6d 3d 26 6f 0d bc 8e 6f 48 3c 4a 4c 47 3d
       0.057863925 -0.008632457 0.012233628 0.04865674
0003e0 25 ef 60 3d d3 86 e8 3c c9 d5 88 3c 80 ca 2f 3c
       0.054915566 0.028384602 0.016703503 0.010729432
0003f0 25 0c 07 3d a5 9c 86 3c 83 a3 09 bd 23 0d f3 3c
       0.032970566 0.016432116 -0.033603203 0.02966935

module.conv_4.bias f4 [12]
000000 0c 72 ac 3c 6c 6e b1 3c c5 eb 3a bd 0e 71 9b bc
       0.021050476 0.021659099 -0.045635004 -0.018974807
000010 bd 22 df bc 45 4a 43 bc 94 a1 09 bd fb 0d f9 bc
       -0.027238244 -0.011919563 -0.03360136 -0.030402174
000020 09 77 0a 3c 62 e8 1b 3b 76 cb 80 3d 4f 6a 04 bd
       0.008451232 0.0023789634 0.06288807 -0.032327946

module.conv_5.weight f4 [12, 12, 3, 3, 3]
000000 8e b9 ce 3c 47 92 36 3d 6b 8e f8 bb 7c eb 19 bc
       0.025234964 0.044573095 -0.007585337 -0.009394523
000010 df 0f 3e bd f4 05 2e 3c 0f df d8 3b cf 20 34 ba
       -0.046401855 0.0106215365 0.0066183875 -0.0006871344
000020 8f 25 8e 3d ee 65 2b bd fb 11 42 3d cb c2 7f 3b
       0.069407575 -0.041845255 0.04738043 0.0039026018
000030 97 8a be bb 66 df 3d 3d 2c 87 e6 3c f2 05 83 3c
       -0.005814861 0.046355627 0.028140627 0.015994046
000040 07 25 3e 3c 11 4f 24 3d ca 74 cd 3c b6 28 2c bd
       0.011605508 0.040114466 0.025080103 -0.042031012
000050 81 de 7b bb b7 e5 db bc ab f1 41 bd 6d c1 43 bd
       -0.0038432183 -0.026842935 -0.047349613 -0.047791887
000060 b3 61 28 3d ea 70 91 3c 00 d6 b8 3c ac 8b 8d 3d
       0.0411088 0.017754037 0.02256298 0.06911406
000070 45 12 40 3a 78 d1 30 3d 55 84 e5 3a 26 b6 fa 3c
       0.0007326941 0.043168515 0.0017510751 0.030604433
000080 91 aa 5a 3d 48 82 8e bc 7d d0 64 bc ea ef 6f bd
       0.05338532 -0.017396107 -0.013965723 -0.05857841
000090 6f 04 4f bd fe 11 26 bd fa 18 bb bb db 8b 96 bd
       -0.050541338 -0.040544502 -0.0057097645 -0.07350894
0000a0 fe fc 19 bd 97 f8 80 bd 7b 6b 5e bd 66 fe 48 3a
       -0.037594788 -0.06297415 -0.05430172 0.0007667303
0000b0 5f a7 3a bd d1 ae 42 bb 1d 50 5f bd c9 3b ad 3c
       -0.045569774 -0.002970625 -0.05451976 0.021146672
0000c0 c4 c9 bc bc c8 99 57 bb 66 62 bd 3a 89 02 6d 3d
       -0.023045428 -0.0032898057 0.0014448881 0.057863746
0000d0 16 c6 39 3d b6 0d 5e bc 44 9f 22 3d 99 c4 19 bd
       0.045354925 -0.013553074 0.03970267 -0.037541006
0000e0 f7 b8 07 3d 3e d5 92 3c e0 0b ec bc 62 70 d2 bc
       0.03313538 0.017923947 -0.028814256 -0.025688354
0000f0 a3 50 b9 3c c6 bf 5a 3d 3e 6d 26 3c aa f1 2e bd
       0.022621458 0.053405546 0.010157881 -0.042710938
000100 31 f0 18 bd 83 7a c1 3c c7 33 57 bc 86 4e 0d bd
       -0.03733844 0.023617988 -0.013134903 -0.034498714
000110 0f 3b 38 bd f5 2d 48 bd 2c df 30 3c c5 d8 41 bb
       -0.044978198 -0.048871953 0.010795396 -0.0029578668
000120 63 31 40 bd 1f 85 d0 3b 56 98 58 bc cb 65 84 bd
       -0.0469221 0.0063635255 -0.0132199135 -0.06464728
000130 97 dd 65 bd b8 51 30 bc a7 c4 62 3d 0b e1 a0 bc
       -0.056119528 -0.010761671 0.055363324 -0.019638559
000140 2c 6e cb 3c 55 51 2d 3d 0b b0 4b 3c 2d b4 25 bd
       0.024832807 0.042313892 0.012432109 -0.040455032
000150 a8 32 20 bc 4d 55 90 3b 39 e8 15 bc 2d 4e 51 3d
       -0.009777702 0.0044047 -0.0091496045 0.051099945
000160 23 b6 92 3d 51 f0 b8 bc 3d 5a d6 bb bb 66 23 bd
       0.07163646 -0.02257553 -0.006541519 -0.039892893
000170 45 85 34 3c 8a ed 24 3d fb 0c 58 bd 4d 02 30 bc
       0.011018102 0.040265597 -0.052746754 -0.010742736
000180 ea 8f 2b bd a0 36 0e bc 9a 04 a4 3c f1 fc c3 bc
       -0.041885294 -0.008680016 0.020021725 -0.023924323
000190 71 c7 71 bd 6a 13 32 3b 18 02 3a bd f1 3a e8 bb
       -0.059028093 0.0027172216 -0.045412153 -0.0070871045
0001a0 ea 06 73 bd 4d 8e 04 bd e9 8e 8d 3d c0 36 15 bc
       -0.059332766 -0.03236227 0.069120236 -0.009107292
0001b0 17 9f 20 bd 11 3f 25 3d ba 21 3c 3d 1a 15 18 bd
       -0.03921422 0.040343348 0.0459306 -0.0371295
0001c0 8d 47 05 3c 8d 89 43 3d 9f 13 2f 3d 7f af 85 ba
       0.008134735 0.0477386 0.04274332 -0.0010199397
0001d0 76 d2 48 3c 93 c2 17 3c c7 d3 5c 3d 97 65 42 bd
       0.012257209 0.009262699 0.053912904 -0.047460165
0001e0 e7 b6 02 bd 91 4e 96 bc 13 c7 03 3d 91 a0 42 bd
       -0.03191271 -0.01834801 0.032172274 -0.04751641
0001f0 75 3d 9f bc ae 98 52 3d c6 0b 3f 3c b6 7c 7c 3c
       -0.019438485 0.051415138 0.011660522 0.015410593
000200 0f ab 6e bd 0c 85 31 bd 09 1d 54 3c 1d 52 ce bc
       -0.058268603 -0.043339774 0.012946376 -0.025185639
000210 c8 5c b8 bc a6 df cd 3c fa 7b 07 bd 3a 40 7d 3d
       -0.022505179 0.025131058 -0.033077218 0.06182883
000220 65 d2 8d 3d 31 19 34 bd bf cb 70 3d 35 f9 c2 bc
       0.06924895 -0.043969337 0.058788057 -0.023800472
000230 d2 f2 2b 3d 99 a5 41 bd 3f fa 74 3d a4 74 5e 3d
       0.04197962 -0.047277067 0.059808966 0.054310456
000240 30 f7 68 bc 1f 7e 8b 3b 0f de 00 39 9a f5 65 3d
       -0.01421909 0.004256978 0.00012289755 0.056142427
000250 59 d3 47 bd 45 09 0b bd 9e 32 8e 3c 75 63 3e bd
       -0.04878554 -0.033944387 0.01735812 -0.04648157
000260 2d f9 4a bd 90 06 a2 bc e6 df 0e 3d 8d b9 8d 3c
       -0.04955404 -0.01977852 0.034881495 0.017300392
000270 58 65 06 3d 41 75 3c bd 7f 43 6d bb 67 c8 0d 3d
       0.032811493 -0.04601026 -0.003620356 0.034614947
000280 c6 d6 14 3d 05 d5 a1 3b ca b0 68 bc 56 35 68 3d
       0.036337636 0.004938724 -0.014202306 0.05669149
000290 95 28 11 bd ad 36 34 bb dd 08 37 3d d7 b1 ed bc
       -0.035439093 -0.002749841 0.044686187 -0.029015465
0002a0 00 e5 d6 3c 33 97 cd bc ad d7 72 3d f5 56 59 3d
       0.026232243 -0.025096511 0.059287716 0.053061444
0002b0 c0 dc 3c bd d7 ef cf bb 8c 23 66 3d ba bb 68 3c
       -0.04610896 -0.00634573 0.056186244 0.014204914
0002c0 22 0d 0f 3d 03 79 55 bb 74 c8 54 3c d6 14 42 bc
       0.034924634 -0.003257335 0.012987245 -0.011845788
0002d0 bc ac a3 3c 39 86 0e bd 98 5a 68 3c 45 fc 9d 3c
       0.019979827 -0.034795973 0.0141817555 0.01928533
0002e0 f6 ab 8a bc 1f e1 89 bc f4 68 55 3d b8 b9 c0 3b
       -0.0169277 -0.016830979 0.052102044 0.0058815144
0002f0 05 09 5d bc 45 48 28 bd 91 b2 c7 3c 8e 38 2c bc
       -0.01349092 -0.041084547 0.02437714 -0.010511531
000300 7a 52 18 bd b6 12 1f 3c 61 e8 0c bc b4 5e eb bc
       -0.03718803 0.009709051 -0.008600325 -0.028731681
000310 fa 26 29 bd 85 da b7 3c ce 9c e6 3c 51 42 d6 bc
       -0.041296937 0.022443065 0.028150942 -0.026154669
000320 c2 12 fe 3c 9d 45 31 3d 2f 27 64 3c 4d c4 07 3c
       0.031014804 0.04327928 0.013925358 0.008286548
000330 25 c2 62 bd 0f e6 a0 bc 95 8e 70 bc 0b da aa bc
       -0.055360932 -0.01964095 -0.014682432 -0.020855924
000340 ad 7b 83 bc bc 20 2b bd c4 a9 61 3d a8 e4 39 bd
       -0.016050184 -0.041779265 0.05509354 -0.04538408
000350 5e 4b 0a 3b 57 95 da bc 85 da 67 bd eb f4 c5 bc
       0.0021102051 -0.026682539 -0.05660488 -0.024164638
000360 a5 13 a5 bd 8c b7 8e bd 39 1d 19 bc fa 20 2b 3c
       -0.080603875 -0.069686025 -0.009345346 0.010444874
000370 db ab 6e 3d e7 43 ba 3c 64 ec f9 3c e0 df 25 3d
       0.058269363 0.022737456 0.030508228 0.040496707
000380 58 c3 f6 bc 82 ba 54 3d 37 86 83 bd 33 bc 41 bd
       -0.030122444 0.05193568 -0.06422084 -0.04729862
000390 fe b0 8d 3d f4 61 76 3d cd 01 53 bc 7e e0 15 bd
       0.06918524 0.06015201 -0.012878847 -0.036591046
0003a0 2d 05 55 bc e9 58 ed 3c cb 24 93 3d 53 2e f3 bc
       -0.013001722 0.02897306 0.07184752 -0.029685175
0003b0 d3 48 41 bd e5 06 a0 3c c5 86 aa 3d a5 be 54 3c
       -0.04718859 0.019534538 0.083264865 0.012984906
0003c0 e7 c1 62 3b 66 51 88 3c bf 10 5f bd f0 1b 7d 3a
       0.0034600438 0.016640376 -0.05445933 0.0009655347
0003d0 53 1d 08 be 6d fe 4c bd 8d 04 a2 3c b5 a0 80 bd
       -0.13292436 -0.050047327 0.01977756 -0.062806524
0003e0 db 2d 3d 3c 3a 07 4e bc c7 ef 8c bd d0 47 68 bd
       0.011546577 -0.012574965 -0.068816714 -0.05670911
0003f0 28 5d ff 3c fc 50 fe bc e4 97 2b 3d fd 8d 31 3e
       0.03117235 -0.031044476 0.0418929 0.1733932

module.conv_5.bias f4 [12]
000000 4d b5 5c bd dc d1 7a 3d 6f d0 a1 3c 2d 67 cd bb
       -0.05388384 0.061235294 0.01975271 -0.006268403
000010 22 3b 2b bc 76 e1 1d 3a 75 12 39 3d 74 0d 97 3d
       -0.01045111 0.0006022671 0.045183618 0.07375613
000020 87 af 83 b9 c5 87 1d 3d a8 f3 ff 3c b6 e9 1c 3d
       -0.00025117045 0.038459558 0.031244114 0.03830882

module.conv_6.weight f4 [12, 12, 3, 3, 3]
000000 e0 c5 a9 3d 6c 6e 0b bd 1b cc cf bd 6e 09 45 3d
       0.08289695 -0.034040853 -0.10146352 0.048104696
000010 da 92 0e 3d 33 24 44 bd b2 f8 b0 bc b4 14 85 bc
       0.034808017 -0.047886085 -0.021602962 -0.016245224
000020 fd 0a 91 bc e6 7b 40 3d 88 db 64 bd e8 02 ca bd
       -0.017705435 0.04699316 -0.055873424 -0.098638356
000030 68 46 33 bc 07 17 d7 bc f6 db ac bc 2b 73 67 bc
       -0.010942079 -0.026256097 -0.02110098 -0.014126579
000040 6e 5f b9 bc fc a3 fb bb 30 d2 79 3d f8 08 18 bd
       -0.022628512 -0.0076794606 0.060991466 -0.03711793
000050 c6 bf 35 bd 87 1a d4 bb 0d ca ca 3c 20 6a da bc
       -0.044372343 -0.006472889 0.024754548 -0.026661932
000060 fb 0d 00 3c 18 e5 16 3d 71 cf 8f 3b ab 84 99 bd
       0.007815833 0.036839575 0.0043887426 -0.074960075
000070 19 d0 74 bd bf e2 09 bd 5b 52 2a bd a8 11 e0 3c
       -0.05976877 -0.033663508 -0.041582447 0.02735217
000080 9f fb 11 3d 34 ac b0 3c 5c 42 22 3d 2e 2c 1f bd
       0.035640355 0.021566488 0.039614066 -0.038860492
000090 06 8f 89 bd 17 eb 7c 3c 58 8e 29 bd 37 d0 10 3c
       -0.06716733 0.015436909 -0.041395515 0.008838705
0000a0 5d cd 2b bd a0 0a 5a 3d 59 f8 88 bc 68 9a 17 bd
       -0.041943897 0.05323279 -0.016719984 -0.037012488
0000b0 a2 93 8d 3c e3 e7 03 bd af 19 51 3d 47 89 d6 ba
       0.01728231 -0.032203566 0.051049884 -0.0016367816
0000c0 96 96 66 bd 0b 8c 4a 3d 4a e3 53 bd 37 cb 2e bd
       -0.056295954 0.04944996 -0.05173043 -0.04267427
0000d0 7f d5 43 bc 78 3e 5e 3d ab 59 c5 3a 28 6c 1b 3b
       -0.011952757 0.054258794 0.001505663 0.002371559
0000e0 70 52 35 bd 11 62 7e 3c 0c 28 f2 3c f8 da 56 bd
       -0.04426807 0.015526311 0.029560111 -0.05245492
0000f0 82 ab 01 3d 0e 00 60 3b c7 f9 f5 bc 33 a1 e4 3c
       0.031657703 0.003417972 -0.03002633 0.027908897
000100 7e 62 f2 3c 83 d8 e4 3c 5e b8 4a 3d 77 27 ec 3c
       0.02958798 0.027935272 0.049492233 0.028827412
000110 9c d1 f1 3c e7 69 98 bc 49 7f 38 3d 64 a6 0f bc
       0.029518895 -0.018605186 0.045043264 -0.008767698
000120 f9 e8 f1 bc d6 ae 40 bd bf 6f a4 bc 55 c3 2d bc
       -0.029530035 -0.047041737 -0.020072816 -0.010605653
000130 60 f1 4a bd e8 e9 44 3d 3f c6 b6 3c e3 56 da 3c
       -0.0495466 0.048074633 0.022311328 0.026652759
000140 9a bc cf bb 50 b0 f8 3b 29 d1 70 3b bf 29 4c bd
       -0.0063396217 0.0075893775 0.0036745763 -0.0498445
000150 38 8e 3b 3d 2c e1 26 3d 6d 4a 40 bd 1a 12 99 3c
       0.045789927 0.040742084 -0.046945978 0.01868539
000160 fc 90 50 bc ea ca e0 bc 2a ff 03 3d 94 e3 4b 3d
       -0.0127298795 -0.027440507 0.032225765 0.049777582
000170 92 c9 0e bd fa a3 d2 bc 82 39 7f 3c ef 1c 3e 3d
       -0.0348602 -0.025712956 0.015577676 0.046414312
000180 36 32 34 3b 7b e8 7e 3c d5 d1 46 3d e2 68 da bb
       0.0027495748 0.015558357 0.048539955 -0.006665335
000190 38 4a 3c 3c 30 8b 62 3b 3c 69 9e 3c 97 24 01 b8
       0.0114923045 0.0034567825 0.019337289 -3.0790074e-05
0001a0 3c b5 e9 bc f2 81 0a bc 5e 6e a9 bc ed b3 aa bc
       -0.028528802 -0.008453833 -0.02068251 -0.020837748
0001b0 8c 77 5f bd 9e f2 8d 3d d9 9f b0 3d 1a a9 e8 3c
       -0.05455737 0.06931041 0.086242385 0.028400946
0001c0 00 ef 9e 3d 3b 05 02 3e eb bc a3 bd 5c 1c 17 3d
       0.077604294 0.12697308 -0.079950176 0.03689228
0001d0 1c 47 cd bb e2 7f 77 3d 8e e4 15 3e 65 b0 46 3e
       -0.0062645804 0.060424693 0.14637968 0.19403227
0001e0 3d 9c 1e 3d 30 8a 03 3e a2 a9 10 3e 3f b2 63 3d
       0.03872322 0.12845683 0.1412721 0.05558991
0001f0 37 71 03 3e 8b 85 06 3e df 5b 21 3d 0b 21 21 3d
       0.12836157 0.1313688 0.039394256 0.039338153
000200 83 8b 8d 3c b8 dd cd bc ed d8 13 3d 51 33 a5 3c
       0.017278438 -0.025130138 0.03609555 0.020166071
000210 b3 40 95 bc 83 51 04 3d 4d 0a 4e bd 89 bc 42 3c
       -0.018219328 0.032304298 -0.050302792 0.011885771
000220 da da 60 bd da 6d 28 3d 99 06 26 3d c3 28 d0 bc
       -0.054896213 0.041120388 0.040533636 -0.025410062
000230 11 2c 4e 3d 47 87 f1 3c a8 e6 f1 bc 9d 0f 46 3d
       0.050334994 0.02948345 -0.02952893 0.048354734
000240 8c c4 5f 3d 0b 79 ea 3c b3 3e 8c 3b 34 90 4a bd
       0.0546308 0.02862217 0.0042799353 -0.04945393
000250 2f 4a 47 bd 89 a8 38 bd 1e a2 1e bd d1 35 31 3c
       -0.04865473 -0.045082603 -0.038728826 0.0108160535
000260 b0 fc 5a bd 2f 50 7b bc 03 42 f7 3c 3f 62 0d bd
       -0.053463638 -0.0153389415 0.030182844 -0.034517523
000270 0b 36 56 3d db aa 88 bc 79 5a 75 bc a3 35 5f 3d
       0.052297633 -0.016683033 -0.014975184 0.05449451
000280 e8 62 24 3d 98 df 3d 3d ca 79 63 bd b4 df 09 3d
       0.040133387 0.046355814 -0.05553607 0.033660606
000290 c0 31 a0 3c 52 14 8a 3b 09 aa 1b bd 84 c0 0c bd
       0.019554973 0.004213848 -0.038003955 -0.034363285
0002a0 99 d9 00 3d 14 96 b3 bc 2f 5c d8 ba 20 cf 7f bb
       0.031457517 -0.021922149 -0.0016506965 -0.0039033368
0002b0 48 77 f1 b9 1b 5b 40 bd 88 c7 7e bc b6 ef 22 3d
       -0.00046055974 -0.046961885 -0.015550502 0.039779387
0002c0 d4 a7 8e bc 3e e2 ec 3c f5 f3 5c ba 7c 6c 45 bd
       -0.017414011 0.028916474 -0.00084286864 -0.048199162
0002d0 34 dc 23 bd af b3 01 bd 6e 59 53 bd a2 a8 3a 3c
       -0.040004924 -0.0316655 -0.05159896 0.011392744
0002e0 38 d8 f3 bc 2c 42 26 bd 5c cd fd bc 0a c0 9e bc
       -0.029766187 -0.04059045 -0.030981712 -0.01937868
0002f0 77 91 3a 3d 8b b2 18 bd 4d 4f 09 bd 21 67 4c bd
       0.045548882 -0.037279647 -0.033522893 -0.04990304
000300 43 d0 14 bc 59 02 44 bd 34 42 0c bd b4 e0 1a 3d
       -0.009082857 -0.0478538 -0.034242824 0.03781195
000310 e7 8b 63 3c b8 c0 58 bd 25 cc 91 3c 3c 24 1b bd
       0.013888336 -0.052918166 0.017797539 -0.037876353
000320 b3 ed 86 3a 68 40 45 bd 4e 06 01 3c c5 4a 7f bd
       0.0010294229 -0.048157126 0.007875038 -0.062327165
000330 b6 2d 1a 3d ec 03 74 ba b3 af 98 3b f2 95 0b 3d
       0.03764125 -0.0009308446 0.004659617 0.034078546
000340 15 23 31 3d ad 10 42 bd 16 73 35 3c 40 ed d2 3c
       0.043246347 -0.047379185 0.011074802 0.025747895
000350 51 9e f0 3c 8c 6e 50 bb a1 b1 91 3c b2 17 79 bd
       0.029372366 -0.0031804172 0.017784895 -0.060813613
000360 8a 68 8d 3d af 5f 86 bd a3 03 19 bd b0 70 75 3d
       0.06904705 -0.06561219 -0.037356984 0.05992192
000370 59 20 8c bd 62 9b 67 bc 14 13 06 3c 9b 75 e1 bd
       -0.06842107 -0.014136167 0.0081832595 -0.110087596
000380 dc b0 ee 3c c3 da 34 3c fc 96 89 bd 3b fb 4a 3c
       0.029137067 0.011038485 -0.06718251 0.012389
000390 7b b0 70 3c 0f c7 2e bd b0 1b a3 3c 71 23 1f bd
       0.014690514 -0.042670306 0.019910663 -0.03885216
0003a0 db e8 bf bd 28 8e 03 bd c6 74 85 3d dc 80 0f bd
       -0.093705855 -0.032117993 0.065164134 -0.035035
0003b0 8c f9 60 bc ed f9 8b 3d 00 59 ae bc e7 61 f4 3a
       -0.013731372 0.06834779 -0.021282673 0.00186449
0003c0 ee 17 53 bd b9 68 a3 bc be 1e 04 bd 9c aa a2 3c
       -0.051536493 -0.019947397 -0.03225588 0.019856744
0003d0 49 24 32 3a 12 33 56 bd 15 27 18 bd 4c 7a 54 bd
       0.0006795568 -0.0522948 -0.037146647 -0.051874444
0003e0 23 de 12 3d df db b6 3c 2f 46 ae 3c 32 40 1a bb
       0.035856377 0.02232164 0.0212737 -0.0023536799
0003f0 4f 13 63 3b fd 36 1f bd d9 e1 b0 bb 14 78 f4 ba
       0.003464896 -0.0388708 -0.005398017 -0.0018651509

module.conv_6.bias f4 [12]
000000 4a 6e 12 3d b3 25 50 bc 04 8d 83 3d 76 78 ea 3c
       0.03574971 -0.012704301 0.06423381 0.028621893
000010 12 b3 ff 3c 9f 5a 87 3c b5 e2 da 3c fd 85 6a bd
       0.031213317 0.016522704 0.02671943 -0.057256687
000020 75 5c e4 3a 6c 1d a6 3a 3f 51 0d 3d a6 01 19 3d
       0.0017422574 0.0012673563 0.03450131 0.037355088
