models/FSRCNN3D_checkpoint_epoch_20.pth (torch, 799402 bytes, 45 tensors)

module.conv_1.weight f4 [56, 1, 5, 5, 5]
000000 79 b9 c9 bb 3a 84 9e bc 6d 8e 3a bd 50 f7 8a 3d
       -0.0061561433 -0.01935016 -0.045545984 0.06785452
000010 c0 4a 8e bd 06 a7 03 3b 99 78 a1 3d 58 b5 6b 3c
       -0.06947851 0.0020088567 0.0788433 0.014386497
000020 17 b4 6b bc 0d 52 e7 3c d7 7e 16 3d 47 93 4b 3d
       -0.0143861985 0.028237367 0.036742058 0.049701
000030 ed 16 11 bd 02 3d 1b 3d 6d 15 7b 3d be 66 3a 3d
       -0.035422254 0.03789998 0.06129973 0.04550814
000040 c6 4f 81 3d 6f 6a 8e bb 5d 2b 8e 3c 9b a6 9c 3d
       0.06314044 -0.004346184 0.017354662 0.07648965
000050 13 8a 89 3c f4 37 96 3d 00 d1 c2 3d 61 06 a7 3d
       0.016789472 0.07334891 0.0951252 0.081555136
000060 d7 17 89 bd 06 88 a6 3b 0b 76 89 bc 7c da af 3d
       -0.06694 0.005082133 -0.01677992 0.085865945
000070 e7 76 c2 3c 88 34 01 3d 27 cf 21 bd 4d ab 83 bc
       0.023738338 0.03154424 -0.039504196 -0.016072894
000080 05 6d 80 bd 45 92 9a 3d 81 c6 96 3d 2a f0 87 3c
       -0.06270794 0.0754743 0.0736208 0.016594011
000090 76 d2 a6 3d a6 5f b5 bd f0 47 76 3d 11 21 fd bc
       0.08145611 -0.08856134 0.0601272 -0.030899556
0000a0 a2 5e db 3a 80 b6 2e 3d 01 b8 82 3d 09 91 aa 3d
       0.0016736577 0.042654514 0.06382752 0.083284445
0000b0 67 74 46 3d a8 fe 16 bd 80 40 28 3d 1e 7e 3a bc
       0.048450854 -0.036863953 0.041077137 -0.011382608
0000c0 f1 74 82 bc 5e 30 24 bd 8d b7 94 bd 93 39 b3 3d
       -0.015924903 -0.04008519 -0.07261572 0.08751216
0000d0 a1 43 f6 bc 8f c6 8d bd 0c 6e 23 3d e0 b5 75 bd
       -0.030061545 -0.06922638 0.03989987 -0.059987903
0000e0 2e 2a 9f bd 81 28 7f 3d 3d a6 b6 bd 45 cd da 3c
       -0.07771717 0.062294487 -0.08918426 0.026709208
0000f0 ad f9 67 3d 5f af 5b bd a1 77 c3 bd 10 cf d2 bc
       0.056634594 -0.053634044 -0.09544302 -0.0257335
000100 ba d5 ab bc c8 4b 91 3a 9c 9e 35 3d 36 e3 94 bc
       -0.020975936 0.0011085207 0.044340715 -0.018174749
000110 5a 85 5c 3d b7 de 86 bd 15 07 b7 3d 39 51 ab 3d
       0.05383811 -0.06585448 0.08936898 0.08365101
000120 84 ad b1 3c 63 63 a5 3d 24 7b 81 3c 76 83 35 bd
       0.021689184 0.08075597 0.015805788 -0.044314824
000130 7c ea 0f 3d b7 6f b4 3d 0d 5f 8b 3d bf 50 f3 bc
       0.03513573 0.088103704 0.06805239 -0.029701589
000140 08 5c 01 3a da cb fb 3b 0f ad 6c 3d 34 a8 27 3c
       0.0004934673 0.007684213 0.05778223 0.010232974
000150 b3 a0 9e 3d c0 28 b3 bd 1f 24 c2 bd aa 6f c0 3c
       0.07745495 -0.08748007 -0.09479546 0.023490746
000160 c3 a6 74 bd fd 0c 83 3d 39 86 d5 3b 13 e2 05 bd
       -0.05972935 0.06398962 0.0065162447 -0.032686304
000170 5a 66 8b 3d 2d 98 1c bd 5d a6 7a bd 53 48 8f bd
       0.068066314 -0.038231064 -0.061193813 -0.069962166
000180 dd a3 a7 3d 8d 74 3d bc b2 27 0f bc 63 b6 5d bd
       0.08185551 -0.011563432 -0.008737491 -0.054129016
000190 5a 0b c7 bb cc 9f 80 bb 7d 25 7f 3c a5 23 c8 3c
       -0.0060743513 -0.0039252993 0.015572903 0.02443106
0001a0 1f 57 b3 3c 1a 88 50 3d 98 8a bc 3b 32 fe 8f bd
       0.021892129 0.050911047 0.0057538263 -0.07030906
0001b0 02 46 5d bc b8 58 4a 3d b9 58 8a 3d dc 30 c5 bc
       -0.013505461 0.049401015 0.06755204 -0.02407115
0001c0 47 98 5b bd 5c 9b ee bc aa 48 6c bc 29 89 1c bd
       -0.05361202 -0.029126815 -0.014421621 -0.038216744
0001d0 ea d2 a9 bd fc c8 84 bd 47 96 b6 3c ab 3b fd bc
       -0.08292182 -0.06483647 0.022288455 -0.030912241
0001e0 b9 f5 65 3d ba 15 aa 3d 9a 21 c6 3b 54 34 28 3c
       0.056142543 0.08304925 0.006046486 0.010266382
0001f0 60 ee 8b 3d 3c 79 93 bd 98 59 1b 3a 68 2a 36 bd
       0.06832576 -0.07200858 0.0005926131 -0.044474036
000200 2e f1 80 bc f0 3b 9c bd ae bb 29 3b 5f 8b a0 3d
       -0.015740003 -0.0762862 0.002589922 0.07839083
000210 df 3a 18 bd c3 77 b0 3d 65 df aa bc 5a 4f 8d 3c
       -0.03716552 0.08616593 -0.020858476 0.017249752
000220 4c 99 c4 3c f1 7a 94 3d c2 ee 82 3d 51 56 b9 3d
       0.023998879 0.07250012 0.06393196 0.09049667
000230 d2 d2 63 3d 3c 44 21 bd 4f ae bd 3c 77 8d 77 bd
       0.055620976 -0.039371714 0.023154406 -0.060437646
000240 7d 2d 00 3d ce 7d 83 bd f1 c3 a5 bc 5d 3c 02 bc
       0.03129338 -0.0642048 -0.020235034 -0.007948962
000250 c3 03 ab 3d 94 0e 7c bd d4 9b 35 bb 0d 8f 96 bc
       0.08350327 -0.06153734 -0.002771129 -0.018378759
000260 83 db b5 3d 46 11 56 3d 38 97 50 bd 99 a9 b4 bd
       0.08879759 0.052262567 -0.050925463 -0.08821411
000270 3e 78 8e bd 16 ed 1b bc 7f ae 51 3d 81 7d f8 ba
       -0.06956528 -0.009516975 0.051191803 -0.0018958302
000280 3c 8d 95 3c 36 74 58 3d 59 6a 33 bd 53 0d 89 bc
       0.018255822 0.052845202 -0.043802593 -0.016729986
000290 86 81 9d bd 54 dc a6 3d 67 37 1c bb 3a 6c 06 bc
       -0.0769072 0.08147493 -0.0023836733 -0.008204514
0002a0 b3 b4 2e bd 5e 35 a7 3d 67 d3 42 bc 19 50 a9 bd
       -0.042652797 0.08164476 -0.011891223 -0.082672305
0002b0 ef 72 ae bd f1 f3 da 3c d1 21 5a bd 85 c9 68 3d
       -0.085180156 0.026727648 -0.053254906 0.05683281
0002c0 0f c3 62 bd 25 2b 36 3d bf 1a 75 bd 63 3e a8 bd
       -0.055361804 0.04447474 -0.05983996 -0.08215024
0002d0 52 04 ce bc ef ee 4b bc 08 64 4f bd a6 e9 ce 3c
       -0.025148544 -0.012447103 -0.050632507 0.025257897
0002e0 ab 08 0b 3d d7 7f 1f bd f9 62 01 3d 3f f3 7f 3d
       0.033943813 -0.038940277 0.03158853 0.062487837
0002f0 41 83 44 3d 0b 4b 89 3d f3 4b 84 3d 13 a0 c1 bc
       0.047976736 0.067037664 0.06459799 -0.0236359
000300 80 dc 55 3d cb d8 e1 bc df dd 93 3d 53 7b 78 3c
       0.05221224 -0.027569195 0.07220053 0.015166122
000310 da 52 cc 3b a2 58 89 3d 2b 04 1c bc 43 fb 90 bd
       0.0062354626 0.067063585 -0.009522478 -0.07079174
000320 b1 73 a9 3d fc 6a 53 bd a0 39 9a 3d bd 5e 76 bd
       0.082740195 -0.0516157 0.07530522 -0.060148943
000330 d0 ab 07 bd a5 61 19 bd 96 0f b4 bd 11 0c 05 bd
       -0.033122838 -0.037446637 -0.08792035 -0.03248221
000340 b6 97 75 3d bd 73 83 bd 98 3e c8 bc a8 d2 aa 3d
       0.059959136 -0.0641856 -0.02444391 0.08340961
000350 fc f6 38 bd 1c 42 21 bd 06 c8 45 bd a4 f6 49 3c
       -0.045157418 -0.039369687 -0.04828646 0.01232687
000360 05 c7 56 bd b0 ed 67 3d 7a 72 49 bd 14 3f 22 3d
       -0.052435894 0.05662316 -0.04918144 0.039610937
000370 2a 57 79 bc 62 6a d4 bc 53 cf 92 bd e7 1b cd 3c
       -0.015218535 -0.025929634 -0.0716845 0.025037719
000380 0a 9b b6 bc 65 89 a7 3d 9d d4 c9 3c 46 28 9d bd
       -0.022290725 0.08180503 0.024637515 -0.07673697
000390 ae 14 71 3d c4 a6 54 3d 5d e1 ac 3d 3c c3 b1 3d
       0.058857612 0.051916853 0.08441422 0.08679816
0003a0 4a c2 fe bc 28 6e a8 3d d7 3e 59 3d cb 29 1f 3d
       -0.031098504 0.08224136 0.053038444 0.038858216
0003b0 90 fd 8b 3d 55 53 e6 bc ef 1d 7e 3d fa 46 76 bd
       0.068354726 -0.028115908 0.062040266 -0.060126282
0003c0 88 59 ba 3d 22 d1 0f bd 2f 86 53 bd d6 04 a4 3d
       0.09099108 -0.035111554 -0.05164164 0.08008735
0003d0 53 b4 4d bd 15 6e 3a bd 21 0a 0a bb c6 48 f5 3c
       -0.0502208 -0.04551514 -0.0021063166 0.029941928
0003e0 4a 95 62 3c 90 28 83 bd 1e 46 6d 3d d8 d0 92 3c
       0.013829539 -0.06404221 0.057928197 0.01792185
0003f0 d0 10 44 3b 9d 47 44 bd d0 93 8c 3d 93 da 57 bd
       0.0029917248 -0.04791986 0.068641305 -0.052698683

module.conv_1.bias f4 [56]
000000 29 a2 35 bc 01 43 17 3d 78 9e 4f 3d d5 89 2d bd
       -0.011086025 0.036929134 0.050688237 -0.042367775
000010 4a e1 10 b9 13 3d 54 bd 92 5c 99 3d f6 c3 06 bc
       -0.00013816837 -0.051816057 0.074883595 -0.008225432
000020 a7 37 4f bd 6c 7d cd 3d dd 9f 19 3d 98 14 8d b9
       -0.050590184 0.10033688 0.037505973 -0.0002690896
000030 71 21 45 bd 80 9d 7d bd 24 a6 7b 3d b9 1a 29 3c
       -0.048127595 -0.06191778 0.06143774 0.010321313
000040 6f 3d 63 3d 00 6b 69 bc 71 b4 43 3d 7c ce 7b bd
       0.05547851 -0.014246702 0.047779504 -0.061476216
000050 8e 58 32 3d b5 99 48 3d 36 ea 29 3d 40 bd c3 bc
       0.043541484 0.04897471 0.041483127 -0.023893952
000060 4b 13 45 bd 31 80 83 3d be f8 56 3b 82 a6 27 3c
       -0.048114102 0.06420935 0.003280207 0.01023257
000070 ed 37 8d bd 61 2f 24 bd 10 80 bc 3d 0b f5 85 3d
       -0.068954326 -0.040084247 0.092041135 0.06540879
000080 51 f7 99 3d 47 03 dd 3c 19 0c 53 bc 09 f6 81 3d
       0.07517875 0.026979102 -0.012881302 0.063457556
000090 53 2b a3 3c fe 32 8a bd 6b 3f d7 3d 44 41 dd bc
       0.01991812 -0.06748007 0.10510143 -0.02700866
0000a0 fa cd 97 bc 58 61 94 3d 18 08 3c 3d ae 80 4f 3d
       -0.018530834 0.07245129 0.045906156 0.050659828
0000b0 73 a9 10 3d c1 19 88 bd 7c ab 58 bc 7d d5 0e 3d
       0.03531785 -0.06645537 -0.013224479 0.034871567
0000c0 af 9e 83 bd ad f2 82 bd b4 6f b4 3d d4 75 ae 3d
       -0.06426751 -0.06393943 0.08810368 0.08518568
0000d0 ee 2f 67 3d b7 c7 9e bd bb b2 24 3c b1 52 3b bd
       0.056442194 -0.07752936 0.010052378 -0.045733158

module.conv_2.weight f4 [12, 56, 1, 1, 1]
000000 cc a5 b3 3d 24 f0 91 3d 12 8f 10 3d ca 8c e2 bd
       0.087718576 0.07125881 0.035292692 -0.1106201
000010 fb ca 67 3d 74 b7 0e bd 49 fb 3e bd 34 13 8e 3d
       0.05659006 -0.034842923 -0.046626363 0.069372565
000020 d7 00 fd bd 83 c9 2b 3e 0f 0a b7 bc e4 35 d0 3d
       -0.12353676 0.1677609 -0.022343663 0.10166529
000030 d5 0b 6e 3d 66 93 6d 3d 19 fd 8a bd e7 28 cc 3d
       0.058116753 0.0580019 -0.06786556 0.09968739
000040 9b d9 8f bd 6b a5 8b 3d d3 16 6f bd 17 e9 53 bc
       -0.07023927 0.0681866 -0.058371376 -0.012933991
000050 dd ad 54 bd 3c 0e 15 3e b8 04 8b 3d 18 94 8b bd
       -0.05192362 0.14556211 0.067880094 -0.06815356
000060 8c 42 ac bd f6 73 20 bd 15 73 cf 3d 02 3e 1a bd
       -0.0841113 -0.03917309 0.10129372 -0.03765679
000070 8d 5e a3 bd ed d8 58 bd 33 63 0a 3e 9d 7e ab 3c
       -0.079770185 -0.05294125 0.13514404 0.020934397
000080 c2 1a a0 bb 61 e4 37 be 2c 71 05 3e ce 30 34 3e
       -0.0048860023 -0.17958213 0.13031453 0.17596743
000090 3c 4b dd bc 60 89 68 3d 53 0c 0a 3d dc 1f fb 3d
       -0.027013414 0.056771636 0.03370316 0.12261936
0000a0 0c 03 e8 3d a3 02 dc ba b1 e6 6c 3d e0 ae c5 3b
       0.11328706 -0.0016785454 0.057837192 0.0060328096
0000b0 71 78 b6 bd d8 1d 0c 3d 38 9a b1 3c b5 54 0d 3e
       -0.08909691 0.03420815 0.021679983 0.13801844
0000c0 e5 56 96 3d f6 49 b0 3d 48 08 9f 3d f2 81 2e bd
       0.073407926 0.08607857 0.077652514 -0.042604394
0000d0 d1 40 0b 3d b1 da 69 3c 2a 35 e4 bd 3f b9 60 3d
       0.03399736 0.0142733315 -0.11142953 0.054864164
0000e0 6f d9 14 3e 71 3b 78 3b 6c d6 bd bd 66 e6 07 be
       0.1453607 0.0037877227 -0.09269413 -0.13271484
0000f0 01 a2 df bc d2 b3 a6 bc 3b 59 79 3d 83 be a7 3d
       -0.02729893 -0.020349417 0.060876112 0.08190634
000100 0f ba 9b bd e7 29 13 bd 3b 54 18 3e 32 fe db 3c
       -0.07603847 -0.035928633 0.14875881 0.026854608
000110 50 83 56 bd bb 5e a0 3c 39 33 f4 3d 1c e3 11 3e
       -0.052371323 0.019576421 0.119238324 0.14246792
000120 d3 e7 f8 bd 12 0d 28 3e 7a 82 2f bd 89 b8 85 bd
       -0.12153592 0.16411236 -0.04284904 -0.06529338
000130 21 df f9 bb b4 1c 02 be 59 89 87 3d 8e e9 89 bc
       -0.007625476 -0.12706262 0.06617994 -0.016835
000140 dc 36 0c 3c bc 9e 05 3e 22 03 11 bc 73 ed 02 be
       0.008558001 0.13048834 -0.008850845 -0.12785892
000150 9e f9 be bc 05 24 95 3c b9 8b ae bc 2d 36 8b bc
       -0.023312386 0.018205652 -0.02130686 -0.016993606
000160 de 24 10 3e 50 6a 35 3d a8 a5 5d 3d 6e 43 00 bd
       0.14076564 0.04429084 0.05411306 -0.031314306
000170 8c e3 ef bd 5d 0d e7 3c 29 f8 e4 bd 89 33 72 bd
       -0.11713323 0.028204614 -0.11180145 -0.05913118
000180 dd c1 2c bd 48 89 dc bd 89 6b 87 3d 44 22 bc 3d
       -0.04217707 -0.10768372 0.066123076 0.09186223
000190 2f 4c 33 3d 42 46 31 bc 2e f4 46 bd cc 01 c7 3d
       0.043773826 -0.010819973 -0.04857271 0.097171396
0001a0 ee 04 94 bd 51 a2 7b 3d 51 2c e0 3d d6 80 c3 3d
       -0.07227503 0.061434094 0.10945953 0.09546058
0001b0 55 84 1f bc ba 9d e2 bd bf 63 25 bd bf 51 24 3d
       -0.00973614 -0.1106524 -0.04037833 0.04011702
0001c0 00 71 8b bb 94 ab 87 bb 3a c3 ec bd d4 7b cd 3d
       -0.004255414 -0.0041403268 -0.11560674 0.10033384
0001d0 96 e9 58 bd 10 23 ac bd b2 2c b3 3d eb 9b cd bd
       -0.05295714 -0.08405125 0.08748759 -0.100395046
0001e0 c1 0f ab 3d 35 df ae bd 6d cd 61 3c 23 4c d5 3d
       0.08352614 -0.08538667 0.0137818875 0.104149126
0001f0 3e 2d c8 bc 58 a1 4b bd db 05 ce 3d fc 3f 8f bd
       -0.024435636 -0.049714416 0.100597106 -0.06994626
000200 b6 30 48 3d f3 97 1c be 74 27 fb 3d a9 92 64 3d
       0.04887458 -0.15292339 0.122633845 0.05580393
000210 28 8a 56 bb 37 a4 06 3e a3 fa 98 bd cf a7 7a 3d
       -0.0032736156 0.1314858 -0.0746968 0.06119519
000220 7c 61 12 be 5d 36 0b 3d 02 f0 ce bc 28 3d 8c 3c
       -0.14295 0.03398739 -0.025260929 0.017119005
000230 14 ab 82 bd 2e 2f 43 3d 62 8d 55 3d 75 fd 2b 3d
       -0.06380287 0.047652416 0.052136786 0.041989762
000240 ea 7a 94 bd 54 92 d1 bd af 98 91 bd f1 ba 94 bc
       -0.072500065 -0.10232988 -0.071092 -0.018155547
000250 e3 77 c6 bd c2 06 9a 3c a8 18 e6 3d de 6d 83 bc
       -0.09690835 0.01880205 0.112351716 -0.0160436
000260 55 7a ac bd a5 05 91 bc 39 a3 0e 3c 3e 11 78 bd
       -0.084217705 -0.017702887 0.0087059075 -0.06056332
000270 d6 a7 9c 3d 87 10 cc 3d 49 40 1c 3d 59 00 7f bd
       0.076492 0.0996409 0.038147245 -0.06225619
000280 02 69 04 be e5 fe 1a 3e 3a a4 b3 3b 29 24 1a bd
       -0.12930682 0.15136297 0.005482224 -0.03763214
000290 27 4e 60 3d f8 9c 99 bd 26 8c f5 3d 33 79 09 be
       0.054762032 -0.075006425 0.11989622 -0.1342514
0002a0 cc ed 1a bd 1b e3 fb bd a7 95 fd bd 4c d1 14 ba
       -0.037824437 -0.12299176 -0.123820595 -0.00056769396
0002b0 82 e9 d6 3c 1a 9b f8 bd 94 c7 8f 3c db e1 ab bd
       0.026234392 -0.12138958 0.017551221 -0.08392688
0002c0 18 42 cb bd d5 0e 3b bd 18 46 99 3d 73 04 00 be
       -0.09924716 -0.04566844 0.074840724 -0.12501697
0002d0 77 b1 a1 3d 9f 05 69 3d b3 fa 3e 3a a1 bf 5e bc
       0.07895177 0.056890126 0.0007285282 -0.013595493
0002e0 e0 c8 4a 3d a7 17 2f bd 2a ef 16 bd 0f e3 f2 bd
       0.049507976 -0.042747166 -0.03684918 -0.11859714
0002f0 91 9a 95 3d 19 07 f9 3d ff bd 93 bd 1f 5d ed bd
       0.07304872 0.12159557 -0.07213973 -0.11590027
000300 b6 50 0f bc 65 0f 81 bc 7a a6 52 bd b9 a1 4b bc
       -0.00874727 -0.015754411 -0.051428296 -0.012428694
000310 63 d9 04 be 5a 62 8f 3d dc 69 8a bd fa d8 74 bd
       -0.12973551 0.07001181 -0.06758472 -0.059777237
000320 ac 9a 1b bd 78 c8 d3 3c c3 1d 05 be f1 76 78 3d
       -0.037989303 0.025852427 -0.12999634 0.060660306
000330 6b 33 cc 3d 05 da 05 3d 5f 70 93 3d 2b 80 10 be
       0.09970745 0.032678623 0.071991675 -0.14111392
000340 c9 67 b0 3d 2a a8 3c bd d5 31 53 bd 9e 27 f2 3d
       0.086135454 -0.04605881 -0.051561195 0.11823963
000350 46 ea 07 3e 32 c6 79 bd 12 c2 b9 3d 94 d4 04 bd
       0.13272962 -0.06098003 0.09070219 -0.032429293
000360 ce a0 4c 3c cb 74 22 3d d0 7b 34 3c 96 76 17 3d
       0.012489511 0.039662164 0.011015847 0.036978327
000370 22 b3 fa 3d 12 ed cc 3d e2 47 f6 bc 46 58 16 bd
       0.12241198 0.10006155 -0.030063573 -0.036705278
000380 f6 f2 44 bc c1 9d 55 bb e9 6c d7 3d f1 cd 01 bd
       -0.012020817 -0.003259525 0.1051882 -0.03169054
000390 31 3b 15 bd 12 4b f3 3d 37 2a f0 3b 3a b9 55 3d
       -0.036433402 0.11879553 0.007329251 0.0521786
0003a0 ba 4e 69 bd e5 a8 c0 bd e2 46 14 bd 75 79 1f be
       -0.056959845 -0.09407214 -0.03620041 -0.15573676
0003b0 61 72 49 3b 26 93 88 bd 61 87 9b bd ec b6 98 3d
       0.003073834 -0.06668691 -0.07594181 0.074567646
0003c0 0e 14 e2 bd 46 be aa bd 77 1d 01 3e 17 2b db 3d
       -0.110389814 -0.08337073 0.12608896 0.10701578
0003d0 bb 68 d4 3d d3 56 fc 3d 8f ae b4 3d d0 6b 32 3d
       0.10371538 0.12321248 0.08822357 0.04355985
0003e0 2b f1 d1 3d d4 78 83 3c b1 bc b8 3d 1e da 6f bc
       0.10251077 0.016048826 0.09020365 -0.0146394055
0003f0 b8 f0 be bd 58 dd d7 3d 93 4f 77 3d 35 47 68 3d
       -0.09323257 0.10540265 0.060378622 0.056708533

module.conv_2.bias f4 [12]
000000 52 00 ca bb 3e bd e3 3d 70 a4 31 3b ce fb 9b 3d
       -0.006164589 0.111200795 0.002710607 0.07616387
000010 78 02 f3 bc 3a b8 b0 bd 80 cd 01 3d 45 30 d9 3a
       -0.029664263 -0.086288884 0.03169012 0.0016570172
000020 90 9f a0 bd 3a 59 f3 3d ba 9e 1a 3d b0 db dc 3d
       -0.07842934 0.11882253 0.03774903 0.107840896

module.conv_3.weight f4 [12, 12, 3, 3, 3]
000000 12 4d 4f 3d ef 51 05 3c f9 11 19 bd 1a e9 60 3d
       0.05061061 0.00813721 -0.037370656 0.054909803
000010 7b ac 65 bc fc d5 ad bb f7 9c 07 bd da be ef bc
       -0.014018173 -0.00530505 -0.033108678 -0.02926581
000020 dd d6 c8 bc 78 82 fa 3c 1a bd 0c 3b 85 31 a5 bc
       -0.024516517 0.03057979 0.0021475018 -0.020165214
000030 07 2a 25 3d 76 1c 75 bc 2b a0 b3 bc f5 c5 00 bd
       0.040323284 -0.014960399 -0.02192696 -0.031438787
000040 99 11 6d bd c4 b7 61 bc 59 05 86 3d 03 79 30 3d
       -0.05787811 -0.013776723 0.06543989 0.043084156
000050 c4 b5 e4 bc c0 4e 80 3c 2f 57 d6 bc 7b 20 05 3c
       -0.027918704 0.01566255 -0.02616462 0.00812542
000060 b3 71 45 3c 50 fe 53 bd 35 22 7e bd 37 4c b2 bc
       0.012051034 -0.051756203 -0.06204434 -0.021764858
000070 1a 68 1b 3d 83 1c 0c bd 42 c5 d1 bc 88 fe f0 3c
       0.037941076 -0.03420688 -0.025606755 0.029418245
000080 83 08 17 bd ac cd 38 3c 7d 7c 98 bc 7f 9d bf 3c
       -0.03687335 0.011279505 -0.018614048 0.02339053
000090 62 bf 96 bc 2b 9e 71 bb 25 2b 25 3d 0a fc 35 bd
       -0.018401805 -0.0036867957 0.04032435 -0.044429816
0000a0 ff 80 1b 3c c2 d0 bc bc ca f3 0b 3c d7 4a a2 bb
       0.009491204 -0.023048762 0.008542011 -0.0049527693
0000b0 1a 12 f6 3c 15 82 21 3d 2a 36 07 bd b4 83 1d 3c
       0.030037928 0.039430697 -0.03301064 0.00961392
0000c0 bb df 5a bc f8 82 76 3d 1d 75 93 3b f8 9f 6c 3d
       -0.013359006 0.060183495 0.004500045 0.057769746
0000d0 95 c7 70 3c 58 6f 82 3d 31 c1 57 bd ae 1e 9f 3c
       0.014696022 0.063688934 -0.052674476 0.019423809
0000e0 a6 51 15 bc 84 b2 10 bc c1 4c 39 bc 77 52 4d bc
       -0.009113705 -0.008831624 -0.011309803 -0.012531868
0000f0 d7 0e c9 3c de bb d7 bc c6 f2 96 3c 24 8f 5c bd
       0.024543209 -0.0263347 0.01842631 -0.053847447
000100 cf 00 7b bc e7 d2 d9 bc 7f 6e 25 3d 32 64 93 bc
       -0.015320017 -0.026589824 0.04038858 -0.017992113
000110 c4 71 c6 38 65 43 db 3a 70 89 45 bb 98 89 e0 3c
       9.462566e-05 0.0016728459 -0.0030141734 0.02740936
000120 ca 1f ce 3c ee 61 e5 3c fb df d8 3c 3b 42 37 3d
       0.025161643 0.028000798 0.02647399 0.044740897
000130 f3 1a b2 bc 0e ef e5 3c 8a 64 ff 3c 39 a8 3d bc
       -0.021741366 0.028068092 0.03117587 -0.011575752
000140 a6 eb 90 3b 8e a0 9e 3c 73 c0 66 3c 32 09 bf bc
       0.0044226227 0.019363668 0.014083969 -0.023319814
000150 40 a4 e2 bc 79 16 51 3d e4 4c 09 bd 97 3f 80 3c
       -0.027666211 0.051046822 -0.033520594 0.015655322
000160 99 c0 d4 3c 97 8f d8 bc c9 7f d0 3c 90 cc f7 3c
       0.025970744 -0.026435656 0.025451558 0.03024891
000170 8c cd 88 3c 54 59 37 bd 2f 55 86 bc 2f 54 6c 3d
       0.016699575 -0.044762924 -0.01639804 0.05769747
000180 df 11 cd bb 7a f7 ed 3b 93 27 71 bc 45 35 49 3d
       -0.006258234 0.0072621675 -0.014718908 0.049123067
000190 66 04 c0 3c 7c d1 30 3d e4 a4 30 bd 40 e4 26 3d
       0.023439597 0.04316853 -0.043126002 0.04074502
0001a0 4e 77 b9 bc c7 08 10 3d 98 7d 30 bd f0 86 30 3d
       -0.022639897 0.03516462 -0.043088526 0.043097436
0001b0 b1 55 1e bd e7 b7 96 bd 9c 33 1b bd fa 5f 09 3d
       -0.03865594 -0.07359295 -0.037891015 0.033538796
0001c0 54 23 2e bd 90 68 58 bc 47 94 81 bd 92 46 5e bd
       -0.04251416 -0.013208523 -0.0632711 -0.05426652
0001d0 1b 56 88 3b a4 3a 99 bc ca 05 18 bd 37 c7 01 3d
       0.004160655 -0.01870472 -0.037114896 0.031684127
0001e0 f3 9b 4c bd c0 05 04 ba f5 f0 15 bd db e0 bd ba
       -0.049953412 -0.0005036257 -0.036606748 -0.0014486568
0001f0 16 4a 71 bd e9 33 30 bd f7 70 55 bd b3 8d 68 bb
       -0.058908544 -0.043018255 -0.052109685 -0.003548485
000200 e5 38 b4 3c 3f dd dc 3c 8b 92 fc bc 9a 91 c3 3c
       0.021999786 0.026960967 -0.030831596 0.02387314
000210 d8 df dd 3c a6 81 5a bd c0 a2 f1 3b 64 28 b0 bb
       0.027084276 -0.0533463 0.0073741376 -0.0053759087
000220 1d 87 87 3b 40 13 18 3d ab 82 72 3a a7 8b ee bc
       0.00413598 0.037127733 0.00092510384 -0.029119326
000230 d9 60 9c bc c7 45 36 3b e4 09 59 3c 6e 60 86 3c
       -0.01908915 0.0027812587 0.013246987 0.016403403
000240 8e 6e a7 3b 72 c0 d5 3b 9d 53 b6 3c 47 dd 04 bd
       0.0051096147 0.0065231854 0.022256667 -0.03243759
000250 14 1f 33 3d 54 79 46 bd d0 fd 3a bd 20 9d 0e bd
       0.04373081 -0.04845555 -0.04565221 -0.034817815
000260 95 8d 09 3d 8e 61 fb 3b f2 d9 4f bd b5 f8 15 3d
       0.03358229 0.0076715415 -0.05074496 0.03661414
000270 64 52 08 bc 4e 42 d8 bc c7 19 68 bc 2b cd a5 bc
       -0.008320425 -0.026398804 -0.014166302 -0.020239433
000280 65 ba 3c bd 8d b6 2f 3d 08 9e 8f bc b8 c0 a2 3d
       -0.046076197 0.042898703 -0.01753141 0.079469144
000290 6d ed b4 3d 78 18 b3 3d 76 b0 85 3d 52 5b cd 3d
       0.08834348 0.087449014 0.06527798 0.100271836
0002a0 08 f1 61 3d 6f c0 8a 3c ad a5 a6 3d 60 df ff 3a
       0.055161506 0.016937463 0.08137069 0.0019521527
0002b0 c8 8b 8a 3c a7 c6 04 bc ae 38 48 3d 93 0f 1c 3d
       0.016912356 -0.008104003 0.04888218 0.03810079
0002c0 ee c3 10 3d 67 dd 13 3c 9c 0b e3 bb 88 92 87 bc
       0.035343103 0.009024954 -0.006928874 -0.016549364
0002d0 43 25 ec 3c 7e 29 19 3d cb 53 99 3d 2d e5 5e 3d
       0.028826362 0.037393086 0.07486685 0.054417778
0002e0 23 8c 3f 3d 06 2b 3c 3c c7 0e 69 3d 4c 6a 75 3d
       0.046764504 0.011484867 0.05689886 0.059915826
0002f0 86 f3 87 3d 31 a7 24 3d 93 a8 53 bd a1 e1 fc 3a
       0.06638245 0.04019851 -0.051674437 0.0019293317
000300 f2 69 5c bd 60 e0 ba 3b d3 b5 16 3c bd ad 69 3d
       -0.053811975 0.005703017 0.009198624 0.057050455
000310 27 83 4e bd 64 eb 3a bd b9 ab 53 3b 4a f6 19 3d
       -0.050418045 -0.045634642 0.00322984 0.037588395
000320 f6 ea c0 bc 51 77 00 bd 4d bf c0 3b c8 fd d3 3b
       -0.023549538 -0.03136379 0.00588218 0.006469462
000330 cd c2 ab bc 5d 53 4f 3d 57 f8 77 bb 3f 82 1a 3d
       -0.020966912 0.05061661 -0.003783723 0.03772187
000340 97 93 1e bc d3 c4 2f bc 2c 34 0a bc 27 ff 7a bc
       -0.009678743 -0.010728079 -0.00843529 -0.015319622
000350 13 1b 0d 3c 94 21 c4 bc a8 c8 51 bd cb 6d e4 3c
       0.008612412 -0.023941793 -0.05121675 0.027884385
000360 fe e2 2f bc f7 af 42 3d 0e 04 12 bc b7 7b 17 bc
       -0.0107352715 0.047531094 -0.0089120995 -0.0092458045
000370 5c ce 82 bc fb 94 a2 bc d5 2b 3f 3d f3 69 b7 bb
       -0.01596754 -0.01984643 0.04667266 -0.005597347
000380 33 a2 07 3d bb 3f 1e 3d 02 7c ee bc 28 a5 06 bd
       0.03311367 0.038634997 -0.029111866 -0.03287235
000390 65 63 c2 bb 85 e5 58 bb a9 c8 86 3a d9 ba 58 bc
       -0.005932259 -0.0033095789 0.001028319 -0.013228142
0003a0 a9 28 31 3d 97 7f 3f 3d 1e 43 93 bc 8c e0 37 bc
       0.043251667 0.04675254 -0.01797634 -0.01122297
0003b0 63 5c 4a 3c 87 75 16 3d 71 17 51 bd 27 7b 1c bd
       0.012351128 0.036733177 -0.051047746 -0.038203385
0003c0 bf 9c cb 3c 81 57 80 bb 0a 1d 21 3a 69 35 49 3c
       0.024855016 -0.0039166813 0.000614599 0.0122808
0003d0 17 b0 64 3d 81 f8 75 bb 18 e1 42 bb 7a c4 1e bc
       0.055831995 -0.0037532153 -0.0029736217 -0.009690398
0003e0 c9 1e 0d 3d c3 31 5f bc e4 f0 23 bd 51 ed 15 bd
       0.034453187 -0.013622704 -0.040024653 -0.036603276
0003f0 bd 3d eb bc 99 c3 03 3d 83 6e 72 bc f3 01 2c bd
       -0.028715963 0.03216896 -0.014796856 -0.041994046

module.conv_3.bias f4 [12]
000000 c9 64 61 3d 33 12 f3 bc 9b 8a bb bc 29 e1 2a 3d
       0.055027757 -0.029671764 -0.02289324 0.041718636
000010 21 dd d9 3c 33 7d 15 bc 50 65 b3 bc 52 02 91 3c
       0.0265947 -0.009124088 -0.021898896 0.017701302
000020 22 84 16 3d df 7c 8a bb e3 99 1f bd 65 58 13 bd
       0.036747105 -0.0042263116 -0.038965117 -0.03597297

module.conv_4.weight f4 [12, 12, 3, 3, 3]
000000 aa 41 31 bc ab 60 c7 bc bf ca 87 3b 63 23 34 3d
       -0.010818878 -0.024338087 0.0041440423 0.04397906
000010 d5 02 36 3c d8 c3 c9 bc e6 8c fc bc 47 3a 6b 3d
       0.011109074 -0.024629518 -0.030828904 0.057428624
000020 94 4c 06 bd 21 04 77 3d d9 1c 05 bd 91 4e 0b 3c
       -0.032787874 0.060306672 -0.032498214 0.008502618
000030 f4 70 0b 3d 72 dc a0 bc 2b 76 9d bc 21 20 29 bc
       0.034043267 -0.019636367 -0.019221386 -0.010322602
000040 53 9a 4f 3d 45 6a 37 bd 66 a1 c4 bc 53 a0 21 bd
       0.050684284 -0.04477908 -0.024002742 -0.039459538
000050 99 a9 02 3d e4 e3 75 3c 41 98 a5 3c f1 84 2b 3d
       0.031900022 0.015007947 0.020214202 0.04187483
000060 70 fc 91 bc 5d e1 c5 bc 46 e3 2b 3c 54 db 4c 3d
       -0.017820567 -0.024155313 0.010491198 0.050013855
000070 fa 38 eb 3c 32 3c 61 3d 7d 0c 33 38 60 39 56 3d
       0.028713692 0.054989047 4.2688556e-05 0.05230081
000080 30 3e 9c bb e0 29 20 3d 17 94 2c 3d dc b5 7c 3d
       -0.0047681555 0.039102435 0.042133417 0.061696872
000090 f4 dd 98 3c 58 57 8e 3c d4 11 60 3d 39 a9 8e bb
       0.018660523 0.017375633 0.054704502 -0.004353669
0000a0 5e 83 13 bd b8 5b 25 3c b2 00 50 3d 4d 8b 12 bd
       -0.036013953 0.010092668 0.050781913 -0.03577738
0000b0 8f 39 14 3d d4 e1 01 bd 6e b0 c3 3c 88 f9 4e 3d
       0.036187705 -0.031709507 0.02388784 0.05053094
0000c0 18 a5 16 3c ae 37 7d 3c 0c 8f d9 bc b3 cb 15 3d
       0.009194635 0.01545517 -0.026557468 0.036571216
0000d0 49 5d 3b bc 8b 5a f3 3c 4b 38 8f bb 3d a8 67 3d
       -0.011435815 0.02970626 -0.0043707243 0.05655693
0000e0 f6 03 88 bb 89 31 a6 3c 95 be 65 3d 51 d5 e2 bc
       -0.004150863 0.020287292 0.056089956 -0.027689608
0000f0 04 2a 1c bd b1 c3 b0 3c f6 22 b2 bc fb ea 9f bb
       -0.038126007 0.021577688 -0.021745186 -0.004880307
000100 50 8a 2d 3b 3e a8 8c bc e9 db 6b 3d dc 83 2c 3d
       0.0026480146 -0.017170068 0.05758277 0.04211794
000110 bb 41 2a bd 28 0a ff bc 00 29 3a 3c ce 2e 91 3c
       -0.04156659 -0.031132773 0.011362314 0.017722514
000120 30 d0 88 bc af ed a5 bb 50 d9 ec bc e7 bb aa bc
       -0.016700834 -0.0050637345 -0.028912216 -0.020841552
000130 e7 23 64 3d 59 89 d3 bc 6a a2 ec 3b cc 01 db bc
       0.0556983 -0.025822328 0.0072215097 -0.026734255
000140 f1 88 3f bc 9b 21 9c bc d3 98 6e 3d 75 86 e2 3c
       -0.011690364 -0.019058993 0.058251213 0.027652005
000150 15 c8 b3 3c f2 df 44 3c d8 de b0 3c ad 37 2d bc
       0.021945992 0.012016283 0.021590635 -0.010572356
000160 df 28 16 3c 81 0a b1 bc 6b b6 49 3c 9c 8a 0e 3c
       0.009165018 -0.021611454 0.012311558 0.008700039
000170 76 9c 11 bd 0f a3 5f bc ab 5a 13 3d ac e7 3f bc
       -0.035549603 -0.013649716 0.03597514 -0.01171295
000180 95 99 04 3d 6b c3 f5 3c 0c e5 82 3d ff bb 0e 3d
       0.03237303 0.03000041 0.063913435 0.034847256
000190 0f 38 1d bd 76 ed 1b bd 99 bb ee 3c 1a 7d 82 bc
       -0.03838354 -0.038068257 0.029142188 -0.015928794
0001a0 df 6b 80 bc 09 9c 6f 3d 6a 70 40 bd a2 6e 8e bc
       -0.015676437 0.058498416 -0.046982206 -0.017386738
0001b0 83 60 a6 3c 30 32 40 bd 3a 70 ea 3c 0c 12 3f 3c
       0.020309692 -0.046922863 0.028617967 0.011662018
0001c0 c4 1e 20 bd 64 11 29 ba 6e 1d 0a bd 1a 26 03 3d
       -0.03909184 -0.000644943 -0.033719473 0.03201876
0001d0 54 2a 42 bd 67 74 5e 3c de 30 57 bc 61 5e 53 3d
       -0.04740365 0.013577557 -0.013134209 0.05160368
0001e0 fe 9f ca 3c dc 47 36 bd dc 86 38 bd 31 85 15 bd
       0.024734493 -0.044502124 -0.045050487 -0.036503974
0001f0 79 45 b3 bc 7f 30 88 bc 3e ad 4b bd c2 f0 15 3d
       -0.021883713 -0.016624687 -0.049725763 0.036606558
000200 ff 79 7c 3d e9 29 0c 3d 02 e2 f2 3c 2b 1b 8e bc
       0.061639782 0.034219656 0.029648785 -0.01734694
000210 15 65 3d bc c0 79 1e 3d e0 4e 54 3d d6 07 b3 3c
       -0.011559744 0.03869033 0.051833034 0.021854322
000220 74 e0 cf bc dc 06 4d 3c e1 a4 59 3d 3f 9e fe 3b
       -0.025375582 0.012513842 0.053135756 0.0077703292
000230 c9 9f f4 bc bc 91 3c 3c ed b8 2c 3d 99 d8 2a bd
       -0.029861348 0.011509355 0.042168546 -0.04171047
000240 ea 06 d2 3c 7e 7d 54 3d ea 8d 3c bd 32 87 3f 3d
       0.025638063 0.05187749 -0.046033777 0.04675979
000250 75 72 2c bd 8a 20 21 3d 06 59 ef bc 9e f3 76 bc
       -0.042101342 0.039337672 -0.029217254 -0.015072731
000260 41 29 aa 3c 75 4d 87 bb 4e b7 2b 3d 52 b7 3b 3d
       0.020771625 -0.0041291066 0.04192286 0.045829125
000270 73 19 2e 3d 05 f4 47 3d 9e 74 91 bb 78 5d 73 3d
       0.04250474 0.0488167 -0.0044389507 0.05941531
000280 3d c6 19 bb 0c f2 27 bd e1 ee 40 bd 09 05 dd bb
       -0.0023464106 -0.04100232 -0.047102813 -0.006744985
000290 3e a1 83 3d 2a bc 34 3c ab b9 91 bc b6 fc 17 3d
       0.06427239 0.01103119 -0.017788729 0.03710624
0002a0 2d 71 de 3c ce af 0b bd 6d 5d af 3b 3d ec 6c bc
       0.027153576 -0.034103207 0.0053517134 -0.0144606205
0002b0 4a d0 d2 bc e1 f0 76 3c 3c 1b 49 3d 23 d0 63 3d
       -0.025734086 0.015072078 0.04909824 0.055618417
0002c0 c8 eb 31 3d 14 da 83 3d f6 4e f4 bc 25 5a 33 3c
       0.04343775 0.064380795 -0.029822808 0.010946785
0002d0 68 2f 14 3d b5 ca 04 3d 38 da 4d bc 76 60 8e 3a
       0.036178023 0.03241988 -0.012564234 0.0010862488
0002e0 5f 9b 5f 3c 3b 28 ac bc 0e 81 1a 3d 1f ea 03 bd
       0.013647883 -0.021015277 0.037720732 -0.032205697
0002f0 7c 95 47 3b 2a 77 0f 3d 28 b4 27 bd 71 b7 0d bd
       0.003045409 0.035025753 -0.040943295 -0.03459877
000300 aa c1 dd bc 4d 43 72 3d cc ef 3f 3d b4 98 26 bd
       -0.027069885 0.059146214 0.046859547 -0.040672973
000310 9f 71 d7 3c 43 a7 80 bc c7 b6 48 bd a3 fa 2d bd
       0.026299296 -0.015704757 -0.049002435 -0.042475354
000320 36 23 23 bd 93 9f 68 bc 82 4b 7c 3a 6d 2d 45 bd
       -0.0398285 -0.014198202 0.00096242887 -0.048139025
000330 25 18 72 3c 7e 72 6d 3d c8 3d 63 3d 1b 9f d4 bb
       0.014776264 0.057970516 0.05547884 -0.0064886934
000340 9e 45 27 3d c4 24 1f ba b1 c7 05 3d fd e7 a9 3a
       0.040837876 -0.0006070847 0.032661144 0.0012962815
000350 df f6 ce ba 49 ca bd bb 9b 5e 18 bd 23 8b 21 3c
       -0.0015790126 -0.0057919365 -0.037199598 0.009859833
000360 7b 75 c9 3c ff ea 4a 3d 3b ac 6a 3d 66 ea ce 3c
       0.024592152 0.049540516 0.057293158 0.025258254
000370 77 49 90 bc 58 cb 64 3c e1 f2 c7 3c 79 36 67 3d
       -0.017613156 0.013964497 0.024407806 0.056448434
000380 50 f7 c7 bb 62 a0 49 3d 41 aa 47 3c 38 45 db bc
       -0.00610248 0.04922522 0.012186588 -0.026766405
000390 a4 db 94 bb 2d e0 0f 3d eb ae 06 bd c1 bb 44 3d
       -0.0045427848 0.0351259 -0.03288166 0.04803062
0003a0 fe 09 ea 3c d1 79 80 3d 91 76 3b 3d 85 2b 1a bd
       0.028569218 0.06273235 0.04576737 -0.03763916
0003b0 40 b7 5a 3d 3d 05 17 3c e4 73 bf bc 81 69 46 bc
       0.053397417 0.0092175575 -0.02337069 -0.012110115
0003c0 6d 02 5f 3d 77 60 51 bc e3 ec 40 3d 70 25 30 bd
       0.054445673 -0.012779347 0.047100913 -0.043004453
0003d0 68 2c 65 3d 08 9c 1b bd 2c ed 34 bb 16 df 10 bd
       0.055950552 -0.0379906 -0.0027607186 -0.035369
0003e0 47 72 89 bb 25 ab dc bb f0 a8 0b bd fe 07 45 bc
       -0.004194531 -0.006734269 -0.03409666 -0.012025831
0003f0 54 76 f8 3c 6e ee 1b 3d f9 98 2f 3c 04 5f 4c 3d
       0.03032986 0.03806918 0.010717624 0.0498953

module.conv_4.bias f4 [12]
000000 34 ca 37 3b 56 0c 16 3d 97 92 1c 3d de 65 4d 3c
       0.0028044106 0.03663286 0.038225736 0.012536494
000010 f5 35 31 bb 70 2b 7f 3c a0 8a 67 bc 9c f7 3f bd
       -0.0027040218 0.015574321 -0.014132172 -0.046866998
000020 ef e9 3c 3d cf 23 1e 3d c0 45 14 bd a6 fc 42 3d
       0.046121534 0.03860837 -0.03619933 0.047604226

module.conv_5.weight f4 [12, 12, 3, 3, 3]
000000 09 30 be 3c 78 f9 55 bc b8 6b 5b bd 7f ab 4f 3d
       0.023216264 -0.013059966 -0.053569525 0.05070066
000010 2f 42 fb 3c 65 83 ea bb 9b e6 a3 bc ba b2 82 bc
       0.030671207 -0.0071567767 -0.020007422 -0.015954364
000020 ce db d0 bc 2a 16 b4 3a ec 81 20 3d 03 11 cc bc
       -0.025495436 0.0013739516 0.039186403 -0.024910456
000030 41 2a 02 3d e9 f6 e7 bb 49 5c a2 bb 99 f8 2d 3d
       0.031778578 -0.0070789945 -0.004954849 0.04247341
000040 eb 92 46 3c 63 8f dc 3c 65 24 c0 bc 1b 9a ba 3b
       0.012119989 0.02692384 -0.023454854 0.0056946403
000050 d6 3a 3e 3c 66 d1 3f 3c 40 49 10 bc d7 42 0d bb
       0.011610707 0.011707639 -0.008806527 -0.0021554732
000060 c2 1f 49 bd 4e 0a 6f bc 8f d3 eb 3c c2 19 0b 3d
       -0.049102552 -0.014589859 0.028787402 0.03396011
000070 d4 90 11 bc 4e 1b f1 3c 65 d3 26 bd 70 ef 30 bd
       -0.008884627 0.029431965 -0.040728945 -0.043197095
000080 fb f3 06 bd 51 be 8d bc 0d dc 22 bd ca 90 85 bc
       -0.03294752 -0.017302664 -0.039760638 -0.016304392
000090 3b d2 65 3c 9d db 31 bd 3e 2f 11 3d eb fe ca bc
       0.014027174 -0.04342233 0.035445444 -0.024779757
0000a0 a9 39 2d 3d 09 cd 33 3d bf 0a f3 bc d1 33 3b 3d
       0.042291317 0.04389671 -0.02966821 0.045703713
0000b0 8d 59 e5 3a 0d 9e 70 bc a7 a8 f4 bc 5c 7b 92 3b
       0.0017498002 -0.01468612 -0.029865576 0.004470272
0000c0 c8 f4 2a 3d b4 91 ad 3c d4 3d f3 bc 5f 09 3a bd
       0.041737348 0.02118764 -0.029692568 -0.045419093
0000d0 d0 7a 46 bb 55 ad 06 3d a6 8d 23 3d 73 9f e7 3b
       -0.0030285604 0.032880146 0.03993001 0.0070685684
0000e0 09 51 40 bd 6f 58 c5 3c 25 71 58 3d 82 6f e4 bc
       -0.04695228 0.02409002 0.052842278 -0.027885202
0000f0 e6 e8 75 3d 70 38 50 3d 35 0e e4 3c 78 aa 9a bc
       0.060036562 0.050835073 0.027838806 -0.018880114
000100 79 3a 0d 3d 2f c4 8f bc 6d 46 da bc 57 a5 50 3d
       0.034479592 -0.017549602 -0.02664491 0.05093893
000110 5c e0 37 3c d5 5d ad 3c 69 de d5 bb 0f ca fc bc
       0.011222925 0.021162907 -0.0065267575 -0.030858068
000120 3a 6d 67 bc 53 9a 80 3c 41 ef 85 bc b9 06 fe 3c
       -0.014125163 0.015698588 -0.016349437 0.031009065
000130 14 9c 2f bc 19 e8 13 3c 26 18 0e bd 36 11 75 3c
       -0.010718364 0.009027504 -0.034691 0.014957717
000140 b0 44 73 3c c6 6e 1c bc 93 85 33 bd 52 3c 1a bd
       0.014847919 -0.009547895 -0.04382856 -0.037655182
000150 99 d8 2b 3d c5 31 ba 3c 02 8f c1 bc ae 75 56 3d
       0.04195461 0.02272881 -0.023627762 0.05235832
000160 fe 8d 07 3d 36 23 d4 3c 53 0b 4f 3d 6a b8 2f 3d
       0.0330944 0.025895696 0.05054791 0.04290048
000170 7a fa 14 bd ec cf ba bc aa 83 3f bd a0 a1 3c 3d
       -0.036371686 -0.022804223 -0.046756424 0.046052575
000180 12 38 75 3d 07 87 0f bd f5 79 1e bd 8c 32 6c 3d
       0.059867926 -0.03504088 -0.038690526 0.057665393
000190 53 1d dd bc 1f ee 4b 3d 87 be 57 3d 02 00 de bc
       -0.026991522 0.049787637 0.052671935 -0.027099613
0001a0 9f b4 4b bd 89 9f d4 bc fe 6c 1d 3d 23 2c 10 bd
       -0.0497328 -0.025954979 0.03843402 -0.035198342
0001b0 f7 01 69 bd 4c b8 01 3d c3 ce be 3c ec be 65 3d
       -0.05688664 0.0316699 0.023291951 0.05609028
0001c0 66 8c 26 bd a4 eb d5 3c 95 8e 96 3c a6 37 38 3d
       -0.040661238 0.026113339 0.018378535 0.044974945
0001d0 f4 df 65 39 bd af 99 3c 68 95 01 bd d1 ac 81 bd
       0.00021922571 0.018760556 -0.031636626 -0.0633179
0001e0 80 fa 93 bc 4d 95 2a bd a4 e2 4d bd 00 5e 27 3d
       -0.018063784 -0.04164629 -0.05026497 0.04086113
0001f0 ff 9c 14 3d da a8 4b 3d c9 70 30 3c b0 67 15 bc
       0.036282536 0.049721576 0.010769078 -0.009118959
000200 a9 75 a9 3c 52 cd 42 3d ef 1d 67 3b b3 32 5e bd
       0.020685988 0.04755909 0.0035265645 -0.05424757
000210 71 86 f6 3c 14 15 29 3d 5f 72 0e bd e6 95 38 3d
       0.030093404 0.041279867 -0.03477704 0.04506483
000220 86 61 18 bd 80 8a 0d 3d a8 04 51 3d c1 27 03 bd
       -0.03720238 0.034555912 0.05102983 -0.032020334
000230 f0 4e 3c 3c a7 2c 10 bd 25 92 09 3d 7b 26 a3 bc
       0.01149343 -0.035198834 0.03358664 -0.01991581
000240 c8 29 c8 3c df 4b 8f bc 19 e9 b3 bb 40 9c 54 3c
       0.024433985 -0.017492233 -0.005490434 0.012976706
000250 97 d8 45 bc 23 e1 12 3d ce 87 01 bd 88 88 93 3b
       -0.012075565 0.03585924 -0.031623654 0.00450236
000260 3f 46 07 3d a8 22 9a 3c 3f 2b 11 3d 6f 08 c9 3c
       0.033025976 0.018815354 0.035441633 0.024540154
000270 76 44 eb 3c d8 6f eb 3c 9c d5 ca 3b 2c 63 f7 bc
       0.028719168 0.028739855 0.006190015 -0.030198656
000280 b5 62 b5 bb 4d 1f df bc 08 7a 0c 3c db f4 49 3d
       -0.0055354484 -0.027236605 0.008574016 0.049305778
000290 2c 59 0b bc 04 c8 20 bd 06 bc c9 bc de a3 5f bd
       -0.008505147 -0.03925325 -0.02462579 -0.054599635
0002a0 66 53 b0 3c a4 22 85 bd 6e 72 ad 3c 84 3a 0f 3c
       0.021524142 -0.06500748 0.021172728 0.008741979
0002b0 28 8c df 3c 97 59 34 bd 02 e0 ab 3a 35 9b 1c 3d
       0.027288511 -0.044030752 0.0013113024 0.038233954
0002c0 7e d9 0a bd 58 59 1c bd a6 d9 19 ba 42 83 a8 bb
       -0.033898823 -0.038171142 -0.0005868919 -0.0051426003
0002d0 7e 60 16 bd 98 45 19 bd ec 71 26 bd ea 6d 8b 3b
       -0.036713116 -0.037419885 -0.040635988 0.004255046
0002e0 bf 9b e4 3b a8 86 23 3d 1d 2c 8c bc f2 05 eb 3c
       0.006976574 0.03992334 -0.017110879 0.028689358
0002f0 2a 28 a7 3c 07 52 77 3c 43 90 bc bc 54 b7 30 bd
       0.020404894 0.01509524 -0.023018008 -0.043143585
000300 df 09 79 3d 67 d2 c9 3c 3f 57 f7 3c 5c 65 77 3c
       0.06080043 0.02463646 0.03019297 0.01509985
000310 d4 d6 50 bd e7 0d 4f bc 27 ff 2d bd f0 1e 27 3b
       -0.050986126 -0.012637592 -0.04247966 0.0025500618
000320 be e0 30 bd 1a ab 00 bd f8 37 cc 3c 2d d2 db bc
       -0.04318308 -0.031413175 0.024929032 -0.026833618
000330 0a 1f 30 3d 45 d9 33 3c 56 f7 a2 3b 9a af 3c 3d
       0.04299835 0.010977094 0.0049733324 0.046065904
000340 68 30 01 3c 8a 12 ed 3c b0 d9 29 bd c4 b3 d6 bc
       0.007885076 0.028939504 -0.04146737 -0.026208766
000350 10 5a 5d bd 6f 64 2c bd 2a ef 72 bb 28 9b 77 3c
       -0.05404097 -0.04208797 -0.0037068822 0.015112676
000360 40 a6 15 3d a0 d7 04 3c 5e 98 04 bd b1 0b a6 bc
       0.0365355 0.00810805 -0.03237187 -0.020269247
000370 96 2b 43 bc 06 64 b5 bc 9d c5 60 3d 97 04 65 3c
       -0.011912247 -0.022142421 0.05487596 0.013978145
000380 8f e2 10 3d f0 50 0c 3d b3 d4 3e bd 24 69 bc 3c
       0.035372313 0.034256876 -0.046589565 0.022999354
000390 0c 3f 04 bd 53 dd d0 3c 44 c0 4d bc fb b7 74 3c
       -0.03228669 0.02549616 -0.012558047 0.0149364425
0003a0 26 fc a6 3a 2f 7d 21 bd 92 58 da 3c 6a 9f a2 3b
       0.0012739941 -0.039426025 0.026653562 0.0049628513
0003b0 32 40 b5 bb d6 e1 a1 3c 36 d7 23 3c 75 8c f7 3c
       -0.0055313343 0.019761007 0.010000041 0.030218342
0003c0 a5 fc 2f 3d 5c 11 cf bc 89 ea 10 3d 81 b1 fa bc
       0.04296555 -0.025276832 0.03537992 -0.030602219
0003d0 c1 06 a3 3d de 49 7a 3c 46 f6 5f 3d 19 3f 02 bc
       0.079602726 0.0152764 0.054678224 -0.007949614
0003e0 d7 bc 2a 3d e9 29 10 bd 51 87 6e 3d 96 b5 f5 3c
       0.041683998 -0.03519622 0.058234517 0.029993813
0003f0 db b5 a7 bc b6 ab 26 3d 03 f6 57 3d 23 a5 88 3d
       -0.020472458 0.0406911 0.05272485 0.06672122

module.conv_5.bias f4 [12]
000000 67 07 4a bd 54 07 82 3c 23 ff 2d 3d 40 0c cd bc
       -0.049323466 0.015872635 0.042479645 -0.025030255
000010 5b 39 c1 3c b2 d4 32 3c 83 ed 13 3d 30 3c 7c 3d
       0.02358692 0.010914968 0.03611518 0.061580837
000020 be bb 0c bd 22 42 59 3c 9b 20 91 3c 32 11 49 3c
       -0.034358732 0.013260396 0.017715743 0.012272166

module.conv_6.weight f4 [12, 12, 3, 3, 3]
000000 28 8d 7d 3c 33 b6 37 bd 64 e7 b8 bb ec eb 47 bc
       0.015475549 -0.044851493 -0.0056428183 -0.012202244
000010 79 6d cf 3c 51 aa f2 bb 7a e5 54 bc e3 74 51 bd
       0.025320755 -0.007405557 -0.012994165 -0.051136862
000020 53 14 3e 3d 26 6b 26 3d 58 28 c1 bc ae 4a 2a bd
       0.0464061 0.04062953 -0.023578808 -0.041575126
000030 90 19 62 bd 01 00 21 bc 62 41 84 3c 67 0e 69 bd
       -0.05520016 -0.009826661 0.016144458 -0.0568985
000040 04 6e 97 bc 67 25 57 bc d4 34 1f bd e7 46 b6 3b
       -0.018485077 -0.013131476 -0.03886874 0.0055626514
000050 e1 11 15 3d b0 d0 c5 bc f8 cd 0f bc e4 f2 3e 3d
       0.036394004 -0.024147362 -0.008777134 0.046618357
000060 2a 0b 2b bd d8 cb b8 bc 82 dc 0e 3c ca 81 60 3d
       -0.041758694 -0.022558138 0.008719565 0.054811276
000070 f6 28 b5 3c 41 3c c4 bc d0 90 b8 3c df c2 15 bd
       0.022114258 -0.023954513 0.02252999 -0.036562797
000080 b6 31 1b bd 40 d3 a8 3a e7 60 ad 3c 18 82 69 3d
       -0.037889205 0.001288034 0.02116437 0.057008833
000090 e5 9b 42 bd d1 3f 01 3d b5 2a 40 ba ac 7c 00 3c
       -0.047511954 0.031555 -0.00073305826 0.007842224
0000a0 62 10 40 3a 38 be 47 3d 60 8b 3a bd 4d 69 e5 3c
       0.000732666 0.04876539 -0.045543075 0.028004313
0000b0 7e f0 37 bd 81 0b 23 3d e9 b5 54 3c 64 f3 19 bd
       -0.044907086 0.039805893 0.012982824 -0.03758563
0000c0 9c 77 f5 bc 8a f4 d1 3c 55 e6 80 3d 68 38 ac 3c
       -0.02996426 0.0256293 0.06293932 0.02102299
0000d0 a4 34 5d 3c ca c1 8c bc 49 d0 57 3d 35 1a a6 bb
       0.01350132 -0.01718225 0.05268887 -0.005069042
0000e0 e9 e5 23 bd b9 73 3e bb cf 24 67 3d ed 04 4f 3d
       -0.04001418 -0.0029060675 0.056431588 0.050541807
0000f0 c6 a1 3f bd b6 52 e0 bb 4c a1 9c b8 7b 06 03 bb
       -0.04678514 -0.0068457974 -7.4687036e-05 -0.0019992876
000100 76 cf f0 3c 34 40 26 3c 6a 31 fc 3c 79 12 17 bd
       0.0293958 0.010147143 0.030785281 -0.03688285
000110 52 88 8c 3d 47 7a 09 bd fd b7 43 3d e3 bb 63 3d
       0.068619385 -0.03356388 0.047782887 0.055599105
000120 49 f7 92 3b 11 8b b2 3c c4 79 46 3d fb 27 e5 bc
       0.004485045 0.021794828 0.04845597 -0.027973166
000130 40 17 3e 3c db 6c 9b 3b 9e b3 09 3d 25 fe 37 bd
       0.011602223 0.004743201 0.033618562 -0.044920105
000140 39 06 76 3d 40 ff 8b 3a 21 10 ad 3c a9 eb 34 bd
       0.06006453 0.0010680929 0.021125855 -0.044170056
000150 39 3f 81 3c 89 a5 bf bc d3 82 c6 bc e4 cb 06 3d
       0.015777217 -0.023394363 -0.024232304 0.03290929
000160 82 0b 22 bd 85 e4 b0 bc 93 30 1e 3c 2f 65 95 bb
       -0.039561756 -0.021593342 0.009655136 -0.004559181
000170 74 c8 fd 3c ab 43 d8 3c 43 a1 2c 3d 9b de 59 3d
       0.030979373 0.026399454 0.04214598 0.05319081
000180 dc 65 0a bd 9e 5a 6e 3c 86 fa f7 3c a1 d7 83 bb
       -0.033788547 0.014547972 0.030270826 -0.0040235077
000190 0e 3c f1 bc db e6 4b 3d c4 92 2e bc 55 ea 2c 3d
       -0.029447582 0.049780708 -0.010655109 0.042215664
0001a0 7a 7e 53 3d be 0f 25 3d 1a bc 34 bc b5 c4 27 3c
       0.05163429 0.040298216 -0.011031175 0.01023977
0001b0 36 fb 15 3d 5b 07 ee bc 66 8c 09 ba 8e 50 54 bb
       0.036616527 -0.029056242 -0.0005247056 -0.0032396647
0001c0 f3 fb 52 bd 39 d5 45 bd bf 19 1f 3c 2d 12 89 3b
       -0.05150981 -0.048299048 0.009710728 0.004183075
0001d0 09 95 83 bc aa 74 39 3c c5 29 c1 3c 5e 35 d9 bc
       -0.016062276 0.011319319 0.023579488 -0.026514705
0001e0 86 03 44 bc 9d 39 d5 3c b8 9c 49 bd ca 69 b6 bc
       -0.011963731 0.026028449 -0.049221724 -0.022267241
0001f0 34 08 52 3c 57 2d 2e bd 7a 2c 0d 3b c6 62 0d 3d
       0.012819339 -0.04252371 0.0021541403 0.034518026
000200 0e 96 dd 3c 6e 65 b4 bc cf e3 4c bb b1 d7 42 bb
       0.02704909 -0.022021022 -0.0031263714 -0.0029730613
000210 47 43 54 bc d8 6a e8 3b 8e c4 ff 3c 2a 63 24 bd
       -0.012955493 0.007092815 0.031221654 -0.040133633
000220 98 1a 70 bc 2f bd c9 bb 26 e3 3a bd 77 8f cb bb
       -0.014654778 -0.0061565856 -0.045626782 -0.0062121707
000230 0f ee c8 3b f1 e1 6c bc eb 2a 51 3d cd 7c 94 3b
       0.0061318944 -0.0144581655 0.05106632 0.004531479
000240 9f 3e e1 bc 16 14 34 bd 84 27 57 bc aa a8 7a 3d
       -0.02749568 -0.043964468 -0.01313198 0.061196007
000250 b6 ae 14 bd 26 6e 2f bd 9e 23 62 3b cd d7 16 3d
       -0.03629943 -0.042829655 0.0034506093 0.036826897
000260 24 dd 80 3d 4e bb 4a bd 9a 63 6b 3d ab 34 6f 3a
       0.06292179 -0.049495034 0.057468034 0.00091249746
000270 f3 11 0e bd dd cc f2 bb fd f1 05 bd 6d 48 d7 3c
       -0.034685086 -0.0074096755 -0.03270148 0.026279652
000280 73 24 f9 bb 14 64 07 3d 39 85 b2 bb ae b7 41 3d
       -0.007603222 0.033054426 -0.0054480103 0.04729431
000290 89 2a e5 3b b9 9b 21 3c a7 6a c2 3c 48 1f 2c 3c
       0.006993596 0.009863787 0.023732496 0.010505505
0002a0 90 7e a5 bc f7 56 22 3d 6c 24 35 3d d5 b1 49 3b
       -0.020201951 0.039633717 0.044224188 0.0030776162
0002b0 34 cf 0b bc 30 51 d0 3c a8 fe 0f 3c 1c df d6 3c
       -0.008533288 0.025429338 0.008788742 0.026229434
0002c0 6c 80 2b 3d 50 f2 b1 3b c5 b4 9a bb d8 44 46 bd
       0.04187052 0.005430497 -0.0047212564 -0.0484055
0002d0 f9 55 42 3d 28 0c 18 bd b1 4d 4c bd bd f8 c5 bc
       0.04744527 -0.037120968 -0.04987878 -0.02416646
0002e0 0c 2f d1 3c 5f 72 b6 bb 98 b1 25 bc 27 83 ec 3b
       0.025535129 -0.0055678333 -0.010113142 0.007217783
0002f0 5b 3a ab b9 3d c2 49 3d 0f df e8 3c 55 18 99 3d
       -0.0003265914 0.049257506 0.028426675 0.07475344
000300 71 6b 12 3d 2f 84 1c 3c 88 1f cf 3c 75 57 82 3d
       0.035746995 0.009552999 0.02528359 0.06364337
000310 98 69 94 3d ec 51 55 3d d0 cc 3c bd 65 46 11 3c
       0.07246703 0.05208008 -0.046093762 0.008866881
000320 12 21 41 3d d4 8f 84 bd ad 7e 42 bd 33 cb 82 3c
       0.04715068 -0.064727455 -0.04748409 0.015966034
000330 77 40 c7 bc 96 3a 3b bd 18 63 17 3d 8b 64 22 bd
       -0.024322731 -0.04571017 0.036959738 -0.039646666
000340 d2 25 0b 3d fe c8 2a bc 2f 6d 1a bd 03 f8 58 bd
       0.033971615 -0.010423897 -0.03770178 -0.052970897
000350 cc 53 d5 bc 4b ca 63 bd 74 72 36 bc da ec ea bc
       -0.026040934 -0.055612843 -0.011135686 -0.028677393
000360 c6 de a0 bc d6 13 03 3b f4 f7 1a 3d 30 6b 8b bc
       -0.019637477 0.0020000837 0.037834123 -0.017018884
000370 1f 02 13 3d 1c 25 c1 3c bf 0b 44 bd 28 15 15 3d
       0.035890695 0.023577265 -0.047862764 0.03639713
000380 58 d7 de 3b 43 f9 5f 3d 56 ae 5b 3d b6 fb c3 bc
       0.0068005733 0.054681074 0.053633057 -0.023923736
000390 0f 61 a2 bc c5 bd 09 bd 8b 84 d7 bc 1f 43 d6 3b
       -0.019821672 -0.033628244 -0.026308319 0.006538763
0003a0 10 2f e6 3c 34 d3 13 3d 00 e6 f4 ba 38 10 59 3d
       0.028098613 0.03609009 -0.0018684268 0.052993983
0003b0 c7 23 f3 ba b0 42 1f bd 34 bb 0b bd 9b 3e 96 bc
       -0.0018550091 -0.038881958 -0.034114078 -0.0183404
0003c0 e1 1c 5a 3d 39 76 81 bc a2 e8 2d bd 61 fb cf 3c
       0.053250197 -0.015803443 -0.042458184 0.025388421
0003d0 e7 dd bf 3c 69 40 02 bb 9a 25 00 3d c6 69 86 39
       0.023421241 -0.0019874817 0.03128586 0.0002563728
0003e0 73 e6 89 bc c6 46 f4 bc 83 49 65 bc 9d 5c 49 bd
       -0.01683352 -0.029818904 -0.013994577 -0.04916059
0003f0 84 a6 2f bd 7d 98 26 bd c0 08 12 3d 50 2c 6c 3d
       -0.04288341 -0.040672768 0.035652876 0.057659447

module.conv_6.bias f4 [12]
000000 cc 57 5c 3b af b9 3b bd 9b 99 31 3d d2 62 85 bc
       0.0033621667 -0.04583138 0.04335938 -0.016282473
000010 42 c6 3e bb cf a1 bd 3c 94 31 2e 3d 2e 2a 44 3d
       -0.002910987 0.023148445 0.04252775 0.04789179
000020 71 e0 bc 3c 6e 10 eb 3c e5 6e 08 bd f7 db 1b 3c
       0.02305624 0.028694358 -0.033308882 0.009512893
