models/FSRCNN3D_epoch_70.pth (torch, 265262 bytes, 15 tensors)

module.conv_1.weight f4 [56, 1, 5, 5, 5]
000000 27 76 49 3d 28 c2 81 bd ae bf 8d 3d d7 88 85 3d
       0.049184944 -0.063358605 0.069213256 0.06520241
000010 f3 7f 15 bc c2 b2 16 3d ae bb 4e 3c 03 b1 48 bd
       -0.009124744 0.03679157 0.0126179885 -0.048996937
000020 58 d5 6f 3d d1 4e 78 bd df a9 66 3d 09 9a b0 3c
       0.05855307 -0.06062204 0.056314345 0.021557825
000030 76 4a a4 3d 43 99 1e 3c 25 8a 7c 3b af 59 c9 bc
       0.08022015 0.009680095 0.003853449 -0.024578897
000040 89 39 6b 3d ad 84 b4 3c 07 c8 6c 3d 4e 0e a0 bd
       0.057427917 0.022035921 0.05780795 -0.078152284
000050 be a0 bf 3d f6 13 87 3d 31 8c 95 3d 51 6d 58 bd
       0.09356831 0.06595604 0.0730213 -0.052838627
000060 de a3 0f bc c1 a7 00 bd ce 4d 51 3b 5d 6c be 3d
       -0.008767096 -0.031409983 0.0031937244 0.092980124
000070 bf 81 52 bd 2e eb 7a 3b 34 0f ac 3a da 45 6e bd
       -0.051393267 0.003828715 0.001312709 -0.058172084
000080 e9 f0 ee bc 12 90 55 bc 64 0f 2c bd 8f 1c 8e bd
       -0.02916761 -0.013034837 -0.042006865 -0.06939041
000090 bd d7 ea bc f3 b6 2c 3d 43 4c 56 bc 71 b8 82 3d
       -0.028667325 0.04216666 -0.013079706 0.06382836
0000a0 30 ed eb bc 78 a0 a0 bd 91 38 8a 3d ce 04 13 bd
       -0.028799623 -0.07843107 0.067490704 -0.035893254
0000b0 4b d4 70 3d 0a 8a 84 bd 6e b3 c3 3d a3 10 bf bc
       0.05879621 -0.06471641 0.09555708 -0.023323363
0000c0 b5 13 3a 3d 69 45 4f bd ef 9e 88 3d fb a5 a1 bd
       0.04542895 -0.050603304 0.06670939 -0.078929864
0000d0 2c ac 62 3d d4 a1 77 bc f0 d0 79 3d 05 f9 9c 3d
       0.055339977 -0.015114266 0.060990274 0.07664684
0000e0 55 ab 49 bb 53 92 91 3d 71 59 25 bd 4b 30 3f bd
       -0.0030772288 0.07107987 -0.0403685 -0.046676915
0000f0 5e d6 33 3c ae 40 b7 bd 94 2c 3a 3d ab 9d f0 3c
       0.010976402 -0.089478835 0.04545267 0.029372057
000100 cf f4 40 ba 55 e4 49 3d 01 bd 87 3d 4b 1e ed 3b
       -0.0007360698 0.04929002 0.066278465 0.007236277
000110 f9 de 7e 3d c3 11 04 3c 76 f7 cb 3c 5e 0a 7b 3d
       0.062224362 0.008060875 0.024898272 0.061289184
000120 06 0c cc 3b 7c f5 48 3d 9d f5 76 bc c7 10 61 bb
       0.0062270192 0.049062237 -0.015073207 -0.0034342275
000130 49 69 80 bd 41 a6 f7 3c 10 b4 18 bd 2b 1b c3 bd
       -0.062700815 0.030230643 -0.037281096 -0.09526666
000140 ea 87 8c 3d e9 0d 82 3d 69 ff d5 3d 46 c1 14 3d
       0.06861861 0.063503094 0.10449106 0.036317132
000150 d5 09 4c bd b6 13 88 3d 18 7a e6 bc 21 c8 e1 bb
       -0.049814064 0.066443846 -0.02813439 -0.0068903123
000160 31 f4 12 bd d4 62 ba bd 6a 70 49 bd 55 b2 5b bd
       -0.03587741 -0.09100881 -0.049179472 -0.053636868
000170 f8 07 82 bd a8 70 bf bb 88 a9 78 bd ef 16 e7 3c
       -0.06349176 -0.005842287 -0.060708553 0.028209178
000180 e9 25 4d bd f3 85 99 bc 28 f5 a3 3d 7e 9c b3 3d
       -0.050084982 -0.01874063 0.08005744 0.08770083
000190 38 b8 90 bd 07 36 75 3c 0f e4 2f bd 44 0d c7 bd
       -0.07066387 0.014966494 -0.042942103 -0.09719327
0001a0 1f 32 18 3c a4 7a 0c bd 15 91 b1 3d 87 fd c4 3d
       0.009289294 -0.034296647 0.0867025 0.09618669
0001b0 5f 34 66 3d 05 af 38 3d 89 15 98 bd 63 bd 54 3d
       0.05620229 0.045088787 -0.074259825 0.051938426
0001c0 0e e1 90 3d 60 93 9c 3d 63 d9 21 3d 69 f6 28 bb
       0.07074176 0.07645297 0.039513957 -0.0025781638
0001d0 25 c7 65 bc ea 2b 63 3c 09 04 a7 39 18 ff b7 bd
       -0.014024531 0.01386545 0.0003185573 -0.08984202
0001e0 9a eb 73 bd fd dd 0d bd 60 91 8e bc 09 b3 60 bd
       -0.05955086 -0.034635533 -0.017403305 -0.05485824
0001f0 6b ff 31 3d 25 03 87 ba ad c8 b6 3d 5d ad 71 3d
       0.043456476 -0.001030062 0.089249946 0.059003223
000200 8b f6 1c bd 4a d6 c4 3b 94 d8 e8 3c 69 c4 bd 3d
       -0.03832106 0.0060069906 0.028423585 0.09265978
000210 5c eb c6 bc 76 df 31 3d 5b ef 2d 3d 6a 00 b4 3d
       -0.02428215 0.043426 0.042464595 0.087891415
000220 3b ca 31 3d 2a d9 93 bc e0 52 72 bd 44 5d e6 3c
       0.043405753 -0.018047888 -0.059161067 0.028120644
000230 9f 77 48 bd e6 b0 e0 3c 2a 8d b4 3d 81 87 74 bc
       -0.048942205 0.027428102 0.088159874 -0.014924885
000240 c6 89 60 bd 1a 17 66 bd f5 35 1c bd c0 b3 9e 3c
       -0.05481889 -0.056174375 -0.038137395 0.01937282
000250 ff 57 93 bd 8e 3a b4 3b d1 5a 72 3d 32 f9 b8 bc
       -0.07194518 0.0055001443 0.05916864 -0.022579763
000260 33 62 84 bd 62 8f b6 bd c5 87 5a 3d 0a 7d 06 3c
       -0.064640425 -0.08914067 0.053352136 0.008208523
000270 42 08 1c 3d 8b 05 bc bd ef d1 4c 3d 5d 6d 11 bd
       0.038093813 -0.09180745 0.050004896 -0.035504688
000280 eb 0a ba 3d 82 7e 8c bd 2f cd b7 bd 68 11 b9 bd
       0.09084114 -0.06860067 -0.089746825 -0.09036523
000290 30 9c 81 bd 4a 42 e5 bc e3 37 8a bd 18 d6 7b bd
       -0.063286185 -0.02798571 -0.06748941 -0.061483473
0002a0 bc d4 24 bd 87 c2 99 3d 7c 1b 1e 3d 86 a9 07 3d
       -0.04024194 0.07507806 0.03860043 0.033120655
0002b0 59 fa 9f bd 18 22 09 3d 70 99 0a bb 9d ca 04 3d
       -0.07811422 0.03347978 -0.0021148585 0.03241979
0002c0 f8 c5 8f bd e6 14 ef 3a 54 b4 ea 3c ff 06 bd bc
       -0.070201814 0.0018240481 0.02865044 -0.023074625
0002d0 d5 4b 85 3d 3c 5f d5 3c 96 3a 3a bc 2b 8a 96 bd
       0.065086044 0.026046388 -0.011366507 -0.07350572
0002e0 4c 76 ad bd 6b 31 d5 bc fa 19 e6 3b 52 1c ca bd
       -0.08469829 -0.02602454 0.0070221396 -0.09868683
0002f0 7c 57 fb bc c0 18 69 3d 8d c5 03 bd b7 72 90 bd
       -0.030681364 0.05690837 -0.03217082 -0.0705313
000300 16 0c 8d 3d ec 86 7f bd 9e 60 d2 b8 4f b9 2b 3c
       0.06887071 -0.06238453 -0.00010031577 0.010481193
000310 67 a0 35 3d 9e 63 34 3d ea a4 6c 3d a0 2f 19 3d
       0.044342425 0.044040315 0.05777446 0.037398934
000320 46 5c bf 3d 32 3f 83 3d 96 26 60 3d c2 6e 87 bd
       0.09343772 0.06408538 0.0547243 -0.06612922
000330 b0 0d 82 3d fe c9 92 bd ae f2 a0 bc c7 de be bc
       0.06350267 -0.07167433 -0.019646969 -0.023299588
000340 1b 73 54 3d 9a 23 83 bd b1 6f 00 3d 26 7b 32 3d
       0.051867586 -0.06403275 0.031356517 0.043574475
000350 0a 44 6f 3d 09 49 84 3d e3 97 80 3d cd a6 ad 3d
       0.058414496 0.06459243 0.0627897 0.0847908
000360 8d 09 b6 3d f0 86 8c 3c d8 c1 74 3d 83 d6 a8 bd
       0.088885404 0.017154187 0.059755176 -0.0824404
000370 c5 39 1d 3d f7 de 15 3c 77 71 79 bd f0 28 9e 3d
       0.03838517 0.009147397 -0.060899224 0.07722652
000380 2c 75 4f bd f5 4c 84 bd 2a 91 23 bd 8e c9 8f bd
       -0.050648853 -0.06459991 -0.03993336 -0.070208654
000390 07 81 f4 bb 9c 90 af 3d 3e 31 18 3c a6 3a d2 3d
       -0.0074616703 0.08572504 0.009289084 0.102650926
0003a0 a8 ce 9f bd af 3c 44 bd c1 84 62 bd b6 f6 a2 3d
       -0.078030884 -0.047909435 -0.055302385 0.079572126
0003b0 63 d0 d6 3c 26 c0 45 3d 43 e9 36 3d 08 da 33 3d
       0.026222413 0.04827895 0.04465605 0.043909103
0003c0 90 7d 4b 3d 95 7f 50 3d 93 dc c7 3c a3 bb 05 bd
       0.049680293 0.05090292 0.02439717 -0.032649647
0003d0 5f bf a9 3d f6 b6 8f bc 27 c0 79 bd fa f2 3a bd
       0.08288454 -0.017543297 -0.060974266 -0.045641877
0003e0 4e 40 85 3b 63 82 a8 bd c8 1a fa ba 32 1d aa bc
       0.0040665036 -0.08227994 -0.0019081468 -0.020765875
0003f0 e0 94 36 bd ad a1 47 bd c1 9e b7 3d 07 0c aa 3b
       -0.044575572 -0.04873817 0.08965827 0.005189422

module.conv_1.bias f4 [56]
000000 7a 31 92 3c 46 2f 2d bb a4 29 9d 3d a3 5c 6e 3d
       0.017845858 -0.0026425882 0.07673958 0.058193814
000010 a0 84 62 ba 85 90 59 3d 17 44 8f bd 8a f1 34 bd
       -0.00086409785 0.05311634 -0.06995409 -0.044175662
000020 d5 be e3 bb e7 98 68 bb 25 1f 72 3d 6b 7d 5a 3d
       -0.006950239 -0.0035491528 0.059111733 0.053342264
000030 bc b1 72 bd 34 6f b8 bc b3 9e e2 bc 41 6e 5e bd
       -0.059251532 -0.022513963 -0.027663564 -0.054304365
000040 7f 78 f5 3b 41 3f 8d 3d 80 fb 94 bc 6e d9 43 3d
       0.007491171 0.0689683 -0.01818633 0.04781478
000050 ef b5 96 3d 30 da f7 3c 70 33 d0 3c 78 df 48 3d
       0.0735892 0.030255407 0.025415152 0.04904124
000060 de 75 72 bc ba 19 49 bc c4 ad 2c bd 18 cf a4 bc
       -0.01479861 -0.0122742 -0.042157903 -0.020118281
000070 7b e0 11 3d 20 e5 82 3d ef 8b 8e 3d f5 79 de 3b
       0.035614472 0.063913584 0.06960284 0.0067894408
000080 cd bc ee b9 cd 89 33 3d 5b d9 fd 3c 96 58 06 bd
       -0.00045535565 0.04383259 0.030987432 -0.032799326
000090 98 ec c3 bc 84 d1 47 3d 4f 3b 00 3d c1 64 8d 3d
       -0.023916528 0.048783794 0.03130656 0.06903983
0000a0 d6 b9 1f 3d b0 f3 a3 3d 52 62 75 3d 9f 8b 5d bd
       0.038995586 0.08005464 0.05990822 -0.05408823
0000b0 ed d6 26 3c 4a 26 9b bd f0 8f c0 3c de b9 5b 3d
       0.010183078 -0.075756624 0.023506135 0.053644054
0000c0 ad 6e 78 bd 98 e3 17 bc c8 db 31 3c 4b bf ce 3c
       -0.060652424 -0.009270571 0.010855623 0.0252377
0000d0 0f 69 d2 bc 3d 12 ca 3d 36 c5 ea bc ad e7 af 3d
       -0.025684861 0.0986676 -0.02865849 0.085891105

module.conv_2.weight f4 [12, 56, 1, 1, 1]
000000 a9 42 d1 3d 0d 1a 47 3e 99 c5 89 bd ed 48 a7 bd
       0.102177925 0.19443531 -0.06727142 -0.08168206
000010 23 04 1b 3e cc 26 64 3d 02 a4 a1 3c 07 22 87 3c
       0.15138297 0.055701062 0.019731525 0.016495718
000020 43 af 6b bc 99 4d 97 3d 68 cc c1 bd b5 7f 7f 3d
       -0.014385047 0.073878475 -0.094628155 0.06237765
000030 d4 1b ed 3d da 69 5e bd c7 9c 8c 3d cd a2 a1 bd
       0.115775734 -0.054300167 0.068658404 -0.0789238
000040 e6 b7 be 3d fa 73 a8 bc 7e eb e2 bd fa d4 1a 3d
       0.093124196 -0.020563114 -0.11080073 0.037800767
000050 5c cb eb bd 40 b9 83 3d e1 b8 c1 3d 81 d5 b0 3d
       -0.11513397 0.06431818 0.09459091 0.08634473
000060 00 68 7e bd b2 19 3d bd be 89 a8 bc c8 dc f2 3b
       -0.0621109 -0.046167083 -0.020573493 0.007411573
000070 78 e4 d6 bc 71 0c de 3d 40 24 f9 3c b9 44 58 bd
       -0.02623199 0.10842217 0.030412793 -0.052799914
000080 99 4f 14 be 16 a6 96 3d 28 a1 e6 bd 12 38 83 3d
       -0.14483489 0.07355897 -0.11261207 0.06407179
000090 ba 64 7f 3d 66 99 93 bd 74 47 90 bc 93 9b 41 3e
       0.06235192 -0.07206993 -0.017612197 0.18907003
0000a0 6e 26 92 3d 46 73 09 3e f6 a6 bc 3d 33 59 1c be
       0.07136236 0.1342288 0.09211533 -0.15268402
0000b0 14 ec 18 3e 32 b6 6c 3d b1 f8 41 bd 1d 74 01 3e
       0.14933807 0.057790942 -0.04735631 0.1264195
0000c0 e2 64 4f bd 03 a5 4c 3d e8 84 0f 3b 7a 94 3c 3d
       -0.05063332 0.049962055 0.0021899287 0.046040036
0000d0 46 29 fb 3d 4b ec 46 3d 4d 2a 8e bd 39 db a7 3d
       0.12263732 0.04856519 -0.06941662 0.0819611
0000e0 64 30 d2 bc 8c e0 2b bd d7 d2 db 3d 49 c2 a5 bd
       -0.02565784 -0.04196219 0.10733574 -0.080936976
0000f0 12 49 14 be 12 80 b6 3b f6 0b 12 3a e6 cb 9c 3b
       -0.14480999 0.0055694664 0.00055712403 0.004785049
000100 b2 de 92 bc 8f ee b5 3d 4d 2d 11 be db 2d e2 bd
       -0.017928455 0.08883392 -0.14177437 -0.110439025
000110 eb 0a d6 3d d9 ab 06 bd b2 43 fc 3d cb 9a 4c 3c
       0.10451301 -0.03287873 0.12317599 0.012488077
000120 e9 ee 04 3d 51 2e a4 3d c3 66 16 3d 7b 2c a6 3d
       0.032454405 0.08016647 0.036719095 0.08113953
000130 9a e1 03 3e d8 34 48 bd 4f ea 59 3d 67 5b ad 3d
       0.12879029 -0.04887852 0.05320197 0.08464699
000140 ff a3 d1 3b e3 df 04 3d 56 fb ba 3d 47 fa b2 3d
       0.0063977237 0.032440078 0.0912997 0.08739143
000150 b5 bd bf 3c f8 ce 9d 3d 7d 88 c7 3d 48 0d f2 bd
       0.023405889 0.07705492 0.0974283 -0.118189394
000160 45 e1 c7 bd 97 80 64 bd 7b 1f 3d bd 8d 11 1c bd
       -0.09759764 -0.055786695 -0.0461726 -0.038102675
000170 e8 0c 83 bd 62 7b 10 3d ed 9e d2 3d 0c a7 04 be
       -0.06398946 0.035273917 0.10284219 -0.12954348
000180 fb 6b 55 3d 04 4d f4 3d 78 b2 94 3d 9a 32 28 3d
       0.05210493 0.11928752 0.07260603 0.041063882
000190 6a c9 b9 3d fd b4 12 3e d7 bd be bd cc 86 c5 3c
       0.0907162 0.14326854 -0.09313553 0.024112128
0001a0 4b 4e 82 3d 68 83 55 3e 20 98 fa bd 23 22 25 3d
       0.063625894 0.20850909 -0.12236047 0.04031576
0001b0 e9 f3 a5 bc 84 61 43 bd b1 88 98 3d ee 76 0a 3e
       -0.020257907 -0.04770042 0.07447947 0.1352193
0001c0 a3 df 41 3d 8c 0f 7f bd 42 21 38 3d ca c7 57 3d
       0.047332417 -0.062270686 0.044953592 0.052680768
0001d0 57 71 a3 bd 35 28 6f 3d ec 3a d5 bd d4 aa da 3a
       -0.07980602 0.058387954 -0.10411629 0.0016682991
0001e0 8e 6a d7 3d 19 11 0f 3e e3 80 b1 bc ad 03 47 be
       0.105183706 0.13971366 -0.021667903 -0.19434996
0001f0 a4 e5 53 3d bb 0c f5 bc bc 56 79 bd fb ae 59 3d
       0.051732674 -0.029913297 -0.060873732 0.05314539
000200 90 be 88 bb 55 1a c1 3d b0 4d fb bd 96 65 0e 3d
       -0.0041731074 0.094288506 -0.12270677 0.03476485
000210 54 79 e4 3d 76 e3 db bc 9e ff a6 bc e4 22 d1 3d
       0.11155954 -0.02684186 -0.02038556 0.10211733
000220 74 ef 18 be 1c 77 e2 3d aa 95 ec bd 5c 5d 9a 3d
       -0.14935094 0.110578746 -0.11551984 0.07537338
000230 4f 16 06 3e 6c 3d 89 bd 27 99 b8 3d f6 c3 24 bd
       0.13094448 -0.067011684 0.090135865 -0.040225945
000240 00 6a 06 3e 29 48 26 be da 0e d4 bd 11 38 05 3e
       0.13126373 -0.16238464 -0.10354395 0.13009669
000250 7a 7e 01 3e d3 7b 53 bd e8 e3 98 3d 41 7f 08 bd
       0.12645903 -0.05163176 0.07465345 -0.033324484
000260 59 53 c5 ba d1 33 f3 bd d6 53 88 bd 9e 0e 22 3c
       -0.0015054747 -0.118751176 -0.066566154 0.00989118
000270 3a 57 a1 bd 3a 8b 4a 3d 25 1e e1 3c 9a dd 2a bd
       -0.07877965 0.049449183 0.027480194 -0.041715242
000280 81 89 db 3c 9d f0 33 bd d6 34 8a 3d 86 7f c0 bb
       0.026798965 -0.04393064 0.06748359 -0.005874577
000290 a2 88 af 39 25 75 c7 3d 64 0c 6a bd 40 d3 73 bd
       0.000334804 0.097391404 -0.057140723 -0.059527636
0002a0 f3 5f 33 bd ac fc c6 bd 77 b7 6b 3d cf f3 72 3d
       -0.043792676 -0.09716162 0.057548013 0.059314545
0002b0 ea 5b 6e bc 90 63 7a bd b0 08 0c 3c ec 99 a6 3d
       -0.014548281 -0.061130106 0.008546993 0.08134827
0002c0 1e 06 1b bd de 7e a5 bd c0 46 6d 3d 0f c8 04 be
       -0.03784763 -0.080808386 0.0579288 -0.12966941
0002d0 92 4f 93 bd aa bc 96 3d b0 4d e1 bc a3 a7 92 3d
       -0.07192911 0.073602036 -0.027502865 0.071608804
0002e0 ce e5 93 3d cb 70 db bc 6c 9f 0f bd 37 2b 18 bd
       0.07221566 -0.026787182 -0.035064146 -0.037150588
0002f0 6a 81 fe bc 64 79 1a bc 24 2e 12 3c c3 ba d6 3d
       -0.031067569 -0.009428356 0.008922134 0.10484841
000300 29 6a 95 bd a1 b7 31 3d 2c 9f 9a bd 6b 2b db bd
       -0.07295639 0.043388013 -0.07549891 -0.10701641
000310 2f 47 e5 3d 87 d3 8a bd de 26 d6 3d 96 e0 ae 3d
       0.11195218 -0.06778627 0.10456632 0.0853893
000320 3d c7 e2 bd b9 3d 22 bd db 37 6a bb 62 4c bc bd
       -0.11073158 -0.039609645 -0.003573886 -0.09194256
000330 1c b0 e8 3b 65 49 d0 3d 88 d4 00 3e 86 b5 83 bd
       0.007101072 0.10170249 0.12581074 -0.06431107
000340 1b 07 dc 3d d9 b2 93 bd 70 b9 68 bd cb ad de bd
       0.10743543 -0.07211847 -0.056817472 -0.10872992
000350 44 62 a6 3d 01 cb d3 3d 4c cc 4c 3b 4c ef 88 3d
       0.081242114 0.10341454 0.00312497 0.06686267
000360 fb 92 59 3b b1 17 f8 3d 4c 3c 3e 3d 43 bc 54 3c
       0.003319918 0.12113894 0.046444222 0.012984338
000370 e5 7b eb bd ee 6a 0d 3e 11 13 0d 3e 67 cf f5 bd
       -0.114982404 0.13810322 0.13776805 -0.120024495
000380 08 f3 81 3c 07 73 02 3d b4 b9 1d bd 32 9c e8 bc
       0.015862957 0.03184798 -0.03850718 -0.028394792
000390 b8 54 a3 3d 81 70 53 3d 54 9d ad b9 bc 02 8f 3d
       0.07975143 0.051620964 -0.0003311435 0.069829434
0003a0 08 27 c8 3d c5 52 ff bc d9 fd ec bc a0 9c c8 3d
       0.097730696 -0.031167397 -0.028929638 0.09795499
0003b0 7f c2 bf 3d 10 b3 5b bc 9d 0b 98 bd a8 c9 da bd
       0.09363269 -0.013409391 -0.0742409 -0.10682994
0003c0 28 6d 4d 3d a2 65 03 be c4 98 0a 3e 00 7e dd bd
       0.050152928 -0.12831739 0.13534838 -0.10815048
0003d0 89 8d 8e bd be 98 55 3c 67 0a af 3d cc 74 91 bc
       -0.069605894 0.013036905 0.08546906 -0.017755888
0003e0 8e af b0 bd e9 db c2 bd c2 95 c2 3c ae ee 98 3d
       -0.086272344 -0.09514601 0.02375305 0.074673995
0003f0 e4 3e ba 3d 27 b4 ae bd be 70 92 3d fe cc c2 bd
       0.09094027 -0.08530455 0.0715041 -0.095117554

module.conv_2.bias f4 [12]
000000 73 49 2b bd cc 0f d1 bd 5a c9 88 3d fd f3 5c bd
       -0.041818094 -0.10208091 0.0667903 -0.053943623
000010 bc 57 ed 3d 53 5f 1e 3d b8 2c fb 3a a0 b4 a5 3c
       0.11589 0.038665127 0.0019163107 0.02022773
000020 c8 9b a6 bd 2a bf 33 3c 5d bd fe bd f1 8a 83 3c
       -0.08135182 0.01097087 -0.12438462 0.016057463

module.conv_3.weight f4 [12, 12, 3, 3, 3]
000000 cd 0d 57 bd ec e6 4b 3d 5e d8 ab 3c e0 8f cb 3a
       -0.052503396 0.04978077 0.020977195 0.0015530549
000010 e6 8c 91 bc c2 da c7 3c 27 5d c2 3c 7c 82 f9 bc
       -0.01776738 0.024396304 0.02372606 -0.030457728
000020 b7 06 62 bd a7 b8 07 3b 74 a2 14 3d 1c 50 b6 bc
       -0.055182185 0.0020709427 0.03628774 -0.022254996
000030 a5 57 6f bd b6 3c 1c 3d e0 db 54 bd 85 e0 58 3d
       -0.058433194 0.038143836 -0.0519675 0.052948494
000040 41 8d 83 3c 32 ea 2b 3d 11 78 3c bd 9a 08 91 3c
       0.016058566 0.041971393 -0.04601294 0.017704297
000050 6b 2f dc bb 7e 66 24 3d 07 99 0b 3d 23 32 e1 bc
       -0.00671952 0.040136807 0.034081485 -0.027489727
000060 aa e1 07 3c 36 3c 71 3d ab 1b 9f 3c f1 48 fc bc
       0.008293549 0.058895312 0.019422373 -0.0307965
000070 0f 23 49 3d 4e 0d 03 3d 10 75 59 bd 14 e1 a7 3c
       0.0491057 0.03199511 -0.053090155 0.020493068
000080 8a d9 c3 3b 19 66 c5 3c 22 ae ee bc 08 57 5b 3c
       0.0059768604 0.024096536 -0.029135767 0.013387449
000090 51 bb e7 bc 3d aa 99 3c d5 71 6e bb bf 61 70 bc
       -0.028287562 0.018757934 -0.0036383767 -0.014671742
0000a0 dc 87 f5 bc 58 16 98 3c 62 01 2f bb e1 fe bd 3c
       -0.02997201 0.018565342 -0.0026703705 0.023192825
0000b0 08 f3 cf bb b3 0a c8 3c 25 77 a5 bc 9d c5 42 3c
       -0.0063461103 0.024419164 -0.020198414 0.011887935
0000c0 0e 20 6d 3c 40 2f ea 3c b7 5e 3b bd a3 ea 14 3c
       0.014472974 0.028586984 -0.045744624 0.009089145
0000d0 f0 07 53 bd 6f 24 ad bc 4e 36 bd 3c 2c 08 4a 3d
       -0.05152124 -0.021135537 0.023097184 0.0493242
0000e0 8c 2b e8 3b 71 b1 ce 3c bc 78 27 3d fd 14 14 bc
       0.0070852693 0.025231095 0.040886626 -0.009038207
0000f0 62 8c 1d bc 53 dc 95 bc c2 a6 6b 3b f7 e5 31 3d
       -0.009615989 -0.018293535 0.003595755 0.043432202
000100 91 d5 07 3d 14 7b 5d 3d b1 f2 60 bd 59 11 e3 3c
       0.033162657 0.054072455 -0.05491895 0.027718233
000110 b3 08 0a 3c b8 0f b2 3a 37 11 23 3c 9f bf b8 bc
       0.008424926 0.0013585007 0.009952835 -0.02255231
000120 ef 21 fa bb 40 29 34 3d 7f e3 4d bd 3a 48 5f bd
       -0.0076334397 0.04398465 -0.050265785 -0.05451224
000130 87 f1 ce ba 37 1a 80 bb 91 a3 05 3a 79 f7 2c bd
       -0.0015788533 -0.003909375 0.00050979207 -0.042228196
000140 b0 83 1b 3d 04 3a 33 bc ef 3c f2 bc 85 41 0a bc
       0.037967384 -0.010939125 -0.029570071 -0.008438473
000150 19 d8 06 3d d6 5c 04 3d 70 f6 14 3d ba 06 3f bd
       0.03292093 0.032315098 0.036367834 -0.046637274
000160 d5 b6 30 3d 7c 93 d1 3b bf 57 ad bc 7d 52 b2 3c
       0.043143112 0.0063957553 -0.021160005 0.02176785
000170 db c4 53 bd e8 f9 bb 3c a4 4a 6d 3c 6b ac 38 3d
       -0.051701408 0.022946313 0.014483128 0.045086306
000180 f8 c6 24 3d 9a d9 49 bd 47 e3 50 bd 9e 86 1f bc
       0.040228814 -0.049279787 -0.050998 -0.009736685
000190 de c2 af bc 5a cd d2 bc 3f 13 b6 3b 01 a3 db bc
       -0.021455225 -0.025732685 0.0055564935 -0.026811125
0001a0 51 ed 61 bc 77 8d 22 bd f6 55 66 3d 2b c4 23 3d
       -0.013789491 -0.039685693 0.056234322 0.039982002
0001b0 6c ed 41 3d e5 0a 47 3d 51 67 ac 3c 1d e7 39 bd
       0.047345564 0.048594374 0.021045359 -0.045386422
0001c0 23 9b bd bb 35 74 10 3d db d9 5f bd f2 b6 46 3d
       -0.005786316 0.035267074 -0.054651123 0.048514314
0001d0 95 8a 0a 3d 91 e5 5d bd 80 b4 1e bd 5e 60 03 bc
       0.03382357 -0.05417401 -0.038746357 -0.008018581
0001e0 b9 d1 2b bd d2 a2 67 3c 94 c3 de bc 79 5c 2c 3d
       -0.041948054 0.0141379405 -0.027192868 0.042080376
0001f0 20 55 23 bd b6 38 35 3c c7 24 42 bd b2 2a be bb
       -0.039876103 0.011060884 -0.047398355 -0.0058034295
000200 ab 6c de bc 1b bd 4f 3d 0b c1 c7 3c f5 35 e0 bc
       -0.027151426 0.050717454 0.024384042 -0.027369479
000210 5b 2b e9 3c 85 9d 59 bd 66 17 c1 3c 7e 80 66 bb
       0.028463056 -0.053128738 0.023570728 -0.0035171802
000220 63 ec 51 bd 14 57 3a 3d 40 8d 2e bd bd be f8 3c
       -0.051250827 0.0454932 -0.042615175 0.030364389
000230 da 6b 60 3c cd 93 25 bc 6f 39 2b bb 1a 26 9d bb
       0.013697589 -0.010106039 -0.0026126762 -0.004795802
000240 f8 38 c7 3b e6 83 3f bd 85 0f dc bc 19 5e 65 bd
       0.0060797893 -0.046756648 -0.026862869 -0.05599794
000250 d5 8c 92 bd a3 2f 91 bb 9b b5 8d bc bc 67 a2 bc
       -0.07155768 -0.0044307276 -0.01729851 -0.019824855
000260 5a 67 8a 3c 2d 38 26 3c 92 72 cb 3b 9b 8d b0 ba
       0.016894985 0.010145229 0.006208726 -0.0013469936
000270 03 57 e8 3c 6b 8c a4 bc d7 cc 39 bd 04 c7 ab bc
       0.028361803 -0.020086488 -0.045361366 -0.020968921
000280 ff 79 2f bc 71 d6 88 3d 92 57 91 3c 80 cb 47 3d
       -0.0107102385 0.066815265 0.017741952 0.048778057
000290 a7 30 27 bd d6 d7 37 3d e4 b6 b7 3c 23 96 5d 3d
       -0.040817883 0.04488357 0.022426076 0.05409826
0002a0 58 93 b7 bd 7b 0d a7 bd 02 a0 02 bd 8f 1c fd 3c
       -0.089636505 -0.08156868 -0.031890877 0.030897407
0002b0 17 fe ee 3c 1d 18 31 39 8d bb 2c bd 7f 4b dc bc
       0.029173894 0.00016889018 -0.04217105 -0.026891468
0002c0 76 14 42 bd cf 14 89 3c 8c 19 72 bd d3 bc a9 bc
       -0.047382794 0.016733555 -0.059106395 -0.020719921
0002d0 92 6b 0c 3d 00 b4 14 3d 18 1c 0a bd 9d 7f ba 3a
       0.034282275 0.036304474 -0.0337182 0.0014228706
0002e0 b9 88 07 3c 7c 21 73 bb 12 7d ab 3c 32 0f 95 3c
       0.008272343 -0.0037098816 0.020933662 0.018195722
0002f0 4f d7 81 3d 6c 9b b8 3c 90 a5 8f ba 1e 3f a8 ba
       0.06339895 0.022535048 -0.0010959376 -0.0012836193
000300 a9 87 e3 bb 36 bb 03 3d 20 1d 6f bd 57 22 2b bd
       -0.006943662 0.03216096 -0.058377385 -0.041780796
000310 52 5f 06 bd 60 6a c9 bc c4 1f d4 3c d4 7f bb 3b
       -0.03280575 -0.024586856 0.025894053 0.0057220254
000320 df c5 2a 3d ef 47 60 bc 2c e5 a3 3c d7 f7 37 3d
       0.04169261 -0.013689025 0.020006739 0.044914093
000330 2c 92 23 bd b9 0f 03 bd 40 b8 53 3b 98 07 09 3d
       -0.039934322 -0.031997416 0.0032305866 0.033454508
000340 1d d3 9f 3c c3 9f 14 3d 06 a2 5f bc cc a8 da 3b
       0.019509846 0.036285173 -0.013649469 0.006672954
000350 ef c6 80 bb 9f 13 4b bd 52 db 97 bc 65 49 14 3d
       -0.0039299647 -0.04957926 -0.018537197 0.036202807
000360 2e 97 14 bd 7d 6d c4 3c bd 51 39 3c db 6e 59 3d
       -0.03627699 0.02397799 0.011310992 0.053084236
000370 07 15 a4 3c 1b 33 bd 3c ea 7b 8c bc fd 9d 2c 3d
       0.020029558 0.023095658 -0.01714893 0.042142857
000380 a0 bc 13 bd 95 37 02 bc 72 d6 25 bd 4a 66 0b 3c
       -0.03606856 -0.007947822 -0.040487714 0.008508274
000390 ff be e4 3c a5 c3 b7 b9 39 a6 cc 3c d2 f9 fd bc
       0.027923105 -0.00035050247 0.024981605 -0.031002913
0003a0 8b e2 4d 3d 15 be 42 3d be 71 c7 3b 62 be c6 bc
       0.050264876 0.047544558 0.006086557 -0.024260703
0003b0 5e 5c 93 3c 24 b9 52 3d 8b 77 62 bd 87 db 5d 3d
       0.01798838 0.051446095 -0.055289786 0.054164436
0003c0 55 2d 26 3d 71 bb d5 bb 62 57 30 bd 1a 79 73 bc
       0.040570576 -0.006522589 -0.043052085 -0.014860416
0003d0 13 48 97 bb 4c 1c 8c bb 01 37 d3 3c d6 01 15 3d
       -0.004616746 -0.004275834 0.025783064 0.036378704
0003e0 cc 6c 25 3d 54 32 55 3c 16 16 08 3d b7 6c d9 3b
       0.04038696 0.013012487 0.033224188 0.0066352743
0003f0 46 bc 9f 3c 35 62 a8 3b d3 74 27 ba f5 22 dc 3b
       0.019498955 0.0051386603 -0.00063879526 0.0067180344

module.conv_3.bias f4 [12]
000000 4d 71 dd ba aa c0 38 bd 38 90 1f 3c d7 2d 58 bc
       -0.0016894728 -0.045105614 0.009738974 -0.013194523
000010 e9 43 38 bd 84 b9 ca bb e5 41 66 3d cf b1 2b 3d
       -0.04498664 -0.006186666 0.056215186 0.04191762
000020 07 42 b5 bc 19 3b 66 39 a3 9a f9 bc 37 a9 68 bc
       -0.02212621 0.00021956525 -0.030469244 -0.0142005

module.conv_4.weight f4 [12, 12, 3, 3, 3]
000000 42 93 0c 3d 2c 20 3c 3d 03 6e 80 3b 1b 2c 5b ba
       0.034320123 0.04592912 0.0039193644 -0.0008360759
000010 cf d0 26 bd 48 38 4f bd 34 f3 e5 3b bd be 82 3c
       -0.04072648 -0.050590783 0.0070175175 0.015960092
000020 32 0c 7c bb 54 11 0d 3d 95 d5 42 bd 8e 2d 53 bd
       -0.0038459417 0.034440354 -0.04756697 -0.051557116
000030 49 b9 46 3d 1a f8 22 3d 4d 1e 07 3d 1f 55 0e bc
       0.048516545 0.03978739 0.03298788 -0.008687287
000040 09 d5 d8 39 3f ae 09 bd 89 f8 45 3d d3 a4 4e bd
       0.00041357454 -0.03361344 0.048332725 -0.050450157
000050 c6 1a 2e 3d 56 c8 04 bc ae 93 ba 3c 05 b8 49 bd
       0.042506002 -0.008104404 0.022775497 -0.04924776
000060 66 b6 1e bd d3 d1 cc 3b 3a ac a1 ba e0 2e 1c 3d
       -0.038748167 0.006250599 -0.0012334653 0.03813064
000070 d1 53 e5 bc 81 e0 ef bc 01 d0 3e 3d 71 04 c9 bc
       -0.027994068 -0.029281856 0.046585087 -0.02453825
000080 d5 d8 68 3c 8a 57 c7 bc fd f4 b1 bc b3 1d 8d bb
       0.014211853 -0.024333734 -0.021723265 -0.004306519
000090 56 e0 bf 3c 67 0d a3 bc 65 c3 a6 bc 68 92 5a bc
       0.023422401 -0.019903852 -0.020356843 -0.01334057
0000a0 fc a2 93 3d 9c 3f 21 3d ed bc 55 3d 7c 08 aa 3c
       0.07208821 0.039367303 0.052182127 0.020755999
0000b0 b5 86 90 3c 62 b8 5e bd 8f 40 67 bd a0 e1 45 3c
       0.017642358 -0.05437506 -0.056458052 0.012077719
0000c0 e4 4b 9f bc 9e 58 33 bd 0c f7 6b bb 51 91 01 bd
       -0.019445367 -0.043785684 -0.0036005406 -0.031632725
0000d0 55 96 10 bc 67 87 65 bd 8c 5b 2c bd 16 94 a3 3c
       -0.008824904 -0.056037333 -0.042079493 0.019968074
0000e0 b9 55 39 3d f8 c6 74 bc d0 d6 55 3d 44 a1 fe bc
       0.045247767 -0.014940016 0.052206814 -0.031082757
0000f0 c9 78 9b b9 73 18 2f 3d 3b ad 70 3d 13 3e f9 3c
       -0.00029653896 0.042747926 0.058758955 0.030425107
000100 73 af e2 bc 60 eb 00 bd 75 08 28 bd f9 9a fb b9
       -0.027671551 -0.03147447 -0.04102369 -0.00047989914
000110 a1 91 37 3d 24 d3 03 bd b2 87 4b 3d a1 4d 98 3c
       0.044816617 -0.03218378 0.049689956 0.018591704
000120 cd ad c7 3b 83 71 1d bc f2 17 44 bd 80 98 dc ba
       0.0060937167 -0.009609583 -0.0478744 -0.0016830117
000130 33 8e 0b bc 5e c4 71 3c ad 39 4c 3d 1f 5e c0 bc
       -0.00851779 0.01475629 0.04985969 -0.02348238
000140 52 9d ac 3c 27 cf 26 bd d8 61 5c 3d 94 c7 b7 bb
       0.02107111 -0.0407249 0.05380425 -0.0056085084
000150 68 b4 1f 3b a7 72 c2 bc 8a 2d fb bc 9b 2e 1e bd
       0.0024369005 -0.023736311 -0.030661363 -0.038618665
000160 29 33 51 3d 16 a1 5d 3d e5 3b a2 bc f3 b7 37 3d
       0.05107418 0.0541087 -0.01980395 0.044853162
000170 ac 54 e3 3b f0 9b 59 3d 74 9c d1 bc 07 98 22 bd
       0.006937584 0.05312723 -0.025587298 -0.039695766
000180 fc 27 9f bc a6 01 f0 3b ed 01 43 bc e9 9f 01 3d
       -0.019428246 0.0073244153 -0.011902315 0.031646643
000190 3b bb 06 3c d3 a8 46 bd 33 8d be bc d0 f5 05 bd
       0.00822335 -0.048500847 -0.023260688 -0.03270513
0001a0 18 45 25 3c c2 f5 0f 3d 67 28 38 3d a0 f5 2b 3d
       0.010087274 0.035146482 0.044960406 0.041982293
0001b0 28 0f 2e 3d 49 f7 93 bc 6d 2f 13 3d 7f 00 c7 3c
       0.042494923 -0.01806225 0.0359339 0.024292229
0001c0 9d ad b5 3d 13 19 0a 3d af eb 2b bc 36 ca a2 3d
       0.08871005 0.03371532 -0.010493203 0.07948725
0001d0 5f d7 fc 3c 74 8e c2 3c a8 7a 26 3d ca 8f e6 3b
       0.030864416 0.023749568 0.040644318 0.007036184
0001e0 81 fa 99 3c 11 ea cf 3c 3c a5 24 38 70 04 bd 3c
       0.018796207 0.025380166 3.9254533e-05 0.023073405
0001f0 71 51 6b 3c 72 a1 9c bc a3 da 56 bc 92 05 30 3d
       0.014362679 -0.019119952 -0.0131136505 0.042974062
000200 28 e3 33 bc 6e d4 4e 3d a9 75 1b 3c 42 b2 61 bc
       -0.010979451 0.050495557 0.009488502 -0.01377541
000210 fa bc 27 3d 3f 98 69 3d 73 7c 5f 3d 58 fd 8a 3d
       0.040951706 0.05702996 0.054562043 0.06786603
000220 92 df ce bb 53 e7 5e 3d 99 3b 82 3d 68 bf 77 3d
       -0.0063132728 0.054419827 0.063590236 0.060485274
000230 15 62 0a 3c a1 35 87 3d ae ba ce 3c 41 53 36 3c
       0.008446236 0.06602026 0.0252355 0.011128248
000240 85 05 6a 3d 48 ce 07 bd b8 bc 81 bb 5e 2f 33 bc
       0.05713417 -0.03315571 -0.0039592646 -0.010936586
000250 ef 72 eb 3b 61 99 71 3d bf c7 92 bb c0 11 9a 3c
       0.007185332 0.058984164 -0.004479378 0.018807292
000260 6b a5 a9 bc ec 18 32 bd d4 6b 3b 3d 9c 95 d6 bc
       -0.02070876 -0.0434808 0.04575713 -0.026194386
000270 b1 c0 32 3d df 53 7c 3d 91 3d 40 3d fa 04 8c 3d
       0.043640796 0.061603423 0.046933714 0.06836887
000280 86 f3 87 3d 0a 9c f2 bc 1c 53 68 3c 78 0b 41 bd
       0.06638245 -0.02961542 0.014179971 -0.047130078
000290 50 48 d2 bc 66 d5 6c 3d ab e3 f0 3b a9 65 84 3d
       -0.025669247 0.0578207 0.007351359 0.06464703
0002a0 f0 eb c3 3b 29 b9 74 bc 59 fa 75 3d 18 c7 41 bd
       0.0059790537 -0.014936724 0.060053203 -0.04730901
0002b0 43 be 2a bd f0 a1 48 3d 26 a4 87 bc ce e8 c5 3b
       -0.041685354 0.04898256 -0.016557764 0.0060397154
0002c0 99 b3 0d 3d a1 24 f8 bc 8a cc e3 bb 8e bb 12 bb
       0.034595106 -0.030290904 -0.006951873 -0.0022389623
0002d0 95 62 89 bc 23 da e5 ba b9 78 30 bd 9a 6e 03 bd
       -0.01677064 -0.0017536323 -0.04308388 -0.0320879
0002e0 3b c5 ad 3b c9 f5 6c 3c 03 f9 e5 3c 0b 5a 2c 3d
       0.0053030527 0.014462897 0.02807284 0.04207806
0002f0 e1 2a 0c 3d 97 3d f5 bb 6b 78 7b bd f9 84 aa 3c
       0.03422058 -0.0074841487 -0.061394136 0.02081536
000300 99 96 4c bd 3d 80 ba bb 31 f4 69 bd 90 10 7f bd
       -0.04994831 -0.0056915567 -0.057117645 -0.062271655
000310 ee 37 8b bc 04 72 4e 3c 41 e7 b0 3b f5 18 6f bd
       -0.016994443 0.012600426 0.0053986614 -0.05837341
000320 79 e7 12 bd d1 72 56 bd 4b 5d 37 bd a7 ef c3 bc
       -0.03586528 -0.05235559 -0.044766705 -0.023917986
000330 ba 14 01 bc 62 9a 97 bc 53 61 2a bd 44 e7 fa bb
       -0.007878477 -0.018506233 -0.04159672 -0.0076569635
000340 88 55 ad 3c 07 dd 78 bd 18 cf 14 3d ce d0 12 3d
       0.021158949 -0.060757663 0.036330312 0.035843663
000350 c1 aa 2d 3c e5 11 16 bd ad 22 fd bb 5d 6d 3f bd
       0.010599793 -0.03663816 -0.007725081 -0.046735156
000360 12 37 0f bc 21 35 a9 3d 41 ad 29 3d 3e 99 f5 ba
       -0.008741157 0.08262087 0.041424993 -0.0018737686
000370 8c d6 a3 bb f4 9d 0e 3c 20 57 0f 3d fc 3d f9 3c
       -0.004999941 0.008704651 0.0349952 0.030425064
000380 7a b9 69 bc 53 23 9f bb f8 20 7a 3d 16 6c 74 3c
       -0.014265412 -0.004856506 0.061066598 0.014918348
000390 a0 7f 54 bd 89 6d 28 3d 6b 01 38 bd 99 f2 5f bb
       -0.051879525 0.041120086 -0.044923227 -0.00341717
0003a0 8f 59 d8 bc a8 01 95 bc 0a 56 56 3d 08 71 40 3d
       -0.026409892 -0.018189266 0.052328147 0.046982795
0003b0 b0 58 bb 3c e8 1f b5 3c 59 bb b5 3c 62 e2 18 bd
       0.022869438 0.02210994 0.02218406 -0.03732527
0003c0 2b 28 f5 3c 69 74 62 bd 29 6b 59 bc 72 61 c2 3c
       0.02992638 -0.0552868 -0.013270178 0.023728106
0003d0 dc 36 6d 3d 2a 67 0c bc b6 23 47 3c 2c 57 46 3d
       0.057913646 -0.008569518 0.01215451 0.048422977
0003e0 98 38 60 3d 1f f2 e8 3c 10 58 88 3c 4d 65 30 3c
       0.054741472 0.028435765 0.016643554 0.0107663395
0003f0 70 11 08 3d 91 a4 87 3c 2f 1b 09 bd 54 75 f2 3c
       0.033219755 0.016557964 -0.03347319 0.029596962

module.conv_4.bias f4 [12]
000000 d7 3e b0 3c 33 03 b8 3c 2c bc 40 bd 78 23 9a bc
       0.02151434 0.022462463 -0.047054455 -0.018815741
000010 81 59 e5 bc 7f 0a 5c bc e9 93 06 bd 17 dd 2e bd
       -0.02799678 -0.013430237 -0.032855902 -0.042691316
000020 9f 14 df 3b 4c f1 b6 3a d6 f9 7f 3d d3 2d 08 bd
       0.006807878 0.001395741 0.06249412 -0.033246826

module.conv_5.weight f4 [12, 12, 3, 3, 3]
000000 9b 34 c7 3c 5b 8c 32 3d ff 52 05 bc 05 30 24 bc
       0.024317076 0.043590885 -0.008137464 -0.010021214
000010 c2 1d 41 bd 3b f1 20 3c bb 93 cb 3b b2 bb 89 ba
       -0.04714752 0.009823139 0.006212679 -0.0010508208
000020 46 33 8d 3d 76 fb 2a bd ed a3 41 3d b7 fe 69 3b
       0.06894545 -0.041743718 0.047275472 0.00357048
000030 e1 17 b0 bb d4 cc 3d 3d e4 60 df 3c e0 1c 87 3c
       -0.0053739403 0.046337917 0.02726788 0.01649326
000040 11 de 44 3c 96 b9 23 3d 03 d1 d8 3c 7f e9 26 bd
       0.012015835 0.03997191 0.026466852 -0.040750023
000050 63 f4 46 bb 7c 05 cd bc 2a e0 3b bd b7 cc 41 bd
       -0.0030358068 -0.02502703 -0.045868076 -0.047314372
000060 87 d9 30 3d 4a 4e a3 3c b4 21 c6 3c 4d 3f 8d 3d
       0.0431762 0.019934792 0.024185993 0.06896839
000070 ed 42 d2 b8 15 ad 2e 3d 2c 1f d9 3a 6b 51 f6 3c
       -0.00010026046 0.042645533 0.0016565076 0.03006812
000080 74 14 58 3d 03 b7 8f bc 9b 8a 67 bc 40 be 72 bd
       0.05275388 -0.017543321 -0.014132167 -0.059263468
000090 0c 97 4d bd 43 d3 24 bd 90 ca b8 bb ef f7 93 bd
       -0.050192878 -0.040240537 -0.0056393817 -0.07225024
0000a0 d0 38 15 bd c0 ca 80 bd 3f 2b 5c bd a8 07 a8 3a
       -0.036431134 -0.062886715 -0.05375218 0.0012819665
0000b0 9c ec 3d bd ad da 3f bb 3a 19 5f bd a3 f8 ab 3c
       -0.046368226 -0.0029274628 -0.054467417 0.020992583
0000c0 e3 67 b9 bc 3d d8 4b bb 8b 67 43 3a 35 ad 6c 3d
       -0.022632545 -0.003110423 0.0007454089 0.05778237
0000d0 e8 f4 37 3d d2 71 73 bc 35 20 25 3d 44 b7 19 bd
       0.044911295 -0.01485868 0.04031392 -0.03752829
0000e0 77 9f 0a 3d 2d 8d 94 3c ae a0 ee bc 08 62 d1 bc
       0.033843484 0.018133724 -0.029129352 -0.02555944
0000f0 26 ec b4 3c 7f b0 56 3d b1 43 13 3c 6c bc 2a bd
       0.02208526 0.052414414 0.008988307 -0.0416836
000100 7a ce 16 bd 55 b0 c9 3c 8f 0d 42 bc e4 cd 0a bd
       -0.036818005 0.024620214 -0.011844053 -0.03388776
000110 2f 37 37 bd fc 02 49 bd 84 1c 21 3c dc 80 9c bb
       -0.04473036 -0.04907511 0.009833459 -0.0047761034
000120 30 8a 3d bd 0a 7b d1 3b 5a 68 53 bc 3e 3f 85 bd
       -0.046274364 0.006392841 -0.012903297 -0.06506203
000130 7c 78 6b bd 8b 4c 4e bc 6f b2 57 3d dd b4 be bc
       -0.05748795 -0.012591491 0.052660402 -0.023279602
000140 7b 7f aa 3c aa d0 2f 3d 54 78 47 3c 3f 0d 24 bd
       0.02081274 0.042923607 0.012174685 -0.040051695
000150 70 bb 1c bc 2d f6 84 3b c0 b4 11 bc 60 18 51 3d
       -0.009566173 0.0040576668 -0.008893192 0.051048636
000160 2f 16 92 3d ee 89 b5 bc 0d bd bd bb d4 64 23 bd
       0.071331374 -0.022160497 -0.005790359 -0.03989108
000170 b0 c5 3a 3c 82 c4 26 3d a2 11 59 bd b1 87 32 bc
       0.011399671 0.04071475 -0.05299533 -0.010896609
000180 69 ea 2c bd 34 8f 1c bc 5b ef 9f 3c 16 58 c2 bc
       -0.04221574 -0.009555627 0.019523313 -0.023723643
000190 e1 75 73 bd e5 2e 15 3b 42 fe 3a bd 92 19 06 bc
       -0.05943859 0.0022763547 -0.045652635 -0.008184807
0001a0 7e 2d 79 bd b5 bf 08 bd 1f cb 89 3d 1a ff 31 bc
       -0.0608344 -0.03338595 0.067281954 -0.010864044
0001b0 e5 0e 21 bd 29 78 21 3d c1 08 3b 3d 60 1e 17 bd
       -0.039320845 0.039421234 0.045662645 -0.036894202
0001c0 f1 5f ef 3b af f9 3f 3d 5b 69 2f 3d 39 f8 d8 ba
       0.0073051383 0.046868976 0.042825084 -0.0016553468
0001d0 c6 b9 3f 3c ea 94 1b 3c 3f d5 59 3d 8d 74 45 bd
       0.011702007 0.009495953 0.053181883 -0.048206855
0001e0 31 1c 01 bd d3 f5 9b bc 99 8e fc 3c 4b dd 44 bd
       -0.031521026 -0.019038117 0.030829715 -0.048062604
0001f0 7b 70 a7 bc 4f e1 4d 3d ab ad 40 3c 4f 42 76 3c
       -0.020439377 0.0502637 0.011760156 0.015030458
000200 c0 2d 70 bd 9d cc 31 bd 20 a1 4b 3c 2f ee d5 bc
       -0.05863738 -0.043408025 0.012428552 -0.026114551
000210 94 84 bd bc 64 97 c9 3c 0b 42 09 bd db 45 7c 3d
       -0.023134507 0.024608321 -0.03351025 0.061590057
000220 0b 92 8d 3d 5d df 2b bd f1 5e 6a 3d 08 59 d1 bc
       0.06912621 -0.041961063 0.05721945 -0.025555149
000230 e1 c6 28 3d 84 8e 40 bd fc 85 73 3d 5b f8 5a 3d
       0.04120529 -0.047010913 0.05945395 0.053459506
000240 cf 84 66 bc 09 4a 8c 3b f3 0d f8 3a e1 9a 6a 3d
       -0.01406975 0.0042812866 0.0018925056 0.05727661
000250 ed 86 45 bd 1a 38 09 bd ce f6 99 3c 17 c0 3c bd
       -0.04822438 -0.03350077 0.018794443 -0.04608163
000260 16 3d 4d bd 37 96 93 bc 31 99 10 3d 15 23 95 3c
       -0.050107084 -0.018015964 0.035302345 0.018205205
000270 74 8f 06 3d 1d 7f 44 bd 15 ba c5 bb 7a 34 05 3d
       0.03285165 -0.047972787 -0.0060341456 0.03252075
000280 c9 24 05 3d 8b fd c4 3a 5b 5f 76 bc b9 4e 64 3d
       0.032505784 0.0015029175 -0.015037383 0.05573914
000290 3a 08 14 bd ce 8c 73 bb 2c e4 34 3d 3a c7 ee bc
       -0.036140658 -0.0037162784 0.044162914 -0.029147733
0002a0 42 26 d3 3c 5b a1 cf bc 02 0e 73 3d 88 25 59 3d
       0.025775079 -0.025345495 0.05933953 0.05301431
0002b0 cd 87 3c bd 6a c7 cb bb d1 f4 67 3d c0 64 71 3c
       -0.046027947 -0.0062188404 0.05662996 0.014733493
0002c0 11 26 10 3d 56 92 1e bb 77 d7 59 3c 62 4e 41 bc
       0.035192553 -0.002419611 0.013296 -0.011798473
0002d0 33 77 b1 3c fd 3e 08 bd 58 48 7c 3c 6e 16 ab 3c
       0.021663284 -0.033263195 0.0153981075 0.020884719
0002e0 0c ce 81 bc 2a 8d 85 bc fb 28 5c 3d b7 2b da 3b
       -0.015845321 -0.016302664 0.05375002 0.0066580432
0002f0 79 d3 52 bc a8 a1 44 bd e0 d1 83 3c 90 40 98 bc
       -0.012867802 -0.04800573 0.016091287 -0.018585473
000300 29 c5 49 bd c8 93 08 bb cb d7 9a bc a5 6d 08 bd
       -0.049260292 -0.0020840038 -0.018901726 -0.03330769
000310 de 6e 2e bd 70 65 c7 3c 3d f2 0e 3d 23 ef a8 bc
       -0.0425862 0.024340361 0.034898985 -0.020621842
000320 69 bd 0a 3d 6f 4f 34 3d 95 95 7d 3c 00 43 d8 3b
       0.03387204 0.044021066 0.015477558 0.006599784
000330 92 27 29 bd b3 1e 07 bb d1 1e 3b 3b 6e 3c 79 bc
       -0.041297503 -0.0020617663 0.0028552304 -0.0152121615
000340 2d 92 d0 bb 99 be 02 bd 50 8a 53 3d dc f0 32 bd
       -0.0063650818 -0.03192005 0.051645577 -0.043686733
000350 9b 8e 1d 3b 19 b9 bd bc 07 5d 47 bd a7 ea 81 bc
       0.0024041298 -0.02315955 -0.048672702 -0.015858961
000360 e6 4d a0 bd 3e a5 88 bd 32 14 17 bc e5 8c 2c 3c
       -0.07827358 -0.066721424 -0.0092211235 0.010531639
000370 8d e6 71 3d bb 1e b5 3c 09 23 f5 3c c7 ea 22 3d
       0.05905776 0.02210938 0.029923933 0.039774682
000380 91 a6 00 bd db a5 57 3d 5f 32 80 bd f7 6d 3f bd
       -0.03140885 0.052648406 -0.062596075 -0.04673573
000390 d4 49 8b 3d d3 85 76 3d f4 76 48 bc 85 76 15 bd
       0.06801191 0.06018622 -0.012235392 -0.036489982
0003a0 36 3e 52 bc 63 06 f3 3c 24 30 96 3d bf e4 e3 bc
       -0.012832215 0.029666131 0.07333401 -0.027819036
0003b0 90 ef 39 bd 7d d6 a6 3c c2 05 ae 3d 07 aa 83 3c
       -0.04539448 0.020365948 0.08497192 0.016072286
0003c0 62 d6 b3 3b 1b 77 98 3c f9 99 53 bd 6e 7a 95 bb
       0.005488203 0.018611481 -0.05166051 -0.004561714
0003d0 7a 38 ef bd 88 ed 31 bd 20 e6 f1 3b 1a 99 53 bd
       -0.11680694 -0.043439418 0.0073821694 -0.05165968
0003e0 59 70 28 3c 27 7c a4 bc bb 37 8d bd 04 29 81 bd
       0.010280692 -0.020078732 -0.06895395 -0.06306651
0003f0 8d 9b bf 3c 30 a4 7c bc a2 27 41 3d 52 bd 04 3e
       0.023389602 -0.015420005 0.047156937 0.12962845

module.conv_5.bias f4 [12]
000000 50 1b 5a bd cd d1 73 3d de d4 a4 3c 4e ec c7 bb
       -0.053248703 0.059526253 0.020121034 -0.0061011678
000010 77 bf 55 bc 4b cd 93 3a 18 17 46 3d 6f 4b 93 3d
       -0.013046137 0.0011276392 0.048361868 0.07192122
000020 23 ed 28 39 73 78 27 3d c6 ab fe 3c 5f 21 15 3d
       0.00016110069 0.040886354 0.031087767 0.03640878

module.conv_6.weight f4 [12, 12, 3, 3, 3]
000000 5b 5e a2 3d 2d c7 e0 bc 50 77 c4 bd 24 6f 35 3d
       0.07928153 -0.027438724 -0.095930696 0.044295445
000010 ff 7a 2a 3d 67 94 2f bd 62 05 b9 bc f3 97 14 bc
       0.041621204 -0.042866137 -0.022585575 -0.009069431
000020 bf c5 6a bc 49 51 2b 3d 1e 63 50 bd fa f3 c1 bd
       -0.014329373 0.041825566 -0.050875776 -0.09470363
000030 65 5c 92 bc 10 05 b9 bc aa 37 97 bc 64 eb 9c bc
       -0.017866323 -0.022585422 -0.01845916 -0.019155212
000040 1f c7 9e bc a5 4e ea bb ae 64 68 3d 53 7c 02 bd
       -0.019382058 -0.0071504884 0.05673664 -0.031856846
000050 1a aa 22 bd 56 b3 61 bc 55 7a e1 3c 8c ee c2 bc
       -0.039713003 -0.013775667 0.027524153 -0.023795389
000060 cf a5 fa 3a 50 37 21 3d 32 e3 bc 3b 80 51 87 bd
       0.0019122901 0.03935939 0.0057643885 -0.06607342
000070 53 1a 64 bd 10 53 fe bc b6 0b 04 bd a3 e7 fd 3c
       -0.055689167 -0.031045467 -0.03223773 0.030994242
000080 a8 ea 18 3d e2 42 07 3d 5e 03 34 3d 79 3f 1a bd
       0.03733316 0.03302277 0.043948524 -0.03765819
000090 76 26 82 bd 50 78 6a 3c 5e 98 31 bd 08 be 50 3c
       -0.06354992 0.014310911 -0.0433582 0.0127406195
0000a0 d2 7a 32 bd 9e 2d 4e 3d 26 2b 35 bc 01 be 1c bd
       -0.04357416 0.050336473 -0.011057651 -0.03826714
0000b0 c2 4c 5d 3c 57 8e ee bc d4 ea 4b 3d b1 54 4d bb
       0.01350707 -0.029120607 0.049784496 -0.0031330998
0000c0 5b f1 5b bd d6 7a 41 3d ad 7e 5e bd 61 7c 1c bd
       -0.05369697 0.047236286 -0.054320026 -0.038204554
0000d0 03 40 5b bc 39 cf 51 3d 96 04 86 3b c3 e0 00 3b
       -0.013381961 0.051223014 0.004089902 0.0019665218
0000e0 02 85 30 bd 9f 5c 95 3c 91 f0 ec 3c d1 e7 52 bd
       -0.043095596 0.018232642 0.028923305 -0.05149061
0000f0 66 c0 0c 3d 16 7c 23 3b b7 97 f0 bc 8f 6f f0 3c
       0.034363173 0.0024945787 -0.029369218 0.02935007
000100 1f 20 e9 3c a9 f2 e8 3c 96 3f 50 3d 61 b6 df 3c
       0.0284577 0.028436022 0.05084189 0.027308645
000110 b7 79 f3 3c 72 bd 8a bc 72 45 32 3d a5 07 0d bc
       0.029721124 -0.016936038 0.04352326 -0.00860778
000120 ad 65 e6 bc b8 ba 41 bd c8 46 9a bc 12 39 1a bc
       -0.028124655 -0.04729721 -0.01883258 -0.009413021
000130 ab c8 4d bd b5 9e 48 3d f8 62 c2 3c b1 c6 d3 3c
       -0.0502402 0.04897948 0.023728833 0.02585158
000140 5f 0a b7 bb 6f e2 2c 3c 5e 9d b4 3b cd f7 42 bd
       -0.005585953 0.010552033 0.0055119237 -0.047599602
000150 4b bf 46 3d 9d dc 2c 3d 97 91 38 bd e2 aa ae 3c
       0.048522275 0.04220258 -0.04506072 0.021321718
000160 e7 4f 3a bc 2b 0a d2 bc bc 67 0f 3d a9 5a 53 3d
       -0.011371589 -0.025639614 0.03501104 0.051600132
000170 f7 64 05 bd 8c a5 bd bc 20 95 8b 3c 44 fc 45 3d
       -0.03256699 -0.023150228 0.017038882 0.048336282
000180 21 e0 ac 3b 54 0d 8b 3c 6a 74 4e 3d 8a 39 99 bb
       0.0052757417 0.016974129 0.05040399 -0.0046760486
000190 50 d0 51 3c 46 56 af 3b d8 23 ad 3c 52 73 81 3a
       0.012806013 0.0053508608 0.021135256 0.0009876287
0001a0 2c fe dc bc 72 f6 d9 bb 4a 48 a1 bc 40 b6 9e bc
       -0.026976667 -0.006651693 -0.01968779 -0.019374013
0001b0 97 bd 55 bd e9 13 53 3c 5a cb 1b 3d c0 ea fa 3c
       -0.05218276 0.012883165 0.038035728 0.030629516
0001c0 e6 b2 ca 3c 72 20 ac 3d 9d 43 9f bd d2 d9 48 bc
       0.024743509 0.08404626 -0.07776568 -0.012258964
0001d0 3f 30 39 bd 84 1d 61 3d 3c 3c ce 3d bf ae 22 3e
       -0.045212027 0.05495979 0.100700825 0.15886973
0001e0 a4 87 07 3d 2d 3d ac 3d d4 93 dc 3d 57 74 55 3d
       0.03308834 0.08410106 0.107703835 0.052112903
0001f0 51 4a b2 3d 95 f3 d0 3d 32 ed 1a 3d 69 44 0f b8
       0.08705581 0.102027096 0.037823863 -3.415757e-05
000200 85 03 89 bc 85 8e e3 bc 33 a5 2c bb 65 01 35 bc
       -0.016725311 -0.02777792 -0.0026343584 -0.011047696
000210 5b ef a4 bc ad 3b 9d bb 1d de a1 bd a0 37 63 3c
       -0.020133665 -0.0047983737 -0.07903693 0.0138682425
000220 85 4b 59 bd e5 7f 32 3d 2d 0c 2d 3d 73 17 c3 bc
       -0.053050537 0.043579 0.04224794 -0.023814892
000230 f0 aa 57 3d d1 d7 fd 3c 0a f6 e5 bc 84 3b 4f 3d
       0.052653253 0.030986698 -0.028071422 0.050593868
000240 50 8b 66 3d 99 cc f7 3c 0a de d6 3b 26 b7 44 bd
       0.056285203 0.030248927 0.006557231 -0.048026226
000250 44 84 41 bd 25 e0 2f bd 1d 8b 19 bd 3c 3b 46 3c
       -0.04724528 -0.04293837 -0.037486184 0.0120990835
000260 64 8c 52 bd 30 d5 63 bc aa d4 01 3d f1 be 04 bd
       -0.05140342 -0.013905808 0.031696953 -0.03240866
000270 ae 4c 5b 3d b5 9a 7b bc 9f 20 55 bc e2 a7 63 3d
       0.053539924 -0.015356709 -0.013008266 0.055580027
000280 7c 44 29 3d 5e 70 45 3d 5c df 63 bd 17 20 0a 3d
       0.041325077 0.048202865 -0.055632934 0.03372201
000290 60 3d a0 3c eb 73 87 3b 33 57 1b bd 83 84 0c bd
       0.019560516 0.0041336915 -0.037924957 -0.03430606
0002a0 37 0c 01 3d 8e 2e b2 bc a3 8f d5 ba 65 75 84 bb
       0.03150579 -0.021750715 -0.0016293417 -0.004042315
0002b0 07 47 e3 b9 e2 74 40 bd 42 04 80 bc 70 41 23 3d
       -0.00043349733 -0.046986468 -0.01562703 0.039857328
0002c0 23 1e 8e bc d7 a5 ec 3c 10 42 44 ba d8 7f 45 bd
       -0.017348355 0.028887672 -0.0007486651 -0.048217624
0002d0 d9 92 24 bd 2b d4 01 bd 8a c4 53 bd 39 f2 37 3c
       -0.040179107 -0.03169648 -0.051701106 0.011227184
0002e0 da 4d f4 bc e3 a1 26 bd 69 63 fe bc b2 fc 9e bc
       -0.029822279 -0.04068173 -0.031053262 -0.019407604
0002f0 0b f4 39 3d 84 37 0a bd b7 4b ee bc e7 12 39 bd
       0.045398753 -0.03374435 -0.029088838 -0.045184042
000300 bc ad d5 bb 17 98 35 bd 4e af f8 bc 60 22 27 3d
       -0.006520955 -0.044334497 -0.03035703 0.040804267
000310 cb 19 90 3c 66 b8 49 bd c7 af 94 3c 49 2e 15 bd
       0.017590424 -0.04924812 0.018150223 -0.036421094
000320 dc f3 43 3b 9e b6 47 bd bc bc 09 3c 19 a2 7a bd
       0.002989999 -0.04875814 0.008406814 -0.061189745
000330 06 bd 19 3d 67 c6 2b b9 cb 0a b9 3b 3f 32 0b 3d
       0.037533782 -0.00016381741 0.0056470386 0.033983465
000340 4f 54 35 3d 2e e8 3c bd 71 19 24 3c 55 7e d3 3c
       0.044269856 -0.04611986 0.010015831 0.025817076
000350 a7 09 f4 3c f2 ae 77 bb ef 09 94 3c f0 ec 77 bd
       0.029789759 -0.0037793485 0.018071143 -0.060528696
000360 a4 d1 70 3d c0 02 64 bd b6 80 03 bd 8a a6 3e 3d
       0.05879368 -0.055666685 -0.03210517 0.046545543
000370 69 b5 74 bd 8b 90 31 bc cd c4 b3 3a 9b 1e c4 bd
       -0.05974332 -0.010837684 0.0013715267 -0.0957615
000380 7c b5 10 3d d3 42 be ba 06 4e 76 bd 71 43 5d 3c
       0.035329327 -0.0014515765 -0.060133003 0.013504849
000390 d9 9b 80 ba c6 f5 17 bd d6 b8 a1 3c e1 cc 48 bd
       -0.0009812071 -0.037099622 0.019741457 -0.049023513
0003a0 3a 00 ab bd d1 a0 f2 bc b6 8a 5d 3d 52 c7 e9 bc
       -0.083496526 -0.029617699 0.054087363 -0.028537426
0003b0 67 3f 5a bc cc 5e 58 3d 4a 00 96 bc 8d ee 98 b9
       -0.01332078 0.05282478 -0.018310685 -0.00029169433
0003c0 73 dc 80 bd e7 cc 61 bc ba 69 02 bd 3b 60 80 3c
       -0.06292047 -0.013781763 -0.03183911 0.015670886
0003d0 44 ce a6 3a e7 6b 56 bd 1a d2 29 bd 8e 9d 52 bd
       0.0012726267 -0.052348997 -0.041460134 -0.051419787
0003e0 02 85 12 3d 0f fa 9e 3c ac dc ba 3c 4e 8e 17 bb
       0.035771377 0.019406347 0.022810303 -0.0023125592
0003f0 2a 9c 6e ba 7f a2 1d bd 6b 9a b9 bb 61 b9 cf bb
       -0.000910225 -0.038485046 -0.00566416 -0.0063392376

module.conv_6.bias f4 [12]
000000 d4 c4 10 3d dc 5c 5a bc bc ca 6e 3d 46 d9 e1 3c
       0.03534396 -0.013327803 0.05829881 0.027569424
000010 e9 e2 f3 3c 52 e6 89 3c 4f 69 dc 3c 6d 5e 69 bd
       0.029771285 0.016833458 0.026905684 -0.056974817
000020 e2 16 e3 b8 90 b0 6f 39 bf 15 0a 3d 2d 05 15 3d
       -0.00010828466 0.00022858591 0.033712145 0.03638189
