models/FSRCNN3D_checkpoint_epoch_30.pth (torch, 799402 bytes, 45 tensors)

module.conv_1.weight f4 [56, 1, 5, 5, 5]
-0.007598079 -0.020003265 -0.04606008 0.06791629 -0.06890518 0.0045121606 0.08221338 0.017980604
-0.010115068 0.033191573 0.038010918 0.05165345 -0.033536762 0.04038176 0.064779945 0.046190523
0.064319134 -0.003630824 0.018329887 0.078413814 0.017055176 0.07385333 0.09479812 0.081077166
-0.066769734 0.00532786 -0.015987236 0.08679687 0.02551464 0.034228027 -0.037025247 -0.013559716
-0.060261406 0.07905868 0.0788038 0.015911845 0.080281936 -0.09025553 0.059598196 -0.029175356
0.0018713325 0.042455357 0.06282023 0.08296907 0.050071366 -0.034299668 0.043503866 -0.009904214
-0.014428725 -0.03754229 -0.07184822 0.08845556 -0.02914428 -0.06729314 0.043077927 -0.05878953
-0.077390224 0.062073812 -0.08797707 0.030305022 0.053691566 -0.05820104 -0.101073295 -0.029814964
-0.021753509 -0.00039229452 0.041542437 -0.022058532 0.051165525 -0.06557925 0.091780916 0.08554533
0.022653518 0.082147695 0.018803442 -0.04256104 0.036845617 0.08952609 0.07030122 -0.026254274
0.0023173045 0.008327356 0.05751722 0.01117034 0.080777615 -0.08887524 -0.098142326 0.018767828
-0.0630345 0.06404375 0.0062914966 -0.034468535 0.06508245 -0.039937723 -0.05979768 -0.067461886
0.08368081 -0.010576831 -0.0070860614 -0.05063629 -0.0027175348 -0.0006065858 0.018407755 0.027695352
0.0259613 0.055294126 0.00930562 -0.06771498 -0.010239515 0.05433481 0.07003326 -0.022991097
-0.05380315 -0.028399346 -0.011206009 -0.03512944 -0.08099393 -0.06402013 0.023984527 -0.02684152
0.059613384 0.085919455 0.008098236 0.012841355 0.07247277 -0.0718558 0.0008146533 -0.044148453
-0.015165703 -0.0753018 0.0033986652 0.07923323 -0.036277603 0.08726378 -0.019342083 0.018377623
0.025168361 0.07362224 0.06510364 0.09197066 0.056828134 -0.03812819 0.024271335 -0.05942753
0.03244205 -0.06364409 -0.019706324 -0.007627806 0.083621226 -0.061380867 -0.0025064175 -0.018126197
0.089091286 0.052795272 -0.049942765 -0.08751115 -0.06896239 -0.008942812 0.05200329 -0.00055934937
0.018898178 0.053363618 -0.043366775 -0.016135665 -0.075828314 0.08240207 -0.0015309807 -0.007461245
-0.041889977 0.08270736 -0.011284093 -0.08215397 -0.084831655 0.02696987 -0.05288349 0.0571769
-0.05509023 0.044685863 -0.059485786 -0.08140068 -0.02466803 -0.012173058 -0.050502967 0.025559487
0.034784075 -0.038825154 0.031455293 0.06223839 0.04794699 0.06759839 0.06502847 -0.02334996
0.05244913 -0.027170373 0.07303494 0.015463389 0.0064238207 0.06717767 -0.009374855 -0.070420675
0.08334968 -0.0510929 0.07567183 -0.059778087 -0.032493014 -0.03668843 -0.087382965 -0.032188017
0.060286283 -0.06346107 -0.024037102 0.08356641 -0.045147948 -0.039202046 -0.04762668 0.012846605
-0.052055426 0.05698655 -0.048631396 0.0405624 -0.014916722 -0.025714511 -0.07148275 0.025327932
-0.02177711 0.0824364 0.025210127 -0.07634817 0.059153266 0.052339222 0.08528637 0.08750815
-0.030639708 0.082625516 0.053642884 0.039584693 0.06891127 -0.027725186 0.06245631 -0.059421014
0.09173724 -0.034459442 -0.05103544 0.0807697 -0.049300253 -0.04513946 -0.0017881126 0.03023313
0.014145789 -0.063597 0.056162763 0.016522383 0.0018592741 -0.049774263 0.06607337 -0.052282874
00000000: 4ef9 f8bb e3dd a3bc 7fa9 3cbd b217 8b3d
00000010: 291e 8dbd bfda 933b 7d5f a83d 0f4c 933c
00000020: acb9 25bc e3f3 073d 56b1 1b3d 9192 533d
00000030: d85d 09bd 5867 253d 59ab 843d 4632 3d3d
00000040: c0b9 833d 1ef3 6dbb 8f28 963c 6c97 a03d
00000050: 4cb7 8b3c 6a40 973d 8425 c23d c90b a63d
00000060: 92be 88bd 5495 ae3b aaf7 82bc 8fc2 b13d
00000070: 1404 d13c b032 0c3d c9a7 17bd 9229 5ebc
00000080: aad4 76bd 84e9 a13d e363 a13d 8f59 823c
00000090: db6a a43d e4d7 b8bd 3d1d 743d 2801 efbc
000000a0: 8047 f53a abe5 2d3d e5a7 803d b0eb a93d
000000b0: a217 4d3d cf7d 0cbd 1c31 323d 4945 22bc
000000c0: 7566 6cbc f2c5 19bd 2925 93bd 3028 b53d
000000d0: fcbf eebc fcd0 89bd 7b72 303d 4acd 70bd
000000e0: c47e 9ebd 1c41 7e3d 522d b4bd 3d42 f83c
000000f0: b0eb 5b3d 3764 6ebd 84ff cebd 833e f4bc
00000100: 6a34 b2bc e1ac cdb9 6728 2a3d 18b4 b4bc
00000110: f192 513d 6a4e 86bd a2f7 bb3d 6432 af3d
00000120: df93 b93c 0d3d a83d ad09 9a3c 7c54 2ebd
00000130: 6eeb 163d 7459 b73d 16fa 8f3d 3413 d7bc
00000140: ebdd 173b 766f 083c 2d97 6b3d cd03 373c
00000150: bc6e a53d 3904 b6bd d8fe c8bd fdbe 993c
00000160: 3b18 81bd 5f29 833d e628 ce3b e12e 0dbd
00000170: f349 853d bd95 23bd 69ee 74bd 7529 8abd
00000180: d860 ab3d 724a 2dbc 3132 e8bb 0068 4fbd
00000190: ab18 32bb 4903 1fba dccb 963c 5de1 e23c
000001a0: cbac d43c 187c 623d 9976 183c 27ae 8abd
000001b0: a4c3 27bc 2d8e 5e3d 996d 8f3d d357 bcbc
000001c0: b160 5cbd bfa5 e8bc 6999 37bc e3e3 0fbd
000001d0: 25e0 a5bd fc1c 83bd 337b c43c bfe2 dbbc
000001e0: 2a2d 743d 8af6 af3d 77ae 043c 8c64 523c
000001f0: 9b6c 943d 2229 93bd 758e 553a 02d5 34bd
00000200: 9279 78bc d537 9abd 24bc 5e3b 0845 a23d
00000210: d397 14bd 5ab7 b23d 4a73 9ebc ab8c 963c
00000220: e12d ce3c 42c7 963d 0f55 853d 1d5b bc3d
00000230: 9ec4 683d 4e2c 1cbd aed4 c63c 486a 73bd
00000240: f4e1 043d d557 82bd 286f a1bc adf2 f9bb
00000250: 9b41 ab3d 816a 7bbd b542 24bb 647d 94bc
00000260: 7e75 b63d db3f 583d c990 4cbd 0c39 b3bd
00000270: 273c 8dbd df84 12bc 6701 553d 4da1 12ba
00000280: 5ad0 9a3c cf93 5a3d 5ca1 31bd f12e 84bc
00000290: e04b 9bbd 6bc2 a83d 30ab c8ba 767d f4bb
000002a0: d394 2bbd 7a62 a93d ebe0 38bc 5740 a8bd
000002b0: 38bc adbd ebef dc3c 5c9c 58bd 5332 6a3d
000002c0: 4ba6 61bd 8608 373d 5ea7 73bd 66b5 a6bd
000002d0: 9c14 cabc 8271 47bc 33dc 4ebd 2162 d13c
000002e0: bf79 0e3d 2007 1fbd 44d7 003d afed 7e3d
000002f0: 1064 443d 0671 8a3d a52d 853d 6a48 bfbc
00000300: e6d4 563d 6794 debc 5893 953d 285a 7d3c
00000310: ea7e d23b 7294 893d fe98 19bc b738 90bd
00000320: 3db3 aa3d ca46 51bd d5f9 9a3d ded9 74bd
00000330: 6517 05bd 9b46 16bd d7f5 b2bd 95d7 03bd
00000340: c0ee 763d e1f7 81bd 75e9 c4bc de24 ab3d
00000350: 0eed 38bd 5392 20bd 3214 43bd 917a 523c
00000360: 1238 55bd bb6a 693d b731 47bd c224 263d
00000370: 4465 74bc 3da7 d2bc 8c65 92bd 867c cf3c
00000380: e965 b2bc 6ad4 a83d 7885 ce3c 6e5c 9cbd
00000390: b24a 723d a761 563d 9faa ae3d 7937 b33d
000003a0: 2000 fbbc 9137 a93d a4b8 5b3d 8f23 223d
000003b0: 5a21 8d3d ee1f e3bc 30d2 7f3d 7363 73bd
000003c0: bce0 bb3d 5825 0dbd 8a0a 51bd 966a a53d
000003d0: 10ef 49bd 28e4 38bd 1a5f eaba 78ab f73c
000003e0: bdc3 673c 253f 82bd ed0a 663d f359 873c
000003f0: e3b2 f33a 19e0 4bbd 7a51 873d 9126 56bd

module.conv_1.bias f4 [56]
-0.010802709 0.036712855 0.05008003 -0.040809516 0.0004887862 -0.051655605 0.07482848 -0.008773739
-0.042999182 0.1053989 0.043127704 0.0059686983 -0.048027027 -0.0596618 0.057342075 0.009955875
0.056677483 -0.011052985 0.04749473 -0.061644975 0.043872464 0.04917849 0.05092328 -0.022686029
-0.048812382 0.06594454 0.0034959426 0.010372908 -0.06991112 -0.040162295 0.09202656 0.06645388
0.07699581 0.03164058 -0.00840921 0.06549432 0.020624459 -0.06663362 0.104981594 -0.025216397
-0.017730108 0.07204155 0.046393573 0.05150354 0.035456378 -0.06665866 -0.009052845 0.037575204
-0.063673474 -0.063506305 0.08709419 0.08493266 0.059398632 -0.07618114 0.002237964 -0.045068093
00000000: d8fd 30bc 3860 163d b820 4d3d e127 27bd
00000010: e321 003a d494 53bd ad3f 993d bbbf 0fbc
00000020: e91f 30bd 61db d73d ada6 303d 1295 c33b
00000030: fdb7 44bd ee5f 74bd 86df 6a3d f71d 233c
00000040: a626 683d 9417 35bc d689 423d 717f 7cbd
00000050: 9db3 333d 626f 493d ee94 503d 0dd8 b9bc
00000060: 7eef 47bd ee0d 873d 2f1c 653b 21f3 293c
00000070: 902d 8fbd 3881 24bd 6c78 bc3d f918 883d
00000080: fbaf 9d3d 8e99 013d c8c6 09bc e321 863d
00000090: a0f4 a83c 3577 88bd 9700 d73d 9e92 cebc
000000a0: bb3e 91bc 858a 933d 3007 3e3d 60f5 523d
000000b0: b53a 113d 5684 88bd 6252 14bc 75e8 193d
000000c0: 3d67 82bd 980f 82bd 705e b23d 2df1 ad3d
000000d0: fb4b 733d dc04 9cbd ceaa 123b 5299 38bd

module.conv_2.weight f4 [12, 56, 1, 1, 1]
0.09324592 0.06857059 0.03181867 -0.11115198 0.042130616 -0.044684753 -0.043988027 0.076118976
-0.13979529 0.18120016 -0.027887562 0.13376386 0.056365196 0.055441767 -0.043986358 0.0967637
-0.06492472 0.06647417 -0.05148604 -0.016166631 -0.013421566 0.14863347 0.11213583 -0.06374802
-0.08700306 -0.037344612 0.09733222 -0.04061916 -0.07758007 -0.059470948 0.14144847 0.019881818
-0.00044157135 -0.23124966 0.13640457 0.19231237 -0.026525548 0.056516048 0.031995274 0.12052328
0.11608765 -0.0052973367 0.059301514 0.0043685255 -0.08603638 0.03193389 0.021925077 0.14406483
0.0710812 0.08533566 0.0738477 -0.03741127 0.033931274 0.0369347 -0.08635045 0.06005007
0.1416418 3.5519737e-05 -0.09549193 -0.13665159 -0.02636734 -0.01845477 0.057550237 0.10485923
-0.0499435 -0.026345128 0.15000622 0.054816242 -0.054734208 0.016428659 0.120038256 0.14393319
-0.123153605 0.19025865 -0.048223075 -0.06120669 0.0013662837 -0.12930816 0.0697094 -0.02040923
0.0016944354 0.12627782 -3.395026e-05 -0.13932116 -0.022687772 0.017406147 -0.021249881 -0.014435278
0.17012477 0.040275153 0.066398226 -0.02655557 -0.11805463 0.028227009 -0.11344456 -0.06387325
-0.049118325 -0.109374374 0.07099341 0.09336781 0.041762654 -0.016245928 -0.05272316 0.095865265
-0.08264962 0.07823968 0.11348146 0.096606165 -0.013673524 -0.082930446 -0.037581887 0.060646396
-0.006721022 -0.0049561146 -0.114757754 0.10067557 -0.052763417 -0.0840451 0.08743908 -0.09958542
0.11497145 -0.09505963 0.031128488 0.10235705 -0.023252055 -0.049660854 0.09556431 -0.071159795
0.048724927 -0.16190116 0.123555966 0.05823045 0.012084164 0.13184652 -0.117301896 0.061132777
-0.14322133 0.034240484 -0.015781365 0.017474012 -0.06524019 0.0505315 0.053405337 0.047098283
-0.07959527 -0.096512735 -0.07424121 -0.015548976 -0.09768882 0.018825673 0.11449601 -0.016297607
-0.08608506 -0.0143305855 0.015102382 -0.06115508 0.076519616 0.0997832 0.037775178 -0.06285946
-0.13081698 0.14581457 0.008999539 -0.03932996 0.05567009 -0.074014075 0.12702607 -0.14576818
-0.039245512 -0.122919075 -0.12463451 -0.00090374233 0.026096888 -0.123131216 0.017531741 -0.09517799
-0.07539425 -0.055038497 0.079693995 -0.15072052 0.07878524 0.05616641 -0.0036900605 -0.014592402
0.049350962 -0.045181956 -0.036411595 -0.11846026 0.08787878 0.12161002 -0.10699621 -0.11494603
-0.010065965 -0.01613533 -0.050826576 -0.011818868 -0.13043554 0.068909876 -0.06815416 -0.057974044
-0.045242853 0.029159786 -0.13826862 0.05782252 0.0991908 0.03239057 0.07172681 -0.1416329
0.08569983 -0.04561129 -0.052217625 0.1174914 0.1324864 -0.06130759 0.09023258 -0.033682745
0.01141906 0.03499252 0.009724367 0.034042902 0.12261355 0.10079219 -0.018317696 -0.040925134
-0.012328774 -0.0030909125 0.10494663 -0.031786203 -0.038639225 0.120361134 0.007071562 0.050916284
-0.034672238 -0.09946236 -0.0345851 -0.20878264 0.0033957502 -0.06654923 -0.07735799 0.07446721
-0.110354975 -0.08080444 0.12598817 0.10729973 0.11248624 0.12310578 0.08808811 0.043575384
0.10260665 0.016136158 0.096273765 -0.0147557305 -0.09298322 0.105435446 0.059605308 0.0569802
00000000: b8f7 be3d bd6e 8c3d 4b54 023d a6a3 e3bd
00000010: 2791 2c3d 5c07 37bd ca2c 34bd 44e4 9b3d
00000020: 7f26 0fbe 898c 393e 7574 e4bc 65f9 083e
00000030: 31df 663d e816 633d 0a2b 34bd 0c2c c63d
00000040: 40f7 84bd 9c23 883d 07e3 52bd e26f 84bc
00000050: 21e6 5bbc 5f33 183e 78a7 e53d 528e 82bd
00000060: a92e b2bd aaf6 18bd 1d56 c73d 4760 26bd
00000070: 4de2 9ebd cf97 73bd ded7 103e 32df a23c
00000080: b482 e7b9 b6cc 6cbe a4ad 0b3e 89ed 443e
00000090: 1b4c d9bc 5f7d 673d 7a0d 033d e9d4 f63d
000000a0: 5dbf ed3d 4895 adbb 25e6 723d d925 8f3b
000000b0: d733 b0bd 1ccd 023d 389c b33c bb85 133e
000000c0: 0593 913d 76c4 ae3d 773d 973d 8f3c 19bd
000000d0: 85fb 0a3d d748 173d 81d8 b0bd 10f7 753d
000000e0: 8c0a 113e 07fb 1438 4691 c3bd 65ee 0bbe
000000f0: 5200 d8bc 752e 97bc ccb9 6b3d 70c0 d63d
00000100: 8e91 4cbd bdd1 d7bc 3b9b 193e ff86 603d
00000110: fa30 60bd 6595 863c 9ed6 f53d 3963 133e
00000120: f537 fcbd 2ad3 423e 8f85 45bd deb3 7abd
00000130: e014 b33a 5c69 04be cdc3 8e3d 4231 a7bc
00000140: d117 de3a f94e 013e d065 0eb8 35aa 0ebe
00000150: b5db b9bc 5697 8e3c 3b14 aebc f281 6cbc
00000160: 3035 2e3e 8ff7 243d cbfb 873d 118b d9bc
00000170: a0c6 f1bd 543c e73c 9f55 e8bd facf 82bd
00000180: 4c30 49bd acff dfbd fe64 913d 9f37 bf3d
00000190: 510f 2b3d 2e16 85bc 3df4 57bd 0255 c43d
000001a0: 3444 a9bd 203c a03d f868 e83d 74d9 c53d
000001b0: eb06 60bc 70d7 a9bd 77ef 19bd 5b68 783d
000001c0: 053c dcbb e766 a2bb 1d06 ebbd fe2e ce3d
000001d0: 741e 58bd d61f acbd 4313 b33d 71f3 cbbd
000001e0: 2776 eb3d a0ae c2bd 2c01 ff3c 93a0 d13d
000001f0: 187b bebc 2e69 4bbd 39b7 c33d 3abc 91bd
00000200: ca93 473d 6bc9 25be e90a fd3d 0d83 6e3d
00000210: a8fc 453c c602 073e fa3b f0bd 5d66 7a3d
00000220: 9da8 12be c03f 0c3d ec47 81bc a925 8f3c
00000230: a69c 85bd 1efa 4e3d 8ebf 5a3d 21ea 403d
00000240: d802 a3bd 78a8 c5bd c70b 98bd 22c1 7ebc
00000250: 1311 c8bd 4c38 9a3c e27c ea3d 8f82 85bc
00000260: 5d4d b0bd d5ca 6abc fb6f 773c c07d 7abd
00000270: 51b6 9c3d 225b cc3d 25ba 1a3d 76bc 80bd
00000280: e3f4 05be 6a50 153e cd72 133c 7418 21bd
00000290: 5206 643d b194 97bd 1f13 023e 4144 15be
000002a0: e7bf 20bd ffbc fbbd 6140 ffbd 1fe9 6cba
000002b0: 24c9 d53c 382c fcbd ba9e 8f3c aeec c2bd
000002c0: 4d68 9abd 0c70 61bd 9b36 a33d 7b56 1abe
000002d0: 285a a13d c00e 663d f1d4 71bb f814 6fbc
000002e0: 3c24 4a3d b710 39bd 5324 15bd 4b9b f2bd
000002f0: caf9 b33d ad0e f93d d420 dbbd d368 ebbd
00000300: b8eb 24bc 3d2e 84bc 872f 50bd eda3 41bc
00000310: e590 05be 9f20 8d3d 6994 8bbd 3176 6dbd
00000320: 9250 39bd 81e0 ee3c 4a96 0dbe 4fd7 6c3d
00000330: 8c24 cb3d f9ab 043d 81e5 923d 3708 11be
00000340: 6483 af3d e7d2 3abd 26e2 55bd 559f f03d
00000350: 84aa 073e ab1d 7bbd dccb b83d ebf6 09bd
00000360: 0217 3b3c 5154 0f3d f452 1f3c 9270 0b3d
00000370: d01c fb3d 236c ce3d fe0e 96bc 1da1 27bd
00000380: a0fe 49bc e890 4abb 42ee d63d 4032 02bd
00000390: 2a44 1ebd e67f f63d 90b8 e73b 988d 503d
000003a0: 7a04 0ebd ecb2 cbbd 1ba9 0dbd 1ecb 55be
000003b0: 3c8b 5e3b f64a 88bd de6d 9ebd 4482 983d
000003c0: ca01 e2bd cc7c a5bd 0b03 013e f6bf db3d
000003d0: 305f e63d e21e fc3d 8a67 b43d 1a7c 323d
000003e0: 6f23 d23d fa2f 843c 2e2b c53d 05c2 71bc
000003f0: fd6d bebd 8aee d73d b224 743d 1264 693d

module.conv_2.bias f4 [12]
0.00096618664 0.11066467 0.0039599016 0.07707096 -0.030079218 -0.086288884 0.030829415 0.002070536
-0.07700666 0.12051676 0.044246472 0.110501796
00000000: b047 7d3a 29a4 e23d 10c2 813b 61d7 9d3d
00000010: b168 f6bc 3ab8 b0bd f88d fc3c d4b1 073b
00000020: abb5 9dbd 7ed1 f63d ca3b 353d c44e e23d

module.conv_3.weight f4 [12, 12, 3, 3, 3]
0.050209053 0.0076620867 -0.03829719 0.05553414 -0.013471411 -0.005237774 -0.032209456 -0.02847354
-0.024174329 0.030594058 0.0020337685 -0.020750055 0.041160353 -0.014225862 -0.02163718 -0.030473933
-0.05699438 -0.013240503 0.065209635 0.042664614 -0.028788958 0.016103018 -0.025876563 0.008021481
0.012663148 -0.051215876 -0.061749604 -0.024094863 0.03694919 -0.03624067 -0.026589641 0.029705219
-0.037848376 0.009584923 -0.019315377 0.021279162 -0.020206816 -0.004102914 0.039246026 -0.044480007
0.010851448 -0.022562275 0.008633825 -0.003688187 0.030203814 0.03775855 -0.033351734 0.009008818
-0.0135647785 0.061377477 0.0052507697 0.058056686 0.016232431 0.06452843 -0.052000534 0.019888552
-0.008604445 -0.008132582 -0.010900352 -0.012127652 0.025276447 -0.025929596 0.018722016 -0.053472668
-0.0151779475 -0.026446836 0.04084577 -0.017836733 0.0001985621 0.0022324482 -0.002770769 0.027513852
0.025796993 0.028443748 0.026850335 0.04542511 -0.021292532 0.028418327 0.031835712 -0.011152202
0.0046954225 0.019537335 0.014189648 -0.023145441 -0.027392883 0.05125607 -0.033205625 0.015907066
0.026151983 -0.02615772 0.025530024 0.030197987 0.01670433 -0.04458463 -0.016347531 0.0578348
-0.006104713 0.0072841346 -0.01461942 0.049148694 0.023280332 0.043017995 -0.042983007 0.040704254
-0.022647075 0.035260223 -0.0431795 0.043034296 -0.037743535 -0.07419071 -0.038044263 0.035173718
-0.042521022 -0.012709823 -0.060703717 -0.053403184 0.005403022 -0.017577492 -0.037349317 0.032149248
-0.04860127 -0.0007159104 -0.035997406 0.0003502596 -0.05876994 -0.0421351 -0.051239885 -0.004140749
0.02212323 0.02791549 -0.031490035 0.024124475 0.028151961 -0.053908378 0.007760598 -0.0053759087
0.00413598 0.037127733 0.00092510384 -0.029119326 -0.01908915 0.0027812587 0.013246987 0.016403403
0.0051096147 0.0065231854 0.022256667 -0.03243759 0.04373081 -0.04845555 -0.04565221 -0.034817815
0.03358229 0.0076715415 -0.05074496 0.03661414 -0.008320425 -0.026398804 -0.014166302 -0.020239433
-0.046076197 0.042898703 -0.027352164 0.07458551 0.08253983 0.08524137 0.06776339 0.101493925
0.049197834 0.01402767 0.07666754 -0.0068226648 0.0131549705 -0.012318471 0.048571233 0.042756923
0.039451957 0.006966991 -0.005042303 -0.0155321 0.0119171245 0.024185004 0.061301485 0.045631032
0.04219089 0.006627253 0.05042972 0.056804255 0.0628493 0.040108856 -0.051699333 0.001827622
-0.053713083 0.0058422997 0.0092551615 0.057168543 -0.050280087 -0.045591444 0.0031227316 0.037503358
-0.023750307 -0.031230908 0.006012194 0.0064684288 -0.020790203 0.05077729 -0.0037598086 0.037674982
-0.009722996 -0.010928262 -0.008183582 -0.015093867 0.008655664 -0.02360491 -0.050920144 0.027990866
-0.011203066 0.047142226 -0.009171382 -0.009291428 -0.01595369 -0.019701786 0.0468924 -0.0053820806
0.033389132 0.038262088 -0.029481642 -0.03312088 -0.0059360024 -0.0033463317 0.0011145005 -0.012976597
0.043420173 0.046986114 -0.018455116 -0.011803841 0.011835391 0.036591038 -0.05133234 -0.03842112
0.024964757 -0.003970077 0.0005956673 0.012555882 0.056058384 -0.003488274 -0.002499438 -0.009269454
0.0349311 -0.013188716 -0.03966566 -0.03620175 -0.028558295 0.032245725 -0.014650334 -0.041653156
00000000: 02a8 4d3d 3e12 fb3b 84dd 1cbd c477 633d
00000010: 31b7 5cbc a2a1 abbb 10ee 03bd 5741 e9bc
00000020: 3e09 c6bc 64a0 fa3c f948 053b 05fc a9bc
00000030: c297 283d 9713 69bc 7540 b1bc 78a4 f9bc
00000040: f072 69bd b2ee 58bc a18c 853d 17c1 2e3d
00000050: d2d6 ebbc 7aea 833c 16fb d3bc 886c 033c
00000060: 1879 4f3c bdc7 51bd 27ed 7cbd 9762 c5bc
00000070: 0958 173d 1971 14bd 85d2 d9bc 5c58 f33c
00000080: e606 1bbd 150a 1d3c 483b 9ebc a351 ae3c
00000090: c488 a5bc bd71 86bb 71c0 203d ab30 36bd
000000a0: 46ca 313c 85d4 b8bc e374 0d3c 83b5 71bb
000000b0: fd6d f73c b6a8 1a3d d49b 08bd b999 133c
000000c0: ce3e 5ebc f366 7b3d a60e ac3b d9cc 6d3d
000000d0: e0f9 843c 7b27 843d 83fe 54bd 51ed a23c
000000e0: a8f9 0cbc 853e 05bc 6497 32bc 0fb3 46bc
000000f0: 8d10 cf3c 4e6a d4bc ea5e 993c 2806 5bbd
00000100: edac 78bc 09a7 d8bc e54d 273d 571e 92bc
00000110: 1c35 5039 444e 123b ca95 35bb bb64 e13c
00000120: 3754 d33c dd02 e93c 3cf5 db3c ae0f 3a3d
00000130: ad6d aebc 8dcd e83c 2a66 023d bab7 36bc
00000140: 0fdc 993b c30c a03c b37b 683c 829b bdbc
00000150: 0a67 e0bc e3f1 513d 9f02 08bd 894f 823c
00000160: af3c d63c b748 d6bc 5724 d13c c561 f73c
00000170: 85d7 883c 5f9e 36bd 42eb 85bc 2fe4 6c3d
00000180: 0b0a c8bb c0af ee3b 4b86 6fbc 2450 493d
00000190: 65b6 be3c a333 303d f30e 30bd 81b9 263d
000001a0: 5c86 b9bc 066d 103d fddc 30bd bb44 303d
000001b0: f798 1abd 4df1 97bd 4dd4 1bbd 5112 103d
000001c0: 862a 2ebd dd3c 50bc 76a4 78bd 4cbd 5abd
000001d0: d50b b13b acfe 8fbc 99fb 18bd eeae 033d
000001e0: 2012 47bd efab 3bba 0472 13bd 0ca3 b739
000001f0: c0b8 70bd db95 2cbd eae0 51bd 1faf 87bb
00000200: c73b b53c 07af e43c b2fb 00bd b1a0 c53c
00000210: f19e e63c 08cf 5cbd 9d4c fe3b 6428 b0bb
00000220: 1d87 873b 4013 183d ab82 723a a78b eebc
00000230: d960 9cbc c745 363b e409 593c 6e60 863c
00000240: 8e6e a73b 72c0 d53b 9d53 b63c 47dd 04bd
00000250: 141f 333d 5479 46bd d0fd 3abd 209d 0ebd
00000260: 958d 093d 8e61 fb3b f2d9 4fbd b5f8 153d
00000270: 6452 08bc 4e42 d8bc c719 68bc 2bcd a5bc
00000280: 65ba 3cbd 8db6 2f3d a511 e0bc 4ac0 983d
00000290: a40a a93d 0793 ae3d 88c7 8a3d 0cdc cf3d
000002a0: ab83 493d 50d4 653c df03 9d3d a990 dfbb
000002b0: f287 573c 6ad3 49bc a1f2 463d e221 2f3d
000002c0: 6098 213d 5b4b e43b e739 a5bb 597a 7ebc
000002d0: 0b40 433c a11f c63c 4417 7b3d 9be7 3a3d
000002e0: 5bd0 2c3d 6d29 d93b 658f 4e3d 94ab 683d
000002f0: 22b7 803d 2f49 243d aec2 53bd d18c ef3a
00000300: 4002 5cbd c370 bf3b f6a2 173c 9029 6a3d
00000310: 7ef2 4dbd 18be 3abd bea6 4c3b 1f9d 193d
00000320: 0190 c2bc f6d7 ffbc f001 c53b 1df5 d33b
00000330: 3750 aabc d9fb 4f3d 1f67 76bb 1551 1a3d
00000340: 334d 1fbc 740c 33bc 6e14 06bc 444c 77bc
00000350: 7cd0 0d3c 165f c1bc a491 50bd 1a4d e53c
00000360: 118d 37bc 3518 413d 9043 16bc 133b 18bc
00000370: 50b1 82bc a465 a1bc 3f12 403d 2a5c b0bb
00000380: 0bc3 083d b5b8 1c3d 7c83 f1bc c3a9 07bd
00000390: cc82 c2bb 214e 5bbb 6e14 923a cb9b 54bc
000003a0: 5ad9 313d 8374 403d 2f2f 97bc e664 41bc
000003b0: 3ae9 413c 7ce0 153d dc41 52bd 775f 1dbd
000003c0: e482 cc3c 6b17 82bb 8e26 1c3a 30b7 4d3c
000003d0: 7a9d 653d 879b 64bb 9ccd 23bb e8de 17bc
000003e0: ea13 0f3d 7c15 58bc 7678 22bd 4948 14bd
000003f0: 16f3 e9bc 1814 043d f407 70bc 809c 2abd

module.conv_3.bias f4 [12]
0.055565674 -0.028946735 -0.02259779 0.0424104 0.028173478 -0.009004463 -0.02097115 0.018259544
0.03927488 -0.0043800096 -0.03905354 -0.035491336
00000000: d598 633d b421 edbc 001f b9bc 87b6 2d3d
00000010: 11cc e63c 7587 13bc b0cb abbc 0a95 953c
00000020: b2de 203d 2f86 8fbb 9bf6 1fbd 5d5f 11bd

module.conv_4.weight f4 [12, 12, 3, 3, 3]
-0.009696253 -0.02264107 0.005527244 0.045239735 0.012932627 -0.02323341 -0.028613156 0.060201664
-0.03053163 0.061583795 -0.030657941 0.009816163 0.035249412 -0.017844867 -0.018076526 -0.008748038
0.05290437 -0.04314243 -0.021230958 -0.03632592 0.0340745 0.017647913 0.023201402 0.04378543
-0.015631307 -0.021502776 0.012288182 0.049903393 0.028407732 0.054540694 -6.218616e-05 0.0519585
-0.005291491 0.038742658 0.041467138 0.06079359 0.01903654 0.017547715 0.054765884 -0.003990761
-0.03588008 0.010103643 0.05091884 -0.03591858 0.03587852 -0.031423688 0.023954643 0.050552398
0.00941599 0.0154606365 -0.026583314 0.036663964 -0.01157799 0.029489417 -0.0037936026 0.056853052
-0.003879803 0.020714736 0.0562614 -0.02751789 -0.038235106 0.021161512 -0.022245908 -0.0046907086
0.0025512886 -0.01718176 0.057835754 0.04213103 -0.041445594 -0.031020442 0.011212205 0.017575053
-0.016761996 -0.005429542 -0.02915616 -0.020934628 0.055345006 -0.026028857 0.007160793 -0.0270602
-0.011966562 -0.018244622 0.058884136 0.028235292 0.022304533 0.012265608 0.021825407 -0.010397701
0.009221685 -0.021661568 0.013066734 0.009378743 -0.034856714 -0.013162645 0.03645192 -0.011214509
0.03269622 0.030252887 0.06407767 0.035985157 -0.037238635 -0.036933973 0.030112142 -0.014941551
-0.014727252 0.059198864 -0.046371467 -0.016911568 0.019893674 -0.04735845 0.028193656 0.011457519
-0.039286513 -0.0008093297 -0.033944145 0.03179965 -0.047605984 0.013680945 -0.012974299 0.051861253
0.024921084 -0.044233497 -0.04464849 -0.036282264 -0.021602526 -0.016243063 -0.049569793 0.03679182
0.06196657 0.034316313 0.029814625 -0.01697299 -0.011467813 0.03883858 0.052160494 0.02217744
-0.025400525 0.01246941 0.053301565 0.0075327666 -0.03007906 0.011592958 0.041809727 -0.042093508
0.025809608 0.051547784 -0.046355393 0.04669299 -0.042707037 0.03880227 -0.02939416 -0.015770014
0.020129848 -0.0040416378 0.041376706 0.045223672 0.042408552 0.04809428 -0.0051483423 0.05916129
-0.003173582 -0.041807316 -0.046725005 -0.006488575 0.06474296 0.010900402 -0.018023646 0.03708153
0.026611911 -0.034781788 0.0048264824 -0.014182866 -0.025411911 0.015763551 0.04899845 0.055607006
0.04378535 0.064045474 -0.030139761 0.0108816475 0.036473297 0.032923378 -0.011597592 0.0011174213
0.013930333 -0.020295363 0.037625607 -0.032163784 0.0033809936 0.035132688 -0.041471522 -0.03513783
-0.026818322 0.05880488 0.046604265 -0.040502917 0.025921334 -0.015994363 -0.04943515 -0.043550264
-0.040802587 -0.01445865 0.00011605815 -0.048787713 0.014784376 0.057483852 0.05518828 -0.0065546753
0.0401644 -0.0012010183 0.032508235 0.0005594215 -0.00214101 -0.0058449744 -0.03775588 0.009493832
0.024821417 0.049391877 0.057047386 0.025391959 -0.017844109 0.013690938 0.024327429 0.056022428
-0.006569474 0.049598865 0.01225276 -0.026699597 -0.0043353285 0.035038307 -0.032907832 0.048186053
0.02843551 0.062634386 0.046383146 -0.037263196 0.053824037 0.009556879 -0.023243234 -0.011854128
0.05475277 -0.0126936985 0.04727545 -0.041919287 0.056648474 -0.037236713 -0.0016862842 -0.034651343
-0.003362527 -0.005938798 -0.033680048 -0.011555777 0.030895123 0.038153872 0.010954283 0.050426513
00000000: 08dd 1ebc c479 b9bc e21d b53b 4d4d 393d
00000010: 5fe3 533c fe53 bebc 2366 eabc 0596 763d
00000020: 781d fabc 4a3f 7c3d 5d26 fbbc f9d3 203c
00000030: b061 103d 662f 92bc 3915 94bc ee53 0fbc
00000040: 41b2 583d 1eb6 30bd 8cec adbc 7dca 14bd
00000050: b491 0b3d 5b92 903c de10 be3c 5a58 333d
00000060: 3a0d 80bc 9726 b0bc 5f54 493c 8067 4c3d
00000070: 55b7 e83c 1066 5f3d f169 82b8 70d2 543d
00000080: 3e64 adbb 9fb0 1e3d 72d9 293d b302 793d
00000090: 85f2 9b3c 3ac0 8f3c 3152 603d eec4 82bb
000000a0: fef6 12bd c089 253c 4690 503d 5c1f 13bd
000000b0: 5bf5 123d 20b6 00bd 873c c43c 0810 4f3d
000000c0: 8645 1a3c 9c4e 7d3c 40c5 d9bc f42c 163d
000000d0: 9cb1 3dbc ca93 f13c 179e 78bb bfde 683d
000000e0: 4b44 7ebb f3b1 a93c 5b72 663d 336d e1bc
000000f0: 6a9c 1cbd e85a ad3c 0d3d b6bc 84b4 99bb
00000100: 8533 273b c3c0 8cbc 2fe5 6c3d 9691 2c3d
00000110: dbc2 29bd 951e febc 65b3 373c 8ff9 8f3c
00000120: 7450 89bc 4dea b1bb e6d8 eebc 197f abbc
00000130: 72b1 623d 783a d5bc 16a5 ea3b 5aad ddbc
00000140: 660f 44bc bf75 95bc 7e30 713d b34d e73c
00000150: ffb7 b63c b0f5 483c 32cb b23c 1e5b 2abc
00000160: 8d16 173c 9a73 b1bc db15 563c 4da9 193c
00000170: eac5 0ebd 22a8 57bc 9c4e 153d 0fbd 37bc
00000180: 79ec 053d e7d4 f73c 273b 833d 2c65 133d
00000190: 8a87 18bd 1448 17bd bdad f63c 68cd 74bc
000001a0: 924a 71bc 827a 723d 02f0 3dbd 218a 8abc
000001b0: 0ff8 a23c effa 41bd 62f6 e63c 51b8 3b3c
000001c0: e5ea 20bd 3229 54ba 0409 0bbd 5a40 023d
000001d0: 7efe 42bd 0b26 603c 2792 54bc 776c 543d
000001e0: 4d27 cc3c 2f2e 35bd 56e1 36bd b69c 14bd
000001f0: c8f7 b0bc 2c10 85bc b209 4bbd 05b3 163d
00000200: a8d0 7d3d 438f 0c3d cd3d f43c f10a 8bbc
00000210: 7ee3 3bbc 3415 1f3d 3ea6 553d 76ad b53c
00000220: c314 d0bc 7f4c 4c3c be52 5a3d 6dd5 f63b
00000230: 5c68 f6bc 64f0 3d3c ad40 2b3d 3e6a 2cbd
00000240: ac6e d33c c523 533d 27df 3dbd 2641 3f3d
00000250: 93ed 2ebd 21ef 1e3d 05cc f0bc 1e30 81bc
00000260: 5ae7 a43c b76f 84bb 9f7a 293d 753c 393d
00000270: 97b4 2d3d 82fe 443d 6db3 a8bb 1c53 723d
00000280: dffb 4fbb 263e 2bbd b862 3fbd 1d9e d4bb
00000290: f597 843d 9a97 323c 53a6 93bc cde2 173d
000002a0: 3901 da3c 5977 0ebd 7827 9e3b 405f 68bc
000002b0: a42c d0bc 9022 813c 99b2 483d 2cc4 633d
000002c0: 4458 333d 462a 833d a9e7 f6bc f048 323c
000002d0: 0665 153d aada 063d d403 3ebc 7076 923a
000002e0: 0d3c 643c 7642 a6bc 4f1d 1a3d 2cbe 03bd
000002f0: a993 5d3b 4be7 0f3d 0bde 29bd afec 0fbd
00000300: 19b2 dbbc 63dd 703d 1de4 3e3d 63e6 25bd
00000310: fa58 d43c 9c06 83bc 837c 4abd c361 32bd
00000320: 9d20 27bd f9e3 6cbc 3f64 f338 a0d5 47bd
00000330: 2b3a 723c 3074 6b3d 1b0d 623d 9ac8 d6bb
00000340: 6d83 243d 7d6b 9dba 5b27 053d 24a6 123a
00000350: 3050 0cbb 3387 bfbb e9a5 1abd 048c 1b3c
00000360: 4956 cb3c 234f 4a3d 85aa 693d cc02 d03c
00000370: cf2d 92bc f54f 603c 514a c73c c677 653d
00000380: be44 d7bb 2e28 4b3d cdbf 483c 1db9 dabc
00000390: 5f0f 8ebb 5484 0f3d 5dca 06bd bd5e 453d
000003a0: 96f1 e83c 7546 803d 41fc 3d3d 4ba1 18bd
000003b0: 9876 5c3d 7594 1c3c 9868 bebc d137 42bc
000003c0: 7144 603d 3bf9 4fbc e7a3 413d 8fb3 2bbd
000003d0: 3b08 683d 8685 18bd 4f06 ddba 91ee 0dbd
000003e0: d75d 5cbb 409a c2bb 17f4 09bd 7154 3dbc
000003f0: c517 fd3c 3c47 1c3d 9879 333c 088c 4e3d

module.conv_4.bias f4 [12]
0.004100245 0.0373489 0.040515624 0.012572164 -0.0009288855 0.01579842 -0.013391019 -0.04717304
0.047785178 0.03864406 -0.036302503 0.047451798
00000000: 595b 863b 29fb 183d b6f3 253d 7afb 4d3c
00000010: 7380 73ba b06b 813c 0166 5bbc 8538 41bd
00000020: 64ba 433d 3c49 1e3d efb1 14bd d15c 423d

module.conv_5.weight f4 [12, 12, 3, 3, 3]
0.02422834 -0.011919677 -0.05363329 0.050640997 0.030756243 -0.008486986 -0.021933336 -0.017712105
-0.028784715 0.0027135988 0.040647674 -0.024620011 0.032460336 -0.006307761 -0.005627702 0.041532494
0.011253868 0.024443712 -0.022211248 0.0070827487 0.011917882 0.012456673 -0.008003348 -0.0027169248
-0.049711026 -0.01519455 0.026625346 0.034717504 -0.00854079 0.029508201 -0.04140722 -0.04442413
-0.03430159 -0.019640693 -0.043094046 -0.019914327 0.015783474 -0.042102948 0.03645836 -0.024680926
0.041697837 0.043072972 -0.031454694 0.0426972 -0.0016623823 -0.013497586 -0.029290667 0.0046314653
0.041407995 0.020043885 -0.031164406 -0.0469853 -0.005822927 0.029598402 0.040704116 0.008016188
-0.047501713 0.024923041 0.05395111 -0.028625926 0.06058836 0.05161353 0.026376529 -0.018191544
0.035356276 -0.018118294 -0.025592292 0.052306484 0.010766924 0.022297949 -0.0051196446 -0.031674977
-0.013113662 0.01692554 -0.016532414 0.032180462 -0.00925018 0.00872252 -0.033744883 0.016128425
0.01387646 -0.007622485 -0.042294037 -0.037376225 0.043120414 0.023495339 -0.024470342 0.053584173
0.033892877 0.024798479 0.051697906 0.043729767 -0.03653817 -0.021886352 -0.04614908 0.04520323
0.062240392 -0.033054646 -0.038682077 0.058804918 -0.026020441 0.049975518 0.05353779 -0.026379952
-0.05020979 -0.023490664 0.04057674 -0.03488886 -0.059352066 0.024794873 0.016821407 0.06274192
-0.039198264 0.026188584 0.027558846 0.0485455 0.00083443546 0.012687052 -0.04130174 -0.07157338
-0.012605097 -0.04087665 -0.05013711 0.052626006 0.042709254 0.053291555 0.0063556237 -0.016240522
0.015641509 0.051621296 0.003688527 -0.05391024 0.03972276 0.045818303 -0.032386333 0.046263617
-0.036570933 0.03471777 0.051759336 -0.032057267 0.010704754 -0.03633415 0.031366855 -0.023131449
0.025633212 -0.016885728 -0.0053240927 0.014223195 -0.011633503 0.035506163 -0.03181252 0.0031676556
0.030601343 0.019898662 0.03595166 0.024689138 0.030019952 0.02926614 0.0059946845 -0.02998084
-0.0064273854 -0.029167509 0.008923774 0.0479909 -0.008361686 -0.041051492 -0.02859767 -0.056986745
0.016767863 -0.072413765 0.015246209 0.010700947 0.027570086 -0.042352434 0.0011779149 0.03586927
-0.034666367 -0.04238526 -0.0075392737 -0.010512814 -0.035102274 -0.037485786 -0.03933425 0.005047995
0.005613402 0.040052902 -0.020087982 0.023093853 0.016365366 0.01622432 -0.022947825 -0.04394587
0.06201648 0.024756579 0.028982598 0.015847448 -0.05146853 -0.014873428 -0.041149516 0.0028342705
-0.043662876 -0.02968011 0.025538292 -0.02750677 0.044696428 0.011335188 0.003498776 0.047988687
0.008837494 0.029208278 -0.039494205 -0.025344042 -0.054339614 -0.040318094 -0.0033503305 0.013731251
0.036933064 0.008977598 -0.033349026 -0.0206166 -0.011809513 -0.024203902 0.053866297 0.01346154
0.032494243 0.03495396 -0.045464676 0.022279816 -0.032092385 0.026115531 -0.014152473 0.014773983
0.0015863378 -0.0415979 0.027463071 0.0061945384 -0.0061071482 0.020071533 0.010749196 0.028803892
0.04293411 -0.024821324 0.03338459 -0.02741103 0.0843586 0.016960545 0.055676054 -0.005304628
0.041138496 -0.0393151 0.05596404 0.024983544 -0.016921699 0.04578072 0.05464067 0.06962407
00000000: 837a c63c c04a 43bc 95ae 5bbd ef6c 4f3d
00000010: 84f4 fb3c 000d 0bbc 8aad b3bc fa18 91bc
00000020: eccd ebbc a2d6 313b 2d7e 263d e8af c9bc
00000030: 21f5 043d 56b1 cebb 9668 b8bb fa1d 2a3d
00000040: 2562 383c 2e3e c83c 5df4 b5bc 6716 e83b
00000050: 3843 433c 1317 4c3c 7920 03bc 6f0e 32bb
00000060: ca9d 4bbd 90f2 78bc 661d da3c f133 0e3d
00000070: abee 0bbc 2fbb f13c 9e9a 29bd 14f6 35bd
00000080: d37f 0cbd 85e5 a0bc 6283 30bd 5f23 a3bc
00000090: 584c 813c 2474 2cbd 5c55 153d a72f cabc
000000a0: 5acb 2a3d 496d 303d a3d6 00bd 42e3 2e3d
000000b0: 4be4 d9ba fb24 5dbc fbf2 efbc 8cc3 973b
000000c0: 6e9b 293d 1333 a43c 7f4c ffbc a873 40bd
000000d0: 41ce bebb 5978 f23c 5cb9 263d 5456 033c
000000e0: 2891 42bd 682b cc3c d7fb 5c3d eb80 eabc
000000f0: 802b 783d b568 533d 9713 d83c 6f06 95bc
00000100: bed1 103d d16c 94bc eda6 d1bc 533f 563d
00000110: c167 303c 30aa b63c b1c2 a7bb 9fbd 01bd
00000120: afda 56bc 6ea7 8a3c fc6e 87bc a9cf 033d
00000130: 118e 17bc e7e8 0e3c 1338 0abd c21f 843c
00000140: 175a 633c 0ac6 f9bb 833c 2dbd d017 19bd
00000150: 089f 303d 4c79 c03c 0776 c8bc 147b 5b3d
00000160: 42d3 0a3d 2e26 cb3c 2fc1 533d fc1d 333d
00000170: 0ca9 15bd 024b b3bc d106 3dbd 0627 393d
00000180: c8ef 7e3d 4f64 07bd 1971 1ebd 6ddd 703d
00000190: d228 d5bc 21b3 4c3d 714a 5b3d c51a d8bc
000001a0: c8a8 4dbd 7e6f c0bc cc33 263d 9fe7 0ebd
000001b0: 271b 73bd 9e1e cb3c 0ccd 893c d67e 803d
000001c0: 5c8e 20bd 7189 d63c 17c3 e13c a5d7 463d
000001d0: 04be 5a3a 5add 4f3c 032c 29bd 1095 92bd
000001e0: 9c85 4ebc 466e 27bd 925c 4dbd 5e8e 573d
000001f0: e6ef 2e3d 3f48 5a3d d642 d03b d80a 85bc
00000200: 9f22 803c da70 533d 37bb 713b fcd0 5cbd
00000210: 55b4 223d f9ab 3b3d 88a7 04bd eb7e 3d3d
00000220: 67cb 15bd 3834 0e3d 9901 543d 7b4e 03bd
00000230: fe62 2f3c 1ed3 14bd 887a 003d 2a7e bdbc
00000240: befc d13c f053 8abc ba75 aebb 6708 693c
00000250: 739a 3ebc e96e 113d d84d 02bd 7198 4f3b
00000260: abaf fa3c 8502 a33c 0c42 133d e040 ca3c
00000270: 67ec f53c 8bbf ef3c 0f6f c43b 619a f5bc
00000280: d19c d2bb b3f0 eebc 0535 123c 1b92 443d
00000290: 74ff 08bc 9c25 28bd a945 eabc ef6a 69bd
000002a0: c25c 893c ab4d 94bd 3ccb 793c 0653 2f3c
000002b0: a9da e13c bf79 2dbd 4464 9a3a a8eb 123d
000002c0: 52fe 0dbd 2b9c 2dbd 030c f7bb f03d 2cbc
000002d0: 67c7 0fbd b28a 19bd f31c 21bd a769 a53b
000002e0: a1f0 b73b 830e 243d 8d8f a4bc 522f bd3c
000002f0: a910 863c dde8 843c 14fd bbbc 9600 34bd
00000300: fe04 7e3d 4fce ca3c ea6c ed3c 82d2 813c
00000310: aad0 52bd aeaf 73bc 658c 28bd 2bbf 393b
00000320: d8d7 32bd b423 f3bc ae35 d13c e155 e1bc
00000330: 9a13 373d 39b7 393c b84b 653b c98f 443d
00000340: 23cb 103c 3346 ef3c adc4 21bd 4f9e cfbc
00000350: 3793 5ebd 9624 25bd 3891 5bbb 0af9 603c
00000360: 2047 173d c616 133c fd98 08bd 25e4 a8bc
00000370: b07c 41bc 4347 c6bc e8a2 5c3d cb8d 5c3c
00000380: af18 053d e22b 0f3d 2b39 3abd 2984 b63c
00000390: 4e73 03bd 3df0 d53c c6df 67bc 930e 723c
000003a0: aaec cf3a 8f62 2abd 3cfa e03c 8efb ca3b
000003b0: 791e c8bb 0e6d a43c 651d 303c 24f6 eb3c
000003c0: addb 2f3d 1756 cbbc 48be 083d 198d e0bc
000003d0: 34c4 ac3d d7f0 8a3c 930c 643d 72d2 adbb
000003e0: d780 283d df08 21bd 8d3a 653d 4aaa cc3c
000003f0: 609f 8abc 9084 3b3d e5ce 5f3d 1097 8e3d

module.conv_5.bias f4 [12]
-0.050302338 0.015452564 0.04373618 -0.025275357 0.023839945 0.012538633 0.03683455 0.06547368
-0.031555936 0.013573872 0.018382562 0.011641036
00000000: d309 4ebd c02c 7d3c b524 333d 440e cfbc
00000010: fd4b c33c d76e 4d3c d3df 163d 1117 863d
00000020: cc40 01bd f264 5e3c 0797 963c 0bba 3e3c

module.conv_6.weight f4 [12, 12, 3, 3, 3]
0.014781217 -0.045901258 -0.006438199 -0.013123295 0.024019422 -0.008407572 -0.013390024 -0.051930383
0.045920804 0.039872706 -0.024511939 -0.042254463 -0.056573287 -0.01136805 0.014961658 -0.058259327
-0.020094382 -0.014358345 -0.03930363 0.0050365715 0.03602756 -0.025201526 -0.009886721 0.045789894
-0.043179203 -0.024125077 0.007498475 0.05474893 0.021897081 -0.024487402 0.022398 -0.036855914
-0.038488515 0.0008645605 0.020613741 0.056265913 -0.047413893 0.031472307 -0.00120387 0.007909719
0.000566136 0.048173945 -0.04590083 0.027445007 -0.045771133 0.039567035 0.012569436 -0.038368072
-0.030239657 0.025092648 0.061977897 0.020397147 0.012635395 -0.018368164 0.054068737 -0.0037825573
-0.03860023 -0.0015889575 0.05766911 0.05191009 -0.045437995 -0.005589827 0.0013102506 -0.0007336918
0.030603135 0.011484452 0.032066386 -0.03563884 0.06999143 -0.032318253 0.04897905 0.056926098
0.005798902 0.023101881 0.04989973 -0.026610907 0.012965747 0.0062175584 0.034837462 -0.043727852
0.06136334 0.0010638258 0.021075416 -0.044341654 0.015616797 -0.023635132 -0.024616504 0.03261987
-0.039959706 -0.022100028 0.009630855 -0.0046094954 0.03076518 0.02625469 0.041925732 0.052767586
-0.034169026 0.014060138 0.029624067 -0.0043160785 -0.029757611 0.0492916 -0.011050842 0.0417403
0.05093058 0.039652992 -0.011777549 0.009319437 0.03622762 -0.02942831 -0.0010895095 -0.0035025985
-0.05173148 -0.0487285 0.009375644 0.0039216643 -0.01647882 0.011120687 0.023406245 -0.026937634
-0.012027153 0.02601536 -0.049512114 -0.022512 0.0126618985 -0.042895515 0.0018176857 0.03424415
0.026549995 -0.022253208 -0.0032753386 -0.003382854 -0.013368929 0.0067926636 0.030716343 -0.040204477
-0.014830905 -0.006384431 -0.04522131 -0.005860854 0.0063327784 -0.014175392 0.051301163 0.0045646187
-0.027639993 -0.044195596 -0.013405387 0.06182463 -0.035705574 -0.042427093 0.004210649 0.037568793
0.063381575 -0.04972784 0.057202667 0.0006488045 -0.03428628 -0.0070206122 -0.032480717 0.026832335
-0.007060017 0.03330856 -0.0055356533 0.047286704 0.0069660014 0.009725784 0.023702778 0.010455342
-0.020534435 0.039427593 0.044022623 0.0029917848 -0.008514896 0.025409563 0.008775334 0.026340628
0.04191806 0.0052124425 -0.0047826734 -0.048504528 0.047011666 -0.037425894 -0.050203804 -0.024422375
0.025408925 -0.005763839 -0.0104816975 0.0070081293 -0.00059043226 0.052853264 0.031571135 0.07487905
0.040130343 0.013293875 0.02603151 0.0727004 0.08173418 0.05933949 -0.050891213 0.0029709984
0.03708279 -0.071427934 -0.055243302 0.0044479175 -0.03240887 -0.05371712 0.027936444 -0.043730285
0.028637366 -0.020159597 -0.043047618 -0.059480753 -0.036792215 -0.06146649 -0.017172957 -0.036382955
-0.017293101 0.0041272957 0.04001889 -0.015133254 0.03753152 0.025345111 -0.04564883 0.03839505
0.008994904 0.05686096 0.055550117 -0.02199679 -0.01842492 -0.0324948 -0.025044093 0.007959192
0.029308561 0.037548233 -1.3763533e-05 0.054545525 -0.0003130727 -0.03775174 -0.03324094 -0.017320385
0.054335404 -0.014875866 -0.041228466 0.025185179 0.023225635 -0.0022107824 0.03102893 -1.4472887e-06
-0.017147884 -0.03018313 -0.014401406 -0.049617346 -0.042617224 -0.040336195 0.035873603 0.05794837
00000000: eb2c 723c f502 3cbd 87f7 d2bb 1703 57bc
00000010: 61c4 c43c eabf 09bc d561 5bbc f4b4 54bd
00000020: 7417 3c3d 9051 233d 43cd c8bc 0413 2dbd
00000030: 64b9 67bd 0f41 3abc be21 753c 55a1 6ebd
00000040: f99c a4bc 443f 6bbc d8fc 20bd d309 a53b
00000050: a291 133d 6e73 cebc eafb 21bc 2f8e 3b3d
00000060: addc 30bd f4a1 c5bc c4b5 f53b 6a40 603d
00000070: 8261 b33c ce99 c8bc 037c b73c 3af6 16bd
00000080: 22a6 1dbd aca3 623a 26de a83c 1677 663d
00000090: 1235 42bd 1be9 003d 2dcb 9dba c497 013c
000000a0: be68 143a 0b52 453d 8202 3cbd 5ad4 e03c
000000b0: 837a 3bbd 0b11 223d 09f0 4d3c d727 1dbd
000000c0: 28b9 f7bc 198f cd3c 89dc 7d3d eb17 a73c
000000d0: b004 4f3c d578 96bc 2e77 5d3d c8e4 77bb
000000e0: 461b 1ebd 9144 d0ba 7236 6c3d ad9f 543d
000000f0: 311d 3abd de2a b7bb b7bc ab3a 3955 40ba
00000100: 6db3 fa3c 4829 3c3c 0b58 033d 08fa 11bd
00000110: ab57 8f3d 2560 04bd 429e 483d 572b 693d
00000120: b704 be3b 2840 bd3c a963 4c3d 1eff d9bc
00000130: 496e 543c a9bc cb3b bab1 0e3d fa1b 33bd
00000140: 2058 7b3d 1270 8b3a 5aa6 ac3c 989f 35bd
00000150: 98dd 7f3c 779e c1bc 8da8 c9bc 6a9c 053d
00000160: caac 23bd 1e0b b5bc bcca 1d3c 400b 97bb
00000170: 4207 fc3c 1314 d73c 51ba 2b3d d322 583d
00000180: d2f4 0bbd 7e5c 663c 2cae f23c e46d 8dbb
00000190: 3cc6 f3bc fde5 493d 970e 35bc e0f7 2a3d
000001a0: 959c 503d 2d6b 223d 9ff6 40bc 8db0 183c
000001b0: 6a63 143d a413 f1bc dfcd 8eba da8b 65bb
000001c0: 63e4 53bd 8997 47bd 4d9c 193c 4e81 803b
000001d0: 97fe 86bc 8b33 363c 74be bf3c 50ac dcbc
000001e0: 890d 45bc 2a1e d53c 37cd 4abd 166b b8bc
000001f0: da73 4f3c 35b3 2fbd 693f ee3a 9843 0c3d
00000200: 607f d93c 5c4c b6bc 10a7 56bb dfb2 5dbb
00000210: 5a09 5bbc fe94 de3b d7a0 fb3c 73ad 24bd
00000220: 53fd 72bc 7d34 d1bb fb39 39bd 680c c0bb
00000230: 3283 cf3b e73f 68bc 2b21 523d cc92 953b
00000240: 446d e2bc 7106 35bd 45a2 5bbc d33b 7d3d
00000250: 0240 12bd 08c8 2dbd 7cf9 893b bce1 193d
00000260: 33ce 813d 6baf 4bbd 584d 6a3d 8814 2a3a
00000270: c56f 0cbd 2a0d e6bb 800a 05bd 7ccf db3c
00000280: b757 e7bb 8e6e 083d 6d64 b5bb b4af 413d
00000290: 0e43 e43b e558 1f3c 542c c23c e24c 2b3c
000002a0: d537 a8bc d47e 213d 1151 343d d211 443b
000002b0: 1082 0bbc b727 d03c 6bc6 0f3c 4dc8 d73c
000002c0: 46b2 2b3d 23cd aa3b f9b7 9cbb afac 46bd
000002d0: 4e8f 403d e54b 19bd 81a2 4dbd 6f11 c8bc
000002e0: 6126 d03c 96de bcbb 6dbb 2bbc 73a4 e53b
000002f0: 3dc7 1aba aa7c 583d bc50 013d 305a 993d
00000300: b75f 243d 8ece 593c 0940 d53c f3e3 943d
00000310: 4064 a73d f70d 733d 4e73 50bd 15b5 423b
00000320: 20e4 173d cf48 92bd cd46 62bd d6bf 913b
00000330: 2abf 04bd 7c06 5cbd f8da e43c 871e 33bd
00000340: e998 ea3c bd25 a5bc b352 30bd 17a2 73bd
00000350: 6fb3 16bd 49c4 7bbd 4dae 8cbc 4b06 15bd
00000360: 43aa 8dbc 443e 873b d9ea 233d 78f1 77bc
00000370: a7ba 193d 8da0 cf3c 44fa 3abd 2144 1d3d
00000380: 5d5f 133c 0ae7 683d 8588 633d 9d32 b4bc
00000390: dcef 96bc 4419 05bd 4529 cdbc 4567 023c
000003a0: 8218 f03c 2dcc 193d ede9 66b7 216b 5f3d
000003b0: e823 a4b9 92a1 1abd a727 08bd 7be3 8dbc
000003c0: cd8e 5e3d e7b9 73bc 2edf 28bd 2651 ce3c
000003d0: b043 be3c c6e2 10bb 6230 fe3c 7640 c2b5
000003e0: b879 8cbc 9d42 f7bc e0f3 6bbc 8f3b 4bbd
000003f0: 668f 2ebd 9137 25bd 33f0 123d 455b 6d3d

module.conv_6.bias f4 [12]
0.006332434 -0.044567462 0.04407963 -0.009879809 0.0133433705 0.022905463 0.043290876 0.05285236
0.024077337 0.029251656 -0.032134224 0.009908222
00000000: 4e80 cf3b 5f8c 36bd d88c 343d ecde 21bc
00000010: 279e 5a3c 3da4 bb3c c651 313d b77b 583d
00000020: d63d c53c 2ba1 ef3c 2d9f 03bd 1856 223c

module.conv_7.weight f4 [56, 12, 1, 1, 1]
-0.14633611 0.24023707 -0.10341407 0.32273963 0.08187781 -0.06443913 0.30225262 0.015436715
0.08715987 0.0556111 0.032597035 -0.107406564 -0.25905928 0.22137311 0.044020623 0.20210801
-0.0524965 0.18592995 -0.027443675 -0.27074686 0.16052099 -0.18109849 0.02219648 0.18537024
0.22220649 -0.033650957 0.08282424 0.16212496 0.16700678 0.2726301 -0.23618463 -0.2208203
0.11681029 0.336108 -0.1043001 -0.027373679 -0.24695122 0.22363771 0.19307438 0.15419704
-0.19836505 0.11622672 0.14606872 0.18768267 -0.017432606 -0.25417852 0.298877 -0.13102347
0.029595623 -0.15270588 -0.15412146 -0.01264666 -0.030009905 0.16609508 0.06647963 0.056918714
-0.17583415 0.2378533 0.24019969 -0.15518841 -0.2809126 -0.28172064 0.13113888 0.041646317
-0.36448294 0.02617178 -0.20327187 -0.29925385 0.20482787 -0.022997707 -0.16508985 0.08197261
0.07972531 0.085835755 0.018345168 0.09563773 0.18211398 0.17651637 -0.20796412 0.15300716
-0.12125324 -0.4013555 -0.19920397 0.006396276 0.02607952 -0.06547095 -0.18819058 0.05369674
0.12515393 0.078003325 0.18702935 -0.30535308 -0.14156193 -0.24095213 -0.29555807 0.19487447
0.17152335 -0.19049034 -0.29332963 -0.067168 -0.1448813 -0.08573316 0.18889093 0.08604639
-0.09725094 -0.35471705 0.17876488 0.27474394 0.07660747 -0.12011119 -0.05497572 0.09513307
-0.3690006 -0.35667554 -0.07321193 -0.28750703 0.05244681 0.02491182 0.045422386 0.22086804
-0.18269683 -0.11895878 -0.21870181 -0.08335837 0.13641037 0.13365601 -0.16949633 0.065141685
-0.1305796 -0.13020341 0.009131769 -0.12749682 0.035187986 -0.19199882 0.28343084 0.100001484
-0.033043295 -0.18921481 -0.1532052 0.095571406 0.24641334 0.26107708 0.17279802 -0.05405709
0.15680735 0.16701841 0.10694702 -0.018007616 0.09501187 -0.024889465 -0.09056769 0.18730055
-0.023236714 -0.13827042 0.1566973 -0.266745 -0.13785258 -0.018011564 -0.23942113 -0.0398212
-0.11256667 0.15438671 0.1491 0.21320407 -0.10976058 0.26788032 -0.1725781 -0.16224714
0.0766899 0.12800868 -0.055566043 -0.21374227 -0.069825634 -0.026396018 -0.16024303 0.033672243
-0.08506916 -0.32486674 -0.240297 0.12719446 0.11499265 -0.13360426 0.21385379 0.05420801
-0.20833972 -0.251962 -0.03653715 -0.0028701287 0.10184077 0.028273497 0.031771 0.18865167
0.18438569 0.14426266 0.036370717 0.28749743 0.20521565 -0.26305005 -0.10686437 -0.24478285
0.16033097 0.15984172 -0.117999315 0.09968944 -0.022047795 0.1629648 0.1623536 0.27178958
-0.18733288 -0.15921187 -0.17922391 0.20641199 -0.24165156 -0.17959355 0.20424238 0.104973555
0.2272284 0.078347825 0.28827894 0.02830485 0.017468592 -0.101236194 0.21361001 -0.055758856
-0.30582163 -0.2570917 -0.24369353 0.0064199846 0.12326181 0.2751521 -0.009825731 -0.17567244
-0.050707098 0.060781732 -0.15589602 0.13959531 0.23023647 -0.07002449 -0.16953078 0.24874951
-0.08843729 -0.26032352 -0.10028521 -0.0030347644 -0.09130129 -0.32043844 0.16592358 -0.0060930005
0.080629356 0.18734966 -0.24900562 0.08981199 -0.19635764 0.25626278 -0.062313754 0.28157347
00000000: 22d9 15be b500 763e c2ca d3bd 213e a53e
00000010: 8eaf a73d aaf8 83bd dbc0 9a3e 47ea 7c3c
00000020: e080 b23d 77c8 633d 7884 053d f9f7 dbbd
00000030: 6ba3 84be a2af 623e f84e 343d 67f5 4e3e
00000040: 9206 57bd 6c64 3e3e 8fd1 e0bc 559f 8abe
00000050: 9d5f 243e e271 39be 64d5 b53c b2d1 3d3e
00000060: 198a 633e 96d5 09bd c19f a93d 1604 263e
00000070: d303 2b3e 2c96 8b3e 62da 71be b71e 62be
00000080: 3c3a ef3d 5916 ac3e 4a9b d5bd c43e e0bc
00000090: c8e0 7cbe 4901 653e 4ab5 453e d4e5 1d3e
000000a0: 3520 4bbe 4608 ee3d 0a93 153e e32f 403e
000000b0: d3ce 8ebc b023 82be 6806 993e 042b 06be
000000c0: 8572 f23c ee5e 1cbe 04d2 1dbe f033 4fbc
000000d0: 55d7 f5bc d414 2a3e 7926 883d 9923 693d
000000e0: de0d 34be d18f 733e e8f6 753e b6e9 1ebe
000000f0: c7d3 8fbe b03d 90be 4549 063e 5495 2a3d
00000100: 829d babe 3366 d63c 8026 50be cd37 99be
00000110: 66be 513e b065 bcbc 500d 29be 41e1 a73d
00000120: 0647 a33d a8ca af3d 9b48 963c b7dd c33d
00000130: 167c 3a3e b5c0 343e 8cf4 54be e9ad 1c3e
00000140: 9e53 f8bd 787e cdbe 20fc 4bbe da97 d13b
00000150: b8a4 d53c a215 86bd 08b5 40be 1df1 5b3d
00000160: 5a28 003e 35c0 9f3d 9f84 3f3e 3d57 9cbe
00000170: 9cf5 10be 28bc 76be 6353 97be 2c8d 473e
00000180: d1a3 2f3e e60f 43be 4d2f 96be 608f 89bd
00000190: c35b 14be de94 afbd a06c 413e 1739 b03d
000001a0: 802b c7bd 799d b5be 240e 373e 3dab 8c3e
000001b0: 61e4 9c3d dbfc f5bd 382e 61bd 21d5 c23d
000001c0: a6ed bcbe 2d9e b6be 23f0 95bd 1f34 93be
000001d0: 77d2 563d e013 cc3c d30c 3a3d 3b2b 623e
000001e0: e114 3bbe a9a0 f3bd 5ef3 5fbe cbb7 aabd
000001f0: 29af 0b3e 1fdd 083e 7290 2dbe 0169 853d
00000200: a9b6 05be 0b54 05be 6a9d 153c 878e 02be
00000210: 4721 103d 579b 44be d91d 913e 94cd cc3d
00000220: 6858 07bd 87c1 41be d3e1 1cbe f1ba c33d
00000230: c753 7c3e e5ab 853e f7f1 303e f86a 5dbd
00000240: 1b92 203e e006 2b3e 0a07 db3d b584 93bc
00000250: 9595 c23d fee4 cbbc 8e7b b9bd b7cb 3f3e
00000260: ec5a bebc c396 0dbe 4275 203e cd92 88be
00000270: 3a29 0dbe fd8c 93bc d02a 75be 8e1b 23bd
00000280: 5b89 e6bd 8d17 1e3e acad 183e 2b52 5a3e
00000290: 28ca e0bd 9c27 893e 50b8 30be 1d24 26be
000002a0: 980f 9d3d b514 033e 3899 63bd 41df 5abe
000002b0: be00 8fbd 763c d8bc c016 24be e8eb 093d
000002c0: bd38 aebd ef54 a6be 6b10 76be 443f 023e
000002d0: 4481 eb3d 8ecf 08be 7dfc 5a3e 3809 5e3d
000002e0: 0257 55be 2a01 81be fba7 15bd c518 3cbb
000002f0: e591 d03d d29d e73c 4f22 023d e72d 413e
00000300: 9acf 3c3e 97b9 133e 76f9 143d dd32 933e
00000310: 0d24 523e 7fae 86be b5db dabd 5ba8 7abe
00000320: cd2d 243e 8cad 233e a0a9 f1bd fa29 cc3d
00000330: 949d b4bc 3fe0 263e 0640 263e 0128 8b3e
00000340: 31d4 3fbe 7008 23be 7986 37be aa5d 533e
00000350: 8273 77be 5fe7 37be ea24 513e 60fc d63d
00000360: 90ae 683e d374 a03d 4c99 933e 93df e73c
00000370: 4b1a 8f3c ec54 cfbd 95bc 5a3e 6663 64bd
00000380: a794 9cbe 86a1 83be cc8a 79be bc5e d23b
00000390: b070 fc3d bce0 8c3e 1afc 20bc 7ae3 33be
000003a0: 3fb2 4fbd 44f6 783d 35a3 1fbe 13f2 0e3e
000003b0: 1cc3 6b3e 0069 8fbd 7a99 2dbe 31b8 7e3e
000003c0: 9c1e b5bd 2049 85be 5562 cdbd e6e2 46bb
000003d0: 2cfc babd 8210 a4be dfe7 293e cba7 c7bb
000003e0: 0121 a53d 97d8 3f3e 54fb 7ebe 59ef b73d
000003f0: fa11 49be e034 833e b53c 7fbd 662a 903e

module.conv_7.bias f4 [56]
-0.18704344 0.049936075 -0.1456419 -0.09240415 -0.23819079 0.25022998 0.21573667 0.22359611
0.1765923 0.21370327 0.1711241 -0.16627257 0.0042821183 -0.2425062 0.20653053 0.05799087
-0.12619735 -0.12923379 -0.0049815243 -0.24845074 0.12699766 -0.13725716 0.20233503 0.060900927
0.10067983 -0.2291739 0.08202639 0.016947271 -0.15140526 0.17874838 -0.15087974 0.2262192
0.03229524 0.06783066 -0.04636907 0.04974857 0.08034235 -0.07100371 0.15003398 0.20847188
-0.03496976 0.1311318 -0.1718911 0.007806441 -0.15245382 -0.24225736 -0.103269294 -0.11771722
0.14778376 0.15327488 -0.10762995 -0.21148114 0.16483739 0.0189649 -0.024887208 -0.23453437
00000000: 5188 3fbe c589 4c3d 2623 15be 633e bdbd
00000010: 49e8 73be 251e 803e 13ea 5c3e 61f6 643e
00000020: 9dd4 343e 08d5 5a3e 283b 2f3e 5b43 2abe
00000030: 0351 8c3b 8c53 78be bd7c 533e d687 6d3d
00000040: e139 01be dd55 04be 0e3c a3bb df69 7ebe
00000050: ad0b 023e 248d 0cbe ea30 4f3e 4073 793d
00000060: 3a31 ce3d 90ac 6abe 74fd a73d 01d5 8a3c
00000070: fb09 1bbe d109 373e 3880 1abe 02a6 673e
00000080: 0348 043d cdea 8a3d 7eed 3dbd 28c5 4b3d
00000090: 888a a43d 656a 91bd 82a2 193e a779 553e
000000a0: 733c 0fbd 6a47 063e 3804 30be 2ccd ff3b
000000b0: db1c 1cbe 5012 78be da7e d3bd ba15 f1bd
000000c0: a054 173e 17f4 1c3e 176d dcbd 838e 58be
000000d0: 22cb 283e 475c 9b3c 42e0 cbbc c729 70be
